VQ-VAE/models/vqvae/model_14.pt (torch, 579012 bytes, 64 tensors)

encoder.0.weight f4 [40, 1, 4, 4]
00000000: c6c4 7b3d 7870 1a3d 69b4 cabd 9627 02bb
00000010: 32ef ccbd ca7f 60bc 2301 07bb ab6c 8ebd
00000020: a105 bcbd 96b9 053c bc2d efbd d88a 213d
00000030: 3ea4 823b f4f5 88bd cc0a b13b 2afb 1e3d
00000040: fc73 df3c 54dd 883d 3ac0 3fbd 2f09 423d
00000050: 4ddb 073e 650a 023e 6ce4 863c 8c41 173d
00000060: 85aa ba3d 3eda ca3d 13cf 75bd fc1e 4ebd
00000070: 03c7 333d cdcb 203d 5a05 09bc 8170 b33d
00000080: eeea 8d3d db05 9a3d be26 6d3d 0b22 553d
00000090: a6f1 213d ce80 173d 0cd2 6bbc f4c5 9a3d
000000a0: 2085 b53d cf36 a03d 8543 743a c0d0 763d
000000b0: bf66 4b3d 4767 0d3d c097 e63c 0826 203c
000000c0: 90d0 cc3a c80b 9f3d 263d 973d 72eb 223d
000000d0: eb45 a63d be95 213d 82d5 b5bb 5bbd 96bd
000000e0: a23a df3d bb53 0ebd f80c 673c ffc2 43bd
000000f0: 3dd5 833d d1b2 823d c433 ad3c 20a5 373d
00000100: 18ff cc3c a426 34bb 277f 26bc 9cff 663d
00000110: 7922 b83c 17e0 19bc 028d b53d c970 d1bc
00000120: e0df 64bd f0f4 cfbb 4b04 143d 49a1 643d
00000130: 8e02 7c3d 69c2 8abd eaf0 5d3d a68b 093e
00000140: 1e89 90bd 19af 113d 2fb4 b0bd 9edc 15bd
00000150: 8cb9 debd 80a8 afbd 6271 9dbd bd0c 283d
00000160: 2c64 7cbd 13f6 43bd 784d 84bd ef34 753d
00000170: b91e 98bd 2397 2fbd 388f 493d 640e 10bd
00000180: e5a8 cf3b 64ba 8f3d 8c37 05bd f0a2 303c
00000190: bcf9 4a3d fc8d 8bbc a23d 23bd 40ef 13bd
000001a0: 76a6 983d 1d8c 08bd ba74 52bd df5c 7a3c
000001b0: b597 b6bd c49e 44bd ca45 2bbc 7560 85bd
000001c0: 648e 33bc 5ea6 3f3c a527 ebbd 33ac 7fbd
000001d0: df32 12bd d966 d03c 1421 8ebd f6ef 333d
000001e0: 703a bfbd af5e 7abd 2b98 573d c9f4 52bd
000001f0: 2f50 2cbb 9657 813d fcf9 c8bd 5cc3 6f3c
00000200: 1fe8 44bd eee7 6ebb 465a 11bd c16d 9b3c
00000210: dc26 e3bc fa42 0f3d a02d 9c3d c6d1 cc3c
00000220: 33dc 883d 47e1 ca3d b238 69bd 13e7 813b
00000230: fcd6 003e 49ed 973d 2fc8 493c 98f4 4a3d
00000240: 7261 0d3d 2990 13bc 92bc 3e3d 5429 d83c
00000250: 63da 55bd 1736 bbbd d104 adbd b173 4a3d
00000260: a6b2 d5bd 674f 55bd 890e 40bc d889 efbc
00000270: a3a2 84bd 1d3a 9f3d 2d5a 52bc 9ccd c23d
00000280: 6f81 5e3d ddf5 3a3c 516f 14bd 2540 0ebd
00000290: 1acd a13d be0d e1ba ac29 34bd 8072 4ebd
000002a0: 4491 493d da93 1c3d 86bc b5bb 312e 6fbd
000002b0: 3770 763d 97a6 963d c822 25bd 4e31 aebd
000002c0: 95b3 91bd 620e de3b 40e0 ce3b 66c3 bf3b
000002d0: 2eb7 8f3c 37cc 23bc d4f0 dfbc 0398 c3bd
000002e0: 50c0 1abd 80c2 abbd 5392 92bd fad3 d3bd
000002f0: b0ca 1cbd 4198 52bd e4e4 123d cd2c 6bbd
00000300: f2ea 8d3b 5fc9 313d 8924 3a3d daff 17bd
00000310: c68a 073d ed94 abbd 4763 25bb 81b7 78bd
00000320: e5eb 3ebd e4b0 a1bd a035 a2bc d1ce 98bd
00000330: 3fa2 b2bd 800c 3a3c 3943 b0bd 84f1 acbd
00000340: 6992 bfbd 3cc8 c4bd 4ba7 19bd 2d1a 9e3b
00000350: a14a 58bd 3073 b4bc 40c2 cd3c 73a6 cfbd
00000360: 97ac 543d 93c8 a3bd c25a 41bd bd4f 453c
00000370: 573c 6b3d c586 e83c fdcc 71bb bf05 8fbc
00000380: bedf 823c 5e9b c93c 8add 0bbd 5d7f 713c
00000390: 93bb 223b cab2 37bd 708a 473d 56bd 8f3c
000003a0: 7e04 403d 275c 7d3d 7bf5 e23d 157d b03d
000003b0: b27f 3c3d 4a2c a63d 7319 da3d bd0b 193d
000003c0: 7fed 34ba 39ac c5bd 717f 293d 657e 54bd
000003d0: 386d e2bb 450c 3fbc 52a3 34bd 40fb 09bd
000003e0: 8c3e a0bd e956 66bc 3203 4abc b42a 5abd
000003f0: 9de6 193c e256 17bd 216f 65bd f81c adba
0.061466955 0.037704915 -0.09897692 -0.001986002 -0.100065604 -0.013702342 -0.0020600043 -0.069543205
-0.09180761 0.008161923 -0.11678645 0.039439052 0.0039868644 -0.06687537 0.0054028984 0.038813747
0.027276985 0.0668284 -0.04681418 0.04737204 0.1326725 0.12699278 0.016466342 0.036927745
0.09114555 0.09904908 -0.060011934 -0.050322518 0.043890964 0.03925686 -0.008363092 0.08761693
0.06929575 0.07520648 0.057898276 0.05203442 0.039537095 0.036988072 -0.014393341 0.07557288
0.08863282 0.07822954 0.00093179225 0.060257673 0.049658533 0.03452232 0.028148532 0.009774692
0.0015626121 0.07765919 0.0738471 0.03977532 0.081188045 0.039449446 -0.0055491338 -0.073603354
0.10899855 -0.03474782 0.014102213 -0.047793385 0.06437156 0.06381763 0.021142848 0.04483521
0.025023982 -0.0027488852 -0.010162151 0.05639611 0.022477375 -0.009391806 0.08864786 -0.025566475
-0.055877566 -0.0063463375 0.036136907 0.055817876 0.061525874 -0.06775362 0.05418483 0.13432178
-0.07057403 0.035567377 -0.08628117 -0.03658735 -0.10875234 -0.08577061 -0.07687642 0.041027773
-0.06161897 -0.047842097 -0.064600885 0.059864935 -0.07427735 -0.042868745 0.04920885 -0.035169974
0.0063372725 0.07017973 -0.032523677 0.010781035 0.04955457 -0.017035477 -0.0398537 -0.03611684
0.07453625 -0.033336747 -0.05138085 0.015280931 -0.089156546 -0.048002973 -0.010453651 -0.06512538
-0.010959242 0.01169738 -0.11482171 -0.06242008 -0.035693046 0.025439667 -0.06939903 0.043930016
-0.09337318 -0.061125454 0.052635353 -0.051502977 -0.002629291 0.06315534 -0.09813306 0.01463398
-0.04807293 -0.0036454159 -0.035486482 0.018973233 -0.02772849 0.034975983 0.0762589 0.025002372
0.06682625 0.099062495 -0.056938834 0.003964314 0.1258201 0.074183054 0.012315794 0.04954967
0.03451676 -0.009006538 0.046566553 0.026386894 -0.052210223 -0.09141176 -0.08448184 0.04942674
-0.10434465 -0.052077677 -0.011722215 -0.029240534 -0.06476333 0.07774756 -0.012838882 0.09511873
0.054322656 0.011411157 -0.036238972 -0.03472914 0.07900448 -0.0017170233 -0.043985054 -0.050402164
0.0492108 0.03822694 -0.0055461554 -0.05839366 0.06016561 0.07355993 -0.040316373 -0.08505498
-0.07114331 0.006776617 0.006313354 0.0058521507 0.017543402 -0.009997419 -0.027336515 -0.09550478
-0.03778106 -0.08386707 -0.071568154 -0.10343166 -0.038279235 -0.051414732 0.03586282 -0.057415772
0.004330986 0.043404933 0.045445 -0.037109233 0.03309133 -0.08378015 -0.0025236176 -0.060721878
-0.046611685 -0.07895067 -0.019800961 -0.07461322 -0.08722352 0.011355519 -0.08606572 -0.08444503
-0.093540974 -0.09608504 -0.03751306 0.0048248977 -0.052805547 -0.022027582 0.02511704 -0.101391695
0.051922407 -0.07997241 -0.047205694 0.012042937 0.05743059 0.028384576 -0.0036895864 -0.017458795
0.01597583 0.024610218 -0.034146823 0.014739838 0.0024831041 -0.04484824 0.04871601 0.017546337
0.046879284 0.06185546 0.11081978 0.086176075 0.046020217 0.08113916 0.10649385 0.03736471
-0.0006901845 -0.096519895 0.041381303 -0.05187835 -0.0069099925 -0.01166064 -0.044101067 -0.033686876
-0.0782443 -0.014058807 -0.012329863 -0.05326338 0.009393361 -0.036948092 -0.056014184 -0.0013207486

encoder.0.bias f4 [40]
00000000: ac35 2bbb e0a6 c0ba 772e baba 5939 1abb
00000010: c35f 36bb 7bb1 7f3a 1588 af3a c03e 403a
00000020: 700d aaba e259 233b a237 b13a ca18 8bba
00000030: ebc4 a3ba cbf7 0cba 79e0 05b9 1e17 0d3b
00000040: 9403 8eba b069 d6ba 221c eb38 8285 f238
00000050: 46c5 92bb 599c 7739 bf83 9aba f4b7 60bb
00000060: dff0 b93a 38e4 17ba e1e4 0d3b 7342 253a
00000070: 071f 71ba accd 973a 2e03 ed3a ef53 743b
00000080: 4d2a 78b9 90b8 30bb 6c60 1f3b 68eb aeb9
00000090: e818 06bb 9d95 f2ba 8769 68ba 58f7 90ba
-0.002612452 -0.001469817 -0.0014204521 -0.0023532717 -0.0027828075 0.00097539247 0.0013391996 0.0007333569
-0.0012973975 0.00249254 0.0013520608 -0.0010612246 -0.0012494599 -0.00053775 -0.00012767491 0.0021528671
-0.0010834807 -0.0016358402 0.00011210913 0.00011564327 -0.004479083 0.00023614 -0.0011788531 -0.0034289332
0.0014186165 -0.00057942 0.0021651315 0.0006304152 -0.0009198044 0.0011581681 0.0018082613 0.0037281474
-0.00023666881 -0.0026965477 0.0024318947 -0.00033363258 -0.0020461623 -0.0018507723 -0.00088658225 -0.0011060042

encoder.1.weight f4 [40]
00000000: 087d 6a3f 4ecd 673f f05d 713f 4f5d 683f
00000010: 3565 603f 4c42 793f 736c 693f 76ff 603f
00000020: f28d 703f 3f07 6b3f ee77 6c3f a740 6e3f
00000030: 2f22 793f cf74 6e3f a27d 743f cede 7f3f
00000040: 4c72 6e3f ed63 773f bcf5 683f a376 7b3f
00000050: b8c0 693f 4627 6e3f 7ec8 603f e1e8 6b3f
00000060: 3c7a 5c3f 5ebe 693f 69a6 653f 36d1 653f
00000070: 120a 643f 3e5d 773f 8b7c 763f fe22 6b3f
00000080: a4a9 7a3f 6908 713f 4378 713f 36bc 633f
00000090: 6962 7e3f 2574 823f cca3 843f 4642 6d3f
0.9159703 0.90547645 0.9428396 0.9076738 0.8765443 0.97366786 0.91181105 0.878898
0.9396659 0.9180793 0.923705 0.930674 0.97317785 0.93146986 0.955042 0.9994935
0.93143153 0.9663685 0.9099996 0.982279 0.9130969 0.93028677 0.87805927 0.9215222
0.86124015 0.913061 0.89707047 0.89772356 0.89077866 0.9662665 0.9628379 0.9185027
0.979151 0.9415346 0.9432413 0.8895906 0.9936891 1.0191694 1.0362487 0.9267925

encoder.1.bias f4 [40]
00000000: d7b3 bebc bd32 b53b 2b2f 0e3d cd89 523d
00000010: 6e15 313c 8b3d 0cbd b60c 3abd ba48 5dbd
00000020: 8672 d13c c6e6 573c 97c6 d73c 7677 e0bc
00000030: 731f 46bd 13f0 1fbd 1e00 903d f198 afbc
00000040: dea4 dfbb d9c5 27bd 9ec5 77bd 2019 a9bc
00000050: 17f6 9d3c ad84 9bbc 6785 e43d 53f9 e8bc
00000060: 5a5b a53d 6193 eebc 378a 193e e144 be3d
00000070: 2ef1 7abd 2616 ecbb 4d18 aabc 58ab 29bd
00000080: bf1a 0cbc edbb b43d d774 88bc d3d5 7ebc
00000090: 50b9 0bbd b177 8bbd 2a07 e6bc 2247 1cbd
-0.023279114 0.00552973 0.03471295 0.05140095 0.010808332 -0.03423838 -0.04542228 -0.054024436
0.025567304 0.013177579 0.026339812 -0.027400713 -0.048369836 -0.039047312 0.07031272 -0.021435233
-0.0068250736 -0.040960167 -0.060491197 -0.020641863 0.019282384 -0.018984163 0.11158257 -0.0284392
0.080740646 -0.02912301 0.14994131 0.09290481 -0.061265163 -0.0072047887 -0.02076354 -0.04142317
-0.008551299 0.088249065 -0.016657276 -0.015553909 -0.034112275 -0.06809939 -0.028079588 -0.038153775

encoder.1.running_mean f4 [40]
00000000: 0836 863e 9e80 e2be 7631 00bf e4aa 9fbe
00000010: 6124 70be f4c0 d53e f107 0b3e f149 873e
00000020: 50b4 91be 051b 193e 7ede 93bb 7115 c93e
00000030: 0682 b53e f0e9 833e 72de dabe edf9 9d3e
00000040: 1050 75be 159d e13e 2323 983e b5fd 903e
00000050: 2645 87be cc94 643e d57a 40be e8b9 6d3e
00000060: 7721 e8bd 2333 113e f268 1dbe 6e2f c7bd
00000070: c6a6 553e ad8d 9e3e 7ee3 ad3e 7bd1 853e
00000080: 3663 893e 94ca 85be 4f75 673e 8045 4dbe
00000090: 8119 f93e 24bd ab3e 7528 ca3e ace4 223e
0.26213098 -0.44238752 -0.5007547 -0.31185067 -0.23451377 0.41748774 0.13577248 0.264236
-0.2845788 0.14951713 -0.004512607 0.3927417 0.35450763 0.25764418 -0.42747837 0.3085474
-0.23956323 0.44065157 0.29714307 0.28318563 -0.26419944 0.22322387 -0.18796857 0.23215449
-0.11334508 0.14179663 -0.15372065 -0.09725843 0.208644 0.30967465 0.33962625 0.26136383
0.26833504 -0.26131117 0.22603343 -0.20046043 0.4865227 0.3354274 0.3948399 0.15907544

encoder.1.running_var f4 [40]
00000000: 194a 213d 0dd5 b83d 1d41 c43d e7b8 5a3d
00000010: 4279 e43c 28a4 b63d 6b45 bb3c e859 003d
00000020: 30f5 4e3d 76ac 0c3d f5ed 083d 9441 843d
00000030: 6048 873d aca8 0c3d 04cf b33d 4c6e 133d
00000040: 9c68 393d a1ab ae3d f99d 283d 189b 2f3d
00000050: 1ca5 093d c296 dd3c 8bea 873c ee0b 273d
00000060: 6373 d93c 2746 173d 43a0 f33c d7cd ff3c
00000070: 9030 363d 4256 693d 3d13 a23d 06db 533d
00000080: 077a 233d c03c 193d 7e8c a03c 510d 2c3d
00000090: c9ee eb3d 9bc9 4d3d 7cbe 823d d3cc df3c
0.039377306 0.09025011 0.09582732 0.053398993 0.027889851 0.08918029 0.02286025 0.03133574
0.050526798 0.03434416 0.03343006 0.064578205 0.06605601 0.034340546 0.087797195 0.03599386
0.04526578 0.08528829 0.04116628 0.04287252 0.033604726 0.027049426 0.016591331 0.04078286
0.026544278 0.036932137 0.029739505 0.031226082 0.044479907 0.056967027 0.07913826 0.05172255
0.039911296 0.03741145 0.019598242 0.042004887 0.11520154 0.050241094 0.06383988 0.027319347

encoder.3.weight f4 [40, 40, 4, 4]
00000000: d153 58bc cc14 d7bc 106a a23c a0d1 0abd
00000010: 7ce6 c8ba 3467 d6bc e763 65bd 46b8 d83a
00000020: 354a 973c 29fd aa3c e644 bdbc fb4c f63c
00000030: 72c8 533d 7b70 0a3d 0fc0 2d3c 04ef a63b
00000040: 67c5 11bd d34d bebb 7b69 3e3d 4e64 2fbd
00000050: fbbe a5bc 3440 22bd 1510 de3c f1c8 543d
00000060: a75a 1e3d 7f15 fe3a 8239 c4bc 387e 843d
00000070: 3e91 f1ba 6fae d73b 2658 6d3d cc78 53bc
00000080: 4c9d 0fbd 47a4 cabc b1cf 91bc bfc4 26bd
00000090: 4791 693c 7387 95bd af92 8cbd b147 c9bc
000000a0: 78be a03c 25ce 9c3b ba99 8abd 9d5b e83c
000000b0: 0778 953d 3eac 38bd ba5e c1bb 97e0 6a3b
000000c0: 07bb 463d 92ee 78bd 7808 edbc 6da9 2c3d
000000d0: 5214 b03c bbd8 5dbd 071e 81bc 172e 3ebc
000000e0: 1bf3 293d 7c76 28bd 9536 fc3c 4544 7a3d
000000f0: b99e 44bc 269b 493d eb26 13bd a83a ddbc
00000100: c358 023d 227b 933b 6d5c cabc 3564 493c
00000110: 08ce 023d fb41 44bc 1153 773c 9102 813b
00000120: 99fa 08bd 0588 893d dcb7 19bc f707 273d
00000130: 6a9f 49bd f86f 1bbc 6d7c 5a3c db4e 8dbc
00000140: 1ec4 0cbd fefe 703c 5299 dfbb 0942 c0bb
00000150: 8a70 1bbd 9193 1a3c 468a 1c3d 6860 26bd
00000160: e40d 1cbd e55e 313d 69cd 8abd 6055 8abd
00000170: d382 1c3d cd8e 303d d0d0 38bd df78 8ebb
00000180: c6b0 273d 9225 093d c133 96ba 852b 1f3b
00000190: 8482 d2bc 5b5c 20bd 0f17 48bd 03f0 943d
000001a0: e239 b33c 382c 523d 8151 503d 196e 413d
000001b0: 702f d33c 372f 54bb 2fc5 1eb9 7859 2abd
000001c0: c850 f73c 7cc6 383d a7f4 3c3d e31c 70bd
000001d0: 25eb e73a 9410 3bbd 0fc2 fb3c 6301 163d
000001e0: a15a 50bc 49f6 dcbc f8bc 8d3b e087 913b
000001f0: 7dd7 ffbc 06ec 1e3d 71b5 ce3c 69d9 06bd
00000200: be34 bbbb 0495 80bd 4b9f d3bc 0ce3 93bc
00000210: dbb6 343d 3164 d9bc 3a9b 1a3d bbed d7bc
00000220: 93bc 983c a411 f73a a3cc 1f3d cdb4 8cbc
00000230: 54c3 f6bc b77c 1d3d 5f8d 803c 8f06 5fbc
00000240: a08f c73c d0d0 20bc e9bd e0bc 89ed 9e3c
00000250: d4fa eebc 0cac 063d 373f 70bd dbc7 08b9
00000260: 9eed 813b a096 3fbc a371 f33c e8df b03c
00000270: 471a c5bb 279a 33bd 128d 0d3d 37cf ab3b
00000280: 6671 523b 8c6f 4d3c 47ce 333d b1cc fcbb
00000290: c470 81bd 267e e63d 4a20 8a3c 5959 80bd
000002a0: 099f 42bd 9b14 763d 3cb8 8d3d 80c6 ab3b
000002b0: b297 693d f165 483d a5f7 843c b87d c13c
000002c0: b376 3ebd 3d55 bd3b 4c6e dc3c 94d0 7a3d
000002d0: 13b8 c83c 2ce6 c63b 53c6 52bd f31d a63c
000002e0: eaec d7bc e8cb 1bbd c1ad 903c a235 5fbc
000002f0: 5ade 7abd 77f4 86bc 51e0 8a3b 3ea2 413d
00000300: ee04 febc 102d 583d 2e01 f4bb e1db 63bd
00000310: 3d40 1fbd b430 e5bc c542 2b3d c684 64bc
00000320: 64ad 3abd 9dcf 98bc 6997 1fbd ab62 fcbb
00000330: cca5 a33c 6189 9b3b 3630 bc3c 6733 54bd
00000340: 64ed 26bd c27f 70bb 5dd0 8e3c fefb d13c
00000350: 2f5d 8f3d 3b07 c83d 8a58 e7bb 27a3 4cbc
00000360: cc7a 573d b310 c33a ba3d 523c 4659 2f3c
00000370: 70e4 653d 2dfd d83b b8e6 47bc c620 2e3c
00000380: 271f 1d3d 6a16 0cbd 0e17 1b3d 64e7 513d
00000390: 25cd e83c 423a 63bd 2fb3 b8bc a65c 813d
000003a0: a419 533d 73ca 6b3b 3faa 083d 7931 223d
000003b0: 365e 9e3c 3394 5f3d 4ba1 06bd cc66 7abc
000003c0: eae7 0d3d 46cd 83bd 0308 49bc 747f 653c
000003d0: 84c3 8e3c c178 4fbd 386d eb3c 565d 0bbc
000003e0: 6a01 7c3d 105e 5a3c 3e41 02bd 54d9 fa3c
000003f0: 8b6a 1b3d f869 07bb 3ad0 9d3c 5079 57bd
-0.013203577 -0.026255034 0.019825965 -0.03389132 -0.0015327479 -0.026172258 -0.056003477 0.001653441
0.018468002 0.02087267 -0.023104142 0.030066004 0.05170483 0.033798676 0.010604872 0.005094411
-0.03558865 -0.005807617 0.046487313 -0.042820267 -0.020232668 -0.03961201 0.027107278 0.051949445
0.03866067 0.0019385068 -0.023953203 0.06469387 -0.0018430126 0.0065820734 0.057945393 -0.012907218
-0.03506212 -0.024736537 -0.01779923 -0.040714975 0.014255828 -0.073012255 -0.06863915 -0.024570318
0.019622073 0.0047853165 -0.06767602 0.028363997 0.07298284 -0.045086138 -0.005901185 0.0035839432
0.048518207 -0.060774393 -0.028934702 0.042153765 0.021494064 -0.05416177 -0.015761388 -0.011607668
0.04149161 -0.04112862 0.030787745 0.061100263 -0.012000733 0.049220227 -0.035925787 -0.027005509
0.03182293 0.0045007626 -0.024702275 0.012291958 0.031934768 -0.011978622 0.015095488 0.0039370735
-0.033442114 0.06715397 -0.009382214 0.04077908 -0.049224295 -0.009487145 0.0133353295 -0.017249515
-0.03436672 0.014709232 -0.006823697 -0.005867247 -0.037949122 0.009434597 0.038217805 -0.040619284
-0.038099185 0.04330339 -0.0677746 -0.06754565 0.0382107 0.043104935 -0.045121014 -0.004347905
0.04094007 0.033483095 -0.0011459516 0.0024287414 -0.025697 -0.039150577 -0.048850115 0.07272341
0.021878187 0.0513117 0.05085898 0.047224138 0.025779456 -0.0032376775 -0.00015141511 -0.04158923
0.030189887 0.045111164 0.046131756 -0.0586213 0.001769398 -0.045670107 0.030732183 0.036622416
-0.01271692 -0.026972907 0.0043255053 0.0044412464 -0.031230683 0.03879931 0.025233002 -0.032922182
-0.0057130745 -0.062784225 -0.025832793 -0.0180526 0.044119697 -0.026537033 0.03774569 -0.026358476
0.018644607 0.0018849862 0.039013516 -0.017176056 -0.030122437 0.038449015 0.015692411 -0.013612404
0.024360478 -0.00981541 -0.027434306 0.019400375 -0.029172339 0.03287892 -0.058654036 -0.00013044423
0.0039650938 -0.011693627 0.029717272 0.021591142 -0.0060150954 -0.043848183 0.034558363 0.005243208
0.0032111048 0.012538802 0.043897893 -0.007714831 -0.063203365 0.1125453 0.0168611 -0.06267042
-0.04751495 0.060078245 0.069199055 0.005242169 0.057029434 0.048925344 0.016231367 0.023619518
-0.04649992 0.0057779835 0.026908062 0.06123407 0.024501836 0.006069919 -0.051458668 0.020277953
-0.026358087 -0.038036257 0.017660977 -0.013623627 -0.061247207 -0.016473992 0.0042381664 0.047273867
-0.03100821 0.05277735 -0.0074464297 -0.055629615 -0.03887962 -0.027977325 0.041811723 -0.013947671
-0.045575514 -0.018653685 -0.038962755 -0.007702192 0.019976519 0.0047466015 0.022972208 -0.051806834
-0.040753737 -0.0036697243 0.01743334 0.025632855 0.07000195 0.09767004 -0.007060115 -0.01249007
0.052607343 0.0014882296 0.0128321 0.010702437 0.056126058 0.006621978 -0.012201004 0.010627931
0.038359787 -0.034201063 0.037863784 0.051246062 0.028418133 -0.05547548 -0.022546379 0.063164994
0.051538125 0.0035978823 0.033365484 0.039597962 0.019332033 0.054584693 -0.032868665 -0.015283298
0.034645 -0.06435637 -0.012269977 0.014007438 0.017427213 -0.05065227 0.028738603 -0.00850614
0.061524786 0.01332809 -0.0318005 0.030621208 0.037943404 -0.0020662528 0.01926433 -0.052605927

encoder.3.bias f4 [40]
00000000: 2e2d 573c 2864 ab3c 363c 0fbc 67cd 6fbc
00000010: a80e fa3c caa4 58bb e473 873d 864e 69bc
00000020: df67 0c3c e5df 9fbb a831 f73a 8210 47bb
00000030: 7217 50bc fc69 983b 907b cb39 8604 943c
00000040: 6953 a6bb 59d9 1cbc f013 1abc 61cb 74bc
00000050: 41be 00bc 8c6e de3a e942 8b3d d70f cbbb
00000060: 085f 9fbc f8e2 393c c968 4a3c d7ce 2cbb
00000070: 65ef ef3b df11 1d3c 9e6b 77bc d56d 0bbc
00000080: f9f6 e6bc 80f6 d9bb 7b42 76bc 5ca6 dcbb
00000090: 0a84 36bc 8b09 c2bb be3c ddbb 729c 333b
0.01313333 0.020921782 -0.008742383 -0.014636374 0.030524567 -0.0033057206 0.06613901 -0.014239913
0.008569687 -0.004878985 0.0018859403 -0.003037483 -0.012700902 0.004651306 0.00038811238 0.018068563
-0.0050758612 -0.009573304 -0.0094041675 -0.014941067 -0.00785786 0.0016970201 0.067998715 -0.0061969566
-0.019454494 0.0113456175 0.012354084 -0.0026368403 0.007322239 0.00958678 -0.0151013415 -0.008510073
-0.028193938 -0.0066516995 -0.015030499 -0.006733699 -0.011139879 -0.0059215478 -0.006751626 0.002740648

encoder.4.block.1.weight f4 [40, 40, 3, 3]
00000000: 5c80 963c 7580 d0bc 988e 38bd f8ca 18bd
00000010: ebdf 9cbd 0b1e a6bd 66ca 77bd eb56 adbd
00000020: 4511 84bb 24d1 03bd 5bce a2bc 7fbb ac3d
00000030: 7f2f 953d f2d6 783d 9da9 c7bd 26dc 99bc
00000040: 655f 613d a6c9 9d3d 468e e23b 0059 133d
00000050: d91e 863d c403 903d 2b05 963d a570 c1bc
00000060: 1408 10bb 1127 213d 0999 8b3d dad4 bebc
00000070: f89a 9f3c 2ac5 883d a669 8dbd ec58 eebc
00000080: 6c58 b9bd d264 87bd a247 8c3d 1b4b 7cbd
00000090: 0542 39bd ce2a 4ebc a938 913c 1d97 d73d
000000a0: 3dcb 3c3c 55db cdbd 4a3d 193d 8abb 883b
000000b0: def1 3cbb 5858 883c 1851 95bd a3a1 0abb
000000c0: 6abc df3d 2a55 803c 1ac9 c7bc 9f9a ab3d
000000d0: aa59 76bd e6b2 4cbd be3f efbb eb1a d13d
000000e0: 4849 903c 3d49 923d a724 db3d 4e83 76bd
000000f0: 2fb0 933b 1639 4a3d 4af2 463c 0daa 8cbd
00000100: 050b 85bc 7e14 7d3d 942c 84bd 3a54 593d
00000110: d7e6 80bb 2aa7 063b cb97 a6bd 191e 82bd
00000120: 8d6e 2dbd 3f81 debc 8c67 dcbc ee38 f33c
00000130: 5de4 0e3d dc9f 7abc 9192 5fbd 836d aabd
00000140: 8884 433d 0327 883d 93c6 44bd 6423 abbc
00000150: 468e 883d ae07 aa3d 430e ddbd 1d0f 99bd
00000160: 7f01 b23c 6bc7 d8bc b69c 343d e590 fdbc
00000170: d906 21bd 045e 38bd f5c9 a2bd ec8b 3f3d
00000180: 6df0 563d b2bb 04bd 7be7 67bd 5392 3dbd
00000190: ba3b 19bd 153e bfbc 0920 823d 957d 7d3d
000001a0: 1a83 82bc ed31 4aba 48f8 77bd 962a 48bd
000001b0: 34dc f0bc 5464 963d 4df4 fbbb 6153 bbbd
000001c0: 007a c63c 0de6 5b3c 5346 a1bd fc55 10bc
000001d0: a345 07bd b5de 213d 2c09 293c 028c 42bd
000001e0: feb9 7d3d 8036 e8bc 8b13 aebd 87b9 353d
000001f0: 8c53 bdbc 20d9 903d fedf 7b3c a1ee cc3c
00000200: 7bd7 52bd d870 e33d defe dabc 534d 2b3c
00000210: bbc5 453c d9d7 443d bf97 b7bd ed48 38bb
00000220: e1cf 513c c472 3e3d cf52 ebba c57c 923a
00000230: 9cf3 233c 6c40 0f3c 9649 473d 5b6b 33bd
00000240: a110 dcbc 1725 67bd fbd9 b1bd 03a3 a13d
00000250: cff9 4abd d229 fc3c b5c5 90bd 5460 1cbd
00000260: 0711 633c 5a60 b13d 97f3 1a3d 5cd6 03bd
00000270: 9992 b2bc ec47 93bd d989 36bd c949 2cbd
00000280: 4917 863d 1792 8a3c f525 3d3d 872a 843d
00000290: 1d7d 6fbd 436c 803d 2f40 7dbc aaad a33c
000002a0: cc2e b73d 3480 1fbd 5fb8 993c c837 b93d
000002b0: cacc afbc a736 0fbd 5ec4 52bd 81db fabc
000002c0: 5cf8 9f3c 197e d8bd 7b48 9cbd dffd 64bc
000002d0: d97a 0dbc a63c 8e3d 3b3f 87bd de58 a63d
000002e0: 00d5 a6bd a700 cbbc b299 0bbd 3b13 a73d
000002f0: 4bd3 ba3d 0fbf 0dbd e731 f73c 6a9f 93bd
00000300: ac1d 3e3b 0f4b 483b 5ae8 58bd 6363 febc
00000310: ae69 1f3d e16f 003c a29a 163d a610 2cbc
00000320: a20c dd3c 9fae 3fbd a553 f73c f169 20bd
00000330: 552e 27bb f192 8fbd 519e 323b cc0f 6c3d
00000340: 06d7 493d 8e94 9bbd 0dd0 0bbd 5970 89bd
00000350: 28b1 7cbb 7207 d5bc ae8f cb3c 6e51 683d
00000360: 0d4d 693d 173c 81bd 9974 073c 9675 953d
00000370: 764b b83d 943a 13bd 8d1f c63c 44d9 733c
00000380: 4949 6c3d e9e2 39bc 0fa4 c33b e011 b6bc
00000390: 7ab6 05be 8879 243e 636a 0d3d 319f 833d
000003a0: c995 d33c 9bfc 533b 6156 6bb8 b8d7 9b3d
000003b0: fc0f a53d f808 243d 35d9 8b3d daf7 f43c
000003c0: 39e4 a1bc 2f13 c5bd b154 5dbd 9bd5 6cbd
000003d0: 05bf edbc 953c 1abd acb7 743d a7cc 0f3b
000003e0: 7f25 853d 609f 72bd 121e 543d eee4 c4bd
000003f0: f0f1 073d 1336 79bc 3a52 123e 970d d83c
0.018371753 -0.025451878 -0.045057863 -0.03730294 -0.076598965 -0.08111199 -0.060495757 -0.08463844
-0.004030379 -0.032181874 -0.019873789 0.084341995 0.0728445 0.060751863 -0.09749148 -0.018781733
0.055022616 0.07704477 0.006913933 0.03597355 0.065488525 0.07031968 0.073252045 -0.023613283
-0.0021977471 0.039343897 0.068162985 -0.023294855 0.019483075 0.06678231 -0.069049165 -0.029095136
-0.09050068 -0.06611027 0.068496004 -0.061595064 -0.045228977 -0.012583448 0.017727213 0.105268694
0.011523065 -0.100516 0.037411965 0.004172747 -0.0028830688 0.016643688 -0.07290858 -0.0021153472
0.10924609 0.01566561 -0.024387885 0.08379101 -0.060144104 -0.0499753 -0.0073013 0.10210212
0.017613068 0.07142875 0.1070035 -0.060183816 0.0045070867 0.049370848 0.012142727 -0.06868372
-0.016240606 0.06178712 -0.06453815 0.05305884 -0.0039337683 0.0020546415 -0.08134421 -0.06353397
-0.042341758 -0.027161239 -0.026904844 0.029690232 0.034885753 -0.0152969025 -0.054583136 -0.08321669
0.047733814 0.06648066 -0.048040938 -0.020890899 0.066677615 0.08302246 -0.10793736 -0.07473586
0.021729229 -0.026462277 0.044094764 -0.03095288 -0.03931317 -0.045011535 -0.079486765 0.0467643
0.05247538 -0.032405563 -0.05661724 -0.046282124 -0.037410475 -0.023345033 0.063537665 0.061887342
-0.015931655 -0.0007713128 -0.060539514 -0.048868738 -0.029401876 0.07343355 -0.007689035 -0.09146763
0.024228096 0.013421548 -0.078747414 -0.008809563 -0.033025395 0.03951903 0.010317128 -0.047496803
0.061944954 -0.0283463 -0.08499821 0.044366386 -0.023111127 0.07072663 0.015373228 0.02501613
-0.05147503 0.111055076 -0.026732858 0.010455447 0.012071068 0.04805741 -0.0896449 -0.002811964
0.01280591 0.046496168 -0.0017953756 0.00111761 0.0100068115 0.008743387 0.04865416 -0.043803554
-0.026863398 -0.056431856 -0.086841546 0.0789242 -0.049554642 0.03078166 -0.070689596 -0.038177803
0.01385904 0.08660956 0.03782996 -0.03218685 -0.021798419 -0.071914524 -0.044565056 -0.042062555
0.0654741 0.016915364 0.046178777 0.06453424 -0.058468927 0.06270649 -0.015457197 0.01998027
0.08944473 -0.038940623 0.018764673 0.090438426 -0.021459956 -0.03496423 -0.0514568 -0.030622246
0.019527607 -0.10570926 -0.07631012 -0.013976543 -0.008635246 0.069451615 -0.06603857 0.08122419
-0.08146095 -0.024780584 -0.034082122 0.08157965 0.09122332 -0.034606036 0.030175162 -0.0720814
0.0029009385 0.0030562317 -0.052955963 -0.03105325 0.038919143 0.007839174 0.036768563 -0.010502016
0.026983563 -0.04679739 0.030191252 -0.039163534 -0.0025509794 -0.07010449 0.0027255008 0.057632253
0.049277328 -0.07596694 -0.03413396 -0.06710882 -0.0038557742 -0.026004527 0.024848785 0.056718282
0.056958247 -0.06310289 0.008267545 0.07297818 0.08998768 -0.035944536 0.024184966 0.014883343
0.057687078 -0.0113456035 0.005970485 -0.02222532 -0.1305789 0.16061985 0.034525286 0.06426848
0.025828259 0.003234661 -5.6108813e-05 0.076095045 0.080596894 0.040047616 0.06828538 0.029903341
-0.019762145 -0.096227996 -0.054035846 -0.057820898 -0.02902175 -0.03765543 0.059745476 0.002194205
0.065012924 -0.059234023 0.05178649 -0.096139774 0.033189714 -0.015210646 0.1428918 0.026373668

encoder.4.block.1.bias f4 [40]
00000000: 14c8 353b 107d acbb ab98 ccb9 6d9c 1d3a
00000010: 0625 01ba e3ec 2e3b 34f1 b73a c2d9 fe39
00000020: e4f2 2b3a 5b62 79ba e77c 933b 5346 083c
00000030: 8281 cab9 849e eb3a d9f8 dbb9 a9e9 973a
00000040: b44d fcba ec84 c3ba e30a 103a e8bc 993a
00000050: 6f65 0cb9 9704 2a38 1193 dbb9 e23e 0fbb
00000060: 03ed 653b b58f 06ba 1345 943a f45b ab3b
00000070: c018 3a38 746c 303a a378 db3a a467 d73a
00000080: 0903 c83a 9cc2 183b 09ee b8b9 6e54 9b3b
00000090: df21 4fbb c856 a539 3338 af39 d1b7 2b3b
0.0027737664 -0.005263932 -0.0003902366 0.0006012384 -0.00049264764 0.0026691488 0.0014033676 0.00048608897
0.0006559326 -0.00095132523 0.0045009735 0.008317548 -0.00038624933 0.0017976318 -0.0004195634 0.0011590022
-0.0019249232 -0.0014916933 0.00054947863 0.0011729272 -0.00013389227 4.0535433e-05 -0.00041880508 -0.002185755
0.0035083897 -0.00051331084 0.001131209 0.0052294675 4.4368906e-05 0.0006730028 0.0016744327 0.0016434086
0.0015259694 0.0023309356 -0.00035272565 0.0047402894 -0.0031605882 0.0003153591 0.00033420473 0.0026202092

encoder.4.block.2.weight f4 [40]
00000000: 3643 873f 46c2 683f aa37 6f3f 2c78 723f
00000010: 6767 733f 42f1 7a3f 8c69 783f ee8c 763f
00000020: b1f2 6a3f 7707 633f 39a1 803f 8a89 7d3f
00000030: 6b45 7d3f 00ab 933f f1c6 853f 3300 833f
00000040: 0a0b 823f 1987 693f c5f0 803f c77d 8a3f
00000050: 3da7 723f 09fa 8b3f 39b8 673f 595c 6f3f
00000060: 7f2a 6c3f d827 753f 4e1c 933f 44cf 843f
00000070: 1975 873f 4ac5 843f e868 8c3f 7328 883f
00000080: e9f7 793f d561 8d3f d438 7f3f 5dc1 863f
00000090: cd54 703f 9966 633f ce1c 843f 85b8 753f
1.0567386 0.9092144 0.9344431 0.9471462 0.95079654 0.9802438 0.9703605 0.9630879
0.9177657 0.88683265 1.0049201 0.9903799 0.9893405 1.153656 1.0451337 1.0234436
1.0159619 0.9122177 1.0073477 1.0819634 0.94786435 1.093568 0.90515476 0.93500286
0.92252344 0.9576392 1.1493013 1.0375752 1.058261 1.0372708 1.0969515 1.0637344
0.97643906 1.1045481 0.9969609 1.052776 0.93879396 0.88828427 1.032129 0.9598468

encoder.4.block.2.bias f4 [40]
00000000: bf54 073e a2c8 00be b243 dabd 249e 103d
00000010: 5270 e03d 1254 1d3e deb1 963d f7d3 773d
00000020: 1ed0 563b 5af5 60bd 58ec dc3d e8d0 873e
00000030: 47a9 d33d a0f1 923e 1bd3 953e b3d7 f0bc
00000040: 4288 b1bb 3889 77bb a364 103e 24e3 753e
00000050: c2df 86bd c16a 7d3b 7833 1abc e283 7cbd
00000060: bca1 893d fe98 52bd dc44 353e d2c1 a33d
00000070: 94a0 203e 8fa8 8b3d e85c 453e f1b7 733e
00000080: 77be ba3c bc85 af3e 3232 173e 2cf5 7a3d
00000090: 2389 25bd a495 81bd a4bc 6a3d c1ff 8d3d
0.13215922 -0.12576535 -0.10657443 0.035307065 0.109589234 0.15364102 0.07358144 0.06050488
0.0032777856 -0.054921485 0.107872665 0.2652657 0.103350215 0.2869997 0.29262623 -0.029399728
-0.0054178545 -0.0037770998 0.1410089 0.24012429 -0.06585647 0.0038668367 -0.009411685 -0.06164921
0.067203015 -0.051415436 0.17702049 0.07995953 0.15686256 0.068192594 0.19273722 0.23800637
0.022795899 0.3428172 0.14765242 0.06126897 -0.040413987 -0.0632737 0.057308808 0.06933547

encoder.4.block.2.running_mean f4 [40]
00000000: 6c7a 153f 875c 5ebf ddb8 a2bf 1503 bebe
00000010: fc55 a03f 0e24 813f 80bc 6c3f f7b2 d83d
00000020: c353 503f 50b8 6bbf 2850 593f e26e f83e
00000030: d83a 3c3f 6889 1d3f 8d47 193f c641 a3bf
00000040: 3d9e b5bf 7d3c 73bc faf8 653f 4641 fb3e
00000050: b7bc 3bbe ad24 b1bf 3e88 2d3c d1f8 c1be
00000060: 417b 773f 937f 77bf 803e 883f c122 343f
00000070: 5bcf 8c3e bce8 d9bf a2ec 563f 7873 9a3f
00000080: e9c0 99bf d135 d13e 465d 633f 0640 abbf
00000090: eb03 52bf 0cc4 abbf 91b6 2fbf a9e0 0e3f
0.58389926 -0.86859936 -1.2712666 -0.37111726 1.252624 1.0089128 0.9247513 0.1058101
0.8137781 -0.92078114 0.84887934 0.48522097 0.7352729 0.6153779 0.598748 -1.2754447
-1.4188915 -0.0148459645 0.89833033 0.49073237 -0.18333708 -1.3839318 0.010591565 -0.37885144
0.96672446 -0.9667904 1.0644073 0.7036553 0.2750195 -1.702415 0.83954823 1.2066488
-1.2011997 0.4086137 0.888142 -1.3378913 -0.8203723 -1.3419204 -0.6863795 0.55811554

encoder.4.block.2.running_var f4 [40]
00000000: b501 093f 012a 923f 4e20 e33f 7616 fb3e
00000010: 6809 d73f 0612 8b3f 1339 983f f2ed ac3e
00000020: 2b92 603f 027c c63f 3f52 443f 9826 213f
00000030: 19b2 633f c0d8 fc3e 0c01 453f 0930 c23f
00000040: 2197 e13f c70e c33e f103 883f 3320 203f
00000050: 3e5b 063f 527b 0140 1ffe 083f 1fdc 6f3f
00000060: a9a1 723f 2a08 ad3f f802 873f 9827 6f3f
00000070: 2384 283f 2701 1e40 4e2d 903f f7da e53f
00000080: fcc0 d03f 60c8 843e a38a a33f 8ae8 e33f
00000090: 832b 833f 31e3 ae3f e834 0b3f 700a 973f
0.5351823 1.1419069 1.7744234 0.49040574 1.6799746 1.0864875 1.1892418 0.33775288
0.87723035 1.5506594 0.76688 0.62949514 0.8894363 0.49384117 0.7695472 1.5170909
1.7624246 0.38097212 1.0626203 0.6254913 0.52482975 2.0231519 0.5351276 0.93695253
0.94777924 1.3518116 1.0547781 0.9341979 0.65826625 2.4688203 1.1263826 1.7957448
1.6308894 0.25934124 1.2776684 1.780534 1.0247654 1.3663083 0.54377604 1.180006

encoder.4.block.4.weight f4 [40, 40, 1, 1]
00000000: 7f31 2d3e 430c 5dbd c7ed 883e 9e22 b53b
00000010: 7c83 413e 194d 66be ffe0 5b3d 528b c73d
00000020: eb60 eb3d 646d adba ec34 41be 2609 383d
00000030: 6738 46bc 4536 a0be 74e8 2bbe eefc 82bd
00000040: 2775 953e 1e54 1e3d e4b9 68be b135 46be
00000050: b0a3 643d 6fe2 b23d 8d92 1c3e 0675 523e
00000060: cd51 7d3d b911 1ebe 5f03 9dbe fc11 8cbe
00000070: 1b2a 7bbe 9649 91bb d463 3abe 5441 383d
00000080: 4ab4 1d3e b856 6dbe 5770 073b b48a a8bc
00000090: 8fee 51bd 7a77 39bd ede9 663e 299d 093d
000000a0: 40e5 04bd 3483 48be 4a39 0a3e 45ca 04be
000000b0: 44fe b8bd 0900 6dbe babf f7bb 22a2 8b3c
000000c0: 861c 5f3e 2c7a 263c 53d9 3b3e ae4d 04bd
000000d0: f44a 743e c42e b53d 8027 2d3e b91b e2bd
000000e0: e775 343e 0ea3 2f3e 9c69 853d dd3d 103d
000000f0: 5b48 8cba 1c8e 6dbe de18 9aba 0cfd 003c
00000100: b4e6 b53d 0786 ba3d 9062 a33e 31f8 9c3e
00000110: 6c1f 1b3b 3ab2 39bd 0edd 803d 8945 363e
00000120: 58d8 943d f91b 823e 11e0 8c3e d731 94bd
00000130: 13dd 48be 4f20 4ebe 79f7 f0bd 7588 833c
00000140: 7b4c c2bd 534d 933e af70 45be eab9 efbd
00000150: 7609 f1bd 4d90 f9bd 9d68 17bd 8455 0cbe
00000160: 0d8c e03d ac4e ecbc f712 4e3e 15c6 58be
00000170: f03a e03d ff89 dbbd a228 1abe 511b fc3d
00000180: 5c83 1dbe e2f7 923d 7c14 35be dbc1 2b3e
00000190: 52aa a4bc 271c a93e 8db3 eb3d 6405 f6bd
000001a0: 326c 4cbe ff0f 33bc 1ab3 6cbe fd75 903d
000001b0: b134 aabe e595 edbd 0382 2dbe 354a 98be
000001c0: d0d8 23bc 63a8 25be 53f1 3e3d b98b 0a3e
000001d0: 34b5 cbbd 30b9 f33d 741e a13e 0c3e 46be
000001e0: 99dc 4bbe de58 673e c25a 003e 8597 2b3e
000001f0: 2586 4f3e a9be babc 3912 25be c19c 08be
00000200: 401f b6bd a060 d8bd bb87 503e 9c42 48bd
00000210: 0229 893c 0b26 d63d eb4d 2abe 62f3 34be
00000220: 7dc3 3a3d da9f 9f3d b8be bfbc 631e 3c3e
00000230: c0fe 173e 59f0 a33d 6fa7 40be bc94 c03d
00000240: 0f68 43be 94f5 2cbe a02f 6abe 2e2b 6dbe
00000250: 1c60 7e3d 0062 21be 509b 993d 6a0d a33d
00000260: 08db a43d c946 4cbe ee68 1a3d d063 e63d
00000270: b1b2 773e ebdb 13bc 25c7 913e 5b04 c93c
00000280: 9527 35bd 9359 1dbe 21bb aabb b07f e43d
00000290: 2d19 d73c 1757 66be 2d4f 7c3e 0afc 95bd
000002a0: 14e9 09be ded6 153e 7121 ffbd 2af9 c8bc
000002b0: 09bd 3d3e 27cc 843e 64db 803d 252e 693e
000002c0: 2a02 97be 8932 693e c75b 303e adea 7f3e
000002d0: fd13 0f3e 49a2 bebd 6a71 2bbd 4088 c73c
000002e0: 39bc a9bd 8993 8abd 7fd8 563d 77bf 4e3e
000002f0: 19c7 81bc 5412 36be 68d6 a43e c8cf 7fbc
00000300: eecc 8bbe dcca 1e3e 2c48 9a3e 0612 98bc
00000310: c564 d9bd 0ae0 12be 61aa e1bb 4781 cd3d
00000320: 1a59 cfbd 2101 d63c f95f 843e 8796 063e
00000330: 8fc4 12be b913 23be ba95 77be da7c 753e
00000340: 8f7c e2bd e054 f1bd ad24 efbd 2563 8bbe
00000350: c1e7 56be 4a1d 85be 6054 fc3d 2186 5c3e
00000360: cadc 573e ebb9 1abd 3f9a 3cbc ac55 54be
00000370: 739d 573d ec33 00bc 101d 02bd eaa8 d23b
00000380: 5169 a23d 5a1a 14be 60f6 84ba 9d2f bf3d
00000390: 44dc 89be a50e 863e ed94 2dbe 909c 613c
000003a0: 7728 00be 3398 373e e700 31be f8e9 f53d
000003b0: 27a3 85bd 2933 3fbe 05df 493e 0eb8 d53d
000003c0: c53f 6fbe a109 f5bd c289 90be 4b06 15bc
000003d0: 01eb 4f3c cab4 ddbd 299f 5e3e c9c0 393e
000003e0: 2bda 8b3e 0e21 393d 5193 c7be d76b 8cbe
000003f0: 129d 92bd 3963 b6bd 37df 07be 16f6 c3bd
0.16913413 -0.05396677 0.2674391 0.0055278083 0.18897814 -0.22490348 0.05368137 0.0974337
0.11493095 -0.0013231453 -0.18867844 0.0449306 -0.012098408 -0.31291404 -0.16787893 -0.06395899
0.29190943 0.03865444 -0.22727162 -0.19356419 0.055820167 0.08734595 0.1529028 0.20552453
0.06184559 -0.15436448 -0.30666634 -0.2735747 -0.2452778 -0.004433821 -0.18202144 0.044984177
0.15400806 -0.23177612 0.0020666325 -0.020573951 -0.051252898 -0.045279957 0.22550173 0.033597145
-0.032445192 -0.195813 0.13498417 -0.12967785 -0.09032872 -0.23144545 -0.0075606974 0.017045084
0.21788225 0.010160964 0.18344621 -0.032300644 0.23856717 0.088468105 0.169096 -0.11040444
0.17623101 0.17152044 0.06514284 0.035215247 -0.0010702716 -0.23198742 -0.0011756679 0.007872831
0.08881894 0.09107595 0.31911135 0.30658105 0.0023669852 -0.045335986 0.06292163 0.17799963
0.07267827 0.25411966 0.275147 -0.07236069 -0.19615583 -0.20129512 -0.11765952 0.016056279
-0.09487244 0.2876993 -0.19281267 -0.11705382 -0.11769383 -0.12185726 -0.036965 -0.13704497
0.109642126 -0.028846107 0.20124422 -0.21169312 0.109487414 -0.1071968 -0.15054563 0.12309898
-0.15382141 0.07176186 -0.17683595 0.16773169 -0.020100746 0.3302929 0.11508856 -0.12012747
-0.19963148 -0.010929107 -0.23115197 0.070537545 -0.33243325 -0.11600856 -0.16944127 -0.29744115
-0.010000423 -0.16177516 0.046616863 0.13529862 -0.09946671 0.11900556 0.31468546 -0.19359607
-0.1990837 0.22592494 0.12534621 0.16757019 0.20266016 -0.022795992 -0.16120233 -0.13341047
-0.08892679 -0.10565305 0.20364277 -0.04889165 0.016743187 0.10456475 -0.16631286 -0.17670968
0.04559659 0.07794161 -0.023406371 0.18370967 0.14843273 0.08004827 -0.18813871 0.09403369
-0.19082664 -0.16890556 -0.2286973 -0.23161003 0.062103376 -0.1576004 0.07500327 0.07961543
0.080495894 -0.19948877 0.037697725 0.112495065 0.24189259 -0.0090246005 0.28472248 0.02453821
-0.0442272 -0.15366201 -0.005210296 0.11157167 0.026257122 -0.2249416 0.24639578 -0.07323463
-0.13467818 0.14632747 -0.1245755 -0.024532873 0.18529142 0.25937006 0.062918454 0.22771509
-0.2949384 0.22773184 0.1722251 0.24991865 0.13972469 -0.09308297 -0.041856207 0.024356961
-0.08287854 -0.06766421 0.05245256 0.20190226 -0.015842007 -0.17780429 0.3219483 -0.015613504
-0.27304786 0.15507072 0.30133188 -0.018563282 -0.106149234 -0.14343277 -0.006886766 0.10034423
-0.10124417 0.026123585 0.2585447 0.13143359 -0.14332794 -0.15925492 -0.2417821 0.23973408
-0.11058914 -0.11783767 -0.11676917 -0.2722408 -0.20986845 -0.25998908 0.12320781 0.21535541
0.21080318 -0.03777496 -0.0115113845 -0.20735806 0.05264039 -0.007824879 -0.031765997 0.0064288275
0.07930244 -0.14463177 -0.0010144226 0.093352534 -0.26925862 0.26183048 -0.16951342 0.013770238
-0.12515436 0.17929153 -0.172855 0.120075166 -0.065252595 -0.1867186 0.19713981 0.10435496
-0.2336417 -0.11964727 -0.282301 -0.009095739 0.012690307 -0.108254984 0.21740402 0.18139948
0.27314886 0.04519754 -0.3897958 -0.27426025 -0.07158865 -0.08905644 -0.13268743 -0.095684215

encoder.4.block.4.bias f4 [40]
00000000: 5461 05bc 991a 033b ade3 a8bb af06 c9ba
00000010: 655a 46ba b131 3d39 30bc 3bbc da02 18bc
00000020: eda8 3a39 0d25 c9b8 bbad 10bb ff38 80bb
00000030: 1524 91bb 14ad b43a 5f6e d9bb 830a 85b9
00000040: c8b2 c9bb 1fa2 223a e26e 333b 6011 243c
00000050: 83f2 ef3b 325d a9bb 76cc a03b f53e 73ba
00000060: a12e b7bb 196b 76bb f09a 70bb 6214 e338
00000070: dc30 aebb 7ce7 04bc b69c d73a 86d2 b43b
00000080: aeaf 21bb 4a63 5fbb 6c55 04bc 8064 89bb
00000090: 55dc bcbb 72ed c6bb 0cff f53a 7578 d6ba
-0.008140881 0.0020004867 -0.005154094 -0.0015337075 -0.00075665704 0.00018042956 -0.011458442 -0.009278024
0.00017801272 -9.591328e-05 -0.0022076208 -0.0039130445 -0.00442935 0.0013784491 -0.0066354717 -0.0002537557
-0.0061553456 0.00062039675 0.0027379324 0.010013908 0.007322611 -0.0051685805 0.004907186 -0.00092790957
-0.0055902754 -0.0037600456 -0.0036713444 0.00010828 -0.005315883 -0.008111831 0.0016449902 0.0055182604
-0.0024671364 -0.003408628 -0.008077007 -0.0041928887 -0.0057635703 -0.006070786 0.0018768026 -0.0016362803

encoder.4.block.5.weight f4 [40]
00000000: db6a 633f 66ab 4a3f 6d76 593f 08d9 4e3f
00000010: bb80 673f db12 733f 15fd 853f 8fe1 1f3f
00000020: 742e 563f c216 3c3f 5ea7 5b3f 2508 6c3f
00000030: 052d 4b3f 8c85 483f d656 3c3f 37ed 6f3f
00000040: 0ef1 3a3f 5fe7 743f 7697 633f 2c95 383f
00000050: e95c 2b3f e2e4 643f 6213 413f 5c49 4b3f
00000060: e5b8 4a3f c479 293f b041 683f 7cb9 763f
00000070: 232d 6c3f 6f71 583f 956f 683f 32bc 3d3f
00000080: 2dd8 1a3f ca34 603f 4f68 6b3f f9d6 723f
00000090: 7d73 643f 1c01 663f 369e 433f 5267 4c3f
0.88834924 0.79167783 0.8494633 0.80799913 0.904308 0.94950646 1.046786 0.6245355
0.8366463 0.73472226 0.8580226 0.9219993 0.7936557 0.78328776 0.7357 0.93721336
0.7302407 0.95665544 0.88902986 0.7210262 0.66938645 0.8941175 0.754202 0.7940881
0.79188377 0.66201425 0.9072523 0.96376777 0.92256373 0.84548086 0.9079526 0.7411529
0.6048611 0.8758055 0.9195604 0.9485927 0.8923872 0.8984544 0.76413286 0.79845154

encoder.4.block.5.bias f4 [40]
00000000: 8684 75be ac04 ed3d f779 08be 6a4b 8b3c
00000010: ae9f 343c c733 e0bc 3059 a0be 5389 4ebe
00000020: d4e7 f13d 2797 04be 3362 223d 049a 00bd
00000030: ee01 66be 499e ac3c fec9 fa3c a94d 01be
00000040: 639d 18be 78ad 033e 6efc 253e 7a0a cb3d
00000050: 6eef d5ba f9f4 93bb 815d 8f3b 3ce0 2e3d
00000060: d923 7fbd 4cf6 2fbe cbf3 813d f58c 2b3e
00000070: 543a cabd b0c9 9bbd 9cd2 94bd 358d 6d3d
00000080: 1c6c acbd b51d fdbd 11be 8dbd 9fd9 3dbe
00000090: a283 39be bd5e 3ebd a1ab 90bb 52ce 4ebd
-0.23976335 0.11573157 -0.13327776 0.017003734 0.011024399 -0.02736844 -0.31318045 -0.20169573
0.11811796 -0.12948285 0.03964443 -0.03139688 -0.22461674 0.02107157 0.030613896 -0.12627281
-0.14903788 0.12859142 0.16209576 0.099141076 -0.0016321966 -0.004515287 0.00437516 0.042694315
-0.062290046 -0.17183799 0.06345328 0.1675299 -0.098744065 -0.07606828 -0.07266733 0.057995994
-0.08419058 -0.12359182 -0.06921018 -0.18540047 -0.1811662 -0.04647707 -0.004414991 -0.05048973

encoder.4.block.5.running_mean f4 [40]
00000000: 6f68 06bf 8382 4a3f c659 3abf ce50 2b3c
00000010: 0b14 183f 2140 ccbe e954 f3be f049 58bf
00000020: b264 d43e b85f a4bd 24bb 803e cc93 b4bd
00000030: 08cf fc3d 591f 303f 33d2 cf3e f8d9 3ebe
00000040: 9b71 08bf 1790 003e ca8b 293f 9db4 063e
00000050: 9662 cc3e 71ed 1e3e eb1e 2b3f 78a2 05be
00000060: 2c1c 69be 8c07 86be 84f2 d13d d2b1 823f
00000070: 56ca 873d 6869 a4be 468c 11be 841c 0a3f
00000080: bdd5 78be 01c3 77be 7c5c 91be 3496 12bf
00000090: b2ba 5bbe f700 a0bc a826 143f 81b7 c3be
-0.52503103 0.79105395 -0.72793233 0.010456277 0.59405583 -0.39892676 -0.4752572 -0.8448782
0.41483074 -0.080260694 0.25142777 -0.088172525 0.123441756 0.6879783 0.40590057 -0.18637836
-0.5329835 0.12554966 0.66228926 0.13154836 0.39918965 0.15520264 0.6684405 -0.13050258
-0.22764653 -0.26177633 0.10251334 1.0210516 0.066303894 -0.3211167 -0.14213666 0.5394976
-0.24300285 -0.24195482 -0.28390872 -0.5726044 -0.21457937 -0.01953171 0.57871485 -0.3822594

encoder.4.block.5.running_var f4 [40]
00000000: 860f 1740 6d6f 4640 b214 0d40 8e12 903f
00000010: 01b8 0540 30e5 0540 463a bb3f b609 2240
00000020: 9ce3 da3f 2f3f 943f a14c 1f40 823e cc3f
00000030: 0590 243f 9366 1d40 5fbc 6440 c780 253f
00000040: dd81 1940 bf0e 203f a4ab 4440 3761 813f
00000050: 2b96 583f d4e1 1f40 d325 ad3f 991f ee3f
00000060: 9e31 c83f d204 563f f356 0740 068f 2a40
00000070: 85f5 923f 7ee8 6a3f 6f1c 633f 4af8 1440
00000080: beea 433f 4b02 173f f3c4 6b3f 52e1 3940
00000090: 49e7 583f 7a1c 6a3f 9152 2740 bfe4 9f3f
2.3603225 3.100551 2.2043881 1.1255662 2.0893557 2.0921135 1.4627159 2.5318427
1.7100711 1.1581782 2.489052 1.5956576 0.64282256 2.4593856 3.5739973 0.64649624
2.3985512 0.625225 3.072976 1.0107793 0.8460414 2.4981585 1.3527168 1.8603393
1.5640142 0.83601105 2.114682 2.6649795 1.1481177 0.91761005 0.8871526 2.3276544
0.76530063 0.58987874 0.92097396 2.9043775 0.84727913 0.914497 2.6144145 1.2491683

encoder.5.block.1.weight f4 [40, 40, 3, 3]
00000000: df9e 7dbc c475 7e3d 683b 52bc eeb3 b5bd
00000010: 5fed 833d 686a 113b 3cc1 8d3d f418 1dbd
00000020: 9ae7 e33b 93de 9cbc dafa 0ebd c0d5 b6bc
00000030: 3202 4cbc 611c c13d 5220 1e3d c6f3 a9bd
00000040: dc73 743d b335 75bd 150f 87bc 1358 5a3d
00000050: 6443 87bc 818f edbd 2d06 0dbd 36e6 7e3d
00000060: 17a3 69bd a269 323d 32e7 29bc c1fb 3ebb
00000070: bd2b 83bd c23e f9bc cf0e 8f3d c471 10bc
00000080: 73df 353d 80ce df3c e45a 953c 9668 6c3b
00000090: f9fe 453d fcd3 943d 8090 2fbd 11de bc3a
000000a0: aefd d4bc b498 573d 8b6f 7e3c 8d8b 1fbc
000000b0: 80e1 ae3d 1364 733b 675e 20bc ad66 883d
000000c0: cba7 a3bd a42e 4ebb d7f7 933b 4d79 00ba
000000d0: 2090 fa3b bc48 f7bc b25a 32bd 453d 7f3c
000000e0: f3a2 0b3d ed0e adbb 2a3e e1bd 4692 83bc
000000f0: 0da6 623d abd6 4fbb 4a7b 393d 6f68 b1bc
00000100: 250b 5abd ae27 8b3d cc88 46bd ce6e 84bd
00000110: c4be d33c ad91 6abd 0fce 95bd a193 043d
00000120: ba47 29bd fea1 613c a772 353c 3223 8cbc
00000130: b593 f0bc f421 f03b 2afc 0e3d aba5 59bd
00000140: bb62 2e3d 620c 103d 240d 313c c04d b63c
00000150: bf38 813c fdca e4bc f5b2 46bb bf9c 7bbd
00000160: 4e04 7d3c 4074 9d3d 664c 153c 135b 19ba
00000170: 8472 76bc 75ab 373c a4fb e93d 8928 27bd
00000180: b5be 343d a95c d4bc e149 6d3d fb58 cbbc
00000190: fd5f bc3c f33f b83c 4b1a eb3c 92e4 583c
000001a0: a5cd 253d 4a58 aabd 3115 c6bd 7f35 2cbd
000001b0: 4395 32bd 491f 81bd 63ea 8bbb c966 493d
000001c0: f645 15bc 5f8e eb3c 8233 36bd 1e57 a93d
000001d0: 2e40 c0bd 791c 8bbc 196c 2e3d edbb 643d
000001e0: a0c0 8d3c 330a 683b 71de 473c 2f1d f13a
000001f0: 05bd 43bd 8b9f eb3a 4c01 a6bd 5e87 b0bd
00000200: d648 56bd 2a88 463d df15 023e 0349 58bd
00000210: 550a ea3b 7aab 883d 4385 5f3d a9ca 04bd
00000220: 78f5 85bd fd90 eebc 0670 62bc cb4d c23d
00000230: a482 533c bed5 1abd c16f 90bc ace9 17bd
00000240: 091b 67bd 46a3 ebbc a84b 593d 1310 81bc
00000250: 3355 31bd e50c 6fbb 142a af3c eaf2 09bd
00000260: 69f9 933d 35e4 163d d0ae 9b3d b373 803d
00000270: 83f5 6bbd 6a70 213d d4ab 60bd 90ba 73bc
00000280: 5d18 9b3b 4360 3b3d cee2 46bd 1a0a 0c3d
00000290: d57d ab3b 4ecd c03d 7a21 753d 7f1e a2bd
000002a0: 1897 8abd 5db1 ad3d c191 39bd b72a 143d
000002b0: 8498 7cbd db87 58bd fc66 2a3d cd2f 553d
000002c0: 3971 16bd ad5b be3d 2df5 33bd 3bda 8abd
000002d0: 99e4 37bd dcf8 5bbd 5641 91bd 598d dfba
000002e0: ca17 95bd d7e8 82bd 1547 54bd bfcf 48bd
000002f0: 9b77 9abd 9424 ecbb 62bf ac3b 4bb7 a0ba
00000300: 6b4c f03d a433 253e a77c 963d bfc1 57bd
00000310: f6a3 d23b 8cac acbd 0f12 86bc 9592 81bd
00000320: 133d 83bc 3deb 3bbd 5304 503e b6e9 83bc
00000330: 99ac ea3c 1509 b2bd 2d0d 18bd e10c 78bd
00000340: 509d 1b3d 82ba 12bc 33b8 50bd 4912 e93d
00000350: 807c a0bd c6e0 0a3d 65ee 8a3d dce7 05bd
00000360: abc0 303c a065 293c 3a28 f73c cf7d d0bc
00000370: 18bb eabc b16b 2cbd be90 b13c 8556 81bd
00000380: b7d5 8f3d 08f0 833d 7237 bebc 6109 fcbc
00000390: cd6a d4bc 65bf 0a3d bc9f 2ebc 363d 27bd
000003a0: a570 fabc 68dc e93c 8f69 1b3d 8b0a 743d
000003b0: c624 41bd 289f 203d a90f f93c f44d 603d
000003c0: 3736 8ebd 6994 b4bd a78f 503d c0c5 823d
000003d0: 1b9d 3f3d 6263 b13b 5640 9b3c ef1c 043e
000003e0: 720c a0bd 3c82 4b3d e119 973d 7118 b9bd
000003f0: e990 f6bc ce2e 7c3d 48ba 1ebd e2d8 05bd
-0.015479772 0.06212403 -0.012831546 -0.088722095 0.06441759 0.0022188667 0.06921622 -0.038353875
0.0069550993 -0.0191491 -0.0349072 -0.02231872 -0.012451695 0.09429241 0.03860504 -0.08298449
0.059680805 -0.059865665 -0.016486684 0.05330665 -0.016511627 -0.11599637 -0.034429718 0.062231265
-0.0570403 0.04355777 -0.010370063 -0.0029141756 -0.06404827 -0.030425433 0.069852464 -0.008816186
0.04440255 0.027320147 0.018231817 0.003607308 0.048338864 0.07266995 -0.042862415 0.0014409443
-0.02599987 0.052635863 0.015529524 -0.009737861 0.085391045 0.0037138506 -0.009788132 0.06660209
-0.07990988 -0.0031460905 0.004515629 -0.0004900888 0.0076465756 -0.03018605 -0.043543525 0.015578573
0.034090947 -0.0052813203 -0.10998185 -0.01606096 0.05533414 -0.0031713645 0.045283593 -0.021656243
-0.053233285 0.06794678 -0.048470303 -0.06466447 0.0258478 -0.057267834 -0.07314693 0.032367352
-0.04132817 0.013771532 0.0110746985 -0.017106626 -0.029367307 0.0073282663 0.03490845 -0.05313651
0.042574625 0.03516806 0.010806356 0.022253871 0.015774129 -0.027928824 -0.003031907 -0.06142878
0.015442921 0.076881886 0.009112453 -0.0005850058 -0.015041951 0.011210312 0.1142495 -0.04081014
0.044127185 -0.02592309 0.057931785 -0.024822703 0.02299499 0.02249143 0.02869906 0.013238089
0.04047932 -0.08317621 -0.09672011 -0.042043205 -0.04359938 -0.06304795 -0.0042698844 0.04917029
-0.009110918 0.028754411 -0.044482715 0.082685694 -0.09387241 -0.01698135 0.04258356 0.055843282
0.017303765 0.003540647 0.01219903 0.0018395538 -0.047787685 0.0017976625 -0.08105716 -0.08619569
-0.052315556 0.0484697 0.12703656 -0.052804004 0.007142345 0.066733316 0.054570448 -0.032419834
-0.0654096 -0.02912187 -0.013820654 0.09487494 0.012909565 -0.037801497 -0.017631413 -0.03708808
-0.056422267 -0.028764378 0.053050667 -0.015754735 -0.043294143 -0.0036476192 0.02138237 -0.033678927
0.072253056 0.03683873 0.07601702 0.06272068 -0.057607185 0.039413847 -0.054851368 -0.014876023
0.004733129 0.0457461 -0.04855614 0.03418932 0.005233506 0.09414159 0.05984638 -0.07915973
-0.067671 0.08481095 -0.045305017 0.03617355 -0.061668888 -0.052863937 0.04160212 0.05204754
-0.03672907 0.092948295 -0.04393499 -0.067799054 -0.044895742 -0.053704128 -0.0709254 -0.0017055675
-0.07279928 -0.06392067 -0.0518256 -0.049026247 -0.07542344 -0.007206509 0.005271838 -0.0012261657
0.117333256 0.1613298 0.07347994 -0.052675005 0.006428237 -0.08431348 -0.016366033 -0.063267864
-0.016020333 -0.045878638 0.2031415 -0.016102653 0.028646754 -0.086931385 -0.03712194 -0.060559157
0.03799182 -0.0089556 -0.050956916 0.11380441 -0.078362465 0.033905767 0.067837514 -0.03269182
0.010788123 0.010339171 0.030170549 -0.025450615 -0.028653666 -0.04209489 0.021675464 -0.063153304
0.07023185 0.06442267 -0.023219798 -0.030766191 -0.025929833 0.033873934 -0.010658201 -0.04082986
-0.030571291 0.02854748 0.037942465 0.059580367 -0.04715421 0.039214283 0.030402975 0.054761842
-0.069439344 -0.088173695 0.050918248 0.06385374 0.046780687 0.0054134587 0.018951576 0.12901662
-0.07814874 0.049684748 0.07377983 -0.09037865 -0.030098395 0.061568074 -0.03875187 -0.03267754

encoder.5.block.1.bias f4 [40]
00000000: 0d02 3339 ffb7 743b e0db ac3a d586 2d3b
00000010: 01f0 0a3b f718 ae3a 573b de3a 61fd de3a
00000020: a5b7 aa38 1582 dc3b 6d7b 7e3b f0e7 6a3b
00000030: 2319 c73a 6066 d1bb df17 cbb9 b926 1b3b
00000040: 2091 0f3b b04b bc3b 30ff 7e3b 9ae5 9c3b
00000050: b715 463b 49ad 94ba 1cbc 0fb9 4c42 a43b
00000060: fcaa 943a 95b7 d23a e33e 123b 927e c23a
00000070: 5877 e63a 460a 393a 13d1 c539 b938 243a
00000080: c81f bf3a 1df5 1f3b 749d a23b a97e 813b
00000090: 0606 a03b 0331 2a3b 2326 263a 1318 fc3a
0.00017071534 0.0037341116 0.0013188086 0.0026478071 0.0021200182 0.0013282587 0.001695494 0.0017012769
8.140438e-05 0.006729374 0.0038830892 0.0035843812 0.0015189986 -0.006390378 -0.00038736963 0.0023674204
0.002190657 0.0057463273 0.0038909428 0.004788113 0.0030225345 -0.0011343147 -0.00013707619 0.005012786
0.0011342461 0.001607644 0.0022315315 0.0014838746 0.0017583175 0.0007058721 0.0003773054 0.0006264556
0.0014581615 0.0024407574 0.0049626175 0.0039518666 0.0048835305 0.0025969155 0.000633808 0.0019233249

encoder.5.block.2.weight f4 [40]
00000000: 2297 6b3f 4fe2 923f 19f9 873f dbad 733f
00000010: 6e2f 873f c2da 803f 612d 763f 76a6 683f
00000020: 2182 653f e606 9c3f 933c 733f 6539 803f
00000030: 2d3f 7c3f 3706 603f 729e 4e3f 3ac1 983f
00000040: ef26 7c3f d8ce 713f 9db5 633f 31e5 913f
00000050: d628 833f 8b00 803f 622a 7b3f a52a 8c3f
00000060: 897d 7a3f 4b56 6d3f fac8 8f3f c8f4 863f
00000070: 8961 813f e24d 633f 97ea 873f 73a8 543f
00000080: c1b7 723f 766f 603f de6f 7c3f d8b0 8b3f
00000090: 9024 7b3f 9f01 5c3f 9078 633f 7c7a 863f
0.92027485 1.1475314 1.0622894 0.9518716 1.0561349 1.006676 0.9616299 0.90879
0.89651686 1.2189605 0.95014304 1.0017515 0.985339 0.87509483 0.8071052 1.1933968
0.9849691 0.94456244 0.88948995 1.1398069 1.0246837 1.0000166 0.98111546 1.0950514
0.978478 0.927098 1.1233208 1.0543451 1.010789 0.88790715 1.0618466 0.83069533
0.94811636 0.87670076 0.98608196 1.0913343 0.98102665 0.85939974 0.8885584 1.0506129

encoder.5.block.2.bias f4 [40]
00000000: 6782 4a3e 2a0f 8a3e 5945 313e 812d 9a3d
00000010: 80de f9bc 9bb9 8f3d 456c a53d c124 d0bd
00000020: ddd7 c1bd bc74 823e c515 093e ff0d 9e3e
00000030: 27bc 063d 2062 febd 56e1 4c3e 54a7 923e
00000040: 0612 a33e 4a61 713e 83f1 113e d644 8b3e
00000050: e3f3 043c be1c c6bc aba7 863e 508d 113e
00000060: 11aa 83bc 997f 0c3e b823 c63e 9e3b 523e
00000070: 2ff0 903d 7788 933d 9db5 303e c107 2abe
00000080: 5f2c 973d 3bdb b33d e66e 103e 1e1d 8c3d
00000090: c54e 9b3e d454 1b3e 9d3a 07bd 5106 363e
0.19776307 0.26964694 0.1731161 0.075282104 -0.030501604 0.07017823 0.080772914 -0.1016326
-0.09465001 0.25479686 0.1338721 0.30870053 0.03289428 -0.124210596 0.20007834 0.28643286
0.31849688 0.23572269 0.14252286 0.27200955 0.008114788 -0.024183627 0.26299796 0.14214063
-0.016072305 0.1372055 0.38699126 0.20530555 0.070770614 0.07203763 0.1725678 -0.1660452
0.0738151 0.08782049 0.14104804 0.06841491 0.30333534 0.15169078 -0.033014882 0.17775847
