VQ-VAE/models/vqvae/model_37.pt (torch, 579012 bytes, 64 tensors)

encoder.0.weight f4 [40, 1, 4, 4]
0.03707734 0.0063706436 -0.045838427 -0.06751828 -0.0674178 -0.069374934 -0.11793084 -0.07917526
-0.0593912 -0.07783858 -0.14624427 0.046408627 -0.0143683255 -0.07201358 0.028482487 0.0728896
0.03909593 0.07008249 -0.061178215 0.056512233 0.11924685 0.13822962 -0.028741924 0.038777985
0.07094069 0.09106964 -0.10052951 -0.011296613 0.05776843 0.06859855 -0.019809559 0.07833015
0.07696857 0.084443316 0.095242254 0.08274438 0.022797348 0.017209243 0.013795902 0.071391
0.084440134 0.07361749 0.042741634 0.049851403 0.03872505 0.037752997 0.011579926 -0.0001515509
0.009686988 0.095347695 0.09094763 0.040272515 0.08350875 0.07091087 -0.035841137 -0.07192085
0.1083559 0.003474333 -0.050682 -0.002226536 0.08961098 0.03483818 0.04715545 0.042887308
0.025814574 0.0039152764 0.016296739 0.034811765 0.0067395126 -0.017469557 0.10118895 0.0017544485
-0.034354385 -0.07773128 0.03811425 0.08420606 0.068542376 -0.043784402 0.034187987 0.15096438
-0.08783285 -0.025637034 -0.0476169 0.014734285 -0.09832042 -0.055580944 -0.11876773 0.014086565
-0.08864636 -0.062322218 -0.09723487 0.077767566 -0.08022572 -0.05819624 0.055731148 -0.02246468
-0.0010922619 0.07447606 -0.04549078 -0.007031841 0.07569759 0.011252016 -0.0968026 -0.06540961
0.043230798 -0.11460193 -0.051913846 -0.053065244 -0.025339175 -0.05224667 -0.011151978 -0.030420598
-0.012878852 -0.067727864 -0.12862565 -0.07475175 -0.027602965 -0.045350615 -0.09506438 0.03981065
-0.12639825 -0.08342045 -0.022708336 -0.060314592 -0.026970327 0.060679123 -0.06523298 -0.022084551
-0.016197098 -0.025414148 -0.011766929 0.03057125 -0.07659738 0.054214887 0.083471805 0.023285544
0.067165576 0.12709981 -0.030845609 -0.01445905 0.1217401 0.095598765 -0.018610938 0.048653968
0.027896358 0.05672565 0.065769546 0.045541316 -0.04273403 -0.049631886 -0.12023499 -0.0074356045
-0.1133339 -0.103451 -0.088483304 0.010651145 0.00033398965 0.07710356 0.041797653 0.07006674
0.0694871 0.041550204 -0.06087967 -0.066841975 0.06063491 0.010026762 -0.027832873 -0.061646286
0.044095334 0.026406974 -0.03491503 -0.08788488 0.0697687 0.05950805 -0.04547632 -0.070294306
-0.06086689 -0.023801148 0.002634863 0.00042509387 0.021151463 -0.022268238 -0.019896043 -0.07086754
-0.039963212 -0.19410801 -0.1819891 -0.04513916 -0.0024498533 -0.045509472 0.010700352 -0.05372285
0.010068208 0.06966666 0.06239239 -0.032032527 0.01518834 -0.05884261 -0.055972643 -0.088459626
-0.05133403 -0.08810956 -0.0719353 -0.098287195 -0.05796898 -0.037097007 -0.078866 -0.1041996
-0.07445065 -0.044101372 0.0122746555 0.021703111 -0.061821386 -0.09372028 -0.10193477 -0.018586889
0.05198126 -0.0024307754 -0.08683099 -0.09811163 0.048579678 0.07426583 0.012582034 -0.02988101
0.025783448 0.012411007 -0.0035789453 0.018584652 0.04839407 -0.04535312 -0.02301318 0.03165732
0.031973694 0.06732831 0.16198592 0.11571683 0.031036051 0.07228558 0.09155647 0.043714628
0.03326371 -0.08310802 -0.03364643 -0.010232004 -0.05205835 -0.063978106 -0.077210486 -0.053157303
-0.07417056 -0.07659477 -0.036546864 -0.060781132 0.010359991 -0.047322985 -0.067098744 0.010096698
00000000: 69de 173d d5c0 d03b 13c1 3bbd 0647 8abd
00000010: 5812 8abd 7214 8ebd b985 f1bd a426 a2bd
00000020: 3044 73bd d569 9fbd 0fc1 15be f916 3e3d
00000030: 2069 6bbc db7b 93bd 1b54 e93c 2547 953d
00000040: 0e23 203d 6987 8f3d 0296 7abd 5f79 673d
00000050: b137 f43d 118c 0d3e 2f74 ebbc aad5 1e3d
00000060: 5a49 913d b882 ba3d 6ae2 cdbd 6e15 39bc
00000070: 979e 6c3d 667d 8c3d a847 a2bc 8f6b a03d
00000080: b3a1 9d3d 9ef0 ac3d 5f0e c33d e375 a93d
00000090: 81c1 ba3c 66fa 8c3c 3508 623c 7235 923d
000000a0: f3ee ac3d c4c4 963d da11 2f3d fc30 4c3d
000000b0: 289e 1e3d e3a2 1a3d bbb9 3d3c a3e9 1eb9
000000c0: 2cb6 1e3c a745 c33d c042 ba3d cbf4 243d
000000d0: a306 ab3d b839 913d 28ce 12bd 3d4b 93bd
000000e0: b3e9 dd3d a3b1 633b ee97 4fbd 13eb 11bb
000000f0: f685 b73d 7bb2 0e3d 1326 413d 9aaa 2f3d
00000100: 1679 d33c b84b 803b bd80 853c c896 0e3d
00000110: 21d7 dc3b 511c 8fbc 273c cf3d 86f5 e53a
00000120: 2fb7 0cbd 9431 9fbd b01d 1c3d 3a74 ac3d
00000130: f25f 8c3d 4657 33bd b408 0c3d 6896 1a3e
00000140: b6e1 b3bd c204 d2bc f009 43bd 1268 713c
00000150: 375c c9bd d8a8 63bd 7f3c f3bd 56cb 663c
00000160: 398c b5bd 9545 7fbd 1323 c7bd 9a44 9f3d
00000170: 624d a4bd 2e5f 6ebd 5846 643d d907 b8bc
00000180: 3a2a 8fba e886 983d 8a54 3abd 5c6b e6bb
00000190: 5707 9b3d 605a 383c 7140 c6bd 79f5 85bd
000001a0: c712 313d 6bb4 eabd 9da3 54bd f15a 59bd
000001b0: 1a94 cfbc 9b00 56bd c9b6 36bc 9e34 f9bc
000001c0: d201 53bc e8b4 8abd 71b6 03be 7217 99bd
000001d0: 9d1f e2bc 91c1 39bd 1db1 c2bd 7e10 233d
000001e0: 8b6e 01be 57d8 aabd d506 babc 6f0c 77bd
000001f0: e0f0 dcbc ac8a 783d de98 85bd a9ea b4bc
00000200: c7af 84bc 5531 d0bc 14ca 40bc 8f70 fa3c
00000210: 16df 9cbd 6e10 5e3d 44f3 aa3d 53c1 be3c
00000220: 1b8e 893d 7426 023e eeaf fcbc a7e5 6cbc
00000230: e052 f93d 49c9 c33d f775 98bc 6249 473d
00000240: e786 e43c 2859 683d 2fb2 863d 8889 3a3d
00000250: e109 2fbd ce4a 4bbd c33d f6bd 5fa6 f3bb
00000260: 9b1b e8bd 1ede d3bd bc36 b5bd 2482 2e3c
00000270: 551b af39 79e8 9d3d 0434 2b3d 277f 8f3d
00000280: 414f 8e3d 8c30 2a3d f65c 79bd 72e4 88bd
00000290: 505c 783d 4a47 243c c401 e4bc d180 7cbd
000002a0: 4f9d 343d 7053 d83c 1003 0fbd fdfc b3bd
000002b0: e4e2 8e3d b7be 733d 6145 3abd 76f6 8fbd
000002c0: 8f4f 79bd a0fa c2bc aaad 2c3b 22df de39
000002d0: d545 ad3c e16b b6bc 07fd a2bc 0023 91bd
000002e0: 77b0 23bd 40c4 46be 5a5b 3abe d7e3 38bd
000002f0: b88d 20bb 2468 3abd 8750 2f3c 7e0c 5cbd
00000300: 20f5 243c 65ad 8e3d 2a8f 7f3d 8a34 03bd
00000310: 84d8 783c f304 71bd 9243 65bd 522a b5bd
00000320: a243 52bd c972 b4bd d152 93bd cc4a c9bd
00000330: e270 6dbd 08f3 17bd 7f84 a1bd 9a66 d5bd
00000340: 9579 98bd a4a3 34bd a31b 493c b9ca b13c
00000350: 6c38 7dbd 6bf0 bfbd 2dc3 d0bd 8843 98bc
00000360: 4dea 543d a54d 1fbb 72d4 b1bd c0ee c8bd
00000370: 7cfb 463d af18 983d e024 4e3c 05c9 f4bc
00000380: cf37 d33c 8957 4b3c bd8c 6abb d73e 983c
00000390: dc38 463d 31c4 39bd 2386 bcbc 1bab 013d
000003a0: d9f6 023d 6de3 893d a3df 253e f2fc ec3d
000003b0: 513f fe3c 760a 943d f581 bb3d 1c0e 333d
000003c0: 873f 083d 8a34 aabd d7d0 09bd 23a4 27bc
000003d0: 233b 55bd f406 83bd 8820 9ebd 79bb 59bd
000003e0: bce6 97bd b8dd 9cbd 2ab2 15bd a3f5 78bd
000003f0: f4bc 293c bfd5 41bd 116b 89bd 9f6c 253c

encoder.0.bias f4 [40]
-0.00034131517 -0.0010313255 -0.0038759653 -0.0020297216 -0.0037791883 2.0985945e-05 0.00233724 0.0015905506
-0.003393607 0.004872461 -0.0012347652 -0.00018627002 -0.0024387739 -7.0670954e-05 -0.0009852911 0.0024612108
-0.00090081414 -0.0012766498 0.0010592833 -0.0013527693 -0.005374725 0.00010607264 -0.0029801421 -0.0041873013
0.00078141975 0.00013451095 0.0012570475 0.0005229261 -0.0011048953 0.00057626626 0.004278777 0.0059608244
-0.00091765815 -0.005283674 0.003457182 -0.00020190183 -0.0014692878 -0.0042732237 -0.0038621922 -0.002129719
00000000: 8cf2 b2b9 8b2d 87ba e803 7ebb 1405 05bb
00000010: 42ac 77bb f90a b037 612c 193b 067a d03a
00000020: 4767 5ebb 2aa9 9f3b d8d7 a1ba 7a51 43b9
00000030: d6d3 1fbb 2e35 94b8 e224 81ba 444c 213b
00000040: 9d24 6cba 4255 a7ba a6d7 8a3a 684f b1ba
00000050: 761e b0bb 5173 de38 7d4e 43bb a135 89bb
00000060: 31d8 4c3a 820b 0d39 84c3 a43a fa14 093a
00000070: 22d2 90ba 9310 173a fc34 8c3b 0553 c33b
00000080: ff8e 70ba ac22 adbb e491 623b 9cb5 53b9
00000090: 1e95 c0ba 6606 8cbb d51c 7dbb c192 0bbb

encoder.1.weight f4 [40]
0.8458174 0.75485295 0.8131407 0.66291994 0.7310332 0.93171626 0.78697354 0.7697454
0.751289 0.73959625 0.8426638 0.7732574 0.8973457 0.8014102 0.73817873 0.96034616
0.80648464 0.8933783 0.7971064 0.88769513 0.7214762 0.82982135 0.7350407 0.74989736
0.62627894 0.80298036 0.7726865 0.6379147 0.7633309 0.8028046 0.84724283 0.8193656
0.8507735 0.80933344 0.892244 0.711713 0.91276264 0.9761036 0.968106 0.75537115
00000000: 7d87 583f 0b3e 413f fd29 503f 1fb5 293f
00000010: fe24 3b3f f584 6e3f 1977 493f 090e 453f
00000020: 7a54 403f 2e56 3d3f d1b8 573f 32f4 453f
00000030: 73b8 653f 3829 4d3f 48f9 3c3f 3fd9 753f
00000040: c775 4e3f 71b4 643f 2a0f 4c3f fd3f 633f
00000050: aab2 383f 2c6f 543f a12b 3c3f 46f9 3f3f
00000060: d153 203f 1f90 4d3f c8ce 453f 614e 233f
00000070: a769 433f 9a84 4d3f e8e4 583f f2c1 513f
00000080: 4bcc 593f 7a30 4f3f 1a6a 643f d332 363f
00000090: d0aa 693f ede1 793f cbd5 773f 0160 413f

encoder.1.bias f4 [40]
-0.046405524 -0.0339114 0.015407303 0.037293278 -0.016171621 -0.10617803 -0.13363093 -0.13953021
0.046825413 0.062483747 -0.0830655 -0.1063697 -0.17256095 -0.12139587 0.11470034 -0.053430695
-0.0070418105 -0.09834637 -0.1091431 -0.1326392 -0.04104897 -0.07292538 0.24114196 -0.077800594
0.121125266 -0.06785762 0.21171065 0.17719667 -0.084199615 -0.0139401425 -0.0884743 -0.17709053
-0.1274385 0.21598282 -0.05964835 -0.124611884 -0.13796596 -0.20682871 -0.1886181 -0.07021556
00000000: b813 3ebd aee6 0abd ea6e 7c3c d6c0 183d
00000010: 597a 84bc de73 d9bd 8cd6 08be 02e1 0ebe
00000020: 01cc 3f3d f5ee 7f3d 3f1e aabd 5bd8 d9bd
00000030: d1b3 30be 669e f8bd 03e8 ea3d 25da 5abd
00000040: fdbe e6bb d269 c9bd 6b86 dfbd 92d2 07be
00000050: f722 28bd e759 95bd ebed 763e eb55 9fbd
00000060: 8610 f83d f0f8 8abd adca 583e 0b73 353e
00000070: d970 acbd 3265 64bc 0432 b5bd 3857 35be
00000080: 3d7f 02be 9a2a 5d3e d451 74bd 8434 ffbd
00000090: f346 0dbe e8ca 53be 1a25 41be 2dcd 8fbd

encoder.1.running_mean f4 [40]
0.45594862 -0.40525025 -0.5465729 -0.3668829 -0.25546914 0.4743505 0.25375634 0.5252451
-0.31891423 0.12810871 0.05122925 0.5146387 0.4572394 0.28320643 -0.4666606 0.4868347
-0.30028316 0.6083492 0.4857999 0.35115802 -0.29004973 0.24516852 -0.21978837 0.30460143
-0.1327586 0.15031907 -0.24112575 -0.106879495 0.12321182 0.282941 0.23276375 0.23793572
0.2745954 -0.2765103 0.3088855 -0.26361355 0.52827734 0.45137018 0.51110387 0.15148984
00000000: 1972 e93e f67c cfbe 34ec 0bbf 13d8 bbbe
00000010: dacc 82be 12de f23e 5aec 813e 7676 063f
00000020: ba48 a3be ee2e 033e c3d5 513d 5dbf 033f
00000030: 481b ea3e 6f00 913e 23ee eebe 6642 f93e
00000040: b7be 99be c6bc 1b3f c4ba f83e fcca b33e
00000050: 6681 94be 750d 7b3e 3410 61be b8f4 9b3e
00000060: dff1 07be 3eed 193e abe9 76be a3e3 dabd
00000070: 7b56 fc3d a5dd 903e 9f59 6e3e 6ca5 733e
00000080: c597 8c3e c292 8dbe 3e26 9e3e 5bf8 86be
00000090: 2f3d 073f fe19 e73e b4d7 023f 2720 1b3e

encoder.1.running_var f4 [40]
0.1171437 0.07652862 0.118102334 0.071053825 0.036043156 0.11758257 0.051859736 0.11627427
0.061446626 0.03389638 0.04538116 0.11447672 0.11786133 0.04067471 0.098308645 0.09775254
0.06615514 0.16820714 0.116335124 0.069163665 0.04076888 0.04678147 0.024374895 0.06598054
0.035498757 0.05338429 0.044576142 0.035302836 0.035615757 0.055850603 0.051306758 0.04284254
0.04610357 0.045445032 0.041148774 0.06089244 0.14065985 0.09407369 0.10980336 0.023792649
00000000: 09e9 ef3d 0abb 9c3d a3df f13d ab84 913d
00000010: fda1 133d 21cf f03d e06a 543d 3421 ee3d
00000020: 75af 7b3d eed6 0a3d 98e1 393d c572 ea3d
00000030: 4861 f13d 869a 263d 0b56 c93d 7c32 c83d
00000040: 597c 873d 7e3e 2c3e 1c41 ee3d aea5 8d3d
00000050: 45fd 263d ed9d 3f3d dcad c73c ce20 873d
00000060: 2567 113d 7ca9 5a3d 7995 363d b599 103d
00000070: d4e1 113d 9ac3 643d 0927 523d a97b 2f3d
00000080: 19d7 3c3d 9224 3a3d 9e8b 283d 5a6a 793d
00000090: 2309 103e b5a9 c03d 96e0 e03d cde8 c23c

encoder.3.weight f4 [40, 40, 4, 4]
-0.012254113 -0.010005555 -0.005864915 -0.025526064 -0.03670399 -0.05533133 -0.022972085 0.018202055
0.0090611335 0.06938219 -0.040299553 0.01865652 0.064439826 0.040179204 -0.003784193 -0.0032360344
-0.015770648 0.0013173028 0.052335948 -0.014419957 -0.03294706 -0.022962648 0.036460698 0.062297452
0.010749423 0.006637906 0.014614382 0.09107359 -0.0023978688 -0.008647949 0.04754081 -0.014826456
-0.03292992 -0.020501902 -0.019364992 -0.033934887 0.012636642 -0.052913394 -0.057994816 -0.021814657
0.043967724 -0.0064218803 -0.084320046 -0.032773733 0.08878008 -0.0503194 -0.04832861 -0.0021017
0.045834634 -0.02866976 -0.030676203 0.023852486 0.018025579 -0.041013412 -0.032537222 0.004800067
0.030337572 -0.040508766 0.036991622 0.019630669 -0.009810784 0.04553367 -0.019638881 -0.032603193
0.053022504 0.028976152 -0.029253319 0.007867332 0.064913414 0.01955221 -0.019025426 -0.035385173
-0.06753865 0.07195986 0.023727413 0.0064167236 -0.008817301 0.0056404336 0.023866385 0.0039853803
-0.020954464 0.03457936 -0.006506962 0.026274469 -0.08565419 0.040633798 0.06301883 0.0011415732
-0.050725043 0.12008271 -0.019626455 -0.08391402 0.046379182 0.04996954 -0.022737388 0.0022701446
0.025522862 -0.004225693 -0.010067031 0.033443093 -0.026100777 -0.053273883 0.024241824 0.051207837
0.027279973 0.044637173 0.035042368 0.023153761 -0.0029214772 0.046799883 -0.0045058755 0.0073408163
0.030080553 0.037552282 0.053314768 -0.028651843 0.008833216 -0.013002091 0.041659538 0.04509472
0.0061630276 -0.005024949 -0.022122184 -0.04578921 -0.057605498 0.0344715 0.0648175 -0.009059024
-0.0143888015 -0.07179142 -0.060605053 0.021092143 0.06189433 -0.03782157 -0.00062553736 0.019104246
-0.025329482 -0.014154907 0.006083886 -0.0103290975 -0.013490732 0.04608228 -0.0044166017 -0.0025467942
0.003222339 -0.054138944 -0.01559357 0.000788636 0.047022235 0.014082191 -0.046106253 -0.003849054
0.04584686 0.03995729 -1.3059987e-05 0.07268404 0.008883677 0.0075690616 -0.008922179 -0.008222757
0.009328026 0.016348194 0.07628777 0.025925634 -0.02517328 0.10832461 0.020044353 -0.033474416
-0.08506341 0.030241802 0.11780976 0.011869203 0.03801134 0.026498245 0.016981257 0.028121194
-0.05384374 -0.005053109 0.026739901 0.0682609 0.021365793 -0.023502512 -0.035648115 0.022001635
-0.011177727 -0.06515391 0.04603635 -0.019899402 -0.012093526 -0.010473337 0.016967274 0.06699707
-0.064605 0.028608494 0.008485415 -0.045686327 -0.043798827 -0.033810705 0.043182746 0.02055938
-0.049115773 -0.01641535 -0.01847309 0.06061722 0.009746191 0.0029648268 0.02828219 -0.026535014
-0.042479154 -0.027878447 -0.0018247253 -0.012468484 0.087891966 0.129562 -0.049612235 -0.017123846
-0.019634783 -0.012336578 0.004570467 0.049264543 -0.0018155703 -0.033817608 -0.011877907 0.038455486
0.037539102 -0.056200013 0.011629349 0.04168528 0.041105412 -0.05661728 -0.015317654 0.025717283
0.045068037 -0.022466611 -0.031049734 0.033916462 0.045969862 0.03024711 -0.03827405 0.011883086
0.021269461 -0.05141196 -0.009883391 0.026039379 -0.008653834 -0.0704796 0.025469163 -0.00514219
0.0747912 -0.0036071436 -0.06549348 0.004112408 0.023820974 -0.027151518 0.029085575 -0.034939468
00000000: 7ac5 48bc 57ee 23bc 792e c0bb 091c d1bc
00000010: ec56 16bd 1ba3 62bd f42f bcbc 7a1c 953c
00000020: 2675 143c 4018 8e3d 2511 25bd 8fd5 983c
00000030: 07f9 833d f392 243d 3900 78bb a613 54bb
00000040: 7231 81bc 59a9 ac3a 385e 563d af41 6cbc
00000050: 7ff3 06bd 2a1c bcbc d057 153d 9d2b 7f3d
00000060: 591e 303c cb82 d93b 2971 6f3c ca84 ba3d
00000070: 9025 1dbb 21b0 0dbc 27ba 423d aaea 72bc
00000080: 86e1 06bd 9bf3 a7bc 55a3 9ebc 4fff 0abd
00000090: eb09 4f3c b7bb 58bd f98b 6dbd a7b4 b2bc
000000a0: 8017 343d a36e d2bb fdaf acbd c03d 06bd
000000b0: 55d2 b53d b71b 4ebd 38f4 45bd adbc 09bb
000000c0: 19bd 3b3d d8dc eabc a94c fbbc 4a66 c33c
000000d0: 61aa 933c aefd 27bd c045 05bd e149 9d3b
000000e0: 8086 f83c 85ec 25bd 8784 173d 7fd0 a03c
000000f0: 69bd 20bc 8381 3a3d b8e1 a0bc ed8a 05bd
00000100: 202e 593d 655f ed3c a8a4 efbc fbe5 003c
00000110: 53f1 843d f52b a03c 36db 9bbc 0bf0 10bd
00000120: b451 8abd b15f 933d fe5f c23c 6143 d23b
00000130: 7176 10bc 63d3 b83b 7083 c33c cb97 823b
00000140: b2a8 abbc 16a3 0d3d 5a38 d5bb 8e3d d73c
00000150: 776b afbd a06f 263d 0410 813d d7a0 953a
00000160: 10c5 4fbd eded f53d a9c7 a0bc 1ddb abbd
00000170: 19f8 3d3d dcac 4c3d c243 babc b5c6 143b
00000180: 5215 d13c af77 8abb 30f0 24bc a0fb 083d
00000190: 4cd1 d5bc b735 5abd ca96 c63c 4fbf 513d
000001a0: 407a df3c 78d5 363d 9688 0f3d f5ac bd3c
000001b0: 4176 3fbb 3cb1 3f3d 06a6 93bb 3b8b f03b
000001c0: 7e6b f63c 6cd0 193d 9660 5a3d 45b7 eabc
000001d0: 31b9 103c b906 55bc 31a3 2a3d 3eb5 383d
000001e0: 39f3 c93b 54a8 a4bb 9539 b5bc 778d 3bbd
000001f0: bef3 6bbd fd31 0d3d 0abf 843d 4d6c 14bc
00000200: 02bf 6bbc 6107 93bd 013d 78bd 6ec9 ac3c
00000210: e984 7d3d caea 1abd 1afb 23ba 8280 9c3c
00000220: c67f cfbc fce9 67bc 565b c73b 603b 29bc
00000230: 3b08 5dbc c6c0 3c3d 24b9 90bb 1ee8 26bb
00000240: e12d 533b ccc0 5dbd 2c7c 7fbc 77bc 4e3a
00000250: 639a 403d fdb8 663c e9d9 3cbd 6940 7cbb
00000260: ebc9 3b3d 41aa 233d 381c 5bb7 5fdb 943d
00000270: d88c 113c e405 f83b 552e 12bc beb8 06bc
00000280: 94d4 183c a6ec 853c c33c 9c3d ff61 d43c
00000290: 3238 cebc 4bd9 dd3d 0e34 a43c 781c 09bd
000002a0: ba35 aebd a8bd f73c 3e46 f13d 0c77 423c
000002b0: c7b1 1b3d d912 d93c 471c 8b3c 6b5e e63c
000002c0: 418b 5cbd 8d94 a5bb a30d db3c 5fcc 8b3d
000002d0: 5107 af3c 5788 c0bc c203 12bd c63c b43c
000002e0: c922 37bc 6a6f 85bd 9d90 3c3d 1204 a3bc
000002f0: ed23 46bc 5c98 2bbc f4fe 8a3c c335 893d
00000300: a04f 84bd 5c5c ea3c 6906 0b3c 9621 3bbd
00000310: 6666 33bd 187d 0abd 64e0 303d 256c a83c
00000320: 9f2d 49bd 7c79 86bc e154 97bc c349 783d
00000330: 7dae 1f3c 8a4d 423b 0db0 e73c f55f d9bc
00000340: 9ffe 2dbd 5761 e4bc 9f2b efba 9d48 4cbc
00000350: b400 b43d e7ab 043e 3336 4bbd 4f47 8cbc
00000360: 20d9 a0bc 5c1f 4abc dbc3 953b 9ec9 493d
00000370: 6ef8 edba 5584 0abd 8e9b 42bc 8083 1d3d
00000380: 9ac2 193d fc31 66bd 0689 3e3c 2fbe 2a3d
00000390: 265e 283d 85e7 67bd e6f6 7abc 0dad d23c
000003a0: 4399 383d e60b b8bc 035c febc fdeb 0a3d
000003b0: e54a 3c3d cac8 f73c 40c5 1cbd 46b1 423c
000003c0: 4b3d ae3c 5995 52bd f2ed 21bc 8950 d53c
000003d0: d0c8 0dbc 9c57 90bd b5a4 d03c d17f a8bb
000003e0: 212c 993d d465 6cbb 7221 86bd 61c1 863b
000003f0: 3424 c33c dc6c debc df44 ee3c b01c 0fbd

encoder.3.bias f4 [40]
0.011573535 0.060337193 0.015978111 -0.012819839 0.07619909 0.005471695 0.14317223 -0.007704614
-0.00050199084 0.0029067395 0.027857928 0.043506283 0.008348265 0.018642941 0.03250667 0.02602653
-0.012413049 -0.017762203 -0.007956555 -0.019998735 -0.0018477683 0.0035370386 0.13319723 0.0036792145
-0.029550038 0.0071166917 0.010488609 0.008318229 0.057745464 0.018416412 -0.009158819 -0.01100796
-0.038719397 -0.014206024 -0.016150437 -0.024580993 -0.019347377 -0.03670598 0.015987547 -0.009440584
00000000: ed9e 3d3c 2224 773d 87e4 823c 4d0a 52bc
00000010: 450e 9c3d e84b b33b be9b 123e fd76 fcbb
00000020: 0998 03ba ff7e 3e3b 4f36 e43c a533 323d
00000030: 29c7 083c 15b9 983c b725 053d 9735 d53c
00000040: 1a60 4bbc 0a82 91bc 365c 02bc 63d4 a3bc
00000050: d130 f2ba a9cd 673b db64 083e fa1e 713b
00000060: ec12 f2bc 2333 e93b 6ad8 2b3c 2e49 083c
00000070: 8286 6c3d 04de 963c df0e 16bc bb5a 34bc
00000080: 3b98 1ebd 62c0 68bc ec4d 84bc 145e c9bc
00000090: 647e 9ebc 0259 16bd 51f8 823c aeac 1abc

encoder.4.block.1.weight f4 [40, 40, 3, 3]
0.032821253 -0.03807525 0.05001429 -0.038642593 -0.072110526 -0.07863723 -0.0070454124 -0.069905385
-0.009964066 0.008005978 0.043471213 0.10514664 0.014571991 -0.109184675 -0.08821307 -0.036915198
0.075636655 0.011514223 0.04994645 -0.00995961 0.120259404 0.02399248 0.013524726 0.0556195
0.1320965 0.014666863 -0.019266617 -0.159405 0.20308323 -0.027389623 -0.06238737 -0.046552133
-0.063387975 -0.018554304 -0.18845429 -0.0316451 -0.07359227 -0.019520974 0.029757544 0.14615129
0.13202935 -0.076233685 0.032052495 2.6392083e-05 -0.015971778 0.0032436105 -0.031436466 0.08731267
0.0844895 0.017902698 -0.005242496 0.07290614 -0.00838321 -0.007818815 -0.017400553 0.060007628
0.007379671 0.045068517 0.08355875 -0.024286203 -0.03308286 0.038254 0.013895326 -0.07293614
-0.028839147 0.055242483 -0.019364377 0.07691498 -0.045894485 -0.010134004 -0.07202049 -0.014303365
-0.049222354 -0.036784478 -0.024525508 0.061603714 0.06354346 -0.013546761 -0.01601411 -0.06547183
-0.019613454 -0.009548165 0.07005367 0.048470907 -0.018785683 0.0715217 -0.0052988124 0.05079282
0.14976488 0.040792033 0.041308075 -0.039052907 -0.038255114 -0.060318798 -0.049796708 -0.017189812
-0.028868474 -0.05117985 -0.045255896 -0.0143602565 0.064325504 -0.0973477 0.023569306 0.06758498
0.05194688 -0.017206777 -0.0009989907 -0.022480529 -0.017876903 0.0702151 -0.05095914 0.017497139
0.056592643 0.0063395244 -0.09938697 -0.049164258 -0.057014734 0.008671658 -0.050332297 -0.047237918
-0.041324887 -0.17013904 0.14479086 0.012618165 -0.023600122 -0.0036583322 -0.07149744 0.042574383
-0.013861065 0.2240606 -0.1706772 -0.01178332 0.044295892 0.032526415 -0.013215429 -0.02608554
0.056098066 0.008339914 0.06741749 -0.029766848 0.06472745 0.008420187 -0.017556526 -0.024939913
-0.027178349 -0.055709857 -0.08655894 0.07977213 -0.05040363 0.032149915 -0.06812222 -0.039153595
0.016178666 0.076825224 0.0403618 -0.050223574 -0.099182315 0.15211593 0.07089664 -0.12972954
-0.11562213 0.05257108 0.07584474 -0.034049623 -0.048656747 -0.0126802875 0.03723245 -0.027417388
0.00011420875 0.012361637 0.0063423645 0.0036635112 0.03987558 -0.046018723 -0.013928913 -0.1007653
-0.047223568 -0.23817183 -0.0027476677 -0.07456921 -0.055627562 0.107745886 -0.047036864 -0.063802674
-0.04024062 -0.011098666 -0.2840472 -0.032014813 0.01645047 -0.077421606 -0.022728985 -0.05607323
-0.15733735 -0.022376547 0.02914361 -0.097206965 0.101808265 -0.014631932 -0.0057273246 -0.009605366
0.021129247 -0.04610253 0.12430401 -0.021753892 -0.049102597 -0.10231596 -0.028568134 -0.03665632
0.03462952 -0.017693315 -0.083992004 -0.13690513 -0.015742516 0.08063264 0.045171928 0.083430305
0.038835734 -0.05907202 -0.030998433 -0.0003254875 0.18923183 0.11343422 0.09434881 -0.0024842978
0.050878104 0.01907196 0.0113585405 -0.030564142 -0.13357633 0.13327956 -0.01065535 0.04422064
0.02619217 -0.004319032 0.053224098 0.04697019 0.028970126 -0.006760586 0.02444468 0.015058288
-0.006650267 -0.029315164 -0.04306383 -0.013732647 -0.011121691 -0.011284306 0.16163698 -0.05892147
-0.06132702 0.036949676 -0.060166236 -0.0927116 -0.009418905 0.0068120565 0.045216918 0.03128433
00000000: 946f 063d cbf4 1bbd c9db 4c3d b247 1ebd
00000010: afae 93bd 8e0c a1bd 34dd e6bb 8e2a 8fbd
00000020: 5240 23bc 812b 033c df0e 323d 1f57 d73d
00000030: 5cbf 6e3c 379c dfbd 0ea9 b4bd 6434 17bd
00000040: 64e7 9a3d 27a6 3c3c a694 4c3d a22d 23bc
00000050: 904a f63d e18b c43c d096 5d3c 46d1 633d
00000060: 4e44 073e 484d 703c 06d5 9dbc 103b 23be
00000070: 0df5 4f3e 3460 e0bc e689 7fbd 73ad 3ebd
00000080: 8ed1 81bd 32ff 97bc 29fa 40be 4b9e 01bd
00000090: 8bb7 96bd 73ea 9fbc 18c6 f33c afa8 153e
000000a0: b432 073e 6820 9cbd 7a49 033d 9164 dd37
000000b0: 3fd7 82bc c192 543b 86c3 00bd fcd0 b23d
000000c0: d508 ad3d aea8 923c 3ec9 abbb d04f 953d
000000d0: bb59 09bc 7d1a 00bc 9b8b 8ebc 8fca 753d
000000e0: 2bd1 f13b c499 383d da20 ab3d dcf3 c6bc
000000f0: e581 07bd 3ab0 1c3d 39a9 633c 8b5f 95bd
00000100: 1340 ecbc f145 623d 0ba2 9ebc 9a85 9d3d
00000110: dbfb 3bbd 1809 26bc 7b7f 93bd a958 6abc
00000120: 619d 49bd 52ab 16bd b8e9 c8bc 2d54 7c3d
00000130: 1323 823d 3cf3 5dbc 0630 83bc 1816 86bd
00000140: 65ac a0bc e86f 1cbc 4c78 8f3d 6e89 463d
00000150: 6fe4 99bc f879 923d a9a1 adbb 220c 503d
00000160: f75b 193e 8c15 273d a832 293d f1f5 1fbd
00000170: 65b1 1cbd d810 77bd a2f7 4bbd a6d1 8cbc
00000180: 947d ecbc f6a1 51bd 3f5e 39bd 4847 6bbc
00000190: 17bd 833d 3b5e c7bd 6b14 c13c fe69 8a3d
000001a0: 40c6 543d 3af5 8cbc 91f0 82ba 1629 b8bc
000001b0: 9572 92bc efcc 8f3d 88ba 50bd 2956 8f3c
000001c0: b0cd 673d c9bb cf3b 658b cbbd 7660 49bd
000001d0: 4888 69bd 9213 0e3c 3d29 4ebd 8c7c 41bd
000001e0: 4944 29bd ee38 2ebe 0e44 143e 6cbc 4e3c
000001f0: 0b55 c1bc a1c0 6fbb 406d 92bd 7a62 2e3d
00000200: 8519 63bc 2470 653e 01c6 2ebe d40e 41bc
00000210: 9c6f 353d 6b3a 053d 8785 58bc 58b1 d5bc
00000220: 16c7 653d 22a4 083c 2e12 8a3d 9bd9 f3bc
00000230: d38f 843d d3f4 093c b4d2 8fbc ca4e ccbc
00000240: 21a5 debc 0530 64bd d045 b1bd 925f a33d
00000250: 0974 4ebd a1af 033d aa83 8bbd 855f 20bd
00000260: 1f89 843c 8b56 9d3d 6a52 253d 3cb7 4dbd
00000270: 1920 cbbd 47c4 1b3e 4232 913d d2d7 04be
00000280: 4ccb ecbd c654 573d 7d54 9b3d 9e77 0bbd
00000290: 4c4c 47bd fbc0 4fbc 0e81 183d 6e9a e0bc
000002a0: 5b83 ef38 7788 4a3c 9cd3 cf3b 8517 703b
000002b0: 9454 233d 217e 3cbd 1836 64bc 0a5e cebd
000002c0: 806d 41bd 51e3 73be 3712 34bb beb7 98bd
000002d0: bad9 63bd e0a9 dc3d baa9 40bd faaa 82bd
000002e0: 59d3 24bd 2ed7 35bc a26e 91be f721 03bd
000002f0: 23c3 863c 388f 9ebd 2332 babc 0bad 65bd
00000300: 0b1d 21be 054f b7bc 94be ee3c 7214 c7bd
00000310: da80 d03d c5ba 6fbc 48ac bbbb d35f 1dbc
00000320: 3e17 ad3c 02d6 3cbd 1a93 fe3d 3835 b2bc
00000330: ce1f 49bd 088b d1bd b807 eabc f024 16bd
00000340: afd7 0d3d 92f1 90bc 0004 acbd dc30 0cbe
00000350: 73f6 80bc ba22 a53d 3306 393d 82dd aa3d
00000360: 3812 1f3d 81f5 71bd 6df0 fdbc 31a6 aab9
00000370: fdc5 413e 3350 e83d f339 c13d 9acf 22bb
00000380: 8f65 503d cd3c 9c3c 2c19 3a3c a761 fabc
00000390: 3cc8 08be 707a 083e c793 2ebc b420 353d
000003a0: f690 d63c ab86 8dbb 8301 5a3d d063 403d
000003b0: c252 ed3c e887 ddbb 3640 c83c 0ab7 763c
000003c0: 7cea d9bb 5b26 f0bc b363 30bd e5fe 60bc
000003d0: c137 36bc cfe1 38bc 2a84 253e a457 71bd
000003e0: 0b32 7bbd 8b58 173d df70 76bd 94df bdbd
000003f0: c051 1abc ac37 df3b 6035 393d ff23 003d

encoder.4.block.1.bias f4 [40]
0.003061763 -0.005079475 -0.00043282294 0.0007533406 -0.00055949163 0.002754211 0.0013583673 0.00040778267
0.00071075454 -0.00093694136 0.0045761666 0.008492825 -0.00022366448 0.0017530882 -0.0003241579 0.0011536853
-0.0019956671 -0.001474819 0.0006545788 0.0012229945 -0.00017545294 6.215833e-05 -0.00080049795 -0.0022017686
0.0036587028 -0.0005179043 0.0012212661 0.0052212765 -0.00014660778 0.00077278697 0.0018085731 0.0015744085
0.0014655831 0.0024070442 -0.00035351247 0.0047747158 -0.0032265158 0.00031498427 -0.000283629 0.0026429025
00000000: dca7 483b ba71 a6bb 83ec e2b9 d57b 453a
00000010: d9aa 12ba fe7f 343b 3e0b b23a aacb d539
00000020: ee51 3a3a 129d 75ba abf3 953b 7d25 0b3c
00000030: 7a87 6ab9 e1c7 e53a bdf3 a9b9 4137 973a
00000040: bdc9 02bb b74e c1ba 0a98 2b3a e34c a03a
00000050: caf9 37b9 005b 8238 82d8 51ba 8c4b 10bb
00000060: d9c6 6f3b f8c3 07ba e412 a03a 3e17 ab3b
00000070: baba 19b9 db94 4a3a a50d ed3a 625c ce3a
00000080: cf18 c03a 80bf 1d3b a457 b9b9 3875 9c3b
00000090: f473 53bb 7924 a539 0ab4 94b9 8c34 2d3b

encoder.4.block.2.weight f4 [40]
1.0983962 1.0207782 0.95296705 0.9202088 0.93051016 0.9311269 0.95424825 0.94050467
0.881974 0.84840333 0.98333234 1.0410831 0.9523569 1.1747237 1.0998883 1.0660578
1.08157 0.74234545 0.9309195 0.9604282 1.0264218 1.0560408 0.736854 1.0143162
0.8329861 0.8994004 1.127814 1.071139 1.0422987 1.1235776 1.1136208 1.0976425
0.9979097 1.1654459 0.945899 1.0568473 0.97020054 0.8063303 1.1660669 0.8710561
00000000: 3f98 8c3f dca8 823f a6f5 733f ce92 6b3f
00000010: ea35 6e3f 555e 6e3f 9d49 743f eac4 703f
00000020: 0cc9 613f f630 593f abbb 7b3f 3642 853f
00000030: a9cd 733f 595d 963f 24c9 8c3f 9574 883f
00000040: e370 8a3f 5a0a 3e3f be50 6e3f 9fde 753f
00000050: ca61 833f 582c 873f 77a2 3c3f 1dd5 813f
00000060: 943e 553f 1b3f 663f 365c 903f 151b 893f
00000070: 0b6a 853f 64d1 8f3f 208b 8e3f 8d7f 8c3f
00000080: 0377 7f3f 552d 953f 7026 723f c646 873f
00000090: 105f 783f aa6b 4e3f ae41 953f 88fd 5e3f

encoder.4.block.2.bias f4 [40]
0.2337731 -0.0052602068 -0.10991573 0.2355065 0.25338176 0.37264973 0.14798832 0.07532427
0.11506821 -0.09978024 0.11092446 0.31208646 0.36406448 0.4301237 0.41436404 -0.06012249
0.016505262 0.0387635 0.18249881 0.29496855 -0.21615766 -0.10305355 -0.08144736 -0.16256051
0.15183684 -0.13577789 0.24378723 0.076819584 -0.007090835 0.017578196 0.28650862 0.26598307
0.032826666 0.35840586 0.27370307 -0.027065285 0.006411971 -0.10818196 -0.15851767 0.14631206
00000000: 3762 6f3e d05d acbb 801b e1bd 9e28 713e
00000010: 41bb 813e f2cb be3e 408a 173e 9c43 9a3d
00000020: e2a8 eb3d 9559 ccbd 5d2c e33d ccc9 9f3e
00000030: a966 ba3e 2c39 dc3e 8627 d43e 0043 76bd
00000040: 0b36 873c 7ac6 1e3d f8e0 3a3e 1e06 973e
00000050: 6f58 5dbe bd0d d3bd e0cd a6bd 4376 26be
00000060: 1e7b 1b3e 5c09 0bbe 5ca3 793e 9653 9d3d
00000070: 3c5a e8bb 2600 903c 42b1 923e ef2e 883e
00000080: 4175 063d f980 b73e cf22 8c3e 04b8 ddbc
00000090: 831b d23b 818e ddbd 7552 22be d4d2 153e

encoder.4.block.2.running_mean f4 [40]
0.32489657 -0.81838024 -0.75455195 -0.54797363 0.28400826 0.754966 0.35964912 -0.22025721
0.33569127 -0.431231 0.47808248 0.16049945 0.1311749 0.3443383 0.41803214 -0.7333669
-0.6962768 -0.086880095 0.53107494 0.069267064 -0.015318749 -0.79273874 -0.16410267 -0.3055518
0.32654187 -0.68164784 0.68388003 0.49802998 0.075698726 -0.877843 0.87971133 0.7099387
-0.6665394 0.0114428 0.40703112 -0.54607207 -0.28692344 -0.69851565 -0.36354828 0.05638738
00000000: d858 a63e 5e81 51bf 512a 41bf 0048 0cbf
00000010: 8869 913e 7445 413f ee23 b83e 1b8b 61be
00000020: badf ab3e 4fca dcbe 3ac7 f43e f859 243e
00000030: b752 063e 1c4d b03e 4f08 d63e efbd 3bbf
00000040: 323f 32bf 31ee b1bd 87f4 073f e4db 8d3d
00000050: 7dfb 7abc edf0 4abf 880a 28be 4971 9cbe
00000060: 7f30 a73e 7980 2ebf c312 2f3f c9fd fe3e
00000070: ef07 9b3d 52ba 60bf c334 613f 8bbe 353f
00000080: 53a2 2abf 957a 3b3c 6266 d03e 61cb 0bbf
00000090: a1e7 92be ecd1 32bf 0023 babe 74f6 663d

encoder.4.block.2.running_var f4 [40]
0.43550426 0.9860263 0.74615544 0.5653412 0.40418875 0.8601741 0.4919147 0.13681594
0.517746 0.5605157 0.5752771 0.35965592 0.3625336 0.34698495 0.6094663 0.70914894
0.45734236 0.21955755 0.5953986 0.24434929 0.13540521 0.8434232 0.10692254 0.5610246
0.47769812 0.5792568 0.58502984 0.47982115 0.1153008 1.0358117 0.7718283 1.0277851
0.9039889 0.27260357 0.56687444 0.43656218 0.43863767 0.4814342 0.1196837 0.42837703
00000000: 6afa de3e 386c 7c3f 0b04 3f3f 33ba 103f
00000010: d4f1 ce3e 5f34 5c3f 3edc fb3e 7a19 0c3e
00000020: 008b 043f f57d 0f3f 5c45 133f d224 b83e
00000030: 019e b93e 03a8 b13e fc05 1c3f c98a 353f
00000040: c728 ea3e b2d3 603e 0b6c 183f b336 7a3e
00000050: aaa7 0a3e 95ea 573f 34fa da3d 4f9f 0f3f
00000060: d994 f43e 2c4a 143f 84c4 153f 1eab f53e
00000070: d322 ec3d 7a95 843f 8a96 453f 768e 833f
00000080: d16b 673f b292 8b3e af1e 113f 1485 df3e
00000090: 1e95 e03e 8b7e f63e ba1c f53d 3c54 db3e

encoder.4.block.4.weight f4 [40, 40, 1, 1]
0.18583213 0.10448253 0.26505104 0.168145 0.20046404 -0.23975508 0.10014225 0.012801521
0.10398527 0.032110628 -0.15534599 -0.031332616 -0.099003665 -0.27064517 -0.15411375 0.05656006
0.2869512 0.07869839 -0.0643872 -0.13090232 0.09704639 0.08959785 -0.013961027 0.16441174
0.26098844 0.029336385 -0.3512216 -0.24255584 -0.22044918 0.040253304 -0.3154625 0.09116688
0.08593245 -0.27640858 0.06150501 0.010897928 -0.06640874 -0.00062181655 0.3638039 0.03754955
0.1102488 -0.011996734 0.21636857 -0.15380138 0.010349488 -0.23054898 0.00981017 -0.03060628
0.18418303 0.016474832 0.1014221 0.10208413 0.20610097 0.15324509 0.270429 -0.22200768
0.022986175 0.16414455 0.01730895 0.06402647 -0.009020842 -0.19360927 -0.042653456 -0.024500322
-0.05445048 -0.035342187 0.1249012 0.20509787 0.010509138 -0.061852302 0.1350878 0.17997132
0.08335605 0.33990386 0.26530445 -0.1568272 -0.19417956 -0.13393463 -0.1933038 -0.015060199
-0.11443123 0.3118067 -0.108445905 -0.077143475 -0.10116059 -0.11922915 -0.038468566 -0.20076557
0.06802761 0.015364593 0.12202065 -0.23285545 0.10222819 -0.125202 -0.1554374 0.22291866
0.08800585 -0.011836863 -0.15264167 0.031985678 0.04263357 0.19635841 0.042144272 0.025094073
-0.20453796 0.0913978 -0.13491417 0.060105003 -0.1816814 0.063323855 -0.117730044 -0.28161573
-0.033038415 -0.24407822 0.016994443 0.1248526 -0.011590347 0.14729488 0.49802613 -0.281359
-0.101235 0.26162046 0.10848718 0.09425839 0.0040410766 0.020864308 -0.038988873 -0.24701588
-0.094437696 -0.030527834 0.07164535 -0.16713558 -0.02711384 -0.002511488 -0.15020435 -0.25054362
-0.056672256 0.09854358 -0.008559817 0.12953864 0.22498503 0.06600669 -0.04140142 0.11550769
-0.14329083 -0.07251714 -0.09229386 -0.1508602 0.18278016 -0.08874408 -0.10441039 0.041652817
0.13719524 -0.1624119 0.042241644 0.20786297 0.18269372 -0.05042956 0.4289597 -0.03787511
-0.12866312 -0.21120866 -0.008915861 -0.02937433 0.044019703 -0.18197313 0.2639632 -0.14114486
-0.07214919 0.22955781 -0.052004248 0.03194993 0.22630954 0.30026996 0.1348585 0.12548532
-0.24379736 0.1294843 0.1454941 0.24674849 0.1943086 0.0018912738 -0.15682949 0.086535245
-0.029920993 -0.052275218 0.009007036 0.21452446 0.060932066 -0.18405728 0.25845402 -0.07531211
-0.10581752 0.07739744 0.28702945 -0.14043568 0.014497215 -0.1767925 -0.20291385 0.14452146
-0.06213337 0.008883388 0.24591237 -0.028774204 -0.15668228 -0.26560798 -0.14776804 0.14405265
-0.0028169458 -0.038697463 -0.1537649 -0.30020112 -0.28456455 -0.014214507 0.06465302 0.2587411
0.17404114 -0.10047115 -0.0065747094 -0.36658326 0.0025012034 0.05688312 -0.047204614 0.051933464
0.00738994 -0.059893243 0.03786038 0.16238417 -0.40530965 0.23512283 -0.22862509 0.10733742
0.032965444 0.11360557 -0.2934563 0.13540933 -0.06396943 -0.040653165 0.39287084 -0.029011954
-0.18576843 -0.14977275 -0.3054764 -0.0044169603 0.0052532894 -0.14724852 0.1917636 0.113581635
0.2778333 0.036953427 -0.50775266 -0.23767447 -0.08022307 -0.056484018 -0.08300007 -0.08827343
00000000: c74a 3e3e f0fa d53d c5b4 873e 342e 2c3e
00000010: 7246 4d3e 5b82 75be 6117 cd3d 79bd 513c
00000020: 3bf6 d43d 6f86 033d 0513 1fbe a156 00bd
00000030: 6fc2 cabd 0192 8abe ffcf 1dbe 85ab 673d
00000040: 45eb 923e 9f2c a13d 70dd 83bd 420b 06be
00000050: 42c0 c63d 147f b73d cbbc 64bc 8d5b 283e
00000060: 47a0 853e dc52 f03c 51d3 b3be 8f60 78be
00000070: 6ebd 61be a6e0 243d 4d84 a1be b4b5 ba3d
00000080: 5afd af3d 6d85 8dbe adec 7b3d 398d 323c
00000090: 4e01 88bd 6701 23ba 8144 ba3e 8fcd 193d
000000a0: 1fca e13d f38d 44bc b98f 5d3e 1c7e 1dbe
000000b0: e690 293c 0815 6cbe d6ba 203c 05ba fabc
000000c0: 7a9a 3c3e 3af6 863c 64b6 cf3d 7c11 d13d
000000d0: 220c 533e 48ec 1c3e ab75 8a3e fb55 63be
000000e0: 814d bc3c 8215 283e 80cb 8d3c 4f20 833d
000000f0: 27cc 13bc 8241 46be 64b5 2ebd e6b4 c8bc
00000100: 7707 5fbd f8c2 10bd 33cc ff3d 2d05 523e
00000110: 852e 2c3c d758 7dbd 7554 0a3e 674a 383e
00000120: 94b6 aa3d e107 ae3e fcd5 873e 4f97 20be
00000130: 02d7 46be 2926 09be 6ef1 45be 0ebf 76bc
00000140: ec5a eabd 21a5 9f3e e318 debd 66fd 9dbd
00000150: 492d cfbd 6a2e f4bd 3791 1dbd 7d95 4dbe
00000160: 0f52 8b3d c6bb 7b3c f6e5 f93d a971 6ebe
00000170: 035d d13d f434 00be fb2a 1fbe ca44 643e
00000180: 693c b43d 67ef 41bc 194e 1cbe 6a03 033d
00000190: 8aa0 2e3d 2e12 493e 799f 2c3d 1692 cd3c
000001a0: 6672 51be c52e bb3d f126 0abe aa30 763d
000001b0: b00a 3abe f0af 813d 731c f1bd f02f 90be
000001c0: 4a53 07bd a4ef 79be ee37 8b3c b8b2 ff3d
000001d0: 70e5 3dbc 78d4 163e 48fd fe3e 490e 90be
000001e0: 4c54 cfbd 1ef3 853e 872e de3d 8b0a c13d
000001f0: 026b 843b a0eb aa3c ccb2 1fbd bbf1 7cbe
00000200: 8d68 c1bd 8215 fabc ccba 923d 9725 2bbe
00000210: d81d debc c797 24bb 2bcf 19be 4147 80be
00000220: 2b21 68bd 37d1 c93d 7a3e 0cbc c7a5 043e
00000230: 7a62 663e 842e 873d 8994 29bd 4c8f ec3d
00000240: d5ba 12be de83 94bd 9004 bdbd 197b 1abe
00000250: b92a 3b3e 75bf b5bd 1dd5 d5bd 259c 2a3d
00000260: e97c 0c3e 4e4f 26be 9305 2d3d 08da 543e
00000270: 1014 3b3e 3a8f 4ebd 9ba0 db3e ee22 1bbd
00000280: 44c0 03be 1547 58be d513 12bc 6fa2 f0bc
00000290: 014e 343d 2a57 3abe 2f26 873e 4788 10be
000002a0: f4c2 93bd 3411 6b3e 6802 55bd eedd 023d
000002b0: b0bd 673e fcbc 993e 5918 0a3e 397f 003e
000002c0: 04a6 79be 8897 043e 68fc 143e a3ab 7c3e
000002d0: d5f8 463e 9ee4 f73a e997 20be 6439 b13d
000002e0: df1c f5bc 8a1e 56bd 3f92 133c 4dac 5b3e
000002f0: e793 793d 8379 3cbe 1654 843e 3c3d 9abd
00000300: dbb6 d8bd 8d82 9e3d 86f5 923e 5fce 0fbe
00000310: ba85 6d3c 1809 35be a6c8 4fbe 6ffd 133e
00000320: 907f 7ebd a18b 113c 74d0 7b3e e1b7 ebbc
00000330: 5271 20be c5fd 87be 8150 17be 8a82 133e
00000340: 829c 38bb 3b81 1ebd 8c74 1dbe f6b3 99be
00000350: 72b2 91be f7e3 68bc cd68 843d b779 843e
00000360: d737 323e d1c3 cdbd a970 d7bb cdb0 bbbe
00000370: 3beb 233b 46fe 683d a059 41bd 2fb8 543d
00000380: 4f27 f23b 9e52 75bd 7c13 1b3d 0948 263e
00000390: bf84 cfbe 0ac4 703e b21c 6abe b9d3 db3d
000003a0: c606 073d 09aa e83d e73f 96be bea8 0a3e
000003b0: 6802 83bd ef83 26bd 5e26 c93e 7aaa edbc
000003c0: 143a 3ebe 075e 19be 6767 9cbe 26bc 90bb
000003d0: c923 ac3b 51c8 16be ad5d 443e 7d9d e83d
000003e0: 2b40 8e3e 7a5c 173d 14fc 01bf f060 73be
000003f0: fe4b a4bd c95b 67bd f1fb a9bd b3c8 b4bd

encoder.4.block.4.bias f4 [40]
-0.00821146 0.0020644264 -0.005210489 -0.001644651 -0.00066195044 0.00023127017 -0.011418004 -0.009269662
0.0003906369 -0.00010827738 -0.0021895298 -0.004069462 -0.0045415014 0.0013490213 -0.0065965154 0.00013205856
-0.006177389 0.0005338159 0.0028170834 0.009903017 0.007303333 -0.0049088807 0.004674429 -0.001022694
-0.005680319 -0.00420954 -0.0035362833 0.000101693295 -0.005279398 -0.008045121 0.0016951157 0.005526937
-0.0023814184 -0.0032751556 -0.008072771 -0.004240605 -0.0058487984 -0.006204183 0.0019248915 -0.0018424343
00000000: 5c89 06bc 544b 073b c0bc aabb 5591 d7ba
00000010: be86 2dba 1d81 7239 9412 3bbc c8df 17bc
00000020: 66ce cc39 fa12 e3b8 377e 0fbb 1f59 85bb
00000030: e0d0 94bb a5d1 b03a 9527 d8bb 3379 0a39
00000040: b26b cabb c7ef 0b3a d19e 383b 4440 223c
00000050: cc50 ef3b adda a0bb f42b 993b eb0b 86ba
00000060: f821 babb 2ef0 89bb fdc0 67bb 2c44 d538
00000070: cdfe acbb afcf 03bc a52e de3a 4f1b b53b
00000080: 9211 1cbb fea3 56bb a843 04bc c6f4 8abb
00000090: 47a7 bfbb 764c cbbb a44c fc3a d67d f1ba

encoder.4.block.5.weight f4 [40]
0.8304053 0.6787486 0.7564805 0.66907513 0.80318826 0.7129114 1.017591 0.5601098
0.8143353 0.70890105 0.88135225 0.9239992 0.8099147 0.6686916 0.64884955 1.180708
0.60707575 0.9797426 0.94274765 0.62641 0.5457141 0.94823265 0.85277206 0.72378576
0.65900034 0.5914204 0.929157 0.9066254 0.8309309 0.7881158 0.8552474 0.6067769
0.54501516 0.81994766 0.90347785 0.8488829 0.83596593 0.7789216 0.5520214 0.70181495
00000000: 7195 543f 78c2 2d3f b5a8 413f 8248 2b3f
00000010: bf9d 4d3f 5d81 363f 6c40 823f 5b63 0f3f
00000020: 4778 503f 8a7a 353f 4da0 613f 368b 6c3f
00000030: 9256 4f3f 5f2f 2b3f 011b 263f 7121 973f
00000040: 5169 1b3f 69d0 7a3f e957 713f 685c 203f
00000050: ebb3 0b3f 60bf 723f 454f 5a3f 064a 393f
00000060: 3fb4 283f 5467 173f 3cdd 6d3f 9a18 683f
00000070: e3b7 543f f5c1 493f 7ef1 5a3f bb55 1b3f
00000080: 1d86 0b3f 17e8 513f 534a 673f 6450 593f
00000090: dd01 563f 6867 473f 4651 0d3f 25aa 333f

encoder.4.block.5.bias f4 [40]
-0.3396477 0.12366025 -0.24749176 -0.09368051 0.030264663 -0.1379274 -0.2627303 -0.24726194
0.14951868 -0.20541501 0.087368384 -0.045522336 -0.25712684 0.023128616 -0.030495664 -0.24561663
-0.2126654 0.09536708 0.1825871 -0.029334992 -0.019421035 0.08846811 0.06488956 -0.0020223036
-0.18198451 -0.14327025 0.12582314 0.09455375 -0.19428271 -0.10201025 -0.11574955 -0.02475777
-0.11959035 -0.19695829 -0.09248571 -0.31654644 -0.25687078 -0.13123271 0.06959473 -0.17091924
00000000: 4ee6 adbe 9641 fd3d 7b6e 7dbe 91db bfbd
00000010: 99ed f73c d73c 0dbe 9684 86be 3c32 7dbe
00000020: 6d1b 193e 5058 52be 32ee b23d a175 3abd
00000030: 21a6 83be 3978 bd3c 0bd2 f9bc ed82 7bbe
00000040: f5c4 59be d14f c33d 1df8 3a3e f04f f0bc
00000050: dd18 9fbc c52e b53d d1e4 843d a088 04bb
00000060: 265a 3abe 70b5 12be c8d7 003e 65a5 c13d
00000070: 0cf2 46be c0ea d0bd 1a0e edbd cfd0 cabc
00000080: c9eb f4bd 6faf 49be 2669 bdbd 6012 a2be
00000090: 9184 83be de61 06be af87 8e3d 7405 2fbe

encoder.4.block.5.running_mean f4 [40]
-0.1461213 0.7352384 -0.4995675 0.02099884 0.5392369 -0.42164135 -0.7329486 -0.7055675
0.12640117 -0.20996 0.42816353 0.12513863 0.36017245 0.6762724 -0.059361424 -0.23369698
0.003686142 0.47551048 1.0154127 0.30069488 0.23504563 0.44409412 0.4661608 0.10165151
-0.19267228 -0.45230895 0.3356486 0.5646595 -0.38098168 -0.40649432 -0.3844342 0.101661436
-0.059717804 -0.18373331 -0.32237688 -0.79261315 -0.16967495 -0.17303486 0.58558786 -0.15361075
00000000: d2a0 15be 9538 3c3f 50c7 ffbe c205 ac3c
00000010: 6e0b 0a3f 60e1 d7be 85a2 3bbf 12a0 34bf
00000020: 4f6f 013e c1ff 56be 4038 db3e 5724 003e
00000030: 8668 b83e 3020 2d3f f724 73bd 434e 6fbe
00000040: 3393 713b 1c76 f33e 0bf9 813f aef4 993e
00000050: cdaf 703e 4e60 e33e a1ac ee3e ab2e d03d
00000060: e24b 45be 0a95 e7be 22da ab3e 868d 103f
00000070: 0810 c3be 0620 d0be 8fd4 c4be df33 d03d
00000080: a89a 74bd 9624 3cbe 950e a5be b2e8 4abf
00000090: 45bf 2dbe 0d30 31be 16e9 153f 234c 1dbe

encoder.4.block.5.running_var f4 [40]
2.8676894 4.0759754 3.7609918 2.0258787 2.424607 3.1116467 1.6552347 5.44248
1.2633992 1.8600938 2.8004413 1.6240951 0.5411188 4.735665 6.6461287 0.459028
1.5503356 1.5962622 3.7835672 1.6890011 1.8819252 4.164785 0.6500769 3.5835955
2.740917 0.46640468 3.3679628 6.0633893 2.2117488 1.0467067 1.9711688 6.826319
1.398477 0.91347325 3.127193 3.1566353 0.9437996 0.90567285 5.486887 1.560325
00000000: 3988 3740 646e 8240 17b4 7040 ffa7 0140
00000010: c32c 1b40 3825 4740 bbde d33f cc28 ae40
00000020: 11b7 a13f 8e17 ee3f 6e3a 3340 59e2 cf3f
00000030: c386 0a3f 918a 9740 16ad d440 b805 eb3e
00000040: 6671 c63f 5252 cc3f f725 7240 3031 d83f
00000050: ede2 f03f eb45 8540 716b 263f a159 6540
00000060: 2f6b 2f40 98cc ee3e b48c 5740 4907 c240
00000070: 4b8d 0d40 7cfa 853f 424f fc3f 3571 da40
00000080: 4b01 b33f 62d9 693f ee23 4840 5006 4a40
00000090: da9c 713f 2dda 673f 9494 af40 bbb8 c73f

encoder.5.block.1.weight f4 [40, 40, 3, 3]
0.099530496 0.011750061 -0.044825677 -0.041435927 -0.0738622 -0.00811886 0.13330688 -0.08009396
0.027501626 0.036998544 -0.01874794 -0.008949965 -0.028355638 0.20130463 0.025069227 -0.01933521
0.064304136 -0.04028478 -0.017404605 0.07671603 -0.015178208 -0.051320303 -0.3036702 0.062219266
-0.08448684 0.04200915 -0.039264575 0.025180656 -0.025644127 -0.002009058 0.08215283 -0.083141364
0.002519278 0.017451016 0.012564339 0.046533074 0.04936478 0.017696407 -0.018008336 0.006103301
-0.13663156 0.07713468 -0.007577332 -0.011632953 0.059712835 -0.004221954 0.0074473866 0.029054685
-0.08996628 -0.26315063 -0.040019434 -0.03597404 0.047920853 0.009499839 -0.020213995 0.09664952
-0.00046110645 0.006544423 -0.22927007 -0.04463045 -0.0020516135 -0.023299174 -0.012552988 -0.03126057
-0.030823424 0.047162063 -0.019241953 -0.14985685 -0.024771636 -0.02670086 0.018556884 0.0323131
-0.0042070607 -0.035203394 -0.038982738 -0.007234698 -0.11361219 -0.053507145 0.060098957 -0.07598602
0.01844594 0.023027921 0.032315787 0.031483095 0.017335203 0.0019518415 0.0699507 -0.049675908
0.038613234 0.046871454 0.0006367217 -0.0069961245 0.0057276264 -0.0033525622 0.13881366 0.0100458525
0.043690708 -0.0052882503 0.079136185 -0.017568234 0.029301539 -0.0090007605 -0.01259997 -0.22800599
0.025139831 -0.053531665 -0.07204684 -0.023936052 0.056607384 -0.04972247 0.008700557 0.12616184
-0.2578434 0.14950708 -0.08890194 0.09055601 -0.08727872 -0.013705443 -0.007832647 0.0505566
-0.013823745 -0.047876276 -0.023788976 0.018773025 0.013548033 -0.042019118 -0.06297739 -0.09419536
-0.034384817 0.03142972 0.10522604 -0.04260328 0.014189106 0.07799519 0.051372558 0.010646713
-0.02624461 0.0031234326 0.0126662 -0.09881484 -0.01334434 -0.00029669434 0.0008486314 -0.017305523
-0.16871715 -0.027186824 0.031229297 0.0018923836 -0.15204182 -0.010324021 0.032061744 0.03326148
0.056567967 0.022874191 0.0380494 0.03513948 -0.07035619 0.0025579408 0.047556393 0.014526866
-0.019267889 0.008838375 -0.026953643 -0.0017073976 -0.01922183 0.04454989 0.21493149 -0.088831745
-0.02143518 0.03469317 -0.03590985 0.05961031 -0.047487482 -0.03690023 0.042392198 -0.0077540115
-0.025263397 0.08294825 -0.038281616 -0.030503456 -0.054380488 -0.014126161 -0.013940779 0.021800041
-0.13936387 -0.07013932 -0.063133426 0.015659869 -0.06956402 -0.016992645 -0.0013073896 0.01480701
0.08031379 0.23895147 0.07019448 -0.04576408 -0.008195996 -0.05746346 0.013024999 0.011665686
0.0065591894 0.007405764 0.094776 0.017586831 0.02932578 -0.024620585 -0.039467927 -0.05487401
0.037844926 0.040892843 -0.056336224 0.07548683 -0.0644342 -0.0070037893 0.03078343 0.022209503
0.017024783 0.033116568 0.08218808 -0.021408306 -0.060297076 -0.029519532 0.028451055 -0.06794053
0.080284916 -0.012899293 -0.029272547 0.006048304 0.007873476 0.035621367 -0.07262973 -0.07010292
-0.0045652892 0.017400168 0.008982685 0.0155602 -0.044957183 -0.00380118 0.123289585 0.006325138
-0.042783465 -0.06442821 0.04518663 0.07102129 0.0057421695 0.03774261 0.0074016405 0.18016256
-0.04028843 0.059444502 0.0607634 -0.06495029 -0.016946113 0.010262198 0.0012617696 -0.048826564
00000000: a5d6 cb3d 5483 403c 219b 37bd b8b8 29bd
00000010: 1145 97bd f804 05bc 9981 083e 4d08 a4bd
00000020: 174b e13c c98b 173d 4895 99bc e0a2 12bc
00000030: 154a e8bc cd22 4e3e fb5d cd3c e064 9ebc
00000040: e3b1 833d a701 25bd 1a94 8ebc 4b1d 9d3d
00000050: 05ae 78bc 3d35 52bd a97a 9bbe a1d9 7e3d
00000060: 7007 adbd c911 2c3d e4d3 20bd aa47 ce3c
00000070: a213 d2bc 66aa 03bb be3f a83d 0546 aabd
00000080: 791a 253b 6ff5 8e3c a8da 4d3c 7799 3e3d
00000090: b932 4a3d 0ef8 903c 3886 93bc 33fe c73b
000000a0: 25e9 0bbe c9f8 9d3d 454b f8bb 2498 3ebc
000000b0: 7295 743d 5158 8abb 3509 f43b 1704 ee3c
000000c0: 3e40 b8bd aebb 86be 6beb 23bd 8459 13bd
000000d0: a848 443d 36a5 1b3c d297 a5bc 2ff0 c53d
000000e0: a9c0 f1b9 9972 d63b c6c5 6abe 6bce 36bd
000000f0: 5d74 06bb e9dd bebc 0cab 4dbc 150b 00bd
00000100: 6881 fcbc 022d 413d 4da1 9dbc 1374 19be
00000110: e3ed cabc c3bb dabc 9b04 983c be5a 043d
00000120: 62db 89bb 6f31 10bd 5dac 1fbd 0c11 edbb
00000130: 82ad e8bd 4f2a 5bbd 532a 763d 8f9e 9bbd
00000140: f11b 973c 0da5 bc3c 8f5d 043d 6bf4 003d
00000150: 8e02 8e3c efd4 ff3a 5042 8f3d f778 4bbd
00000160: e928 1e3d 48fc 3f3d ace9 263a bf3f e5bb
00000170: d0ae bb3b a9b6 5bbb 2b25 0e3e 5c97 243c
00000180: 07f5 323d 0f49 adbb 2712 a23d 42eb 8fbc
00000190: c809 f03c ed77 13bc 1b70 4ebc 677a 69be
000001a0: 0cf2 cd3c 0544 5bbd 4b8d 93bd 8a15 c4bc
000001b0: 25dd 673d caa9 4bbd c88c 0e3c 9230 013e
000001c0: 0d04 84be 6218 193e 3812 b6bd 6e75 b93d
000001d0: 30bf b2bd cb8c 60bc 8154 00bc 7014 4f3d
000001e0: fd7c 62bc ea19 44bd 19e1 c2bc e3c9 993c
000001f0: 92f8 5d3c 3d1c 2cbd 4afa 80bd 7fe9 c0bd
00000200: 18d7 0cbd 73bc 003d c080 d73d c780 2ebd
00000210: 6d79 683c f1bb 9f3d 086c 523d 8d6f 2e3c
00000220: f0fe d6bc 81b2 4c3b e585 4f3c 6f5f cabd
00000230: 38a2 5abc a48d 9bb9 b076 5e3a 50c4 8dbc
00000240: 30c4 2cbe e7b6 debc 95d4 ff3c db09 f83a
00000250: dab0 1bbe 1526 29bc 2d53 033d 313d 083d
00000260: d0b3 673d a862 bb3c b0d9 1b3d 6aee 0f3d
00000270: e816 90bd 20a3 273b 7eca 423d 1802 6e3c
00000280: b1d7 9dbc d5ce 103c e3cd dcbc c2ca dfba
00000290: 1977 9dbc f279 363d 0017 5c3e 6bed b5bd
000002a0: d598 afbc 6d1a 0e3d 3516 13bd f129 743d
000002b0: 3c82 42bd b224 17bd 71a3 2d3d 5d15 febb
000002c0: 2ff5 cebc c6e0 a93d 2fcd 1cbd 62e2 f9bc
000002d0: 13be 5ebd 6a71 67bc dd67 64bc 0096 b23c
000002e0: 67b5 0ebe 34a5 8fbd 194c 81bd 2049 803c
000002f0: 9577 8ebd 2934 8bbc b75c abba 1a99 723c
00000300: 8e7b a43d b2af 743e 20c2 8f3d 1e73 3bbd
00000310: 8048 06bc ce5e 6bbd ce66 553c 6f21 3f3c
00000320: 78ee d63b 0dac f23b eb19 c23d 4212 903c
00000330: 9e3c f03c 1cb1 c9bc 1fa9 21bd 92c3 60bd
00000340: 4803 1b3d 417f 273d d0c0 66bd d798 9a3d
00000350: 14f6 83bd 0b80 e5bb 882d fc3c b4f0 b53c
00000360: 8f77 8b3c 3da5 073d 3952 a83d 7960 afbc
00000370: 11fa 76bd f2d2 f1bc 3012 e93c 6824 8bbd
00000380: 6b6c a43d 8e57 53bc fbcc efbc da30 c63b
00000390: c0ff 003c b6e7 113d e5be 94bd 1f92 8fbd
000003a0: 6c98 95bb cc8a 8e3c 1d2c 133c 36f0 7e3c
000003b0: 0625 38bd 381d 79bb 407f fc3d 1a43 cf3b
000003c0: b73d 2fbd f0f2 83bd 9e15 393d 9c73 913d
000003d0: cf28 bc3b ff97 1a3d 7689 f23b 897c 383e
000003e0: 7b05 25bd 147c 733d 0be3 783d a804 85bd
000003f0: 93d2 8abc c722 283c f661 a53a 5dfe 47bd

encoder.5.block.1.bias f4 [40]
0.00022608232 0.0036779093 0.000722102 0.0027150922 0.0018481156 0.0013730222 0.0016241181 0.0017219803
3.8685444e-05 0.006347703 0.0038888024 0.003507628 0.0012672946 -0.006429903 -0.00031282482 0.0024043107
0.0022461165 0.005929831 0.003897995 0.004901407 0.0029600363 -0.001040167 -0.00021782363 0.0050430717
0.0012087709 0.0016384387 0.0022700292 0.0016371873 0.0016589728 0.00047525307 0.00031462408 0.0003797298
0.0014674235 0.0022000165 0.004984858 0.0039502475 0.005050698 0.0025624814 0.00052559323 0.001761301
00000000: 8310 6d39 1409 713b 724b 3d3a b0ef 313b
00000010: 783c f23a fbf6 b33a 5ce0 d43a 12b4 e13a
00000020: 2e42 2238 6400 d03b 47db 7e3b 3ce0 653b
00000030: 5a1b a63a f0b1 d2bb a302 a4b9 a491 1d3b
00000040: 9533 133b 074f c23b 8175 7f3b fb9b a03b
00000050: 2bfd 413b 3656 88ba 9667 64b9 5a40 a53b
00000060: 9f6f 9e3a e1c0 d63a c5c4 143b e496 d63a
00000070: e471 d93a 632b f939 21f4 a439 7916 c739
00000080: 9056 c03a 272e 103b 0558 a33b 1471 813b
00000090: 5380 a53b 4eef 273b f7c7 093a 74db e63a

encoder.5.block.2.weight f4 [40]
0.9289508 1.1378417 1.078327 0.90273726 1.0931466 1.0006919 0.9260866 0.9653116
0.90058696 1.2616557 0.871141 0.90692097 1.0771446 0.7438294 1.0299449 1.0921079
0.8564645 0.83236367 0.83879685 1.2456301 0.98115665 1.0387055 1.0006481 1.1197846
0.97652394 0.8947352 1.007354 1.0424198 0.99259627 0.93523175 1.0962663 0.73029923
1.010408 0.8376158 0.94143057 1.0518667 0.82328755 0.85782075 0.8491944 1.0750676
00000000: b8cf 6d3f cca4 913f 9e06 8a3f ca19 673f
00000010: 3aec 8b3f ac16 803f 0314 6d3f a91e 773f
00000020: de8c 663f ef7d a13f 1903 5f3f f92b 683f
00000030: e0df 893f 9b6b 3e3f 3cd5 833f 31ca 8b3f
00000040: 4241 5b3f c915 553f 64bb 563f cf70 9f3f
00000050: 152d 7b3f 4df4 843f 3d15 803f 1a55 8f3f
00000060: 79fd 793f 5e0d 653f faf0 803f 036e 853f
00000070: ca1a 7e3f 596b 6f3f 7452 8c3f e4f4 3a3f
00000080: 0d55 813f fd6d 563f 9801 713f 91a3 863f
00000090: f9c2 523f 249a 5b3f ce64 593f d19b 893f

encoder.5.block.2.bias f4 [40]
0.34340355 -0.033262968 -0.24953282 0.22660658 -0.21269494 0.08491466 0.06225485 -0.06603262
-0.08700938 -0.09276957 0.15371415 0.18636426 -0.17939742 -0.1638064 -0.12416087 0.3495905
0.3349103 0.30409944 0.30646926 0.26196614 -0.13733095 0.06394331 0.29032928 0.08241224
-0.0632896 0.21242759 0.5558882 0.16396433 -0.097789615 -0.066095546 0.25303012 -0.3852695
0.17655553 0.03559325 0.06562624 0.033790845 0.28483954 0.18850535 -0.11908925 0.18926513
00000000: 97d2 af3e c03e 08bd 8885 7fbe 8e0b 683e
00000010: b4cc 59be bde7 ad3d f1fe 7e3d 1c3c 87bd
00000020: f931 b2bd f9fd bdbd 3e67 1d3e 46d6 3e3e
00000030: f5b3 37be ddbc 27be 0e48 febd 87fd b23e
00000040: 5d79 ab3e ecb2 9b3e 8ae9 9c3e 6d20 863e
00000050: 7ca0 0cbe b6f4 823d 0aa6 943e c0c7 a83d
00000060: fa9d 81bd 9e86 593e b04e 0e3f 44e6 273e
00000070: ec45 c8bd 1a5d 87bd 2a8d 813e 0b42 c5be
00000080: f9ca 343e 3aca 113d 0d67 863d 4568 0a3d
00000090: 7dd6 913e 8c07 413e 11e5 f3bd b8ce 413e
