VQ-VAE/models/vqvae/model_80.pt (torch, 579012 bytes, 64 tensors)

encoder.0.weight f4 [40, 1, 4, 4]
000000 2d 4a 34 3d b5 a3 ad bb 8b be 15 bd 3c 6d 9d bd
       0.044016052 -0.0052990564 -0.03655867 -0.076868504
000010 25 ed 21 bd 7f 96 00 be 2e d1 ed bd cd 87 ac bd
       -0.0395328 -0.1255741 -0.116121635 -0.084243394
000020 ac 58 62 bd 58 16 1a be 4f 76 40 be 59 96 57 3d
       -0.055260345 -0.15047586 -0.18795131 0.052633617
000030 81 7d 06 bd 66 5a 55 bd a7 f4 b1 3d 36 47 57 3d
       -0.032834534 -0.052088164 0.08689242 0.052558146
000040 27 39 2c 3d 88 44 31 3d d7 b9 97 bd 99 e5 92 3d
       0.042046692 0.043278247 -0.07408493 0.071726985
000050 20 6c c7 3d 06 18 18 3e 47 bb 79 bd 2f 9b 7e 3d
       0.0973742 0.14852914 -0.060969617 0.062159713
000060 4a a7 6d 3d 53 41 b2 3d ae ac 0f be 6b ae 8f ba
       0.058020867 0.08703866 -0.14030716 -0.0010962015
000070 4f a0 4b 3d 51 09 b3 3d f9 19 be bc 3a ef 87 3d
       0.04971343 0.08742011 -0.023205744 0.06637426
000080 28 70 b2 3d cc dc b4 3d 47 01 de 3d ea 03 d2 3d
       0.08712798 0.08831176 0.108400874 0.10254653
000090 46 46 c9 3c e9 61 f8 39 47 b0 a9 39 58 0b 96 3d
       0.024569642 0.00047375195 0.0003236553 0.073263824
0000a0 b9 a6 ad 3d 65 88 7a 3d 43 0b 40 3d 2f f2 80 3d
       0.084790654 0.061165232 0.04688574 0.06296193
0000b0 d4 1f f3 3c fd 42 29 3d 6c ee 2a 3c b2 e6 1e 3c
       0.029678263 0.04132365 0.010432821 0.009698557
0000c0 e3 aa 1f bc bd 43 7e 3d 22 3b c8 3d 50 7d 7c 3d
       -0.009745332 0.06207632 0.09776904 0.061642945
0000d0 39 29 bd 3d dd 7e b7 3d 93 27 2a bd 66 f9 8f bd
       0.09236378 0.08959744 -0.041541647 -0.07029991
0000e0 e5 30 e9 3d 19 f3 6c bd 28 b4 77 bd 0f b3 4d 3c
       0.11386279 -0.057849023 -0.060474545 0.012554898
0000f0 eb f2 c9 3d de 20 27 3d 64 1b 85 3d f9 1b 12 3d
       0.09860786 0.04080283 0.06499365 0.035671208
000100 1b b5 f1 3c da 32 68 bc 37 45 d2 3c 30 72 f3 3b
       0.029505303 -0.01417228 0.02566777 0.0074293837
000110 db 37 46 3c 90 39 07 bd 32 9a ff 3d 13 fd 36 3c
       0.012098278 -0.03301388 0.12480582 0.011168736
000120 dd 03 e3 bc 14 1b f7 bd 6a ce 4c 3d 10 3d ac 3d
       -0.027711803 -0.120657116 0.05000154 0.08410084
000130 be 4f 64 3d 1f 53 74 bd 48 81 0a 3d ab 09 04 3e
       0.05574011 -0.059649583 0.0338147 0.12894313
000140 46 8a 9c bd 05 2e 36 bd 0f fa 0d bd d6 fc a4 3c
       -0.07643561 -0.04447748 -0.034662303 0.020140093
000150 00 68 01 be 79 2e 8d bd 84 7d 17 be c1 e2 38 3d
       -0.12637329 -0.068936296 -0.14793974 0.045138124
000160 e8 ae c9 bd 00 af a2 bd 77 ca e7 bd 16 5b a5 3d
       -0.09847814 -0.07943535 -0.11317914 0.08074014
000170 ac 30 9c bd ab b8 62 bd ee d0 3d 3d 3f cd 0b ba
       -0.07626471 -0.055351894 0.04634183 -0.0005333013
000180 3c 88 36 bc 08 8a 6e 3d d8 f8 2c bd 58 a2 c4 bc
       -0.011140879 0.058237106 -0.042229503 -0.024003193
000190 91 79 ba 3d 3a 83 b8 3c d5 ad df bd fc be 93 bd
       0.09105218 0.022523511 -0.10921828 -0.07214162
0001a0 35 65 71 3d 8e 71 1f be d8 3b 37 bd 54 db c9 bd
       0.05893441 -0.15570661 -0.044734806 -0.09856287
0001b0 a2 3a 40 3c b4 cf 91 bd e2 68 b7 bc 6d 5d 78 bc
       0.011732729 -0.07119694 -0.02238888 -0.015158993
0001c0 07 90 05 3c 65 ab 34 bd b6 ab da bd b5 ab d7 bd
       0.008152015 -0.044108767 -0.106772825 -0.105307974
0001d0 55 66 83 bd b0 a5 80 bd be ef 09 be 88 33 d3 3d
       -0.06416003 -0.062816024 -0.1347036 0.10312563
0001e0 30 0c ff bd 01 6c 13 bd 62 9d d5 bd ef c2 fd bc
       -0.124534965 -0.035991672 -0.10430409 -0.03097674
0001f0 77 de 88 bc 80 45 92 3d 02 2e 2e bd 70 75 08 bd
       -0.016707642 0.07142162 -0.042524345 -0.033315122
000200 5e e3 35 bc 05 d7 1f bd fc f4 7b 3c 57 2d e2 3c
       -0.011101572 -0.039023418 0.015378233 0.02760951
000210 41 51 c8 bd 90 1c b1 3d d2 f6 f4 3d b9 f3 f7 3c
       -0.09781123 0.08648026 0.1196114 0.030267583
000220 80 c2 3f 3d ee 81 ef 3d b2 cb 69 bd 3e b0 3a bd
       0.04681635 0.11694704 -0.057079025 -0.045578234
000230 b8 4a d5 3d 09 49 e3 3d d4 77 84 bc 24 3c 13 3d
       0.10414642 0.11097915 -0.01617042 0.035946026
000240 c9 84 ee 3c 78 e9 a2 3d 65 0c 32 3d 4b 05 05 3d
       0.029116051 0.07954687 0.04346885 0.03247575
000250 3c ca 6f bd f9 dd 0d bd b7 ec e6 bd d1 2c 93 bc
       -0.058542475 -0.034635518 -0.112756185 -0.017965706
000260 3c bc 03 be 41 05 df bd ab c6 02 be ef 98 ed 3c
       -0.12864774 -0.10889674 -0.12771098 0.029003588
000270 21 57 e3 3c c2 97 b3 3d da f1 a1 3d 29 59 39 3d
       0.027751507 0.0876918 0.07907458 0.045251045
000280 66 a7 8b 3d 74 89 e2 3c bc 47 a8 bd 02 6a 81 bd
       0.06819038 0.027653433 -0.08216807 -0.063190475
000290 4a 50 6d 3d 3f 10 0f 3d aa 3a fb bc 91 3d b2 bd
       0.057937898 0.034927603 -0.030667622 -0.08703149
0002a0 e0 72 48 3d a8 53 12 3d 77 10 37 bd 03 87 ff bd
       0.04893768 0.035724312 -0.044693436 -0.12476923
0002b0 41 b5 8c 3d 37 08 4d 3d 78 e8 7f bd ab 23 8a bd
       0.06870509 0.050056662 -0.06247756 -0.067450844
0002c0 46 92 9d bd 26 d7 ef bc de 17 05 3d 67 1d 7d bc
       -0.07693915 -0.029277395 0.032493465 -0.015448905
0002d0 8a a0 2c 3c df 30 38 bd e3 99 c8 bd b5 b9 b3 bd
       0.010536322 -0.044968482 -0.097949766 -0.08775655
0002e0 c7 32 41 bd 8a 70 15 be 71 96 4e be eb 2c 4b bd
       -0.047167566 -0.14593711 -0.20174576 -0.049603384
0002f0 65 b9 55 3c a7 cf 82 bd 5f 6d 18 3c 7b f5 6c bd
       0.01304469 -0.06387263 0.00930342 -0.057851296
000300 0f 97 34 3c aa c0 a1 3d 0c 7c a3 3d 3f 09 56 3c
       0.011022343 0.07898076 0.079826444 0.013063728
000310 48 dd e6 3b ad 98 59 bd 0c 49 91 bd 0a d4 07 be
       0.0070454217 -0.05312412 -0.07094011 -0.1326448
000320 13 67 77 bd ce 01 05 be 28 31 1e be d9 68 09 be
       -0.060401034 -0.1298897 -0.15448439 -0.13418902
000330 22 ad 7f bc 53 59 62 bd 0c 41 03 bd 88 68 ba bd
       -0.015605243 -0.055260967 -0.032044455 -0.09101969
000340 86 d6 6a bd 3f f4 86 bd 17 15 dd 3c 90 c7 1c 3d
       -0.05733349 -0.06589555 0.026987595 0.038276255
000350 03 94 aa bd 85 7e 04 be aa ff de bd 96 0e a0 bc
       -0.08329012 -0.12938888 -0.10888608 -0.019538205
000360 90 b4 46 3d 20 6c 17 3d 79 aa c3 bd d5 3c f8 bd
       0.04851204 0.03696835 -0.095539995 -0.12120978
000370 68 08 2d 3d 7e b9 b2 3d ef 63 02 3d 1a 89 ca bc
       0.042244345 0.08726786 0.031833585 -0.024723578
000380 23 2e b6 3c 2c 4d 3f 3b ef 23 c7 bb cf 55 41 3d
       0.022238797 0.0029190285 -0.0060772817 0.047200974
000390 8b 5d 40 3d 7b 0b 75 bd 07 0a 42 bd 71 0c b0 3c
       0.04696421 -0.0598254 -0.047372844 0.021490308
0003a0 7f f6 9b 3c 7f fc 82 3d ae 47 39 3e 43 55 1f 3e
       0.019038437 0.06395816 0.1809375 0.15559869
0003b0 0b 85 f6 3b 64 8d 8c 3d 75 bb d0 3d 88 71 2a 3d
       0.007523184 0.068629056 0.101920046 0.041612178
0003c0 5a 56 57 3d 86 2d 8e bd fa fc 94 bd 07 b7 72 39
       0.052572586 -0.06942277 -0.07274814 0.00023147101
0003d0 56 ae a3 bd 73 1f 50 bd 2b c2 8e bd 76 fd 5b bd
       -0.07992236 -0.050811242 -0.06970628 -0.053708516
0003e0 2b a3 9a bd 86 c2 b8 bd d4 7d e1 bc f7 fc 5e bd
       -0.07550653 -0.090214774 -0.02752582 -0.054440465
0003f0 ec ee ee 3c 9a 12 3a bd 82 c6 ab bd c6 d5 2b 3c
       0.029166661 -0.045427896 -0.08387472 0.010487979

encoder.0.bias f4 [40]
000000 06 4b 8e ba 9c 19 20 bb 54 77 99 bb 0a 89 11 bb
       -0.0010856099 -0.0024429327 -0.0046834145 -0.0022206926
000010 e1 1b d6 bb cb 6c 3c ba 51 cf 2d 3b 4c 32 0f ba
       -0.006534085 -0.0007187842 0.0026521275 -0.0005462512
000020 76 96 c6 bb 1c ae 91 3b 07 91 b7 3a 7b 44 31 bb
       -0.006060417 0.0044458043 0.0014005014 -0.0027048874
000030 90 21 23 bb 04 f1 75 ba 26 33 08 bb a8 21 65 3b
       -0.002489183 -0.00093819224 -0.002078244 0.0034962688
000040 14 1d 7c ba e6 3e 10 bb 39 06 40 ba 6c a4 03 bb
       -0.000961737 -0.0022010147 -0.0007325146 -0.0020087017
000050 39 17 c4 bb 82 a0 87 ba c4 fc 4b bb cb c3 8d bb
       -0.0059842137 -0.0010347518 -0.0031126002 -0.004326319
000060 d5 2e a3 b8 4b e8 5b 3b 00 92 c0 ba 1a 96 b8 b9
       -7.781169e-05 0.0033555205 -0.0014691949 -0.0003520705
000070 dd e6 de 3a 53 37 71 ba 44 73 b4 3b 63 ba 7f ba
       0.0017006058 -0.00092016644 0.005506905 -0.0009755252
000080 e4 1f 9b 39 0e 4f dd bb c7 35 8d 3b ac 28 a3 ba
       0.00029587664 -0.006753809 0.0043093893 -0.0012448034
000090 60 9a 08 bb 4f dc ef bb a4 a1 9e bb 57 7b fc 38
       -0.0020843968 -0.007319964 -0.0048410464 0.0001203927

encoder.1.weight f4 [40]
000000 1f 10 33 3f ed 53 fc 3e d1 7c 23 3f 76 7a e2 3e
       0.69946474 0.4928278 0.6386233 0.44234055
000010 85 cc 13 3f 59 59 58 3f fb c7 2e 3f 8f 02 36 3f
       0.5773395 0.84511334 0.68273896 0.71097654
000020 79 aa 0e 3f 58 26 1e 3f cb ca 3c 3f 49 39 31 3f
       0.5572887 0.6177726 0.7374694 0.69228035
000030 2b 38 4b 3f 90 66 36 3f 49 20 02 3f 5f 60 57 3f
       0.7938258 0.7125025 0.50830513 0.84131426
000040 d4 fb 24 3f 0a 0e 48 3f d0 ab 2b 3f fc 4b 45 3f
       0.6444676 0.7814642 0.6705904 0.7706907
000050 9a 75 ff 3e 1d 40 3d 3f b0 f6 0b 3f fc ac 16 3f
       0.4989441 0.73925954 0.5467329 0.58857703
000060 34 58 c3 3e 4b 02 22 3f c6 8f 22 3f a0 a5 c2 3e
       0.3815323 0.6328475 0.6350063 0.38016987
000070 a2 d4 27 3f 45 1b 1d 3f ad 81 3f 3f ea 8d 44 3f
       0.65558827 0.61369735 0.74807245 0.76779044
000080 66 18 40 3f 5b b4 2c 3f 6c 9b 4f 3f 6f e9 0f 3f
       0.7503723 0.674627 0.8109653 0.56215566
000090 bc fb 4e 3f a5 8c 6d 3f e7 ef 66 3f 38 5a 23 3f
       0.80852866 0.9279273 0.9020981 0.6380954

encoder.1.bias f4 [40]
000000 20 4a 98 bd d4 c8 bc bc 5a e6 b0 bc 03 0d 0d bb
       -0.07436013 -0.023044981 -0.021594215 -0.0021522648
000010 54 19 64 3d fc 1d 03 be 93 23 53 be 2d 75 59 be
       0.055688217 -0.12804407 -0.20619039 -0.21236105
000020 8c 68 ec 3d 75 d9 01 3d 73 ec 2a be b6 c4 08 be
       0.11543378 0.031701524 -0.1669176 -0.1335629
000030 5a 03 55 be d4 04 39 be cd 09 36 3e 09 ed 76 3c
       -0.2080206 -0.18068248 0.17777176 0.015071162
000040 b0 f8 06 3c b0 80 1d be bd a1 16 be d3 a7 45 be
       0.008238003 -0.15381122 -0.14710136 -0.19302301
000050 96 41 2b bd 41 9e 09 be 6b d8 2d 3e 85 8c a2 bd
       -0.041810594 -0.13439275 0.16977088 -0.07936958
000060 4a 69 1c 3c 33 23 0c be 92 10 18 3e d7 5b c6 3d
       0.009546587 -0.13685302 0.14850071 0.09685486
000070 9e e7 01 be 6c 25 0f bd 3f ac 2d be c6 89 6a be
       -0.12686011 -0.034947798 -0.16960238 -0.22904119
000080 a3 be 27 be 00 66 43 3e 7f 88 f5 bd b7 c3 29 be
       -0.16381316 0.19081879 -0.11988925 -0.16578566
000090 f1 c8 47 be 99 f2 7e be 89 36 89 be 18 17 b6 bd
       -0.19510247 -0.24897231 -0.2679942 -0.088911235

encoder.1.running_mean f4 [40]
000000 f8 6f 08 3f 72 83 ad be 6b e7 0f bf ab 90 b0 be
       0.5329585 -0.33889347 -0.5621249 -0.34485373
000010 d6 81 4f be 7a e7 03 3f 94 fa 9d 3e c2 4c 01 3f
       -0.20264372 0.5152508 0.30855238 0.5050775
000020 87 30 9c be 5b 1a 08 3e 2e 41 f1 3d e1 3f 1a 3f
       -0.30505773 0.13291304 0.1178001 0.6025372
000030 1e 09 06 3f c7 3b 93 3e 0d de e9 be 89 66 fa 3e
       0.5235766 0.28756544 -0.45677224 0.48906353
000040 7f 82 7e be f8 0a 1d 3f 52 1a c5 3e e8 87 b0 3e
       -0.24854468 0.6134486 0.38496643 0.34478688
000050 4a 68 93 be 29 3d 74 3e b4 02 6b be 55 b5 9a 3e
       -0.28790504 0.23851456 -0.2295025 0.3021647
000060 34 d5 76 bd c3 62 09 3e c3 66 7f be e6 26 c3 bd
       -0.06026192 0.13416581 -0.24941544 -0.09528904
000070 4b 86 10 3e dc 69 49 3e d3 da 76 3e 5f 37 93 3e
       0.14113729 0.19669288 0.24106912 0.28753182
000080 4f 78 9b 3e 9f 4f 7f be b3 18 bd 3e 14 c5 95 be
       0.30365226 -0.24932717 0.36932907 -0.2925192
000090 a2 c6 0f 3f 7a 60 09 3f 40 cf 39 3f 51 38 f7 3d
       0.56162465 0.53662837 0.72581863 0.120712884

encoder.1.running_var f4 [40]
000000 e9 b6 29 3e ba ae 62 3d a7 66 fc 3d f0 c5 7d 3d
       0.16573681 0.055342413 0.12324267 0.061956346
000010 c3 9d e7 3c 80 c7 18 3e 30 c8 98 3d 84 b8 ea 3d
       0.028273469 0.14919853 0.07460058 0.11460975
000020 88 54 73 3d 9c 05 17 3d 85 ea 7e 3d 87 c5 1e 3e
       0.059406787 0.036870584 0.062235374 0.15505038
000030 eb 6c 27 3e 0a 58 3d 3d 41 a8 d2 3d 43 de cb 3d
       0.16350143 0.04622654 0.10285998 0.099545024
000040 5b 9d 75 3d 30 0d 3e 3e 50 2e c5 3d 3b 66 97 3d
       0.05996452 0.18559718 0.09627974 0.07392546
000050 ed 99 26 3d 26 ce 5d 3d ee f5 eb 3c e5 74 93 3d
       0.04067414 0.054151677 0.028803792 0.0720003
000060 7d 89 d0 3c fc e2 84 3d c7 f9 48 3d c6 d4 14 3d
       0.025456185 0.06488606 0.04906633 0.03633573
000070 e1 e2 29 3d 92 62 39 3d 21 21 6a 3d 0c 10 7d 3d
       0.041476134 0.04526002 0.0571605 0.06178288
000080 4e 99 78 3d 3a 1f 43 3d ba 58 76 3d 5b 8e a6 3d
       0.060693078 0.0476372 0.06014321 0.08132621
000090 98 c1 2c 3e 3e cb 0f 3e 10 2c 6f 3e c0 ec a4 3c
       0.16870725 0.14042374 0.23356652 0.020132422

encoder.3.weight f4 [40, 40, 4, 4]
000000 66 f1 0b bc fa f6 02 bb b7 bb 19 bc 42 08 b9 bc
       -0.008541441 -0.0019983635 -0.009383134 -0.022586945
000010 95 70 69 bd 3d 6f d6 bd 5b 11 f7 bb 0f 2f 2d 3d
       -0.056992132 -0.10470436 -0.0075399107 0.042281207
000020 82 ae e0 ba d5 fd 3f 3c 92 e6 98 ba b3 45 4e 3d
       -0.0017141851 0.011718233 -0.0011665395 0.05035944
000030 de 50 91 3d 56 ca 46 3d 2e c8 8e 3c fd 72 23 3a
       0.07095502 0.048532806 0.017429437 0.0006235091
000040 d6 d3 84 bb 6f eb 96 3c 84 79 0a 3d 06 64 9c 3c
       -0.004053573 0.01842281 0.033807293 0.019090664
000050 6b d2 07 bd c8 b4 0b bd 3a 3d 02 3d ba 93 68 3d
       -0.033159655 -0.034107953 0.03179667 0.056781508
000060 c3 ba a0 bb 46 b2 04 bb ce 62 c8 3c 77 9b d2 3d
       -0.004905076 -0.002024786 0.024461176 0.10283559
000070 61 98 c5 3b a1 b7 bc bb af 13 e9 3c 55 3d 67 3c
       0.006030128 -0.005759195 0.028451769 0.014113744
000080 2d 8c cc bc 9a 94 b6 bc 64 c1 4f bc 16 ce b5 bb
       -0.024969185 -0.022287656 -0.012680385 -0.005548249
000090 24 a1 d0 3c 9e ee 24 bd f7 79 ab bd 34 45 c1 3b
       0.025467463 -0.040266626 -0.08372872 0.0058981422
0000a0 69 0c 2c 3d 09 33 00 bd fd 66 c6 bd 53 c3 25 bd
       0.042004023 -0.03129867 -0.09687612 -0.04046948
0000b0 ef e6 a4 3d fe 38 c6 bd 19 c6 bb bd 1c e1 09 bd
       0.080518596 -0.09678839 -0.091686435 -0.033661947
0000c0 d7 c4 df 3c 29 f2 89 bc 63 b5 b1 bc 09 1c ff 3b
       0.02731554 -0.016839104 -0.021692937 0.0077853245
0000d0 a3 e5 62 3d 6a 97 86 bd 4c 65 61 bc b0 6a 0b bc
       0.05539478 -0.06571849 -0.013757061 -0.008509323
0000e0 cc 16 10 3d 8c 15 05 bd 87 3e ed 3c ab e1 e2 3c
       0.03517799 -0.03249125 0.02896048 0.027695497
0000f0 5f 62 37 b8 bd 1d f5 3c ad 7f fa 3c 4d 2e 15 3c
       -4.3722215e-05 0.029921407 0.030578459 0.009105277
000100 bb 9a 70 3d 3c 77 b4 3c 56 6c a2 bd 1f 80 11 3c
       0.058741312 0.022029512 -0.0793082 0.008880644
000110 1f 5e cd 3c 98 b8 00 3e 00 ae 97 bd c9 e0 1d bd
       0.025069294 0.12570417 -0.07406235 -0.03854445
000120 41 ce b1 bc 07 cf 2e 3e 09 d0 5b 3c 6d 2d 06 bc
       -0.021704795 0.17071162 0.013416299 -0.008189541
000130 b4 b7 23 bb d0 91 28 3d 99 a7 e5 3b f2 ab 7b bc
       -0.0024981322 0.041154683 0.0070085046 -0.015360819
000140 b4 b7 4d bc af 53 b0 3b 80 fe 02 bd 3c b9 45 3d
       -0.012556005 0.0053810696 -0.03198099 0.048272356
000150 21 df e1 bd c2 a8 9c 3a b3 de 85 3d 84 35 02 3d
       -0.110288866 0.0011952149 0.06536617 0.031789318
000160 e3 4a aa bd 1b a5 ee 3d d6 30 fc 3c 93 c0 3e bd
       -0.08315065 0.11652585 0.030785006 -0.04657037
000170 56 0d 8a bb 29 f5 87 3c 9c 44 77 3d 21 20 0a 3d
       -0.0042130155 0.016596394 0.060368165 0.033722047
000180 c6 80 c7 bb 43 c4 53 ba 1a 52 0f 3d be e4 87 3c
       -0.006088349 -0.00080782565 0.034990408 0.016588565
000190 39 7e 55 bd 9e e1 8f bd d5 a8 ce 3d 4c 5d 0e 3d
       -0.05212233 -0.07025455 0.10090796 0.034756944
0001a0 b9 b4 06 3d 36 11 b0 3d 09 00 26 3c 56 79 ea 39
       0.032887194 0.08597033 0.010131844 0.0004472236
0001b0 37 a1 7e bc ba 7e c0 3d 4a 97 d3 bc 91 35 76 bb
       -0.015541366 0.09399171 -0.025828976 -0.003756855
0001c0 ee dc 12 bc 54 b6 95 3c e7 eb 84 3d 00 df e1 3b
       -0.008963807 0.018275417 0.06490307 0.0068930387
0001d0 28 dc 78 bc 5b c0 79 bc d5 f5 43 3d 71 48 a8 3d
       -0.015189208 -0.015243615 0.047841866 0.08216942
0001e0 43 05 10 3d 11 c6 28 3d 8c 69 89 bc aa 45 0c bd
       0.035161268 0.041204516 -0.016773961 -0.034246124
0001f0 54 fb f1 bd 33 6f b1 b9 20 b1 eb 3d 5f 59 fb 3c
       -0.11815515 -0.0003384292 0.11508393 0.030682264
000200 f5 5e 29 bc 35 46 85 bd 37 5f 66 bd 89 9f 2c 3d
       -0.010337581 -0.065075316 -0.056243148 0.042144332
000210 77 ee 90 3d b9 bf b9 bd 35 fa 52 bd 5b 2a 32 3d
       0.070767336 -0.09069771 -0.051508147 0.043497425
000220 25 00 c6 bc 49 c0 2a bd 8c 18 12 bd bd 45 7a 3c
       -0.02416999 -0.041687284 -0.03566794 0.015275416
000230 3a 10 6b bc e3 f3 2b 3d 37 fb e1 bc 2b 55 b8 3b
       -0.01434713 0.041980635 -0.027585609 0.005625387
000240 b8 d7 f1 bb 77 38 c1 bc 64 bf 97 bd 5d ba e9 3b
       -0.007380452 -0.023586495 -0.07409552 0.007132812
000250 43 31 bb 3d 84 e4 ab 39 f5 e0 85 bd 32 67 04 bd
       0.09140255 0.0003278592 -0.06537048 -0.032324977
000260 cb fb 84 3d 9c 40 7e 3b 5c 9e 1a bc 13 a1 dd 3d
       0.06493338 0.0038795834 -0.00943717 0.10821738
000270 07 68 c2 3c 38 1f 06 3d c3 b2 be bb 0c fa f4 bc
       0.023731245 0.032744616 -0.00581965 -0.029904388
000280 6e e6 9b 3c 48 aa 80 3c 18 47 91 bb 29 19 a5 3d
       0.019030776 0.015706196 -0.004433524 0.080614395
000290 47 e4 2d bd 2c db c2 3d 3b 96 1c 3d 65 d5 87 3c
       -0.04245403 0.0951446 0.03822921 0.016581247
0002a0 ab 48 00 be 19 f0 2b 3c 6d 25 f7 3d c8 46 20 3d
       -0.1252772 0.010494255 0.12067685 0.039130002
0002b0 38 4b d8 3a b1 57 46 3c 87 3a 09 bd 07 d3 d8 bc
       0.0016501909 0.012105868 -0.03350308 -0.026467813
0002c0 83 0b 9a bd 64 38 8b 3c 31 2a 7e 3d 79 49 8e 3d
       -0.07521727 0.016994663 0.062051956 0.069476075
0002d0 40 84 3f 3d dc 59 a9 bc 20 6c 38 bd a2 32 4c 3d
       0.046756983 -0.020672731 -0.04502499 0.049852975
0002e0 a5 b0 15 bd f5 63 b8 bd a1 e9 ae 3d b6 c5 42 3b
       -0.036545414 -0.0900344 0.08540655 0.0029719896
0002f0 84 d0 0a 3d 96 9f 15 bd d3 42 3d 3d 5d 36 b5 3d
       0.033890262 -0.036529146 0.046206307 0.088482596
000300 44 94 51 bd d1 28 0f bc 5e 34 1e 3c 78 44 22 bd
       -0.051166788 -0.008737759 0.00965604 -0.03961608
000310 3f 95 a7 3c 3c d4 07 bd f3 65 3e 3c 67 db c5 3c
       0.020456908 -0.033161387 0.011620986 0.02415247
000320 62 ab c2 bd 3e e2 54 3d 14 12 96 bc e1 21 b0 3d
       -0.09505345 0.051973574 -0.018319167 0.08600212
000330 d7 d2 99 bc 55 1b ed bc b2 de 1b 3d e4 a6 fd bc
       -0.018777294 -0.028943697 0.038054176 -0.030963369
000340 d9 b0 df bb 36 11 42 bd cf 88 c8 3c 86 0a e2 3c
       -0.006826502 -0.047379695 0.024479298 0.027592909
000350 f3 b7 17 3e 70 ae 03 3e 81 b9 2f bd 40 2a 09 bc
       0.14816265 0.12859511 -0.04290152 -0.00837189
000360 3e 3b 6d bd 9d cb 35 bd ce f8 36 3d 21 fc aa 3d
       -0.057917826 -0.044383634 0.044670872 0.08348871
000370 a1 5d 37 bc eb cf 35 bd 98 aa ab bc b3 3c ca 3c
       -0.011191756 -0.04438774 -0.020955369 0.024687147
000380 e9 4e 67 3d 3c 8f 80 bd 9b d7 82 bd 1d 9d 3a 3d
       0.05647174 -0.0627732 -0.0638878 0.04555999
000390 6f cb 23 3d 8b 51 71 bd ab 02 04 bd 5c 74 45 3d
       0.03998893 -0.058915656 -0.032229107 0.048206672
0003a0 37 1b 5e 3d d4 f8 03 bd d3 87 a0 bd 18 57 b6 3c
       0.054225173 -0.032219723 -0.078384064 0.022258326
0003b0 71 30 ab 3d 79 3d c8 3c bc b8 2d bd b1 58 34 3d
       0.08358849 0.024443375 -0.042412505 0.044029895
0003c0 4b 20 a6 3b 15 72 ec bc d1 8d 74 bc 3e 45 e9 3c
       0.0050697676 -0.028862992 -0.01492639 0.0284754
0003d0 e1 40 15 bd 8c 75 fa bd c3 11 8e 3c f2 ed 35 3d
       -0.036438826 -0.122294515 0.017342454 0.044416375
0003e0 f4 68 aa 3c 87 a8 08 bd 08 de 6d bd 34 30 15 3d
       0.020801999 -0.033363845 -0.058073074 0.036422923
0003f0 a9 05 ea bc 9c dc db bc fd 8b 25 3c 72 c7 09 3c
       -0.028567152 -0.026838593 0.010104177 0.008409368

encoder.3.bias f4 [40]
000000 eb ed 23 3c 99 3b dd 3d bf 48 79 3d 10 f9 7a bc
       0.0100054545 0.10802383 0.06086039 -0.01531817
000010 f1 5b 03 3e 92 f1 68 3d 96 f9 69 3e 1c 70 17 3c
       0.12828042 0.056871004 0.22849116 0.009243038
000020 cf 72 75 3b a3 3c 83 3b bf b3 8f 3d 24 66 a7 3d
       0.0037452464 0.004005031 0.07016706 0.08173779
000030 e6 18 bd 3b 29 ac 0a 3d 7b 15 87 3d 1d f8 af 3d
       0.0057707904 0.03385559 0.06595894 0.08592246
000040 1a 60 4b bc ee 95 f0 3a a9 74 e5 3b 63 3e 58 bc
       -0.012413049 0.0018355229 0.0070024324 -0.013198468
000050 82 c6 6e 3b fd 97 39 3c 98 22 1f 3e e3 54 cf 3c
       0.0036434238 0.011327741 0.1554054 0.025309032
000060 f9 5c 08 bd 0f 77 a0 3d ea f0 d0 bb 82 40 19 3d
       -0.03329179 0.078352086 -0.0063763754 0.037415035
000070 5f 3f 0a 3e bd 43 24 3d 30 35 64 3c be cd a5 bc
       0.13500737 0.040103663 0.0139286965 -0.020239707
000080 73 e9 8f bd 0d 7c d4 bc 0d 3a 12 bd b0 8a 91 bd
       -0.07026949 -0.025938058 -0.035699893 -0.07106531
000090 0f ba 46 bd ad e4 8a bd 56 56 0e 3d 72 fb fc 3b
       -0.048517283 -0.06781898 0.034750305 0.0077204043

encoder.4.block.1.weight f4 [40, 40, 3, 3]
000000 fb a6 b4 bb 83 d1 a7 bc e4 d7 28 3d bd 3b fb bc
       -0.0055130697 -0.020485645 0.041221514 -0.030668134
000010 48 d7 19 be 59 09 6b bd 7d 62 ba bc 0b 4e ad 3a
       -0.1502353 -0.05738196 -0.022752041 0.0013222111
000020 70 9a 92 3d d1 d3 8c bd 4f 72 f0 3d af 49 ea 3d
       0.07158363 -0.06876338 0.11740553 0.11439835
000030 b7 24 3e 3d c2 9a 59 be ca da 02 bd fe 69 94 3c
       0.046421733 -0.21250442 -0.031946935 0.018116947
000040 d5 bc 23 3d 72 bf fb bc f8 34 29 39 41 e3 15 bd
       0.039975006 -0.030730937 0.00016136828 -0.03659368
000050 7b 38 42 3d f5 03 90 3d 93 3f 04 bc 6d 66 61 3d
       0.047417145 0.07032005 -0.008071798 0.05502932
000060 86 f2 41 3d f7 a3 d4 bb 0a 4b df 3b cb 7e cf bd
       0.04735043 -0.0064892727 0.0068143653 -0.10131606
000070 cd 1f b8 bb 69 e1 63 bd 3a 29 97 bc 5d 36 4c 3d
       -0.0056190253 -0.05563489 -0.018452276 0.049856532
000080 b4 6f 12 bd 8d 55 d1 3d d6 a5 99 be d3 d1 d7 bc
       -0.03575106 0.10221396 -0.30009335 -0.02634517
000090 f9 50 eb bc 10 6f 34 bd 12 4d 0e bb 0f 59 82 3d
       -0.028725134 -0.04405123 -0.0021713418 0.06364643
0000a0 67 86 33 3e 13 52 a2 bc 47 17 32 3d 0b 4c cb bc
       0.17531739 -0.019814527 0.04347923 -0.024816534
0000b0 57 65 39 bc ae 1b 14 3b ce a5 65 bd 15 44 3f 3d
       -0.011315665 0.0022599506 -0.056066327 0.046695787
0000c0 00 ee 43 3d d5 55 ca bb 2f 8c 9b bb 5c b8 20 3d
       0.047834396 -0.0061747828 -0.004746936 0.03923832
0000d0 10 e6 fc bb 22 a7 1f 3c 69 c9 35 bd 8b 7f 5d 3d
       -0.0077178553 0.009744437 -0.044381533 0.054076713
0000e0 73 ac 7c 3c 1a 48 02 3d 2e 88 35 3e 1c 46 cb 3b
       0.0154219745 0.031807043 0.1772773 0.006203426
0000f0 db a3 45 bd 4b 69 7b 3c c3 d8 bb 3b 2c 38 31 3c
       -0.048251968 0.015344928 0.005732627 0.010816615
000100 1b df 62 bd c2 86 5a 3d ee da 37 bc 47 b8 a5 3d
       -0.05538855 0.05335117 -0.0112216305 0.08091789
000110 67 1e 4a bc 2b 8a fc bb 79 e5 0a bd 7f 03 4d bc
       -0.01233635 -0.0077069006 -0.03391025 -0.012513041
000120 e3 54 f0 bc 11 1e 3f bc 20 18 d3 bc fb 89 23 3d
       -0.029337352 -0.011664883 -0.02576834 0.03992651
000130 27 0e ad 3d eb 68 4b bd ca f9 47 bd 4b cb ac bd
       0.08449965 -0.049660604 -0.0488222 -0.084372126
000140 53 3a 5e bd f5 99 0e bd 57 28 f4 3d 03 11 9b 3d
       -0.05425484 -0.034814794 0.11921757 0.07571604
000150 cc 8c ad bd 5a c6 54 3d 0c 88 a8 3d e6 fb 03 bd
       -0.084741205 0.051946975 0.08229074 -0.03222265
000160 f0 b5 a0 3d 9e 72 48 3d 2c 7d a2 3c a8 1a a5 bc
       0.07847202 0.048937432 0.019835077 -0.020154312
000170 1c ed c3 bc 4c 33 1b bd 02 88 35 bd 86 9f 42 bd
       -0.023916773 -0.037890717 -0.04431916 -0.047515415
000180 8f 59 0a bd e2 7e 9f bd b8 d3 b2 bd 30 85 51 bd
       -0.033776816 -0.07787873 -0.087317884 -0.051152408
000190 da 9d a1 3d 42 91 50 bd 03 5d be 3b 5c ad 21 bc
       0.07891436 -0.05091978 0.0058094277 -0.009867992
0001a0 ca 2a 63 3d 84 96 d8 bc c9 32 05 3d 85 9a 84 3c
       0.05546073 -0.026438959 0.032519136 0.016186962
0001b0 4d 79 c5 3b 52 61 c8 3d 1d d7 89 bc 91 56 b2 bd
       0.006026423 0.097841874 -0.016826207 -0.087079175
0001c0 65 84 ed 3d 47 08 a7 3b 90 a9 d4 bc 3e d9 91 bc
       0.11597518 0.0050974223 -0.02595976 -0.017803784
0001d0 db f7 81 bd 58 93 c4 3d 1e e0 49 bd d2 bd 63 3d
       -0.06346103 0.09598416 -0.049286 0.05560095
0001e0 bc bd f3 bd 90 50 23 be 24 99 d1 3d 45 48 86 bc
       -0.11901423 -0.15948701 0.102342874 -0.016391883
0001f0 4f af 89 3c 2e d5 0b bc 34 6c 99 bd da e9 bb 3d
       0.016807226 -0.008534713 -0.07491341 0.09175463
000200 8f 4c 0c bd d9 e9 59 3e df 57 8c be ee a5 e0 3c
       -0.0342527 0.21280612 -0.2741079 0.027422871
000210 63 55 8a 3d aa 82 b2 3a 39 8f ca 3c 0f 4e ac bd
       0.067545675 0.0013619263 0.024726497 -0.08413326
000220 ac 36 93 3d 63 33 0d 3c 45 f0 51 3d 41 41 a0 3c
       0.07188162 0.008618209 0.05125453 0.019562365
000230 97 1e 91 3c ab 8b 0b bc ff fc a2 bc 1b b4 10 bd
       0.017714782 -0.008517186 -0.019896029 -0.035328012
000240 21 a5 de bc 05 30 64 bd d0 45 b1 bd 92 5f a3 3d
       -0.027178349 -0.055709857 -0.08655894 0.07977213
000250 09 74 4e bd a1 af 03 3d aa 83 8b bd 85 5f 20 bd
       -0.05040363 0.032149915 -0.06812222 -0.039153595
000260 1f 89 84 3c e1 2d c7 3d ed 60 4c bc a2 ce 07 be
       0.016178666 0.097255476 -0.012474281 -0.13262418
000270 b3 4d 7a bd 95 2d d9 3d 93 21 c0 3d 9a b0 03 3d
       -0.061109256 0.10604397 0.09381404 0.032150842
000280 c1 71 d3 bd 6c 3b 11 3d a6 80 8c 3c 2e f2 ab bd
       -0.10324431 0.03545706 0.017151188 -0.083958015
000290 ec 21 64 bd 4b 6e d4 bb ba 27 08 bc c9 09 50 bd
       -0.055696413 -0.0064828745 -0.008310253 -0.05079058
0002a0 1e 21 06 3c f9 7d 31 bd 04 06 9a 3b c6 0c 07 bd
       0.008186607 -0.043333028 0.004700424 -0.032971166
0002b0 71 72 a5 3c 56 96 7a bd 0a 3a b0 bc 8a 5e 8b bc
       0.020196171 -0.061178528 -0.02151205 -0.017012853
0002c0 ff 92 9a bd 32 6a 2f be 92 37 b9 3d 72 8f b5 3b
       -0.075475685 -0.17130354 0.09043802 0.0055407817
0002d0 1b 28 7d bc 6a 70 a2 3d 19 24 10 be b3 ba 4e 3d
       -0.015451456 0.079315975 -0.1407627 0.05047102
0002e0 84 a4 b4 bd b5 bb 64 bd 71 40 89 be a9 80 b5 bc
       -0.08820441 -0.055843074 -0.26806977 -0.022156077
0002f0 05 d4 02 bd e8 27 0a 3c 92 d1 35 be 86 73 bf 3c
       -0.03194048 0.008432366 -0.17755726 0.023370516
000300 0f ca d8 bd 67 28 8a bb 9f 5a 20 3e 22 3e a9 bd
       -0.105854146 -0.004216242 0.15659569 -0.08263804
000310 61 58 df 3c 85 9f 00 bc 2e d1 97 bc e9 4e 2d 3c
       0.027263822 -0.007850532 -0.018532362 0.010577896
000320 38 21 38 3c ba e4 ad bd 88 3e 34 3e ca d0 ff b8
       0.011238389 -0.08490892 0.17601979 -0.000121982375
000330 91 5e 03 bd 65 3a 2c bd 7e 1a 1f bd 91 1f 20 3c
       -0.032072607 -0.042047877 -0.038843624 0.009773151
000340 0d a9 17 be 9b 0a 56 3b 2c 5d 96 bd 86 29 65 be
       -0.14810582 0.003266013 -0.0734199 -0.22379121
000350 c2 92 51 bc f8 e7 3e 3c ba 68 3b 3d ad e8 39 3d
       -0.012791337 0.011651985 0.045754172 0.045387913
000360 cd 62 08 3d 15 47 a2 3c 53 81 30 bd a1 0c 0a be
       0.03329735 0.019809285 -0.043092083 -0.1348138
000370 be ae 44 3e 7b cf a1 3d 43 e9 a0 3d 3c 44 41 3c
       0.19207284 0.07900902 0.07856991 0.0117960535
000380 cc bd e8 bc ff 01 5f 3c 9c 15 22 3b ec 23 ae bc
       -0.028410815 0.013611316 0.0024732118 -0.021257363
000390 02 4f 0b be ad 3c 73 3e 5d ef 82 bd d1 59 b8 3c
       -0.13604358 0.23753615 -0.06393311 0.022503765
0003a0 fb dc 22 3d 53 cb b3 3b 83 7b 80 3d cc 0d e5 3c
       0.039761525 0.0054868846 0.06273558 0.02796068
0003b0 27 5b db ba 63 50 9e 3c f6 0c 12 be b6 1e 1c bd
       -0.001673554 0.01932544 -0.14262757 -0.038115226
0003c0 ae 15 a0 3c 65 30 3b bc e0 59 aa bb d6 57 4b bc
       0.019541588 -0.011425112 -0.005198702 -0.012411078
0003d0 2d 5b a9 3d 5f 54 e4 3c 1e 0c f7 3b da 1c 11 be
       0.082693435 0.027872263 0.0075392863 -0.14171162
0003e0 46 cb 07 bc b7 53 83 3d 52 70 8b bd f1 26 b5 bb
       -0.00828821 0.06412452 -0.06808533 -0.005528324
0003f0 a7 b3 84 bc 86 85 33 3d d9 11 6f bb d9 0a 40 b7
       -0.016198946 0.04382851 -0.0036479144 -1.14466175e-05

encoder.4.block.1.bias f4 [40]
000000 6f eb 44 3b df 7a a6 bb 8b 04 96 b9 95 3f 54 3a
       0.0030047556 -0.0050805653 -0.00028613614 0.00080966327
000010 99 11 02 b9 5a 55 30 3b 93 93 ae 3a 3b 7d d9 b7
       -0.00012404322 0.0026906342 0.0013319127 -2.592673e-05
000020 86 c5 36 3a 85 58 76 ba ad b9 9c 3b d8 93 0a 3c
       0.00069721823 -0.0009397346 0.0047828765 0.0084581
000030 e7 8c 05 b9 45 6e 0a 3b 8d 62 b3 b9 31 cd 8f 3a
       -0.00012736359 0.0021122855 -0.00034214967 0.0010971186
000040 d8 41 1f bb 4f 39 ae ba a2 02 27 3a d0 d6 5f 3a
       -0.002430072 -0.0013292226 0.0006370937 0.00085387845
000050 a7 73 91 b8 2a 23 1e b8 2f 8f e6 ba 95 c6 15 bb
       -6.935681e-05 -3.7702885e-05 -0.001759028 -0.002285396
000060 64 78 68 3b f3 3d 40 ba eb ae bb 3a 8a f3 a5 3b
       0.003547215 -0.000733345 0.0014319097 0.0050644325
000070 cc 34 87 b9 be 72 53 3a 60 7e 0a 3b 77 be c3 3a
       -0.00025788543 0.0008066109 0.0021132454 0.0014934082
000080 10 f0 a8 3a 68 e9 26 3b f6 7f 0e ba 9b bd 94 3b
       0.0012888927 0.002546871 -0.0005435938 0.0045392043
000090 78 fb 49 bb 47 ee c9 39 07 c1 3d ba 72 a9 32 3b
       -0.0030820053 0.00038515238 -0.0007238541 0.0027261642

encoder.4.block.2.weight f4 [40]
000000 2f 2f 8c 3f e0 25 88 3f 78 55 82 3f 95 bb 6a 3f
       1.0951899 1.0636559 1.0182333 0.9169248
000010 f9 e0 76 3f 3b 05 74 3f 30 ce 6c 3f 58 97 6b 3f
       0.9643703 0.9532048 0.9250212 0.9202781
000020 d2 e4 4c 3f ec d8 5e 3f 04 d9 7b 3f 63 e1 8b 3f
       0.8003665 0.87049747 0.98378015 1.0928158
000030 b8 37 7c 3f 67 61 90 3f 04 8b 94 3f a6 39 88 3f
       0.9852252 1.1279725 1.1604924 1.0642593
000040 e7 42 89 3f cb f7 1f 3f 56 16 6e 3f 50 2e 60 3f
       1.0723542 0.6248748 0.9300283 0.8757067
000050 2d 59 7d 3f 7d 24 8c 3f 18 f6 36 3f 2a 35 7b 3f
       0.98964196 1.0948635 0.7146926 0.98127997
000060 6c ca 61 3f d4 ff 61 3f af c4 8c 3f 9e 04 8c 3f
       0.88199496 0.8828099 1.0997523 1.0938909
000070 58 d4 73 3f 51 2d 91 3f 73 15 8c 3f 75 d0 8d 3f
       0.95245886 1.1341954 1.0944046 1.1079241
000080 70 87 88 3f 0e d1 99 3f 97 c5 70 3f b1 f9 86 3f
       1.0666332 1.2016923 0.940515 1.054495
000090 47 de 6b 3f 80 3d 30 3f c4 8e a3 3f 75 69 5a 3f
       0.92136043 0.6884384 1.2777944 0.85317165

encoder.4.block.2.bias f4 [40]
000000 cd 8c b4 3e 63 5c 2c 3e 49 01 42 bd 02 f8 13 3f
       0.35263672 0.16832118 -0.047364507 0.57800305
000010 9b 8e bb 3e 60 53 d2 3e 77 e7 08 3e 5f 4c 93 3d
       0.36632237 0.41079235 0.13369547 0.07192301
000020 eb cb ed 3d b2 0b b2 bd 78 c2 93 3d d0 82 b8 3e
       0.1161116 -0.08693637 0.07214826 0.36037302
000030 96 58 c4 3e dd 80 f2 3e e4 4e d8 3e a4 5f ab bd
       0.38348836 0.4736394 0.4224769 -0.083678514
000040 82 4c 08 3d 66 67 1f 3e cd 14 6e 3e d8 a1 7e 3e
       0.03327609 0.15566787 0.23250122 0.24866426
000050 5b f4 2f be e4 90 71 bd 62 4e b2 be 51 87 d4 bd
       -0.17183058 -0.05897607 -0.34825426 -0.10377372
000060 e9 5a 75 3d 54 48 69 bc e4 01 71 3e 7c cd e3 bc
       0.05990115 -0.014238436 0.23535877 -0.027807944
000070 fc 82 86 be 01 8a 77 bc 6b 12 99 3e c9 dc 43 3e
       -0.26271808 -0.015108586 0.29896864 0.19127192
000080 4d 02 a1 3d e4 72 97 3e ca f0 17 3e 67 f8 f9 ba
       0.07861767 0.29579842 0.14837947 -0.0019071222
000090 9b 29 0b b9 f1 6c 31 bd ea 57 a0 be 75 7a a7 3d
       -0.00013271572 -0.043316785 -0.31317073 0.08177654

encoder.4.block.2.running_mean f4 [40]
000000 44 c6 5f 3e 5a 87 46 bf f6 7e 2f bf ac 9b 0c bf
       0.21852976 -0.7755028 -0.685531 -0.54925036
000010 f5 3d ea 3c e2 32 0b 3f 14 36 5e 3e fc f5 a0 be
       0.028593997 0.54374516 0.21700317 -0.3143767
000020 c9 09 b5 bd 46 c7 7e be cf ca d8 3e ba 8b 83 3e
       -0.08839757 -0.24880704 0.4234223 0.2569254
000030 56 9a e6 3b 9e 15 be 3e 35 6e 26 3e 42 53 30 bf
       0.0070374412 0.37125868 0.16252978 -0.6887704
000040 d8 26 15 bf c3 38 81 bd ae 74 16 3f d7 98 71 3d
       -0.58262396 -0.063096546 0.5877179 0.05898365
000050 68 a6 b7 3d 75 61 36 bf 96 1e c4 be d0 e5 86 be
       0.08967286 -0.7124246 -0.38304585 -0.26347208
000060 69 40 cd 3d ad 46 04 bf b3 86 2a 3f a0 e8 2a 3f
       0.10022051 -0.5167034 0.66611785 0.6676121
000070 84 c9 18 3d 98 e1 5c bf 30 54 52 3f 63 64 16 3f
       0.037301555 -0.8628173 0.8215971 0.5874693
000080 17 e8 14 bf 43 2e d2 bd f8 10 8d 3e 25 d9 04 bf
       -0.5816664 -0.1026273 0.2755201 -0.51893836
000090 9b fa 95 bd e1 9b 8d be f7 ca b6 be f0 3c c3 3a
       -0.0732319 -0.2765799 -0.35701725 0.001489548

encoder.4.block.2.running_var f4 [40]
000000 7f 37 e8 3e b8 24 7f 3f df 99 38 3f d4 54 fa 3e
       0.4535484 0.99665403 0.7210979 0.48892844
000010 a0 7b a6 3e 5f 6a e4 3e a0 db 02 3f 2b 42 1c 3e
       0.32516193 0.44612405 0.5111637 0.15259616
000020 8d c2 88 3e 7d e3 05 3f d8 e0 0a 3f 27 13 d8 3e
       0.2671093 0.52300245 0.54249334 0.42202112
000030 8b 37 a2 3e 2a 0b a4 3e 69 0e 31 3f 81 78 08 3f
       0.31683 0.32039768 0.69162613 0.53308874
000040 f2 9b c0 3e 63 49 30 3e a7 ae 07 3f a0 60 64 3e
       0.37618977 0.17215495 0.53000873 0.22302485
000050 c5 08 f5 3d a5 0e 7b 3f fb fe 90 3d ac c9 fb 3e
       0.11964563 0.9806922 0.07079884 0.491773
000060 e1 09 c1 3e 85 1a ec 3e 58 04 14 3f 29 68 1f 3f
       0.3770285 0.46113983 0.5781913 0.6226831
000070 bb 4a b1 3d 4b f7 6b 3f 25 59 27 3f 47 e3 80 3f
       0.08656832 0.92174214 0.653704 1.006936
000080 09 53 40 3f b8 5b c5 3e d0 b9 d9 3e c4 5a 0e 3f
       0.751267 0.38546538 0.42524576 0.5560725
000090 b3 b9 6b 3e 27 85 3a 3e 68 d2 08 3e 77 dd 4a 3e
       0.23020057 0.18214856 0.13361514 0.19811045

encoder.4.block.4.weight f4 [40, 40, 1, 1]
000000 a3 0c aa 3d ed 15 c9 3d 91 e7 88 3e 52 97 1b 3e
       0.083031915 0.09818635 0.2673917 0.15194443
000010 e1 4d 61 3c 1c 72 fa bd 87 0d 51 3c b5 ad 1e 3d
       0.013751478 -0.12228796 0.012759573 0.03873988
000020 03 7c 15 bd 20 90 22 3d c8 69 5d be c0 36 31 be
       -0.03649522 0.03968823 -0.21622384 -0.17306042
000030 5f 76 11 be 10 77 35 be f4 8a 37 be d0 aa 70 bd
       -0.14205311 -0.177212 -0.179241 -0.05875665
000040 f1 c1 04 3e 97 a8 12 3b 43 1a 75 bd e3 a6 86 bd
       0.12964608 0.002237832 -0.0598395 -0.065748
000050 7e e0 0a 3e 58 24 4a 3e db bd 98 3d 00 8d 52 3e
       0.135622 0.19740427 0.07458087 0.205616
000060 b5 31 62 3e 95 7e 7a 3d a4 fc b4 be a7 00 65 be
       0.22089274 0.061155874 -0.35349 -0.2236353
000070 a7 73 99 be fb 3c 85 bd af 3f 0c bf 5e 31 f6 3c
       -0.29971048 -0.06505772 -0.54784673 0.030052837
000080 ec 96 c7 3c 6a 49 7a be 17 ee 53 3d 13 c3 26 3d
       0.024363957 -0.24442068 0.051740732 0.04071338
000090 46 a3 25 3d cd ad 1f bd fc 15 b1 3e 58 60 ab 3d
       0.040438913 -0.03898411 0.34587085 0.083679855
0000a0 12 38 27 3e 53 7d 60 bd 37 40 da 3e 4d be 1a be
       0.16329983 -0.05480702 0.42627117 -0.15111656
0000b0 84 3e ae 3d e0 50 74 3d 8e 7b 8e 3c 51 47 5b 3d
       0.08508018 0.05964744 0.0173929 0.05353481
0000c0 e0 1e ef 3d 95 f0 06 bd 8e 77 22 bd 1b 81 64 3e
       0.11675811 -0.03294428 -0.039664797 0.22314875
0000d0 60 71 b4 3d 9f 5b 3d 3e 6f a5 98 3e 49 ca 57 be
       0.08810687 0.18491982 0.29813716 -0.2107326
0000e0 1d 88 fe bd 37 46 f7 3d c1 f8 9c bd 18 1c 0d 3d
       -0.12428305 0.12073939 -0.076646335 0.03445062
0000f0 bf be ba bd 8f 1c 63 be 98 f7 00 3c 14 f3 bd bd
       -0.09118413 -0.22178863 0.007871531 -0.09274879
000100 1c c7 61 bc ee da 08 3c f4 92 94 bc 0c 9f a4 3d
       -0.0137803815 0.008352978 -0.018136479 0.08038148
000110 32 87 8f bc 4b 69 b2 bd f2 a1 f4 3d fe 7f fd 3d
       -0.01752052 -0.08711489 0.11944951 0.12377928
000120 73 cb f0 3c b5 f7 b2 3e 67 56 26 3e d1 70 25 be
       0.029393887 0.3495461 0.16243897 -0.16156317
000130 59 e1 d9 bd ab b6 b7 3d d8 bb a5 be 22 f3 43 bd
       -0.10638685 0.08970388 -0.32369876 -0.04783929
000140 38 49 16 be db 15 39 3e b3 98 0b 3d 9e 54 54 be
       -0.14676368 0.18074743 0.034081172 -0.20735404
000150 c4 9f 0b bd 97 c6 0c be 86 24 e1 bd 43 9a f1 bd
       -0.03408791 -0.13747631 -0.109932944 -0.11797001
000160 86 39 82 3b dc 9c d5 bd 97 22 1c 3d f7 ec 76 be
       0.0039741425 -0.10430309 0.038118925 -0.24113832
000170 d0 ea 36 3d 64 ce 93 bd 62 90 26 be ec 80 e3 3c
       0.04465753 -0.072171 -0.16266015 0.027771436
000180 33 18 41 3d 93 d5 37 3d 80 d8 26 be df 6b 3f be
       0.04714222 0.044881415 -0.16293526 -0.18693493
000190 57 02 a7 bd 9d 31 04 3e 8b 12 ef 3c f0 50 96 3d
       -0.08154743 0.12909551 0.029183647 0.07339656
0001a0 e7 e4 5f be 05 2d ab 3d 8b 8a 24 be 3a cc a3 3d
       -0.21864663 0.08358196 -0.16068475 0.079979375
0001b0 2f cc 27 be 38 c7 53 3e cf dd 01 be a5 2c a6 be
       -0.16386484 0.20681465 -0.1268227 -0.32455936
0001c0 d8 d0 e3 bd 3f 00 8d be e6 ff ee bc c4 e7 18 3e
       -0.11123818 -0.2753925 -0.029174756 0.14932162
0001d0 c8 d0 a4 3c 64 fd 1a 3d 7b 8c 06 3f 68 d9 72 bd
       0.020119086 0.03783931 0.52558106 -0.059289366
0001e0 15 60 15 bd c6 e1 8a 3e e1 3e 2c 3e 2e 81 5b bc
       -0.036468584 0.27125376 0.16820861 -0.013397498
0001f0 b0 87 10 be b7 79 57 3d 4d 0e 3f be 53 ee d4 be
       -0.1411426 0.05260631 -0.18657799 -0.41588077
000200 86 0a f2 be 5f 37 71 bd 9c d6 ca 3d c7 6d 9b be
       -0.47273654 -0.058890697 0.09904215 -0.3035719
000210 ea 4e f3 bc 82 a9 e6 bd 0f e0 a7 bd f4 74 77 be
       -0.029700715 -0.112628 -0.08197033 -0.24165708
000220 20 a5 b0 bc f3 c4 86 3d c5 ba 3c be 87 1c f3 3d
       -0.021563113 0.06580534 -0.18430622 0.118706755
000230 bb 5b 64 3e d6 09 39 3e 5f be 5e 3c 57 77 2a 3e
       0.22300617 0.18070158 0.013595193 0.16647087
000240 1e b4 4c be dc 55 ac bc ac 3b a1 bd e0 df a8 bb
       -0.19990584 -0.021037035 -0.0787271 -0.005153641
000250 29 d0 38 3e 0c 7c bf bc 3c 01 89 bd 62 9a 32 3d
       0.18048157 -0.02337458 -0.066896886 0.043604262
000260 16 0c 05 3e 2c 15 fe bd 51 14 a1 bd 4e 68 54 3e
       0.12992892 -0.12406382 -0.07865203 0.20742914
000270 03 96 e0 3d 38 18 97 bd d3 69 b5 3e f3 0a 1e bd
       0.109661125 -0.07377666 0.354323 -0.03858466
000280 f9 fc cf bd bf c8 49 be 32 fa 5c bd cf 82 c5 bc
       -0.101556726 -0.19705485 -0.053949542 -0.024110226
000290 a4 8b 3e bc a9 64 81 be a7 c6 8d 3e fb d2 3f be
       -0.011629973 -0.2527211 0.27690622 -0.18732826
0002a0 3a 01 b8 bd ae 83 b5 3d 99 c9 ff 38 ea 0c de 3d
       -0.08984609 0.088630065 0.00012196898 0.10842307
0002b0 da d6 84 3e 51 48 b7 3e 92 31 28 3e 41 ab 80 bc
       0.2594517 0.3579736 0.1642516 -0.01570666
0002c0 40 9c d5 bd 9f d8 78 3d 7f 73 b6 3d f9 97 27 3e
       -0.10430193 0.06075346 0.08908748 0.16366567
0002d0 b6 b2 46 3e e1 45 1f 3d 53 d0 86 be 2c a4 bc 3d
       0.1940411 0.038885 -0.26330814 0.09211001
0002e0 a8 38 f3 bc 9a 02 65 be a1 5d e3 bd 72 2c 0f 3e
       -0.029690102 -0.22364274 -0.11101843 0.13981798
0002f0 e7 f6 f5 3d c1 0c 07 be d4 4d 34 3e 24 0c 5e be
       0.120099835 -0.13188459 0.17607814 -0.21684319
000300 2f af 00 be b8 3a f6 3d 95 f0 38 3e 07 8d 00 bd
       -0.12566827 0.120229185 0.18060525 -0.031384494
000310 44 0b c9 bd b4 cc 13 be ef 07 45 be 2a 77 fa 3d
       -0.09816602 -0.14433557 -0.19241308 0.1222976
000320 90 4a 63 3d 65 90 4d bd 5f cb 71 3d 56 6c 66 bc
       0.05549103 -0.050186533 0.05903184 -0.014063915
000330 66 8b 81 bd 21 7c ce be 64 d0 8a be e7 a6 a2 3d
       -0.06325416 -0.40329078 -0.27112114 0.0794199
000340 e5 6f 13 be 81 a2 30 bd d1 ad 81 3d e7 f1 40 be
       -0.14398153 -0.043123726 0.06331981 -0.18842278
000350 38 ae c1 be 5c ec 34 bc df 17 31 3d 15 bf ea 3c
       -0.3782823 -0.011042681 0.043235656 0.028655568
000360 24 79 ba bd d9 a5 ed 3d 68 68 93 bd 06 32 a0 be
       -0.09105137 0.116038986 -0.07197648 -0.31288165
000370 cb ae 02 bc 0a 1f ef bb 29 bd 08 3e 9b cd 04 3d
       -0.007976244 -0.0072974013 0.13353409 0.032422643
000380 42 3a ae bb e9 28 08 3e 78 96 cf 3d 9a c3 42 3e
       -0.0053170035 0.13296856 0.101361215 0.19019929
000390 0d 47 34 be b9 44 5b 3c 98 17 22 be 3f 1e ba 3e
       -0.17605229 0.013383084 -0.15829313 0.363512
0003a0 0c d7 01 3e 46 1a 77 3e 5f 45 6d be e4 8b 53 3d
       0.1267969 0.24131116 -0.23170994 0.051647082
0003b0 c0 9c b2 3d ce b1 76 bc 3b a5 a2 3e 4d 2c fa bd
       0.08721304 -0.01505704 0.31766686 -0.12215481
0003c0 39 ca 2b be d6 4a 06 be ed 19 8f be 4b 7b 36 3c
       -0.1677636 -0.13114485 -0.27949467 0.011137794
0003d0 e2 30 0b 3d f7 b9 45 be 2d a6 2a 3e 4f 47 7d 3d
       0.033982165 -0.19309221 0.16664954 0.061835583
0003e0 29 0c 7b 3e 1f 59 33 3d c2 5b 0e bf 10 63 56 be
       0.24516357 0.043786164 -0.5560876 -0.20936227
0003f0 fe 49 29 be c7 fb 73 bd 43 0b c6 bd b7 a2 56 bd
       -0.16532132 -0.059566285 -0.09670117 -0.05240127

encoder.4.block.4.bias f4 [40]
000000 fb 88 07 bc b4 5c 08 3b 55 d0 a8 bb 91 82 e3 ba
       -0.008272405 0.0020807208 -0.0051517882 -0.0017357637
000010 bd e7 35 ba 88 00 87 39 83 0a 3e bc b5 2a 18 bc
       -0.0006939134 0.00025749602 -0.011599186 -0.009287526
000020 25 c6 a1 39 cc f4 08 b9 bf 61 0e bb 1b d5 86 bb
       0.00030855942 -0.00013061165 -0.0021725742 -0.0041147596
000030 85 c7 93 bb 49 c7 aa 3a 68 9c d8 bb 42 39 15 3a
       -0.0045098686 0.0013029362 -0.006610442 0.0005692431
000040 84 e7 c9 bb 6a 9f da 39 40 bf 31 3b 72 98 22 3c
       -0.006161632 0.00041698973 0.002712205 0.009924041
000050 68 f2 ee 3b 48 b3 a0 bb 86 0b 82 3b b8 a0 85 ba
       0.0072920807 -0.0049041845 0.003968659 -0.0010194993
000060 1a 47 bb bb a5 9d 89 bb 05 85 63 bb 7b 20 d1 38
       -0.005715263 -0.004199701 -0.0034716737 9.9719466e-05
000070 06 22 ac bb 1c af fc bb 02 03 e4 3a ed c2 b4 3b
       -0.0052530793 -0.0077113044 0.0017395916 0.005516401
000080 ef 03 2b bb 48 81 49 bb 3f a2 03 bc d3 eb 89 bb
       -0.0026094874 -0.0030747224 -0.008034288 -0.0042090206
000090 88 af c3 bb 11 d5 d4 bb d1 46 f9 3a 2a 9a 04 bb
       -0.0059718527 -0.006495126 0.0019018297 -0.002023349

encoder.4.block.5.weight f4 [40]
000000 8b b1 3f 3f 7f db 18 3f d0 d5 3a 3f 13 5e 10 3f
       0.74880284 0.59709924 0.729825 0.56393546
000010 4f 82 4e 3f 46 52 18 3f 43 d6 76 3f ea e3 06 3f
       0.80667585 0.5950054 0.9642069 0.5269152
000020 91 0d 40 3f 7a e7 21 3f 55 76 60 3f 07 89 58 3f
       0.750207 0.6324383 0.8768056 0.8458409
000030 c0 76 3d 3f 15 d4 2d 3f b3 51 13 3f 10 2e aa 3f
       0.74009323 0.67901736 0.5754654 1.3295307
000040 b8 5e 0b 3f 40 cb 68 3f da 08 6c 3f 3e 47 05 3f
       0.54441404 0.90935135 0.92201006 0.5206183
000050 6d b4 c1 3e 38 13 6f 3f fa 24 73 3f d9 a1 30 3f
       0.37832966 0.933887 0.94978297 0.6899696
000060 8b 46 15 3f 35 e3 06 3f 35 67 61 3f f1 64 75 3f
       0.58310765 0.5269044 0.88048106 0.9585715
000070 6b 18 29 3f 1c a6 31 3f 3a 11 54 3f dd 3e 02 3f
       0.66052884 0.6939409 0.82838786 0.5087717
000080 86 45 0a 3f c5 43 42 3f ca 04 61 3f 7f 35 51 3f
       0.54012334 0.7588466 0.8789793 0.81722254
000090 7f 6a 54 3f be 18 26 3f 1f b8 00 3f a4 2c 17 3f
       0.82975 0.64881504 0.50280946 0.5905249

encoder.4.block.5.bias f4 [40]
000000 ea bd e1 be 5a 36 0f 3d b0 43 93 be c0 7e 64 be
       -0.44090205 0.034963943 -0.2876258 -0.22313976
000010 92 ea 47 3d b2 85 65 be db ad 69 be 1a 78 98 be
       0.048807688 -0.22414282 -0.22820227 -0.2977913
000020 55 51 09 3e f7 e2 a4 be a6 0b 98 3d 7e 2a 39 be
       0.13409932 -0.3220441 0.07424097 -0.18082616
000030 06 15 b9 be 76 3c 47 bc 84 77 cc bd a4 8a 6e be
       -0.36148852 -0.012160411 -0.09983733 -0.23295075
000040 1c 56 87 be 0e e2 4a 3c ae f0 01 3e fb 37 f9 bd
       -0.26432884 0.012382997 0.12689468 -0.121688806
000050 7a 0e 1d be 94 9f 3e 3d 8f 5c 0f 3d b6 a5 07 be
       -0.15337554 0.046538904 0.03500038 -0.13246807
000060 f1 12 a0 be ac 7b b0 bd b1 70 95 3d 6b 04 ce 3d
       -0.3126445 -0.086173385 0.07296885 0.100594364
000070 7b 92 07 be cc 61 dc bd ee b4 83 be 49 c1 f3 bd
       -0.13239472 -0.10760841 -0.25723976 -0.119021006
000080 5f b1 0f be c7 be 85 be 36 ba b6 bd 46 6c 96 be
       -0.14032505 -0.26122114 -0.08922236 -0.2937948
000090 39 d9 92 be f1 22 65 bd c0 03 6a bd 31 a1 45 be
       -0.28681353 -0.055941526 -0.057132483 -0.19299771

encoder.4.block.5.running_mean f4 [40]
000000 9e 63 01 bf df cc 13 3f 0a 9e 62 bf c9 df ac be
       -0.5054263 0.57734483 -0.885224 -0.33764485
000010 9b f8 1b 3e c6 37 99 be 7d 9b 63 bf 69 3f b7 be
       0.15231554 -0.29925364 -0.8890913 -0.35790566
000020 7c 13 32 bc 74 09 ef be 2b 87 1f 3f 07 41 58 3e
       -0.010868903 -0.466869 0.62315625 0.21118556
000030 c4 16 45 3e 8e 05 40 3f da 56 2e bf 96 e1 28 be
       0.19246966 0.75008476 -0.68101275 -0.16492304
000040 eb 1a 78 be 3e 67 b4 3e 61 ac 8b 3f e7 18 06 3f
       -0.24229018 0.35235018 1.0911981 0.5238175
000050 21 99 ca bd a0 68 06 3f e6 00 cb 3e e0 dd 82 bd
       -0.09892488 0.52503395 0.39649123 -0.063899755
000060 a2 e4 0b bd 8e ce d8 be fd 8d 0e 3f 60 21 17 3f
       -0.034153588 -0.4234509 0.55685407 0.590353
000070 4d 47 8b be da 60 39 bf 80 4e 4b bf 55 ca c7 bc
       -0.27202836 -0.7241341 -0.79416656 -0.024388472
000080 88 bc 96 3c 24 82 d4 be 7e 98 d5 be 1f d3 e0 be
       0.018400446 -0.4150554 -0.41717905 -0.43911073
000090 0e ef 07 bf f9 1d a3 be 97 ae 62 3e ac 82 cc be
       -0.53099144 -0.31858805 0.22136913 -0.39943445

encoder.4.block.5.running_var f4 [40]
000000 09 73 9e 40 33 97 79 40 d1 c3 82 40 6d fa 78 40
       4.9515424 3.8998535 4.0864034 3.8902848
000010 3b 28 c5 3f ff d0 3c 3f 09 20 0f 40 47 d6 d1 40
       1.5402902 0.737564 2.2363303 6.557407
000020 86 a9 9e 3f 14 1c c1 3f 1c 6c 37 40 fa d6 d1 3f
       1.2395484 1.5086694 2.8659735 1.6393731
000030 25 c9 17 3f 55 26 40 40 98 ff a8 40 c8 ef 0d 3f
       0.592913 3.0023396 5.2812004 0.55444
000040 c6 e8 7a 3f eb 70 05 40 d6 b2 3f 40 46 2c 8c 3f
       0.98011434 2.085017 2.9952903 1.0951011
000050 ae e2 f8 3f ed be aa 40 58 3d 47 3f 77 44 7d 40
       1.9444177 5.3358064 0.7782798 3.9573038
000060 a2 01 86 40 b7 8d e2 3e 08 dd 5f 40 02 73 e7 40
       4.1876993 0.44248745 3.4978657 7.232789
000070 92 37 b5 3f b6 6d 88 3f 42 27 68 40 7a aa ce 40
       1.4157584 1.0658481 3.627396 6.45831
000080 73 39 be 3f 74 ab a8 3f 6f 90 9f 40 81 f9 f0 3f
       1.4861282 1.3177323 4.986381 1.8826143
000090 c5 03 b3 3f 3c d4 74 3f b5 be 6c 40 52 af be 3f
       1.3985525 0.95636344 3.6991398 1.4897254
