VQ-VAE/models/vqvae/model_91.pt (torch, 579012 bytes, 64 tensors)

encoder.0.weight f4 [40, 1, 4, 4]
0.0451949 -0.008343664 -0.036797993 -0.07733877 -0.03522066 -0.12095615 -0.100483626 -0.08188247
-0.062627845 -0.1622386 -0.20397374 0.05107268 -0.038798295 -0.04506046 0.09975372 0.0463296
0.045340847 0.04575827 -0.07943786 0.07316501 0.08635162 0.14464961 -0.075386554 0.06346878
0.05734913 0.09208241 -0.1462448 -0.001706407 0.049881715 0.08949399 -0.024064478 0.06632485
0.08726656 0.08953995 0.11097283 0.104588106 0.029715559 -0.005118549 -0.004264601 0.071863286
0.085316174 0.059985843 0.04878178 0.065960936 0.029403768 0.0436101 0.01256123 0.014880186
-0.0066760085 0.059146345 0.1003631 0.06430361 0.09367493 0.092909984 -0.040766034 -0.073205695
0.112014376 -0.06909451 -0.058724586 0.0093828915 0.09865207 0.043331385 0.06932386 0.030875918
0.028968194 -0.012178293 0.02282573 0.004622259 0.010888923 -0.03685985 0.13110866 0.015377723
-0.02432769 -0.12464445 0.04893199 0.0892479 0.05664899 -0.058970187 0.03542081 0.13140024
-0.07589282 -0.048005678 -0.033574205 0.021309225 -0.12474602 -0.07231345 -0.15424863 0.052751936
-0.104978666 -0.08045602 -0.11491469 0.08110586 -0.07384897 -0.05101452 0.045085628 0.00030086024
-0.016893592 0.060982298 -0.04116407 -0.020423763 0.09225247 0.02181876 -0.11240091 -0.0712849
0.062141657 -0.1571517 -0.046603296 -0.11188011 0.01927449 -0.0735829 -0.035259478 -0.012820107
0.014051646 -0.047195 -0.09964968 -0.10798631 -0.06441791 -0.063253984 -0.14513318 0.117148
-0.11552958 -0.031783864 -0.11428761 -0.03281271 -0.014442957 0.07842087 -0.025463358 -0.027814139
-0.011120349 -0.04349364 0.017149486 0.026133921 -0.098058805 0.08796656 0.1368459 0.030220846
0.042821273 0.119553804 -0.060019057 -0.047648594 0.0957452 0.111230195 -0.020928308 0.034928616
0.031467937 0.07970395 0.040024016 0.03447138 -0.06364108 -0.025169687 -0.11575522 -0.016056132
-0.12830187 -0.11330854 -0.13232003 0.028859317 0.032022648 0.092322215 0.080923595 0.04667961
0.06481779 0.027936194 -0.076164946 -0.06433189 0.05726336 0.042106964 -0.03421136 -0.09521757
0.049799222 0.040813047 -0.043660305 -0.13489632 0.07080225 0.05202813 -0.06540024 -0.06655535
-0.08037077 -0.030147368 0.03450361 -0.017592138 0.006177213 -0.059164423 -0.11503879 -0.0949704
-0.04251719 -0.114743225 -0.21353456 -0.05033855 0.016404573 -0.061812695 0.00854022 -0.063907236
0.008483909 0.086025 0.08096924 0.019682923 0.0075202226 -0.050196625 -0.06786806 -0.13446915
-0.06295206 -0.13805774 -0.16894118 -0.15064771 -0.010476262 -0.052847628 -0.016416753 -0.08597067
-0.053401597 -0.07440874 0.026774418 0.043276884 -0.07764602 -0.13900462 -0.12132709 -0.018912919
0.047313154 0.05484966 -0.09475579 -0.12460161 0.036421653 0.08746109 0.032943305 -0.025900729
0.018669989 -0.00066909555 -0.009985306 0.050503895 0.041365277 -0.062275827 -0.047848634 0.02266239
0.012229498 0.062836945 0.19010766 0.15878753 0.008905815 0.07458634 0.10641797 0.038958892
0.052322306 -0.06819035 -0.08088365 0.0014721996 -0.08353937 -0.04930168 -0.061976735 -0.056890775
-0.07409228 -0.094701365 -0.024592092 -0.057027854 0.02947286 -0.04442668 -0.0871106 0.010077937
00000000: 4a1e 393d ddb3 08bc 7eb9 16bd ca63 9ebd
00000010: 8a43 10bd dcb7 f7bd 5cca cdbd ffb1 a7bd
00000020: 0743 80bd e021 26be 7ede 50be 9631 513d
00000030: f6ea 1ebd 5191 38bd ae4b cc3d 1bc4 3d3d
00000040: 53b7 393d 066d 3b3d 51b0 a2bd 89d7 953d
00000050: 1ed9 b03d 071f 143e 4464 9abd ebfb 813d
00000060: ece6 6a3d b495 bc3d 32c1 15be 85a9 dfba
00000070: c550 4c3d a048 b73d de22 c5bc 53d5 873d
00000080: cfb8 b23d b960 b73d b945 e33d 4a32 d63d
00000090: 0b6e f33c 80b9 a7bb 11be 8bbb 0f2d 933d
000000a0: 3fba ae3d b7b3 753d 67cf 473d 8716 873d
000000b0: 2ce0 f03c 81a0 323d 9ecd 4d3c 06cc 733c
000000c0: 6bc2 dabb 7043 723d 2b8b cd3d 9cb1 833d
000000d0: a4d8 bf3d 9747 be3d 49fa 26bd deec 95bd
000000e0: cb67 e53d 6c81 8dbd 3189 70bd b3ba 193c
000000f0: 190a ca3d 407c 313d abf9 8d3d 7eef fc3c
00000100: b54e ed3c 7787 47bc 06fd ba3c 5276 973b
00000110: 7467 323c 5bfa 16bd 5941 063e d8f2 7b3c
00000120: dd4a c7bc 9745 ffbd e96c 483d 9ac7 b63d
00000130: c508 683d b98a 71bd 6915 113d c98d 063e
00000140: b26d 9bbd 9aa1 44bd 1b85 09bd af90 ae3c
00000150: d77a ffbd 1319 94bd 5af3 1dbe 6a12 583d
00000160: 0eff d6bd 20c6 a4bd 6558 ebbd d41a a63d
00000170: 213e 97bd 9af4 50bd b5ab 383d c7bc 9d39
00000180: 6e64 8abc 93c8 793d a89b 28bd bc4f a7bc
00000190: ddee bc3d 42bd b23c 7332 e6bd d1fd 91bd
000001a0: 4088 7e3d 60ec 20be 19e3 3ebd 6621 e5bd
000001b0: 89e5 9d3c a2b2 96bd 3e6c 10bd 6d0b 52bc
000001c0: e038 663c 8b4f 41bd 2215 ccbd ed27 ddbd
000001d0: 8aed 83bd 4e8b 81bd cb9d 14be 4aeb ef3d
000001e0: c69a ecbd cc2f 02bd 9f0f eabd 9f66 06bd
000001f0: 27a2 6cbc 1f9b a03d 8898 d0bc 7ada e3bc
00000200: 2032 36bc 6326 32bd 147d 8c3c ce16 d63c
00000210: 0ed3 c8bd d027 b43d 5521 0c3e b591 f73c
00000220: 5c65 2f3d a0d8 f43d 8bd6 75bd 2c2b 43bd
00000230: 0f16 c43d a8cc e33d d871 abbc 4f11 0f3d
00000240: 86e4 003d d33b a33d 39f0 233d dd31 0d3d
00000250: 4156 82bd a930 cebc 1311 edbd 2688 83bc
00000260: 9161 03be 4f0e e8bd e77e 07be 606a ec3c
00000270: 2e2a 033d 6e13 bd3d 45bb a53d 1e33 3f3d
00000280: 31bf 843d 72da e43c 5efc 9bbd 70c0 83bd
00000290: fc8c 6a3d 5a78 2c3d 3621 0cbd 6e01 c3bd
000002a0: 45fa 4b3d 952b 273d 26d5 32bd 4322 0abe
000002b0: c500 913d 731b 553d 90f0 85bd 2c4e 88bd
000002c0: 6e99 a4bd 9df7 f6bc a853 0d3d 631d 90bc
000002d0: 386a ca3b 6556 72bd 7599 ebbd d77f c2bd
000002e0: 8126 2ebd 7ffe eabd cea8 5abe cc2f 4ebd
000002f0: e262 863c 4f2f 7dbd 47ec 0b3c cce1 82bd
00000300: 1800 0b3c e02d b03d 33d3 a53d 153e a13c
00000310: 336c f63b fa9a 4dbd 69fe 8abd 48b2 09be
00000320: 02ed 80bd 025f 0dbe ebfe 2cbe 6543 1abe
00000330: a1a4 2bbc c176 58bd 6d7c 86bc 6411 b0bd
00000340: a2bb 5abd 9c63 98bd 0656 db3c 1a43 313d
00000350: e004 9fbd 3a57 0ebe 567a f8bd 44ef 9abc
00000360: 70cb 413d 09aa 603d 530f c2bd 212f ffbd
00000370: df2e 153d cd1e b33d 8fef 063d c42d d4bc
00000380: cef1 983c 3e66 2fba 6999 23bc 2cdd 4e3d
00000390: a36e 293d f014 7fbd eefc 43bd 7aa6 b93c
000003a0: 3b5e 483c a8b0 803d 95ab 423e 3399 223e
000003b0: b2e9 113c b9c0 983d aaf1 d93d 5c93 1f3d
000003c0: ea4f 563d 62a7 8bbd 54a6 a5bd d2f6 c03a
000003d0: b016 abbd 8ff0 49bd 51db 7dbd 4d06 69bd
000003e0: b1bd 97bd caf2 c1bd 5b75 c9bc 0a96 69bd
000003f0: 1171 f13c c0f8 35bd 0b67 b2bd ee1d 253c

encoder.0.bias f4 [40]
-0.0011662745 -0.0018399974 -0.0035342125 -0.00214698 -0.0064781792 -0.00057815 0.0029486413 -0.0010502761
-0.0053596147 0.0040960545 0.0012249257 -0.0022205363 -0.0030843725 -0.0015206968 -0.0023919619 0.0014782243
0.0009186627 -0.002167066 -0.0006752884 -0.0016236576 -0.006469566 -0.0011107167 -0.0019460048 -0.004672322
-0.00077109196 0.0036220578 -0.0003789327 -0.00037001903 0.0031829716 -0.00088472705 0.006299789 -0.001945536
-0.00039569414 -0.008116513 0.0062254947 -0.0009031617 -0.00084729976 -0.00622423 -0.004289049 0.00095299835
00000000: aedd 98ba 112c f1ba 3f9e 67bb 59b4 0cbb
00000010: e846 d4bb fd8e 17ba fe3d 413b 6ba9 89ba
00000020: b59f afbb 3238 863b b08d a03a 6b86 11bb
00000030: 2f23 4abb 1e52 c7ba 76c2 1cbb fac0 c13a
00000040: 69d2 703a 5605 0ebb d605 31ba e9d0 d4ba
00000050: a7fe d3bb 7895 91ba 1611 ffba 471a 99bb
00000060: 1b23 4aba 0c60 6d3b 7cab c6b9 1dff c1b9
00000070: 6799 503b 07ed 67ba 766e ce3b 5b01 ffba
00000080: 2b75 cfb9 1ffb 04bc 3cff cb3b 28c2 6cba
00000090: 531d 5eba a0f4 cbbb 278b 8cbb a3d2 793a

encoder.1.weight f4 [40]
0.6744575 0.44863436 0.6099975 0.40709934 0.54569954 0.8186381 0.66577965 0.69608605
0.5252741 0.5918896 0.7176876 0.68069875 0.77288294 0.6936843 0.47500372 0.81372756
0.609265 0.76033473 0.64091337 0.75309896 0.45853555 0.7191737 0.51353884 0.5571182
0.33560222 0.597034 0.6002457 0.3316831 0.6339513 0.5791412 0.73081464 0.756859
0.72902685 0.64667904 0.7884445 0.53515553 0.7845935 0.9188339 0.88736504 0.6080946
00000000: 3fa9 2c3f 67b3 e53e cc28 1c3f 536f d03e
00000010: f7b2 0b3f 4492 513f 8970 2a3f b232 323f
00000020: 5d78 063f 1486 173f 60ba 373f 4642 2e3f
00000030: a8db 453f 4b95 313f b033 f33e 7350 503f
00000040: cbf8 1b3f 4ca5 423f e612 243f 18cb 403f
00000050: 2cc5 ea3e c51b 383f 4877 033f 4c9f 0e3f
00000060: 0ed4 ab3e 38d7 183f b4a9 193f 5ed2 a93e
00000070: a24a 223f 9942 143f ab16 3b3f 83c1 413f
00000080: 81a1 3a3f c28c 253f 80d7 493f f4ff 083f
00000090: 1fdb 483f b338 6b3f 5b2a 633f 16ac 1b3f

encoder.1.bias f4 [40]
-0.073468216 -0.037428528 -0.02707401 -0.004790704 0.0613347 -0.13369925 -0.22646621 -0.22786336
0.13077253 0.017004017 -0.17309321 -0.13588259 -0.20869687 -0.18578179 0.18379328 0.022471288
0.014068026 -0.1684633 -0.16111414 -0.20408766 -0.031454988 -0.14752653 0.15583137 -0.077770434
-0.009673922 -0.1561968 0.13589796 0.077199146 -0.14002788 -0.037537754 -0.17987193 -0.23635677
-0.16814613 0.18006293 -0.13663326 -0.1712322 -0.20336884 -0.25521973 -0.28472397 -0.09451927
00000000: 8176 96bd a84e 19bd 50ca ddbc 57fb 9cbb
00000010: 183a 7b3d 75e8 08be c2e6 67be 0355 69be
00000020: 3ce9 053e 024c 8b3c 593f 31be ce24 0bbe
00000030: a2b4 55be 953d 3ebe 4e34 3c3e b515 b83c
00000040: 947d 663c a581 2cbe 1bfb 24be 5bfc 50be
00000050: f2d6 00bd 3211 17be 4292 1f3e 1b46 9fbd
00000060: 5f7f 1ebc 0ef2 1fbe d628 0b3e 961a 9e3d
00000070: 7863 0fbe 30c1 19bd 5930 38be 8207 72be
00000080: 802e 2cbe 6b62 383e 97e9 0bbe 7e57 2fbe
00000090: ec3f 50be 29ac 82be 57c7 91be 5293 c1bd

encoder.1.running_mean f4 [40]
0.5357924 -0.31825858 -0.5687296 -0.3412606 -0.2094614 0.5191394 0.32277286 0.4770284
-0.30226296 0.12817727 0.119923405 0.62056726 0.5227111 0.29225656 -0.45653644 0.4923504
-0.2391594 0.61212176 0.3769869 0.34321028 -0.28746495 0.25239304 -0.232016 0.29046923
-0.071574174 0.1362053 -0.25012907 -0.09354544 0.1524191 0.19543229 0.25075603 0.31402618
0.30753967 -0.24710304 0.37817854 -0.2977627 0.5725581 0.55007315 0.7596242 0.116181746
00000000: b129 093f caf2 a2be 4398 11bf b6b9 aebe
00000010: 0d7d 56be 52e6 043f 7c42 a53e 113d f43e
00000020: 36c2 9abe e740 033e 679a f53d 7fdd 1e3f
00000030: 65d0 053f a7a2 953e 25bf e9be 5a15 fc3e
00000040: 34e6 74be 03b4 1c3f 6d04 c13e 42b9 af3e
00000050: 9b2e 93be a939 813e 9a95 6dbe 62b8 943e
00000060: 7b95 92bd 6779 0b3e eb10 80be c094 bfbd
00000070: c113 1c3e 671f 483e 1863 803e 0ac8 a03e
00000080: d775 9d3e 9408 7dbe 9ea0 c13e 5a74 98be
00000090: 2b93 123f 98d1 0c3f bb76 423f b2f0 ed3d

encoder.1.running_var f4 [40]
0.16759787 0.050456516 0.1255269 0.06180622 0.030428905 0.153258 0.080886625 0.10693446
0.059503026 0.037134126 0.0667338 0.1629764 0.16737032 0.04800891 0.10763947 0.101154625
0.06061084 0.18805535 0.09704498 0.07488532 0.040767543 0.059563003 0.029771982 0.0696986
0.026984105 0.06849085 0.050159167 0.036528334 0.043856066 0.04585637 0.061120164 0.07099215
0.06448366 0.048808664 0.06352178 0.087581396 0.17632909 0.14881456 0.25672245 0.01980641
00000000: c79e 2b3e 7eab 4e3d 208a 003e 8528 7d3d
00000010: 0a46 f93c aaef 1c3e e3a7 a53d 7400 db3d
00000020: 72b9 733d f419 183d bbab 883d 49e3 263e
00000030: 2063 2b3e fea4 443d 1572 dc3d 282a cf3d
00000040: 1243 783d 9591 403e 85bf c63d 7a5d 993d
00000050: defb 263d 56f8 733d 5fe4 f33c 24be 8e3d
00000060: c50d dd3c ee44 8c3d b373 4d3d bc9e 153d
00000070: 6ba2 333d e4d3 3b3d 2359 7a3d 5564 913d
00000080: 0210 843d 98eb 473d b517 823d e05d b33d
00000090: 9d8f 343e d862 183e 2071 833e 0d41 a23c

encoder.3.weight f4 [40, 40, 4, 4]
0.002361756 0.012923076 -0.008774017 -0.021178659 -0.055994276 -0.112174824 0.004969727 0.04623234
-0.017641312 0.007884603 0.0039632116 0.051025983 0.0740907 0.045355894 0.027570391 -0.0064189
0.0062057646 0.012591789 0.033024397 0.024821097 -0.021377603 -0.03597607 0.035502397 0.059219666
-0.0062151114 -0.008560259 0.02716601 0.09987348 0.0031421958 -0.005147818 0.02733058 0.027273506
-0.026397029 -0.022842234 -0.004614221 0.0011853174 0.028897505 -0.033484597 -0.093517356 0.014207585
0.0359298 -0.034708995 -0.10510825 -0.038259484 0.07412813 -0.105828695 -0.097809404 -0.04269843
0.021143598 -0.014384839 -0.017623838 0.013093938 0.06529331 -0.062257927 -0.019122407 -0.00018677629
0.036898952 -0.036639728 0.02973066 0.03330344 0.00049338926 0.025761165 0.032546304 0.020488713
0.06088798 0.033723757 -0.07882229 -0.00683007 0.011183473 0.14788307 -0.08847435 -0.034206726
-0.026223432 0.1810773 0.009453232 -0.005064338 -0.0014449805 0.04536798 0.008525865 -0.022576848
-0.017310048 0.0019879157 -0.040794596 0.055409204 -0.109110825 -0.0044457023 0.07347662 0.031017713
-0.09220003 0.119679786 0.041039817 -0.044627357 -0.021686653 0.021636693 0.08311327 0.023223728
-0.0071947994 0.0028016905 0.036031023 0.020652644 -0.06900777 -0.08578575 0.11124245 0.02932763
0.033364806 0.07807212 0.011158688 -0.0035790035 -0.014564485 0.1137965 -0.033211116 -0.006424041
-0.019680005 0.01574647 0.07176391 0.01950027 -0.011772916 -0.004943448 0.04238198 0.09432158
0.03874033 0.07298621 -0.029357355 -0.02489302 -0.13333322 -0.010313539 0.123515 0.03736449
-0.008624523 -0.066838846 -0.054159645 0.038987223 0.072712444 -0.10132224 -0.06104612 0.050638437
-0.022077097 -0.047354784 -0.03463329 0.020231862 -0.011762675 0.04344056 -0.029482592 0.0070052682
-0.007755221 -0.017783046 -0.064557694 -0.0077199703 0.088377334 0.0027655982 -0.060956698 -0.041708846
0.06537655 -0.015845314 -0.020627433 0.10911787 0.02549938 0.04673064 -0.009456712 -0.041690677
0.015488195 0.011473805 -0.008706372 0.083060764 -0.046377685 0.08969278 0.03809078 0.014829597
-0.12464088 0.011118195 0.11835931 0.013712501 -0.0052739135 0.013048861 -0.031744663 -0.036162205
-0.074424125 0.018508654 0.06776474 0.076644674 0.059292372 -0.015454706 -0.047710173 0.058296558
-0.045354556 -0.09531695 0.09075899 0.008284267 0.035097297 -0.045532987 0.050759092 0.09570048
-0.04425408 -0.016355641 -0.010113691 -0.033170313 0.044089656 -0.029430693 0.00024447366 0.036414202
-0.07959043 0.06260708 -0.011444957 0.08365387 -0.020319147 -0.03155599 0.03823671 -0.017657401
-0.01030152 -0.04773246 0.031988636 0.045648564 0.14333439 0.13584085 -0.034737285 0.003162839
-0.055829596 -0.047444474 0.06410854 0.09381924 -0.010369561 -0.049387448 -0.009783134 0.030916585
0.05783065 -0.062825575 -0.0768882 0.053753268 0.041218173 -0.058855955 -0.03444011 0.054426286
0.05160114 -0.037210684 -0.090060465 0.019726055 0.08477217 0.023116969 -0.046166655 0.047644325
0.0061385226 -0.030837217 -0.008242288 0.029677363 -0.055926625 -0.13176106 0.019114569 0.054405626
0.005987384 -0.03876281 -0.0621612 0.040669814 -0.044190716 -0.023930911 0.005537145 0.019331796
00000000: b1c7 1a3b 4fbb 533c e5c0 0fbc de7e adbc
00000010: 415a 65bd eabb e5bd 17d9 a23b 1f5e 3d3d
00000020: 8384 90bc 6c2e 013c d4dd 813b 9f00 513d
00000030: ddbc 973d 1ac7 393d 4ddb e13c a355 d2bb
00000040: ba59 cb3b ca4d 4e3c 9744 073d 9d55 cb3c
00000050: 1520 afbc a55b 13bd f66a 113d 5290 723d
00000060: 22a8 cbbb 5440 0cbc 418b de3c 788a cc3d
00000070: 4ced 4d3b 07af a8bb 61e4 df3c b06c df3c
00000080: 953e d8bc a31f bbbc e432 97bb a75c 9b3a
00000090: 76ba ec3c 2527 09bd 0786 bfbd eec6 683c
000000a0: 202b 133d 052b 0ebd ff42 d7bd fab5 1cbd
000000b0: 7dd0 973d b7bc d8bd 4c50 c8bd 8de4 2ebd
000000c0: 5735 ad3c 63ae 6bbc de5f 90bc f587 563c
000000d0: 80b8 853d 2b02 7fbd 98a6 9cbc 61d9 43b9
000000e0: 5b23 173d 8a13 16bd b78d f33c 3069 083d
000000f0: cb56 013a 1409 d33c 464f 053d f2d7 a73c
00000100: ad65 793d ec21 0a3d 956d a1bd c8ce dfbb
00000110: e33a 373c a96e 173e 0a32 b5bd 5a1c 0cbd
00000120: 86d2 d6bc 546c 393e bbe1 1a3c bff2 a5bb
00000130: 8065 bdba c6d3 393d 12b0 0b3c 15f3 b8bc
00000140: cdcd 8dbc b147 023b 3c18 27bd c3f4 623d
00000150: 7f75 dfbd 41ad 91bb e97a 963d dc18 fe3c
00000160: 5fd3 bcbd ad1a f53d 5e19 283d 2dcb 36bd
00000170: 35a8 b1bc 6f3f b13c 4a37 aa3d b03f be3c
00000180: 5ac2 ebbb 919c 373b 4495 133d bc2f a93c
00000190: f253 8dbd 70b0 afbd 15d3 e33d 7f40 f03c
000001a0: 89a9 083d 47e4 9f3d eed2 363c b78d 6abb
000001b0: e19f 6ebc 240e e93d 6108 08bd c380 d2bb
000001c0: f637 a1bc befe 803c f5f8 923d 08bf 9f3c
000001d0: 30e3 40bc a6fc a1bb ba98 2d3d ac2b c13d
000001e0: 2eae 1e3d cb79 953d d67e f0bc 72ec cbbc
000001f0: 8188 08be 1efa 28bc 6ff5 fc3d 820b 193d
00000200: df4d 0dbc cee2 88bd 81d6 5dbd 11b1 1f3d
00000210: 43ea 943d 0982 cfbd 7f0b 7abd 406a 4f3d
00000220: 07db b4bc 17f7 41bd a3db 0dbd 4abd a53c
00000230: 3cb8 40bc bbee 313d 7a85 f1bc 738c e53b
00000240: 821f febb c0ad 91bc d336 84bd cef7 fcbb
00000250: 2dff b43d 0a3f 353b bbad 79bd e5d6 2abd
00000260: 24e4 853d 08ce 81bc ddfa a8bc 3179 df3d
00000270: 13e4 d03c a168 3f3d 53f0 1abc d8c3 2abd
00000280: 33c2 7d3c a0fc 3b3c 2ca5 0ebc c31b aa3d
00000290: 87f6 3dbd d9b0 b73d 1405 1c3d d7f7 723c
000002a0: b843 ffbd 1729 363c 5e66 f23d 66aa 603c
000002b0: cbd0 acbb e4ca 553c b106 02bd d21e 14bd
000002c0: ad6b 98bd 769f 973c 3dc8 8a3d e2f7 9c3d
000002d0: 8fdc 723d bc35 7dbc be6b 43bd 5fc8 6e3d
000002e0: b3c5 39bd 8835 c3bd d9df b93d bcba 073c
000002f0: 2fc2 0f3d cc80 3abd c4e8 4f3d 9dfe c33d
00000300: c443 35bd 44fc 85bc e5b3 25bc 98dd 07bd
00000310: 5b97 343d a318 f1bc b32c 8039 0f27 153d
00000320: 4f00 a3bd 2438 803d a183 3bbc b852 ab3d
00000330: 5774 a6bc db40 01bd 199e 1c3d 41a6 90bc
00000340: b5c7 28bc 1d83 43bd 8406 033d fdf9 3a3d
00000350: 40c6 123e dd19 0b3e af48 0ebd a247 4f3b
00000360: 93ad 64bd 2355 42bd 574b 833d 4d24 c03d
00000370: 17e5 29bc 7e4a 4abd 7049 20bc c744 fd3c
00000380: d5df 6c3d b2aa 80bd 9077 9dbd 632c 5c3d
00000390: 63d4 283d f112 71bd 1311 0dbd 19ee 5e3d
000003a0: b85b 533d 3b6a 18bd 9f71 b8bd 8998 a13c
000003b0: 089d ad3d cc5f bd3c 3f19 3dbd b226 433d
000003c0: a925 c93b 559e fcbc a90a 07bc f11d f33c
000003d0: 5113 65bd 5fec 06be 2896 9c3c 6fd8 5e3d
000003e0: d131 c43b c1c5 1ebd be9c 7ebd 6495 263d
000003f0: 5301 35bd c20a c4bc f070 b53b b75d 9e3c

encoder.3.bias f4 [40]
0.013004203 0.1177564 0.06819243 -0.015494943 0.13904154 0.0646969 0.2437397 0.013125649
0.0054591773 0.0065194033 0.07845174 0.08880444 0.0020123874 0.035100184 0.070785515 0.10121013
-0.012413049 0.006038839 0.013019191 -0.011977753 0.0049012583 0.009164363 0.16471463 0.031024363
-0.034802955 0.101135805 -0.016936624 0.043273505 0.14823058 0.04226686 0.015456284 -0.022542452
-0.08028246 -0.028341273 -0.0359749 -0.07834508 -0.054939188 -0.0704407 0.040641274 0.0138082085
00000000: 950f 553c 442a f13d 79a8 8b3d 80de 7dbc
00000010: e860 0e3e cf7f 843d e696 793e f60c 573c
00000020: e6e2 b23b b8a0 d53b 4eab a03d 1adf b53d
00000030: 42e2 033b 36c5 0f3d fff7 903d 4247 cf3d
00000040: 1a60 4bbc 74e1 c53b 724e 553c 563e 44bc
00000050: bc9a a03b 2026 163c f4aa 283e ce26 fe3c
00000060: 8b8d 0ebd 4a20 cf3d adbe 8abc 8f3f 313d
00000070: c2c9 173e 0420 2d3d 5b3c 7d3c f3aa b8bc
00000080: 216b a4bd f52b e8bc 6b5a 13bd 6373 a0bd
00000090: ea07 61bd 3743 90bd 7777 263d d33b 623c

encoder.4.block.1.weight f4 [40, 40, 3, 3]
-0.012748951 -0.036424123 0.0335905 0.001177871 -0.16254786 -0.07341387 -0.017399698 -0.0053170156
0.06669039 -0.0817268 0.1373534 0.10935691 0.036162633 -0.19473799 -0.0067856214 0.011781849
0.044817023 -0.027968332 -0.000593738 -0.022615602 0.048782337 0.06352954 -0.025298677 0.05683839
0.05195033 -0.01243397 0.009550573 -0.1106108 -0.03203987 -0.02902587 -0.056334887 0.059299618
-0.041910484 0.1108084 -0.2927549 -0.019946309 -0.019151602 -0.042003185 -6.185383e-05 0.05160682
0.1556491 -0.005759584 0.050714348 -0.032676138 -0.00407108 -0.0059057954 -0.05669386 0.039196167
0.05025697 -0.012069973 -0.015930638 0.021858608 -0.018463694 0.007431479 -0.044889193 0.054175366
0.013263003 0.02935836 0.19196242 0.013547332 -0.053753667 0.018362602 0.007300362 0.017694544
-0.053175677 0.053577863 -0.0144953625 0.0742486 0.0010342189 -0.005030142 -0.039238714 -0.0069047995
-0.0327247 -0.011708217 -0.023756305 0.029942082 0.05952868 -0.042923976 -0.039712235 -0.08322253
-0.062123716 -0.03716369 0.12806074 0.07497336 -0.11464341 0.060791556 0.07081695 -0.027200153
0.0487925 0.042799067 0.01167508 -0.022574179 -0.013000255 -0.04392148 -0.032767102 -0.048860427
-0.03109647 -0.06190295 -0.07749704 -0.040399317 0.081371084 -0.04539677 -0.00023698524 -0.027862873
0.06020756 -0.023207152 0.039607853 0.015042469 0.024383117 0.09302473 -0.026164545 -0.10126138
0.11933958 0.0014564965 -0.027392147 -0.011391033 -0.057010267 0.070887275 -0.04224622 0.040421624
-0.1080729 -0.19511983 0.115923636 -0.006213328 0.010212912 -0.02321689 -0.07438723 0.095744826
-0.031256977 0.22644673 -0.3155542 0.05129111 0.064354815 -0.014504201 0.01636294 -0.08508486
0.080853365 0.019347135 0.06731182 0.01250756 0.012137037 -0.0129211955 -0.019996807 -0.032424286
-0.027178349 -0.055709857 -0.08655894 0.07977213 -0.05040363 0.032149915 -0.06812222 -0.039153595
0.016178666 0.10269303 -0.036430787 -0.13185506 -0.04297378 0.07677223 0.10223542 0.03277521
-0.047994733 0.03147389 0.0074377675 -0.104077384 -0.045199644 0.0073769065 -0.055902317 -0.03567713
0.023266997 -0.03690516 0.00033420272 -0.042755306 -0.003704512 -0.068574846 -0.02475983 0.01658822
-0.102983795 -0.16063784 0.10173129 0.024558758 -0.012204587 0.09398353 -0.15008132 0.07878224
-0.06524063 -0.067734346 -0.25389296 0.01972353 -0.05689376 0.020402975 -0.1444317 0.0088407975
-0.05082294 0.04920255 0.14773177 -0.02637735 0.030398449 -0.029082073 -0.020900061 0.0043454636
0.0011357355 -0.08368071 0.1847592 0.005434491 -0.040774703 -0.027650248 -0.03488529 0.021912988
-0.18024266 0.0012109594 -0.057363007 -0.22839783 0.007721933 0.010618429 0.03983131 0.036591854
0.05152696 0.030559752 -0.053512074 -0.17193763 0.17091866 0.08004907 0.06878206 0.027786288
-0.03266097 0.010936175 -0.0001660718 -0.018328512 -0.13320616 0.26315942 -0.06976719 0.020373927
0.040491182 0.009712928 0.047988612 0.01543458 -0.0135845905 0.030732172 -0.18103164 -0.046099227
0.02546308 0.0040054373 -0.0043324735 -0.010126713 0.096457236 0.030178757 -0.03012536 -0.1616594
0.011085299 0.08833862 -0.06757144 -0.0065272236 -0.016014185 0.035781935 -0.011269815 -0.018063894
00000000: fae0 50bc 7631 15bd 3196 093d cb62 9a3a
00000010: f272 26be 035a 96bd d089 8ebc 5c3a aebb
00000020: f994 883d 6160 a7bd 5fa6 0c3e 84f6 df3d
00000030: 451f 143d 6569 47be eb59 debb a808 413c
00000040: 0e92 373d d81d e5bc 15a5 1bba 5b44 b9bc
00000050: fdcf 473d c71b 823d 2c3f cfbc 5fcf 683d
00000060: dfc9 543d dab7 4bbc 027a 1c3c ea87 e2bd
00000070: 3d3c 03bd a9c7 edbc 69bf 66bd 28e4 723d
00000080: 54aa 2bbd 84ef e23d f8e3 95be 7166 a3bc
00000090: d2e3 9cbc 880b 2cbd 86b7 81b8 ac61 533d
000000a0: 7a62 1f3e e4ba bcbb d9b9 4f3d 6ad7 05bd
000000b0: b266 85bb 6785 c1bb d237 68bd 298c 203d
000000c0: 41da 4d3d 23c1 45bc f880 82bc d310 b33c
000000d0: 2c41 97bc c483 f33b bbdd 37bd fde6 5d3d
000000e0: 114d 593c f280 f03c cc91 443e a1f5 5d3c
000000f0: ce2c 5cbd 2b6d 963c e037 ef3b 26f4 903c
00000100: bdce 59bd 7674 5b3d f57d 6dbc a60f 983d
00000110: a18e 873a e4d3 a4bb c6b8 20bd a841 e2bb
00000120: 560a 06bd d2d3 3fbc 959c c2bc 1949 f53c
00000130: 58d4 733d 0dd1 2fbd 4ca9 22bd 9370 aabd
00000140: 7075 7ebd f438 18bd 5b22 033e a28b 993d
00000150: 2aca eabd 9100 793d 7a08 913d dbd2 debc
00000160: a5da 473d 134e 2f3d d648 3f3c 7ced b8bc
00000170: 06ff 54bc 03e7 33bd cc36 06bd df21 48bd
00000180: 06be febc f38d 7dbd c5b6 9ebd c179 25bd
00000190: e2a5 a63d f7f1 39bd 3e7f 78b9 ae40 e4bc
000001a0: 349c 763d ed1c bebc d83b 223d b074 763c
000001b0: 1abf c73c c083 be3d 0757 d6bc 2062 cfbd
000001c0: 4f68 f43d eae7 be3a 7f65 e0bc 75a1 3abc
000001d0: 9983 69bd 592d 913d 5f0a 2dbd 2591 253d
000001e0: 5355 ddbd 7ecd 47be 5f69 ed3d 2c99 cbbb
000001f0: 0f54 273c 5931 bebc 5558 98bd dd15 c43d
00000200: 5107 00bd a7e1 673e 5290 a1be a116 523d
00000210: 75cc 833d 07a3 6dbc 930b 863c f940 aebd
00000220: 7396 a53d e27d 9e3c c8da 893d 82ec 4c3c
00000230: 6cda 463c 6cb3 53bc 58d0 a3bc 54cf 04bd
00000240: 21a5 debc 0530 64bd d045 b1bd 925f a33d
00000250: 0974 4ebd a1af 033d aa83 8bbd 855f 20bd
00000260: 1f89 843c b950 d23d 7338 15bd 0305 07be
00000270: 4605 30bd c23a 9d3d ce60 d13d 4c3f 063d
00000280: 2096 44bd c4ea 003d 84b8 f33b 8626 d5bd
00000290: 4323 39bd fab9 f13b d4f9 64bd 2f22 12bd
000002a0: 6e9a be3c dd29 17bd ee37 af39 3020 2fbd
000002b0: 66c7 72bb f870 8cbd 21d5 cabc 05e4 873c
000002c0: 2be9 d2bd 3f7e 24be 7f58 d03d 732f c93c
000002d0: c0f5 47bc 707a c03d ebae 19be 9558 a13d
000002e0: e19c 85bd 4eb8 8abd 42fe 81be 3e93 a13c
000002f0: 6e09 69bd 2424 a73c e7e5 13be fed8 103c
00000300: b72b 50bd 9d88 493d ff46 173e 5015 d8bc
00000310: 2b06 f93c 873d eebc 9b36 abbc 6464 8e3b
00000320: f6dc 943a cb60 abbd 8431 3d3e d113 b23b
00000330: 6003 27bd c682 e2bc e1e3 0ebd de82 b33c
00000340: 8891 38be 0eb9 9e3a 79f5 6abd 1fe1 69be
00000350: 4508 fd3b ebf8 2d3c 2826 233d 57e1 153d
00000360: ef0d 533d 7258 fa3c 7a2f 5bbd 6b10 30be
00000370: 4d05 2f3e c4f0 a33d 9cdd 8c3d 12a0 e33c
00000380: 82c7 05bd a42d 333c 8f23 2eb9 ad25 96bc
00000390: 3267 08be d5bc 863e 1ae2 8ebd 39e7 a63c
000003a0: 15da 253d f922 1f3c b58f 443d 52e1 7c3c
000003b0: e791 5ebc 09c2 fb3c 5c60 39be 8bd2 3cbd
000003c0: f397 d03c 0b40 833b 6cf7 8dbb 83ea 25bc
000003d0: 5f8b c53d 7139 f73c 75c9 f6bc 0b8a 25be
000003e0: 1d9f 353c e1ea b43d e562 8abd 52e2 d5bb
000003f0: 2e30 83bc 1490 123d 08a5 38bc bbfa 93bc

encoder.4.block.1.bias f4 [40]
0.003051872 -0.0050984654 -0.00028075103 0.0007544461 -4.7722468e-05 0.0026342936 0.0013030124 6.510874e-05
0.0006273933 -0.0009804576 0.0047982913 0.008712264 -0.00018022249 0.0022200171 -0.00028948014 0.0010790247
-0.0024472715 -0.0013167612 0.0006874334 0.0007693994 -6.751441e-05 -9.714682e-06 -0.0018648339 -0.0023072346
0.003537567 -0.0007853033 0.0013189111 0.005087143 -0.00024015378 0.00083599857 0.0019366883 0.001446583
0.0013194621 0.002840997 -0.00057552377 0.004351831 -0.0030657663 0.00039465528 -0.00081259833 0.0026679835
00000000: ea01 483b 0711 a7bb c431 93b9 05c6 453a
00000010: 9c29 48b8 1da4 2c3b d7c9 aa3a fd8a 8838
00000020: a777 243a b382 80ba fc3a 9d3b e2bd 0e3c
00000030: 1bfa 3cb9 b57d 113b 5ec5 97b9 106e 8d3a
00000040: 6762 20bb 2d97 acba e034 343a 85b1 493a
00000050: 8696 8db8 3efc 22b7 716d f4ba f934 17bb
00000060: 87d6 673b d0dc 4dba 50df ac3a 0cb2 a63b
00000070: cad1 7bb9 ea26 5b3a 7ad8 fd3a 459b bd3a
00000080: cdf1 ac3a 0530 3a3b bfde 16ba ce99 8e3b
00000090: 06eb 48bb bce9 ce39 8d04 55ba 56d9 2e3b

encoder.4.block.2.weight f4 [40]
1.0835526 1.0874945 1.0199313 0.94774806 0.9800125 0.95462537 0.909803 0.9160719
0.78301233 0.8788927 0.9788236 1.076745 0.98833805 1.0998857 1.1612538 1.0668184
1.0748926 0.62373734 0.9344131 0.85814613 0.9659486 1.0926228 0.7187498 0.94246274
0.8948893 0.87068826 1.0872253 1.1062 0.9363296 1.1388156 1.0877106 1.1019278
1.0907384 1.2024868 0.9416057 1.0534482 0.91389716 0.6904173 1.2944069 0.8472679
00000000: dab1 8a3f 0533 8b3f 1c8d 823f 9e9f 723f
00000010: 19e2 7a3f 5462 743f d9e8 683f b083 6a3f
00000020: 7f73 483f 1dff 603f 2f94 7a3f c8d2 893f
00000030: b903 7d3f 0ec9 8c3f f7a3 943f 818d 883f
00000040: 1596 893f 40ad 1f3f b235 6f3f 77af 5b3f
00000050: 6848 773f 10db 8b3f fdff 373f 3d45 713f
00000060: 7717 653f 6de5 5e3f 332a 8b3f f697 8d3f
00000070: 4cb3 6f3f b6c4 913f 1a3a 8b3f f80b 8d3f
00000080: 519d 8b3f 16eb 993f 120d 713f 64d7 863f
00000090: 2af5 693f 30bf 303f 20af a53f 8de6 583f

encoder.4.block.2.bias f4 [40]
0.36610377 0.21513452 -0.04767134 0.61174107 0.38150018 0.4140856 0.0835111 0.07105347
0.09435774 -0.066403024 0.05913883 0.38798094 0.3863242 0.5102227 0.42887682 -0.06971596
0.046313755 0.16151752 0.25146094 0.23352386 -0.17316416 -0.07171374 -0.40789646 -0.070521355
0.068032 0.0048203208 0.25594413 -0.04151999 -0.28027317 -0.03138139 0.33290398 0.18445586
0.08160697 0.3028584 0.12948926 0.0022411065 -0.0018599743 -0.022796357 -0.3424177 0.06400982
00000000: f471 bb3e 394c 5c3e 0643 43bd 109b 1c3f
00000010: fe53 c33e 0703 d43e de07 ab3d 7b84 913d
00000020: a13e c13d 4ffe 87bd 8f3b 723d 70a5 c63e
00000030: 49cc c53e f49d 023f be95 db3e 3ec7 8ebd
00000040: 7eb3 3d3d d964 253e 7dbf 803e e120 6f3e
00000050: f251 31be a7de 92bd ced7 d0be 806d 90bd
00000060: 5c54 8b3d c8f3 9d3b 1c0b 833e dd10 2abd
00000070: f77f 8fbe c689 00bd 6472 aa3e ffe1 3c3e
00000080: 8e21 a73d 4210 9b3e d598 043e 87df 123b
00000090: 62ca f3ba 6dbf babc 5f51 afbe 9517 833d

encoder.4.block.2.running_mean f4 [40]
0.22282818 -0.76581204 -0.7352381 -0.55876625 -0.0073858807 0.54832953 0.20005786 -0.3139229
-0.102659546 -0.2176873 0.41391948 0.29221544 0.038875524 0.3902259 0.17649804 -0.6687895
-0.53722626 -0.029203374 0.5633722 -0.0036894933 0.11196214 -0.6358191 -0.39438605 -0.2628776
0.09075112 -0.5160181 0.62862265 0.6938326 0.016867181 -0.83373183 0.82407063 0.5643087
-0.5695684 -0.08554067 0.2546128 -0.49589294 -0.089341715 -0.19935556 -0.38652807 -0.018075068
00000000: 122d 643e 420c 44bf 9038 3cbf 4e0b 0fbf
00000010: 4205 f2bb 535f 0c3f f8db 4c3e 81ba a0be
00000020: 2b3f d2bd 6be9 5ebe 41ed d33e 439d 953e
00000030: f13b 1f3d b0cb c73e e7bb 343e ca35 2bbf
00000040: a987 09bf ea3b efbc 2939 103f 6dcb 71bb
00000050: 684c e53d 0ac5 22bf f8ec c9be e597 86be
00000060: b9db b93d c319 04bf 6aed 203f 039f 313f
00000070: 0b2d 8a3c 736f 55bf 4bf6 523f 8976 103f
00000080: 3ccf 11bf f22f afbd 9c5c 823e aee5 fdbe
00000090: caf8 b6bd dd23 4cbe 02e7 c5be 2a12 94bc

encoder.4.block.2.running_var f4 [40]
0.40368614 1.0070075 0.80064684 0.4487268 0.3291556 0.4187495 0.47652203 0.15514748
0.25140786 0.5089142 0.56129074 0.49011526 0.2980163 0.32468215 0.6835899 0.5068825
0.37579003 0.19030726 0.55507666 0.21766336 0.115724534 0.93077296 0.07228326 0.4922813
0.4145534 0.44998813 0.5466239 0.6765491 0.094126545 0.91785 0.6633649 1.00493
0.7464073 0.40664443 0.44597277 0.52594244 0.2592622 0.16726981 0.14595895 0.1812376
00000000: f3af ce3e 9fe5 803f 31f7 4c3f 85bf e53e
00000010: 1587 a83e 5666 d63e b2fa f33e fbde 1e3e
00000020: 88b8 803e 3348 023f c0b0 0f3f 63f0 fa3e
00000030: 9895 983e bd3c a63e bfff 2e3f 0dc3 013f
00000040: 8d67 c03e e8df 423e 8119 0e3f 25e3 5e3e
00000050: fc00 ed3d 2347 6e3f 3f09 943d 4b0c fc3e
00000060: 5840 d43e d864 e63e 8bef 0b3f 5232 2d3f
00000070: 6bc5 c03d 38f8 6a3f 48d2 293f 8ca1 803f
00000080: 8c14 3f3f b333 d03e 8b56 e43e 2aa4 063f
00000090: 04be 843e c748 2b3e 4376 153e 5996 393e

encoder.4.block.4.weight f4 [40, 40, 1, 1]
0.048735943 0.15695253 0.26770535 0.14300674 -0.021299776 -0.010166352 0.012258658 0.049230386
-0.03210912 0.10322307 -0.21440355 -0.20541765 -0.19578712 -0.18434246 -0.19853133 -0.07488784
0.10366109 -0.005584709 -0.112121925 -0.038791813 0.14655133 0.19384992 0.00872617 0.2265419
0.19181867 0.053327803 -0.3050937 -0.24554016 -0.30777758 -0.116211824 -0.5298566 -0.004328478
-0.00766153 -0.2564837 0.06738217 0.038958993 0.059349116 -0.07393067 0.32793728 0.08625845
0.12656012 -0.0949863 0.4658687 -0.16609496 0.04844429 0.059285264 8.54491e-05 0.042686593
0.12516919 -0.021888597 -0.051072888 0.22158124 0.076950006 0.1651585 0.27822763 -0.19183825
-0.1166007 0.1226161 -0.06730082 0.023810301 -0.09205862 -0.23656124 0.017669894 -0.06659204
-0.019817999 -0.0065985485 -0.008461784 0.063102014 -0.014172006 -0.10194968 0.107675225 0.089340486
0.041884568 0.37930137 0.1486167 -0.14191057 -0.08420288 0.11286034 -0.36481214 -0.041749477
-0.14574249 0.16935939 0.06039769 -0.2544498 -0.051829275 -0.12953703 -0.11660117 -0.10695191
0.007554422 -0.11612697 0.03573683 -0.25145224 0.043896638 -0.06677627 -0.15809162 0.018811466
0.051155005 0.041638747 -0.14484128 -0.17423417 -0.07327264 0.09689722 0.043296322 0.08522092
-0.20914388 0.036713563 -0.15825698 0.08917754 -0.14523675 0.17827804 -0.11765453 -0.31782287
-0.12743668 -0.27048853 -0.009763413 0.16714212 0.030349549 0.023100127 0.5292359 -0.033975016
-0.024690114 0.27908558 0.16154811 -0.04809784 -0.16789502 0.05670271 -0.17013441 -0.38934433
-0.5125948 -0.06281921 0.109826915 -0.32392597 -0.07089339 -0.13016903 -0.06907362 -0.23097283
-0.016840879 0.065076955 -0.23810156 0.123648494 0.22422114 0.18136558 0.012111725 0.15201512
-0.21996805 -0.0014926252 -0.07236727 0.0049157455 0.1811906 -0.0017944729 -0.0576405 0.049869552
0.1001969 -0.1039385 -0.111785054 0.21384668 0.09775257 -0.060530867 0.34683195 -0.04011197
-0.1008198 -0.1943611 -0.051504713 -0.009877601 -0.037248466 -0.2856217 0.25444376 -0.19864374
-0.09519268 0.058898408 0.023589946 0.113516025 0.2581398 0.36008963 0.16315772 -0.02437643
-0.09939683 0.042576738 0.08460104 0.1611953 0.17714138 0.027845029 -0.27280372 0.08130048
-0.029206034 -0.23188686 -0.13850348 0.1442623 0.11801657 -0.118123114 0.1532138 -0.22411706
-0.14921048 0.12917157 0.176225 -0.0496085 -0.11553206 -0.15831737 -0.19805275 0.11384686
0.06403592 -0.063830115 0.03817648 -0.038619924 -0.07582088 -0.43036857 -0.287777 0.06757017
-0.14163628 -0.045499448 0.0897586 -0.17315347 -0.38283262 0.0051550036 0.04437526 -0.00058396766
-0.08715253 0.10900106 -0.07469154 -0.26235625 -0.01748988 -0.008997296 0.1519266 0.03175101
-0.01351139 0.11437578 0.09700599 0.18411706 -0.15224135 0.0003882744 -0.16426495 0.38136503
0.117822535 0.24475916 -0.19046466 0.036174465 0.088691905 -0.030594101 0.29328316 -0.13591163
-0.16388726 -0.13224919 -0.27874008 0.024444088 0.035721697 -0.2002617 0.16116782 0.052983973
0.23832297 0.035205994 -0.5497287 -0.21454352 -0.18264522 -0.07348965 -0.09693557 -0.056372516
00000000: 579f 473d 2ab8 203e ad10 893e 5c70 123e
00000010: de7c aebc c590 26bc 8ad8 483c cda5 493d
00000020: da84 03bd 9e66 d33d 9b8c 5bbe 0159 52be
00000030: 6b7c 48be 45c4 3cbe cc4b 4bbe cc5e 99bd
00000040: 444c d43d efff b6bb 2ea0 e5bd 2ae4 1ebd
00000050: 8d11 163e 9880 463e 36f8 0e3c 9afa 673e
00000060: 1d6c 443e 416e 5a3d 3e35 9cbe e16e 7bbe
00000070: 0695 9dbe 7700 eebd afa4 07bf e8d5 8dbb
00000080: 920d fbbb d551 83be aaff 893d 7793 1f3d
00000090: 0f18 733d f768 97bd 65e7 a73e 45a8 b03d
000000a0: fa98 013e 2d88 c2bd 5886 ee3e cc14 2abe
000000b0: 856d 463d 1bd5 723d 2333 b338 23d8 2e3d
000000c0: 5a2c 003e b74f b3bc ce31 51bd 31e6 623e
000000d0: f797 9d3d 4f1f 293e da73 8e3e 3f71 44be
000000e0: 59cc eebd 261e fb3d 03d5 89bd d20d c33c
000000f0: 3b89 bcbd 1c3d 72be 74c0 903c 6861 88bd
00000100: 5b59 a2bc a338 d8bb 4ba3 0abc a13b 813d
00000110: b431 68bc feca d0bd d484 dc3d 25f8 b63d
00000120: 278f 2b3d ca33 c23e fa2e 183e 0151 11be
00000130: 8f72 acbd 5223 e73d a8c8 babe 8001 2bbd
00000140: 853d 15be 8c6c 2d3e 9163 773d 3f47 82be
00000150: ef4a 54bd 5ba5 04be 98cc eebd 9a09 dbbd
00000160: 168b f73b fad3 edbd c860 123d 59be 80be
00000170: f6cc 333d ffc1 88bd c5e2 21be 811a 9a3c
00000180: e987 513d 648d 2a3d 4651 14be 716a 32be
00000190: f70f 96bd 0d72 c63d 7c57 313d 4e88 ae3d
000001a0: d029 56be f660 163d 1e0e 22be b7a2 b63d
000001b0: f1b8 14be 858e 363e dcf4 f0bd aeb9 a2be
000001c0: c37e 02be 797d 8abe b9f6 1fbc 4e27 2b3e
000001d0: 9e9f f83c 7a3c bd3c 017c 073f 6329 0bbd
000001e0: ec42 cabc 4ee4 8e3e de6c 253e 3e02 45bd
000001f0: acec 2bbe 1a41 683d b737 2ebe 2458 c7be
00000200: 6a39 03bf 5ca7 80bd efec e03d a0d9 a5be
00000210: 8e30 91bd 084b 05be 7876 8dbd 2484 6cbe
00000220: e2f5 89bc 1147 853d e5d0 73be 6c3b fd3d
00000230: 3a9a 653e e6b7 393e 4270 463c daa9 1b3e
00000240: 4e3f 61be 31a4 c3ba 4b35 94bd 4314 a13b
00000250: 078a 393e 8534 ebba 7218 6cbd 0444 4c3d
00000260: 0834 cd3d b5dd d4bd 90ef e4bd a0fa 5a3e
00000270: 8032 c83d 37ef 77bd f593 b13e 734c 24bd
00000280: 9c7a cebd 9906 47be 9bf6 52bd a9d5 21bc
00000290: d991 18bd 023d 92be 7446 823e 4469 4bbe
000002a0: 61f4 c2bd 753f 713d b43f c13c 177b e83d
000002b0: e62a 843e ab5d b83e d112 273e 14b1 c7bc
000002c0: 9190 cbbd f264 2e3d 4f43 ad3d 6110 253e
000002d0: 8d64 353e 421b e43c eeac 8bbe de80 a63d
000002e0: 7e41 efbc c073 6dbe dbd3 0dbe 7fb9 133e
000002f0: acb2 f13d 88ea f1bd 14e4 1c3e f17e 65be
00000300: a2ca 18be 8d45 043e 5474 343e 4832 4bbd
00000310: 139c ecbd f31d 22be 57ce 4abe 8b28 e93d
00000320: 4425 833d 5db9 82bd f15e 1c3d ed2f 1ebd
00000330: fa47 9bbd 4559 dcbe 8257 93be 3b62 8a3d
00000340: 1a09 11be a15d 3abd 5bd3 b73d 254f 31be
00000350: a302 c4be 4eeb a83b d5c2 353d 6815 19ba
00000360: 077d b2bd f33b df3d e1f7 98bd 8f53 86be
00000370: f046 8fbc 6569 13bc a692 1b3e 590d 023d
00000380: e15e 5dbc d93d ea3d 14ab c63d 2f89 3c3e
00000390: 28e5 1bbe 4f91 cb39 1235 28be 4742 c33e
000003a0: f14c f13d 25a2 7a3e 2b09 43be ad2b 143d
000003b0: 1aa4 b53d 7ba0 fabc 3629 963e 6b2c 0bbe
000003c0: 10d2 27be 556c 07be 05b7 8ebe f83e c83c
000003d0: ea50 123d 6711 4dbe 2d09 253e b905 593d
000003e0: f00a 743e 2934 103d 05bb 0cbf 4cb1 5bbe
000003f0: 5907 3bbe be81 96bd 2886 c6bd dee6 66bd

encoder.4.block.4.bias f4 [40]
-0.008273256 0.002072314 -0.00518041 -0.0017306748 -0.0006641265 0.00027389487 -0.01162155 -0.009313361
0.00029171415 -0.00015555177 -0.0022667106 -0.004120112 -0.004568775 0.0012921375 -0.006584811 0.0005991656
-0.0062328237 0.00040343276 0.0027084583 0.009909211 0.007275744 -0.0048788125 0.0037890954 -0.0010521589
-0.005703197 -0.0042657726 -0.003494006 0.00012342693 -0.005319632 -0.007664603 0.0016507368 0.0055163405
-0.0025845207 -0.0031020506 -0.008018514 -0.004183875 -0.0059923474 -0.0064897644 0.0019186883 -0.0020438528
00000000: 8d8c 07bc a9cf 073b 6ec0 a9bb cfd7 e2ba
00000010: c618 2eba 8c99 8f39 5068 3ebc 1197 18bc
00000020: 36f1 9839 9c1b 23b9 188d 14bb 0102 87bb
00000030: aab5 95bb f15c a93a 66c5 d7bb 5311 1d3a
00000040: b73c ccbb d483 d339 6480 313b 3e5a 223c
00000050: 5d69 ee3b 72de 9fbb 7952 783b 98e8 89ba
00000060: e2e1 babb e5c7 8bbb b2fb 64bb 2a6c 0139
00000070: 4f50 aebb 5a27 fbbb 895d d83a 6bc2 b43b
00000080: 1061 29bb c64b 4bbb 1660 03bc e318 89bb
00000090: 745b c4bb 17a8 d4bb 7f7c fb3a 29f2 05bb

encoder.4.block.5.weight f4 [40]
0.7290826 0.5663346 0.726457 0.5550071 0.79742825 0.5713966 0.9489151 0.52105397
0.75339144 0.61276627 0.8668572 0.82544416 0.711711 0.6703975 0.55429345 1.3287467
0.52606595 0.90069 0.9566862 0.49428967 0.34153372 0.9197396 0.9804671 0.67904323
0.571764 0.50992346 0.8691064 0.95102924 0.6479773 0.6715758 0.8118155 0.48299685
0.5294851 0.7454665 0.8565301 0.801835 0.83363324 0.6203692 0.49291223 0.5723931
00000000: 28a5 3a3f 4efb 103f 16f9 393f f214 0e3f
00000010: 4224 4c3f 0c47 123f 1aec 723f cb63 053f
00000020: 43de 403f 40de 1c3f 5aea 5d3f 4f50 533f
00000030: b132 363f 2c9f 2b3f 2de6 0d3f 5f14 aa3f
00000040: 42ac 063f 9f93 663f 63e9 743f 8913 fd3e
00000050: 82dd ae3e 0e74 6b3f e4ff 7a3f c7d5 2d3f
00000060: 205f 123f 588a 023f c27d 5e3f a776 733f
00000070: d7e1 253f 64ec 2b3f 24d3 4f3f 5d4b f73e
00000080: 568c 073f e4d6 3e3f 8e45 5b3f 0f45 4d3f
00000090: fd68 553f 84d0 1e3f fe5e fc3e 5b88 123f

encoder.4.block.5.bias f4 [40]
-0.459907 0.015637172 -0.2940235 -0.229487 0.045203626 -0.23586474 -0.22439225 -0.3119874
0.1325409 -0.3292381 0.062791385 -0.19611031 -0.39185572 -0.025269112 -0.11272233 -0.2519513
-0.2855837 -0.004930068 0.15832537 -0.13903092 -0.18242276 0.03964491 0.040257037 -0.15025258
-0.327525 -0.078870684 0.05407038 0.08656829 -0.14057562 -0.109372765 -0.27206412 -0.15215826
-0.14971302 -0.2667179 -0.09694649 -0.2949254 -0.28487524 -0.0053018187 -0.08048075 -0.18737295
00000000: ee78 ebbe 8719 803c 408a 96be a4fe 6abe
00000010: 7027 393d 8786 71be 15c7 65be d0bc 9fbe
00000020: cdb8 073e e591 a8be c598 803d 24d1 48be
00000030: 50a1 c8be 2b01 cfbc f7da e6bd c3ff 80be
00000040: 0738 92be 688c a1bb 0c20 223e 1f5e 0ebe
00000050: 08cd 3abe b362 223d 90e4 243d d0db 19be
00000060: 5bb1 a7be f486 a1bd e778 5d3d b74a b13d
00000070: 0ef3 0fbe d4fe dfbd fd4b 8bbe 60cf 1bbe
00000080: 5f4e 19be 408f 88be e28b c6bd 7600 97be
00000090: 2bdb 91be e1ba adbb 17d3 a4bd b2de 3fbe

encoder.4.block.5.running_mean f4 [40]
-0.59092474 0.480604 -0.9186604 -0.41552114 0.02789521 -0.34462643 -0.89591587 -0.26963815
-0.0242781 -0.6395002 0.5757375 0.19053896 0.140522 0.66737914 -0.8061575 -0.16860639
-0.19088066 0.3524289 1.043345 0.59620786 -0.22287083 0.43707088 0.36360484 -0.1724444
0.015475141 -0.43459016 0.5243835 0.5084011 -0.3651986 -0.75899243 -0.89307356 -0.1935327
-0.0045142723 -0.49023902 -0.38494444 -0.5220019 -0.6007725 -0.36359227 0.015711768 -0.39646888
00000000: d846 17bf ba11 f63e 542d 6bbf 30bf d4be
00000010: 7f84 e43c e072 b0be be5a 65bf 030e 8abe
00000020: dee2 c6bc 49b6 23bf 8863 133f a51c 433e
00000030: 00e5 0f3e 5cd9 2a3f 5760 4ebf 27a7 2cbe
00000040: 3876 43be 9071 b43e 548c 853f 14a1 183f
00000050: 4038 64be c1c7 df3e 6a2a ba3e 4495 30be
00000060: 728b 7d3c 9a82 debe ff3d 063f 9326 023f
00000070: 50fb babe 544d 42bf 78a0 64bf 702d 46be
00000080: 76ec 93bb 9c00 fbbe 7017 c5be eba1 05bf
00000090: 3acc 19bf c428 babe f7b5 803c f8fd cabe

encoder.4.block.5.running_var f4 [40]
5.367329 3.3831913 3.65312 4.0447745 1.38306 0.5571624 2.247775 5.92272
1.1867362 1.6010094 2.6826637 1.7035421 0.6657262 2.7321699 4.8360257 0.6791563
0.9252527 1.8335575 3.5100195 0.8816161 1.7825019 5.11533 0.7459463 3.9774036
4.651993 0.41910577 3.220603 6.760719 1.440926 1.0216643 4.6059394 6.169961
1.4809241 1.4224614 4.9056234 1.7874291 1.3816282 0.95763457 2.8895736 1.3485358
00000000: 29c1 ab40 3586 5840 b8cc 6940 cb6e 8140
00000010: 1c08 b13f 32a2 0e3f 8cdb 0f40 ec86 bd40
00000020: f9e6 973f e0ed cc3f c3b0 2b40 ab0d da3f
00000030: 086d 2a3f dfdb 2e40 b9c0 9a40 30dd 2d3f
00000040: 5cdd 6c3f 03b2 ea3f 29a4 6040 98b1 613f
00000050: 0629 e43f c9b0 a340 56f6 3e3f c88d 7e40
00000060: 20dd 9440 0895 d63e 5c1e 4e40 cf57 d840
00000070: 4370 b83f e5c5 823f db63 9340 5270 c540
00000080: ec8e bd3f 3713 b63f defa 9c40 7aca e43f
00000090: 31d9 b03f 8a27 753f c6ee 3840 d29c ac3f

encoder.5.block.1.weight f4 [40, 40, 3, 3]
0.2650007 -0.045857083 -0.06278854 0.024900142 0.060081705 -0.13751279 0.17207885 -0.025543835
0.029733146 0.01463999 0.0018035341 -0.0034931223 -0.046464816 0.0897762 -0.0038611835 -0.031608604
0.06016177 -0.011699385 -0.030466046 0.101084605 0.05141501 -0.08138839 -0.3078261 0.077958055
-0.077918805 -0.031402934 -0.0548428 0.03591051 0.052115116 0.0070907706 0.059812404 0.064713
-0.1312152 -0.00231331 0.008723984 0.07599203 0.025458861 -0.002344244 -0.010148718 0.092830025
-0.09904598 0.027683157 0.0051052705 -0.028286206 -0.02386122 -0.041304898 -0.16710179 0.09421323
-0.017444192 -0.25454968 0.0147747295 -0.0010942133 0.14752449 0.1100408 -0.077568404 0.21439482
-0.023763176 -0.11528179 -0.24707611 -0.23047882 0.027314052 -0.09927637 -0.022690326 0.042297248
-0.09628652 -0.066607445 -0.008991775 -0.105955526 -0.29127643 0.065004654 0.1314043 0.06594316
0.02651608 -0.014934934 -0.13613045 0.01289084 -0.22520575 0.0012583088 0.043276995 -0.037714697
0.018980235 0.01239801 0.05586327 0.08047728 0.03949624 0.074364536 0.1196698 -0.083756395
0.036794003 0.03247408 -0.018495878 -0.011553881 0.044415466 0.007932377 0.16796558 0.014878339
0.027388338 0.015633734 0.08264342 0.024974564 0.050854266 0.032480013 -0.03105076 -0.36354724
0.03455877 -0.0049569122 -0.024451543 -0.028977757 0.04186352 -0.027231213 0.013373175 0.07253762
-0.24246307 0.21549617 -0.040740006 0.015965475 -0.07108204 0.032494243 0.063188665 0.075569175
-0.05496339 0.04836731 -0.0008565844 -0.01697367 0.018588575 0.0065654726 -0.07659567 -0.039886836
-0.012004345 0.020040577 0.15745 -0.043372102 -0.001152267 0.051782053 0.0027429417 0.0040381565
0.008400835 0.033666287 0.0140279 0.0124253575 0.007599042 0.009271434 -0.022034623 0.020136548
-0.16253453 -0.031754047 -0.019232746 0.11395296 -0.1370212 0.026207553 0.015768444 -0.058097746
0.008913628 0.011061273 0.060094494 0.009060477 -0.072650455 -0.14570801 0.009481007 0.027552422
-0.020097477 -0.046287224 -0.011598577 -0.051394884 -0.04436248 0.0034317109 0.47074288 -0.010250299
0.015094457 -0.0015853056 -0.002221145 0.038237125 -0.11097608 -0.11427412 0.00028339523 0.0070080925
-0.019757576 -0.019132549 -0.03309118 0.013334221 -0.01749378 -0.008940664 0.0385555 -0.087966084
0.04004221 -0.0728747 -0.025441596 0.05361381 -0.018612053 -0.021653784 0.0008235813 0.016917711
0.06421878 0.2598781 0.025429713 -0.045840032 -0.019534698 -0.030770345 0.0053676195 0.04365881
0.012956555 -0.018514488 -0.040441003 -0.025320137 0.012006894 -0.029046113 -0.014566423 -0.035265516
-0.0010941399 0.12007744 -0.013151957 0.102935515 -0.058236573 0.005742152 -0.031009125 0.039388843
0.008311562 0.058859117 0.042949624 -0.03977419 0.1360424 -0.049585287 0.021638375 -0.07538357
0.017580437 -0.02311407 -0.1350033 0.08216754 0.06803037 0.037439402 0.0435238 -0.07532929
0.0025894 0.049676698 -0.029468508 0.021592185 -0.030339008 -0.020093257 0.227247 -0.0068582795
-0.053573124 -0.037098948 0.05096322 0.064657785 -0.00878986 0.038111765 0.0021495898 0.07123154
-0.030479727 0.05188223 0.040037192 -0.061836798 -0.025036793 -0.04734077 0.039709322 0.0055565485
00000000: 2cae 873e a3d4 3bbd 4797 80bd 62fb cb3c
00000010: 3c18 763d 27d0 0cbe 7035 303e 4e41 d1bc
00000020: ed92 f33c 92dc 6f3c 9064 ec3a deec 64bb
00000030: e451 3ebd 96dc b73d e90b 7dbb 0678 01bd
00000040: 306c 763d c7ae 3fbc ee93 f9bc 7205 cf3d
00000050: 8c98 523d f5ae a6bd 629b 9dbe 79a8 9f3d
00000060: e593 9fbd 5da0 00bd d8a2 60bd e616 133d
00000070: a976 553d b259 e83b dafd 743d 4088 843d
00000080: 475d 06be e79a 17bb 0aef 0e3c b6a1 9b3d
00000090: 1a8f d03c e3a1 19bb cf46 26bc ab1d be3d
000000a0: 9ed8 cabd cac7 e23c 1d4a a73b 79b8 e7bc
000000b0: 9b78 c3bc 532f 29bd bb1c 2bbe def2 c03d
000000c0: 1fe7 8ebc 5654 82be b511 723c b56b 8fba
000000d0: a910 173e 125d e13d 2fdc 9ebd 518a 5b3e
000000e0: feaa c2bc dc18 ecbd 8501 7dbe a402 6cbe
000000f0: b8c1 df3c 6951 cbbd 10e1 b9bc e13f 2d3d
00000100: de31 c5bd 7c69 88bd 3d52 13bc 36ff d8bd
00000110: 2f22 95be 2921 853d d98e 063e 350d 873d
00000120: 4038 d93c a7b1 74bc c865 0bbe 1a34 533c
00000130: 569c 66be d6ed a43a 3843 313d ba7a 1abd
00000140: 707c 9b3c 0621 4b3c e2d0 643d 46d1 a43d
00000150: cfc6 213d 6f4c 983d 7115 f53d 7988 abbd
00000160: 4fb5 163d 8a03 053d ab84 97bc 7d4c 3dbc
00000170: feec 353d cdf6 013c 2bff 2b3e 47c4 733c
00000180: 825d e03c 5112 803c f440 a93d 7597 cc3c
00000190: 904c 503d c309 053d 2a5e febc dd22 babe
000001a0: 7f8d 0d3d 986d a2bb 9a4e c8bc c362 edbc
000001b0: 1579 2b3d fe13 dfbc 291b 5b3c 9b8e 943d
000001c0: 3d48 78be 07ab 5c3e fede 26bd 07ca 823c
000001d0: 7693 91bd af18 053d 0f69 813d 03c4 9a3d
000001e0: 4b21 61bd cd1c 463d 688c 60ba 5e0c 8bbc
000001f0: 1147 983c 2d23 d73b 31de 9cbd 6160 23bd
00000200: dfad 44bc 232c a43c 933a 213e f2a6 31bd
00000210: aa07 97ba 6b19 543d edc2 333b 8352 843b
00000220: a8a3 093c a9e5 093d 47d5 653c ba93 4b3c
00000230: 6201 f93b 36e7 173c f481 b4bc 67f5 a43c
00000240: 746f 26be 8810 02bd fe8d 9dbc 2b60 e93d
00000250: 494f 0cbe 39b1 d63c d32c 813c e7f7 6dbd
00000260: 770a 123c 573a 353c a525 763d 6572 143c
00000270: c3c9 94bd 7b34 15be 3a56 1b3c 9eb5 e13c
00000280: 77a3 a4bc ac97 3dbd f507 3ebc 7183 52bd
00000290: 6fb5 35bd 8ee6 603b 3605 f13e dff0 27bc
000002a0: be4e 773c 07ca cfba a190 11bb 889e 1c3d
000002b0: 6d47 e3bd 8d08 eabd aa94 9439 24a4 e53b
000002c0: a4da a1bc ddbb 9cbc 9e8a 07bd c777 5a3c
000002d0: 1e4f 8fbc dd7b 12bc 5fec 1d3d 9027 b4bd
000002e0: 4d03 243d 553f 95bd e56a d0bc 289a 5b3d
000002f0: 4e78 98bc 4763 b1bc 9be5 573a 0397 8a3c
00000300: 2385 833d be0e 853e f951 d03c c2c2 3bbd
00000310: 3b07 a0bc 1712 fcbc dbe2 af3b 95d3 323d
00000320: bb47 543c b2ab 97bc 77a5 25bd 2d6c cfbc
00000330: 90b8 443c 1df2 edbc 02a8 6ebc 9372 10bd
00000340: 3e69 8fba 29eb f53d 4e7b 57bc dbcf d23d
00000350: 7989 6ebd aa28 bc3b d906 febc 3256 213d
00000360: 382d 083c 4216 713d f2eb 2f3d 43ea 22bd
00000370: b34e 0b3e f119 4bbd f642 b13c b362 9abd
00000380: d904 903c b859 bdbc 4e3e 0abe 7547 a83d
00000390: 8253 8b3d 0f5a 193d 0346 323d 3e46 9abd
000003a0: ecb2 293b cb79 4b3d f167 f1bc 18e2 b03c
000003b0: 8389 f8bc 9d9a a4bc 70b3 683e 6bbb e0bb
000003c0: 7e6f 5bbd 11f5 17bd cfbe 503d 4d6b 843d
000003d0: 5803 10bc 151b 1c3d 22e0 0c3b d7e1 913d
000003e0: 9fb0 f9bc 7682 543d 0afe 233d 9548 7dbd
000003f0: f619 cdbc 65e8 41bd 3ea6 223d b513 b63b

encoder.5.block.1.bias f4 [40]
0.00023686644 0.0036010796 0.00031723263 0.0026768234 0.0017545314 0.00141498 0.0015719672 0.0017363466
0.00012044063 0.0064414083 0.0038857632 0.0035516615 0.0014372105 -0.0065769665 -0.0011875051 0.0024916998
0.0022273746 0.005945396 0.0039872318 0.0049247225 0.0029317194 -0.0010076476 -0.0003032944 0.004899079
0.0009910592 0.0014379761 0.0024178782 0.0015467819 0.0015642123 -7.7148055e-05 0.0004884924 0.0003500916
0.0011759838 0.0021478091 0.004820672 0.004018731 0.005078094 0.002666373 0.000630816 0.0017924147
00000000: 5a5f 7839 1700 6c3b 3e52 a639 a56d 2f3b
00000010: 4ef8 e53a da76 b93a 770a ce3a 2096 e33a
00000020: 1295 fc38 7312 d33b 4aa8 7e3b fec2 683b
00000030: c860 bc3a 9883 d7bb 0fa6 9bba c94b 233b
00000040: 25f9 113b 99d1 c23b 53a7 823b 915f a13b
00000050: 1722 403b 0b13 84ba 7c03 9fb9 7488 a03b
00000060: 6ee6 813a 797a bc3a 4475 1e3b 63bd ca3a
00000070: 4106 cd3a 8cca a1b8 2c0e 003a 808c b739
00000080: 7823 9a3a 42c2 0c3b baf6 9d3b 8faf 833b
00000090: 2466 a63b 51be 2e3b 585d 253a 75ef ea3a

encoder.5.block.2.weight f4 [40]
0.8033856 1.0718876 1.1105225 0.7878903 0.8974742 1.0067307 0.807424 1.2227851
1.0698696 1.2768948 0.7484607 0.83356094 0.9833622 0.67990464 1.0804731 0.98422635
0.85987353 0.7856852 0.73990715 1.2497426 0.8469811 1.0626295 1.1176178 1.183178
0.9620606 0.8331571 0.87517405 1.1221052 0.93440163 1.0757858 1.0808433 0.70372254
0.9443591 0.85726327 1.0022831 0.9774042 0.73469055 0.8254644 1.0198244 1.0581174
00000000: aeaa 4d3f 9d33 893f 9a25 8e3f 2eb3 493f
00000010: dfc0 653f 8ddc 803f 57b3 4e3f 3984 9c3f
00000020: 7df1 883f 4a71 a33f 1f9b 3f3f 4064 553f
00000030: a0bd 7b3f 3b0e 2e3f f14c 8a3f 42f6 7b3f
00000040: ac20 5c3f aa22 493f 8e6a 3d3f 91f7 9f3f
00000050: c1d3 583f 3e04 883f 1a0e 8f3f 6072 973f
00000060: 9a49 763f c949 553f 680b 603f 25a1 8f3f
00000070: f234 6f3f 59b3 893f 1359 8a3f 2927 343f
00000080: 85c1 713f 9b75 5b3f d04a 803f 2937 7a3f
00000090: ae14 3c3f a351 533f 9b89 823f 6470 873f

encoder.5.block.2.bias f4 [40]
0.48889586 -0.39478037 -0.42146498 0.28560024 -0.11789921 0.120937504 -0.113103196 -0.06434224
0.07016117 0.005490813 0.2903252 0.3254647 -0.33401594 -0.15254055 -0.18729696 0.30453977
0.5389341 0.16721724 0.48134643 0.25672793 -0.41116115 0.061174516 0.37145838 0.038210638
-0.44102478 -0.036217406 0.80273515 0.067902386 -0.4054226 -0.19869892 0.24073854 -0.47061282
0.18986094 0.17150734 -0.15145013 0.05388309 0.31539807 0.16581994 -0.06932421 0.21484916
00000000: 8f50 fa3e a720 cabe 42ca d7be 323a 923e
00000010: 2475 f1bd 15ae f73d a6a2 e7bd ddc5 83bd
00000020: a9b0 8f3d 47ec b33b 81a5 943e 4fa3 a63e
00000030: 2304 abbe 9733 1cbe c6ca 3fbe a3ec 9b3e
00000040: 96f7 093f ff3a 2b3e 0a73 f63e d871 833e
00000050: b783 d2be 2192 7a3d cb2f be3e c282 1c3d
00000060: 00ce e1be b458 14bd 0d80 4d3f 6810 8b3d
00000070: 8d93 cfbe bb77 4bbe 2a84 763e 2af4 f0be
00000080: e86a 423e 9f9f 2f3e be15 1bbe 84b4 5c3d
00000090: db7b a13e b4cc 293e daf9 8dbd 6b01 5c3e
