VQ-VAE/models/vqvae/model_66.pt (torch, 579012 bytes, 64 tensors)

encoder.0.weight f4 [40, 1, 4, 4]
00000000: a732 0d3d 3291 babb 2e92 0bbd a2c7 9abd
00000010: 2a1c 2dbd 2891 d5bd 4718 1ebe c2cd a0bd
00000020: 5368 3fbd 83ed 18be 570c 32be 15a1 4f3d
00000030: cb63 03bd 97d3 5dbd c6fb 9a3d ba9e 743d
00000040: ef8c 253d 9121 343d 1084 84bd a7e1 8b3d
00000050: 920b d63d 4c9d 193e 6df7 4bbd 871b 613d
00000060: 8d7c 7a3d aeb0 af3d 6b26 07be 9438 86ba
00000070: f666 543d 6298 a83d 4ab8 a4bc 69ce 913d
00000080: 1665 ad3d dc1b b13d f5e8 da3d d36b c63d
00000090: c46b be3c 1b61 013c 423d e43b 48c9 953d
000000a0: dfb0 ae3d 4328 853d 5678 353d fb6a 673d
000000b0: 42f1 033d 0aca 1e3d 3ec1 b63b 8ecd 6039
000000c0: f212 c2bb 1f45 903d b8f3 c83d 0194 733d
000000d0: 76c4 bb3d b41d a93d c5ae 2fbd 1396 8abd
000000e0: 23e9 e63d 8c63 22bd 207b 7dbd 1778 933c
000000f0: 6bcd c53d 5dc2 103d 7ad2 643d 5c81 223d
00000100: a4dc ee3c 0a9f 6fbc e1cf dc3c bb4d 603c
00000110: 8910 653c f8d1 e3bc c887 ec3d a3aa 2f3c
00000120: 14d9 efbc c068 e4bd 74f0 3a3d 1fc8 aa3d
00000130: 1c82 703d 8b34 6bbd 103d 083d 8336 083e
00000140: 9568 9fbd 9536 27bd f93e 16bd 5314 ad3c
00000150: 76b3 f5bd eb7f 8abd 80f4 13be 49ef 123d
00000160: 31e7 c6bd 0d55 9cbd d684 d5bd 9640 ae3d
00000170: dfca 9cbd cd39 51bd a4db 3b3d 81eb 98bb
00000180: e530 03bc b5a1 863d d237 26bd abbc fdbc
00000190: bb0f b03d cb8d 9d3c 9478 e7bd eb53 8bbd
000001a0: ea93 5a3d 65f6 1abe 27c9 47bd b93a 95bd
000001b0: 766b e73a 9d6e 67bd 9ece 9cbc a3b9 98bc
000001c0: 5d00 b13b f17b 6cbd 72ca dfbd 0d47 cebd
000001d0: 6b73 6fbd 7548 52bd 67da e6bd 1e34 b23d
000001e0: 67b9 0abe ec8d 51bd 4192 91bd ff29 09bd
000001f0: 6f3a 9fbc bbdc 913d d88b 77bd b33d 01bd
00000200: d4a0 87bc 4c80 1ebd 598b 1b3c fd0b 153d
00000210: 2a44 b6bd aaa1 a63d 4b0c cb3d 05a3 e33c
00000220: e104 813d 3e84 f63d 67fd 4bbd 9d60 21bd
00000230: c727 e33d 01ca db3d a49b 50bc 72a6 253d
00000240: f7a1 bf3c f760 9b3d 2e7d 463d 13d6 0f3d
00000250: 4e97 69bd a2c8 1fbd f7fe eebd 9de9 71bc
00000260: 5018 06be 0cfd d3bd 964a e7bd 22ba e73c
00000270: c441 b63c cb89 ae3d e6e8 983d 886b 313d
00000280: c1b0 913d e26b 013d e4b4 abbd 05d4 71bd
00000290: 1b52 7a3d 2b2c c13c 86eb f0bc d84a abbd
000002a0: 61b4 383d b549 e43c 69af 23bd 5deb e4bd
000002b0: 8cfd 8a3d baf3 463d 7e5e 61bd 1412 8bbd
000002c0: 2292 91bd 77ae fcbc 7152 b23c 9d25 84bb
000002d0: bf6f 233c 50af 4ebd 8320 85bd 01ae bcbd
000002e0: e3d0 4cbd 1160 34be c931 47be 4b56 2fbd
000002f0: 9741 353c 266d 5dbd 94c5 793b 7695 55bd
00000300: 818f 963c 69bb a03d 93a3 8e3d a674 603b
00000310: 9bc8 ac3b eea7 5abd 365d 92bd a5e5 fdbd
00000320: e5c9 65bd 66ff ebbd 5164 febd de85 0abe
00000330: b4c1 b8bc e93a 6cbd d67d 70bd 97cd cabd
00000340: dd89 88bd b7f3 83bd f0a4 cb3c e615 153d
00000350: 5c96 a2bd 241c e4bd 0aeb ccbd 9d85 edbc
00000360: 6ab7 473d 521e f03c 9f7e c8bd 38c7 e1bd
00000370: 5f09 2c3d 9a4b ad3d 7192 e73c f4c9 d7bc
00000380: 5072 e73c d210 9e3b 046f b4bb 40b5 313d
00000390: 3790 523d 8a21 70bd a07a 1bbd 1c4d b93c
000003a0: 708f c93c 06c5 913d 3297 313e ba92 133e
000003b0: 5fd4 5a3c 7fe3 833d dc4b c33d 3cfd 233d
000003c0: 1fca 493d 21c4 91bd 05d6 7dbd e4bd 12bc
000003d0: a92a 97bd 7e95 4abd 3c6a a0bd 86de 6abd
000003e0: 3dc9 8dbd 7e92 b5bd 6e4a 31bd 398d 50bd
000003f0: d82d b73c 9dff 36bd 3e5d aebd 8133 303c
0.034472134 -0.005693578 -0.034074955 -0.07557608 -0.042263187 -0.10428077 -0.15438949 -0.07851745
-0.04673035 -0.14934354 -0.1738752 0.05069073 -0.032077592 -0.054156866 0.07567553 0.059721686
0.040417608 0.043977324 -0.064705014 0.06830149 0.104514256 0.1500141 -0.04979651 0.054957893
0.061153937 0.08578621 -0.13198249 -0.001024025 0.051856004 0.0823219 -0.020107407 0.07119448
0.08466546 0.08647892 0.10688964 0.096885346 0.023244746 0.007896687 0.0069653103 0.07313782
0.08529829 0.0650182 0.044304214 0.05649851 0.032212503 0.0387669 0.0055772355 0.0002143888
-0.0059226686 0.07044434 0.09812111 0.05946732 0.09168331 0.082576185 -0.042891283 -0.06766906
0.11274936 -0.039645717 -0.061885 0.0180016 0.09658321 0.03534161 0.05586479 0.039674148
0.029157944 -0.01462532 0.026954593 0.013690407 0.013980993 -0.027810082 0.11549336 0.010721835
-0.029278316 -0.11152792 0.04563947 0.08338951 0.058717832 -0.057423156 0.03326136 0.13302045
-0.07783619 -0.040823538 -0.03668115 0.021127855 -0.1199712 -0.0676268 -0.14448738 0.03587273
-0.09712065 -0.0763341 -0.10425727 0.085084125 -0.07655882 -0.051080514 0.045863762 -0.004666746
-0.008007263 0.06573812 -0.04058058 -0.030973753 0.0859675 0.019232651 -0.11302295 -0.068031155
0.053363718 -0.15133055 -0.04877582 -0.07286591 0.0017655927 -0.056501973 -0.019141492 -0.018643206
0.0054016546 -0.057735387 -0.10927285 -0.100721456 -0.05845968 -0.05133863 -0.11272126 0.08701347
-0.13547288 -0.051160738 -0.07107974 -0.033487316 -0.019437043 0.07122179 -0.0604361 -0.03155298
-0.016556181 -0.038696572 0.009493672 0.036388386 -0.0889972 0.08136304 0.09914454 0.027787695
0.06299759 0.12036942 -0.04980221 -0.03939878 0.11091571 0.107318886 -0.01273242 0.040441938
0.02339266 0.07586854 0.048459224 0.035116266 -0.05702906 -0.039009698 -0.116697244 -0.01476517
-0.13095212 -0.10350999 -0.11293523 0.028286997 0.022248156 0.08522376 0.07466297 0.04331544
0.07113791 0.031597026 -0.083841115 -0.05904009 0.061113458 0.023580631 -0.029409181 -0.08363885
0.045093898 0.027867178 -0.039962206 -0.111777045 0.067866415 0.04857228 -0.055021755 -0.067905575
-0.07107951 -0.03084491 0.021767827 -0.004032804 0.009975373 -0.05046016 -0.06500342 -0.09212876
-0.050003897 -0.17614771 -0.19452585 -0.042806905 0.011063001 -0.05405917 0.003811215 -0.05214449
0.018378975 0.07848246 0.06964793 0.0034249215 0.0052729375 -0.053382806 -0.07146685 -0.12397317
-0.056100745 -0.11523323 -0.124214776 -0.13527629 -0.022553302 -0.05767337 -0.058713757 -0.099024944
-0.0666692 -0.06442969 0.024858922 0.036397837 -0.07938835 -0.1113818 -0.10005768 -0.028994376
0.0487589 0.029311333 -0.09789776 -0.11024326 0.042001124 0.084616855 0.02826807 -0.026341416
0.02825275 0.0048237825 -0.005506398 0.043385744 0.051407065 -0.058625735 -0.03795874 0.022619776
0.02460453 0.07117657 0.17342833 0.1441144 0.013356297 0.06439876 0.095359534 0.040036425
0.049265023 -0.07117487 -0.061971683 -0.008956406 -0.07381184 -0.049458973 -0.078327626 -0.05734112
-0.06923149 -0.08865832 -0.043283872 -0.05091593 0.022360727 -0.044677366 -0.08513878 0.010754467

encoder.0.bias f4 [40]
00000000: d81b 96ba 1eab b1ba 338a 8dbb 7dce 89ba
00000010: 4c22 c9bb 22fc 89ba e028 583b 0aed 6339
00000020: 2477 b0bb 6d5d 873b 863f 193a 28f4 87ba
00000030: f606 78bb 78e0 feb9 5d2f 72ba 6134 283b
00000040: c867 5cba 7de1 26bb 4c74 dbb8 8aef 3bbb
00000050: ab71 c6bb 51a8 093a 694e 30bb d231 8ebb
00000060: c675 203a dfd7 463b 645f ccba c8a2 383a
00000070: b3bd 0d3a 3903 1dba c657 a03b 263f f73a
00000080: c44b 413a 757b f1bb 8f6c 7e3b 80d8 39ba
00000090: a33d ecb9 d225 c9bb c1ff 50bb b2e0 57ba
-0.001145239 -0.0013555025 -0.004319453 -0.0010513809 -0.0061381217 -0.0010527412 0.0032983348 0.00021736711
-0.0053852964 0.0041310103 0.00058459525 -0.0010372447 -0.0037845946 -0.00048613898 -0.0009238625 0.0025665986
-0.00084077986 -0.0025463991 -0.00010464396 -0.0028676712 -0.0060560307 0.00052512164 -0.0026902205 -0.004339435
0.0006121065 0.0030341072 -0.0015592393 0.0007043299 0.00054069905 -0.0005989555 0.004893276 0.0018863424
0.00073736557 -0.0073694536 0.003882203 -0.0007089451 -0.0004505935 -0.0061385417 -0.0031890722 -0.00082350813

encoder.1.weight f4 [40]
00000000: 4f60 3b3f b9fb 113f ac43 2d3f 758e ff3e
00000010: 1d31 1e3f a177 603f d95e 363f c2a2 3a3f
00000020: 8b3f 1b3f 1e3f 263f 37b3 443f f357 343f
00000030: a75e 533f f3ef 3c3f 56e8 103f 9e85 603f
00000040: 5cd9 303f a8c8 4f3f b185 353f 0d43 4d3f
00000050: ec4f 0e3f b8cf 433f ef41 1a3f a2bb 213f
00000060: 6ca5 e43e 1050 2c3f 66ec 2d3f e3ae e63e
00000070: 22c7 2f3f ba95 293f 4ebb 453f 074c 483f
00000080: 0e43 453f c905 373f 50d1 563f efff 183f
00000090: e32d 563f 5471 703f d1fe 6a3f d276 2c3f
0.7319383 0.57024723 0.67681384 0.49913374 0.6179369 0.8768254 0.71238476 0.729046
0.60643834 0.6494006 0.7683596 0.704467 0.82566303 0.73803633 0.56604517 0.87703884
0.69081664 0.8116555 0.7090712 0.80180436 0.555907 0.7648883 0.60256857 0.6317693
0.44657457 0.67309666 0.6793884 0.45055303 0.6866323 0.6624409 0.7723893 0.7824101
0.7705544 0.714932 0.83913136 0.59765524 0.8366377 0.93922925 0.9179507 0.67368805

encoder.1.bias f4 [40]
00000000: c3cb 8ebd 9880 70bc 059e 53bc 8e28 973b
00000010: f81e 073d 1674 f6bd b660 35be 0a5c 46be
00000020: 1221 bd3d c840 383d efdc 18be c2f9 09be
00000030: 81aa 4dbe ba23 28be f393 293e d3a9 bdbb
00000040: 927e 003b 7f41 0ebe dc5e 0abe 761f 35be
00000050: 9ed0 2fbd dab0 eebd 837e 3b3e fdff 9cbd
00000060: 43cb 1f3d 74b0 f9bd c424 1e3e 2f14 f53d
00000070: 05bf e3bd 9272 0abd cbe1 1dbe 2729 61be
00000080: 031f 22be e574 4f3e 032e cdbd dd29 23be
00000090: 5427 3abe 2232 78be d011 80be d0bd b1bd
-0.06972458 -0.014679097 -0.012916093 0.004612989 0.03298852 -0.120338604 -0.17712674 -0.19371048
0.09234823 0.044983655 -0.1492803 -0.13474181 -0.20084573 -0.16419879 0.16560344 -0.005788067
0.0019606692 -0.13892172 -0.13512748 -0.17687783 -0.042923562 -0.116548255 0.18309979 -0.076660134
0.039012205 -0.12191859 0.15443712 0.1196674 -0.111204185 -0.03380067 -0.15418164 -0.21988355
-0.15832143 0.20259435 -0.10018542 -0.15933938 -0.18179065 -0.24237874 -0.2501359 -0.08678782

encoder.1.running_mean f4 [40]
00000000: 8019 093f 0a0a b9be 723c 0dbf 4f7a b4be
00000010: bee7 58be 61d5 ff3e 3d41 963e 0190 013f
00000020: b1a9 a2be 8cfc 073e 464a db3d 5013 183f
00000030: f016 053f 9f85 913e 5942 ecbe dd75 003f
00000040: 9048 87be e441 1d3f 8df6 e13e 2e55 ae3e
00000050: 5893 9abe ec90 653e 84ad 65be 2e3b 9d3e
00000060: 0db8 b6bd 570c 0c3e eb09 7ebe 8c7f d4bd
00000070: ade5 0f3e 9e85 573e cd60 6e3e dde6 893e
00000080: e52f 953e 83a8 80be edd3 ba3e 1a67 8fbe
00000090: 0374 0e3f e173 053f c63f 2b3f e169 063e
0.53554535 -0.36140472 -0.5517036 -0.35249564 -0.21182153 0.49967483 0.29346648 0.5061036
-0.3177009 0.13279933 0.10707526 0.5940447 0.51988125 0.28422257 -0.4614437 0.50179845
-0.26422548 0.61428666 0.44133416 0.34049362 -0.3019054 0.22418565 -0.22429472 0.30709213
-0.08921824 0.13676582 -0.24808471 -0.1037589 0.14052458 0.21047065 0.23279114 0.26933947
0.29138103 -0.25128564 0.36489812 -0.28008348 0.5564577 0.5212994 0.66894186 0.13126327

encoder.1.running_var f4 [40]
00000000: 40c2 2a3e a911 7c3d eddd f73d 51e1 823d
00000010: 44ec ed3c 79f8 0f3e 92c7 893d fb01 e63d
00000020: f38f 803d a6b7 133d 7561 673d 03d5 193e
00000030: 69ee 243e ed14 343d dfae cc3d bae9 d73d
00000040: cf29 773d 79b3 393e aeb9 e63d 7b69 923d
00000050: 5cdd 333d 4c43 413d 5871 e03c d35b 933d
00000060: 0474 dc3c f66e 723d 01de 443d 6d41 183d
00000070: a81a 253d 9df9 3b3d f502 5a3d 9783 5c3d
00000080: a876 653d 2ab2 393d 258c 6d3d ac0e 963d
00000090: c1fb 223e 17ff 053e 8125 483e a227 b33c
0.16675663 0.06154028 0.12102876 0.06390632 0.029043324 0.14059629 0.06727518 0.112308465
0.06277456 0.036063813 0.056489427 0.15022664 0.16106571 0.04396527 0.099942915 0.10542627
0.060342606 0.1813487 0.11265884 0.07149025 0.043912277 0.04718332 0.027397797 0.071952485
0.02691079 0.05918785 0.048063282 0.03717177 0.040308625 0.045892347 0.053225476 0.05383643
0.056021363 0.045335926 0.05799498 0.07327017 0.15916349 0.1308559 0.19545557 0.021869484

encoder.3.weight f4 [40, 40, 4, 4]
00000000: 5278 a1bc 6521 f2bb 0a61 7cbc 3419 c1bc
00000010: 40c9 59bd c362 c9bd 3464 16bc ab58 173d
00000020: 4909 84ba d144 f03c 4cda 3dbc 4ec7 513d
00000030: 7963 843d a1be 513d f5f7 383c dcf3 ec3a
00000040: b72d 45bc e611 9b3c 2e00 293d 2f6b 133c
00000050: fc48 2ebd f5c9 ebbc 171c 013d 64e2 3b3d
00000060: f454 11bc 11f1 af3b ae7e ad3c 1779 d23d
00000070: 5b82 943a f21e 9fbb 1ff4 123d 2612 1fbb
00000080: b64f cabc ad21 9bbc dd40 3abc e6a5 3fbc
00000090: 385f ba3c ca67 46bd b5de 8fbd 59fc a1bb
000000a0: 33e8 403d 4722 aabc 28b1 b8bd 856f 23bd
000000b0: 4ed7 a93d c8e2 a1bd 477f a3bd 2cf6 b4bc
000000c0: bfb7 073d 0c66 a3bc c935 cfbc 8214 413c
000000d0: 2676 363d 3629 7cbd 7b1e 56bc 50ce 47bc
000000e0: 7b10 083d d7db ffbc 182e be3c 25ec d63c
000000f0: d892 00bc fa77 013d ca3d a83c 91ee 99bb
00000100: 97d5 733d 9f65 b53c d28d 83bd e502 043c
00000110: 0851 3a3d 9458 b23d 055c 64bd edae 2abd
00000120: bfc4 cbbc f8ba 1a3e 7ee4 9d3c 542b 56bc
00000130: f29d 8abb d472 0c3d 9ad7 8a3b 95ac e0ba
00000140: 6b88 66bc 6795 8b3c 18e0 abbc 3f35 423d
00000150: a07a f3bd b1f9 0c3c 91e3 903d 2d00 023d
00000160: cc7d 94bd 0e48 eb3d 2094 2e3c 4eb6 5cbd
00000170: bdbe 603c 4279 af3c 74c2 063d b295 f73c
00000180: 4910 553a 5069 b2bb 4ef0 b03c 7f0f c03c
00000190: 8dd7 12bd 56d0 6ebd 27d0 b23d a7df 373d
000001a0: 0d1d fd3c b174 a43d dd20 703c 585b 55bb
000001b0: 1e03 69bc 52c3 943d 342b 9ebc f27a a23b
000001c0: 7310 343b 2fd7 ac3c 0829 803d 325c 8dbb
000001d0: 479d 0bbc f4e4 b1bc 8b40 503d 54bc 8b3d
000001e0: 8922 e63c d45d e93b 7895 7abc b669 10bd
000001f0: 8be8 bcbd e344 953c 6229 d03d 9c25 a83c
00000200: 6479 0fbc 6638 84bd a862 5ebd a9ee 123d
00000210: 60c1 8a3d 1cb9 99bd 175c 14bd 8a81 113d
00000220: 1749 f7bc 03a9 09bd a999 ebbc 9676 ac3b
00000230: 75fb 70bc 36af 1e3d 54ed b3bc 65b7 9b3b
00000240: 9b3a f5bb 13e6 cfbc 295a a3bd 27ec 4b3c
00000250: 8a38 b13d 89fe ebbb 1788 73bd 32f9 dbbc
00000260: dd92 863d 866d e03c f5bf a2bb 38a8 c43d
00000270: 2483 d53c 569f ff3c 25e1 363b 3365 dcbc
00000280: ff6d b63c 1966 b73c 775b 513b 555e 823d
00000290: 8a34 08bd 93c8 d43d 2976 fb3c b628 8c3b
000002a0: f33f f9bd 5346 8e3c baae f93d 4f89 5f3d
000002b0: 9fca 513c e2e9 683c 7e8a 0fbd 10d3 50bc
000002c0: 1473 9cbd fc42 eb3b 143e 583d 2707 8b3d
000002d0: 4241 203d 7058 c9bc 811a 2ebd bda0 293d
000002e0: 6ca2 acbc 8217 a9bd 15f9 a03d f98d c1ba
000002f0: 908a cd3c 5039 b4bc c156 213d 583c a53d
00000300: f9ac 5cbd 3e6e 2bbb 8461 9c3c 8e3d 2bbd
00000310: 19fd e0bb b3d2 e2bc 17c1 c73c 521a 973c
00000320: 4f01 c6bd 3c6d cf3c 3ac0 bebc 1ffc b13d
00000330: 3592 6cbc fdb2 7cbc 5712 ed3c 1eeb 20bd
00000340: ccf1 52bc 093e 31bd c4b6 833c 8605 a43b
00000350: c137 153e 0468 0c3e 2904 5bbd 2d20 9dbc
00000360: 86bb 45bd 6018 11bd 7d83 b53c 6654 8d3d
00000370: f177 3abc 8def 3abd 9c1b 97bc e060 e03c
00000380: d891 593d 4317 76bd 5b74 17bd 5ecf 333d
00000390: 15f6 253d fba0 5fbd 3039 e4bc ea04 293d
000003a0: 65d4 5b3d b41b dcbc 26ce 7cbd 4939 ee3c
000003b0: f6e2 903d 7683 e73c cba5 21bd 66a5 0a3d
000003c0: e4ac b43b 09c0 0abd ebc0 72bc 806d ee3c
000003d0: dd5b 75bc ecf3 d0bd 0873 873c 0fc0 043d
000003e0: 7f89 273d 6a46 debc 5237 5dbd be9c f23c
000003f0: 1b36 f6bb efb0 f7bc 57cf 823c 6e81 a9bb
-0.019710694 -0.007389235 -0.015403995 -0.023571588 -0.053170443 -0.098332904 -0.009179164 0.036949795
-0.0010073568 0.02932969 -0.011587691 0.051215462 0.064642854 0.05120719 0.011289586 0.0018078047
-0.012034825 0.018929433 0.041259937 0.0089977225 -0.042550072 -0.028782824 0.03152093 0.0458702
-0.008870352 0.0053693135 0.02117857 0.10277002 0.0011330353 -0.004855984 0.035877343 -0.0024272292
-0.024696212 -0.018936956 -0.011368004 -0.011697268 0.022750482 -0.048438825 -0.070249 -0.0049434123
0.047096442 -0.020768298 -0.09018165 -0.039901275 0.08293019 -0.07904583 -0.079832606 -0.02209004
0.03313422 -0.01994612 -0.025294201 0.011784675 0.04454627 -0.06156274 -0.013068791 -0.012195185
0.033218842 -0.031232757 0.023215339 0.02623565 -0.00784751 0.03160856 0.020537276 -0.004697629
0.059529867 0.022143183 -0.064235345 0.008057331 0.045487434 0.08708301 -0.05575182 -0.04167073
-0.02487409 0.15110385 0.019273993 -0.013071854 -0.0042302543 0.034289196 0.0042371275 -0.0017141277
-0.0140706105 0.017039014 -0.02098088 0.04741406 -0.11888623 0.008604453 0.07074655 0.03173845
-0.07250556 0.11488353 0.010655433 -0.053884797 0.013717351 0.021420125 0.03290029 0.030222747
0.0008127732 -0.005444683 0.021598961 0.02344489 -0.035850096 -0.058304153 0.08731108 0.044891026
0.030897642 0.080300696 0.014656273 -0.0032555666 -0.014221935 0.07263817 -0.01930771 0.004958504
0.0027475625 0.021098701 0.06257826 -0.004313969 -0.008521385 -0.021715619 0.050842803 0.0682303
0.02809264 0.007121781 -0.015294425 -0.035257064 -0.092240416 0.018221324 0.10164143 0.020525746
-0.008756969 -0.0645607 -0.054293305 0.035872135 0.067751646 -0.0750601 -0.036220636 0.03552393
-0.03018622 -0.033608448 -0.028759794 0.00526316 -0.0147083895 0.038741313 -0.021963753 0.004752087
-0.007483793 -0.025378263 -0.07976181 0.01244644 0.08653362 -0.007201974 -0.059455957 -0.026852224
0.06570981 0.027395975 -0.0049667307 0.09602398 0.02606351 0.031203907 0.0027905193 -0.026903724
0.022269247 0.022387551 0.0031945386 0.06365649 -0.03325323 0.10389819 0.030695992 0.004277314
-0.121704005 0.017367518 0.121915296 0.054574307 0.012804656 0.014215918 -0.035044186 -0.012745634
-0.07639137 0.007179616 0.052793577 0.067884736 0.039124735 -0.024578303 -0.042505745 0.041413058
-0.021073543 -0.08256437 0.078600086 -0.0014767043 0.025090486 -0.021999985 0.039389376 0.0806815
-0.053875897 -0.0026158239 0.019089468 -0.04180675 -0.006866109 -0.02768836 0.024384065 0.018445168
-0.09668218 0.025320642 -0.02328502 0.086906664 -0.014439155 -0.0154235335 0.02893941 -0.039286725
-0.012875032 -0.043272052 0.01607836 0.0050055413 0.1457205 0.13711554 -0.053470764 -0.019180382
-0.04827454 -0.035423636 0.022157425 0.06900863 -0.011381135 -0.04563861 -0.018445782 0.027389944
0.053117603 -0.060080778 -0.0369762 0.043898933 0.040517885 -0.054596882 -0.0278593 0.041264452
0.053669352 -0.026868679 -0.061720036 0.02908005 0.07074539 0.028260928 -0.039464753 0.033849142
0.005513774 -0.033874545 -0.014816503 0.029104948 -0.014975515 -0.102027744 0.016534343 0.032409724
0.04090261 -0.027133185 -0.054007836 0.029615756 -0.007513774 -0.030235736 0.015968008 -0.0051729

encoder.3.bias f4 [40]
00000000: 2d00 fc3b 34cc c43d 6732 443d 6a99 82bc
00000010: 5109 ef3d fcf8 283d 9992 523e 8b87 9a3b
00000020: 44f5 c43a ab24 533b 941e 723d 608e 913d
00000030: b528 303c 43c1 023d 1799 6b3d f21c 803d
00000040: 1a60 4bbc d1e9 a0bb 0a06 07bb 62f9 85bc
00000050: 7413 d33a 2024 333c 61dc 123e cec6 8e3c
00000060: 60cf febc 711d 5c3d 8e7e bb3b 2c6c e93c
00000070: 23a6 ec3d d009 053d 772f 0a3c 00e4 80bc
00000080: 7e83 75bd ebeb b1bc f466 f8bc b023 6ebd
00000090: 9e54 26bd 3365 75bd 57e9 e23c 00dd b9ba
0.0076904506 0.09609261 0.04789963 -0.015942294 0.11671699 0.041253075 0.20563735 0.004715865
0.0015026708 0.00322179 0.059111193 0.07107234 0.010751893 0.03192259 0.057519045 0.06255521
-0.012413049 -0.0049106856 -0.0020602965 -0.016354267 0.001610382 0.010933906 0.1434188 0.017428782
-0.031104743 0.053739015 0.0057218736 0.028493963 0.115551256 0.03248006 0.008434168 -0.015733719
-0.059939854 -0.02171894 -0.03032253 -0.058139503 -0.04060804 -0.059910964 0.027699156 -0.0014180243

encoder.4.block.1.weight f4 [40, 40, 3, 3]
00000000: f6b7 633c b1d3 7abc dbc7 653d 645c 26bd
00000010: 00ff efbd a823 21bd f23b b1bc 50a5 77bb
00000020: 423c 6e3d 1463 56bd 0117 cc3d 432d ee3d
00000030: fdb4 093d bb28 48be cbfc 13bd 4049 573a
00000040: 9ac3 543d e869 c6bc bf2a 623c b836 10bd
00000050: 94ac 5f3d 00f0 893d 5b83 53bc b577 403d
00000060: 50cd 7a3d 6f95 64bb 8f5c bbbb 5902 e9bd
00000070: 1365 7e3c 750d f9bc ae20 d4bb f202 0d3d
00000080: bdb1 46bc ffb9 ae3d 6ba8 8dbe 1101 15bd
00000090: 04cf 36bd b064 16bd 2fe7 70ba a48a b43d
000000a0: ba49 4b3e 965b 1fbd e3ca 013d 5c5a 51bc
000000b0: ac3b 82bc be41 5e3c 6db4 5cbd 224f 5b3d
000000c0: 3c9b 4d3d 4122 ee3a 0435 0c3b cef9 613d
000000d0: 61cf 593c 8544 fe3b 8be2 2abd 67fc 5a3d
000000e0: 48e7 743c c261 203d e88a 0e3e 82c9 ac3a
000000f0: 09ab 34bd 15bd 8f3c 11b5 133c f16d 2ebc
00000100: 2ee8 36bd 06dc 8c3d 523d 31bc 81b7 af3d
00000110: 8e93 f4bc ef1a 07bd 989e 20bc 72a8 3dbc
00000120: 229b 0ebd 919d adbc a3a3 02bd 81a3 373d
00000130: b019 cd3d 6b71 16bd a09f 1fbd 141c 9fbd
00000140: fe1c 1dbd afad 32bd 5c47 cc3d c8f2 a23d
00000150: 6876 63bd 5e91 963d 7719 c93d af92 c1bc
00000160: 2322 f23d efed 2b3d 016e e03c 7301 aabc
00000170: 87c6 e2bc 0b4d 0dbd 342e 83bd 8984 4bbd
00000180: 46e2 0fbd 194f a8bd 5ed2 a2bd e7a5 39bd
00000190: bbdc 8e3d 522c 76bd a845 53bb 0503 103c
000001a0: d422 513d 2bda a1bc c23b 613c 5dfe 69bb
000001b0: 2b50 b93b 4808 c73d 015c 08bd 4e05 aabd
000001c0: 7f82 fa3d d25a 6cbc 507a 10bd e9d7 1fbd
000001d0: 9892 7abd d440 a93d cc86 64bd 4a43 293d
000001e0: 550e c2bd 437e 1fbe 5bd9 ef3d 3357 d9bc
000001f0: 3368 513c 644f 17bb 52e9 96bd c5c8 9d3d
00000200: d027 54bc dd39 4c3e 7b14 72be 4485 a73c
00000210: 43b3 763d 4673 953c 9511 a03c 4a4d 98bd
00000220: 8ce8 4a3d 6a80 f73b 4d40 293d 84d7 713c
00000230: dcd4 a93c 2d3a 25bc 7394 0abd 127c 04bd
00000240: 21a5 debc 0530 64bd d045 b1bd 925f a33d
00000250: 0974 4ebd a1af 033d aa83 8bbd 855f 20bd
00000260: 1f89 843c 1dc7 aa3d ce41 a73c fffa dfbd
00000270: 3299 37bd 7b43 9b3d 1dfb c13d d926 49bc
00000280: de4b 0dbe 1465 273d 0942 a43c 44fc a6bd
00000290: c96a adbd 3625 1aba c355 72bc 140e 84bd
000002a0: 67fa aa3a b6d8 1abd 9749 a33c d5a8 98bc
000002b0: f14f f33c 7440 35bd 43c4 e3bb 176e 7dbd
000002c0: 312d 92bd a0f3 2bbe 6da2 703d 0172 01bd
000002d0: d892 09bc fb18 7d3d d338 cfbd 170b 6f3d
000002e0: 830e bdbd f58e dbbc 6a3f 99be 73ac 6bbd
000002f0: 36c7 ae3c 9a58 833c 5fd3 5abe c9f9 d03c
00000300: 38f8 2dbe c8c1 97bd 3177 393e bbdd dbbd
00000310: 0b84 713d f81e 91bc b23f 80bc 7dba 843c
00000320: 3e1c 813c 3322 9dbd dee6 393e b1ca 6bbc
00000330: 2a2b 07bd 99c3 88bd d861 19bd 260d 053c
00000340: 5979 babd 207a fa3b 0459 9ebd 1e0e 5abe
00000350: 63aa 6fba 8a11 a43c e0b1 763d 6ed1 643d
00000360: 8a06 083c 1142 393c 5711 ecbc 4b8d dfbd
00000370: 32ee 603e 6b51 943d 8b0a a53d 6aa4 0fbc
00000380: 9f89 17bc 17d5 ad3c dfc6 233b 995f b4bc
00000390: 18e4 08be 4c69 513e 9d8d 3dbd 0e8f d93c
000003a0: c6e6 173d 3a80 6a3b 793f 833d 1456 083d
000003b0: 968d bf3c 3870 cb3a 5a18 f0bd d10b 0fbd
000003c0: da0b 873b 42d6 00bd 3f01 13bc a0f7 70bc
000003d0: e3fb 583d e933 973c 5540 a13d 2001 08be
000003e0: d811 a8bb d1df 5a3d c7cb 28bd 5fba 9dbc
000003f0: a8cc dcbc 1a30 543d c729 2e3b 92d1 e13b
0.01389884 -0.01530926 0.0560988 -0.040615454 -0.11718559 -0.039340645 -0.02163503 -0.0037787743
0.058162935 -0.052340582 0.09965325 0.11629727 0.03361987 -0.19546787 -0.036129754 0.0008212514
0.051944353 -0.024220422 0.013804137 -0.035208434 0.054607943 0.067352295 -0.012909736 0.04698916
0.061230958 -0.0034879108 -0.005717821 -0.11377401 0.015527028 -0.030401925 -0.0064736223 0.034426637
-0.012127337 0.0853157 -0.27667555 -0.03637797 -0.04463102 -0.036717117 -0.00091897225 0.08815506
0.19852343 -0.038905703 0.03168763 -0.012777891 -0.015897594 0.013565479 -0.053883005 0.053542264
0.05019687 0.0018168167 0.0021393904 0.055169873 0.013294072 0.007759633 -0.041719954 0.053463366
0.01494772 0.03915573 0.13920176 0.0013182613 -0.044108424 0.017546216 0.009015338 -0.010646329
-0.044655018 0.06877904 -0.010817843 0.085799225 -0.029855516 -0.03298467 -0.009803437 -0.011575805
-0.034815915 -0.021193298 -0.031894337 0.044833664 0.10014665 -0.036729258 -0.03897059 -0.07769027
-0.038357727 -0.04362267 0.09974548 0.07956463 -0.055532843 0.07351945 0.0981931 -0.023629515
0.11822917 0.041974958 0.027396204 -0.020752644 -0.027682556 -0.034497302 -0.06405297 -0.049686942
-0.0351279 -0.08218212 -0.079502806 -0.045324232 0.06975695 -0.06010086 -0.0032237563 0.008789782
0.051058605 -0.01975735 0.0137471575 -0.003570459 0.0056553087 0.097183764 -0.033290867 -0.08301793
0.122319214 -0.01442595 -0.035272896 -0.039024267 -0.06117496 0.08264318 -0.055792615 0.041323937
-0.0947539 -0.15575509 0.11711379 -0.026530838 0.012781191 -0.0023088092 -0.07368721 0.077043094
-0.012948945 0.19943948 -0.23640625 0.020449288 0.06022955 0.018243443 0.019539634 -0.07436617
0.04953818 0.00755315 0.041321088 0.014760856 0.020731382 -0.010084671 -0.03383298 -0.032344885
-0.027178349 -0.055709857 -0.08655894 0.07977213 -0.05040363 0.032149915 -0.06812222 -0.039153595
0.016178666 0.08338759 0.02041712 -0.109365456 -0.044823833 0.0758123 0.09471724 -0.012277328
-0.13798472 0.04086788 0.02005102 -0.081535846 -0.08467633 -0.00058801787 -0.014790955 -0.06447998
0.0013044596 -0.037804328 0.019932551 -0.018635193 0.029701205 -0.04425092 -0.0069508865 -0.061872568
-0.07137526 -0.16792154 0.05874865 -0.031602863 -0.008396827 0.0617914 -0.1011826 0.058360185
-0.092312835 -0.026801566 -0.29931194 -0.057537507 0.021335226 0.01603346 -0.21369694 0.025509732
-0.16989219 -0.07410008 0.18111874 -0.10735651 0.058963817 -0.017714962 -0.015655372 0.016202206
0.015760537 -0.076725386 0.18154475 -0.014391587 -0.03300015 -0.06677932 -0.037446827 0.008120811
-0.091051765 0.007643953 -0.07731822 -0.21294448 -0.0009142516 0.020027895 0.06022823 0.05586379
0.00830234 0.011307255 -0.028816862 -0.10915621 0.21965864 0.07242092 0.080586515 -0.008767227
-0.00924912 0.021219773 0.0024990363 -0.02201824 -0.13368261 0.20450324 -0.04627763 0.026557472
0.037085317 0.0035781995 0.06408591 0.033285215 0.023382943 0.0015521115 -0.11723395 -0.03492338
0.004121286 -0.031454332 -0.008972465 -0.014707476 0.052974593 0.01845737 0.078735985 -0.13281679
-0.0051290803 0.053436104 -0.041209962 -0.019253908 -0.026953056 0.051803686 0.0026575194 0.006891438

encoder.4.block.1.bias f4 [40]
00000000: bdb5 453b 1e5c a6bb 5191 afb9 9598 513a
00000010: 2901 0ab9 5448 373b 6fa1 b33a 669c c8b8
00000020: 8eab 1f3a 7698 73ba 3576 9d3b ddd5 0e3c
00000030: edb2 20b9 e26e 093b d448 c9b9 375d 933a
00000040: 025f 13bb 2475 b9ba e05e 0e3a 17fd 6b3a
00000050: df8f 1cb9 8ba5 57b6 f186 e6ba cb54 13bb
00000060: b5c2 6e3b a322 30ba 65d3 b33a d810 a53b
00000070: 650a c8b9 ba16 563a a071 053b 1559 b83a
00000080: 1879 b63a b1a4 253b 131d f6b9 b61e 983b
00000090: 52dd 45bb b95c d839 aa66 8bba 4c6f 333b
0.003016814 -0.005076899 -0.0003348687 0.0007995454 -0.00013161138 0.0027966695 0.0013704727 -9.565875e-05
0.00060909323 -0.0009292433 0.004805351 0.008717981 -0.00015325444 0.0020970632 -0.0003839197 0.001124299
-0.002248705 -0.001414929 0.00054310076 0.0009002252 -0.00014930915 -3.2133855e-06 -0.0017587823 -0.002248096
0.0036431972 -0.00067190285 0.0013719617 0.0050374083 -0.00038154717 0.00081668387 0.0020361915 0.0014064634
0.0013921587 0.0025275166 -0.00046942438 0.004642333 -0.0030191732 0.00041267814 -0.0010635455 0.002737957

encoder.4.block.2.weight f4 [40]
00000000: efe0 8c3f ec73 863f f5eb 803f 5774 6b3f
00000010: 668e 723f ab48 723f a06d 703f 3d05 6c3f
00000020: 6fba 513f 15df 5d3f 2856 7c3f 53f3 8b3f
00000030: 8d52 773f 580f 923f 5a23 943f 3d5c 873f
00000040: 92d3 893f 2266 233f 3425 6a3f 59f2 663f
00000050: 5771 823f 47ff 8a3f 16c9 363f 5593 823f
00000060: 2507 5f3f e377 663f ce33 8d3f 2b82 8a3f
00000070: bac5 7a3f da20 903f 33da 8c3f 0bc7 8e3f
00000080: adc1 843f 0011 963f c3d8 703f 3a8b 873f
00000090: 0f4a 6f3f e981 333f 59d4 9f3f 5cff 5b3f
1.1006144 1.0504127 1.0072008 0.91974396 0.9474853 0.9464213 0.93917274 0.92195493
0.819251 0.8666852 0.98568964 1.0933632 0.9661034 1.1410933 1.1573288 1.0575024
1.0767691 0.6382772 0.9146302 0.90213543 1.0190839 1.0859154 0.7140058 1.0201212
0.87120277 0.9002668 1.1031435 1.0820974 0.97957957 1.1260026 1.1004089 1.1154493
1.0371605 1.1723938 0.9408075 1.0589364 0.9347238 0.701201 1.2486678 0.8593652

encoder.4.block.2.bias f4 [40]
00000000: 3844 ad3e 997a cc3d 4943 65bd e154 ec3e
00000010: a77b ae3e d07f d03e 7c42 203e d6ea a83d
00000020: 3754 0c3e 5926 abbd 18f6 b93d 72f1 b63e
00000030: ba2a bc3e fc32 e83e 1cde d93e f5e0 c0bd
00000040: 5f8d e83c 4741 043e 1f5d 6b3e 5f2f 893e
00000050: 444d 3dbe f6a7 94bd 13f9 86be 8780 0bbe
00000060: 3e47 943d fed2 24bd eefe 693e 3708 60bc
00000070: 0d0f 63be ab6b faba 2b95 8d3e 8cb5 5f3e
00000080: 11f8 7c3d 27f4 a03e 472e 313e ba39 87bc
00000090: 9fb6 c73b a563 32bd c2c6 90be 4301 bd3d
0.3384111 0.09984321 -0.05597237 0.46158507 0.34078714 0.40722513 0.15650362 0.082479164
0.13704 -0.083569236 0.09080142 0.35731083 0.36751348 0.45351398 0.42552269 -0.09417907
0.028387723 0.12915526 0.22984742 0.26793954 -0.18486506 -0.072585985 -0.26361904 -0.13623248
0.07240151 -0.04024028 0.22851154 -0.013673834 -0.2217371 -0.0019105574 0.2765287 0.21846598
0.061760012 0.31436273 0.1730281 -0.016507018 0.006094768 -0.04355206 -0.2827664 0.09228756

encoder.4.block.2.running_mean f4 [40]
00000000: d3c9 883e d8d0 4bbf be56 2dbf e1e9 19bf
00000010: 02e6 a63d c048 173f c515 813e 63a2 92be
00000020: 662f 0ebb 11ce 9bbe 7ef4 df3e ccfa 5b3e
00000030: 4eb1 acbc c83c b53e 0457 4c3e cd31 32bf
00000040: de17 16bf 9e6b 4bbd 6143 173f 1289 173d
00000050: e8f1 5d3d 7456 39bf 6493 a4be 4526 a1be
00000060: 48cb 2f3e 9e7d 17bf 1cb3 313f 36f5 1c3f
00000070: 7de1 373d e779 68bf 044d 4f3f 6e1e 203f
00000080: dbc2 19bf fde7 b8bd 1d0a 9c3e 0704 0bbf
00000090: 04fb f3bd b0ce e2be 324d b7be ce18 5f3c
0.2671648 -0.79615545 -0.67710483 -0.60122496 0.08149339 0.5909538 0.2521192 -0.28639516
-0.0021695732 -0.30430654 0.4374122 0.2148239 -0.02108064 0.35397935 0.19955069 -0.6960724
-0.5863017 -0.04966318 0.5908719 0.036995955 0.054185778 -0.7239754 -0.321437 -0.3147451
0.1716739 -0.5917605 0.69413924 0.6131166 0.044892777 -0.9081101 0.8097689 0.6254643
-0.6006295 -0.09028623 0.30476466 -0.5430302 -0.11913112 -0.44298315 -0.35801083 0.013616754

encoder.4.block.2.running_var f4 [40]
00000000: 97c3 f13e 172e 7b3f 4ff8 333f 7939 133f
00000010: 00c6 a03e 11b6 0e3f f992 fe3e bd5e 1a3e
00000020: a81e 9b3e 2b27 0e3f 5b3a 0b3f ffc1 c43e
00000030: fa5a 983e 2ee3 a23e b606 1d3f 04d2 0e3f
00000040: 32af b93e 2853 383e 08c9 0f3f c95f 653e
00000050: ac43 e43d 143c 6e3f 4093 963d 393c 0e3f
00000060: cda2 c33e 41fe 053f 2214 183f 78a0 043f
00000070: 9d54 b33d c3e1 773f c699 223f 1da1 7d3f
00000080: f520 403f 6e7f ab3e 2b48 cd3e 9ffc 033f
00000090: c8ec 803e d164 733e bb74 043e a4bb 683e
0.47219536 0.981172 0.70300764 0.5750957 0.31401062 0.5574656 0.49721506 0.15075202
0.30296826 0.55528516 0.5438592 0.38429257 0.2975691 0.3181395 0.61338365 0.5578921
0.36266476 0.18000472 0.56166124 0.2239982 0.1114572 0.9306042 0.073523045 0.5556064
0.38210145 0.52341086 0.5940572 0.51807356 0.08756373 0.9682886 0.6351589 0.99073964
0.7505029 0.3349566 0.40094122 0.51557344 0.2518065 0.23768927 0.12935154 0.22727829

encoder.4.block.4.weight f4 [40, 40, 1, 1]
00000000: 9227 043e 29cd 8d3d e73f 903e ca9e 233e
00000010: d3e4 c53d b9c6 3fbe 81fe 873d 8b86 083d
00000020: ad4e de3c 6a44 bc3a d112 3ebe 62bd 18be
00000030: 0d74 d0bd a11a 47be 99b4 1bbe 2494 23bd
00000040: e6d8 263e 1f30 913c 4060 10bd 341f bcbd
00000050: 2000 f53d f26b 423e 9472 013d 1459 463e
00000060: cd27 863e 591d 723d aacc b3be 6ab3 4ebe
00000070: a309 8fbe 48be debc 28e5 f9be af8a 8b3d
00000080: 1328 713d ce4d 71be ea1a 583d 8701 113d
00000090: 38df 1c3c 5a35 acbc f8a3 be3e a2a9 a13d
000000a0: 2a90 363e 2ea6 1dbd ad1d cd3e c32f 1fbe
000000b0: 1596 953d 28e7 2c3c 306d bb3c cd19 0e3d
000000c0: 6f23 c43d 1dcf 05bd 3454 58bb d20d 503e
000000d0: c435 e23d 1a43 423e 7bf0 9c3e ff21 87be
000000e0: b509 0ebe f19b fa3d 3b4b 5bbd 697c 4f3d
000000f0: 4f53 7bbd 5cfb 65be 2a48 afbb 88cc b8bd
00000100: 373f c3bc b822 0b3d 355e 7cbc c13d d03d
00000110: 41d6 d3bc 5ab6 9abd 71ee 213e f318 0d3e
00000120: 4edc f63c 7c1f ad3e 80c4 313e 7524 37be
00000130: 4273 f1bd 75d7 c23c 7fea 85be 4ced 1abd
00000140: 1321 13be a77f 673e d355 ffbb e9a6 23be
00000150: b602 7dbd ef76 12be d4fb bdbd 2ba7 d0bd
00000160: 35b3 debc aac7 b3bd 1994 df3c 6a4b 78be
00000170: 2414 4a3d bbf6 d9bd c3af 2bbe c686 ac3d
00000180: 4be1 903d fd04 933c e4cd 36be 7ed6 20be
00000190: a136 42bd 0f53 283e d08b c53c 64b8 373d
000001a0: a773 63be c458 053e 398a 23be 3c86 8a3d
000001b0: 8f54 4ebe 010e 4c3e 4c18 0fbe 4e7d a6be
000001c0: 7679 ddbd 6b22 8ebe 9e3d 06bd 3f2d 043e
000001d0: 8b5b 3b3c b1c2 733d 48e2 033f f21c f0bd
000001e0: 3964 11bd 9627 983e b934 153e 8727 983d
000001f0: 9011 10be daa1 8c3d 3216 1fbe 4743 c8be
00000200: 9d67 b6be 9935 38bd a673 9d3d 9da4 8cbe
00000210: df46 a1bb 1f20 96bd e0f5 b9bd 6127 6ebe
00000220: 0a1b 0bbd f4bf 653d bd39 18be e02e e53d
00000230: 74a0 703e 79c1 173e 465e 763c cb47 3a3e
00000240: 7ce2 20be f052 78bd 6ad7 c6bd 0ff0 5cbc
00000250: 3e7f 253e a383 1fbd e496 dbbd 06e7 1c3d
00000260: b3f9 023e a069 0cbe b7b8 6abd ee07 4a3e
00000270: 9c7e 0b3e 78de 96bd 26b3 c43e ac5b ffbc
00000280: 3afb fabd 8a6a 50be 0565 83bd 9799 c7bc
00000290: 7de4 af3b 93a7 68be d69e 943e f0a5 33be
000002a0: fcd9 9bbd 055a 0f3e 230c 12bd 4e5d aa3d
000002b0: 19a2 7b3e 6a92 ad3e 6d67 243e 01ad 733c
000002c0: cbc6 cdbd e49b ae3d f384 b53d 8a1b 3b3e
000002d0: d911 653e 7c51 fa3c ab9b 82be e536 e33d
000002e0: e0f1 16bd 9458 5abe 02b6 9abd e37d 103e
000002f0: 5df5 f83d 2a99 2cbe e584 513e 4122 46be
00000300: 4ad2 d6bd 49a7 c93d 9ecf 3e3e 8d30 38bd
00000310: 2510 95bd 236e fcbd 9aa2 45be 5f2a 043e
00000320: 5b03 e13c 7a5e 83bc 2fb6 df3d daa5 643c
00000330: 2e2c 84bd ad88 b4be 243f 70be 11c1 a03d
00000340: 474a ddbd f7e1 55bd 425f 143c b68f 69be
00000350: 0ab3 b7be c353 f3bc b2e8 483d da3e a93d
00000360: 1416 95bd e117 e63d 37c7 3dbd 4a6d c2be
00000370: 4ff0 403c e97d 673c 7e3a af3d 4151 723d
00000380: eabb b4bc bcd2 023e afcf cd3d a931 4a3e
00000390: 5bc8 8ebe 050c 323d 5c3f 1bbe 4d17 a13e
000003a0: ac55 fb3d be69 573e 26d5 9fbe abf1 a53d
000003b0: 98c8 933d 0092 a9bb 1efe ba3e 0e94 debd
000003c0: 4bbe 2cbe aaee ffbd d7c6 8fbe ec64 09bc
000003d0: 515d ef3c e1ce 3abe daef 343e 4815 8f3d
000003e0: e932 813e 6435 4f3d 72c1 0bbf fe40 56be
000003f0: c9b0 05be b580 5cbd bc14 c0bd 8d01 30bd
0.1290572 0.06923897 0.28173754 0.15978542 0.096627854 -0.1872815 0.0664034 0.033331435
0.027137125 0.0014363651 -0.18561865 -0.14915994 -0.10178385 -0.19443752 -0.15205611 -0.0399362
0.16293678 0.017723141 -0.03524804 -0.09185639 0.119629145 0.1898649 0.03160341 0.19369918
0.2620224 0.05911002 -0.35117084 -0.20185629 -0.2793704 -0.027190343 -0.48807645 0.06813561
0.05887611 -0.23564836 0.052760042 0.035401847 0.009574704 -0.021021534 0.37234473 0.07893683
0.17828432 -0.03848856 0.40061703 -0.15545563 0.073040165 0.010553159 0.022879213 0.034692574
0.09577071 -0.03266822 -0.0033009173 0.20317772 0.11045411 0.1897091 0.30652222 -0.26393124
-0.1387089 0.12236775 -0.053538542 0.050655756 -0.061358746 -0.22459167 -0.005349179 -0.09023386
-0.023833854 0.033968657 -0.01540332 0.101680286 -0.025859 -0.07554312 0.15813614 0.13779049
0.030134346 0.33813083 0.17360115 -0.17885001 -0.11789562 0.023784379 -0.2615547 -0.03782396
-0.14368086 0.22607289 -0.0077922135 -0.1598164 -0.061770163 -0.14303182 -0.09276548 -0.10188135
-0.027185062 -0.08778317 0.027292298 -0.24247518 0.049335614 -0.10642763 -0.16766267 0.084241435
0.07074221 0.017946715 -0.17851979 -0.15706822 -0.04741538 0.16437934 0.02411452 0.044853583
-0.22212087 0.13022143 -0.15970697 0.067638844 -0.20149444 0.19927217 -0.13974112 -0.32517475
-0.108141825 -0.27760634 -0.032773606 0.12907885 0.0114354 0.059511844 0.5151715 -0.11724271
-0.03549597 0.29717702 0.14570893 0.07429414 -0.140692 0.06866808 -0.1553581 -0.3911383
-0.35625926 -0.04497299 0.07688074 -0.2746934 -0.0049217786 -0.07330345 -0.090801 -0.2325721
-0.033961333 0.056091264 -0.14865775 0.11190581 0.23498708 0.14819898 0.015037125 0.1819145
-0.15711397 -0.06062597 -0.09709056 -0.013484969 0.1616182 -0.038943898 -0.107221395 0.03830626
0.12790565 -0.13712168 -0.057305064 0.19729587 0.13622516 -0.07366651 0.3841793 -0.031171642
-0.12254949 -0.20353141 -0.06415752 -0.02436523 0.005367814 -0.22720174 0.29027432 -0.17543769
-0.076099366 0.13999183 -0.035656106 0.08318578 0.24573554 0.33900768 0.16055079 0.01487279
-0.100476824 0.085258275 0.08863249 0.18272224 0.2237009 0.030556433 -0.2550939 0.11094455
-0.036851764 -0.21322852 -0.075542465 0.14110522 0.12156174 -0.16855302 0.20460851 -0.19349004
-0.10489328 0.0984636 0.18633887 -0.044968177 -0.0727847 -0.123256944 -0.19300309 0.12906788
0.02746742 -0.01603626 0.10923421 0.013955558 -0.06453739 -0.35260525 -0.23461586 0.078493245
-0.10805183 -0.05221745 0.009055914 -0.22808728 -0.35878783 -0.029703027 0.04905004 0.08263941
-0.07279602 0.11235023 -0.046332564 -0.37974006 0.011776044 0.01412914 0.085560784 0.05915952
-0.02206226 0.12775701 0.10049378 0.19745506 -0.27887234 0.043468494 -0.15160888 0.3146309
0.122722 0.21036431 -0.31217307 0.08102735 0.072159946 -0.0051748753 0.36522 -0.10868083
-0.16869466 -0.124966934 -0.2808139 -0.008385878 0.029219301 -0.1824298 0.17669621 0.06986481
0.25234154 0.050588027 -0.5459205 -0.2092323 -0.1305572 -0.053833682 -0.09378955 -0.04297023

encoder.4.block.4.bias f4 [40]
00000000: e09a 07bc 8927 063b cfed a8bb dde4 deba
00000010: 006a 28ba 637e 9139 487e 3ebc eaf3 17bc
00000020: e902 8639 b5e0 e1b8 1c12 0fbb 521c 87bb
00000030: 2078 94bb 66d0 ab3a 4f8e d8bb 64fe c138
00000040: 5a46 c9bb cfec ef39 337a 303b db3d 223c
00000050: cae3 ef3b 5925 a1bb ffe7 873b 8737 85ba
00000060: 23fc babb be74 87bb 9cd9 64bb 86fa 1339
00000070: a9f9 a9bb bbf8 fbbb 46f9 df3a 6eea b43b
00000080: ac64 23bb 1d1c 48bb ae8f 04bc 1981 8abb
00000090: c927 c6bb 43c7 d1bb fe63 f93a 26ff feba
-0.008276671 0.0020470342 -0.005155302 -0.0017005462 -0.00064244866 0.0002775072 -0.0116267875 -0.009274462
0.0002556064 -0.00010770691 -0.0021830862 -0.004123249 -0.0045309216 0.0013108372 -0.0066087614 9.250341e-05
-0.0061424198 0.00045762068 0.0026928305 0.009902443 0.0073208557 -0.0049177823 0.004147529 -0.0010163643
-0.0057063266 -0.00413379 -0.0034919744 0.0001411234 -0.0051872325 -0.007689563 0.0017087839 0.0055211103
-0.0024931831 -0.0030534335 -0.0080908965 -0.0042268154 -0.006047223 -0.0064019277 0.0019026992 -0.0019454702

encoder.4.block.5.weight f4 [40]
00000000: 568b 453f 6201 213f 4bf1 3a3f 616f 183f
00000010: 44ab 503f 38d2 1f3f 4068 7c3f 306a 073f
00000020: 2e54 423f fbda 293f 7fcc 603f 5cae 603f
00000030: 4c7a 423f 8298 2d3f 7604 1b3f c0b3 a53f
00000040: 6d01 0f3f 3717 6e3f 2ab3 6e3f 828d 0b3f
00000050: 1931 dc3e 4eb3 743f a9c6 6c3f 5014 353f
00000060: 951d 1d3f 57c1 0c3f 14bb 643f 372b 733f
00000070: b925 2d3f 9d22 393f 4dc1 553f 2171 0a3f
00000080: 0be9 0b3f e99f 463f d4d3 653f 5e06 533f
00000090: 6bac 543f 2c2c 2d3f d4d3 023f 2910 1e3f
0.77165735 0.62892735 0.73024434 0.5954495 0.8151133 0.62430143 0.9859657 0.52896404
0.759097 0.6634976 0.87812036 0.8776605 0.7596786 0.67810833 0.6055368 1.294548
0.5586155 0.93004173 0.9324213 0.545128 0.4300621 0.955861 0.9249063 0.7073412
0.61373264 0.54982513 0.8934796 0.94987816 0.67635685 0.7231844 0.8349808 0.5407887
0.5465247 0.77587754 0.8977635 0.8243159 0.8307559 0.67645526 0.51104474 0.6174341

encoder.4.block.5.bias f4 [40]
00000000: 4ad8 d6be 70bd 813d e40d 8fbe 3193 49be
00000010: e98d 583d c428 4ebe 4afb 72be e292 91be
00000020: 6ef7 0a3e 4cb0 9abe cd2c 9e3d 5f30 1ebe
00000030: 9602 abbe 7dcb a93b 8073 93bd 8840 84be
00000040: aa16 80be 5dfa ae3c 9ebb 2b3e 2cab dfbd
00000050: 1ccf f6bd f09e 8c3d 784b 323d e3dc d2bd
00000060: 138e 91be 0028 cdbd 192c b73d bdcf e13d
00000070: 0e24 0ebe c3ab d0bd 9ce7 7abe d986 abbd
00000080: 08c2 05be 9d97 7fbe 6748 acbd ef1a 9cbe
00000090: 097a 8fbe fccc d3bd f9b3 a6bc 0658 4bbe
-0.4196189 0.063349605 -0.27940285 -0.19685055 0.05286971 -0.20132738 -0.23728672 -0.28432375
0.1357095 -0.3021263 0.07723389 -0.1544814 -0.3340041 0.0051817284 -0.07199764 -0.25830483
-0.2501729 0.021359617 0.16770789 -0.1092132 -0.12051222 0.068662524 0.043529004 -0.10296037
-0.28428707 -0.10017395 0.08943958 0.11025951 -0.13880941 -0.10189011 -0.24502414 -0.083753295
-0.13062298 -0.2496018 -0.08412247 -0.304893 -0.28022793 -0.10341832 -0.02034949 -0.19857797

encoder.4.block.5.running_mean f4 [40]
00000000: ef82 89be 1173 1b3f 95aa 5fbf 7d36 46be
00000010: 4ca1 6b3e 25c5 8fbe 6504 5ebf 16fc 0ebf
00000020: 39dd 7a3d 84d7 99be e6de 2c3f 5546 903e
00000030: b206 843e f21a 273f e9f7 10bf e51d 4fbe
00000040: d58a 92be 157a e03e 3f2f 7a3f b540 023f
00000050: a05a 1f3d 4eee 213f 798a be3e e3ec a03d
00000060: 7882 05bd ea39 c2be b54a 133f 50c6 2a3f
00000070: 3afa a6be 25c0 25bf 00c8 3dbf 9b5c 583e
00000080: 6088 6d3c 006a bfbe 74d5 dcbe 2510 f0be
00000090: 1bb3 d4be 02e1 4cbe b0e8 cb3e f400 adbe
-0.26857707 0.6072245 -0.8736966 -0.19356723 0.23010749 -0.28080097 -0.86725456 -0.558534
0.06124613 -0.30047238 0.67527616 0.2817866 0.25786358 0.6527549 -0.5662828 -0.20226248
-0.28621545 0.4384314 0.9772834 0.50879985 0.038904786 0.6325425 0.3721502 0.078576826
-0.032595128 -0.3793481 0.5753587 0.6670885 -0.32612783 -0.64746314 -0.741333 0.21129076
0.014497846 -0.3738556 -0.43131602 -0.46887317 -0.41542897 -0.20007709 0.39825964 -0.3378979

encoder.4.block.5.running_var f4 [40]
00000000: 6d31 6a40 01dc 8340 6498 9940 7c2a 5d40
00000010: 7e27 c83f 38d4 9e3f 51d3 0840 94a9 e740
00000020: d18c a23f 9ded bf3f 2e02 3c40 932b ad3f
00000030: 864b fd3e f667 4240 9d28 af40 f731 fa3e
00000040: f046 823f 624d ee3f ebdb 5740 6686 ae3f
00000050: 67e1 ec3f e31e a940 a2fe 2b3f d174 7640
00000060: 8707 5840 7184 f13e 9ccc 5540 bd9d e740
00000070: bc65 d13f 5626 903f bbfb 3f40 7c54 d040
00000080: 9f78 c23f da2f b03f 5219 9740 3650 1540
00000090: 11f2 a53f 08d4 623f 3df4 9b40 88eb cf3f
3.6592667 4.120606 4.7998524 3.455718 1.5637052 1.2408514 2.1378977 7.2394505
1.2699224 1.4994389 2.937633 1.3528923 0.49471682 3.0375953 5.4737077 0.48866245
1.0177898 1.8617365 3.3727977 1.3634765 1.8506287 5.2850204 0.67185414 3.85088
3.3754594 0.47171357 3.3406134 7.238005 1.6359172 1.1261699 2.9997394 6.510313
1.5193061 1.3764603 4.721841 2.3330207 1.2964498 0.88604784 4.8735642 1.6243753

encoder.5.block.1.weight f4 [40, 40, 3, 3]
00000000: 81af 3b3e 65ba 04bd ff9d 21bd ecd8 87bd
00000010: fe1b 433b 9521 e9bd cfc4 173e fd02 66bd
00000020: 4930 1a3d f81c a23c 06b8 5dbb 3c52 1cbc
00000030: 5c2c 19bd 4a40 1d3e 47d3 513c c1cf bcbc
00000040: 92c4 853d f3be c5bc 09d0 05bd 4afc af3d
00000050: 54f0 e53c 76ca 5fbd 30e5 99be cbfa a33d
00000060: 01e1 b0bd a456 10bb 8136 2bbd fc6c f43c
00000070: 1a68 4b3c a4f4 7a3a c310 a53d 02d1 47bc
00000080: 15ae bdbd 965b 103d 384c 3cbc c8c0 8a3d
00000090: 3208 4b3d 26e1 823b 78f4 9abb 4bd2 4c3d
000000a0: 3cb8 20be 10e6 453d 7616 263c 7992 4dbd
000000b0: 932d 183b 2179 0dbd 502b 12bd e7d8 ad3d
000000c0: d7bf 53bc d5b5 45be 0395 95bd 57c6 bdbc
000000d0: 9467 cb3d b732 6b3d 73f7 31bd eea8 293e
000000e0: a8bf 80bc 6b5e c1bd 11de 73be 1b6f f7bd
000000f0: a62b 133d 80f0 b8bd 9d2e f5bb fdaa 093d
00000100: 0f5e 09bd ac27 3abc a08b 3abc 34cf 29be
00000110: 7221 f9bd 3f19 51bb 91ee f73c 5ab6 d2bb
00000120: 5fd8 d53c f1b1 debc b895 adbd 760b f13c
00000130: a97b 41be 4a70 05bd 942a 3c3d 4ca5 3fbd
00000140: 00c0 fcbb fa84 7e3c 9ef4 2c3d 3053 093d
00000150: fc68 ee3c 5e52 d63c 903c a13d 5cb9 53bd
00000160: 5c0a e03c d900 2c3d bdf1 3bbc 190f 58bc
00000170: a789 b23c 2155 5d3b 542e 203e 15c8 c93c
00000180: 8898 df3c 441f 843a 3da1 be3d e04b d4bb
00000190: fa19 293d 7ce8 0a3c 40ff 15bd 1ab4 9fbe
000001a0: 9589 b53c 6449 b2bc e647 71bd 705e 8ebc
000001b0: 4cbe 3f3d e0d8 18bd 59c8 223b dbb6 e63d
000001c0: a130 25be 6a3c 133e 666b 14bd 07c2 7f3d
000001d0: de55 72bd 5e71 3dbb db94 133d 4a1b 6e3d
000001e0: ee17 bebc 5e2d f83b 4506 1dbd c765 ae39
000001f0: d16d 1c3d 6849 a8bc b8eb 8fbd abac 89bd
00000200: 1eba 06bd 7a62 8b3c b7f1 613e 66ba 1abd
00000210: fa25 333c 797c 6f3d 2aa8 073d 9cf5 0839
00000220: 275c 943c 12cc b73c 0363 35ba 042e 69bc
00000230: f0d7 c93b 2a65 2d3c f582 0ebc aa7d 553c
00000240: fedf 28be e321 3e3c 4d33 d93c 9580 143d
00000250: c8eb 3abe 4b5b 34bc 00cc 8e3c 803e 193c
00000260: aa60 1a3d e645 ed3c 9c8a 4b3d 75e1 be3c
00000270: f974 9abd 2722 d6bd 7a84 3d3d 0967 933c
00000280: b042 8abc 1e39 a1bc d116 c0bc 93d2 f4bc
00000290: 2ba1 f3bc a4d1 523c fae3 d53e 04c2 61bd
000002a0: 4cf6 28bb 53bc 2c3c 4d8e 91bc a8e1 6e3d
000002b0: 8d06 a7bd 6f75 b3bd 606e b53c 76a8 bebd
000002c0: 358b 813b 7e2f de3c 1493 fbbc 1d3b 04bb
000002d0: 92d5 38bd 4bc5 2dbc 016f 4c3c efa3 f4bc
000002e0: 3d98 05be bf9d b9bd a89b 6abd 9ed7 4c3d
000002f0: d3c4 45bd 3259 89bc a619 853a 33cc 843c
00000300: 7123 8c3d 4964 903e a0fc 5f3d f0ff 40bd
00000310: c497 b5bc 493e 26bd 9c23 6c3c caae 173d
00000320: 108e 003c 81e9 02bb f411 2cbd 262e 1abc
00000330: 393b f63c 73f9 c2bc 7375 19bc fbb7 5fbd
00000340: f41e a43c 9882 903d cccd 4abd 2a86 993d
00000350: 3b16 56bd 6c5b fc3b 55ef 22bb d1c1 163d
00000360: 6e64 8e3c 2026 623d bf62 943d 5abe aebc
00000370: 2796 96bb 49bd 66bd c368 213d a9c8 adbd
00000380: 1367 8d3d 87a0 47bd b0e8 90bd 4b8f 443d
00000390: 9bc2 073d 250e a4b9 e8f7 71bc 3b94 9dbd
000003a0: f59a a83b 4239 1e3d a963 9bbc 5b98 a23c
000003b0: 7f27 20bd f45f 8dbc c957 803e 3b19 b2bb
000003c0: 44f0 4cbd fbbc 31bd 7643 2f3d f873 8e3d
000003d0: f662 51bb 49e0 173d ffea 9bb4 6e6c 113e
000003e0: 8f1e afbc 7c97 4c3d 4391 2c3d f18b 7bbd
000003f0: 9fbf f4bc c530 e9bc 8c65 0b3d 4564 d4ba
0.18328668 -0.032404322 -0.039457317 -0.066331714 0.0029771323 -0.113833584 0.1482117 -0.056155194
0.037643705 0.019789204 -0.003383161 -0.009541091 -0.03739582 0.15356556 0.01280672 -0.023048284
0.065316334 -0.024138903 -0.0326691 0.08593042 0.028068699 -0.05463644 -0.3005767 0.08006819
-0.08636666 -0.0022024298 -0.041800026 0.029837124 0.012414956 0.00095731975 0.08059838 -0.012195827
-0.09261719 0.035243593 -0.011492781 0.06775051 0.049568363 0.003994125 -0.00472885 0.05000524
-0.1569528 0.048315108 0.010137191 -0.050188515 0.0023220524 -0.034539346 -0.035685837 0.084886365
-0.012924156 -0.19307645 -0.07303812 -0.023165865 0.09931865 0.057421412 -0.043448877 0.16568348
-0.015716389 -0.09441837 -0.2381518 -0.120817386 0.0359303 -0.09030247 -0.0074823634 0.033610333
-0.033536967 -0.011361998 -0.011385828 -0.16582948 -0.12164582 -0.0031905917 0.030265125 -0.0064304294
0.02610415 -0.027184458 -0.08475822 0.02942441 -0.18894829 -0.03257779 0.045939043 -0.0467885
-0.007713318 0.015534634 0.042225473 0.0335266 0.029102795 0.026162323 0.078728795 -0.051690444
0.02734869 0.041992996 -0.011471209 -0.013187193 0.021794153 0.0033772665 0.15642673 0.02463154
0.027294412 0.0010080119 0.093080975 -0.0064787716 0.04128454 0.00847828 -0.03662038 -0.31192094
0.02216033 -0.021763511 -0.05890646 -0.017379016 0.04681234 -0.037316203 0.0024838655 0.11265346
-0.16131832 0.14378515 -0.036235236 0.0624409 -0.05916392 -0.0028906683 0.03603063 0.058131494
-0.02320477 0.0075737676 -0.038336057 0.00033263696 0.038190667 -0.020542815 -0.07027382 -0.06722387
-0.03289234 0.01701473 0.22064863 -0.03777542 0.010934347 0.058468316 0.033119358 0.00013061467
0.018110348 0.022436175 -0.0006919356 -0.014232162 0.006159775 0.010583201 -0.008698215 0.013030449
-0.16491696 0.011604759 0.02651372 0.036255438 -0.18254006 -0.011008094 0.01743126 0.00935328
0.037689842 0.028963994 0.049692735 0.023300866 -0.07541842 -0.10455733 0.046268918 0.017993467
-0.016877502 -0.019680556 -0.02344838 -0.029885566 -0.029739937 0.012867365 0.41775495 -0.05511667
-0.002578157 0.010542947 -0.01776805 0.05832067 -0.08155546 -0.08762633 0.022147357 -0.09309475
0.0039533623 0.027122255 -0.03070978 -0.0020176836 -0.04512555 -0.01060612 0.012477637 -0.029863326
-0.13046356 -0.09063291 -0.05727735 0.050010316 -0.04828341 -0.016766164 0.0010154739 0.016210651
0.068426974 0.28201512 0.05468428 -0.04711908 -0.022167094 -0.040586744 0.014412787 0.037031926
0.00784637 -0.0019975605 -0.04200931 -0.009410417 0.030057536 -0.023800587 -0.009366381 -0.054618817
0.02003429 0.07056159 -0.04951267 0.07496293 -0.052267294 0.007701328 -0.0024861891 0.03680593
0.017381873 0.05521214 0.07245397 -0.021331001 -0.0045955363 -0.05633286 0.03940655 -0.084855385
0.069044255 -0.048737075 -0.070756316 0.047988217 0.033144575 -0.00031291056 -0.014768578 -0.07694288
0.0051454254 0.038628824 -0.01896842 0.01984804 -0.039100166 -0.017257668 0.25066975 -0.0054351366
-0.050033823 -0.043393116 0.042788945 0.06955713 -0.0031949854 0.03707913 -2.9041982e-07 0.14201519
-0.021376876 0.049949154 0.04213072 -0.061412755 -0.029876528 -0.028465638 0.03403239 -0.0016204199

encoder.5.block.1.bias f4 [40]
00000000: 5e0a 6739 81b1 693b 889f f339 22f7 313b
00000010: 9e86 d53a 727d b63a 3125 d83a 654a db3a
00000020: e17a 0938 1007 d13b 97ca 823b e343 653b
00000030: 1f29 ae3a 8ef1 d4bb c5be 54ba 2521 213b
00000040: 8855 0e3b b379 c13b c3b0 7f3b ddad a63b
00000050: b676 3f3b 374c 80ba 016b 8bb9 7867 a33b
00000060: 2c7e 963a 20ee c83a b074 1a3b 6b9f c63a
00000070: dd2c d73a 65f9 9238 8480 e839 6f9d 8239
00000080: d982 a33a bfe8 0d3b 89d0 a23b c376 833b
00000090: 0073 a33b 9714 353b 723d 2b3a 63f6 d93a
0.00022033739 0.003565878 0.00046467432 0.002715536 0.0016290729 0.0013922884 0.0016490576 0.0016730545
3.2777785e-05 0.0063790157 0.0039914357 0.003498309 0.0013287402 -0.006498522 -0.0008115585 0.0024586406
0.002171846 0.0059044003 0.003901527 0.005086644 0.0029215044 -0.0009788339 -0.0002659187 0.0049866997
0.0011481694 0.0015329756 0.0023568086 0.0015153711 0.0016416569 7.008276e-05 0.0004434624 0.0002491283
0.0012474909 0.002165362 0.004968707 0.0040119602 0.0049880743 0.002763068 0.00065322884 0.0016629215

encoder.5.block.2.weight f4 [40]
00000000: 261f 673f 6e5e 8c3f 455a 8d3f b5e2 573f
00000010: 1af6 7e3f 9610 7c3f ba97 693f de85 873f
00000020: ae74 7b3f fe27 a13f 4c0d 563f 139e 5c3f
00000030: 16ba 823f 6a06 333f 6e34 8b3f 18e8 813f
00000040: 859e 543f fedd 523f 2f1b 503f b947 a33f
00000050: 2de3 6d3f a48c 853f 9d88 853f 99d6 953f
00000060: 338c 7c3f 272d 5d3f 09a6 5f3f 32ca 813f
00000070: bdc4 743f e283 863f 21b8 8d3f 8d08 373f
00000080: 1eac 653f 49fb 5b3f ca4e 813f ff79 7c3f
00000090: d97f 423f a41f 5b3f 11c9 743f c29f 883f
0.90281904 1.0966318 1.1043173 0.843303 0.9959427 0.9846281 0.9124714 1.0587728
0.98224914 1.259033 0.8361404 0.861787 1.0213039 0.6993166 1.0875375 1.0148954
0.8305438 0.82369983 0.8129148 1.2756263 0.9292477 1.0433545 1.0432316 1.1706115
0.9865143 0.8639702 0.87362725 1.013983 0.956127 1.0508997 1.1071817 0.7149742
0.89715755 0.85930306 1.010217 0.9862365 0.7597633 0.85595155 0.95619303 1.0673754

encoder.5.block.2.bias f4 [40]
00000000: 6d35 d03e 2768 97be 9f59 cabe 8796 863e
00000010: 9620 6dbe 4fb5 b53d 5b12 223c 43be 97bd
00000020: 9379 373c 6cc8 74bd e4ef 743e 4c29 9b3e
00000030: 85b0 9dbe 8713 1cbe f13a 2dbe c6fe a73e
00000040: 050f ac3e 0311 813e bfc1 c13e 0e9b 803e
00000050: b5b5 8bbe 6fe9 983d 1869 b23e 850a 523d
00000060: 23b7 8cbe 106f ae3d 2351 3f3f 48e7 a83c
00000070: 883a 96be 32e4 41be 7fd1 683e cd40 dabe
00000080: 19fe 853e e3d9 d23d 86c3 17bd ec90 893c
00000090: 97d2 873e 4248 583e a88b bebd 559b 4d3e
0.4066576 -0.2957165 -0.395215 0.26286718 -0.23156962 0.088724725 0.009892072 -0.074093364
0.011198419 -0.05976145 0.23919636 0.30304945 -0.30798736 -0.15241824 -0.16917016 0.32811564
0.3360521 0.2520829 0.3784313 0.25118297 -0.2728707 0.07466399 0.34845805 0.051279563
-0.27483472 0.08517277 0.7473318 0.020618096 -0.2934153 -0.18934706 0.22736166 -0.42627564
0.26170424 0.10295465 -0.0370517 0.016792737 0.26527855 0.21121314 -0.09303981 0.20078786
