VQ-VAE/models/vqvae/model_92.pt (torch, 579012 bytes, 64 tensors)

encoder.0.weight f4 [40, 1, 4, 4]
0	0x3d385685	0.045004386
1	0xbc16ba7b	-0.009199734
2	0xbd15c9f7	-0.03656956
3	0xbda2b47d	-0.07944582
4	0xbd0c23d7	-0.034213867
5	0xbdfc119b	-0.123080455
6	0xbdca9064	-0.098908216
7	0xbdae76d0	-0.085187554
8	0xbd7f41a5	-0.062318463
9	0xbe2449a9	-0.16043724
10	0xbe541df3	-0.2071455
11	0x3d4de024	0.050262585
12	0xbd184d37	-0.037183013
13	0xbd2f2bea	-0.04276649
14	0x3dccc586	0.09998612
15	0x3d33f590	0.04393536
16	0x3d36a586	0.04459145
17	0x3d3be0f2	0.04586882
18	0xbda2d337	-0.07950442
19	0x3d970494	0.0737392
20	0x3daf3f1b	0.08556958
21	0x3e15c3f7	0.14625536
22	0xbd9b795e	-0.07591508
23	0x3d83f806	0.06443791
24	0x3d645251	0.055742566
25	0x3dbf0d57	0.09328716
26	0xbe152d73	-0.14568119
27	0xba9790f6	-0.0011563587
28	0x3d443d04	0.04790975
29	0x3db7b35c	0.08969757
30	0xbccc5a90	-0.024945527
31	0x3d884dd7	0.06655472
32	0x3db28da9	0.08718426
33	0x3db76739	0.08955235
34	0x3de39640	0.11112642
35	0x3dd624f2	0.104562655
36	0x3cf62e3b	0.030051341
37	0xbbad6788	-0.005291883
38	0xbb87c9f5	-0.004143948
39	0x3d93b305	0.0721188
40	0x3daf2a51	0.08552993
41	0x3d761d4c	0.060086533
42	0x3d49060c	0.049078032
43	0x3d878f99	0.06619186
44	0x3cf40ab3	0.029790258
45	0x3d3215b2	0.04347772
46	0x3c4b2fff	0.01240158
47	0x3c75c944	0.015001599
48	0xbbfa9ed2	-0.0076483274
49	0x3d6d78ed	0.057976652
50	0x3dcce7e9	0.10005171
51	0x3d83cdc5	0.06435732
52	0x3dbf3bfc	0.09337613
53	0x3dbfa12a	0.093569115
54	0xbd246600	-0.040136337
55	0xbd9620fc	-0.0733051
56	0x3de680e6	0.11255054
57	0xbd8fb3f3	-0.070167445
58	0xbd6fcef1	-0.058546964
59	0x3c1c3187	0.009533293
60	0x3dcc0310	0.099615216
61	0x3d313c3c	0.043270335
62	0x3d8dd08f	0.06924545
63	0x3cfdc5cd	0.030978108
64	0x3cf1338b	0.029443523
65	0xbc5049f8	-0.012712948
66	0x3cabc6d6	0.020968836
67	0x3b87d103	0.004144789
68	0x3c375759	0.011190259
69	0xbd1554d0	-0.036457837
70	0x3e062125	0.13098581
71	0x3c872ebb	0.016501775
72	0xbcc3d38a	-0.02390458
73	0xbe00dcb3	-0.1258419
74	0x3d474cce	0.04865723
75	0x3db93ee3	0.09045198
76	0x3d64d22d	0.0558645
77	0xbd74f73b	-0.05980609
78	0x3d0f3af7	0.034968343
79	0x3e06ae86	0.13152513
80	0xbd9c1931	-0.076219924
81	0xbd43c070	-0.047790945
82	0xbd05cd6f	-0.03266662
83	0x3cb6e330	0.022325128
84	0xbe00a921	-0.12564518
85	0xbd955d51	-0.07293189
86	0xbe1d52fe	-0.1536369
87	0x3d5e5764	0.05428256
88	0xbdd8fd0d	-0.105951406
89	0xbda62f4e	-0.081144914
90	0xbdec8224	-0.1154826
91	0x3da4d30a	0.08048065
92	0xbd961d98	-0.07329863
93	0xbd4930a5	-0.049118657
94	0x3d3bd006	0.045852683
95	0xb9c2e632	-0.00037174072
96	0xbc96113b	-0.018318763
97	0x3d7cbf76	0.06170603
98	0xbd26ec15	-0.04075249
99	0xbca69229	-0.020333366
100	0x3dbcd8f1	0.09221066
101	0x3cb702f0	0.022340268
102	0xbde501b8	-0.111819685
103	0xbd9343c6	-0.07190661
104	0x3d824adf	0.06361937
105	0xbe1f819d	-0.15576787
106	0xbd3e8c35	-0.04652043
107	0xbde5aef1	-0.11215008
108	0x3ca7cc22	0.02048308
109	0xbd97e017	-0.074157886
110	0xbd19f003	-0.03758241
111	0xbc48938b	-0.012242208
112	0x3c6743b3	0.014115262
113	0xbd3f9fff	-0.046783444
114	0xbdc99732	-0.09843291
115	0xbde09e59	-0.109677024
116	0xbd8194dd	-0.063272215
117	0xbd8282a1	-0.06372572
118	0xbe14f6ca	-0.14547268
119	0x3dee9643	0.11649754
120	0xbdeb9f99	-0.1150505
121	0xbd12b8dd	-0.03582083
122	0xbdf3a369	-0.118964024
123	0xbd0cf635	-0.03441449
124	0xbc5fa6e5	-0.013650631
125	0x3d9e58d2	0.07731785
126	0xbcd44466	-0.025911521
127	0xbcdd7baf	-0.027036516
128	0xbc2dbe18	-0.010604404
129	0xbd2dfbf0	-0.042476594
130	0x3c8ff2a3	0.017571753
131	0x3cc8d554	0.024515785
132	0xbdc99954	-0.09843698
133	0x3db52329	0.08844597
134	0x3e0b9a10	0.13632989
135	0x3cf5f525	0.03002412
136	0x3d304dab	0.04304282
137	0x3df6c4f3	0.12049284
138	0xbd7abb81	-0.061213974
139	0xbd46ddb8	-0.04855129
140	0x3dc218ba	0.094773725
141	0x3de76bb9	0.11299843
142	0xbca820cf	-0.020523457
143	0x3d0cfc59	0.034420345
144	0x3d022964	0.031777754
145	0x3da1eae6	0.079061314
146	0x3d254432	0.04034824
147	0x3d1009d8	0.035165638
148	0xbd84b408	-0.06479651
149	0xbcd40202	-0.025879864
150	0xbdeb2a5b	-0.11482688
151	0xbc846d4e	-0.016165402
152	0xbe0352f7	-0.12824617
153	0xbde9c018	-0.11413592
154	0xbe07f7d9	-0.1327814
155	0x3cfad792	0.03062037
156	0x3d01995d	0.0316404
157	0x3dbcd845	0.09220938
158	0x3da5e41f	0.08100151
159	0x3d40b736	0.047049724
160	0x3d82c06f	0.0638436
161	0x3cde328a	0.027123708
162	0xbd9c8c5a	-0.076439574
163	0xbd86e8e7	-0.06587391
164	0x3d639fbb	0.055572253
165	0x3d2ec407	0.042667415
166	0xbd09aac3	-0.033610117
167	0xbdc55aff	-0.09636497
168	0x3d48ae3f	0.0489943
169	0x3d256911	0.040383402
170	0xbd34fce7	-0.0441865
171	0xbe0c5f54	-0.1370824
172	0x3d8f26c9	0.069898196
173	0x3d4f94a6	0.05067887
174	0xbd885661	-0.066571005
175	0xbd8d6f6e	-0.06906019
176	0xbda2f7b8	-0.07957405
177	0xbceecc47	-0.029150141
178	0x3d114843	0.035469305
179	0xbc87c43a	-0.01657306
180	0x3c293ac8	0.010328956
181	0xbd7dc7d0	-0.061958134
182	0xbdefe631	-0.117138274
183	0xbdc0f01a	-0.09420796
184	0xbd306c1f	-0.043071862
185	0xbdead6c5	-0.11466745
186	0xbe5c3047	-0.21502791
187	0xbd5098c8	-0.050926954
188	0x3c8468de	0.016163286
189	0xbd81503d	-0.06314132
190	0x3c1056d6	0.008809766
191	0xbd81c1ad	-0.06335769
192	0x3c1f6980	0.009729743
193	0x3db48707	0.08814817
194	0x3da677de	0.081283316
195	0x3ca11f72	0.019668315
196	0x3bf57260	0.007490441
197	0xbd51eac2	-0.051249273
198	0xbd8ae9d3	-0.0678288
199	0xbe08d4a4	-0.13362366
200	0xbd7678ec	-0.060173914
201	0xbe0c8759	-0.13723506
202	0xbe2ed836	-0.17074665
203	0xbe1b0b00	-0.15140915
204	0xbc307a2c	-0.010771316
205	0xbd6280e1	-0.05529869
206	0xbc993b07	-0.018704904
207	0xbdab1a5d	-0.08354638
208	0xbd548d84	-0.051892772
209	0xbd9dcabe	-0.07704686
210	0x3cc80775	0.024417618
211	0x3d30a178	0.04312274
212	0xbda02489	-0.078194685
213	0xbe1031c2	-0.14081481
214	0xbdfc8f4f	-0.123320214
215	0xbca638c5	-0.020290742
216	0x3d3e6cdd	0.04649054
217	0x3d65ef99	0.0561367
218	0xbdc08afb	-0.094015084
219	0xbe00b372	-0.12568453
220	0x3d100735	0.035163123
221	0x3db1d16e	0.08682524
222	0x3d05051e	0.032475583
223	0xbcdd3b21	-0.027005734
224	0x3c95a866	0.018268775
225	0x39c8f0a7	0.00038326273
226	0xbc235807	-0.009969718
227	0x3d4cd918	0.050011724
228	0x3d29ccb3	0.041454982
229	0xbd7898cc	-0.060692593
230	0xbd42dc1e	-0.0475732
231	0x3cc3f105	0.023918638
232	0x3c4632d1	0.0120970765
233	0x3d814c39	0.063133664
234	0x3e45141f	0.19245957
235	0x3e2331c1	0.15936948
236	0x3c0ee1d3	0.008720833
237	0x3d981d8b	0.0742751
238	0x3dda075c	0.10645935
239	0x3d1f30f6	0.038865052
240	0x3d58544f	0.052814778
241	0xbd8a71fb	-0.06760021
242	0xbda58e81	-0.08083821
243	0x3b408659	0.0029376952
244	0xbdad2e5f	-0.0845611
245	0xbd4ad981	-0.049523834
246	0xbd7c6a8b	-0.061625045
247	0xbd656220	-0.056001782
248	0xbd9b9aa2	-0.07597853
249	0xbdc52465	-0.09626082
250	0xbcd2576f	-0.025676457
251	0xbd68c192	-0.056825228
252	0x3ce8fdd2	0.028441343
253	0xbd3c442a	-0.045963444
254	0xbdb130ab	-0.08651861
255	0x3c2793cb	0.010228108

encoder.0.bias f4 [40]
0	0xba98a29d	-0.0011645142
1	0xbb033df0	-0.0020025931
2	0xbb6296cf	-0.0034574752
3	0xbb173872	-0.0023074416
4	0xbbe0822a	-0.0068514543
5	0xba161a83	-0.00057259965
6	0x3b58ee8f	0.0033101176
7	0xba5f824f	-0.00085261924
8	0xbba59a8c	-0.005053824
9	0x3b777354	0.003775795
10	0x3aab89bc	0.0013087313
11	0xbb0767e8	-0.0020661298
12	0xbb3f7a78	-0.0029217284
13	0xba946422	-0.0011321346
14	0xbb0fa2ba	-0.002191706
15	0x3ad01c84	0.0015877639
16	0x3a77c9b7	0.000945236
17	0xbb02afc9	-0.0019941202
18	0xb9ea8bf6	-0.00044736237
19	0xbad0f706	-0.0015942759
20	0xbbd75f22	-0.00657262
21	0xbab06f77	-0.0013460953
22	0xbaf17045	-0.00184203
23	0xbb97348e	-0.0046144193
24	0xba801c49	-0.0009774055
25	0x3b680463	0.0035403005
26	0xb9d59402	-0.000407368
27	0xb998f22c	-0.0002917213
28	0x3b443640	0.0029939562
29	0xba8f545a	-0.0010935173
30	0x3be6a5ca	0.0070388066
31	0xbac1808c	-0.0014763041
32	0xb9dd3541	-0.00042192082
33	0xbbfdeadf	-0.007748946
34	0x3bcba4ee	0.0062147295
35	0xba4789a9	-0.00076117605
36	0xba82121b	-0.0009923609
37	0xbbbfffba	-0.0058593424
38	0xbb919d98	-0.0044438355
39	0x3ab9f83d	0.0014188361

encoder.1.weight f4 [40]
0	0x3f2c59e0	0.6732464
1	0x3ee3c6f5	0.4448773
2	0x3f1b969f	0.60776705
3	0x3ecf2484	0.40457547
4	0x3f0b2c48	0.5436444
5	0x3f50c0ed	0.8154438
6	0x3f2a23fb	0.6646115
7	0x3f31d9af	0.69472784
8	0x3f05d7ac	0.52282214
9	0x3f16d839	0.5892368
10	0x3f3753ce	0.7161225
11	0x3f2e2627	0.68026966
12	0x3f454d23	0.77070826
13	0x3f3142f5	0.69242793
14	0x3ef1c6ed	0.4722208
15	0x3f4fb6a1	0.81138045
16	0x3f1b3b46	0.6063732
17	0x3f422d73	0.758506
18	0x3f239746	0.639027
19	0x3f407af5	0.7518762
20	0x3ee94ffd	0.4556884
21	0x3f37d88d	0.71814805
22	0x3f0285ee	0.5098561
23	0x3f0dec6c	0.55438876
24	0x3eaa7bbe	0.33297533
25	0x3f182f6d	0.59447366
26	0x3f191239	0.5979343
27	0x3ea79883	0.32733545
28	0x3f21a259	0.6313835
29	0x3f13a69b	0.57676095
30	0x3f3a863b	0.7286107
31	0x3f416c70	0.7555609
32	0x3f3a40cd	0.7275513
33	0x3f24f751	0.64439875
34	0x3f49820f	0.7871408
35	0x3f086ff0	0.53295803
36	0x3f4865e9	0.782805
37	0x3f6ac909	0.91713005
38	0x3f62ceea	0.88596976
39	0x3f1b01b0	0.6054945

encoder.1.bias f4 [40]
0	0xbd94f363	-0.07272985
1	0xbd1ea769	-0.038733874
2	0xbce33975	-0.027737359
3	0xbbb66d4b	-0.005567228
4	0x3d785502	0.060627945
5	0xbe09ae28	-0.13445342
6	0xbe69352a	-0.22774187
7	0xbe6b2603	-0.22963719
8	0x3e064194	0.13110954
9	0x3c830494	0.015993394
10	0xbe2f9ce2	-0.1714969
11	0xbe0a9be6	-0.13536033
12	0xbe55f7c7	-0.20895301
13	0xbe3de734	-0.18545228
14	0x3e3aa1c5	0.18225773
15	0x3cbdce21	0.023169579
16	0x3c6633f8	0.014050476
17	0xbe2d1e99	-0.16906203
18	0xbe2582e0	-0.16163206
19	0xbe518056	-0.20459113
20	0xbcf8267a	-0.030291785
21	0xbe17a513	-0.14809065
22	0x3e1dd4a3	0.15413146
23	0xbd9df7ce	-0.077132806
24	0xbc289e28	-0.010291614
25	0xbe21624e	-0.15760157
26	0x3e0ab1e6	0.13544425
27	0x3da07c5a	0.07836218
28	0xbe10903d	-0.14117523
29	0xbd1819ec	-0.037134096
30	0xbe390f8c	-0.18072337
31	0xbe72f3f3	-0.23725872
32	0xbe2c1fb9	-0.16808976
33	0x3e373472	0.178911
34	0xbe0ce70f	-0.13760017
35	0xbe2f8928	-0.17142165
36	0xbe50f2ab	-0.2040507
37	0xbe839655	-0.25700632
38	0xbe928752	-0.28618866
39	0xbdc1a204	-0.0945473

encoder.1.running_mean f4 [40]
0	0x3f0a2bb4	0.53972936
1	0xbea30035	-0.31836095
2	0xbf11dcbe	-0.5697745
3	0xbeae8ad2	-0.34090286
4	0xbe551a4e	-0.20810816
5	0x3f049084	0.51783013
6	0x3ea4bd61	0.32175735
7	0x3ef8352f	0.48478076
8	0xbe9a7fb6	-0.3017556
9	0x3e02fd08	0.12791836
10	0x3e0502a5	0.1298929
11	0x3f1ef8a5	0.6209815
12	0x3f059eda	0.52195513
13	0x3e9a4993	0.30134258
14	0xbeebe8f7	-0.46076176
15	0x3efd81b4	0.49513018
16	0xbe79ef34	-0.24407655
17	0x3f1eecd9	0.6208015
18	0x3ebed56e	0.3727221
19	0x3eb06f11	0.34459737
20	0xbe9138dd	-0.28363696
21	0x3e7f35ec	0.24922913
22	0xbe703aaa	-0.23459879
23	0x3e9348e1	0.2876654
24	0xbd8578b5	-0.06517164
25	0x3e05046e	0.12989971
26	0xbe7b72b3	-0.24555473
27	0xbdbbfd9d	-0.09179232
28	0x3e1f945b	0.15583937
29	0x3e453294	0.19257575
30	0x3e82388a	0.2543376
31	0x3e9f5c14	0.31124938
32	0x3e9f51b6	0.31117028
33	0xbe80ed73	-0.2518116
34	0x3ec0307b	0.37536988
35	0xbe9d54be	-0.30728716
36	0x3f12c15d	0.573263
37	0x3f0d7200	0.55252075
38	0x3f4379bc	0.76357627
39	0x3dec7444	0.115456134

encoder.1.running_var f4 [40]
0	0x3e2cf6c0	0.16891003
1	0x3d4d4ad0	0.050120175
2	0x3e010624	0.12599999
3	0x3d7c6ccb	0.06162719
4	0x3cf93f22	0.030425612
5	0x3e1cc23d	0.15308471
6	0x3da572c1	0.08078528
7	0x3de0d78c	0.10978612
8	0x3d73c283	0.059511673
9	0x3d195b96	0.03744086
10	0x3d8ba0ef	0.06817805
11	0x3e27eaac	0.16398114
12	0x3e2c76a2	0.1684213
13	0x3d4cf11b	0.050034624
14	0x3ddfe5a2	0.10932471
15	0x3dd1aa24	0.1023753
16	0x3d7a84ff	0.06116199
17	0x3e45e11a	0.1932415
18	0x3dc58ea1	0.09646345
19	0x3d9b104c	0.07571468
20	0x3d248b1a	0.04017172
21	0x3d734f89	0.059402023
22	0x3cf77d54	0.030211128
23	0x3d8ed296	0.0697376
24	0x3cde1fdc	0.027114801
25	0x3d8a7e29	0.067623444
26	0x3d498d31	0.049206916
27	0x3d156122	0.036469586
28	0x3d36c16e	0.044618063
29	0x3d3d0af1	0.046153013
30	0x3d7bd37f	0.061480995
31	0x3d8fb9c0	0.07017851
32	0x3d8575d3	0.06516614
33	0x3d4ba72f	0.049719986
34	0x3d7f9d93	0.062406134
35	0x3db75a1d	0.089527346
36	0x3e34e329	0.1766478
37	0x3e197060	0.14984274
38	0x3e85ac5a	0.26108056
39	0x3ca2da4e	0.019879486

encoder.3.weight f4 [40, 40, 4, 4]
0	0x3a0032bc	0.00048903725
1	0x3c6910e8	0.014225222
2	0xbc093f8a	-0.008376965
3	0xbcb2a5c5	-0.02180756
4	0xbd68432c	-0.056704685
5	0xbde8048f	-0.113289945
6	0x3baae3ab	0.0052151284
7	0x3d413514	0.04716976
8	0xbc972cab	-0.018453917
9	0x3c03684e	0.008020474
10	0x3ba8810e	0.0051423376
11	0x3d529631	0.051412765
12	0x3d9c5c1d	0.07634757
13	0x3d370433	0.04468174
14	0x3cef9bce	0.029249098
15	0xbbd0b463	-0.00636916
16	0x3c05f910	0.008177057
17	0x3c3b02f3	0.011414277
18	0x3d02ddfb	0.03194998
19	0x3cc85d31	0.0244585
20	0xbca21202	-0.019783977
21	0xbd171566	-0.03688564
22	0x3d13f1ab	0.036119144
23	0x3d77499f	0.060372945
24	0xbbb8bc6d	-0.0056376965
25	0xbc259a61	-0.010107608
26	0x3ce19ae4	0.027539678
27	0x3dcc2cce	0.09969483
28	0x3b04f791	0.0020289163
29	0xbb8782fa	-0.0041354867
30	0x3ce7e3bf	0.02830684
31	0x3cf4de28	0.029891089
32	0xbcd86939	-0.026417362
33	0xbcc00e71	-0.023444386
34	0xbbb39e95	-0.005481551
35	0xba5f68f8	-0.00085224165
36	0x3cf3617b	0.029709568
37	0xbd067644	-0.03282763
38	0xbdbe4043	-0.09289601
39	0x3c761745	0.015020196
40	0x3d109b61	0.03530443
41	0xbd108305	-0.0352812
42	0xbdd89d98	-0.105769336
43	0xbd1af668	-0.037832648
44	0x3d956b76	0.07295887
45	0xbdd9846d	-0.10620961
46	0xbdc6b588	-0.09702593
47	0xbd2f91ee	-0.04286378
48	0x3cb40d4a	0.021978993
49	0xbc6db1d2	-0.014507728
50	0xbc9338d9	-0.017971443
51	0x3c49cced	0.0123169245
52	0x3d889dbc	0.066707104
53	0xbd807820	-0.06272912
54	0xbc9db55f	-0.019251524
55	0x3ace895e	0.0015757491
56	0x3d16f25a	0.03685222
57	0xbd16cba1	-0.03681529
58	0x3cf0836c	0.029359542
59	0x3d0d6782	0.03452254
60	0xb924c337	-0.00015712982
61	0x3cd3667c	0.025805704
62	0x3d055eb5	0.032561023
63	0x3cb6925f	0.022286592
64	0x3d75ca76	0.060007535
65	0x3d0def5b	0.034652095
66	0xbda1a781	-0.07893277
67	0xbc2376aa	-0.009977022
68	0x3c24a92f	0.010050102
69	0x3e18f4f7	0.14937197
70	0xbdb53e8f	-0.08849823
71	0xbd08518a	-0.033280887
72	0xbce81103	-0.028328424
73	0x3e3c2e3a	0.18377009
74	0x3c2c77d8	0.01052662
75	0xbbc567b6	-0.006024326
76	0xb931c181	-0.00016952121
77	0x3d3ab430	0.045581996
78	0x3c22287f	0.00989735
79	0xbcbdd3b5	-0.023172239
80	0xbc9344fb	-0.017977228
81	0x3aabb143	0.0013099093
82	0xbd217f6e	-0.039428167
83	0x3d6386ae	0.055548362
84	0xbde06392	-0.109564915
85	0xbbc6e8ea	-0.006070246
86	0x3d967ad4	0.07347646
87	0x3cfa4aa0	0.030553162
88	0xbdbd7788	-0.092513144
89	0x3df5c598	0.12000579
90	0x3d2d440b	0.04230122
91	0xbd396c31	-0.045269195
92	0xbc9f15d6	-0.019419592
93	0x3cac588b	0.021038314
94	0x3db20cd7	0.08693855
95	0x3cbd9b40	0.023145318
96	0xbbf46153	-0.007457891
97	0x3b86e44d	0.004116571
98	0x3d14b975	0.036309678
99	0x3c99c72e	0.018771734
100	0xbd8b8709	-0.06812865
101	0xbdb3de07	-0.08782583
102	0x3de456ac	0.11149344
103	0x3cf1ef8a	0.029533166
104	0x3cf6289f	0.030048667
105	0x3da047de	0.078262076
106	0x3c21b637	0.009870104
107	0xbb90df88	-0.0044211783
108	0xbc3bab2d	-0.011454386
109	0x3dee8ff1	0.116485484
110	0xbd14afb5	-0.03630038
111	0xbbf81842	-0.007571251
112	0xbca96991	-0.02068022
113	0x3c79e553	0.015252429
114	0x3d93e358	0.07221097
115	0x3ca65e4e	0.02030864
116	0xbc491897	-0.012273929
117	0xbb588217	-0.0033036524
118	0x3d2a926f	0.041643556
119	0x3dc22815	0.09480301
120	0x3d1a99e8	0.037744433
121	0x3d9bb143	0.07602169
122	0xbd005448	-0.031330377
123	0xbcc05629	-0.023478584
124	0xbe06e180	-0.13171959
125	0xbc17ac9d	-0.009257463
126	0x3e00b258	0.12568033
127	0x3d1f41a9	0.038880978
128	0xbbf02f75	-0.007329876
129	0xbd8a69a9	-0.06758434
130	0xbd618ab8	-0.055063933
131	0x3d245c57	0.040127125
132	0x3d932b05	0.0718594
133	0xbdd1b01e	-0.1023867
134	0xbd7971ef	-0.06089967
135	0x3d52b47d	0.05144166
136	0xbcb26b35	-0.021779636
137	0xbd4712a9	-0.04860178
138	0xbd0b5241	-0.03401399
139	0x3cb1aebb	0.021689763
140	0xbc5a16d9	-0.013311111
141	0x3d340a82	0.043955334
142	0xbcf16fc5	-0.029472241
143	0x3bd18201	0.0063936715
144	0xbc14d15d	-0.009083119
145	0xbc9fe0b7	-0.019516332
146	0xbd8368cc	-0.06416473
147	0xbc00b7ca	-0.007856319
148	0x3db23a8f	0.087025754
149	0x3b25708b	0.0025244083
150	0xbd77edad	-0.0605294
151	0xbd2aaf84	-0.04167129
152	0x3d830e64	0.06399229
153	0xbc8519c6	-0.016247641
154	0xbca981d6	-0.020691793
155	0x3de03da1	0.10949255
156	0x3cd55bde	0.026044782
157	0x3d3e6e67	0.046492007
158	0xbc12048a	-0.008912215
159	0xbd1f72af	-0.03892773
160	0x3c804b4e	0.015660908
161	0x3c370bc7	0.0111722415
162	0xbc141fcd	-0.009040785
163	0x3dadc9dc	0.08485767
164	0xbd39eee5	-0.045393843
165	0x3db4df5d	0.08831666
166	0x3d1c2c31	0.03812808
167	0x3c883c82	0.016630415
168	0xbdfcff5b	-0.12353393
169	0x3c2fd4d5	0.010731895
170	0x3df1f3b7	0.11814063
171	0x3c47c326	0.012192523
172	0xbbdbecfc	-0.0067116003
173	0x3c6c2657	0.014413438
174	0xbd09cb20	-0.03364098
175	0xbd14a80a	-0.036293067
176	0xbd985169	-0.07437403
177	0x3c95dafa	0.018292893
178	0x3d8c05ff	0.06837081
179	0x3d9ddae5	0.077077664
180	0x3d7ad3f3	0.061237287
181	0xbc6d85a9	-0.014497199
182	0xbd462277	-0.048372712
183	0x3d713240	0.058885813
184	0xbd38fa7b	-0.04516075
185	0xbdc58130	-0.09643781
186	0x3db9f560	0.09080005
187	0x3c13e021	0.009025604
188	0x3d149b0e	0.036280684
189	0xbd35a8df	-0.0443505
190	0x3d59b951	0.053155247
191	0x3dc65162	0.09683491
192	0xbd2c0f27	-0.042006638
193	0xbc81fa0a	-0.015866298
194	0xbc32fb9d	-0.010924247
195	0xbd07ad68	-0.033124357
196	0x3d3e7f06	0.046507858
197	0xbce8abc1	-0.028402211
198	0xba6ab127	-0.00089527894
199	0x3d1e05ff	0.038579937
200	0xbd9f0d3d	-0.07766197
201	0x3d82e149	0.06390626
202	0xbc1c0ce3	-0.009524557
203	0x3dabb344	0.083838016
204	0xbc9aa879	-0.018879162
205	0xbcfdf01a	-0.030998278
206	0x3d207e86	0.039183162
207	0xbc78fc1f	-0.015196829
208	0xbc44cafe	-0.012011288
209	0xbd4c6f29	-0.049910698
210	0x3d0cdb6d	0.03438895
211	0x3d45cc56	0.048290573
212	0x3e126c36	0.14299092
213	0x3e0f4fbf	0.13995264
214	0xbd073051	-0.033005062
215	0x3bab4d35	0.0052277097
216	0xbd67ab7a	-0.056560017
217	0xbd3a3f98	-0.045470804
218	0x3d864cbf	0.06557607
219	0x3dc1961c	0.09452459
220	0xbc3df1af	-0.011593266
221	0xbd47e09b	-0.048798185
222	0xbbf93310	-0.007604964
223	0x3cff639e	0.03117543
224	0x3d6adf5e	0.057341926
225	0xbd813ee1	-0.06310821
226	0xbd9e56b0	-0.07731378
227	0x3d5bfd68	0.053708464
228	0x3d2a48cc	0.04157333
229	0xbd6d2dfe	-0.05790519
230	0xbd0b448a	-0.03400091
231	0x3d600474	0.054691747
232	0x3d5025e1	0.050817374
233	0xbd1cca2f	-0.038278755
234	0xbdb904bc	-0.09034106
235	0x3cad66c5	0.021167168
236	0x3dad3d02	0.08458902
237	0x3cbc512b	0.022987923
238	0xbd40491a	-0.046944715
239	0x3d432bbf	0.04764914
240	0x3bbb6ab7	0.0057195085
241	0xbcfda41b	-0.03096204
242	0xbc02d9b8	-0.0079864785
243	0x3cf15a6b	0.02946206
244	0xbd6720da	-0.056427814
245	0xbe06d961	-0.13168861
246	0x3c9adedf	0.018905101
247	0x3d62eacb	0.055399697
248	0x3bb8ed4b	0.005643522
249	0xbd246e2f	-0.04014414
250	0xbd7f354e	-0.062306695
251	0x3d29310d	0.041306544
252	0xbd366b50	-0.044535935
253	0xbcb40e20	-0.021979392
254	0x3bd7f034	0.0065899137
255	0x3cabd295	0.020974437

encoder.3.bias f4 [40]
0	0x3c60fa31	0.013731525
1	0x3df350a7	0.118806176
2	0x3d8d9638	0.069134176
3	0xbc83424a	-0.01602282
4	0x3e0f2ba4	0.13981491
5	0x3d853797	0.065047435
6	0x3e7b04dd	0.24513574
7	0x3c50ec8f	0.012751712
8	0x3ba8c704	0.0051506776
9	0x3bcc9d92	0.00624437
10	0x3da01c3c	0.07817885
11	0x3db58231	0.08862723
12	0x3aae86ad	0.0013315283
13	0x3d113c8a	0.035458125
14	0x3d910d95	0.07082669
15	0x3dd352c5	0.103185214
16	0xbc4b601a	-0.012413049
17	0x3bce3dbb	0.00629398
18	0x3c584a1c	0.013201263
19	0xbc4776eb	-0.012174348
20	0x3ba32d2f	0.0049797515
21	0x3c10bacc	0.008833598
22	0x3e29386f	0.16525434
23	0x3d024e17	0.031812754
24	0xbd0f4326	-0.034976147
25	0x3dd314eb	0.10306724
26	0xbc968ee6	-0.018378686
27	0x3d34031b	0.043948274
28	0x3e1907bb	0.14944355
29	0x3d2ca51b	0.042149644
30	0x3c6f5efa	0.0146100465
31	0xbcbbad15	-0.02290968
32	0xbda3da13	-0.08000579
33	0xbceecf69	-0.029151635
34	0xbd13ec31	-0.03611392
35	0xbda19486	-0.07889657
36	0xbd63bc8d	-0.055599738
37	0xbd900a56	-0.070332214
38	0x3d28d65f	0.041220065
39	0x3c6abb48	0.014326878

encoder.4.block.1.weight f4 [40, 40, 3, 3]
0	0xbc4deb5f	-0.012568324
1	0xbd15db3a	-0.036586024
2	0x3d09fe36	0.0336897
3	0x3b222528	0.0024741385
4	0xbe27e6cc	-0.16396636
5	0xbd948887	-0.07252603
6	0xbc1db2c0	-0.009625137
7	0xbbc4e78a	-0.006009047
8	0x3d89464e	0.06702863
9	0xbda8375d	-0.08213685
10	0x3e0d8d47	0.13823424
11	0x3ddfbb24	0.10924366
12	0x3d1eeabe	0.038798086
13	0xbe44b394	-0.19209129
14	0xbb7a6071	-0.0038204456
15	0x3c4b010a	0.012390384
16	0x3d4b5190	0.04963833
17	0xbcf64585	-0.030062446
18	0xb91c1622	-0.00014885564
19	0xbcb42f26	-0.021995138
20	0x3d4780a7	0.048706677
21	0x3d749b8f	0.059718665
22	0xbcd7a0e5	-0.026321838
23	0x3d6f13eb	0.058368605
24	0x3d6b0543	0.057378065
25	0xbc864c35	-0.01639376
26	0x3bfac767	0.007653165
27	0xbdeaeb23	-0.1147063
28	0xbd0bcddb	-0.034131866
29	0xbce09993	-0.02741698
30	0xbd814811	-0.06312574
31	0x3d67b658	0.05657038
32	0xbd258644	-0.04041125
33	0x3deaf109	0.11471755
34	0xbe973215	-0.29530397
35	0xbca370b4	-0.019951202
36	0xbc893c12	-0.016752277
37	0xbd2cb4a0	-0.042164445
38	0x3875e5ff	5.8626752e-05
39	0x3d48fd2f	0.04906958
40	0x3e1e3055	0.15448125
41	0xbba5c8ee	-0.005059353
42	0x3d5b55e3	0.053548705
43	0xbd0f438f	-0.03497654
44	0xbb991ec4	-0.004672857
45	0xbba98e8e	-0.0051744645
46	0xbd61ea22	-0.055154927
47	0x3d27074e	0.04077845
48	0x3d4ed263	0.05049361
49	0xbc5d8d78	-0.013522498
50	0xbc8a7787	-0.016902698
51	0x3c98e33f	0.018663047
52	0xbca49044	-0.020088322
53	0x3b65f936	0.0035091168
54	0xbd37093f	-0.044686552
55	0x3d5bf3d0	0.053699315
56	0x3c5d3837	0.013502172
57	0x3ce6919c	0.028145604
58	0x3e42fd24	0.19041878
59	0x3c5987cd	0.013277006
60	0xbd5c029d	-0.05371343
61	0x3c910812	0.017704044
62	0x3bc51770	0.006014757
63	0x3ca879f7	0.02056597
64	0xbd5a357f	-0.053273674
65	0x3d523be4	0.051326647
66	0xbc34a76c	-0.011026245
67	0x3d95d902	0.073167816
68	0x3a83a6a5	0.0010044171
69	0xbc07a69a	-0.008279467
70	0xbd1b835c	-0.03796707
71	0xbbaa5273	-0.005197817
72	0xbd0701ab	-0.032960575
73	0xbc43df9d	-0.011955169
74	0xbcb57ea1	-0.022155108
75	0x3ce6f2d1	0.028191956
76	0x3d63759f	0.055532094
77	0xbd2fe400	-0.042942047
78	0xbd23cba5	-0.039989132
79	0xbdab9ecd	-0.08379898
80	0xbd7cadb4	-0.061689094
81	0xbd0fa225	-0.035066742
82	0x3dff9aa7	0.124806695
83	0x3d974704	0.07386592
84	0xbde2d3a1	-0.11075521
85	0x3d82cf3b	0.06387182
86	0x3d8add8e	0.067805395
87	0xbcad9382	-0.021188501
88	0x3d3b8e86	0.045790218
89	0x3d24f004	0.04026796
90	0x3c3bb8c2	0.011457624
91	0xbccfde18	-0.025374457
92	0xbc35be1e	-0.011092691
93	0xbd328fd6	-0.043594204
94	0xbcf1b9ff	-0.029507635
95	0xbd48d696	-0.04903277
96	0xbcff913c	-0.031197183
97	0xbd7b9841	-0.061424498
98	0xbd9d6b51	-0.076864846
99	0xbd208924	-0.039193287
100	0x3da3f618	0.08005923
101	0xbd40049d	-0.0468794
102	0x3a944266	0.0011311292
103	0xbceda2e7	-0.029008342
104	0x3d744c7f	0.059643265
105	0xbca05d33	-0.01957569
106	0x3d206c27	0.039165642
107	0x3c976814	0.018482246
108	0x3cb4de8d	0.022078777
109	0x3dc0fd1e	0.09423278
110	0xbcca6464	-0.024706073
111	0xbdce1836	-0.100632116
112	0x3df95de8	0.12176114
113	0x3aff3f88	0.001947389
114	0xbcdcc84a	-0.026950974
115	0xbc3cb9bc	-0.011518892
116	0xbd61524f	-0.055010136
117	0x3d8c548f	0.06852066
118	0xbd25df1f	-0.040495988
119	0x3d1aa637	0.03775617
120	0xbde341aa	-0.11096509
121	0xbe4d5a06	-0.20053872
122	0x3df8173f	0.12113809
123	0xbb155c48	-0.00227906
124	0x3bd71517	0.0065637934
125	0xbca2fad3	-0.019894993
126	0xbd99c36a	-0.075079754
127	0x3dc10d62	0.09426381
128	0xbd10ea4c	-0.035379693
129	0x3e6b8406	0.22999582
130	0xbea28920	-0.31745243
131	0x3d4d1a1c	0.050073728
132	0x3d8622eb	0.06549629
133	0xbc7db0f3	-0.0154840825
134	0x3c5f3196	0.013622662
135	0xbdb264ee	-0.08710657
136	0x3da96520	0.08271241
137	0x3c8d63be	0.017259475
138	0x3d8ce8e2	0.06880356
139	0x3c60913e	0.013706503
140	0x3c30ca21	0.010790379
141	0xbc9059a6	-0.017620873
142	0xbc88c790	-0.016696721
143	0xbd0a8a13	-0.033823084
144	0xbcdea521	-0.027178349
145	0xbd643005	-0.055709857
146	0xbdb145d0	-0.08655894
147	0x3da35f92	0.07977213
148	0xbd4e7409	-0.05040363
149	0x3d03afa1	0.032149915
150	0xbd8b83aa	-0.06812222
151	0xbd205f85	-0.039153595
152	0x3c84891f	0.016178666
153	0x3dddfb21	0.10838915
154	0xbd1e4f35	-0.038649756
155	0xbe03217f	-0.12805746
156	0xbd204ad0	-0.039133847
157	0x3d907807	0.070541434
158	0x3dce1405	0.10062412
159	0x3d0ac3ae	0.03387802
160	0xbd3401f5	-0.04394718
161	0x3cf21aad	0.029553736
162	0x3c01f084	0.007930879
163	0xbdd071bc	-0.10177943
164	0xbd35c748	-0.044379503
165	0x3b6beb3d	0.0035998367
166	0xbd84bc11	-0.06481183
167	0xbd15f2e0	-0.036608577
168	0x3cbbb903	0.022915369
169	0xbd1c35cc	-0.038137242
170	0x3b6d74ad	0.0036232874
171	0xbd2bda3e	-0.04195618
172	0xbb57928d	-0.0032893748
173	0xbd8b546d	-0.06803212
174	0xbcdac71c	-0.02670627
175	0x3cb599c9	0.022168057
176	0xbde45270	-0.11148536
177	0xbe297fd4	-0.16552669
178	0x3dd7305f	0.10507273
179	0x3cb79fdb	0.022415092
180	0xbc0e7514	-0.008694906
181	0x3dc44e2a	0.09585221
182	0xbe17c575	-0.14821418
183	0x3d9ecdd3	0.077541016
184	0xbd80a887	-0.06282144
185	0xbd893862	-0.06700207
186	0xbe8067de	-0.25079244
187	0x3cdaae27	0.02669437
188	0xbd75699f	-0.05991518
189	0x3c99355c	0.018702202
190	0xbe165afc	-0.14683145
191	0x3c3805e0	0.011231869
192	0xbd2f13f4	-0.04274364
193	0x3d3ed1ec	0.046586916
194	0x3e170280	0.14747047
195	0xbc821c72	-0.015882704
196	0x3d08b704	0.033377662
197	0xbd01848d	-0.03162055
198	0xbc8fe23b	-0.01756393
199	0x3b9d6315	0.0048030713
200	0x3a222e4f	0.000618671
201	0xbdab3881	-0.08360387
202	0x3e3de920	0.18545961
203	0x3bb5e21a	0.005550635
204	0xbd2531a7	-0.040330555
205	0xbcd7534d	-0.026284838
206	0xbd098dd3	-0.03358252
207	0x3cc52ab7	0.02406822
208	0xbe3a1873	-0.18173389
209	0x39d6eaa1	0.00040992073
210	0xbd5152f2	-0.051104493
211	0xbe68de2c	-0.22741002
212	0x3c18ccbf	0.009326159
213	0x3c4baca7	0.0124313
214	0x3d25963b	0.040426474
215	0x3d154c54	0.036449745
216	0x3d582a71	0.05277485
217	0x3d05f3c8	0.03270319
218	0xbd625bc6	-0.055263303
219	0xbe32b152	-0.17450455
220	0x3e30e53c	0.17274946
221	0x3da13314	0.078710705
222	0x3d9347af	0.07191407
223	0x3ce3e57b	0.027819386
224	0xbd016755	-0.031592686
225	0x3c28211c	0.0102618
226	0xba92ee19	-0.0011209875
227	0xbc92e43d	-0.017931098
228	0xbe081c4b	-0.13292043
229	0x3e873962	0.26410967
230	0xbd90e3db	-0.0707471
231	0x3c95d6d9	0.018290924
232	0x3d23bfde	0.0399779
233	0x3c223f40	0.009902775
234	0x3d3f58e3	0.04671563
235	0x3c5c4ebe	0.013446508
236	0xbc591ec4	-0.013251964
237	0x3d076a8e	0.033060603
238	0xbe3b76b1	-0.18306996
239	0xbd40bc96	-0.04705485
240	0x3cc65546	0.024210583
241	0x3b55a81d	0.0032601424
242	0xbb5b2d07	-0.0033443586
243	0xbbef6da4	-0.0073067714
244	0x3dc2e45c	0.09516212
245	0x3cf91033	0.030403232
246	0xbcd68657	-0.026187105
247	0xbe26f34b	-0.16303746
248	0x3c509331	0.012730406
249	0x3dbcb436	0.0921406
250	0xbd808195	-0.06274716
251	0xbb801913	-0.003909239
252	0xbc8aa711	-0.016925367
253	0x3d15602d	0.036468673
254	0xbc393f62	-0.011306616
255	0xbcae04a3	-0.021242445

encoder.4.block.1.bias f4 [40]
0	0x3b4ab08d	0.0030927986
1	0xbba75967	-0.005107093
2	0xb98dd93e	-0.00027055474
3	0x3a410da9	0.0007364401
4	0xb8cd7284	-9.796492e-05
5	0x3b2dc9b1	0.0026517923
6	0x3aab4d54	0.001306931
7	0x38e9073b	0.000111116526
8	0x3a2159a6	0.0006155021
9	0xba80d704	-0.0009829705
10	0x3b9ce9d9	0.004788619
11	0x3c0f00a8	0.008728184
12	0xb934fbd3	-0.0001725995
13	0x3b1294fe	0.0022366638
14	0xb998c61a	-0.00029139296
15	0x3a8c29e1	0.0010693633
16	0xbb1fcecf	-0.0024384742
17	0xbaae4e53	-0.0013298489
18	0x3a339319	0.00068502274
19	0x3a47ce35	0.0007621975
20	0xb84ab997	-4.8333397e-05
21	0x3689a7e5	4.1024637e-06
22	0xbaf0ee62	-0.001838159
23	0xbb16ecda	-0.0023029358
24	0x3b682930	0.003542494
25	0xba4b3c44	-0.0007752816
26	0x3aab90e7	0.0013089449
27	0x3ba73fec	0.0051040556
28	0xb94eab8b	-0.00019709596
29	0x3a602648	0.0008550626
30	0x3b009788	0.001962157
31	0x3abca3a7	0.0014392034
32	0x3aac3096	0.0013137038
33	0x3b3ff35c	0.002928934
34	0xba0f2c66	-0.0005461633
35	0x3b8d7840	0.0043173134
36	0xbb47c7e4	-0.0030484134
37	0x39cd3456	0.0003913964
38	0xba3bbe1e	-0.00071618136
39	0x3b2d3bab	0.002643327

encoder.4.block.2.weight f4 [40]
0	0x3f8aa170	1.0830517
1	0x3f8b543c	1.0885081
2	0x3f829714	1.0202355
3	0x3f7203cc	0.94537044
4	0x3f7a89b8	0.9786639
5	0x3f746e89	0.95481163
6	0x3f68ca1c	0.90933394
7	0x3f6a4484	0.91510797
8	0x3f48020e	0.78128135
9	0x3f60ee3d	0.8786352
10	0x3f7a8b99	0.9786926
11	0x3f899714	1.074923
12	0x3f7d15f5	0.9886163
13	0x3f8c8c1a	1.0980256
14	0x3f950f9b	1.1645387
15	0x3f885de4	1.0653653
16	0x3f89ada8	1.0756121
17	0x3f1f7fa9	0.6230417
18	0x3f6ee3bb	0.9331624
19	0x3f5b77cc	0.8572967
20	0x3f76e8ff	0.96449274
21	0x3f8c0559	1.0939132
22	0x3f37e317	0.71830887
23	0x3f70eeda	0.9411446
24	0x3f655623	0.8958456
25	0x3f5ee391	0.8706599
26	0x3f8b12f0	1.0865154
27	0x3f8de203	1.1084598
28	0x3f6ffabe	0.9374198
29	0x3f91e02e	1.1396539
30	0x3f8b1ac4	1.0867543
31	0x3f8ced6c	1.1009955
32	0x3f8bc3b4	1.0919099
33	0x3f9a4ef9	1.205535
34	0x3f711f96	0.9418882
35	0x3f86e3a6	1.0538223
36	0x3f6a1d32	0.914508
37	0x3f30ed6f	0.69112295
38	0x3fa5c805	1.2951666
39	0x3f58ffa8	0.847651

encoder.4.block.2.bias f4 [40]
0	0x3ebbf57f	0.36710736
1	0x3e5cfd58	0.21581018
2	0xbd445816	-0.047935568
3	0x3f1db4f5	0.61604244
4	0x3ec52800	0.3850708
5	0x3ed3f8f0	0.41400862
6	0x3da67e02	0.08129503
7	0x3d92041e	0.071296915
8	0x3dbdf749	0.092756815
9	0xbd85042b	-0.064949356
10	0x3d6b685a	0.057472564
11	0x3ec70b7b	0.38875946
12	0x3ec4906c	0.38391435
13	0x3f02cd13	0.5109417
14	0x3ed8c174	0.42335093
15	0xbd8d9b66	-0.069144055
16	0x3d42e7cd	0.047584344
17	0x3e24e5de	0.16103312
18	0x3e811afe	0.25215906
19	0x3e6d2d91	0.23161913
20	0xbe2f42c8	-0.17115319
21	0xbd93dd5f	-0.072199576
22	0xbed35230	-0.41273642
23	0xbd85c040	-0.065308094
24	0x3d8ec309	0.06970794
25	0x3bb72edb	0.0055903024
26	0x3e83cc6b	0.25741896
27	0xbd32bec6	-0.043638967
28	0xbe8fa0a3	-0.28052244
29	0xbd013549	-0.031544957
30	0x3eab698f	0.33478972
31	0x3e3eab31	0.18619992
32	0x3da72f64	0.08163336
33	0x3e998abe	0.29988664
34	0x3e034409	0.12818922
35	0x3b34e42b	0.002760182
36	0xbaaaa048	-0.0013017738
37	0xbcaafe35	-0.020873168
38	0xbeb012a7	-0.3438923
39	0x3d82dc45	0.06389669

encoder.4.block.2.running_mean f4 [40]
0	0x3e6bdb53	0.23032884
1	0xbf467768	-0.7752595
2	0xbf404273	-0.75101393
3	0xbf0aaf5b	-0.5417382
4	0x3a3536a4	0.0006912744
5	0x3f0e2acd	0.5553406
6	0x3e465366	0.19367751
7	0xbea27d60	-0.3173628
8	0xbdfc23cb	-0.123115145
9	0xbe4b55ed	-0.19856997
10	0x3ed60da6	0.41807288
11	0x3e9198a5	0.2843677
12	0x3c49b693	0.0123115955
13	0x3ec43f96	0.38329762
14	0x3e21bd2f	0.15794824
15	0xbf374b5a	-0.7159935
16	0xbf0a6ea5	-0.5407508
17	0xbd3ad1a6	-0.045610093
18	0x3f12bf28	0.5732293
19	0x3c36cc0b	0.011157046
20	0x3df76cfb	0.12081333
21	0xbf25f666	-0.648291
22	0xbecbbb1a	-0.39791185
23	0xbe83ac1d	-0.2571725
24	0x3dbf25eb	0.09333404
25	0xbf009868	-0.50232553
26	0x3f234acc	0.63786006
27	0x3f347518	0.7049117
28	0x3d0f0ef2	0.034926362
29	0xbf56273c	-0.83653617
30	0x3f552878	0.83264875
31	0x3f110346	0.5664562
32	0xbf148d77	-0.5802836
33	0xbdbcc84d	-0.09217892
34	0x3e7d8f84	0.24761778
35	0xbf020e89	-0.5080343
36	0xbd86e783	-0.06587126
37	0xbe4b7119	-0.19867362
38	0xbeccf370	-0.40029478
39	0x3c234c7c	0.009966966

encoder.4.block.2.running_var f4 [40]
0	0x3eca473e	0.39507478
1	0x3f7d18f8	0.98866224
2	0x3f4fad83	0.8112413
3	0x3edccbf6	0.4312436
4	0x3eafa1c6	0.3430311
5	0x3ed1feef	0.4101481
6	0x3eee2d61	0.46518996
7	0x3e264ae9	0.16239513
8	0x3e7b7830	0.24557567
9	0x3efac2bf	0.48976704
10	0x3f0c5f00	0.5483246
11	0x3ef22b5a	0.472987
12	0x3e8ecf53	0.2789255
13	0x3e9b6f9c	0.3035859
14	0x3f2a1627	0.6644005
15	0x3f0a930e	0.5413064
16	0x3ebe8475	0.37210432
17	0x3e46b58f	0.19405197
18	0x3f0e32ae	0.5554608
19	0x3e5cc37d	0.21558948
20	0x3df098a4	0.11747864
21	0x3f75a6f6	0.9595789
22	0x3da0c57f	0.078501694
23	0x3f018174	0.50588155
24	0x3ed19789	0.40935925
25	0x3ed957a9	0.42449692
26	0x3f0956db	0.53648156
27	0x3f27995f	0.654684
28	0x3dbba386	0.09162049
29	0x3f6865f0	0.90780544
30	0x3f24194d	0.64101106
31	0x3f821dd1	1.0165349
32	0x3f4515f0	0.769866
33	0x3ed03a9b	0.40669712
34	0x3edf1ee7	0.43578264
35	0x3f08c8fd	0.53431684
36	0x3e7f5e4a	0.24938312
37	0x3e2432da	0.16035023
38	0x3e18d344	0.14924341
39	0x3e37e746	0.17959318

encoder.4.block.4.weight f4 [40, 40, 1, 1]
0	0x3d3bbdd6	0.04583534
1	0x3e26641e	0.16249129
2	0x3e89936d	0.2687029
3	0x3e138f75	0.14410193
4	0xbce3ed21	-0.027823033
5	0xbac6e9e8	-0.0015175911
6	0x3c12e9ca	0.0089668725
7	0x3d463ca6	0.048397683
8	0xbd11bc10	-0.03557974
9	0x3ddbc5a3	0.107310556
10	0xbe5e2ff3	-0.21697979
11	0xbe557a2d	-0.20847388
12	0xbe54d035	-0.2078255
13	0xbe3dceed	-0.18535967
14	0xbe4ce24c	-0.200082
15	0xbd93c80f	-0.072158925
16	0x3dce8b05	0.100851096
17	0xbbaeacfb	-0.0053306795
18	0xbdf82724	-0.121168405
19	0xbd15e381	-0.036593918
20	0x3e164c89	0.14677633
21	0x3e485d35	0.19566806
22	0x3bc3ccef	0.0059753577
23	0x3e667785	0.2250653
24	0x3e42f689	0.19039358
25	0x3d534244	0.051576868
26	0xbe99cfed	-0.30041447
27	0xbe7d3227	-0.24726163
28	0xbe9d7e0a	-0.30760223
29	0xbdef2a41	-0.11677981
30	0xbf0913c2	-0.53545773
31	0xbc167ada	-0.0091845635
32	0xbc3e26e4	-0.011605952
33	0xbe83ea10	-0.25764513
34	0x3d873481	0.06601811
35	0x3d1905ba	0.037358977
36	0x3d7ad7d9	0.061241005
37	0xbd9d0f48	-0.0766893
38	0x3ea5fe84	0.32420743
39	0x3db112e2	0.0864618
40	0x3dfc397c	0.12315652
41	0xbdcb5222	-0.09927775
42	0x3eee6e1c	0.46568382
43	0xbe259725	-0.16170938
44	0x3d3f6536	0.04672738
45	0x3d75bdd4	0.059995487
46	0x3ab27694	0.0013615661
47	0x3d335aa2	0.043787606
48	0x3e023ee5	0.12719305
49	0xbcab96f1	-0.020945998
50	0xbd57e0ae	-0.052704506
51	0x3e634df1	0.22197701
52	0x3d9fb1e2	0.077976
53	0x3e259ca9	0.16173042
54	0x3e8de604	0.2771455
55	0xbe4277da	-0.18991032
56	0xbdee3226	-0.11630659
57	0x3df9d489	0.12198741
58	0xbd878b39	-0.066183515
59	0x3cbf561b	0.023356488
60	0xbdbe95d6	-0.09305923
61	0xbe76ca60	-0.24100637
62	0x3c82e453	0.015978014
63	0xbd838e22	-0.06423594
64	0xbc99dda9	-0.018782454
65	0xbbc5e8fc	-0.006039737
66	0xbc1149e3	-0.008867714
67	0x3d7eebe4	0.06223668
68	0xbc647b1e	-0.013945369
69	0xbdd6bef3	-0.104856394
70	0x3ddb7346	0.10715346
71	0x3db0e4b0	0.08637369
72	0x3d2d5dab	0.042325657
73	0x3ec26992	0.3797117
74	0x3e195c0f	0.14976524
75	0xbe0fae1d	-0.14031263
76	0xbdabebc6	-0.083945796
77	0x3deb8880	0.11500645
78	0xbebc50bb	-0.36780342
79	0xbd26abcb	-0.04069118
80	0xbe14cecb	-0.1453201
81	0x3e2b161f	0.16707657
82	0x3d81ebd9	0.063438125
83	0xbe84b693	-0.25920543
84	0xbd5e7385	-0.054309387
85	0xbe038b34	-0.1284607
86	0xbdef404b	-0.11682185
87	0xbddae5b8	-0.106883466
88	0x3b813c7a	0.003943977
89	0xbdeba995	-0.115069546
90	0x3d14abce	0.03629666
91	0xbe7ff518	-0.2499584
92	0x3d33eda1	0.043927792
93	0xbd846dc7	-0.06466251
94	0xbe2088ae	-0.15677139
95	0x3ca0d46d	0.019632543
96	0x3d49499f	0.049142476
97	0x3d2165a5	0.039403576
98	0xbe11ca97	-0.14237438
99	0xbe3247b4	-0.17410165
100	0xbd93d214	-0.072178036
101	0x3dc6bc8d	0.09703932
102	0x3d2a126c	0.041521475
103	0x3db1607f	0.08660983
104	0xbe54fa68	-0.20798647
105	0x3d11d214	0.035600737
106	0xbe22ee82	-0.15911296
107	0x3dba0fc6	0.0908504
108	0xbe1485a0	-0.14504099
109	0x3e35702f	0.17718576
110	0xbdedf589	-0.11619098
111	0xbea274c1	-0.317297
112	0xbe008fb9	-0.12554826
113	0xbe8a021a	-0.26954728
114	0xbbfb8562	-0.0076758126
115	0x3e2d61d0	0.16931844
116	0x3cfe69e7	0.031056358
117	0x3ca6fae7	0.020383311
118	0x3f07ada1	0.5299931
119	0xbd0b3c84	-0.03399326
120	0xbcbf86fb	-0.023379793
121	0x3e903645	0.28166404
122	0x3e240f13	0.16021375
123	0xbd4b283d	-0.04959892
124	0xbe2e5116	-0.1702312
125	0x3d6690fd	0.056290615
126	0xbe2d0faf	-0.16900514
127	0xbec4b2de	-0.38417715
128	0xbf0400b3	-0.51563567
129	0xbd8072f4	-0.062719256
130	0x3de57eb5	0.11205808
131	0xbea7133e	-0.32631868
132	0xbd9801ff	-0.07422256
133	0xbe0911db	-0.13385718
134	0xbd8c68f0	-0.06855953
135	0xbe6c249a	-0.23060837
136	0xbc996ae8	-0.018727735
137	0x3d8657a2	0.065596834
138	0xbe7a063b	-0.24416439
139	0x3dfd59a6	0.12370615
140	0x3e64ffd8	0.22363222
141	0x3e37241e	0.17884871
142	0x3c29ef44	0.010371987
143	0x3e1a4028	0.15063536
144	0xbe6288c6	-0.22122487
145	0x3a2c0c9f	0.000656316
146	0xbd967dae	-0.0734819
147	0x3b871201	0.0041220193
148	0x3e39c786	0.18142518
149	0x3a020399	0.00049596425
150	0xbd6ecc48	-0.058300287
151	0x3d4e7906	0.050408386
152	0x3dc638ee	0.09678827
153	0xbdd3c84e	-0.103409395
154	0xbde7204e	-0.112854585
155	0x3e5b1034	0.213929
156	0x3dc392ee	0.09549509
157	0xbd79d096	-0.06098994
158	0x3eb14ff0	0.346313
159	0xbd248442	-0.040165193
160	0xbdcfd8f6	-0.10148804
161	0xbe470748	-0.19436371
162	0xbd4feb85	-0.05076172
163	0xbbef86e9	-0.0073097837
164	0xbd220c6d	-0.03956263
165	0xbe9439fd	-0.28950492
166	0x3e819ecc	0.25316465
167	0xbe4b92d4	-0.19880229
168	0xbdc1e0fa	-0.09466739
169	0x3d6986b7	0.05701324
170	0x3ccdad2a	0.025106985
171	0x3dea814a	0.11450441
172	0x3e84311f	0.25818726
173	0x3eb84bb1	0.35995248
174	0x3e27ad25	0.16374643
175	0xbcc74cd0	-0.02432862
176	0xbdc86f91	-0.097869046
177	0x3d2dca18	0.04242906
178	0x3dab40b9	0.08361954
179	0x3e246b6b	0.16056602
180	0x3e3412d6	0.1758531
181	0x3ce4b279	0.027917134
182	0xbe8aaa3a	-0.27082998
183	0x3da85291	0.08218873
184	0xbcee8273	-0.029114937
185	0xbe6d3236	-0.23163685
186	0xbe0f606d	-0.14001627
187	0x3e141fda	0.14465275
188	0x3df315ea	0.11869414
189	0xbdee3db1	-0.116328605
190	0x3e1be0fd	0.15222545
191	0xbe66231a	-0.22474328
192	0xbe1a4add	-0.1506762
193	0x3e053b81	0.1301098
194	0x3e334738	0.17507637
195	0xbd4ff6ca	-0.050772466
196	0xbded3b9f	-0.115836374
197	0xbe2341a1	-0.15943004
198	0xbe4c48ac	-0.19949597
199	0x3de889ae	0.11354385
200	0x3d81658a	0.06318195
201	0xbd81990c	-0.063280195
202	0x3d207d8d	0.039182235
203	0xbd1fdb43	-0.039027464
204	0xbd9fa22e	-0.07794605
205	0xbedcb83d	-0.43109313
206	0xbe953ace	-0.29146427
207	0x3d816ab3	0.063191794
208	0xbe134a19	-0.14383735
209	0xbd3596b1	-0.044333164
210	0x3dbd405b	0.092407905
211	0xbe2fc2b0	-0.17164111
212	0xbec41dc5	-0.38303962
213	0x3bd46326	0.006481546
214	0x3d317391	0.043323103
215	0x395425f8	0.0002023204
216	0xbdb28636	-0.08717005
217	0x3de3e142	0.11126949
218	0xbd9892e4	-0.07449892
219	0xbe834463	-0.25638112
220	0xbc9349f0	-0.017979592
221	0xbbf30289	-0.0074160737
222	0x3e1df6d4	0.15426189
223	0x3d01de58	0.031706184
224	0xbc402f30	-0.01173
225	0x3de71f56	0.11285274
226	0x3dc7ed99	0.09762115
227	0x3e3c755a	0.18404141
228	0xbe1b0717	-0.15139423
229	0x3b229f90	0.0024814345
230	0xbe2779f5	-0.16355117
231	0x3ec3efd9	0.38268927
232	0x3df2832f	0.118414275
233	0x3e79e72c	0.24404591
234	0xbe3efd0d	-0.18651219
235	0x3d14bf5e	0.036315314
236	0x3db5787d	0.08860872
237	0xbcea75b0	-0.02862057
238	0x3e962cfa	0.2933119
239	0xbe0a09d7	-0.13480316
240	0xbe27be86	-0.16381273
241	0xbe055ccf	-0.13023685
242	0xbe8ea934	-0.27863467
243	0x3cd406c7	0.025882138
244	0x3d138758	0.036017746
245	0xbe4d787d	-0.20065494
246	0x3e248e22	0.16069844
247	0x3d56caf4	0.052439645
248	0x3e734ffc	0.2376098
249	0x3d0e77e2	0.034782298
250	0xbf0cba8d	-0.54972154
251	0xbe5b471a	-0.21413842
252	0xbe3bdf46	-0.18346891
253	0xbd974691	-0.07386506
254	0xbdc70044	-0.097168475
255	0xbd697531	-0.056996528

encoder.4.block.4.bias f4 [40]
0	0xbc078fbb	-0.008274014
1	0x3b080132	0.0020752666
2	0xbba9b6fe	-0.005179285
3	0xbae488c9	-0.0017435785
4	0xba2eb76e	-0.00066649064
5	0x3981bed4	0.00024746975
6	0xbc3f02c3	-0.011658373
7	0xbc1890ce	-0.009311868
8	0x39995c2c	0.00029251107
9	0xb920bb4d	-0.00015328564
10	0xbb1439d5	-0.0022617478
11	0xbb86f87a	-0.004118976
12	0xbb95fa82	-0.004576982
13	0x3aa89a27	0.0012863324
14	0xbbd7be3d	-0.0065839575
15	0x3a250375	0.00062947656
16	0xbbcca87f	-0.0062456722
17	0x39d7d53a	0.00041166862
18	0x3b3068a5	0.0026917842
19	0x3c2275a9	0.009915748
20	0x3bee5576	0.0072733713
21	0xbba02cf2	-0.0048881704
22	0x3b79bfaf	0.0038108637
23	0xba8ac03f	-0.0010585858
24	0xbbbab1ba	-0.005697456
25	0xbb8b76a2	-0.0042560855
26	0xbb65a1e5	-0.0035039124
27	0x390d224c	0.00013459584
28	0xbbae429a	-0.005317998
29	0xbbfb171c	-0.007662667
30	0x3ad6af58	0.0016379161
31	0x3bb4cb53	0.005517402
32	0xbb28cc09	-0.002575638
33	0xbb49b1d3	-0.0030776158
34	0xbc03b4a1	-0.008038671
35	0xbb88e415	-0.00417758
36	0xbbc2d875	-0.005946214
37	0xbbd50f41	-0.0065020625
38	0x3afa2e68	0.0019087316
39	0xbb069880	-0.0020537674

encoder.4.block.5.weight f4 [40]
0	0x3f3a4d61	0.7277432
1	0x3f1010bc	0.56275535
2	0x3f3a2aa8	0.7272134
3	0x3f0df3ba	0.5545002
4	0x3f4be318	0.7964339
5	0x3f117359	0.5681663
6	0x3f729b9f	0.9476871
7	0x3f054e4e	0.5207261
8	0x3f40feb4	0.75388646
9	0x3f1c5d64	0.6108
10	0x3f5da3c4	0.8657801
11	0x3f52f9c2	0.8241235
12	0x3f357a48	0.7088971
13	0x3f2bce88	0.67112017
14	0x3f0d681e	0.55236995
15	0x3fa9e4c9	1.3272945
16	0x3f065f69	0.52489334
17	0x3f6656fa	0.89976466
18	0x3f7599d4	0.9593785
19	0x3efb8e51	0.49132016
20	0x3eacec2b	0.33773932
21	0x3f6b1a75	0.91837245
22	0x3f7b1623	0.9808065
23	0x3f2dc261	0.67874724
24	0x3f12701d	0.5720232
25	0x3f01faeb	0.50773495
26	0x3f5df599	0.8670288
27	0x3f730129	0.94923645
28	0x3f25d3b1	0.6477614
29	0x3f2b7a2e	0.66983306
30	0x3f4feac1	0.8121758
31	0x3ef5ea72	0.4803043
32	0x3f077389	0.5291067
33	0x3f3e99e7	0.74453586
34	0x3f5af93b	0.85536546
35	0x3f4cde23	0.80026454
36	0x3f55b8db	0.8348519
37	0x3f1e54b5	0.61848
38	0x3efc5baa	0.49288684
39	0x3f122aa4	0.57096314

encoder.4.block.5.bias f4 [40]
0	0xbeec2573	-0.4612232
1	0x3c85eb1a	0.016347457
2	0xbe962f67	-0.2933304
3	0xbe6aec77	-0.22941767
4	0x3d39501c	0.045242414
5	0xbe729fae	-0.23693725
6	0xbe64bb6e	-0.22337124
7	0xbea03249	-0.31288365
8	0x3e073b85	0.13206299
9	0xbea92f1e	-0.3304376
10	0x3d75d742	0.06001974
11	0xbe4975cb	-0.1967384
12	0xbec9edcc	-0.39439237
13	0xbcc9955f	-0.024607359
14	0xbde7ce1e	-0.113186106
15	0xbe801531	-0.25016168
16	0xbe92a7df	-0.286437
17	0xbbedfc27	-0.007262725
18	0x3e1ea737	0.15493475
19	0xbe11c821	-0.142365
20	0xbe3da868	-0.18521273
21	0x3d1e18eb	0.038597982
22	0x3d1fb926	0.03899493
23	0xbe1c0e4d	-0.1523983
24	0xbea80791	-0.32818273
25	0xbda09b40	-0.078421116
26	0x3d5327f8	0.05155179
27	0x3da9e9fb	0.08296581
28	0xbe119f5c	-0.14220947
29	0xbdde28de	-0.108476385
30	0xbe8b2543	-0.27176866
31	0xbe1e6fb1	-0.15472294
32	0xbe189104	-0.14899069
33	0xbe885988	-0.26630807
34	0xbdc5389d	-0.09629939
35	0xbe973f0f	-0.29540297
36	0xbe912d22	-0.28354746
37	0xba2f674b	-0.0006691112
38	0xbda6138a	-0.081091955
39	0xbe40262f	-0.18764566

encoder.4.block.5.running_mean f4 [40]
0	0xbf1b6224	-0.60696626
1	0x3ef1a38b	0.47195086
2	0xbf6a3b04	-0.914963
3	0xbedaa7c7	-0.4270613
4	0x3c9c3382	0.01906753
5	0xbeac3ca7	-0.33640024
6	0xbf638964	-0.88881516
7	0xbe8571a0	-0.26063251
8	0xbd10ec97	-0.03538188
9	0xbf25b088	-0.6472249
10	0x3f16a913	0.58851737
11	0x3e3e0383	0.18556027
12	0x3e0258f2	0.12729242
13	0x3f2731fd	0.6531065
14	0xbf4f9de1	-0.8110028
15	0xbe391636	-0.18074879
16	0xbe442920	-0.19156313
17	0x3eb7287c	0.35773075
18	0x3f89f564	1.0778012
19	0x3f1e9bc0	0.61956406
20	0xbe7901ae	-0.24317047
21	0x3edfc48a	0.43704635
22	0x3ebb86ef	0.36626384
23	0xbe2df7ad	-0.16989012
24	0x3cdc7a2a	0.026913721
25	0xbedce3aa	-0.43142444
26	0x3f05abe5	0.52215415
27	0x3f01964b	0.50619954
28	0xbebfe539	-0.3747957
29	0xbf42c794	-0.7608578
30	0xbf641ed5	-0.89109546
31	0xbe5a684e	-0.21328852
32	0xbc82f0fc	-0.01598405
33	0xbeff80d7	-0.49902984
34	0xbec28990	-0.37995577
35	0xbf06ec6d	-0.5270451
36	0xbf183848	-0.5946088
37	0xbeb9e1e3	-0.3630515
38	0xbc9103ca	-0.017702002
39	0xbec86e59	-0.3914669

encoder.4.block.5.running_var f4 [40]
0	0x40b090eb	5.51769
1	0x40563bba	3.3473954
2	0x4068f403	3.6398933
3	0x4082da91	4.0891805
4	0x3fac8d89	1.3480693
5	0x3f0c887d	0.54895765
6	0x401145f6	2.269895
7	0x40ba3794	5.8192844
8	0x3f930c7c	1.1488185
9	0x3fcfe2cf	1.6241091
10	0x4029f0df	2.6553266
11	0x3fdb34e5	1.7125517
12	0x3f2f19d1	0.6839877
13	0x402d4548	2.7073536
14	0x409ac42a	4.836446
15	0x3f3686e0	0.7129955
16	0x3f77aab7	0.96744865
17	0x3fe5fc78	1.7967672
18	0x405bd1ca	3.4346795
19	0x3f5fbb59	0.87395245
20	0x3fe4605a	1.7841904
21	0x40a327d7	5.0986133
22	0x3f3fb987	0.7489247
23	0x407eba82	3.9801335
24	0x4096306a	4.69341
25	0x3ed1ddb7	0.40989468
26	0x404ef707	3.2338274
27	0x40d45593	6.635446
28	0x3fb8800e	1.4414079
29	0x3f8153a3	1.0103649
30	0x409600d1	4.6875997
31	0x40c45bce	6.1362066
32	0x3fc214b6	1.516257
33	0x3fbd121f	1.4771155
34	0x409b6a81	4.856751
35	0x3fe6ffbc	1.8046794
36	0x3fb3ae3b	1.4037546
37	0x3f73e23f	0.952671
38	0x403250ad	2.786174
39	0x3fad7395	1.3550898
