VQ-VAE/models/vqvae/model_90.pt (torch, 579012 bytes, 64 tensors)

encoder.0.weight f4 [40, 1, 4, 4]
0.045768574 -0.007314883 -0.035773586 -0.07869162 -0.035442848 -0.1269283 -0.10521754 -0.083419204
-0.060647324 -0.1623044 -0.20409368 0.04985046 -0.037094355 -0.04580473 0.09664378 0.044422094
0.045906156 0.045194242 -0.0795346 0.07449231 0.08712548 0.14439453 -0.07406965 0.06370112
0.05694642 0.09209501 -0.14580359 -0.0010071751 0.04829545 0.08883854 -0.024230167 0.065178916
0.087255575 0.08947119 0.110541016 0.10413863 0.029353075 -0.0040968056 -0.0036054216 0.071918406
0.085420325 0.060827404 0.048667643 0.06502196 0.029684953 0.0438094 0.012474767 0.013951113
-0.007204419 0.058655906 0.09964918 0.063471906 0.094438 0.092425354 -0.040781993 -0.07220057
0.112350434 -0.06794916 -0.058046214 0.010167577 0.09942952 0.044538006 0.069716156 0.031803913
0.0298765 -0.011498802 0.023252755 0.0043216785 0.011089373 -0.036465753 0.13018245 0.013934702
-0.024531871 -0.12511356 0.048390802 0.088533126 0.054857902 -0.06078985 0.034846876 0.13087836
-0.07603346 -0.04773744 -0.032914218 0.022119103 -0.12400153 -0.07184938 -0.15304069 0.052713312
-0.104371205 -0.08036902 -0.11544441 0.0807179 -0.074643485 -0.05120053 0.04566706 0.00028325472
-0.01571904 0.061032664 -0.037230764 -0.017378638 0.09411034 0.023083802 -0.1092554 -0.07130643
0.062060717 -0.15689477 -0.045716237 -0.111815386 0.01865599 -0.07343092 -0.03338129 -0.0118513685
0.013197953 -0.04505285 -0.10112979 -0.10717377 -0.06358859 -0.06323081 -0.14666097 0.11398099
-0.1126629 -0.033035204 -0.119016424 -0.033147044 -0.015097567 0.078613184 -0.027244672 -0.029580545
-0.010427129 -0.04294448 0.016206838 0.024168776 -0.09772583 0.088684894 0.13511555 0.029447705
0.04284229 0.11947923 -0.060376693 -0.048863616 0.09586391 0.111867495 -0.02047502 0.034666695
0.031117193 0.08021066 0.039792124 0.034177996 -0.06357201 -0.026057364 -0.11553882 -0.016423909
-0.12816967 -0.11332773 -0.13052331 0.030415613 0.0320587 0.09277763 0.08110174 0.045969624
0.06544181 0.028605323 -0.07759878 -0.06497921 0.055639107 0.041036636 -0.034883477 -0.09470737
0.04864721 0.039153863 -0.04561412 -0.13458537 0.06996591 0.051177036 -0.06555187 -0.066938184
-0.08064833 -0.02999741 0.03406606 -0.016993541 0.008286368 -0.058600754 -0.11326685 -0.09367243
-0.041937973 -0.11950738 -0.21199815 -0.052405294 0.015821641 -0.06189838 0.01186817 -0.06281904
0.008423202 0.085166775 0.081644766 0.018738564 0.006690993 -0.05077002 -0.069538936 -0.13357481
-0.06121117 -0.13676435 -0.16802543 -0.14959781 -0.009809806 -0.053585585 -0.017635262 -0.086785786
-0.054165475 -0.07443791 0.025859915 0.04282097 -0.07972229 -0.13928176 -0.120476894 -0.01914937
0.045298778 0.051832814 -0.09433184 -0.12328467 0.037273545 0.08781755 0.03302296 -0.02644623
0.018112697 0.00051460654 -0.009663547 0.049398188 0.04124419 -0.06107917 -0.04741022 0.0228758
0.01306126 0.06325592 0.18977857 0.15934786 0.009067602 0.074304484 0.105973125 0.03930384
0.05323825 -0.06801465 -0.080029584 0.0019950168 -0.08325431 -0.049955994 -0.06237733 -0.05485215
-0.07444904 -0.09534891 -0.024993815 -0.05660444 0.029199895 -0.04525871 -0.08637445 0.010365507
00000000: d477 3b3d b0b1 efbb 5387 12bd 1229 a1bd
00000010: 852c 11bd 7ef9 01be 4b7c d7bd b0d7 aabd
00000020: 5469 78bd 2033 26be effd 50be ff2f 4c3d
00000030: 40f0 17bd be9d 3bbd 2ded c53d f1f3 353d
00000040: 1808 3c3d 991d 393d 09e3 a2bd 6d8f 983d
00000050: d86e b23d 29dc 133e d4b1 97bd bc75 823d
00000060: a640 693d 4f9c bc3d 894d 15be 3003 84ba
00000070: 73d1 453d fbf0 b53d 587e c6bc 867c 853d
00000080: 0db3 b23d ac3c b73d 5463 e23d a246 d53d
00000090: dc75 f03c 7f3e 86bb f048 6cbb f549 933d
000000a0: daf0 ae3d 2826 793d b957 473d 3c2a 853d
000000b0: dc2d f33c 7c71 333d f762 4c3c 3693 643c
000000c0: 0c13 ecbb 2d41 703d df14 cc3d 8ffd 813d
000000d0: b668 c13d 8149 bd3d 050b 27bd e4dd 93bd
000000e0: fc17 e63d ee28 8bbd dec1 6dbd e995 263c
000000f0: b4a1 cb3d 7c6d 363d 58c7 8e3d d244 023d
00000100: 90bf f43c 7965 3cbc 907c be3c de9c 8d3b
00000110: 34b0 353c 1d5d 15bd 8c4e 053e 604e 643c
00000120: 10f7 c8bc c51d 00be 6f35 463d db50 b53d
00000130: aeb2 603d c7fe 78bd 99bb 0e3d fa04 063e
00000140: 6eb7 9bbd 5588 43bd 0fd1 06bd 1f33 b53c
00000150: 84f4 fdbd c525 93bd b3b6 1cbe eae9 573d
00000160: 92c0 d5bd 8398 a4bd 1e6e ecbd 6d4f a53d
00000170: afde 98bd a6b7 51bd 620d 3b3d ce81 9439
00000180: 37c5 80bc 63fd 793d 497f 18bd a55d 8ebc
00000190: ecbc c03d 3e1a bd3c 4cc1 dfbd 1b09 92bd
000001a0: 6133 7e3d 06a9 20be f340 3bbd 77ff e4bd
000001b0: 72d4 983c f362 96bd d2ba 08bd 3e2c 42bc
000001c0: 3a3c 583c 5689 38bd 231d cfbd ec7d dbbd
000001d0: bc3a 82bd 287f 81bd 4b2e 16be de6e e93d
000001e0: cebb e6bd ec4f 07bd e2be f3bd 32c5 07bd
000001f0: c95b 77bc f3ff a03d 3830 dfbc e652 f2bc
00000200: 8dd6 2abc 8de6 2fbd 34c4 843c 99fd c53c
00000210: 7b24 c8bd 6da0 b53d bb5b 0a3e 503c f13c
00000220: 667b 2f3d 87b1 f43d 8d4d 77bd 3725 48bd
00000230: 4c54 c43d c91a e53d 3bbb a7bc aafe 0d3d
00000240: 7ce9 fe3c 7d45 a43d 11fd 223d 3afe 0b3d
00000250: 0b32 82bd 4176 d5bc 9e9f ecbd 6f8b 86bc
00000260: e93e 03be 5e18 e8bd e7a7 05be 2a2a f93c
00000270: fc4f 033d 3302 be3d ab18 a63d a54a 3c3d
00000280: 5b06 863d b655 ea3c 1cec 9ebd d213 85bd
00000290: d5e5 633d 0816 283d fae1 0ebd f0f5 c1bd
000002a0: 4c42 473d cd5f 203d dfd5 3abd bfd0 09be
000002b0: 494a 8f3d 039f 513d 0f40 86bd e316 89bd
000002c0: f42a a5bd 21bd f5bc da88 0b3d 0a36 8bbc
000002d0: 8cc3 073c 5807 70bd 73f8 e7bd 55d7 bfbd
000002e0: 27c7 2bbd 49c0 f4bd 0b16 59be efa6 56bd
000002f0: 639c 813c 2889 7dbd b772 423c 45a7 80bd
00000300: 7801 0a3c eb6b ae3d 5f35 a73d 9e81 993c
00000310: 1e40 db3b 39f4 4fbd 6e6a 8ebd d6c7 08be
00000320: 90b8 7abd f40b 0cbe dc0e 2cbe 2b30 19be
00000330: 4fb9 20bc 8f7c 5bbd d377 90bc bfbc b1bd
00000340: 9edc 5dbd e772 98bd 2cd8 d33c 0b65 2f3d
00000350: 7145 a3bd e19f 0ebe 97bc f6bd 24df 9cbc
00000360: 368b 393d a54e 543d 0d31 c1bd ac7c fcbd
00000370: 25ac 183d b0d9 b33d 1543 073d c4a5 d8bc
00000380: 1461 943c a9e6 063a db53 1ebc c155 4a3d
00000390: abef 283d 272e 7abd 3831 42bd 0866 bb3c
000003a0: e5fe 553c 528c 813d 5055 423e 162c 233e
000003b0: 4890 143c f32c 983d 7008 d93d 10fd 203d
000003c0: 5a10 5a3d 444b 8bbd 8de6 a3bd d4be 023b
000003d0: 3c81 aabd a89e 4cbd 5f7f 7fbd a6ac 60bd
000003e0: bd78 98bd 4a46 c3bd d4bf ccbc 0fda 67bd
000003f0: 9e34 ef3c 3261 39bd 16e5 b0bd 16d4 293c

encoder.0.bias f4 [40]
-0.001188436 -0.0017440744 -0.0036035092 -0.0023256368 -0.006161192 -0.0005382116 0.0028258585 -0.00092573185
-0.0052570156 0.0045040194 0.0011363069 -0.0025363953 -0.0028406782 -0.0015505903 -0.0024291626 0.0018427728
0.000552678 -0.0025519077 -0.000702946 -0.0017101951 -0.0064902664 -0.0008602202 -0.002086885 -0.00456376
-0.0004828187 0.0037449368 -0.0010939909 -0.00033131018 0.0027659892 -0.0009932725 0.0066530397 -0.0017216465
-0.0006511595 -0.008106316 0.0062692016 -0.000672673 -0.0010130203 -0.005908307 -0.0043462687 0.00076408533
00000000: 4cc5 9bba 6d99 e4ba da28 6cbb b669 18bb
00000010: d3e3 c9bb c516 0dba 0a32 393b d0ac 72ba
00000020: 0b43 acbb 7496 933b 22f0 943a a739 26bb
00000030: ac2a 3abb 2d3d cbba 9632 1fbb 3289 f13a
00000040: 98e1 103a e83d 27bb e845 38ba a028 e0ba
00000050: 4dac d4bb 6780 61ba 1fc4 08bb 988b 95bb
00000060: d422 fdb9 9d6d 753b 3e64 8fba b3b3 adb9
00000070: 9945 353b b230 82ba be01 da3b dfa8 e1ba
00000080: 93b2 2aba 5bd0 04bc e06d cd3b 5256 30ba
00000090: 52c7 84ba 799a c1bb 256b 8ebb e64c 483a

encoder.1.weight f4 [40]
0.6762264 0.45237932 0.61227536 0.40928295 0.5487579 0.8208281 0.668464 0.69710046
0.52814645 0.5943632 0.7187641 0.68246424 0.77490133 0.6954871 0.47659892 0.8163179
0.6125468 0.76271975 0.64439803 0.7554101 0.4619837 0.72156864 0.51606697 0.5600166
0.3383982 0.6004139 0.6033369 0.3340424 0.6360761 0.58201283 0.73180157 0.75698197
0.7309765 0.6489239 0.7908916 0.5369518 0.7875266 0.9204488 0.88898665 0.61133015
00000000: 2c1d 2d3f 439e e73e 14be 1c3f 898d d13e
00000010: 667b 0c3f ca21 523f 7520 2b3f 2d75 323f
00000020: 9b34 073f 3028 183f ed00 383f fab5 2e3f
00000030: ef5f 463f 710b 323f c604 f43e 36fa 503f
00000040: decf 1c3f 9a41 433f 45f7 243f 8e62 413f
00000050: 2189 ec3e b9b8 383f f71c 043f 3f5d 0f3f
00000060: 8742 ad3e bab4 193f 4974 1a3f 9b07 ab3e
00000070: e2d5 223f cbfe 143f 5957 3b3f 92c9 413f
00000080: 4721 3b3f e01f 263f df77 4a3f ac75 093f
00000090: 589b 493f 88a2 6b3f a194 633f 2280 1c3f

encoder.1.bias f4 [40]
-0.073112056 -0.035504945 -0.026855465 -0.004746585 0.061196696 -0.13329057 -0.22350264 -0.22665323
0.12838355 0.01876923 -0.17327827 -0.1347934 -0.2080644 -0.18439053 0.18322462 0.022991745
0.012731697 -0.16688217 -0.15951802 -0.20259848 -0.033284504 -0.14579552 0.15584576 -0.07733388
-0.0054889964 -0.15483789 0.13665737 0.08174537 -0.13847128 -0.037063595 -0.17885396 -0.23635717
-0.16780241 0.18174434 -0.13486429 -0.1716404 -0.20232104 -0.2534248 -0.28302157 -0.093630716
00000000: c6bb 95bd a26d 11bd feff dbbc 3e89 9bbb
00000010: 63a9 7a3d 537d 08be e0dd 64be c917 68be
00000020: fa76 033e eec1 993c dc6f 31be 4807 0abe
00000030: d60e 55be dfd0 3cbe 3c9f 3b3e 2f59 bc3c
00000040: 9c98 503c 29e3 2abe b158 23be fa75 4fbe
00000050: 5555 08bd 6c4b 15be 0896 1f3e 3a61 9ebd
00000060: 0add b3bb d38d 1ebe e9ef 0b3e 1e6a a73d
00000070: 6acb 0dbe ffcf 17bd 7e25 37be 9d07 72be
00000080: 65d4 2bbe 301b 3a3e dd19 0abe 80c2 2fbe
00000090: 3f2d 4fbe e5c0 81be 34e8 90be 76c1 bfbd

encoder.1.running_mean f4 [40]
0.5464571 -0.3186632 -0.5688891 -0.3448754 -0.20459731 0.5168164 0.31036025 0.48477745
-0.29957318 0.12700315 0.12714347 0.61710054 0.523205 0.2966897 -0.45869687 0.49114627
-0.24152283 0.6131083 0.36617467 0.34678143 -0.28734902 0.25052628 -0.23433916 0.28467405
-0.06433702 0.133312 -0.24778734 -0.091620564 0.14732487 0.19995865 0.25910473 0.30737242
0.31466475 -0.24328345 0.37449035 -0.29912615 0.5716693 0.55243355 0.75182265 0.11772333
00000000: 9de4 0b3f d327 a3be b7a2 11bf 8293 b0be
00000010: f581 51be 144e 043f 8ae7 9e3e c034 f83e
00000020: a861 99be 1d0d 023e e631 023e 4dfa 1d3f
00000030: c3f0 053f b6e7 973e 51da eabe 8677 fb3e
00000040: c351 77be aaf4 1c3f 3f7b bb3e 568d b13e
00000050: 691f 93be fb44 803e 9bf6 6fbe ccc0 913e
00000060: 21c3 83bd f182 083e f7bb 7dbe 90a3 bbbd
00000070: 55dc 163e f6c1 4c3e 60a9 843e eb5f 9d3e
00000080: bd1b a13e 4c1f 79be 33bd bf3e 1027 99be
00000090: eb58 123f 496c 0d3f 7377 403f ee18 f13d

encoder.1.running_var f4 [40]
0.17271076 0.050417125 0.12570895 0.062401976 0.029489623 0.1520728 0.07777438 0.10925367
0.058775343 0.036925614 0.066985846 0.16166621 0.16711082 0.049062584 0.10813415 0.100765385
0.06057499 0.18765889 0.09329899 0.07570547 0.040847983 0.058933426 0.030111546 0.068170615
0.026706588 0.06779151 0.04927497 0.036641985 0.043484055 0.04659894 0.06280265 0.06876604
0.065603256 0.048046757 0.062218845 0.08750656 0.17546323 0.14868663 0.25357336 0.020038199
00000000: 17db 303e 3082 4e3d d9b9 003e 3799 7f3d
00000010: 3994 f13c f9b8 1b3e 2d48 9f3d 63c0 df3d
00000020: 6abe 703d 503f 173d e02f 893d d48b 253e
00000030: 191f 2b3e d9f5 483d 7075 dd3d 155e ce3d
00000040: 7b1d 783d a729 403e 8a13 bf3d 780b 9b3d
00000050: 3750 273d 2d64 713d 7dac f63c 099d 8b3d
00000060: c6c7 da3c 46d6 8a3d 8dd4 493d e815 163d
00000070: 561c 323d 88de 3e3d ad9e 803d 36d5 8c3d
00000080: 005b 863d adcc 443d 30d9 7e3d a436 b33d
00000090: a2ac 333e 4f41 183e 5ed4 813e 2627 a43c

encoder.3.weight f4 [40, 40, 4, 4]
0.000877575 0.01302577 -0.007869383 -0.020437803 -0.055750318 -0.11178997 0.0043382403 0.044983186
-0.01633842 0.0075671203 0.00211747 0.051337283 0.07510537 0.045107022 0.027096923 -0.005712286
0.0053218193 0.013400036 0.033859003 0.02315319 -0.021252465 -0.036808733 0.03608428 0.060224447
-0.0051470655 -0.00820333 0.027205184 0.10048288 0.002669821 -0.0053094537 0.026710862 0.02613899
-0.02621062 -0.023086695 -0.006095709 -0.00020835911 0.028781233 -0.034369666 -0.09350167 0.013315421
0.036786135 -0.03538652 -0.10460604 -0.03847436 0.07393583 -0.1061075 -0.09749816 -0.041416883
0.021834185 -0.014974135 -0.016601335 0.010623443 0.06544973 -0.06242021 -0.018692065 -0.0006212099
0.03735653 -0.0370713 0.030480241 0.033457827 0.00067975104 0.0262695 0.031742442 0.020067139
0.060080644 0.032536883 -0.07892236 -0.0021165854 0.012347734 0.14664003 -0.08701993 -0.03578104
-0.026049092 0.18043719 0.011050344 -0.005554715 -7.326828e-05 0.04471401 0.009076545 -0.020016028
-0.016189724 0.0048098597 -0.039453566 0.055257328 -0.108573265 -0.0024935107 0.07231093 0.030699095
-0.09055407 0.11975501 0.039895773 -0.044088613 -0.018077018 0.021281915 0.0819897 0.025658999
-0.0062488182 0.003179269 0.03711303 0.018572195 -0.067994565 -0.08346812 0.11125228 0.03142806
0.033551406 0.0812941 0.012748405 -0.0021429043 -0.012748943 0.11290239 -0.031828307 -0.006595538
-0.018879598 0.016707271 0.07075561 0.018844776 -0.012219197 -0.0058199274 0.04272005 0.09330448
0.03815754 0.068941556 -0.0268194 -0.025684621 -0.13287427 -0.00898033 0.12303935 0.036303736
-0.008148371 -0.067358635 -0.05553004 0.04001025 0.073111124 -0.100747146 -0.05937249 0.051266823
-0.021535372 -0.04659027 -0.035744507 0.019462118 -0.015239136 0.04347424 -0.029053075 0.0073641157
-0.0095569715 -0.019247862 -0.06317089 -0.001931459 0.08900418 0.0027110155 -0.0620291 -0.041527495
0.06318069 -0.01565915 -0.020411126 0.11014603 0.027306339 0.04409745 -0.010285381 -0.037364397
0.016881764 0.012527176 -0.0071869334 0.08415907 -0.044598747 0.09042376 0.04045299 0.015214086
-0.1236899 0.012230317 0.118837 0.015291887 -0.0035806438 0.01409537 -0.03168335 -0.03637622
-0.07468686 0.019755315 0.06720232 0.075945295 0.05816268 -0.016574575 -0.04841616 0.057904605
-0.044927776 -0.095896915 0.09036652 0.00797535 0.03488342 -0.043876406 0.05054215 0.09507582
-0.046368513 -0.016980572 -0.0080495095 -0.033604134 0.041977346 -0.029721841 0.00071755477 0.03501332
-0.08174915 0.062346514 -0.012109777 0.08400521 -0.018578272 -0.030992625 0.037556715 -0.018859603
-0.00531426 -0.050216768 0.032998882 0.044941004 0.14181918 0.13628696 -0.034943737 0.0029177146
-0.055140074 -0.047460765 0.06332293 0.09260677 -0.014478149 -0.049807966 -0.010300478 0.030084277
0.057614937 -0.06294437 -0.07681753 0.05341574 0.0412696 -0.05853177 -0.0340983 0.0530558
0.051408336 -0.037732888 -0.08906159 0.020457191 0.0844196 0.023366077 -0.046249937 0.04909925
0.006669297 -0.029788157 -0.009531949 0.029819276 -0.053475276 -0.1321024 0.018820034 0.053296305
0.0068342136 -0.038880974 -0.0615372 0.040307935 -0.04208962 -0.02364421 0.006551931 0.017813059
00000000: 100d 663a 0a6a 553c 96ee 00bc 2e6d a7bc
00000010: 725a 64bd 24f2 e4bd cc27 8e3b 4a40 383d
00000020: 26d8 85bc 9bf5 f73b 40c5 0a3b 0b47 523d
00000030: d8d0 993d 24c2 383d 5efa dd3c 212e bbbb
00000040: a862 ae3b d38b 5b3c bdaf 0a3d c2ab bd3c
00000050: a619 aebc c1c4 16bd 1ccd 133d e9ad 763d
00000060: b7a8 a8bb 4367 06bc 68dd de3c f8c9 cd3d
00000070: 2af8 2e3b edfa adbb bdd0 da3c 6f21 d63c
00000080: a7b7 d6bc 4f20 bdbc 83be c7bb f97a 5ab9
00000090: 9fc6 eb3c 35c7 0cbd ce7d bfbd ec28 5a3c
000000a0: 0fad 163d 75f1 10bd b13b d6bd 4a97 1dbd
000000b0: ab6b 973d e44e d9bd 1ead c7bd c0a4 29bd
000000c0: 9bdd b23c 1356 75bc 86ff 87bc f30d 2e3c
000000d0: 820a 863d 56ac 7fbd 1a20 99bc b1d8 22ba
000000e0: 2903 193d 13d8 17bd b3b1 f93c 130b 093d
000000f0: 5231 323a 2233 d73c 5d04 023d d763 a43c
00000100: 1f17 763d 6545 053d 0ca2 a1bd 69b6 0abb
00000110: 264e 4a3c ce28 163e 8137 b2bd 248f 12bd
00000120: e864 d5bc 87c4 383e 810c 353c 5404 b6bb
00000130: 9ca7 99b8 0a26 373d cab5 143c a7f8 a3bc
00000140: 50a0 84bc 079c 9d3b 109a 21bd 8255 623d
00000150: a95b debd 2b6a 23bb c117 943d ab7c fb3c
00000160: 6a74 b9bd 1d42 f53d c069 233d 4396 34bd
00000170: 4116 94bc 6957 ae3c 37ea a73d d232 d23c
00000180: e3c2 ccbb 485b 503b d503 183d b724 983c
00000190: bc40 8bbd 55f1 aabd 3cd8 e33d b6ba 003d
000001a0: 336d 093d 857d a63d b0de 503c f86f 0cbb
000001b0: f1e0 50bc 5e39 e73d 665e 02bd 621f d8bb
000001c0: 63a9 9abc b0dd 883c 51e8 903d 5c60 9a3c
000001d0: 0733 48bc 17b5 bebb 38fb 2e3d 6b16 bf3d
000001e0: 154b 1c3d 3b31 8d3d 5cb4 dbbc 8e68 d2bc
000001f0: 3110 08be 3c22 13bc 0efc fb3d 3ab3 143d
00000200: bf80 05bc 53f3 89bd 7873 63bd cae1 233d
00000210: 49bb 953d 8554 cebd 9130 73bd 29fd 513d
00000220: f36a b0bc 70d5 3ebd d568 12bd 056f 9f3c
00000230: 92ad 79bc 0b12 323d b700 eebc ae4e f13b
00000240: d894 1cbc b1ad 9dbc bd5f 81bd 0229 fdba
00000250: d347 b63d 4bab 313b 3a12 7ebd bc18 2abd
00000260: e164 813d 9e47 80bc 3c35 a7bc 3e94 e13d
00000270: 8bb1 df3c 879f 343d 0484 28bc 690b 19bd
00000280: a04b 8a3c c93e 4d3c 5e80 ebbb 975b ac3d
00000290: 2dad 36bd 1830 b93d 09b2 253d 8044 793c
000002a0: 2151 fdbd ab61 483c d060 f33d d38a 7a3c
000002b0: 3ca9 6abb 44f0 663c 67c6 01bd 3bff 14bd
000002c0: 6df5 98bd e6d5 a13c 5fa1 893d 3589 9b3d
000002d0: fe3b 6e3d 67c7 87bc 0650 46bd 612d 6d3d
000002e0: 3006 38bd 9a65 c4bd 1512 b93d 0bab 023c
000002f0: ebe1 0e3d bfb7 33bd 4905 4f3d 1db7 c23d
00000300: e9ec 3dbd d71a 8bbc 17e2 03bc 7da4 09bd
00000310: 70f0 2b3d 387b f3bc 491a 3c3a 216a 0f3d
00000320: 196c a7bd 0f5f 7f3d 1668 46bc ec0a ac3d
00000330: 7631 98bc 3fe4 fdbc 12d5 193d 747f 9abc
00000340: 3e23 aebb 19b0 4dbd d629 073d 0f14 383d
00000350: 0c39 113e cf8e 0b3e 2a21 0fbd 2137 3f3b
00000360: 8fda 61bd 3866 42bd 74af 813d 9ea8 bd3d
00000370: c235 6dbc 7003 4cbd 56c3 28bc 4d73 f63c
00000380: a4fd 6b3d fae8 80bd 8252 9dbd 77ca 5a3d
00000390: 500a 293d 02bf 6fbd a9aa 0bbd 0a51 593d
000003a0: 8c91 523d cd8d 1abd ec65 b6bd d795 a73c
000003b0: 2fe4 ac3d 376a bf3c 9370 3dbd 4c1c 493d
000003c0: 1e8a da3b 4b06 f4bc e42b 1cbc 8e47 f43c
000003d0: e408 5bbd da45 07be 792c 9a3c 3a4d 5a3d
000003e0: 8af1 df3b a841 1fbd 6e0e 7cbd ef19 253d
000003f0: 2a66 2cbd 81b1 c1bc 95b1 d63b b1ec 913c

encoder.3.bias f4 [40]
0.013022786 0.11700361 0.06720685 -0.016213533 0.13837 0.06396761 0.24233828 0.011885102
0.0054193274 0.0061566024 0.07718145 0.08790212 0.002117258 0.035133813 0.070235476 0.09938155
-0.012413049 0.005892322 0.012931949 -0.012347964 0.004982018 0.009446814 0.1635781 0.03103253
-0.03473207 0.09925507 -0.016282536 0.043294337 0.14687738 0.04241777 0.014863775 -0.022273144
-0.07964632 -0.028699262 -0.036250535 -0.07821478 -0.05437026 -0.070426516 0.040138863 0.013437745
00000000: 865d 553c 979f ef3d bfa3 893d 3ed2 84bc
00000010: deb0 0d3e 7301 833d 8727 783e bbb9 423c
00000020: 9d94 b13b 53bd c93b 4f11 9e3d 0706 b43d
00000030: b2c1 0a3b 79e8 0f3d 9ed7 8f3d 8e88 cb3d
00000040: 1a60 4bbc 6114 c13b 87e0 533c 1d4f 4abc
00000050: 3240 a33b cfc6 1a3c 0481 273e ef37 fe3c
00000060: 3743 0ebd 3e46 cb3d f462 85bc 6755 313d
00000070: 0667 163e 41be 2d3d 3187 733c 2b76 b6bc
00000080: 9c1d a3bd b71a ebbc 717b 14bd 122f a0bd
00000090: 5ab3 5ebd c73b 90bd a668 243d fd29 5c3c

encoder.4.block.1.weight f4 [40, 40, 3, 3]
-0.009111434 -0.03442536 0.03499728 -0.0028438582 -0.16416168 -0.072711095 -0.013862216 -0.0034934788
0.071404785 -0.081165776 0.13822584 0.10826529 0.03682773 -0.1941177 -0.0064036003 0.013045222
0.043352358 -0.030035913 0.00039809203 -0.024819603 0.047703862 0.065596886 -0.0260412 0.053437352
0.050326787 -0.00792134 0.014594192 -0.10743511 -0.032729164 -0.0312881 -0.05145258 0.060620353
-0.040333226 0.10725739 -0.2907095 -0.020823026 -0.018628377 -0.04438417 -0.0007230903 0.051773444
0.15613735 -0.0062716627 0.05242868 -0.03226811 -0.0036871566 -0.006884619 -0.0571884 0.039360322
0.050161015 -0.01235731 -0.012486463 0.022598485 -0.017133964 0.008131755 -0.04458141 0.053170215
0.0130000515 0.029190987 0.19203821 0.012893233 -0.053088143 0.018099494 0.0076188203 0.01612977
-0.052822687 0.05656691 -0.006401159 0.07505582 -0.0013973587 -0.0034218205 -0.03916051 -0.0058305804
-0.03277018 -0.011799154 -0.025216129 0.032001156 0.06087841 -0.044586986 -0.039535645 -0.0834625
-0.06087613 -0.03849343 0.12654614 0.07423569 -0.11447179 0.06200711 0.071526356 -0.024880273
0.049584907 0.040986214 0.014118656 -0.022915145 -0.014119799 -0.044910472 -0.03238758 -0.047537345
-0.03169821 -0.06333803 -0.07921506 -0.041415483 0.08245414 -0.04400179 -0.00035502153 -0.02546899
0.060086504 -0.02443614 0.040787395 0.017166125 0.019499172 0.09290051 -0.024402695 -0.09993079
0.119346015 0.0016869715 -0.02764551 -0.013201119 -0.05841338 0.07479035 -0.04239723 0.04165066
-0.109081216 -0.19229731 0.11706421 -0.0064344495 0.0065127215 -0.024003485 -0.07587543 0.09875943
-0.030027378 0.22549944 -0.31274334 0.050671194 0.06627343 -0.014498862 0.013672063 -0.08576812
0.08172428 0.016436964 0.0657716 0.013706521 0.011820868 -0.012477396 -0.019205702 -0.03208319
-0.027178349 -0.055709857 -0.08655894 0.07977213 -0.05040363 0.032149915 -0.06812222 -0.039153595
0.016178666 0.10641006 -0.037270267 -0.13294405 -0.04727111 0.08355559 0.10428198 0.04145056
-0.053982627 0.032455515 0.0074746367 -0.10120467 -0.047255628 0.006868365 -0.052407656 -0.03643429
0.022954825 -0.038377505 0.0049480684 -0.0436908 -0.00039833103 -0.07219677 -0.024769189 0.0148060005
-0.10265494 -0.16096643 0.1009779 0.025117503 -0.013445969 0.09036704 -0.14612906 0.07483881
-0.06972924 -0.06653521 -0.2564442 0.021717288 -0.05363149 0.0150972195 -0.14625625 0.009345908
-0.059391856 0.048930198 0.1465797 -0.027209928 0.026897069 -0.027440466 -0.020455878 0.0065368093
0.0033323697 -0.08254851 0.18425146 0.004561632 -0.036376297 -0.027423183 -0.03577975 0.021270514
-0.17942439 0.0014235746 -0.062562235 -0.22942755 0.007168722 0.008796098 0.04133807 0.03604034
0.051637564 0.029614845 -0.051551007 -0.1685523 0.17265959 0.08099078 0.07709955 0.028864939
-0.02939509 0.010209255 0.00018873443 -0.019373704 -0.13247252 0.2595018 -0.069863886 0.019995015
0.040692266 0.009064323 0.048222136 0.015181896 -0.014897376 0.027745342 -0.17603634 -0.045809668
0.021417934 0.0014191443 -0.0054487507 -0.008788647 0.09553024 0.030170053 -0.031727787 -0.15990147
0.010424662 0.08776478 -0.06556139 -0.0065153684 -0.017053539 0.03474846 -0.011334516 -0.015698299
00000000: 2048 15bc 9b01 0dbd 4f59 0f3d 0660 3abb
00000010: 001a 28be 8ee9 94bd 591e 63bc d9f2 64bb
00000020: ac3c 923d 3e3a a6bd 138b 0d3e 31ba dd3d
00000030: acd8 163d cac6 46be 4bd5 d1bb a0bb 553c
00000040: 3e92 313d e00d f6bc 02b7 d039 7b52 cbbc
00000050: 2065 433d a957 863d 5b54 d5bc 20e1 5a3d
00000060: 7623 4e3d 82c8 01bc 7a1c 6f3c f006 dcbd
00000070: 040f 06bd f327 00bd f1bf 52bd 0c4d 783d
00000080: 7434 25bd c3a9 db3d e0d7 94be 0d95 aabc
00000090: 8a9a 98bc 2dcc 35bd c58d 3dba 6410 543d
000000a0: 78e2 1f3e 8582 cdbb 75bf 563d 912b 04bd
000000b0: 39a4 71bb 5f98 e1bb 623e 6abd 4a38 213d
000000c0: a375 4d3d 5176 4abc 0694 4cbc 7520 b93c
000000d0: 875c 8cbc 0d3b 053c ff9a 36bd 03c9 593d
000000e0: 2bfe 543c f021 ef3c aaa5 443e 243e 533c
000000f0: f472 59bd 6445 943c 4ca7 f93b 9422 843c
00000100: 9a5c 58bd b4b2 673d d0c0 d1bb deb6 993d
00000110: 9427 b7ba 9f40 60bb c566 20bd 740e bfbb
00000120: 063a 06bd 3d51 41bc 0e92 cebc a513 033d
00000130: a45b 793d d8a0 36bd 21f0 21bd 63ee aabd
00000140: 4059 79bd 49ab 1dbd 5095 013e e208 983d
00000150: 3070 eabd 2bfb 7d3d 697c 923d b7d1 cbbc
00000160: 8b19 4b3d 29e1 273d ef51 673c 8bb8 bbbc
00000170: bb56 67bc 0bf4 37bd d7a8 04bd 85b6 42bd
00000180: fbd5 01bd 5eb7 81bd 813b a2bd 48a3 29bd
00000190: b7dd a83d 393b 34bd 2f22 bab9 58a4 d0bc
000001a0: 441d 763d 4d2e c8bc af10 273d f99f 8c3c
000001b0: babc 9f3c 9f42 be3d 29e8 c7bc 84a8 ccbd
000001c0: af6b f43d 5f1d dd3a d678 e2bc 8249 58bc
000001d0: de42 6fbd af2b 993d b8a8 2dbd e299 2a3d
000001e0: f965 dfbd 96e9 44be 5cbf ef3d 13d8 d2bb
000001f0: ab68 d53b f5a2 c4bc 9464 9bbd 6242 ca3d
00000200: fafb f5bc 53e9 663e e51f a0be 998c 4f3d
00000210: 5dba 873d a38c 6dbc ca00 603c 32a7 afbd
00000220: 0f5f a73d d0a6 863c 43b3 863d 5191 603c
00000230: 50ac 413c fe6d 4cbc 4755 9dbc aa69 03bd
00000240: 21a5 debc 0530 64bd d045 b1bd 925f a33d
00000250: 0974 4ebd a1af 033d aa83 8bbd 855f 20bd
00000260: 1f89 843c 84ed d93d b5a8 18bd 7c22 08be
00000270: 5a9f 41bd 311f ab3d ca91 d53d 10c8 293d
00000280: e31c 5dbd 13f0 043d cced f43b 6544 cfbd
00000290: 1e8f 41bd 0610 e13b 69a9 56bd 1f3c 15bd
000002a0: c20b bc3c bb31 1dbd 6823 a23b 20f5 32bd
000002b0: 16d7 d0b9 e6db 93bd c1e8 cabc de94 723c
000002c0: c13c d2bd 62d4 24be 80cd ce3d 39c3 cd3c
000002d0: 7b4c 5cbc 5b12 b93d dba2 15be 1745 993d
000002e0: 34ce 8ebd 9d43 88bd a74c 83be 74e8 b13c
000002f0: b1ac 5bbd 545a 773c 33c4 15be 941f 193c
00000300: e044 73bd 086b 483d fd18 163e 5be7 debc
00000310: 3e57 dc3c d4ca e0bc 1693 a7bc bb32 d63b
00000320: e363 5a3b 310f a9bd 6aac 3c3e be79 953b
00000330: 50ff 14bd 95a6 e0bc ca8d 12bd 803f ae3c
00000340: 07bb 37be 3d97 ba3a a120 80bd 0eef 6abe
00000350: 99e7 ea3b 821d 103c 1c52 293d 099f 133d
00000360: e981 533d d59a f23c 2627 53bd f998 2cbe
00000370: adcd 303e 7ede a53d 5ee6 9d3d 2a76 ec3c
00000380: f9cd f0bc b844 273c 03e7 4539 9ab5 9ebc
00000390: e0a6 07be 6cdd 843e cc14 8fbd 96cc a33c
000003a0: efac 263d 8782 143c 9384 453d 7dbd 783c
000003b0: 2014 74bc 334a e33c df42 34be eba2 3bbd
000003c0: aa74 af3c 9502 ba3a 6f8b b2bb 42fe 0fbc
000003d0: 5ca5 c33d 3027 f73c fff4 01bd 36bd 23be
000003e0: 34cc 2a3c 05be b33d 0d45 86bd df7e d5bb
000003f0: ddb3 8bbc 6754 0e3d 68b4 39bc b899 80bc

encoder.4.block.1.bias f4 [40]
0.0030322778 -0.0050895866 -0.0003015371 0.0007498784 -0.00011852815 0.0026404706 0.0012950759 8.361064e-05
0.0005873853 -0.00096937193 0.004769451 0.008730071 -0.00018488789 0.0022541624 -0.00032612053 0.0010696818
-0.0024436207 -0.0013393912 0.00069397216 0.00074915274 -7.035071e-05 -1.4555067e-05 -0.0017412194 -0.0023084441
0.0034940692 -0.0007965308 0.0013431156 0.0050989753 -0.00026037838 0.00085517653 0.0019969211 0.0014624059
0.001331699 0.0028382044 -0.00055727625 0.004378759 -0.0030508023 0.00042068382 -0.00080468407 0.0026832812
00000000: 2eb9 463b 8cc6 a6bb a017 9eb9 7d93 443a
00000010: 5192 f8b8 bf0b 2d3b 89bf a93a 1f58 af38
00000020: c3fa 193a 731d 7eba 0e49 9c3b 9208 0f3c
00000030: 77de 41b9 92ba 133b 28fb aab9 9134 8c3a
00000040: 2725 20bb 838e afba afeb 353a ca62 443a
00000050: 4089 93b8 8931 74b7 a139 e4ba 4449 17bb
00000060: c1fc 643b 47ce 50ba 7b0b b03a 4e15 a73b
00000070: 6583 88b9 ed2d 603a c7de 023b 33ae bf3a
00000080: 678c ae3a 2b01 3a3b 2d16 12ba b17b 8f3b
00000090: f8ef 47bb 3a8f dc39 6ff1 52ba fdd9 2f3b

encoder.4.block.2.weight f4 [40]
1.0840988 1.0861088 1.0191894 0.9428138 0.97865707 0.95463246 0.9104655 0.9164794
0.7810722 0.87896764 0.9803176 1.077619 0.9881442 1.1026038 1.1604443 1.0672747
1.0733117 0.6233433 0.93359095 0.859469 0.9674767 1.0918468 0.7185506 0.9451408
0.8938994 0.8716381 1.0893182 1.1052867 0.9383046 1.140498 1.0887678 1.1029505
1.0890281 1.2006606 0.94144887 1.0536104 0.9156725 0.68954027 1.2946038 0.8481044
00000000: c0c3 8a3f 9d05 8b3f cc74 823f 3f5c 713f
00000010: 4589 7a3f cb62 743f 4414 693f 659e 6a3f
00000020: 59f4 473f 0604 613f 18f6 7a3f 6bef 893f
00000030: 05f7 7c3f 1f22 8d3f 7089 943f 759c 883f
00000040: 4762 893f 6d93 1f3f d1ff 6e3f 2906 5c3f
00000050: 8eac 773f a3c1 8b3f eff2 373f bff4 713f
00000060: 97d6 643f ad23 5f3f c76e 8b3f 097a 8d3f
00000070: bb34 703f d7fb 913f be5c 8b3f 7b2d 8d3f
00000080: 4665 8b3f 3faf 993f cb02 713f b5dc 863f
00000090: 8369 6a3f b685 303f 94b5 a53f 5f1d 593f

encoder.4.block.2.bias f4 [40]
0.36489236 0.21375966 -0.048383154 0.6117424 0.38264886 0.4133988 0.08975299 0.07153011
0.09674042 -0.06865709 0.05939076 0.38554934 0.38845983 0.5075056 0.42839134 -0.0703875
0.04451429 0.16040668 0.25079083 0.237142 -0.17246713 -0.07065165 -0.40230632 -0.07187614
0.06748564 0.0023438528 0.25305134 -0.041129325 -0.27923244 -0.028775383 0.32891992 0.1875939
0.08162917 0.3001196 0.13033007 0.0032613082 -0.002102695 -0.024342256 -0.33859995 0.06654518
00000000: 2cd3 ba3e d0e3 5a3e 6a2d 46bd 269b 1c3f
00000010: 8dea c33e 02a9 d33e 6ad0 b73d 617e 923d
00000020: d71f c63d 179c 8cbd ba43 733d b966 c53e
00000030: 35e4 c63e e3eb 013f 1c56 db3e 5227 90bd
00000040: 9e54 363d a641 243e a867 803e 5ad5 723e
00000050: 399b 30be d0b1 90bd 18fb cdbe cc33 93bd
00000060: e935 8a3d 539b 193b f28f 813e 3977 28bd
00000070: 8ef7 8ebe 5aba ebbc 3168 a83e 9e18 403e
00000080: 322d a73d 47a9 993e 3f75 053e acbb 553b
00000090: 5ecd 09bb 6969 c7bc f95c adbe d748 883d

encoder.4.block.2.running_mean f4 [40]
0.22575018 -0.7680502 -0.71659696 -0.5613946 0.0008641865 0.54583424 0.1855891 -0.31751916
-0.12467842 -0.20872633 0.41496575 0.30595446 0.040649667 0.38206938 0.19447406 -0.67631185
-0.5487537 -0.023796115 0.58614874 -0.0066385134 0.11293396 -0.6205282 -0.39566118 -0.24700934
0.0887051 -0.5060963 0.6322888 0.68651396 0.01900974 -0.81482893 0.8200097 0.56431055
-0.56784487 -0.0786978 0.24838063 -0.51310945 -0.09379612 -0.19150123 -0.38638774 -0.015346993
00000000: 0e2b 673e f09e 44bf e672 37bf 8eb7 0fbf
00000010: 938a 623a cbbb 0b3f 120b 3e3e df91 a2be
00000020: 6657 ffbd 5bbc 55be 6476 d43e 10a6 9c3e
00000030: 4480 263d 999e c33e 3524 473e c622 2dbf
00000040: 1f7b 0cbf 12f0 c2bc d80d 163f e387 d9bb
00000050: ec49 e73d f0da 1ebf 1a94 cabe 04f0 7cbe
00000060: 05ab b53d 878f 01bf aedd 213f 61bf 2f3f
00000070: 50ba 9b3c a198 50bf 28ec 513f a876 103f
00000080: 485e 11bf 502c a1bd 7e57 7e3e 245b 03bf
00000090: 2e18 c0bd e618 44be 9dd4 c5be f471 7bbc

encoder.4.block.2.running_var f4 [40]
0.41160393 0.99903667 0.79899406 0.45430925 0.34073758 0.40504134 0.47973496 0.16165507
0.2535693 0.49302137 0.5447726 0.4823002 0.30281565 0.30603024 0.6923166 0.50417346
0.37836972 0.1885925 0.5590779 0.2105085 0.11522408 0.9320736 0.07217936 0.48628527
0.40955535 0.43456408 0.5347037 0.65832573 0.086328626 0.9083998 0.63611376 1.0342948
0.744352 0.40819108 0.4406506 0.5377962 0.25644064 0.16696423 0.14544806 0.18808764
00000000: c0bd d23e dec0 7f3f e08a 4c3f 399b e83e
00000010: 2875 ae3e 9461 cf3e d29f f53e e888 253e
00000020: d6d3 813e 4c6d fc3e 3876 0b3f 0df0 f63e
00000030: a70a 9b3e ffaf 9c3e a93b 313f 8311 013f
00000040: adb9 c13e 641e 413e bb1f 0f3f 8a8f 573e
00000050: 9afa eb3d 609c 6e3f c6d2 933d 62fa f83e
00000060: 3db1 d13e 2f7f de3e 57e2 083f 0988 283f
00000070: 10cd b03d e48c 683f 5ad8 223f c663 843f
00000080: da8d 3e3f 6cfe d03e f59c e13e 03ad 093f
00000090: 304c 833e acf8 2a3e 56f0 143e 0c9a 403e

encoder.4.block.4.weight f4 [40, 40, 1, 1]
0.04715056 0.14655969 0.26601732 0.14644614 -0.018485837 -0.023015412 0.014219473 0.050065808
-0.031798575 0.09845774 -0.21666709 -0.20430863 -0.19212404 -0.18667752 -0.1995737 -0.0731011
0.10556911 -0.0049995664 -0.109366104 -0.039988603 0.14394335 0.19100296 0.016326014 0.22312836
0.19474582 0.053340226 -0.30791518 -0.2452632 -0.3091893 -0.11299725 -0.53586006 -0.00063542015
-0.011480942 -0.25823876 0.06715236 0.03621664 0.054472543 -0.073291436 0.3294393 0.08672317
0.13155451 -0.09101531 0.46487328 -0.17006387 0.048094686 0.06062397 0.0015446463 0.04276077
0.12652947 -0.02079731 -0.049589027 0.22223684 0.07958798 0.16820312 0.2802548 -0.19400448
-0.11608266 0.12176496 -0.066117436 0.02413709 -0.09186857 -0.23397784 0.015201885 -0.06893765
-0.018070243 -0.0051872595 -0.006213006 0.062424287 -0.014933413 -0.0978961 0.108810656 0.09282912
0.040910505 0.37761456 0.14990954 -0.14233214 -0.0866268 0.11484347 -0.35941556 -0.04172842
-0.14510667 0.17431174 0.05978775 -0.25173998 -0.04949161 -0.12956317 -0.11759105 -0.10978928
0.008253628 -0.11598765 0.037301656 -0.25026754 0.044796944 -0.06810527 -0.15852986 0.015499204
0.0514725 0.042475324 -0.14627798 -0.17675807 -0.07318029 0.101093575 0.039630387 0.08461333
-0.20947315 0.038178038 -0.15740173 0.08819029 -0.1459942 0.18051873 -0.11760029 -0.31754634
-0.124586515 -0.27040416 -0.011114191 0.16800421 0.030184675 0.024742141 0.52868927 -0.035240922
-0.028755933 0.28107896 0.16234882 -0.044676 -0.16996962 0.053935863 -0.17417766 -0.39601046
-0.5104181 -0.06240888 0.10418289 -0.32237417 -0.068200275 -0.1299908 -0.07219786 -0.23041712
-0.016869104 0.065953545 -0.2374249 0.123568736 0.2238566 0.18250318 0.012471299 0.15295589
-0.21892808 -0.0016789833 -0.07473391 0.0018968679 0.18020605 -0.0034057999 -0.059299678 0.04920018
0.10431248 -0.10724586 -0.10926164 0.21314192 0.099511735 -0.059192155 0.34576908 -0.039268333
-0.09713411 -0.19367205 -0.051529665 -0.01290304 -0.034213167 -0.28234863 0.25726628 -0.19743304
-0.09498862 0.059073634 0.024196187 0.11425422 0.2607648 0.35998717 0.16412729 -0.022808256
-0.100958966 0.043494128 0.08592035 0.16035797 0.17769876 0.028224286 -0.27150962 0.08068861
-0.02719356 -0.2326375 -0.13720983 0.14558363 0.11802876 -0.11847033 0.15641542 -0.22258076
-0.14788021 0.12956187 0.17707762 -0.046249233 -0.11538421 -0.15839924 -0.19678077 0.11260941
0.062766746 -0.061837368 0.040905368 -0.034421265 -0.07681389 -0.4281108 -0.28642935 0.0674709
-0.13918652 -0.044430792 0.08789467 -0.17318964 -0.38225085 0.0029749756 0.042767838 0.005132849
-0.0851754 0.11154875 -0.0760116 -0.26570064 -0.018688906 -0.0077398536 0.1517914 0.033314627
-0.010256737 0.118181184 0.0974082 0.18459035 -0.15411846 0.003122372 -0.1646688 0.38094115
0.11930861 0.24384075 -0.19084343 0.039565306 0.0897847 -0.02425655 0.29924127 -0.13304456
-0.1646276 -0.13343483 -0.27856994 0.022715459 0.035172306 -0.19805674 0.16202147 0.053178832
0.23724706 0.037854925 -0.5518649 -0.21468616 -0.1816115 -0.072662406 -0.09693559 -0.056138232
00000000: f220 413d be13 163e 6c33 883e faf5 153e
00000010: 9c6f 97bc d18a bcbc cbf8 683c ce11 4d3d
00000020: 393f 02bd 36a4 c93d fadd 5dbe 4836 51be
00000030: 2abc 44be 6428 3fbe 0c5d 4cbe 08b6 95bd
00000040: 9e34 d83d 67d3 a3bb 56fb dfbd 17cb 23bd
00000050: e365 133e 4896 433e 22be 853c c37b 643e
00000060: 736b 473e 487b 5a3d 0fa7 9dbe 4726 7bbe
00000070: 0f4e 9ebe 1a6b e7bd 202e 09bf 5392 26ba
00000080: 901a 3cbc df37 84be 2d87 893d e657 143d
00000090: 9a1e 5f3d d219 96bd 45ac a83e eb9b b13d
000000a0: 3ab6 063e 3c66 babd df03 ee3e 3925 2ebe
000000b0: effe 443d d750 783d bb75 ca3a eb25 2f3d
000000c0: f190 013e 1f5f aabc dd1d 4bbd 0e92 633e
000000d0: 06ff a23d 703d 2c3e 8f7d 8f3e 1ca9 46be
000000e0: bfbc edbd e85f f93d 9468 87bd 26bb c53c
000000f0: 9725 bcbd e397 6fbe 5411 793c 2f2f 8dbd
00000100: 0c08 94bc e3f9 a9bb 7996 cbbb 9cb0 7f3d
00000110: 46ab 74bc c07d c8bd 1fd8 de3d 321d be3d
00000120: c691 273d b256 c13e e381 193e 84bf 11be
00000130: 6469 b1bd 0e33 eb3d 5105 b8be 6beb 2abd
00000140: d896 14be c77e 323e 00e4 743d 10e4 80be
00000150: b7b7 4abd 35ac 04be 94d3 f0bd 34d9 e0bd
00000160: 3a3a 073c ef8a edbd 9fc9 183d 1123 80be
00000170: 007d 373d c77a 8bbd a755 22be 60f0 7d3c
00000180: d4d4 523d 9bfa 2d3d e5c9 15be 1100 35be
00000190: 8cdf 95bd 260a cf3d 7953 223d c149 ad3d
000001a0: 2180 56be 9360 1c3d eb2d 21be 1c9d b43d
000001b0: 817f 15be e7d9 383e 6cd8 f0bd 6f95 a2be
000001c0: 3727 ffbd 6a72 8abe 4c18 36bc 4c09 2c3e
000001d0: da45 f73c 08b0 ca3c 2e58 073f c958 10bd
000001e0: 9091 ebbc 95e9 8f3e c53e 263e 2efe 36bd
000001f0: 840c 2ebe daeb 5c3d a15b 32be e2c1 cabe
00000200: c3aa 02bf 74a0 7fbd d75d d53d 3a0e a5be
00000210: 96ac 8bbd 4f1c 05be 79dc 93bd 77f2 6bbe
00000220: 1331 8abc a712 873d 831f 73be 9b11 fd3d
00000230: aa3a 653e 1de2 3a3e 6b54 4c3c 78a0 1c3e
00000240: af2e 60be 5511 dcba 180e 99bd 53a0 f83a
00000250: ef87 383e d733 5fbb 38e4 72bd 2186 493d
00000260: c8a1 d53d b8a3 dbbd 91c4 dfbd e041 5a3e
00000270: cfcc cb3d 7973 72bd a508 b13e d5d7 20bd
00000280: 40ee c6bd f751 46be c510 53bd 4667 53bc
00000290: 1b23 0cbd 0090 90be 68b8 833e e32b 4abe
000002a0: 6589 c2bd 32f7 713d 1537 c63c 1efe e93d
000002b0: f782 853e 3d50 b83e fc10 283e 61d8 babc
000002c0: 93c3 cebd e626 323d 02f7 af3d e134 243e
000002d0: aaf6 353e 9e36 e73c 4f03 8bbe 1240 a53d
000002e0: 07c5 debc 8638 6ebe bc80 0cbe e013 153e
000002f0: 10b9 f13d 93a0 f2bd 5d2b 203e 36ec 63be
00000300: e96d 17be deab 043e d653 353e d66f 3dbd
00000310: 8f4e ecbd 6933 22be e680 49be c39f e63d
00000320: da8b 803d 2e49 7dbd 638c 273d 50fd 0cbd
00000330: 9a50 9dbd 5731 dbbe dea6 92be 2f2e 8a3d
00000340: e986 0ebe 10fd 35bd 1f02 b43d a058 31be
00000350: 62b6 c3be cff7 423b 542d 2f3d 7531 a83b
00000360: 7170 aebd ac73 e43d f8ab 9bbd ea09 88be
00000370: 7a19 99bc 999e fdbb 346f 1b3e eb74 083d
00000380: df0b 28bc fa08 f23d f37d c73d 4105 3d3e
00000390: 3bd1 1dbe b6a0 4c3b f09e 28be b80a c33e
000003a0: 1358 f43d 64b1 793e 766c 43be 3b0f 223d
000003b0: 0ae1 b73d acb5 c6bc 2736 993e d53c 08be
000003c0: 2394 28be 24a3 08be b8a0 8ebe c515 ba3c
000003d0: d610 103d 63cf 4abe f5e8 253e 0cd2 593d
000003e0: e5f0 723e c40d 1b3d 0547 0dbf b0d6 5bbe
000003f0: 5df8 39be 07d0 94bd 2b86 c6bd 34f1 65bd

encoder.4.block.4.bias f4 [40]
-0.008268138 0.0020880261 -0.005173718 -0.0017357387 -0.0006728337 0.0002957054 -0.011647046 -0.009308946
0.00029619463 -0.00015785306 -0.0022530644 -0.004137182 -0.004555362 0.0012920856 -0.0065786936 0.0005654514
-0.0062154117 0.00042230164 0.0027116877 0.009931387 0.0072806804 -0.004869223 0.0038932867 -0.0010459688
-0.005705733 -0.0042866906 -0.0034895027 0.000114180664 -0.0052985023 -0.0076933596 0.0016705687 0.005519164
-0.0026120497 -0.003101523 -0.008018463 -0.0041748583 -0.005985033 -0.0064895516 0.001917736 -0.0020449157
00000000: 1677 07bc 44d7 083b 4b88 a9bb ba81 e3ba
00000010: 1b61 30ba e808 9b39 40d3 3ebc 8d84 18bc
00000020: 924a 9b39 5c85 25b9 26a8 13bb 3391 87bb
00000030: 2545 95bb 335b a93a 1592 d7bb cd3a 143a
00000040: a7aa cbbb 5e68 dd39 92b6 313b 42b7 223c
00000050: c692 ee3b 018e 9fbb 8326 7f3b e418 89ba
00000060: 28f7 babb 5e77 8cbb 24b0 64bb 4774 ef38
00000070: 0f9f adbb 9418 fcbb fcf6 da3a 1ada b43b
00000080: ec2e 2bbb ec42 4bbb df5f 03bc 40cd 88bb
00000090: 191e c4bb 4ea6 d4bb 8b5c fb3a fe03 06bb

encoder.4.block.5.weight f4 [40]
0.7297717 0.5698378 0.7263177 0.55619377 0.7986212 0.57151884 0.94989586 0.52194935
0.7539601 0.6146173 0.86703765 0.82666373 0.7138729 0.67179835 0.5564185 1.3296446
0.526695 0.90193564 0.95260036 0.4962962 0.34365332 0.9219418 0.97709376 0.67987
0.5726154 0.5117406 0.8706784 0.9510309 0.6480134 0.67347836 0.8130405 0.48558792
0.5295178 0.74668944 0.85717005 0.8027858 0.8332715 0.6234645 0.49374613 0.57412964
00000000: 51d2 3a3f e4e0 113f f5ef 393f b762 0e3f
00000010: 7072 4c3f 0f4f 123f 602c 733f 799e 053f
00000020: 8703 413f 8f57 1d3f 2ef6 5d3f 3ca0 533f
00000030: 60c0 363f fafa 2b3f 7171 0e3f cb31 aa3f
00000040: 7cd5 063f 41e5 663f 9edd 733f 891a fe3e
00000050: 54f3 af3e 6104 6c3f d122 7a3f f60b 2e3f
00000060: ec96 123f 6f01 033f c8e4 5e3f c376 733f
00000070: 35e4 253f 1469 2c3f 6c23 503f fb9e f83e
00000080: 7b8e 073f 0a27 3f3f 7f6f 5b3f 5f83 4d3f
00000090: 4851 553f 5f9b 1f3f 4bcc fc3e 29fa 123f

encoder.4.block.5.bias f4 [40]
-0.45887253 0.016835148 -0.29398516 -0.2276689 0.04572709 -0.23656785 -0.22488904 -0.3104601
0.13331293 -0.32760444 0.06243979 -0.19487178 -0.3899026 -0.02460976 -0.11157098 -0.25063917
-0.28472337 -0.0032386305 0.15900406 -0.13677374 -0.18016702 0.040755134 0.04104277 -0.14902477
-0.3258669 -0.07887218 0.054875992 0.08811433 -0.1398385 -0.10995161 -0.2711665 -0.14784738
-0.151046 -0.2663388 -0.09813238 -0.29522184 -0.2850628 -0.009291176 -0.07980017 -0.18740852
00000000: 57f1 eabe dde9 893c 3985 96be 0922 69be
00000010: 544c 3b3d d83e 72be 5049 66be a0f4 9ebe
00000020: 2f83 083e c5bb a7be dec0 7f3d 788c 47be
00000030: 50a1 c7be 689a c9bc 537f e4bd c753 80be
00000040: 43c7 91be 343f 54bb f6d1 223e 6a0e 0cbe
00000050: b47d 38be dbee 263d 771c 283d f399 18be
00000060: 07d8 a6be bd87 a1bd a6c5 603d 4975 b43d
00000070: d331 0fbe 4f2e e1bd 56d6 8abe 4e65 17be
00000080: cdab 1abe 8f5d 88be a1f9 c8bd 5127 97be
00000090: c0f3 91be 043a 18bc 466e a3bd 05e8 3fbe

encoder.4.block.5.running_mean f4 [40]
-0.60637635 0.49675226 -0.9115486 -0.42430273 0.045539547 -0.32913232 -0.8934682 -0.28839543
-0.014460106 -0.6370646 0.5860201 0.19210978 0.14721242 0.6787036 -0.7979036 -0.18640481
-0.20728171 0.35575292 1.0240033 0.58198124 -0.21769565 0.45132744 0.35252357 -0.16439028
0.00039295986 -0.43989 0.5343561 0.51296884 -0.36041126 -0.7575444 -0.8867482 -0.18137118
-0.0013940522 -0.48248965 -0.38450924 -0.5155546 -0.59670275 -0.36097714 0.03914973 -0.4008493
00000000: 7b3b 1bbf 5056 fe3e 405b 69bf 353e d9be
00000010: ad87 3a3d 0884 a8be 55ba 64bf 91a8 93be
00000020: 15ea 6cbc aa16 23bf 6a05 163f 6db8 443e
00000030: dabe 163e 85bf 2d3f 6943 4cbf e7e0 3ebe
00000040: a841 54be 3f25 b63e 8a12 833f b9fc 143f
00000050: 9ceb 5ebe 6414 e73e f87d b43e ed55 28be
00000060: 2e06 ce39 4339 e1be 90cb 083f ed51 033f
00000070: d387 b8be 6eee 41bf ee01 63bf 5eb9 39be
00000080: a1b8 b6ba e208 f7be 65de c4be 63fb 03bf
00000090: 83c1 18bf ffd1 b8be 785b 203d 1f3c cdbe

encoder.4.block.5.running_var f4 [40]
5.3948197 3.4631546 3.6949813 4.1681657 1.4176724 0.57350546 2.2820623 6.0691648
1.1921742 1.6130716 2.6950572 1.7353643 0.6635955 2.7619479 4.9005623 0.6751925
0.9637303 1.8291427 3.5427346 0.9249608 1.7937253 5.1477766 0.7520616 3.9706001
4.69109 0.41215977 3.2609284 6.846352 1.436845 1.0229441 4.5032654 6.2215033
1.486332 1.4038575 4.922931 1.8044215 1.3949777 0.9450239 2.953581 1.3747482
00000000: 5da2 ac40 53a4 5d40 937a 6c40 9d61 8540
00000010: 4a76 b53f 41d1 123f 4f0d 1240 9936 c240
00000020: 2a99 983f 2179 ce3f d17b 2c40 6b20 de3f
00000030: 65e1 293f c1c3 3040 68d1 9c40 6ad9 2c3f
00000040: 07b7 763f 5921 ea3f 2abc 6240 3bca 6c3f
00000050: ca98 e53f 96ba a440 1c87 403f 501e 7e40
00000060: 691d 9640 9b06 d33e 0db3 5040 5115 db40
00000070: 89ea b73f d5ef 823f c01a 9040 8e16 c740
00000080: 2140 be3f 9ab1 b33f a788 9d40 49f7 e63f
00000090: a18e b23f 16ed 713f 7907 3d40 c0f7 af3f

encoder.5.block.1.weight f4 [40, 40, 3, 3]
0.26549253 -0.046131738 -0.063919805 0.021762691 0.056668684 -0.13698441 0.17111617 -0.027404638
0.030678907 0.014898838 0.0013662969 -0.003951694 -0.04504649 0.09410097 -0.00396212 -0.031443622
0.059929185 -0.0125253815 -0.030078374 0.09955715 0.04996448 -0.082671575 -0.31207538 0.079295255
-0.079474516 -0.03138595 -0.05392207 0.036667835 0.051364284 0.008206498 0.06065333 0.060794774
-0.12770917 -0.0013309569 0.006460122 0.07488108 0.02618223 -0.0026306799 -0.010699243 0.09171324
-0.10066828 0.02816581 0.0057453187 -0.030392675 -0.0237249 -0.04224034 -0.16499154 0.09256078
-0.014581867 -0.2530803 0.015125716 -0.002114508 0.14658017 0.1077313 -0.075288504 0.21279897
-0.021674799 -0.119702905 -0.24387923 -0.22974443 0.031101508 -0.099965446 -0.02037289 0.045021348
-0.09201244 -0.06310605 -0.010676101 -0.108250864 -0.28586662 0.06253748 0.12684686 0.06283572
0.026627583 -0.01569123 -0.13556091 0.014232824 -0.22315077 -0.00014717384 0.043061197 -0.038349207
0.017873345 0.013129915 0.055932168 0.08402312 0.039032184 0.07142262 0.12239258 -0.08263289
0.03855542 0.032812078 -0.018357152 -0.011941022 0.042994432 0.007874996 0.17024653 0.014916804
0.027267372 0.0144687 0.08297748 0.025832996 0.050294917 0.033251084 -0.032107845 -0.36191374
0.035151437 -0.006963409 -0.026764702 -0.029055642 0.04448141 -0.029231638 0.011206425 0.07151253
-0.24127774 0.21259356 -0.041210566 0.015104717 -0.0708006 0.03082233 0.06181871 0.07467293
-0.05371346 0.047494207 -0.0017667607 -0.016682778 0.019424852 0.006121129 -0.07665978 -0.041119758
-0.012579451 0.020173034 0.15977304 -0.04354397 -0.00040812578 0.051430702 0.0036506532 0.00377585
0.009174091 0.03429222 0.013273476 0.010389442 0.007196902 0.008548042 -0.02131633 0.019439155
-0.1590652 -0.029634207 -0.019351313 0.11036993 -0.14196041 0.025687773 0.015584186 -0.05269676
0.008482547 0.012171417 0.05936452 0.009143784 -0.07281793 -0.14601935 0.009401356 0.027589725
-0.020322569 -0.046012733 -0.012389065 -0.051850714 -0.044408854 0.0036125735 0.46686354 -0.011728328
0.014926123 -0.0018496544 -0.0026759878 0.039759602 -0.11163836 -0.112164795 0.0019010094 0.0024460594
-0.016700596 -0.018525168 -0.033908907 0.014775901 -0.01937091 -0.009619817 0.037180025 -0.08621081
0.03425658 -0.073657885 -0.028351253 0.05459423 -0.020693248 -0.02141797 0.0004381149 0.016645834
0.06479803 0.26280826 0.026054496 -0.045771066 -0.020164669 -0.031339113 0.0066692675 0.04363827
0.012879811 -0.018327419 -0.042355675 -0.025105292 0.012885573 -0.029960925 -0.015055356 -0.03662719
-0.0011457046 0.118539356 -0.013995629 0.09816809 -0.058192614 0.005542343 -0.03043273 0.03909211
0.009393672 0.058906183 0.046812106 -0.039602906 0.13006003 -0.04797904 0.022133064 -0.073466346
0.018925397 -0.02474278 -0.13281035 0.08195889 0.06740334 0.032093573 0.04308866 -0.07624015
0.0032391092 0.04799313 -0.029272221 0.020937383 -0.031205066 -0.01955614 0.23172824 -0.007037106
-0.05330472 -0.03776674 0.05057602 0.06481328 -0.009186458 0.037664693 0.0024602215 0.075302765
-0.030443626 0.051775225 0.03928402 -0.062058523 -0.025632596 -0.047040947 0.03861868 0.004744084
00000000: a3ee 873e a2f4 3cbd 63e8 82bd ac47 b23c
00000010: 6c1d 683d a445 0cbe 1439 2f3e b17f e0bc
00000020: 5552 fb3c 411a 743c 5115 b33a 367d 81bb
00000030: ab82 38bd 02b8 c03d acd4 81bb 07cb 00bd
00000040: 4e78 753d 4237 4dbc ec66 f6bc 9ee4 cb3d
00000050: 8ea7 4c3d b74f a9bd 58c8 9fbe 8d65 a23d
00000060: 89c3 a2bd 8e8e 00bd 63dd 5cbd 0331 163d
00000070: 5b63 523d 8c74 063c a06f 783d f103 793d
00000080: 31c6 02be 8173 aeba 6eaf d33b 405b 993d
00000090: 1e7c d63c 7c67 2cbb e14b 2fbc 27d4 bb3d
000000a0: 2c2b cebd fcbb e63c 3a43 bc3b 0ffa f8bc
000000b0: b95a c2bc 3504 2dbd 8bf3 28be 8290 bd3d
000000c0: c8e8 6ebc be93 81be dad1 773c 8f93 0abb
000000d0: 1d19 163e 3aa2 dc3d dc30 9abd f9e7 593e
000000e0: 598f b1bc cc26 f5bd 7abb 79be 2042 6bbe
000000f0: 97c8 fe3c afba ccbd 0ce5 a6bc 4e68 383d
00000100: 0571 bcbd bf3d 81bd d0ea 2ebc a1b2 ddbd
00000110: 1c5d 92be a613 803d 25e4 013e 04b0 803d
00000120: 1722 da3c e58a 80bc 7bd0 0abe ca30 693c
00000130: a381 64be ad52 1ab9 f060 303d 0f14 1dbd
00000140: 1f6b 923c db1e 573c 2119 653d 5014 ac3d
00000150: 36e0 1f3d 0646 923d f6a8 fa3d 6f3b a9bd
00000160: 4aec 1d3d f565 063d bd61 96bc 47a4 43bc
00000170: ee1a 303d 2106 013c 1b55 2e3e 9c65 743c
00000180: d35f df3c 200e 6d3c 19f0 a93d b89f d33c
00000190: 0b02 4e3d 4a32 083d 8483 03bd c24c b9be
000001a0: f4fa 0f3d 4f2d e4bb a641 dbbc 1906 eebc
000001b0: 2432 363d 3077 efbc 279b 373c 2975 923d
000001c0: 8311 77be 20b2 593e 69cc 28bd c679 773c
000001d0: e8ff 90bd 1c7f fc3c 9e35 7d3d 1fee 983d
000001e0: a502 5cbd 4989 423d a792 e7ba 52aa 88bc
000001f0: de20 9f3c c093 c83b ceff 9cbd 316d 28bd
00000200: 0b1a 4ebc eb41 a53c 8b9b 233e 295b 32bd
00000210: b7f9 d5b9 00a9 523d cc3f 6f3b 4074 773b
00000220: ed4e 163c 0076 0c3d fe78 593c 7a38 2a3c
00000230: fdd3 eb3b 160d 0c3c 969f aebc dd3e 9f3c
00000240: fde1 22be 70c3 f2bc a586 9ebc a109 e23d
00000250: 125e 11be 2a6f d23c d054 7f3c 8fd8 57bd
00000260: 61fa 0a3c 9f6a 473c 3628 733d cfcf 153c
00000270: 9121 95bd 1986 15be 2508 1a3c d903 e23c
00000280: 847b a6bc d977 3cbd 81fb 4abc 6a61 54bd
00000290: 0fe6 35bd edc0 6c3b bd08 ef3e 2c28 40bc
000002a0: b38c 743c 1a70 f2ba a05f 2fbb f7da 223d
000002b0: a7a2 e4bd a8b6 e5bd 4a2b f93a 114e 203b
000002c0: b0cf 88bc 18c2 97bc 11e4 0abd 9f16 723c
000002d0: beaf 9ebc 709c 1dbc 154a 183d 4b8f b0bd
000002e0: a150 0c3d f2d9 96bd e340 e8bc 339e 5f3d
000002f0: e384 a9bc bd74 afbc c9b2 e539 d85c 883c
00000300: d4b4 843d ce8e 863e 3d70 d53c 717a 3bbd
00000310: 6030 a5bc 715d 00bd df89 da3b 0bbe 323d
00000320: d805 533c 6223 96bc 257d 2dbd 9da9 cdbc
00000330: 031e 533c 9d70 f5bc bdaa 76bc 6406 16bd
00000340: 782b 96ba c3c4 f23d ec4d 65bc 5a0c c93d
00000350: 615b 6ebd 8b9c b53b 104e f9bc 0c1f 203d
00000360: ebe7 193c 9c47 713d 0dbe 3f3d a836 22bd
00000370: 752e 053e ab85 44bd 6650 b53c 8675 96bd
00000380: 6f09 9b3c 5fb1 cabc 70ff 07be 10da a73d
00000390: c30a 8a3d 8d74 033d bc7d 303d cc23 9cbd
000003a0: 3c47 543b 7294 443d 4ccc efbc e084 ab3c
000003b0: c4a1 ffbc 3334 a0bc 2b4a 6d3e 8697 e6bb
000003c0: 0d56 5abd 4cb1 1abd cd28 4f3d d3bc 843d
000003d0: cc82 16bc 4b46 1a3d ab3b 213b 5638 9a3d
000003e0: e964 f9bc 4212 543d 48e8 203d 1431 7ebd
000003f0: 73fb d1bc 02ae 40bd 9f2e 1e3d 4374 9b3b

encoder.5.block.1.bias f4 [40]
0.00022982925 0.003597286 0.00032188318 0.0026866077 0.0017545474 0.0013948518 0.0015491953 0.0017316664
0.0001242464 0.0064879293 0.003881673 0.0035323899 0.0014449651 -0.006593426 -0.0011734598 0.0024880026
0.002227996 0.0059300247 0.0039714943 0.0049430383 0.0029441316 -0.0010075246 -0.00030699154 0.004890177
0.0009952531 0.0014537036 0.0023896114 0.0015699094 0.0015681332 -7.57759e-05 0.0004762138 0.00036582616
0.001183594 0.0021481232 0.0048224423 0.0040204297 0.0051049967 0.002651305 0.0006527916 0.0017923004
00000000: 52fe 7039 72c0 6b3b 6ec2 a839 cc11 303b
00000010: d7f8 e53a 76d3 b63a 5e0e cb3a 15f9 e23a
00000020: 2448 0239 b298 d43b ab63 7e3b ab7f 673b
00000030: fc64 bd3a ab0d d8bb c7ce 99ba c20d 233b
00000040: 9203 123b a750 c23b 4f23 823b 36f9 a13b
00000050: 55f2 403b ea0e 84ba b5f3 a0b9 c73d a03b
00000060: 2773 823a 338a be3a 079b 1c3b 6bc5 cd3a
00000070: d289 cd3a e0e9 9eb8 56ac f939 5bcc bf39
00000080: d322 9b3a 87c7 0c3b 9405 9e3b cfbd 833b
00000090: d147 a73b 84c1 2d3b 1a20 2b3a 9feb ea3a

encoder.5.block.2.weight f4 [40]
0.8053873 1.0711669 1.1104417 0.7885019 0.9012118 1.0064716 0.8080085 1.2183261
1.0676475 1.2792909 0.7512493 0.8314833 0.98235726 0.67801416 1.0824484 0.98592085
0.8587773 0.78640914 0.73997736 1.2499821 0.84973496 1.059552 1.1151565 1.1832544
0.96621543 0.8342191 0.8748573 1.1172394 0.9347643 1.0762922 1.0806319 0.7025423
0.9396048 0.856235 1.0043224 0.97817516 0.737661 0.8262003 1.0196346 1.0599806
00000000: dd2d 4e3f ff1b 893f f422 8e3f 43db 493f
00000010: d1b5 663f 10d4 803f a5d9 4e3f 1cf2 9b3f
00000020: aca8 883f cebf a33f e051 403f 17dc 543f
00000030: c47b 7b3f 5692 2d3f ab8d 8a3f 4f65 7c3f
00000040: d4d8 5b3f 1c52 493f 286f 3d3f 6aff 9f3f
00000050: 3b88 593f 669f 873f 73bd 8e3f e174 973f
00000060: e559 773f 628f 553f a6f6 5f3f b301 8f3f
00000070: b74c 6f3f f1c3 893f 2552 8a3f d0d9 333f
00000080: f189 703f 3832 5b3f a38d 803f b069 7a3f
00000090: 5ad7 3c3f dd81 533f 6383 823f 72ad 873f

encoder.5.block.2.bias f4 [40]
0.4860875 -0.39389506 -0.42009622 0.28423518 -0.12423521 0.12005942 -0.11415217 -0.06425164
0.06830547 0.0004324965 0.2872865 0.32571357 -0.3335726 -0.1508213 -0.18888758 0.30419195
0.5350986 0.1737034 0.47992983 0.25590363 -0.40613583 0.059123065 0.37408334 0.033426445
-0.43433928 -0.031818025 0.8011426 0.061847925 -0.4015829 -0.19771735 0.23969078 -0.47069493
0.19229901 0.16972508 -0.15137954 0.053542394 0.31183955 0.16687952 -0.064387955 0.21581753
00000000: 76e0 f83e 9dac c9be da16 d7be 4687 913e
00000010: 086f febd b7e1 f53d 9dc8 e9bd 5d96 83bd
00000020: bde3 8b3d b3c0 e239 3717 933e eec3 a63e
00000030: 07ca aabe e670 1abe bf6b 41be 0cbf 9b3e
00000040: 39fc 083f 4edf 313e 5db9 f53e cd05 833e
00000050: 09f1 cfbe 072b 723d da87 bf3e 2bea 083d
00000060: b861 debe 9e53 02bd ae17 4d3f 4054 7d3d
00000070: 469c cdbe 6b76 4abe 8071 753e edfe f0be
00000080: 08ea 443e 69cc 2d3e 3d03 1bbe 454f 5b3d
00000090: 6fa9 9f3e 77e2 2a3e d5dd 83bd 45ff 5c3e
