VQ-VAE/models/vqvae/model_94.pt (torch, 579012 bytes, 64 tensors)

encoder.0.weight f4 [40, 1, 4, 4]
0.046286505 -0.007389683 -0.036739275 -0.08100283 -0.031044036 -0.12510253 -0.10055288 -0.08548135
-0.06141239 -0.1623457 -0.20890057 0.051439982 -0.039170578 -0.04342677 0.09886042 0.043067075
0.044184726 0.045791704 -0.07902412 0.07523923 0.08332535 0.14425246 -0.077603325 0.06543951
0.054823354 0.09381848 -0.14661737 -0.001275725 0.049882993 0.092458636 -0.025174765 0.065869294
0.08726904 0.08972006 0.111577705 0.10484391 0.030595226 -0.005792667 -0.0043701637 0.0723318
0.08564923 0.06013737 0.049383525 0.06606173 0.029777557 0.04413984 0.012670268 0.016011454
-0.008079337 0.05795627 0.100444764 0.06415367 0.09372456 0.09476321 -0.038930513 -0.073186986
0.11257418 -0.07174484 -0.057758935 0.009228113 0.0996396 0.043288615 0.070583135 0.031146936
0.030123979 -0.011034302 0.021303076 0.00341251 0.0119253835 -0.035939734 0.1328443 0.015780728
-0.023700304 -0.12646793 0.048519034 0.08800992 0.056229908 -0.060908612 0.03512627 0.13131501
-0.07605498 -0.047910254 -0.032135814 0.022412872 -0.12612078 -0.0743988 -0.1551042 0.054859746
-0.10670707 -0.081238694 -0.117419325 0.080078766 -0.073525995 -0.048375122 0.04384266 0.0005449215
-0.017564118 0.062454425 -0.04072138 -0.017810483 0.09305337 0.023547377 -0.11335355 -0.07273876
0.06534317 -0.15544961 -0.04521547 -0.110433124 0.021088425 -0.075648434 -0.039441563 -0.010776998
0.01621104 -0.04849593 -0.098686755 -0.111486696 -0.06504374 -0.06456189 -0.14604601 0.11721249
-0.110754855 -0.03326316 -0.12041738 -0.03432115 -0.012458958 0.07823704 -0.025967944 -0.027446136
-0.010870965 -0.04340452 0.01617553 0.024180047 -0.09933563 0.08701786 0.13987577 0.03055847
0.042173456 0.121388346 -0.060695782 -0.049233366 0.09302722 0.113296464 -0.02038738 0.034085426
0.03312093 0.08011915 0.04015113 0.034778032 -0.0658836 -0.023419064 -0.11435587 -0.01801582
-0.12791881 -0.11271085 -0.13354547 0.030785229 0.033566643 0.09376906 0.08116643 0.0471936
0.06441975 0.028830022 -0.07599756 -0.067422315 0.05605341 0.044405315 -0.034343496 -0.09736369
0.048607353 0.04004158 -0.043125365 -0.13665918 0.07046232 0.052455932 -0.066297464 -0.0676991
-0.08033099 -0.029585738 0.03513631 -0.017083328 0.008673581 -0.061886147 -0.12072812 -0.096449986
-0.043220345 -0.10867291 -0.21673685 -0.053996038 0.015448681 -0.06027984 0.009683 -0.064683974
0.008496264 0.08829628 0.083173685 0.019837966 0.008996389 -0.0479401 -0.069102205 -0.13754593
-0.05967107 -0.1351434 -0.17295477 -0.15352441 -0.00996609 -0.051971685 -0.012605629 -0.08220382
-0.051663518 -0.07582075 0.025587793 0.045459513 -0.080627665 -0.14295389 -0.12578577 -0.017624166
0.045342725 0.05895726 -0.09351284 -0.124706425 0.033432502 0.08717124 0.0342941 -0.025674226
0.018261116 0.0016090671 -0.01152257 0.048972838 0.04156051 -0.06093939 -0.049043067 0.023787353
0.0102636535 0.061591763 0.19331376 0.1596493 0.008282969 0.076278135 0.10771737 0.039383072
0.052711003 -0.067702994 -0.08155509 0.00292698 -0.08449277 -0.049764097 -0.061360545 -0.058023848
-0.07562648 -0.09593637 -0.024404382 -0.05785867 0.029186694 -0.046801496 -0.08729967 0.011123318
00000000: eb96 3d3d 2725 f2bb ec7b 16bd d0e4 a5bd
00000010: 1050 febc e11a 00be abee cdbd d910 afbd
00000020: 8f8b 7bbd f43d 26be 08ea 55be bbb2 523d
00000030: 5471 20bd 45e0 31bd 5577 ca3d 1a67 303d
00000040: 0bfb 343d 1590 3b3d 66d7 a1bd 0717 9a3d
00000050: 7ba6 aa3d ebb6 133e 7eee 9ebd 2605 863d
00000060: 748e 603d e723 c03d dd22 16be 3a36 a7ba
00000070: 1c52 4c3d f45a bd3d 4f3b cebc 7be6 863d
00000080: 1cba b23d 27bf b73d da82 e43d 67b8 d63d
00000090: d7a2 fa3c 6ad0 bdbb 9733 8fbb b222 943d
000000a0: dd68 af3d 9a52 763d 6146 4a3d 5f4b 873d
000000b0: 10f0 f33c facb 343d f596 4f3c 742a 833c
000000c0: 325f 04bc 8e63 6d3d fcb5 cd3d 0063 833d
000000d0: aaf2 bf3d 3713 c23d 9a75 1fbd 0fe3 95bd
000000e0: 4b8d e63d f5ee 92bd a294 6cbd 8331 173c
000000f0: d90f cc3d 674f 313d e48d 903d dc27 ff3c
00000100: 90c6 f63c 38c9 34bc ca83 ae3c 6ba4 5f3b
00000110: af62 433c 8b35 13bd 5608 083e 9646 813c
00000120: 2427 c2bc cf80 01be e5bb 463d 8c3e b43d
00000130: 5551 663d 4f7b 79bd 90e0 0f3d 7177 063e
00000140: b7c2 9bbd 8b3d 44bd d8a0 03bd 339b b73c
00000150: ce25 01be 665e 98bd a3d3 1ebe 9db4 603d
00000160: 3c89 dabd 7960 a6bd 8b79 f0bd 5600 a43d
00000170: cc94 96bd fe24 46bd 5c94 333d 10d9 0e3a
00000180: a0e2 8fbc 36d0 7f3d 76cb 26bd 4ae7 91bc
00000190: c492 be3d 6ee6 c03c e825 e8bd 0ff8 94bd
000001a0: a4d2 853d 2f2e 1fbe db33 39bd c32a e2bd
000001b0: a2c1 ac3c 91ed 9abd 7a8d 21bd 0192 30bc
000001c0: 04cd 843c aba3 46bd 481c cabd 2353 e4bd
000001d0: a735 85bd 0639 84bd 168d 15be 1a0d f03d
000001e0: 71d3 e2bd f43e 08bd 639d f6bd 5694 0cbd
000001f0: a820 4cbc be3a a03d baba d4bc b8d6 e0bc
00000200: 221c 32bc f0c8 31bd 8c82 843c 3c15 c63c
00000210: 7b70 cbbd 6b36 b23d 983b 0f3e c255 fa3c
00000220: 13be 2c3d 749a f83d 249c 78bd eda8 49bd
00000230: 0e85 be3d fa07 e83d 6f03 a7bc 299d 0b3d
00000240: d0a9 073d 8215 a43d 8375 243d 6973 0e3d
00000250: fbed 86bd 56d9 bfbc 6933 eabd ea95 93bc
00000260: 26fd 02be f2d4 e6bd 25c0 08be 4e31 fc3c
00000270: 2d7d 093d fe09 c03d 963a a63d 144e 413d
00000280: 80ee 833d f02c ec3c 9ca4 9bbd b614 8abd
00000290: 4398 653d 59e2 353d c4ab 0cbd 9d66 c7bd
000002a0: 8118 473d a402 243d 39a4 30bd 62f0 0bbe
000002b0: 8d4e 903d 08dc 563d f7c6 87bd d3a5 8abd
000002c0: 9384 a4bd ca5d f2bc 17eb 0f3d 56f2 8bbc
000002d0: a31b 0e3c 547c 7dbd 4e40 f7bd 9287 c5bd
000002e0: d107 31bd e78f debd 44f0 5dbe f32a 5dbd
000002f0: 771c 7d3c fee7 76bd 72a5 1e3c 0879 84bd
00000300: ea33 0b3c aed4 b43d f756 aa3d 3b83 a23c
00000310: 9765 133c d75c 44bd 7585 8dbd d7d8 0cbe
00000320: a769 74bd 0863 0abe 0e1b 31be 8135 1dbe
00000330: d048 23bc 43e0 54bd d787 4ebc 7a5a a8bd
00000340: 209d 53bd e947 9bbd 7e9d d13c c133 3a3d
00000350: 1e20 a5bd 8162 12be fccd 00be 8e60 90bc
00000360: 4bb9 393d 2b7d 713d a983 bfbd 1566 ffbd
00000370: 85f0 083d d686 b23d f877 0c3d c152 d2bc
00000380: 5698 953c 55e7 d23a 29c9 3cbc be97 483d
00000390: 5a3b 2a3d 959b 79bd 62e1 48bd b2dd c23c
000003a0: e228 283c a547 7c3d 0bf4 453e 1b7b 233e
000003b0: 4ab5 073c b637 9c3d ed9a dc3d 2550 213d
000003c0: 7ee7 573d dea7 8abd 5b06 a7bd 93d2 3f3b
000003d0: 8c0a adbd 70d5 4bbd 3255 7bbd 6aaa 6dbd
000003e0: 0ee2 9abd 4a7a c4bd b3eb c7bc 36fd 6cbd
000003f0: ef18 ef3c edb2 3fbd 2bca b2bd 943e 363c

encoder.0.bias f4 [40]
-0.0010818113 -0.0020291605 -0.0035631242 -0.0025427504 -0.0067998585 -0.0011664227 0.0034808284 -0.00071183476
-0.0053936928 0.0042856364 0.0016485628 -0.0019090443 -0.00293636 -0.0011540571 -0.0023180598 0.001474832
0.00042005672 -0.0022867792 -0.00023307717 -0.0022975323 -0.0066177407 -0.0014978814 -0.001499127 -0.0047882693
-0.0006787241 0.0036408205 -0.0006682886 -0.00045677475 0.0013522531 -0.0010491746 0.006861154 -0.0017319982
-0.0004683658 -0.007875915 0.0071273437 -0.00064128527 -0.0005990986 -0.005691978 -0.0043333243 0.0019062209
00000000: 90cb 8dba aafb 04bb 4e83 69bb 46a4 26bb
00000010: 59d1 debb a7e2 98ba 9c1e 643b 6c9a 3aba
00000020: 93bd b0bb 866e 8c3b 9714 d83a e638 faba
00000030: f26f 40bb bb43 97ba 97ea 17bb 264f c13a
00000040: 0f3b dc39 cadd 15bb 2d66 74b9 3292 16bb
00000050: a2d9 d8bb 8f54 c4ba 5b7e c4ba eae6 9cbb
00000060: 67ec 31ba d59a 6e3b 1730 2fba 457b efb9
00000070: 163e b13a 7584 89ba 88d3 e03b 3704 e3ba
00000080: fe8e f5b9 fb09 01bc 7e8c e93b ed1b 28ba
00000090: d40c 1dba c683 babb 8ffe 8dbb 29da f93a

encoder.1.weight f4 [40]
0.66988057 0.43612942 0.6031423 0.39891917 0.5388358 0.80949944 0.66221845 0.6921304
0.5168983 0.58448035 0.7122273 0.6787717 0.7669432 0.68953663 0.46874255 0.8078747
0.59901845 0.7558338 0.63435507 0.7489992 0.4483503 0.7148901 0.5031687 0.5495678
0.32735234 0.5883997 0.5912152 0.317825 0.6288517 0.5709791 0.72537 0.7538843
0.7234929 0.6390398 0.7827948 0.5283567 0.7791793 0.91589624 0.8836927 0.6000987
00000000: 4b7d 2b3f 5b4c df3e 8967 1a3f 223f cc3e
00000010: 25f1 093f 5b3b 4f3f 2687 293f 752f 313f
00000020: 7253 043f 81a0 153f 8754 363f fbc3 2d3f
00000030: 6456 443f 7985 303f 06ff ef3e e0d0 4e3f
00000040: 4659 193f 537e 413f 1865 223f 69be 3f3f
00000050: 2c8e e53e 0a03 373f aacf 003f 7ab0 0c3f
00000060: ba9a a73e 5da1 163f e159 173f f5b9 a23e
00000070: 6dfc 203f b02b 123f d9b1 393f 90fe 403f
00000080: d536 393f 1d98 233f 3d65 483f 6242 073f
00000090: 4b78 473f 2d78 6a3f af39 623f 12a0 193f

encoder.1.bias f4 [40]
-0.07176745 -0.04099273 -0.028524771 -0.0068329447 0.061870683 -0.13595521 -0.231142 -0.2325128
0.13224284 0.013608782 -0.17408773 -0.13529502 -0.20968018 -0.18624723 0.18170966 0.024455456
0.014828493 -0.17104079 -0.1639082 -0.2068221 -0.03071572 -0.15014224 0.15154342 -0.077476464
-0.010688057 -0.16053961 0.13478625 0.07463735 -0.142653 -0.037197355 -0.18208987 -0.23773809
-0.16944654 0.17567627 -0.1410211 -0.17303179 -0.2056429 -0.25764194 -0.28853583 -0.0949567
00000000: d0fa 92bd fee7 27bd c8ac e9bc e5e6 dfbb
00000010: 1d6c 7d3d d837 0bbe 7db0 6cbe d617 6ebe
00000020: ab6a 073e 5ef7 5e3c 0e44 32be c78a 0abe
00000030: 67b6 56be 98b7 3ebe 1912 3a3e cf56 c83c
00000040: 35f3 723c 5125 2fbe 8dd7 27be 2cc9 53be
00000050: 899f fbbc e3be 19be 332e 1b3e fbab 9ebd
00000060: f61c 2fbc 7f64 24be 6805 0a3e 78db 983d
00000070: a113 12be 415c 18bd c475 3abe 9d71 73be
00000080: 6583 2dbe 7be4 333e d667 10be 3f2f 31be
00000090: 0d94 52be a5e9 83be f8ba 93be a978 c2bd

encoder.1.running_mean f4 [40]
0.54396474 -0.31721652 -0.57199657 -0.34337768 -0.2085462 0.52168363 0.31708273 0.48298526
-0.30051813 0.12378167 0.12582971 0.62540835 0.5147809 0.29781693 -0.45941314 0.4963123
-0.24502796 0.6147581 0.36758468 0.34767732 -0.28234026 0.24930897 -0.23129359 0.28256035
-0.05905774 0.13522556 -0.24889724 -0.10005719 0.14390153 0.19357353 0.25891793 0.31772164
0.32083905 -0.25023988 0.3727878 -0.30773973 0.5755407 0.5599508 0.77283615 0.11068359
00000000: 4641 0b3f 346a a2be 5e6e 12bf 33cf afbe
00000010: 238d 55be 0f8d 053f ab58 a23e d849 f73e
00000020: 83dd 99be 3f81 fd3d 81d9 003e c31a 203f
00000030: aec8 033f 767b 983e 3338 ebbe a51c fe3e
00000040: 9ce8 7abe c960 1d3f 0f34 bc3e c302 b23e
00000050: e78e 90be da4a 7f3e 3ad8 6cbe c0ab 903e
00000060: 87e6 71bd 9278 0a3e ebde 7ebe c9ea ccbd
00000070: ec5a 133e 2438 463e e490 843e 69ac a23e
00000080: 0445 a43e 711f 80be 0bde be3e 1090 9dbe
00000090: a356 133f f058 0f3f 97d8 453f 14ae e23d

encoder.1.running_var f4 [40]
0.1716416 0.049696587 0.1267826 0.062126234 0.029911527 0.15522495 0.080115646 0.109164834
0.059419423 0.03674823 0.068297885 0.1658506 0.16588463 0.04938364 0.10938502 0.10287522
0.06145746 0.19090046 0.09502957 0.0767943 0.039800406 0.060608476 0.0298056 0.06785025
0.02696489 0.069344714 0.050102476 0.03735761 0.043237884 0.04639366 0.06307732 0.072306305
0.06809223 0.050026663 0.061473165 0.09082394 0.17801891 0.15378402 0.2686992 0.019210776
00000000: d1c2 2f3e a68e 4b3d 4cd3 013e 1478 7e3d
00000010: 0509 f53c 4af3 1e3e ac13 a43d d091 df3d
00000020: c861 733d 5085 163d c3df 8b3d bdd4 293e
00000030: a9dd 293e 8046 4a3d 4105 e03d 3eb0 d23d
00000040: d1ba 7b3d 697b 433e dd9e c23d 5446 9d3d
00000050: c005 233d 9840 783d e02a f43c 12f5 8a3d
00000060: 79e5 dc3c 9a04 8e3d 4138 4d3d 4b04 193d
00000070: 351a 313d 4707 3e3d af2e 813d 5415 943d
00000080: f073 8b3d c2e8 4c3d 49cb 7b3d e701 ba3d
00000090: 974a 363e 8f79 1d3e f192 893e eb5f 9d3c

encoder.3.weight f4 [40, 40, 4, 4]
0.0014498326 0.015901 -0.007284273 -0.020209717 -0.054931056 -0.11575702 0.00798849 0.04841766
-0.021401757 0.0057045408 0.004941757 0.052465282 0.073486604 0.0427263 0.029743237 -0.005910048
0.008327171 0.01037843 0.031030146 0.024924017 -0.019209938 -0.035607163 0.037349857 0.059127156
-0.0062692724 -0.010688194 0.028898405 0.1009282 0.00394635 -0.0051828953 0.024751302 0.03271385
-0.02740251 -0.024027834 -0.00516854 0.00044920095 0.030975204 -0.0312484 -0.09606129 0.01587672
0.035589147 -0.034056187 -0.10860711 -0.03874326 0.0719818 -0.106500305 -0.09870023 -0.04642112
0.020162515 -0.012938157 -0.01769293 0.012811002 0.0672835 -0.060621064 -0.020074805 0.0016611404
0.037446458 -0.036116723 0.028726023 0.036914777 0.0028964467 0.02637093 0.0314694 0.021354338
0.060601506 0.035598822 -0.07842612 -0.010486069 0.0074769836 0.1536528 -0.09228927 -0.03295065
-0.025873644 0.18477343 0.008117416 -0.007367967 0.00059338956 0.04617802 0.0066084117 -0.025569309
-0.019454349 0.0012811364 -0.04060219 0.058066685 -0.11103662 -0.007850837 0.07558341 0.030568002
-0.09108898 0.11758151 0.04503082 -0.043631267 -0.024438277 0.019034568 0.088476755 0.021955684
-0.0055494127 0.005898867 0.037766956 0.019730724 -0.07104383 -0.08791173 0.11492779 0.030310672
0.030028597 0.07709754 0.012163945 -0.0071253134 -0.010119527 0.12232652 -0.035518344 -0.0058714114
-0.022500709 0.017161155 0.074055515 0.022924043 -0.011056034 -0.0027166829 0.041960165 0.09779105
0.037567887 0.08017508 -0.036364544 -0.020398235 -0.13602044 -0.013070708 0.1264672 0.03937799
-0.0067235976 -0.06693599 -0.05394531 0.03885268 0.07210636 -0.10414444 -0.062361393 0.05269514
-0.019138357 -0.049520906 -0.03478539 0.02247159 -0.0105025275 0.04351592 -0.03134127 0.005507806
-0.008462495 -0.021657376 -0.06439687 -0.0048805126 0.08476232 0.0032454433 -0.06019559 -0.043437943
0.06396823 -0.020708501 -0.022211995 0.1088507 0.023917392 0.050593536 -0.012061901 -0.042323057
0.015900662 0.011298853 -0.0077453647 0.08370979 -0.046971712 0.08726807 0.03962286 0.015037351
-0.12245194 0.010790667 0.11974511 0.008658413 -0.00585916 0.014226734 -0.03333107 -0.03648122
-0.0742274 0.018585186 0.06974239 0.07841991 0.06628755 -0.014756066 -0.049276065 0.06046622
-0.04578439 -0.09544128 0.09129184 0.010900419 0.033332095 -0.047132514 0.054239165 0.09774117
-0.039304264 -0.017758314 -0.015449723 -0.032257132 0.050748385 -0.030183235 -0.0038537018 0.041460868
-0.07573483 0.06373763 -0.00813025 0.08359243 -0.020133851 -0.031173335 0.037368625 -0.0128193535
-0.012793598 -0.04864381 0.03660845 0.04781578 0.14056721 0.1438887 -0.033931516 0.008527318
-0.05516679 -0.042814888 0.070256844 0.09640643 -0.011728598 -0.05068071 -0.0056146556 0.034869123
0.05779911 -0.06365945 -0.08082895 0.05513031 0.04315578 -0.057181504 -0.035934564 0.056038998
0.051864874 -0.0382335 -0.092974775 0.017492617 0.083431356 0.022799224 -0.04852237 0.045380894
0.007640746 -0.030649858 -0.0064570755 0.03033889 -0.05625634 -0.13472165 0.019064358 0.057642367
0.002885454 -0.039954003 -0.063172504 0.04310403 -0.049874797 -0.023587001 0.006724224 0.02213943
00000000: 4f08 be3a d042 823c e9b0 eebb d98e a5bc
00000010: 63ff 60bd 0412 edbd 28e2 023c 9951 463d
00000020: bd52 afbc 28ed ba3b 76ee a13b d6e5 563d
00000030: 2580 963d c601 2f3d 17a8 f33c 13a9 c1bb
00000040: b06e 083c 4a0a 2a3c ef32 fe3c 742d cc3c
00000050: 295e 9dbc d1d8 11bd 2afc 183d 512f 723d
00000060: 786e cdbb 891d 2fbc 59bc ec3c 72b3 ce3d
00000070: 6250 813b 47d5 a9bb 3ec3 ca3c f5fe 053d
00000080: 3b7b e0bc 05d6 c4bc db5c a9bb bb82 eb39
00000090: b6bf fd3c a5fc ffbc c8bb c4bd e50f 823c
000000a0: edc5 113d 807e 0bbd 686d debd 41b1 1ebd
000000b0: 326b 933d d51c dabd 5923 cabd 1324 3ebd
000000c0: dc2b a53c 90fa 53bc c3f0 90bc 3de5 513c
000000d0: efcb 893d cb4d 78bd eb73 a4bc 9fba d93a
000000e0: 7561 193d 21ef 13bd d652 eb3c f333 173d
000000f0: 50d2 3d3b d907 d83c 0fe6 003d 4bef ae3c
00000100: 4939 783d 12d0 113d e09d a0bd c3cd 2bbc
00000110: 7c01 f53b 2957 1d3e 2802 bdbd 43f7 06bd
00000120: f7f4 d3bc 3f35 3d3e e9fe 043c fd6e f1bb
00000130: b38d 1b3a 2a25 3d3d 608b d83b ba76 d1bc
00000140: ba5e 9fbc ceeb a73a 7b4e 26bd 55d7 6d3d
00000150: 2b67 e3bd cca0 00bc 7acb 9a3d bf69 fa3c
00000160: dc8c babd 93ce f03d 3d72 383d b3b6 32bd
00000170: c832 c8bc 62ee 9b3c 4d33 b53d 68dc b33c
00000180: d9d7 b5bb 484b c13b 86b1 1a3d 54a2 a13c
00000190: 6d7f 91bd 110b b4bd 435f eb3d 164e f83c
000001a0: 88fe f53c 51e5 9d3d 484b 473c 767b e9bb
000001b0: 5fcc 25bc 5486 fa3d af7b 11bd f864 c0bb
000001c0: 6853 b8bc 8d95 8c3c 6baa 973d 34cb bb3c
000001d0: 5e24 35bc 600a 32bb 6cde 2b3d ad46 c83d
000001e0: c9e0 193d d532 a43d fdf2 14bd 331a a7bc
000001f0: f148 0bbe 8626 56bc 9e80 013e d14a 213d
00000200: a051 dcbb bc15 89bd c2f5 5cbd fd23 1f3d
00000210: 80ac 933d ae49 d5bd a96e 7fbd dcd6 573d
00000220: 0bc8 9cbc 6fd6 4abd 207b 0ebd 5716 b83c
00000230: cb12 2cbc c03d 323d b45f 00bd d37a b43b
00000240: 47a6 0abc cf6a b1bc 82e2 83bd b5ec 9fbb
00000250: de97 ad3d 81b1 543b a78f 76bd fceb 31bd
00000260: c601 833d e0a4 a9bc eef5 b5bc 1eed de3d
00000270: 68ee c33c 2b3b 4f3d 489f 45bc f15a 2dbd
00000280: 1b42 823c d31e 393c d4cc fdbb 0a70 ab3d
00000290: 6965 40bd 9ab9 b23d 944b 223d 395f 763c
000002a0: 15c8 fabd 56cb 303c ed3c f53d 04dc 0d3c
000002b0: 32fe bfbb 3f17 693c 2986 08bd 556d 15bd
000002c0: 8904 98bd f63f 983c 19d5 8e3d 9e9a a03d
000002d0: c4c1 873d 6dc3 71bc b3d5 49bd 6dab 773d
000002e0: 6a88 3bbd b876 c3bd 37f7 ba3d ac97 323c
000002f0: 3c87 083d 060e 41bd e329 5e3d 862c c83d
00000300: 82fd 20bd e279 91bc d620 7dbc 0e20 04bd
00000310: 8add 4f3d d542 f7bc 638e 7cbb dfd2 293d
00000320: dd1a 9bbd e088 823d bd34 05bc 8232 ab3d
00000330: bfef a4bc 395f ffbc d80f 193d 4408 52bc
00000340: 3d9c 51bc bb3e 47bd bef2 153d 7bda 433d
00000350: daf0 0f3e 8f57 133e c6fb 0abd 2ab6 0b3c
00000360: 92f6 61bd aa5e 2fbd d2e2 8f3d bc70 c53d
00000370: 4e29 40bc 9396 4fbd 25fb b7bb edd2 0e3d
00000380: c2be 6c3d e35f 82bd a689 a5bd 52d0 613d
00000390: 1dc4 303d 2737 6abd 1f30 13bd 2689 653d
000003a0: 4370 543d bb9a 1cbd 8f69 bebd ad4c 8f3c
000003b0: 0fde aa3d 70c5 ba3c 65bf 46bd 51e1 393d
000003c0: 395f fa3b 6915 fbbc e095 d3bb 4489 f83c
000003d0: 0c6d 66bd 79f4 09be db2c 9c3c 671a 6c3d
000003e0: e319 3d3b cfa6 23bd 9660 81bd da8d 303d
000003f0: 8449 4cbd 8739 c1bc e156 dc3b c05d b53c

encoder.3.bias f4 [40]
0.014318927 0.120709956 0.07015785 -0.015623992 0.14174451 0.06597073 0.24748117 0.013211868
0.0052793203 0.0069034747 0.079998024 0.08911132 0.0008642004 0.03537498 0.07073511 0.10628628
-0.012413049 0.007799159 0.013462853 -0.012189199 0.005073309 0.008249808 0.16784583 0.032611717
-0.03528147 0.107261494 -0.019995736 0.04526249 0.15117802 0.041699164 0.015259113 -0.02269998
-0.082851395 -0.029203497 -0.036219645 -0.07994751 -0.05681154 -0.07024066 0.041887514 0.014885564
00000000: ef99 6a3c c836 f73d ebae 8f3d c6fb 7fbc
00000010: 7925 113e a91b 873d b46b 7d3e 9776 583c
00000020: 26fe ac3b 8b36 e23b 01d6 a33d ff7f b63d
00000030: 828b 623a 5be5 103d 92dd 903d 9fac d93d
00000040: 1a60 4bbc 1690 ff3b 4c93 5c3c 35b5 47bc
00000050: 003e a63b 342a 073c c7df 2b3e dd93 053d
00000060: 4d83 10bd eaab db3d 19ce a3bc 2965 393d
00000070: 69ce 1a3e becc 2a3d 5c01 7a3c 4ff5 b9bc
00000080: fead a9bd 2c3c efbc 0d5b 14bd 85bb a3bd
00000090: 38b3 68bd 56da 8fbd 3e92 2b3d 95e2 733c

encoder.4.block.1.weight f4 [40, 40, 3, 3]
-0.013494162 -0.038010415 0.029650673 0.01136885 -0.16514486 -0.07484073 -0.0050953436 -0.004849398
0.06340836 -0.08359841 0.14221969 0.109343834 0.038009565 -0.19011843 -0.00048328622 0.012443951
0.04950691 -0.031853467 -0.0023291144 -0.020265488 0.043136474 0.06147237 -0.02832297 0.059588693
0.05430782 -0.013751713 0.008745065 -0.102707356 -0.038524467 -0.021106219 -0.06763787 0.05565626
-0.04203942 0.111512 -0.29191232 -0.014335498 -0.015467493 -0.038915318 -0.0021379837 0.046686888
0.15137377 -0.0032783018 0.053692136 -0.035357915 -0.0049556205 -0.008350092 -0.052945584 0.041485067
0.052170057 -0.014149861 -0.018317396 0.019193772 -0.0226779 0.00655257 -0.04494313 0.054395627
0.011816649 0.027330479 0.19211139 0.0143238185 -0.053741947 0.019092368 0.007657275 0.024653424
-0.055035405 0.051140856 -0.01156308 0.07126677 0.0006878992 -0.005171111 -0.039671436 -0.004554254
-0.032329444 -0.009731839 -0.021144457 0.024409646 0.05182722 -0.040225014 -0.039146286 -0.085157804
-0.062195566 -0.039440766 0.12437843 0.07445508 -0.10908995 0.069351666 0.06293623 -0.0192649
0.039567288 0.03961694 0.009151159 -0.02389533 -0.011247929 -0.04458701 -0.0273076 -0.049044713
-0.029633546 -0.059407312 -0.07459165 -0.037519347 0.081594214 -0.048615925 0.004150249 -0.031108817
0.06028528 -0.019123428 0.03956843 0.018039515 0.023676818 0.09146925 -0.028246604 -0.0867138
0.12419912 -0.0017486797 -0.026984507 -0.010858522 -0.05559847 0.06792557 -0.03732346 0.03986139
-0.11187809 -0.20517227 0.12458434 -0.0006754536 0.0067168837 -0.023470467 -0.07626379 0.09551532
-0.036664624 0.23047176 -0.321355 0.05526048 0.07028611 -0.019639809 0.011734229 -0.08832815
0.08140487 0.016066931 0.07180312 0.014945297 0.010582954 -0.018591905 -0.01698302 -0.03291041
-0.027178349 -0.055709857 -0.08655894 0.07977213 -0.05040363 0.032149915 -0.06812222 -0.039153595
0.016178666 0.10976403 -0.038076963 -0.12903027 -0.04215129 0.05368177 0.1060365 0.03172128
-0.038563505 0.021140624 0.010605304 -0.1017458 -0.046460085 0.0031418758 -0.077012666 -0.03700787
0.017704198 -0.03725299 0.0022759724 -0.045667164 -0.007735767 -0.06204494 -0.028262705 0.024886334
-0.11642779 -0.16593903 0.107937485 0.027646001 -0.010389509 0.10273095 -0.15212837 0.07348661
-0.057125684 -0.0687508 -0.24782705 0.027898671 -0.069591396 0.014165571 -0.14319149 0.0096092895
-0.023802029 0.052443583 0.14342518 -0.0116176 0.029857224 -0.03665968 -0.019912492 0.002882823
-0.0031400106 -0.0822972 0.18528847 0.0052189804 -0.041740917 -0.022828775 -0.036766592 0.02480445
-0.1841069 -0.0021911685 -0.04514649 -0.22585903 0.010108075 0.011025843 0.038708717 0.0342222
0.053039182 0.032726992 -0.054537047 -0.18123646 0.16982767 0.076309055 0.07434624 0.034878984
-0.036978543 0.010263574 -0.0026499282 -0.01743173 -0.1332138 0.26923367 -0.07158682 0.019454805
0.0394993 0.010951804 0.046190456 0.014326671 -0.015893139 0.033999737 -0.18763453 -0.052351017
0.026912823 0.0057281977 0.0012456808 -0.007496198 0.09466234 0.031398937 -0.030878179 -0.16802023
0.011372246 0.090972446 -0.062142022 -0.002986731 -0.017001439 0.033214178 -0.01507302 -0.023340149
00000000: 9e16 5dbc cfb0 1bbd f8e5 f23c 6a44 3a3c
00000010: bc1b 29be 1946 99bd d7f6 a6bb b3e7 9ebb
00000020: 3edc 813d a535 abbd 0aa2 113e a9ef df3d
00000030: ebaf 1b3d 68ae 42be 9461 fdb9 b7e1 4b3c
00000040: c2c7 4a3d c878 02bd 0ea4 18bb cf03 a6bc
00000050: dfaf 303d 74ca 7b3d 9305 e8bc 4613 743d
00000060: e071 5e3d dd4e 61bc 7647 0f3c 3c58 d2bd
00000070: d5cb 1dbd f3e6 acbc b985 8abd d2f7 633d
00000080: 8731 2cbd 6760 e43d 8875 95be 70df 6abc
00000090: 5e6b 7dbc ab65 1fbd 6a1d 0cbb c03a 3f3d
000000a0: ba01 1b3e c7d8 56bb 49ec 5b3d 76d3 10bd
000000b0: c262 a2bb d3ce 08bc 78dd 58bd 3fec 293d
000000c0: 45b0 553d d2d4 67bc 5d0e 96bc 423c 9d3c
000000d0: 01c7 b9bc f1b6 d63b 4a16 38bd f3cd 5e3d
000000e0: 9e9a 413c 2be4 df3c d9b8 443e 73ae 6a3c
000000f0: 8420 5cbd 9967 9c3c e1e9 fa3b faf5 c93c
00000100: ce6c 61bd 1379 513d 1373 3dbc 50f4 913d
00000110: 2254 343a 6c72 a9bb 847e 22bd da3b 95bb
00000120: e16b 04bd 4b72 1fbc 2437 adbc bdf6 c73c
00000130: c748 543d fcc2 24bd db57 20bd 3767 aebd
00000140: c7c0 7ebd a48c 21bd 1eba fe3d e87b 983d
00000150: 8d6a dfbd 3f08 8e3d b6e4 803d 6cd1 9dbc
00000160: 4f11 223d 5f45 223d beee 153c 24c0 c3bc
00000170: 3c49 38bc dea0 36bd 30b4 dfbc 1ce3 48bd
00000180: 0dc2 f2bc 1555 73bd 82c3 98bd e3ad 19bd
00000190: de1a a73d 7e21 47bd d0fe 873b ebd7 febc
000001a0: b3ed 763d bca8 9cbc 8212 223d 9bc7 933c
000001b0: e3f5 c13c 3b54 bb3d 6c65 e7bc 0197 b1bd
000001c0: 1c5c fe3d f433 e5ba 9d0e ddbc f1e7 31bc
000001d0: 39bb 63bd 901c 8b3d 7ce0 18bd b245 233d
000001e0: 5720 e5bd ae18 52be 1326 ff3d ec10 31ba
000001f0: 4e19 dc3b 2345 c0bc 3130 9cbd 899d c33d
00000200: a52d 16bd ca00 6c3e a488 a4be d058 623d
00000210: 2af2 8f3d aae3 a0bc ec40 403c 64e5 b4bd
00000220: 99b7 a63d cc9e 833c 840d 933d 1edd 743c
00000230: 2064 2d3c 0d4e 98bc f91f 8bbc 11cd 06bd
00000240: 21a5 debc 0530 64bd d045 b1bd 925f a33d
00000250: 0974 4ebd a1af 033d aa83 8bbd 855f 20bd
00000260: 1f89 843c f7cb e03d 97f6 1bbd 8320 04be
00000270: d5a6 2cbd 6ae1 5b3d aa29 d93d 2cee 013d
00000280: c4f4 1dbd 1a2f ad3c dec1 2d3c 1a60 d0bd
00000290: ee4c 3ebd eee7 4d3b d1b8 9dbd 9095 17bd
000002a0: 6508 913c 9796 18bd 7b28 153b 7e0d 3bbd
000002b0: 517c fdbb d622 7ebd 3087 e7bc 6dde cb3c
000002c0: b171 eebd eceb 29be 540e dd3d de79 e23c
000002d0: c238 2abc 9b64 d23d 8ac7 1bbe 2680 963d
000002e0: 9ffc 69bd 38cd 8cbd 60c6 7dbe c18b e43c
000002f0: ef85 8ebd b616 683c caa0 12be 4870 1d3c
00000300: 79fc c2bc 15cf 563d 0dde 123e bf57 3ebc
00000310: 2397 f43c 7628 16bd 861f a3bc bfed 3c3b
00000320: a3c8 4dbb 6f8b a8bd 43bc 3d3e fb03 ab3b
00000330: 86f8 2abd 6903 bbbc 9198 16bd b432 cb3c
00000340: 8586 3cbe b599 0fbb 87eb 38bd 9747 67be
00000350: 579c 253c bda5 343c 088d 1e3d 942c 0c3d
00000360: 9d3f 593d bd0c 063d 3d62 5fbd 0d96 39be
00000370: 4ee7 2d3e ec47 9c3d d742 983d 44dd 0e3d
00000380: d076 17bd 8d28 283c 6baa 2dbb fdcc 8ebc
00000390: 3369 08be ffd8 893e 1c9c 92bd af5f 9f3c
000003a0: 05ca 213d 326f 333c 3432 3d3d 6aba 6a3c
000003b0: 5432 82bc 4f43 0b3d 4423 40be 056e 56bd
000003c0: 4878 dc3c 9bb3 bb3b 1d46 a33a aba2 f5bb
000003d0: 54de c13d 2c9c 003d 3cf4 fcbc 7f0d 2cbe
000003e0: a852 3a3c c34f ba3d a288 7ebd 08bd 43bb
000003f0: 9a46 8bbc 970b 083d d4f4 76bc d733 bfbc

encoder.4.block.1.bias f4 [40]
0.0031068795 -0.005161637 -0.00026658215 0.00072827545 -0.00018722711 0.002583357 0.0013266975 0.00010105032
0.00065702875 -0.0010013891 0.004762674 0.008780543 -0.00017120007 0.002195998 -0.0002973842 0.0010985252
-0.0024613342 -0.0013762497 0.0006700729 0.00073866826 -7.046688e-05 9.499745e-06 -0.0020238445 -0.0023260168
0.003546022 -0.00075839524 0.0013785987 0.0050715804 -0.00018169741 0.00088714465 0.001990851 0.001472212
0.001327654 0.0028998717 -0.0005351993 0.004353684 -0.00304221 0.00036765024 -0.0008068007 0.0026308107
00000000: ca9c 4b3b f322 a9bb 0dc4 8bb9 bde9 3e3a
00000010: 6552 44b9 8a4d 293b 95e4 ad3a faea d338
00000020: 743c 2c3a 0b41 83ba 3510 9c3b 44dc 0f3c
00000030: 2b84 33b9 bcea 0f3b 3bea 9bb9 64fc 8f3a
00000040: 564e 21bb 4763 b4ba d5a7 2f3a 30a3 413a
00000050: 9ec7 93b8 1861 1f37 7aa2 04bb 1670 18bb
00000060: 6164 683b 0bcf 46ba 19b2 b43a 802f a63b
00000070: 0786 3eb9 458f 683a f078 023b 3df7 c03a
00000080: ad04 ae3a c60b 3e3b 9e4c 0cba 59a9 8e3b
00000090: d05f 47bb 2ec1 c039 7a7f 53ba ae69 2c3b

encoder.4.block.2.weight f4 [40]
1.0823511 1.0917908 1.0234149 0.9455359 0.98053545 0.9563075 0.90766233 0.9137716
0.7800608 0.87874156 0.9777857 1.0739251 0.98759955 1.0969006 1.1674409 1.0657318
1.0747638 0.6244252 0.9357541 0.8544101 0.9608675 1.0936469 0.71985453 0.93303967
0.8967347 0.8699652 1.0834118 1.1085259 0.9345253 1.1418233 1.0851303 1.0994644
1.0964206 1.2053716 0.9432098 1.0549932 0.9134323 0.69081116 1.297551 0.8467302
00000000: 7b8a 8a3f cdbf 8b3f 42ff 823f a40e 723f
00000010: 5f04 7b3f 91d0 743f 8f5c 683f f0ec 693f
00000020: 11b2 473f 35f5 603f 2a50 7a3f 6176 893f
00000030: 53d3 7c3f 3d67 8c3f b46e 953f e669 883f
00000040: dc91 893f 54da 1f3f 958d 6f3f 9fba 5a3f
00000050: 6afb 753f 9ffc 8b3f 6348 383f b0db 6e3f
00000060: 6890 653f 0ab6 5e3f 3dad 8a3f 2de4 8d3f
00000070: 0d3d 6f3f 4427 923f 8de5 8a3f 40bb 8c3f
00000080: 8357 8c3f 9e49 9a3f 3376 713f 040a 873f
00000090: b3d6 693f 00d9 303f 2716 a63f 4fc3 583f

encoder.4.block.2.bias f4 [40]
0.3709848 0.22166899 -0.044452112 0.6199407 0.38792956 0.4121951 0.07125559 0.070531696
0.086297326 -0.0584504 0.055193365 0.38990444 0.38577312 0.5133546 0.42224374 -0.066127814
0.048358124 0.16133715 0.2536216 0.23085324 -0.1701471 -0.07446917 -0.42132747 -0.06450746
0.06806369 0.00826894 0.26139712 -0.049587324 -0.28207108 -0.030768836 0.33961636 0.17988925
0.082736485 0.29872662 0.1278667 0.005875651 -0.0005010076 -0.017421937 -0.34759662 0.06023666
00000000: b8f1 bd3e 32fd 623e 6b13 36bd 6fb4 1e3f
00000010: b49e c63e 3c0b d33e 73ee 913d ec72 903d
00000020: a7bc b03d b069 6fbd 7012 623d 8ea1 c73e
00000030: 0e84 c53e 356b 033f 5530 d83e 056e 87bd
00000040: 2b13 463d 9135 253e b1da 813e cb64 6c3e
00000050: 0b3b 2ebe 4b83 98bd 3cb8 d7be 7d1c 84bd
00000060: fa64 8b3d 737a 073c d8d5 853e 141c 4bbd
00000070: 9f6b 90be ed0e fcbc 32e2 ad3e e334 383e
00000080: bf71 a93d b2f2 983e 7def 023e 8888 c03b
00000090: 0d56 03ba 73b8 8ebc 2ff8 b1be b7ba 763d

encoder.4.block.2.running_mean f4 [40]
0.22521321 -0.74985313 -0.7348955 -0.5521178 -0.0063574365 0.5569754 0.19834268 -0.32525304
-0.11317313 -0.20985003 0.42841282 0.30020887 0.050310645 0.39316243 0.16013485 -0.70703965
-0.5507465 -0.028135182 0.57830846 -0.0069273114 0.11618224 -0.641914 -0.39497474 -0.26571584
0.091686614 -0.50124246 0.63268733 0.7133918 0.031506326 -0.84106493 0.8527255 0.56464297
-0.5845288 -0.09406473 0.24088076 -0.50052685 -0.07593375 -0.19480734 -0.39799374 0.009083813
00000000: 4b9e 663e 60f6 3fbf 1d22 3cbf 9857 0dbf
00000010: 0b52 d0bb f195 0e3f 581a 4b3e 9187 a6be
00000020: 50c7 e7bd ede2 56be ed58 db3e fab4 993e
00000030: 8912 4e3d 964c c93e 64fa 233e 8d00 35bf
00000040: b9fd 0cbf c17b e6bc 060c 143f 80fe e2bb
00000050: f4f0 ed3d 7a54 24bf 213a cabe e80b 88be
00000060: 31c6 bb3d 6d51 00bf ccf7 213f d8a0 363f
00000070: c70c 013d 0850 57bf 384c 5a3f 718c 103f
00000080: aea3 15bf 02a5 c0bd 72a9 763e 8722 00bf
00000090: 2783 9bbd 937b 47be d6c5 cbbe 46d4 143c

encoder.4.block.2.running_var f4 [40]
0.3833924 0.9452049 0.8018213 0.42632833 0.33845815 0.40848884 0.46923855 0.15381776
0.2370579 0.4953708 0.5551516 0.47509876 0.3114689 0.3022007 0.6572649 0.5345566
0.39158303 0.1886961 0.5661473 0.21312629 0.113136314 0.95103645 0.07578749 0.49270424
0.42091012 0.41517714 0.5320038 0.6709531 0.09001013 0.9112718 0.6430421 1.0157667
0.7570967 0.4010094 0.440631 0.5156748 0.2550391 0.15659592 0.14980826 0.18859416
00000000: 024c c43e f3f8 713f 2944 4d3f b547 da3e
00000010: 634a ad3e 7325 d13e 0940 f03e 6782 1d3e
00000020: 4ebf 723e 3ea1 fd3e 6a1e 0e3f 2540 f33e
00000030: da78 9f3e 0dba 9a3e 8342 283f b4d8 083f
00000040: 927d c83e 8d39 413e 08ef 103f c73d 5a3e
00000050: 03b4 e73d 2077 733f 7936 9b3d bb43 fc3e
00000060: 8881 d73e 1992 d43e 6731 083f 95c3 2b3f
00000070: 3b57 b83d 1c49 693f 689e 243f a504 823f
00000080: 17d1 413f 1b51 cd3e 639a e13e 4403 043f
00000090: 7c94 823e ae5a 203e 5667 193e d41e 413e

encoder.4.block.4.weight f4 [40, 40, 1, 1]
0.046437625 0.1779781 0.27014926 0.1436909 -0.03166353 0.020589162 0.0068742884 0.04769213
-0.037052702 0.11441758 -0.21641892 -0.21205138 -0.21773086 -0.18374862 -0.19822058 -0.07392035
0.09767679 -0.010093234 -0.1292999 -0.03333882 0.14751853 0.19248891 -0.0028471122 0.22855045
0.18754803 0.05247396 -0.2930008 -0.24759707 -0.30982965 -0.12258368 -0.52946174 -0.014675739
-0.015214104 -0.25371534 0.07049469 0.039277174 0.06399829 -0.08213065 0.31983432 0.08713209
0.11711163 -0.10284615 0.4688062 -0.158084 0.044769987 0.056781404 1.0114686e-05 0.04492688
0.12903014 -0.020672984 -0.05421943 0.22310366 0.07602784 0.1605628 0.27557784 -0.18565525
-0.11496134 0.121448204 -0.06800156 0.022203766 -0.093112595 -0.2470969 0.017842753 -0.05998351
-0.020020152 -0.005337868 -0.010845449 0.05936779 -0.01475631 -0.10851207 0.104223445 0.08123197
0.043602373 0.38393986 0.15004185 -0.13791592 -0.07894278 0.11978117 -0.37055883 -0.041250084
-0.14559469 0.16013308 0.064067945 -0.26586294 -0.056973256 -0.12792426 -0.11682094 -0.09771793
0.003932839 -0.1137937 0.037662555 -0.24751402 0.043285888 -0.061674643 -0.15505636 0.020570705
0.04763437 0.038137734 -0.13944414 -0.17022605 -0.07377883 0.09419873 0.044271644 0.088093616
-0.20745929 0.038309995 -0.16126803 0.09395936 -0.14301609 0.17288327 -0.11513836 -0.3183497
-0.1276791 -0.2691993 -0.0055646417 0.17205113 0.032645423 0.0157128 0.53078765 -0.036257833
-0.0195105 0.28162313 0.15729508 -0.052056037 -0.174772 0.057665158 -0.16798341 -0.37831083
-0.5216345 -0.061401 0.11606138 -0.3322378 -0.08103379 -0.14024518 -0.06835114 -0.23115467
-0.020909566 0.065946944 -0.25211015 0.12631203 0.22269793 0.17622605 0.0077804374 0.1493169
-0.2236689 -9.697148e-06 -0.070141226 0.003586683 0.17971537 0.0034395598 -0.05361848 0.051548652
0.08816524 -0.10201095 -0.114858046 0.21305554 0.09304787 -0.060994953 0.34618208 -0.040260453
-0.10235483 -0.19547518 -0.048292365 -0.004283754 -0.042020556 -0.2924087 0.2509254 -0.19922559
-0.0950137 0.052031063 0.02634657 0.116133064 0.25917238 0.359956 0.16486469 -0.02809361
-0.09434467 0.040013608 0.08206073 0.1612091 0.17048158 0.024731299 -0.2739147 0.0812578
-0.030945994 -0.23102012 -0.14233138 0.14316852 0.11900924 -0.114829436 0.15003148 -0.22493118
-0.15543205 0.13334829 0.175474 -0.052959878 -0.116395734 -0.15866809 -0.20110829 0.11258348
0.06525431 -0.06328718 0.03687129 -0.04277867 -0.0780507 -0.43632084 -0.2942423 0.06348311
-0.14314887 -0.045884512 0.09806876 -0.17005059 -0.38070074 0.007300558 0.04386095 -0.0017069426
-0.083239436 0.107367486 -0.07490095 -0.2476497 -0.02128812 -0.0053430805 0.15657787 0.030689858
-0.0128371185 0.11368252 0.09656327 0.18307008 -0.14609611 0.003401236 -0.1649414 0.38354763
0.11808884 0.24469484 -0.18306221 0.033269055 0.088224694 -0.027869726 0.2908999 -0.13846268
-0.16259591 -0.12722506 -0.27853966 0.02711802 0.036348235 -0.20073295 0.1579134 0.050655704
0.23545836 0.031172652 -0.54928863 -0.21643345 -0.18650302 -0.077566184 -0.09851554 -0.057590917
00000000: 6135 3e3d e43f 363e 0151 8a3e b523 133e
00000010: 9eb1 01bd 9aaa a83c b641 e13b d358 433d
00000020: 93c4 17bd c453 ea3d ec9c 5dbe ff23 59be
00000030: d7f4 5ebe 9928 3cbe 56fa 4abe 8d63 97bd
00000040: c50a c83d 175e 25bc 3167 04be 498e 08bd
00000050: 190f 173e d01b 453e 9e96 3abb 2109 6a3e
00000060: 970c 403e efee 563d 3304 96be 168a 7dbe
00000070: fea1 9ebe 270d fbbd ce8a 07bf 8372 70bc
00000080: 9444 79bc fae6 81be 855f 903d 1ae1 203d
00000090: 8911 833d 1d34 a8bd 53c1 a33e 4f72 b23d
000000a0: 39d8 ef3d 01a1 d2bd 5e07 f03e c6e0 21be
000000b0: bc60 373d 9e93 683d 3fb2 2937 4005 383d
000000c0: 7a20 043e 645a a9bc 3115 5ebd 4975 643e
000000d0: 7cb4 9b3d 936a 243e 8a18 8d3e 691c 3ebe
000000e0: da70 ebbd d6b9 f83d 6744 8bbd ace4 b53c
000000f0: d1b1 bebd f806 7dbe f72a 923c 45b1 75bd
00000100: 4d01 a4bc 48e9 aebb 1cb1 31bc a42b 733d
00000110: 73c4 71bc 933b debd 1a73 d53d f25c a63d
00000120: 6798 323d c493 c43e 92a4 193e d539 0dbe
00000130: c1ac a1bd d44f f53d e3b9 bdbe d9f5 28bd
00000140: c616 15be edf9 233e 0e36 833d 301f 88be
00000150: ca5c 69bd 94fe 02be d13f efbd 5720 c8bd
00000160: 0bdf 803b ac0c e9bd 0d44 1a3d 5174 7dbe
00000170: 8b4c 313d 8d9e 7cbd 18c7 1ebe e583 a83c
00000180: 421c 433d 5036 1c3d 72ca 0ebe bd4f 2ebe
00000190: 5b19 97bd 44eb c03d 2f56 353d 6d6a b43d
000001a0: 3570 54be f1ea 1c3d 7223 25be c46d c03d
000001b0: cf72 12be 5008 313e a9cd ebbd bbfe a2be
000001c0: 4fbe 02be 7ed4 89be 9957 b6bb 2c2e 303e
000001d0: 35b7 053d 21b8 803c b3e1 073f 1883 14bd
000001e0: 7cd4 9fbc e830 903e f611 213e b638 55bd
000001f0: 6ef7 32be 4d32 6c3d d803 2cbe f5b1 c1be
00000200: d789 05bf 9d7f 7bbd 97b1 ed3d 131b aabe
00000210: 0bf5 a5bd 6f9c 0fbe affb 8bbd cfb3 6cbe
00000220: 8a4a abbc 310f 873d 9514 81be f157 013e
00000230: ed0a 643e 9a74 343e 0af3 fe3b 88e6 183e
00000240: 7609 65be efb0 22b7 34a6 8fbd 8e0e 6b3b
00000250: 4e07 383e 3d6a 613b 0d9f 5bbd ae24 533d
00000260: fa8f b43d 1eeb d0bd b23a ebbd 3b2b 5a3e
00000270: e28f be3d d8d5 79bd c73e b13e 25e8 24bd
00000280: 699f d1bd a52a 48be 37ce 45bd bc5e 8cbb
00000290: bf1d 2cbd 98b6 95be 4b79 803e cb01 4cbe
000002a0: 8b96 c2bd 861e 553d c3d4 d73c 2cd7 ed3d
000002b0: 3eb2 843e 274c b83e 4ad2 283e 9224 e6bc
000002c0: c737 c1bd 4fe5 233d 750f a83d 0014 253e
000002d0: b992 2e3e 4b99 ca3c 8c3e 8cbe 7d6a a63d
000002e0: 7482 fdbc 8a90 6cbe 51bf 11be c59a 123e
000002f0: 1ebb f33d b22b ebbd daa1 193e 5c54 66be
00000300: 9429 1fbe 748c 083e 75af 333e 75ec 58bd
00000310: e360 eebd e379 22be 55ef 4dbe 2b92 e63d
00000320: 0da4 853d b69c 81bd 5a06 173d b038 2fbd
00000330: 0cd9 9fbd 7265 dfbe eda6 96be 6f03 823d
00000340: 9e95 12be 66f1 3bbd 46d8 c83d be21 2ebe
00000350: 35eb c2be 8539 ef3b 8aa7 333d 7dbb dfba
00000360: 7079 aabd 7ce3 db3d ab65 99bd e297 7dbe
00000370: 6c64 aebc 0215 afbb f355 203e 4c69 fb3c
00000380: c752 52bc 62d2 e83d f7c2 c53d b976 3b3e
00000390: 389a 15be 45e7 5e3b 66e6 28be 5b60 c43e
000003a0: 90d8 f13d 4991 7a3e a974 3bbe 2245 083d
000003b0: 26af b43d 0d4f e4bc d5f0 943e 29c9 0dbe
000003c0: 8b7f 26be 4947 02be c09c 8ebe 9c26 de3c
000003d0: e3e1 143d f08c 4dbe 0db4 213e 5b7c 4f3d
000003e0: ff1b 713e ca5d ff3c 2e9e 0cbf bba0 5dbe
000003f0: a6fa 3ebe 05db 9ebd 84c2 c9bd 74e4 6bbd

encoder.4.block.4.bias f4 [40]
-0.008266516 0.0020788568 -0.0051817833 -0.001728676 -0.00066472276 0.00031653186 -0.0116570005 -0.0092978235
0.0002542526 -0.00014991462 -0.0022680603 -0.0041310904 -0.004578733 0.0012831143 -0.006584369 0.00062806386
-0.006290428 0.00037489258 0.0027105573 0.009913851 0.007274538 -0.0048573986 0.0038611153 -0.0010426106
-0.0056986217 -0.004228921 -0.0035248036 0.00013982618 -0.0053008785 -0.0076696486 0.0016344504 0.005518221
-0.0025716152 -0.0030489762 -0.008000031 -0.004211448 -0.0058969758 -0.006481386 0.0019133788 -0.002026173
00000000: 4870 07bc 6e3d 083b f3cb a9bb be94 e2ba
00000010: ca40 2eba 30f4 a539 01fd 3ebc e655 18bc
00000020: 354d 8539 6632 1db9 bda3 14bb 195e 87bb
00000030: 3209 96bb 2c2e a83a b1c1 d7bb a7a4 243a
00000040: ef1f cebb 3b8d c439 9ba3 313b b46d 223c
00000050: 3f5f ee3b d02a 9fbb c40a 7d3b 35a8 88ba
00000060: 81bb babb c392 8abb 6400 67bb 4e9e 1239
00000070: feb2 adbb ad51 fbbb 0e3b d63a 31d2 b43b
00000080: 8b88 28bb 55d1 47bb 9012 03bc 3000 8abb
00000090: 6b3b c1bb ce61 d4bb 57ca fa3a 8bc9 04bb

encoder.4.block.5.weight f4 [40]
0.725682 0.5572374 0.7277953 0.552272 0.7927034 0.5636857 0.9448655 0.5205134
0.75281996 0.60729903 0.8641541 0.82172436 0.70445883 0.6690543 0.5489439 1.3265831
0.5215521 0.8971128 0.9665038 0.48703533 0.33163452 0.9147198 0.98366594 0.6755317
0.5696666 0.50397974 0.86395276 0.9466831 0.64471346 0.6658653 0.81219584 0.4745741
0.5292043 0.74280685 0.85339415 0.7974929 0.8357369 0.61260927 0.492131 0.5678164
00000000: 4cc6 393f 1ca7 0e3f cb50 3a3f b361 0d3f
00000010: 9cee 4a3f b54d 103f b5e2 713f 5e40 053f
00000020: cfb8 403f f377 1b3f 3439 5d3f 875c 523f
00000030: 6a57 343f 2547 2b3f 9687 0c3f 7acd a93f
00000040: 7084 053f 2fa9 653f cb6c 773f b25c f93e
00000050: 00cc a93e 142b 6a3f 88d1 7b3f a5ef 2c3f
00000060: acd5 113f d104 013f 022c 5d3f d359 723f
00000070: f10b 253f 2676 2a3f 11ec 4f3f 60fb f23e
00000080: ef79 073f 9728 3e3f 0a78 5a3f 7f28 4c3f
00000090: daf2 553f f6d3 1c3f 98f8 fb3e 6a5c 113f

encoder.4.block.5.bias f4 [40]
-0.4641695 0.012929744 -0.29331985 -0.23059553 0.043107964 -0.23948283 -0.22377212 -0.3140992
0.13164358 -0.33308265 0.05822578 -0.19805454 -0.39786676 -0.026063852 -0.11355569 -0.24839942
-0.28974345 -0.010831008 0.1550793 -0.14194785 -0.18973498 0.03652343 0.039765883 -0.15642934
-0.33101693 -0.07786406 0.049379412 0.079232216 -0.14350182 -0.108554445 -0.270191 -0.16242512
-0.15028404 -0.26496005 -0.09348006 -0.29587188 -0.2839403 0.005786758 -0.081400715 -0.18609169
00000000: a0a7 edbe 47d7 533c 052e 96be 3c21 6cbe
00000010: fa91 303d fd3a 75be 8524 65be 9cd1 a0be
00000020: 93cd 063e cf89 aabe 287e 6e3d cfce 4abe
00000030: 31b5 cbbe dc83 d5bc e38f e8bd 6b5c 7ebe
00000040: 4159 94be 8a74 31bc 1ccd 1e3e c75a 11be
00000050: e349 42be 9899 153d 8de1 223d 032f 20be
00000060: 0d7b a9be 3177 9fbd 1142 4a3d 8044 a23d
00000070: 24f2 12be cb51 debd 7a56 8abe c552 26be
00000080: 0fe4 19be d8a8 87be 7972 bfbd 857c 97be
00000090: 9f60 91be d89e bd3b 6bb5 a6bd d28e 3ebe

encoder.4.block.5.running_mean f4 [40]
-0.60032326 0.46641263 -0.9185404 -0.4447769 0.009755143 -0.34046155 -0.89995736 -0.25447106
-0.047055896 -0.66164017 0.5936604 0.18043971 0.11521375 0.6360718 -0.8438761 -0.19268306
-0.17424403 0.35940057 1.1193268 0.5798895 -0.27214673 0.4288815 0.36504284 -0.19056877
0.03783542 -0.43934467 0.5134733 0.50677854 -0.38514894 -0.77390707 -0.9000159 -0.23624213
-0.003395137 -0.5017574 -0.38446692 -0.5240133 -0.5986298 -0.37273493 -0.066800855 -0.382434
00000000: c9ae 19bf a3cd ee3e 7725 6bbf ccb9 e3be
00000010: 09d4 1f3c fa50 aebe 9b63 66bf 084a 82be
00000020: afbd 40bd 4061 29bf 21fa 173f 30c5 383e
00000030: 30f5 eb3d 9ad5 223f 4408 58bf b54e 45be
00000040: 076d 32be 5a03 b83e 1a46 8f3f a373 143f
00000050: d156 8bbe 5b96 db3e e5e6 ba3e 7624 43be
00000060: 50f9 1a3d c9f1 e0be fc72 033f 3dbc 013f
00000070: 3e32 c5be c61e 46bf 7167 66bf 75e9 71be
00000080: f280 5ebb 2c73 00bf d9d8 c4be bc25 06bf
00000090: cd3f 19bf 1dd7 bebe e3ce 88bd 64ce c3be

encoder.4.block.5.running_var f4 [40]
5.5074177 3.276674 3.5640192 4.110604 1.3531332 0.53758484 2.2910802 5.735604
1.1834918 1.5925777 2.5794713 1.7820598 0.7003068 2.6865425 4.791481 0.7662487
0.9671464 1.7998329 3.472609 0.91292405 1.7469119 5.0675697 0.7584839 3.948863
4.7547603 0.41086704 3.1913464 6.5365925 1.415982 1.0105792 4.8042645 6.1368465
1.4923452 1.4598073 4.8961945 1.7834747 1.3649122 0.9265335 2.7777412 1.3268352
00000000: c43c b040 07b5 5140 e418 6440 118a 8340
00000010: 7833 ad3f 299f 093f 0fa1 1240 118a b740
00000020: a97c 973f 96d9 cb3f 0f16 2540 891a e43f
00000030: 4e47 333f 50f0 2b40 d053 9940 e028 443f
00000040: e896 773f ed60 e63f 3a3f 5e40 64b5 693f
00000050: cf9a df3f 8829 a240 002c 423f 2cba 7c40
00000060: ff26 9840 2a5d d23e 053f 4c40 c42b d140
00000070: e63e b53f a95a 813f 89bc 9940 0c61 c440
00000080: 2b05 bf3f f7da ba3f a0ad 9c40 e648 e43f
00000090: 71b5 ae3f 4d31 6d3f 83c6 3140 bcd5 a93f

encoder.5.block.1.weight f4 [40, 40, 3, 3]
0.26815283 -0.046474367 -0.07003531 0.03111704 0.071125105 -0.1288421 0.1765728 -0.024585115
0.026552673 0.014121685 0.002472618 -0.0037373735 -0.04777316 0.07940387 -0.004951853 -0.03234637
0.05813703 -0.010898945 -0.028547322 0.10160627 0.05162479 -0.084148504 -0.29888043 0.075998336
-0.07682562 -0.035046272 -0.056311194 0.036940478 0.05673336 0.00662613 0.05599852 0.07786744
-0.13008106 -0.003763778 0.016796608 0.07575205 0.023679087 -0.00432641 -0.010290346 0.09727219
-0.09500433 0.02412047 0.0043476596 -0.024507407 -0.024662754 -0.034954175 -0.17984952 0.08483875
-0.025369674 -0.25812823 0.014208043 -0.002041243 0.1514431 0.109893814 -0.0891778 0.21780767
-0.027130319 -0.10756049 -0.26207516 -0.22697076 0.024074266 -0.09907136 -0.023575922 0.03999976
-0.10795587 -0.07657308 -0.0055808327 -0.10045004 -0.30022544 0.071835734 0.14447528 0.075690284
0.026520316 -0.015164064 -0.13972126 0.009173463 -0.22479215 0.0034381682 0.043693107 -0.03653293
0.020062977 0.01176166 0.05776534 0.085399926 0.040029176 0.08866548 0.121173166 -0.08534579
0.041260127 0.029947637 -0.018550513 -0.01062618 0.046909105 0.009654506 0.16493046 0.013632385
0.027219215 0.015678002 0.07970903 0.027939662 0.053234275 0.035487305 -0.027659941 -0.3639461
0.036785427 0.00036614432 -0.021038339 -0.028622817 0.040212005 -0.02501525 0.012255768 0.070627734
-0.24439898 0.23088768 -0.041998275 0.01470715 -0.075301625 0.03640704 0.06641496 0.07619685
-0.05789945 0.051016495 -8.3976465e-06 -0.019265948 0.016620394 0.008620339 -0.077311695 -0.037360534
-0.011973541 0.021144262 0.15269056 -0.04375159 -0.0026463706 0.04995076 -0.001763729 0.0023606357
0.008405919 0.03336457 0.015279973 0.016211743 0.008686415 0.0063295937 -0.025184063 0.021003263
-0.16312103 -0.035653975 -0.01759021 0.11885858 -0.12494018 0.031921614 0.011253541 -0.06637322
0.0064091594 0.008752105 0.06205572 0.0077606877 -0.07084786 -0.14523521 0.007998935 0.027741672
-0.022875248 -0.049155653 -0.010833952 -0.051313713 -0.046074003 0.0032283117 0.4784686 -0.00838969
0.015460241 -0.0020576247 -0.0029821072 0.034673367 -0.11152137 -0.11820486 -0.0022067847 0.017516296
-0.024656435 -0.022311239 -0.03190779 0.007782952 -0.011447328 -0.008421807 0.039865192 -0.09269263
0.06168446 -0.07007083 -0.019593334 0.05083044 -0.012809877 -0.02204199 0.0009227663 0.015914155
0.064223975 0.25237983 0.022247031 -0.046227824 -0.020671135 -0.030715084 0.0012182805 0.04414022
0.013742148 -0.018302947 -0.033349574 -0.024467168 0.010935052 -0.028316371 -0.014856693 -0.031961784
-0.0014228473 0.12295143 -0.008999487 0.115996465 -0.05932835 0.005503882 -0.034046926 0.03959966
0.00691741 0.05940946 0.042709995 -0.040618017 0.1522326 -0.043439686 0.023707157 -0.07609112
0.010765932 -0.019220013 -0.13562354 0.07965341 0.06902152 0.056257088 0.044339564 -0.07654202
0.0020318788 0.051669154 -0.029397588 0.022424337 -0.02953879 -0.020277243 0.21739416 -0.007580238
-0.05448482 -0.038032982 0.050277524 0.06442719 -0.008770423 0.037930585 0.0027546515 0.06390961
-0.032086868 0.052028954 0.039339665 -0.06272007 -0.026509592 -0.04630102 0.041484885 0.006783871
00000000: 544b 893e e85b 3ebd ac6e 8fbd 2ae9 fe3c
00000010: 0aaa 913d 2fef 03be 80cf 343e b966 c9bc
00000020: fe84 d93c a45e 673c a50b 223b b9ee 74bb
00000030: caad 43bd 7f9e a23d 2743 a2bb a17d 04bd
00000040: 1821 6e3d 7d91 32bc 13dc e9bc f316 d03d
00000050: 8474 533d 0d56 acbd db06 99be 04a5 9b3d
00000060: c056 9dbd ae8c 0fbd 91a6 66bd e64e 173d
00000070: 3d61 683d 0220 d93b b45e 653d f778 9f3d
00000080: f833 05be b7a9 76bb 0a99 893c e423 9b3d
00000090: a5fa c13c 8fc4 8dbb d798 28bc a436 c73d
000000a0: a191 c2bd 4b98 c53c d076 8e3b c2c3 c8bc
000000b0: 8b09 cabc 1c2c 0fbd 792a 38be f0bf ad3d
000000c0: 10d4 cfbc 6229 84be dac8 683c 60c6 05bb
000000d0: e613 1b3e 0210 e13d daa2 b6bd f908 5f3e
000000e0: 6740 debc ad48 dcbd b72e 86be 066b 68be
000000f0: 6537 c53c ede5 cabd 4b22 c1bc cad6 233d
00000100: f817 ddbd 59d2 9cbd 6bdf b6bb c0b8 cdbd
00000110: 26b7 99be 9d1e 933d 54f1 133e 8203 9b3d
00000120: 2241 d93c b272 78bc 1713 0fbe 4b4c 163c
00000130: ea2f 66be e452 613b 8bf7 323d 8ea3 15bd
00000140: 1d5b a43c fab3 403c 599b 6c3d 28e6 ae3d
00000150: a2f5 233d 3f96 b53d a329 f83d c6c9 aebd
00000160: 6100 293d bf54 f53c 3ff7 97bc 6e19 2ebc
00000170: c323 403d ef2d 1e3c 88e3 283e 5e5a 5f3c
00000180: d5fa de3c 276f 803c 7d3e a33d b8e1 e43c
00000190: 2f0c 5a3d 235b 113d 1a97 e2bc 2557 babe
000001a0: 51ac 163d 0ff7 bf39 9858 acbc 667a eabc
000001b0: 58b5 243d c8ec ccbc 6bcc 483c 46a5 903d
000001c0: ba43 7abe d26d 6c3e 6206 2cbd 42f6 703c
000001d0: bd37 9abd 8c1f 153d 9104 883d 180d 9c3d
000001e0: f927 6dbd acf6 503d 9ee3 0cb7 9fd3 9dbc
000001f0: 7e27 883c 533c 0d3c 9855 9ebd 5c07 19bd
00000200: ac2c 44bc bb36 ad3c ea5a 1c3e de34 33bd
00000210: bb6e 2dbb 2b99 4c3d ed2c e7ba e5b4 1a3b
00000220: fbb8 093c 4aa9 083d da58 7a3c 7dce 843c
00000230: 7751 0e3c 7b68 cf3b cf4e cebc 090f ac3c
00000240: 3309 27be e709 12bd 5819 90bc 216c f33d
00000250: a3e0 ffbd 3dc0 023d c660 383c afee 87bd
00000260: ed03 d23b fd64 0f3c 232e 7e3d 5e4d fe3b
00000270: af18 91bd 8ab8 14be f70d 033c 8142 e33c
00000280: df64 bbbc 7057 49bd e380 31bc 542e 52bd
00000290: 18b8 3cbd 1592 533b d6f9 f43e e974 09bc
000002a0: f34c 7d3c 37d9 06bb 756f 43bb a905 0e3d
000002b0: 5165 e4bd 6415 f2bd b49f 10bb 567e 8f3c
000002c0: 4bfc c9bc 0fc6 b6bc beb1 02bd 2208 ff3b
000002d0: 938d 3bbc 9efb 09bc af49 233d a2d5 bdbd
000002e0: d8a8 7c3d 4c81 8fbd 3382 a0bc 9433 503d
000002f0: 85e0 51bc 6791 b4bc cce5 713a 675e 823c
00000300: dc87 833d ee37 813e 683f b63c 6359 3dbd
00000310: 8356 a9bc 339e fbbc b6ae 9f3a 60cc 343d
00000320: bf26 613c 10f0 95bc 9099 08bd 5f6f c8bc
00000330: ef28 333c bcf7 e7bc 7d69 73bc 5cea 02bd
00000340: d57e baba f6cd fb3d 9672 13bc 8e8f ed3d
00000350: 4902 73bd e959 b43b ca74 0bbd 4133 223d
00000360: 71ab e23b 5557 733d adf0 2e3d 145f 26bd
00000370: dde2 1b3e d0ed 31bd 8335 c23c a9d5 9bbd
00000380: 9763 303c 4a73 9dbc e6e0 0abe 5421 a33d
00000390: 285b 8d3d d56d 663d 679d 353d 10c2 9cbd
000003a0: 4529 053b 09a3 533d 36d3 f0bc 3eb3 b73c
000003b0: 55fb f1bc 761c a6bc 939c 5e3e a563 f8bb
000003c0: 7a2b 5fbd 79c8 1bbd ceef 4d3d 67f2 833d
000003d0: d2b1 0fbc 1a5d 1b3d 6287 343b 0be3 823d
000003e0: 856d 03bd 501c 553d a122 213d 6173 80bd
000003f0: a52a d9bc 23a6 3dbd 0eec 293d 3c4b de3b

encoder.5.block.1.bias f4 [40]
0.0002315215 0.0036072177 0.00032395357 0.0026570964 0.0017439149 0.0014326685 0.0016260504 0.0017341605
0.00011975181 0.0064792256 0.0038887598 0.0035389985 0.0014351149 -0.0065791816 -0.0013557944 0.0025111563
0.0022678073 0.005977388 0.003959325 0.004915617 0.0029312812 -0.0010034853 -0.00029779744 0.004907445
0.0010344198 0.0014307145 0.0023887497 0.0015780986 0.0016019645 -5.843443e-05 0.00047546 0.00030284465
0.0011405158 0.0021218553 0.004822208 0.004002447 0.0050811595 0.0026669924 0.0006360328 0.001837294
00000000: 94c4 7239 1267 6c3b 50d8 a939 ae22 2e3b
00000010: 1394 e43a 61c8 bb3a 3321 d53a c54c e33a
00000020: 4323 fb38 af4f d43b 90da 7e3b 8bee 673b
00000030: 771a bc3a 2d96 d7bb e9b4 b1ba 3692 243b
00000040: 7e9f 143b f7dd c33b 3abd 813b 2f13 a13b
00000050: bd1a 403b 6187 83ba b221 9cb9 a2ce a03b
00000060: 5e95 873a d086 bb3a 928c 1c3b 34d8 ce3a
00000070: 02f9 d13a 7e17 75b8 2947 f939 1fc7 9e39
00000080: 5c7d 953a d30e 0b3b 9d03 9e3b f526 833b
00000090: db7f a63b b5c8 2e3b 70bb 263a 5bd1 f03a

encoder.5.block.2.weight f4 [40]
0.8000498 1.0719365 1.105294 0.7923607 0.8890129 1.0061808 0.806262 1.2363412
1.0764891 1.271089 0.73834 0.8390141 0.98351395 0.6915441 1.0765839 0.9824331
0.8628389 0.7835311 0.7343911 1.2476386 0.8423363 1.0737827 1.1223751 1.1824539
0.9567283 0.8306085 0.8773544 1.1323886 0.9354176 1.0751488 1.0784911 0.703582
0.94677913 0.8568523 0.99913174 0.97593164 0.72948825 0.8248072 1.0259501 1.0513852
00000000: 10d0 4c3f 3735 893f 467a 8d3f 27d8 4a3f
00000010: 5996 633f 88ca 803f 3067 4e3f 6e40 9e3f
00000020: 65ca 893f 0bb3 a23f da03 3d3f a1c9 563f
00000030: 92c7 7b3f 0909 313f 80cd 893f bc80 7b3f
00000040: 03e3 5c3f 7f95 483f 0e01 3c3f 9fb2 9f3f
00000050: 5aa3 573f b671 893f fda9 8f3f a65a 973f
00000060: 25ec 743f c2a2 543f 4c9a 603f 1cf2 903f
00000070: 8777 6f3f 7a9e 893f ff0b 8a3f f31d 343f
00000080: 1e60 723f ac5a 5b3f 19c7 7f3f a8d6 793f
00000090: bebf 3a3f 9126 533f 5552 833f ca93 863f

encoder.5.block.2.bias f4 [40]
0.49353653 -0.3979035 -0.4289638 0.288303 -0.102924086 0.11934435 -0.113003634 -0.063748404
0.07961787 0.012704623 0.29778677 0.32704708 -0.3346523 -0.15615319 -0.18579662 0.3016496
0.54987895 0.15166532 0.49168193 0.25762045 -0.4208698 0.07393302 0.36922798 0.05395341
-0.45612338 -0.04978514 0.80418795 0.06852764 -0.41257587 -0.20094067 0.24309503 -0.47417334
0.1937593 0.17891268 -0.15884186 0.059657175 0.3233781 0.16193467 -0.08642009 0.21298204
00000000: d2b0 fc3e 02ba cbbe 25a1 dbbe 739c 933e
00000010: ddc9 d2bd d06a f43d 736e e7bd 868e 82bd
00000020: b20e a33d 0d27 503c 8277 983e b772 a73e
00000030: 8c57 abbe 9fe6 1fbe 7841 3ebe d171 9a3e
00000040: dec4 0c3f 274e 1b3e bcbd fb3e d4e6 833e
00000050: 3f7c d7be 326a 973d 730b bd3e 40fe 5c3d
00000060: 0189 e9be 81eb 4bbd 43df 4d3f 3858 8c3d
00000070: 253d d3be 64c3 4dbe e7ed 783e d9c6 f2be
00000080: d768 463e e334 373e 71a7 22be 155b 743d
00000090: d091 a53e 34d2 253e 04fd b0bd f717 5a3e
