VQ-VAE/models/vqvae/model_50.pt (torch, 579012 bytes, 64 tensors)

encoder.0.weight f4 [40, 1, 4, 4]
0	0x3d01acfd	0.031659115
1	0x3aefeae5	0.0018304257
2	0xbd1eef3a	-0.038802363
3	0xbd80888b	-0.062760435
4	0xbd491c1d	-0.049099077
5	0xbd9397b0	-0.072066665
6	0xbe0fc4fe	-0.1403999
7	0xbd999552	-0.07499184
8	0xbd5296db	-0.0514134
9	0xbe0318fe	-0.12802503
10	0xbe21c67c	-0.15798372
11	0x3d53c4fc	0.05170153
12	0xbc91cc3a	-0.017797578
13	0xbd8fbc0c	-0.07018289
14	0x3d65a0b4	0.05606146
15	0x3d956893	0.072953366
16	0x3d24228c	0.04007201
17	0x3d6d8113	0.057984423
18	0xbd85b27f	-0.06528186
19	0x3d711b16	0.05886372
20	0x3de8ac73	0.11361017
21	0x3e15ae48	0.14617264
22	0xbd25278a	-0.04032091
23	0x3d387a0e	0.045038275
24	0x3d7a9e15	0.061185915
25	0x3daa0851	0.083023675
26	0xbdf48af0	-0.11940563
27	0xbba68d09	-0.0050827307
28	0x3d63f41a	0.055652715
29	0x3d98f9b8	0.07469505
30	0xbcad1aed	-0.021131003
31	0x3d98faf7	0.07469743
32	0x3da432d6	0.08017509
33	0x3db1ffa1	0.086913355
34	0x3dd05ab6	0.10173552
35	0x3db3a8c8	0.08772427
36	0x3cc12eb4	0.02358184
37	0x3c6f7f0b	0.014617692
38	0x3c6048b2	0.013689207
39	0x3d92ab1e	0.07161544
40	0x3dadaf79	0.084807344
41	0x3d8dcb06	0.06923489
42	0x3d383495	0.04497202
43	0x3d4b4eb1	0.049635593
44	0x3d22581f	0.03963482
45	0x3d17dbe1	0.037074927
46	0x3bc1a2a1	0.0059092795
47	0xbb9a9898	-0.0047178976
48	0x3b99fe81	0.0046995287
49	0x3da8b9c3	0.08238556
50	0x3dcc0292	0.09961428
51	0x3d48a00e	0.048980765
52	0x3daf3416	0.085548565
53	0x3d9af3a4	0.07566002
54	0xbd36caa0	-0.044626832
55	0xbd8c3d94	-0.068476826
56	0x3ddafcfc	0.10692784
57	0xbc6e3f85	-0.014541511
58	0xbd808b1a	-0.062765315
59	0x3c6801a9	0.014160552
60	0x3dc30638	0.095226705
61	0x3cd0f14b	0.025505682
62	0x3d5bb257	0.053636875
63	0x3d284193	0.04107816
64	0x3cf43aaa	0.02981313
65	0xbb4ab382	-0.003092975
66	0x3ca3c5d8	0.0199918
67	0x3cc45dd2	0.023970518
68	0x3c7cf54f	0.0154393455
69	0xbca011a9	-0.019539671
70	0x3de12a59	0.10994405
71	0x3a8e58ac	0.0010860167
72	0xbd089911	-0.0333491
73	0xbdc29f27	-0.09503012
74	0x3d2a8053	0.041626286
75	0x3da46962	0.08027913
76	0x3d88406d	0.06652913
77	0xbd58275a	-0.052771904
78	0x3cf83fde	0.030303892
79	0x3e0ed68c	0.1394903
80	0xbda78b00	-0.08180809
81	0xbd0e7ba2	-0.034785874
82	0xbd39a2dd	-0.045321334
83	0x3cabb0f3	0.0209584
84	0xbde3cafa	-0.11122699
85	0xbd8393c7	-0.06424671
86	0xbe07a3f8	-0.13246143
87	0x3cc850f1	0.024452658
88	0xbdb82620	-0.08991647
89	0xbd8d2915	-0.068926014
90	0xbdc82a3b	-0.0977368
91	0x3da4083c	0.08009383
92	0xbd9d2c8e	-0.07674514
93	0xbd63b2ef	-0.055590566
94	0x3d648b0a	0.05579666
95	0xbc7adc2d	-0.015311283
96	0xbb724439	-0.0036966933
97	0x3d872318	0.065984905
98	0xbd2c38b3	-0.04204626
99	0xbca67b0c	-0.020322345
100	0x3da1d3bb	0.079017125
101	0x3ca1272a	0.019671995
102	0xbddfcf13	-0.10928168
103	0xbd70ae4b	-0.05875997
104	0x3d49a40a	0.049228705
105	0xbe0d8c7b	-0.1382312
106	0xbd3b434c	-0.045718476
107	0xbd93204c	-0.071838945
108	0xbc0d619a	-0.008629227
109	0xbd59699a	-0.053079225
110	0xbc8e62b3	-0.017381048
111	0xbccaee88	-0.024771944
112	0xbbfa2cf4	-0.0076347534
113	0xbd7d6bad	-0.061870266
114	0xbdf7ed15	-0.12105767
115	0xbdb9849d	-0.09058497
116	0xbd1e4eb0	-0.03864926
117	0xbd440542	-0.047856577
118	0xbdca16ed	-0.09867654
119	0x3d75b0dc	0.05998312
120	0xbe02e72f	-0.12783502
121	0xbd83d479	-0.0643701
122	0xbd3fa326	-0.04678645
123	0xbd230c81	-0.039806847
124	0xbcce3d2d	-0.025175655
125	0x3d8587cc	0.06520042
126	0xbd9507ac	-0.07276854
127	0xbcea1506	-0.028574478
128	0xbc83a71c	-0.016070895
129	0xbd062a1d	-0.032755006
130	0x3a6d2008	0.00090456055
131	0x3d17d42f	0.03706759
132	0xbdaa8492	-0.08326067
133	0x3d95a22c	0.073063225
134	0x3db15cf6	0.08660309
135	0x3ccd14f6	0.025034409
136	0x3d836d1b	0.064172946
137	0x3df3da0a	0.11906822
138	0xbd176b8d	-0.036967803
139	0xbcd3c855	-0.025852362
140	0x3df2eb72	0.11861314
141	0x3dd5e146	0.10443358
142	0xbc574291	-0.013138429
143	0x3d4634cc	0.048390195
144	0x3ccdc573	0.025118565
145	0x3d8766e4	0.06611422
146	0x3d749591	0.05971295
147	0x3d21e85a	0.03952823
148	0xbd363135	-0.04448052
149	0xbd1a7470	-0.0377087
150	0xbdfa82ef	-0.12232005
151	0xbc7d6e68	-0.015468217
152	0xbe02c697	-0.12771069
153	0xbdb1ae0a	-0.086757734
154	0xbde6ba31	-0.11265982
155	0x3cd0785d	0.025448019
156	0x3c75f0b1	0.015010999
157	0x3da5238c	0.08063421
158	0x3d671b32	0.05642242
159	0x3d478e26	0.048719548
160	0x3d904c92	0.07045855
161	0x3d046dc5	0.032331247
162	0xbda33208	-0.07968527
163	0xbd7827ac	-0.06058471
164	0x3d8110f0	0.06302059
165	0x3c7c36b0	0.015393898
166	0xbccb8d20	-0.024847567
167	0xbd978fec	-0.07400498
168	0x3d303c2b	0.04302613
169	0x3ce37b15	0.027768651
170	0xbd198e75	-0.037489373
171	0xbdd3f8b9	-0.103501745
172	0x3d89c8c6	0.067277476
173	0x3d49f28a	0.04930357
174	0xbd3221f4	-0.04348941
175	0xbd89e013	-0.06732192
176	0xbd80b846	-0.06285147
177	0xbcee65b2	-0.029101226
178	0x3c13590a	0.008993397
179	0xba1caad2	-0.0005976382
180	0x3c840aea	0.016118485
181	0xbd1704ae	-0.036869697
182	0xbcea362a	-0.02859028
183	0xbda86317	-0.08222025
184	0xbd53eaaf	-0.051737484
185	0xbe49c0ce	-0.19702455
186	0xbe3fbf20	-0.18725252
187	0xbd3bf488	-0.0458875
188	0x3c17f0bb	0.009273703
189	0xbd46e816	-0.04856118
190	0x3b65ce3e	0.0035065557
191	0xbd4d31a9	-0.050096188
192	0x3c530234	0.012878943
193	0x3d98e678	0.074658334
194	0x3d8e74b4	0.06955853
195	0xbc71a299	-0.014748239
196	0x3c132ca1	0.008982808
197	0xbd5a6342	-0.053317316
198	0xbd862972	-0.06550874
199	0xbdcd8aac	-0.10036215
200	0xbd4b3bd2	-0.049617596
201	0xbde55735	-0.11198274
202	0xbddc3267	-0.10751801
203	0xbddff3e8	-0.10935193
204	0xbd3aba77	-0.045587983
205	0xbd3773bd	-0.04478811
206	0xbd907ee2	-0.07055451
207	0xbdcd3240	-0.1001935
208	0xbd97ce54	-0.07412401
209	0xbd5b0063	-0.053467166
210	0x3cafbd57	0.021452589
211	0x3cfbd267	0.030739976
212	0xbd8fdc41	-0.07024432
213	0xbddda5d1	-0.108226426
214	0xbdb49c63	-0.08818891
215	0xbcbb649b	-0.02287512
216	0x3d4e75af	0.0504052
217	0x3c38af99	0.0112723345
218	0xbdb588a5	-0.088639535
219	0xbdd7b166	-0.10531883
220	0x3d416f1c	0.047225103
221	0x3da6d418	0.081459224
222	0x3ca4a218	0.020096824
223	0xbcdd0f31	-0.026984783
224	0x3cfd84c7	0.030947102
225	0x3bd3e60c	0.0064666327
226	0xbbc04864	-0.0058680046
227	0x3d0f874f	0.03504115
228	0x3d5b8b3d	0.053599585
229	0xbd6f5242	-0.058428057
230	0xbd01b9ef	-0.03167146
231	0x3cfb7277	0.03069423
232	0x3cf210fe	0.029549118
233	0x3d892959	0.066973396
234	0x3e2bc2b6	0.16773495
235	0x3e0014d8	0.12507951
236	0x3cbcf3ac	0.02306541
237	0x3d8434a6	0.064553544
238	0x3db2d72d	0.08732448
239	0x3d32c640	0.043646097
240	0x3d238c19	0.03992853
241	0xbda148d0	-0.07875216
242	0xbd4c36c7	-0.049856927
243	0xbc1a77b2	-0.009427952
244	0xbd83b46b	-0.06430896
245	0xbd4afaf7	-0.049555745
246	0xbd9c6abc	-0.076375455
247	0xbd6645ca	-0.0562189
248	0xbd9740bd	-0.07385395
249	0xbdbb0b03	-0.0913296
250	0xbd3d74dc	-0.046254024
251	0xbd505347	-0.05086067
252	0x3c553068	0.013012029
253	0xbd29f597	-0.04149398
254	0xbd9dd88e	-0.0770732
255	0x3c087948	0.008329697

encoder.0.bias f4 [40]
0	0xb73cb9e1	-1.12489515e-05
1	0xba3e0f0c	-0.0007250167
2	0xbb62dc85	-0.0034616303
3	0xba02d670	-0.000499106
4	0xbbace299	-0.005276036
5	0xb8f0d8f7	-0.00011484505
6	0x3b314d3a	0.0027054087
7	0x3a7922f9	0.00095038075
8	0xbb641eb3	-0.0034808337
9	0x3baa955f	0.0052057947
10	0x3a073663	0.00051579456
11	0xba6cc0cf	-0.0009031416
12	0xbb4f3c17	-0.003162151
13	0xba243709	-0.00062643044
14	0xbaa777c5	-0.0012776783
15	0x3b4935af	0.0030702164
16	0xbb0400a8	-0.0020141993
17	0xbb011099	-0.001969373
18	0xb947efc3	-0.00019067437
19	0xbb12ca22	-0.0022398313
20	0xbbc457ba	-0.005991903
21	0x39b539a8	0.00034565968
22	0xbb30fbe7	-0.0027005614
23	0xbb77e22c	-0.0037824018
24	0x3acd782d	0.0015676074
25	0x3accc679	0.0015623114
26	0xba841c1b	-0.0010079177
27	0x39cbdb58	0.000388826
28	0x3af94741	0.0019018428
29	0xba15b377	-0.0005710641
30	0x3b8082bd	0.003921835
31	0x3b893f29	0.0041884375
32	0x399cf1da	0.00029934832
33	0xbbb63e5d	-0.0055616335
34	0x3b9b004f	0.0047302614
35	0xba0a8ea4	-0.00052855373
36	0xbaaf1fa2	-0.0013360868
37	0xbb9dfaea	-0.004821171
38	0xbb37560e	-0.0027974877
39	0xba42475b	-0.00074111455

encoder.1.weight f4 [40]
0	0x3f48e0af	0.7846784
1	0x3f2cc597	0.67489
2	0x3f3da046	0.7407268
3	0x3f14267d	0.5787123
4	0x3f2c697b	0.6734845
5	0x3f685821	0.90759474
6	0x3f409879	0.75232655
7	0x3f3ff28d	0.7497948
8	0x3f2d1c38	0.67621183
9	0x3f3225da	0.69589007
10	0x3f4e9af7	0.8070521
11	0x3f3a92b1	0.72880083
12	0x3f5b5b44	0.85686135
13	0x3f464010	0.774415
14	0x3f26cec6	0.6515926
15	0x3f6cee8d	0.925515
16	0x3f406998	0.75161123
17	0x3f5aad36	0.8542055
18	0x3f415883	0.75525683
19	0x3f58bb03	0.8466036
20	0x3f235139	0.6379581
21	0x3f4a550f	0.7903604
22	0x3f2c138c	0.67217326
23	0x3f30b856	0.69031274
24	0x3f0a8b46	0.54118764
25	0x3f3c8078	0.7363353
26	0x3f3b4a15	0.73159915
27	0x3f0c3051	0.54761225
28	0x3f398551	0.7246905
29	0x3f3cee2f	0.7380094
30	0x3f4e4cae	0.80585754
31	0x3f4c854d	0.798909
32	0x3f4ed641	0.80795676
33	0x3f42fefb	0.7617032
34	0x3f5e48cf	0.8682985
35	0x3f25ad7a	0.6471783
36	0x3f6065a8	0.87655115
37	0x3f754532	0.9580871
38	0x3f714f5f	0.94261736
39	0x3f375dc3	0.71627444

encoder.1.bias f4 [40]
0	0xbd68493d	-0.05671047
1	0xbcfab2c8	-0.030602828
2	0xba9a7886	-0.0011785186
3	0x3c9df518	0.019281909
4	0xb91957bc	-0.000146239
5	0xbde70fee	-0.11282335
6	0xbe1d9868	-0.1539017
7	0xbe298799	-0.16555633
8	0x3d82c79b	0.06385728
9	0x3d6239fe	0.055231087
10	0xbdf1ef71	-0.11813248
11	0xbe052f1d	-0.13006254
12	0xbe479857	-0.19491707
13	0xbe10fa88	-0.1415807
14	0x3e1008a5	0.14065798
15	0xbd097913	-0.03356273
16	0xbb7a8208	-0.0038224477
17	0xbdee7e0f	-0.116451375
18	0xbdf89725	-0.121382035
19	0xbe212304	-0.15736014
20	0xbcf7de1b	-0.030257275
21	0xbdbce094	-0.092225224
22	0x3e5d8ae6	0.21635017
23	0xbdaaa1ff	-0.083316796
24	0x3da1f1df	0.079074614
25	0xbdcd18b9	-0.10014481
26	0x3e3863a0	0.18006754
27	0x3e1954fd	0.14973827
28	0xbdbb7f4e	-0.09155141
29	0xbcbfb0e3	-0.023399776
30	0xbe03a128	-0.12854445
31	0xbe4c2f65	-0.19939955
32	0xbe10ca91	-0.14139773
33	0x3e5f5254	0.2180875
34	0xbda03bdc	-0.07823917
35	0xbe1aecaf	-0.1512935
36	0xbe29c1e4	-0.1657787
37	0xbe67ddef	-0.22643255
38	0xbe62f695	-0.22164376
39	0xbda245a5	-0.0792344

encoder.1.running_mean f4 [40]
0	0x3ef4cd57	0.47812912
1	0xbebdd931	-0.37079766
2	0xbf0c3fb9	-0.54784733
3	0xbeb4ee79	-0.3533819
4	0xbe6d36a8	-0.23165381
5	0x3ef8ea8a	0.4861644
6	0x3e8d8668	0.27641606
7	0x3f042058	0.5161185
8	0xbea778ec	-0.32709444
9	0x3e02f462	0.12788537
10	0x3daf50a3	0.08560302
11	0x3f0e4c9f	0.55585665
12	0x3efbc65e	0.4917478
13	0x3e8b7145	0.27234855
14	0xbee9eacf	-0.45686957
15	0x3f00e6ff	0.5035247
16	0xbe8fffdf	-0.28124902
17	0x3f1d55ea	0.6145922
18	0x3eee559f	0.465497
19	0x3eb3bb22	0.35103709
20	0xbe9eb14c	-0.30994642
21	0x3e5b9179	0.21442212
22	0xbe5fe9f6	-0.21866593
23	0x3e9812b7	0.29701778
24	0xbddf4ac9	-0.10902936
25	0x3e0f0ff8	0.13970935
26	0xbe7e0213	-0.24805479
27	0xbde2f0a7	-0.11081057
28	0x3e04995f	0.12949131
29	0x3e7c7c16	0.2465671
30	0x3e6a60e5	0.22888525
31	0x3e8334e3	0.25626287
32	0x3e9130f6	0.28357667
33	0xbe83b60e	-0.25724834
34	0x3eafc95c	0.34333313
35	0xbe883c32	-0.26608425
36	0x3f08c112	0.534196
37	0x3efb1432	0.49038845
38	0x3f15d80f	0.58532804
39	0x3e14a528	0.14516127

encoder.1.running_var f4 [40]
0	0x3e09ff57	0.1347631
1	0x3d866783	0.06562712
2	0x3df6c141	0.12048579
3	0x3d863136	0.06552355
4	0x3cf5d981	0.03001094
5	0x3e03aae1	0.12858154
6	0x3d74bdee	0.059751444
7	0x3de7d28a	0.11319454
8	0x3d83e8c4	0.06440881
9	0x3d055955	0.032555897
10	0x3d4cf846	0.05004146
11	0x3e080764	0.1328407
12	0x3e0f6da4	0.14006668
13	0x3d239dd5	0.039945442
14	0x3dc28e84	0.09499839
15	0x3dd6e906	0.104936644
16	0x3d7e9e2a	0.062162556
17	0x3e349167	0.17633592
18	0x3de92edd	0.113858916
19	0x3d93e998	0.07222289
20	0x3d3bb1b9	0.045823786
21	0x3d2e6d20	0.04258454
22	0x3cd0f010	0.025505096
23	0x3d865f24	0.065611154
24	0x3cf81648	0.030284062
25	0x3d5ef55b	0.054433208
26	0x3d40d340	0.047076464
27	0x3d1491a3	0.036271702
28	0x3d1763c2	0.03696037
29	0x3d50dd84	0.050992504
30	0x3d4f13e9	0.050556097
31	0x3d447161	0.04795969
32	0x3d4e3b89	0.050349746
33	0x3d33d102	0.043900497
34	0x3d500654	0.050787285
35	0x3d883925	0.066515245
36	0x3e15c8f0	0.14627433
37	0x3de7be02	0.11315538
38	0x3e17cfba	0.14825335
39	0x3cbdb20a	0.023156185

encoder.3.weight f4 [40, 40, 4, 4]
0	0xbcaed9fd	-0.02134418
1	0xbc046944	-0.008081738
2	0xbc773296	-0.015087744
3	0xbcaeb01b	-0.021324208
4	0xbd4cb797	-0.049979772
5	0xbd9aa027	-0.07550078
6	0xbc821456	-0.015878838
7	0x3cf77a4a	0.03020968
8	0xbadcc48d	-0.0016843245
9	0x3d68d2f7	0.056841817
10	0xbcb693f6	-0.02228735
11	0x3d3d802a	0.046264805
12	0x3d81a669	0.06330568
13	0x3d5a06f5	0.05322929
14	0x3b1107e1	0.002212994
15	0xbb0723db	-0.0020620737
16	0xbc96d906	-0.018414032
17	0x3c2a2d97	0.010386846
18	0x3d2d28f9	0.042275403
19	0xbbb56e16	-0.005536805
20	0xbd28f237	-0.04124662
21	0xbcb6f15f	-0.022331892
22	0x3d12734f	0.035754498
23	0x3d66a277	0.056307282
24	0xbb8b4f0d	-0.004251367
25	0x3c3bef15	0.011470576
26	0x3cc3d8af	0.023907034
27	0x3dcdcade	0.100484595
28	0xbb53e2a3	-0.003233113
29	0xbbdb716b	-0.00669687
30	0x3d3064ef	0.043065008
31	0xbc656835	-0.014001896
32	0xbced6c01	-0.028982164
33	0xbc9600c4	-0.018310912
34	0xbcb0e1c8	-0.021592036
35	0xbcdd3bbd	-0.027006024
36	0x3c773ac3	0.0150896935
37	0xbd570e8d	-0.05250411
38	0xbd84c296	-0.06482427
39	0xbc6c6fa8	-0.014430918
40	0x3d418eda	0.047255374
41	0xbbe7ccc7	-0.007073972
42	0xbdabc517	-0.08387201
43	0xbd1030a9	-0.035202656
44	0x3db5fa13	0.088855885
45	0xbd6ae09d	-0.057343114
46	0xbd874213	-0.066043995
47	0xbbf6cb5d	-0.007531567
48	0x3d1efdda	0.03881631
49	0xbccb566e	-0.024821486
50	0xbd0353bd	-0.03206228
51	0x3c9f6b0b	0.019460222
52	0x3ce90122	0.028442923
53	0xbd590d60	-0.05299127
54	0xbcb50db1	-0.022101255
55	0xbb3018fa	-0.0026870356
56	0x3cf4434f	0.029817251
57	0xbd1dd8e1	-0.03853691
58	0x3ce41b6b	0.027845105
59	0x3c9608da	0.018314768
60	0xbc071700	-0.00824523
61	0x3d0e864e	0.03479605
62	0x3b705423	0.0036671243
63	0xbcb5de82	-0.022200827
64	0x3d6f691e	0.058449857
65	0x3cd010b4	0.02539859
66	0xbd1e716d	-0.03868239
67	0x3aa446cd	0.0012533307
68	0x3d6fc259	0.058534954
69	0x3d694f65	0.056960482
70	0xbce8f85a	-0.028438736
71	0xbd1b8bea	-0.03797523
72	0xbd29a552	-0.041417427
73	0x3ddde1be	0.108340725
74	0x3c7f8764	0.0155962445
75	0xbc4089c5	-0.011751597
76	0xbb6c8c40	-0.0036094338
77	0x3c855603	0.016276365
78	0x3c2f1fde	0.01068875
79	0x3bd146be	0.006386607
80	0xbce0ec52	-0.027456436
81	0x3ccae0a3	0.024765318
82	0xbc6128bc	-0.013742622
83	0x3d1a6bcf	0.03770047
84	0xbde44726	-0.11146383
85	0x3cc3ec21	0.023916306
86	0x3d929522	0.07157351
87	0x3cbfb568	0.02340193
88	0xbd4c7272	-0.04991383
89	0x3e050196	0.12988886
90	0xbb83f795	-0.004027317
91	0xbd925b6b	-0.07146343
92	0x3d16f333	0.036853027
93	0x3d0acca1	0.033886556
94	0xba2ecf1b	-0.00066684344
95	0x3c8bc445	0.017061362
96	0x3c62f109	0.013851413
97	0xbc3aa3bd	-0.011391577
98	0x3c07488c	0.008257043
99	0x3d27b099	0.0409399
100	0xbcc7afcf	-0.024375824
101	0xbd7a8850	-0.061165154
102	0x3d8f7633	0.070049666
103	0x3d1e1dd7	0.038602676
104	0x3cf61a8b	0.030041954
105	0x3d78f23f	0.0607779
106	0x3c56c22c	0.013107818
107	0xbc246123	-0.010032925
108	0xbc5c801d	-0.013458279
109	0x3d4e96a5	0.050436635
110	0xbbbdc876	-0.005791719
111	0x3ca05708	0.01957275
112	0x3c929933	0.017895317
113	0x3ce10af7	0.027471049
114	0x3d6d9182	0.058000095
115	0xbc89c924	-0.016819544
116	0xbb192813	-0.0023369833
117	0xbc82415d	-0.015900308
118	0x3d4097ee	0.04701989
119	0x3d641dae	0.055692367
120	0x3c8cdcb4	0.017195083
121	0xbc1433a3	-0.009045514
122	0xbcb76bdd	-0.0223903
123	0xbd283617	-0.04106721
124	0xbd931dfb	-0.07183453
125	0x3cc10479	0.023561703
126	0x3da3b546	0.079935595
127	0x3b757c62	0.003745817
128	0xbc1c865d	-0.009553519
129	0xbd8be98d	-0.06831656
130	0xbd7c7b72	-0.061641164
131	0x3cf6b0a6	0.03011353
132	0x3d83e58d	0.06440268
133	0xbd6f06f7	-0.05835625
134	0xbc598038	-0.013275199
135	0x3ce55966	0.02799673
136	0xbd03ff8b	-0.032226127
137	0xbcc12ad8	-0.02358
138	0xbc320619	-0.010865712
139	0xbb1e2542	-0.0024131094
140	0xbc8c1c8b	-0.017103454
141	0x3d169b8a	0.036769427
142	0xbc6f2be0	-0.014597863
143	0x3bb2c103	0.0054551377
144	0xbb9724ab	-0.0046125255
145	0xbd3f0f89	-0.046645675
146	0xbd63f3cc	-0.055652425
147	0x3be25dbc	0.0069081467
148	0x3d84e6e0	0.064893484
149	0x3a529bdd	0.00080340897
150	0xbd813c25	-0.063103
151	0xbc983d7b	-0.018584004
152	0x3d8345eb	0.0640982
153	0x3d09cde2	0.03364361
154	0xbbab2769	-0.005223204
155	0x3dabc07f	0.08386325
156	0x3ca8b051	0.020591887
157	0x3ce00d07	0.027349962
158	0x3a18a63c	0.00058231107
159	0xbce78b79	-0.028264748
160	0x3c9d5f3e	0.019210454
161	0x3ca8c2a1	0.020600619
162	0x3d1bbf09	0.038023982
163	0x3d1553f7	0.03645703
164	0xbcd6721c	-0.026177458
165	0x3de19f42	0.11016704
166	0x3cd22a50	0.025654942
167	0xbc875848	-0.016521588
168	0xbdd900c8	-0.10595852
169	0x3cbbac92	0.022909436
170	0x3e047047	0.12933455
171	0x3d1134da	0.035450794
172	0x3cdbbf8e	0.026824739
173	0x3ca55997	0.020184321
174	0xbc8b13cc	-0.016977213
175	0x3c996d04	0.01872874
176	0xbd89215e	-0.066958174
177	0xbbbd820d	-0.0057833255
178	0x3d2019fd	0.039087284
179	0x3d8b9f6b	0.06817516
180	0x3cd2c6d9	0.025729584
181	0xbcc62d89	-0.024191635
182	0xbd177c8b	-0.036984008
183	0x3d0247db	0.031806808
184	0xbbde20a6	-0.0067787943
185	0xbd92a35c	-0.071600646
186	0x3d82f5a8	0.063945115
187	0xbc2ada3e	-0.01042801
188	0x3c43bf8a	0.011947522
189	0xbc5b79f5	-0.013395776
190	0x3ceb06e4	0.02868981
191	0x3d95fe4f	0.07323896
192	0xbd791a8f	-0.060816344
193	0x3c62e601	0.0138487825
194	0x3c9a1069	0.018806653
195	0xbd28922c	-0.041155025
196	0xbd0ee932	-0.03489036
197	0xbd010dfc	-0.031507477
198	0x3d205cd7	0.03915104
199	0x3c93d1c7	0.018044366
200	0xbd907b3f	-0.07054757
201	0x3b01ad33	0.0019787073
202	0xbcdb3a57	-0.026761217
203	0x3d9b3a5f	0.07579493
204	0xbb03a5d2	-0.002008785
205	0xba5390b0	-0.00080705713
206	0x3cbfdb39	0.023419963
207	0xbd0778d0	-0.0330742
208	0xbcbc783d	-0.023006553
209	0xbd06fd37	-0.03295633
210	0x3c03f695	0.008054395
211	0xbc688571	-0.014191971
212	0x3defd619	0.11710758
213	0x3e05736a	0.13032308
214	0xbd4e29b6	-0.050332747
215	0xbca4ca65	-0.02011604
216	0xbd577078	-0.052597493
217	0xbce4de2a	-0.027937967
218	0x3c11df7b	0.00890338
219	0x3d807530	0.06272352
220	0xbb5e1910	-0.003388945
221	0xbd3c39ea	-0.04595367
222	0xbbd6bcda	-0.0065532746
223	0x3d2f84a5	0.04285111
224	0x3d3c631c	0.045992956
225	0xbd8011ae	-0.06253372
226	0xbc33307a	-0.010936851
227	0x3d31bce1	0.04339302
228	0x3d2411fe	0.04005622
229	0xbd5e987d	-0.054344643
230	0xbcb8e520	-0.022570193
231	0x3d00266d	0.031286646
232	0x3d5e09c9	0.05420855
233	0xbca3647a	-0.019945372
234	0xbd3d7bb4	-0.04626055
235	0x3cf36b3f	0.029714225
236	0x3d66b06a	0.056320585
237	0x3d003dde	0.031309
238	0xbd275078	-0.040848225
239	0x3ca1fdbb	0.019774308
240	0x3c283905	0.010267501
241	0xbd3b884b	-0.045784276
242	0xbc5ac3f9	-0.013352388
243	0x3ce11f38	0.027480707
244	0xbbf651ca	-0.0075170742
245	0xbda8ebb2	-0.0824808
246	0x3cb94bcd	0.022619152
247	0x3c8d4561	0.017244997
248	0x3d75abbe	0.05997824
249	0xbcabb506	-0.020960342
250	0xbd756ed5	-0.05992015
251	0x3ca4a310	0.020097286
252	0x3c5d6822	0.013513597
253	0xbd013627	-0.031545784
254	0x3ccc1285	0.024911175
255	0xbcbbc285	-0.022919903

encoder.3.bias f4 [40]
0	0x3bf2c4c8	0.007408712
1	0x3da0aa5a	0.07844992
2	0x3d08da9a	0.0334116
3	0xbc54af67	-0.012981272
4	0x3dc68f76	0.09695332
5	0x3c9bd003	0.019020086
6	0x3e31c04e	0.17358515
7	0xbb41e24d	-0.0029584349
8	0xbb848389	-0.0040440005
9	0x3b284ec5	0.0025681716
10	0x3d3004f3	0.04297347
11	0x3d697057	0.0569919
12	0x3c33f5b3	0.010983872
13	0x3cd7f714	0.026362933
14	0x3d3a90eb	0.04554836
15	0x3d2c3d22	0.04205049
16	0xbc4b601a	-0.012413049
17	0xbc557ca1	-0.013030202
18	0xbb5ca7c7	-0.003366934
19	0xbc91b806	-0.017787945
20	0x3a3c144b	0.0007174655
21	0x3bedf574	0.0072619263
22	0x3e0cdce6	0.13756141
23	0x3c2c9d78	0.01053559
24	0xbcf5e19f	-0.030014811
25	0x3cca0cca	0.024664301
26	0x3c43ecad	0.011958283
27	0x3c8b10fa	0.016975868
28	0x3dafa742	0.08576824
29	0x3cb6c049	0.022308486
30	0xba6d5751	-0.00090538437
31	0xbc2bc657	-0.0104843
32	0xbd4446e1	-0.047919158
33	0xbc900168	-0.017578796
34	0xbcb5a6da	-0.022174288
35	0xbd1fe042	-0.03903223
36	0xbcf7df99	-0.030257987
37	0xbd47d2e6	-0.048785113
38	0x3ca5f297	0.020257277
39	0xbba6b52d	-0.005087516

encoder.4.block.1.weight f4 [40, 40, 3, 3]
0	0x3d15a073	0.03652997
1	0xbca10f26	-0.019660544
2	0x3d924fbf	0.071441166
3	0xbd7b83fe	-0.061405174
4	0xbdb27dc1	-0.08715392
5	0xbd5527ef	-0.052040037
6	0xbbf1513c	-0.00736442
7	0xbc97e9cb	-0.018544098
8	0x3d3c0ee0	0.045912623
9	0xbd0a31b8	-0.03373882
10	0x3d9ff387	0.07810121
11	0x3e022ac7	0.12711631
12	0x3c904afb	0.017613878
13	0xbe08b17f	-0.1334896
14	0xbdb329ef	-0.087482326
15	0xbcb0ac31	-0.021566482
16	0x3d9854a2	0.074380174
17	0xbc4eadc8	-0.012614675
18	0x3d2188f5	0.039437253
19	0xbcb5efe6	-0.022209119
20	0x3da7cf61	0.08193851
21	0x3d2991e5	0.0413989
22	0xbc889cc5	-0.016676316
23	0x3daac7fb	0.083389245
24	0x3db19674	0.08671275
25	0x3c2c973c	0.010534104
26	0x3c5ff138	0.013668351
27	0xbdff5dea	-0.124690846
28	0x3dc696b7	0.09696715
29	0xbd24385b	-0.040092807
30	0xbc2ceead	-0.010554952
31	0xbcf3b6be	-0.029750224
32	0xbd2e0168	-0.04248181
33	0x3d27fd4f	0.04101306
34	0xbe6e1747	-0.23251067
35	0xbd227dea	-0.039670862
36	0xbd86a3ca	-0.06574209
37	0xbcabf9cb	-0.020993134
38	0x3cf59942	0.029980306
39	0x3df498d4	0.11943212
40	0x3e3802f7	0.17969881
41	0xbd70d19b	-0.058793645
42	0x3cfe38cc	0.031032942
43	0xbc6df23e	-0.014523087
44	0xbcbd6edb	-0.02312415
45	0x3c9b0938	0.018925294
46	0xbd1845dc	-0.037175998
47	0x3d7a109d	0.061051
48	0x3d87f4eb	0.06638511
49	0x3d00c646	0.03143909
50	0xbaf2b719	-0.0018517702
51	0x3d926308	0.07147795
52	0x3ca4d1e0	0.020119607
53	0x3bd0a178	0.006366905
54	0xbcf64d0a	-0.030066032
55	0x3d546867	0.05185738
56	0x3c4a6ec1	0.012355507
57	0x3d300b00	0.04297924
58	0x3dd08875	0.10182277
59	0xbbf7b01f	-0.007558837
60	0xbd0f9917	-0.035058107
61	0x3cdc8478	0.026918635
62	0x3c6618ef	0.014044031
63	0xbd81ff03	-0.06347468
64	0xbcc69cee	-0.024244752
65	0x3d88c099	0.0667736
66	0xbd3b2b5a	-0.04569564
67	0x3db91e02	0.09038927
68	0xbcd01cbc	-0.025404327
69	0xbb7591ac	-0.003747086
70	0xbb7ca312	-0.0038549346
71	0xbccd06f2	-0.025027726
72	0xbd251b05	-0.04030897
73	0xbd0f48f5	-0.034981687
74	0xbd0826f3	-0.03324027
75	0x3d30323d	0.04301666
76	0x3dc5f596	0.096659824
77	0xbcae728b	-0.021294853
78	0xbce5478c	-0.027988218
79	0xbda6e3ce	-0.08148919
80	0xbd036a5a	-0.032083847
81	0xbd3741bc	-0.044740424
82	0x3db85b50	0.090017915
83	0x3d5da08e	0.054108195
84	0xbcfb3d9e	-0.03066903
85	0x3d9eb500	0.07749367
86	0x3d6d377a	0.057914235
87	0xbb9ad7bc	-0.0047254246
88	0x3e2afe48	0.16698563
89	0x3ce221f9	0.02760409
90	0x3d137a01	0.036005024
91	0xbd1a8da0	-0.03773272
92	0xbcb279ab	-0.021786531
93	0xbd341639	-0.043966506
94	0xbd868de1	-0.0657003
95	0xbd1c862c	-0.038213894
96	0xbd1607a2	-0.036628373
97	0xbd970f90	-0.07376015
98	0xbd850519	-0.06495113
99	0xbce5a04d	-0.028030539
100	0x3d96cecb	0.073636614
101	0xbdac545c	-0.08414528
102	0x3c3074a0	0.010769993
103	0x3d10f6d0	0.03539163
104	0x3d7877f3	0.060661267
105	0xbca5f53b	-0.020258537
106	0xbac103cb	-0.0014725862
107	0xbcd40564	-0.025881477
108	0xbc057ccf	-0.0081474325
109	0x3dad8dab	0.08474287
110	0xbd384c9d	-0.04499494
111	0xbd865fb1	-0.065612204
112	0x3db212ac	0.08694968
113	0x3b931a8a	0.0044892477
114	0xbda5f03a	-0.0810246
115	0xbd4d1e87	-0.05007794
116	0xbd758897	-0.059944715
117	0x3d1207a0	0.035651803
118	0xbd7885df	-0.060674544
119	0x3c0bc6b4	0.008531261
120	0xbd9e504a	-0.07730158
121	0xbe15aa06	-0.1461564
122	0x3e1201f0	0.14258552
123	0xbc8057c8	-0.015666857
124	0xbb4cf5c4	-0.0031274417
125	0xbb2e8dca	-0.0026634806
126	0xbd9e8f20	-0.07742143
127	0x3d71cf86	0.0590358
128	0x3b44b7fa	0.0030016885
129	0x3e4bed0b	0.19914643
130	0xbe4b7e76	-0.1987246
131	0xbce8f908	-0.02843906
132	0x3d413e91	0.04717881
133	0x3d365d75	0.04452272
134	0x3c3883cc	0.011261892
135	0xbd6a8673	-0.057257127
136	0x3d0cf835	0.034416396
137	0x3b21bacf	0.0024677997
138	0x3d89f83b	0.06736799
139	0xbc9f6050	-0.019455105
140	0x3d02ab0b	0.0319014
141	0xbb79ed78	-0.0038135927
142	0xbcc23d92	-0.023711
143	0xbc3ff58f	-0.011716261
144	0xbcdea521	-0.027178349
145	0xbd643005	-0.055709857
146	0xbdb145d0	-0.08655894
147	0x3da35f92	0.07977213
148	0xbd4e7409	-0.05040363
149	0x3d03afa1	0.032149915
150	0xbd8b83aa	-0.06812222
151	0xbd205f85	-0.039153595
152	0x3c84891f	0.016178666
153	0x3d9afbf7	0.0756759
154	0x3d3e7a01	0.04650307
155	0xbda5a685	-0.08088402
156	0xbd506593	-0.05087812
157	0x3e035e6b	0.12828986
158	0x3ded2f23	0.11581256
159	0xbdce20b2	-0.1006483
160	0xbe124e01	-0.14287569
161	0x3d0a56c6	0.03377416
162	0x3d4d3fee	0.050109796
163	0xbd7bbd93	-0.06146009
164	0xbd8d06df	-0.06886076
165	0xbb247524	-0.0025094235
166	0x3cd33232	0.02578077
167	0xbd356e50	-0.044294655
168	0xbc7e03ab	-0.015503804
169	0xbbf92e2f	-0.0076043825
170	0x3c54345c	0.012951937
171	0x3b83a686	0.004017654
172	0x3ca72d10	0.02040723
173	0xbd6f9786	-0.058494113
174	0x3bae5855	0.0053205886
175	0xbdea2af8	-0.11433977
176	0xbdac6528	-0.084177315
177	0xbe51d308	-0.20490658
178	0x3c088811	0.008333222
179	0xbd79527b	-0.060869675
180	0xbd52ab0f	-0.051432665
181	0x3dd5218c	0.10406789
182	0xbda5be74	-0.08092967
183	0x3af0bb3d	0.0018366348
184	0xbd3165fd	-0.043310154
185	0xbc467c70	-0.012114629
186	0xbea2d290	-0.3180127
187	0xbd8f943e	-0.07010697
188	0x3cd462a7	0.025925947
189	0xbd8ae5f1	-0.06782139
190	0xbe044d64	-0.12920147
191	0xbb89c16c	-0.004203966
192	0xbe3bf543	-0.18355279
193	0xbdc873d8	-0.097877204
194	0x3e04001e	0.1289067
195	0xbe27aae6	-0.16373786
196	0x3db80982	0.089861885
197	0xbcb8aad6	-0.022542398
198	0xbc577c84	-0.013152245
199	0x3c6b3a4d	0.014357162
200	0x3ca539b9	0.020169126
201	0xbd8aabee	-0.06771074
202	0x3e0d3b61	0.13792183
203	0xbc4dd486	-0.012562877
204	0xbd11b1c9	-0.03556994
205	0xbdb781bf	-0.08960294
206	0xbd066e9a	-0.03282032
207	0xbb7d042c	-0.0038607223
208	0xbd21e4eb	-0.039524954
209	0x3c695fa6	0.014243996
210	0xbdd1f7d2	-0.10252346
211	0xbe2fbf37	-0.17162786
212	0xbc27e796	-0.0102480855
213	0x3d705c19	0.05868158
214	0x3d77e534	0.06052132
215	0x3d78c8a4	0.06073822
216	0xbc8656c7	-0.0163988
217	0xbd03c483	-0.03216983
218	0xbcf170a5	-0.029472658
219	0xbd8537a2	-0.06504752
220	0x3e4465b6	0.19179425
221	0x3de4f5dc	0.111797065
222	0x3dbaa2c8	0.09113079
223	0xbc94e559	-0.018175768
224	0x3c8d4c2e	0.01724824
225	0x3cd93b78	0.026517615
226	0x3bbb974c	0.005724823
227	0xbca9da79	-0.020734059
228	0xbe0a38a4	-0.13498169
229	0x3e35701e	0.1771855
230	0xbceb5fd8	-0.028732225
231	0x3d0372e7	0.032092
232	0x3cf60d37	0.030035598
233	0xb8174b1f	-3.6071167e-05
234	0x3d81126f	0.06302344
235	0x3cd2a4c9	0.025713341
236	0x3d05578d	0.032554198
237	0xbbf6aef0	-0.0075281784
238	0xbd5b9443	-0.05360819
239	0xbcc2586e	-0.023723807
240	0x3b90f4c9	0.004423712
241	0xbd2ea611	-0.042638842
242	0xbcd21f8d	-0.02564981
243	0xba391a54	-0.0007061113
244	0xba78d377	-0.000949196
245	0x3cd7973b	0.02631723
246	0x3e0e7663	0.13912348
247	0xbdc16cfe	-0.09444617
248	0xbd0e5571	-0.034749452
249	0x3d01ad50	0.031659424
250	0xbd0258c1	-0.031822924
251	0xbd6bd7ba	-0.05757878
252	0xbcfc37a3	-0.030788248
253	0x3d157402	0.036487587
254	0x3cd63a00	0.026150703
255	0x3c756300	0.014977217

encoder.4.block.1.bias f4 [40]
0	0x3b4ae35a	0.0030958266
1	0xbba873d4	-0.005140761
2	0xb9c68d41	-0.00037870745
3	0x3a426cb3	0.000741671
4	0xb9c907f4	-0.00038343633
5	0x3b3b4192	0.0028573018
6	0x3abe31f9	0.0014510743
7	0x39382ea3	0.00017564981
8	0x3a2e0212	0.0006637882
9	0xba6c89ee	-0.00090232387
10	0x3b981789	0.0046414775
11	0x3c0e7a1f	0.008696108
12	0xb9547b43	-0.00020263814
13	0x3b05f572	0.0020440486
14	0xb9ce31c5	-0.00039328463
15	0x3a98ffbc	0.0011672894
16	0xbb1233e0	-0.0022308752
17	0xbabf097e	-0.0014574972
18	0x3a12acb2	0.00055951916
19	0x3a9a6f30	0.0011782404
20	0xb89e0358	-7.53465e-05
21	0xb79b59ac	-1.8519197e-05
22	0xba737c0e	-0.00092882
23	0xbb123cd2	-0.0022314084
24	0x3b75c4d3	0.003750135
25	0xba1ea009	-0.0006051069
26	0x3a9e895e	0.0012095382
27	0x3ba8df76	0.0051535917
28	0xb9f46bcf	-0.0004661963
29	0x3a42fcda	0.00074381905
30	0x3ae3227e	0.0017329005
31	0x3ac9e71b	0.0015403958
32	0x3ac05932	0.001467502
33	0x3b118768	0.0022205953
34	0xb9f0ae4b	-0.00045906226
35	0x3b9bb3f8	0.0047516786
36	0xbb517045	-0.0031957787
37	0x39b94b90	0.00035342248
38	0xba086b4c	-0.0005203977
39	0x3b3041a0	0.0026894584

encoder.4.block.2.weight f4 [40]
0	0x3f8d5108	1.1040354
1	0x3f85499f	1.0413092
2	0x3f7c24de	0.98493755
3	0x3f6e97e4	0.93200517
4	0x3f71f2e6	0.9451126
5	0x3f6fc3a7	0.93657917
6	0x3f71584a	0.94275343
7	0x3f6e3500	0.9304962
8	0x3f58f60a	0.84750426
9	0x3f5ac19c	0.85451674
10	0x3f7cb35c	0.9871118
11	0x3f8830a8	1.0639849
12	0x3f738d96	0.9513792
13	0x3f951e50	1.1649876
14	0x3f925416	1.1431911
15	0x3f86e843	1.0539631
16	0x3f89b202	1.0757449
17	0x3f2edab0	0.6830244
18	0x3f6bf457	0.9216971
19	0x3f6f291e	0.93422115
20	0x3f847ddc	1.0350909
21	0x3f897842	1.0739825
22	0x3f38e5ce	0.72225654
23	0x3f84aca3	1.0365185
24	0x3f5a0690	0.85166264
25	0x3f675a02	0.90371716
26	0x3f8dcc3c	1.1077952
27	0x3f88d6bc	1.0690532
28	0x3f812bac	1.0091453
29	0x3f8f1359	1.117778
30	0x3f8db070	1.106947
31	0x3f8e16aa	1.1100667
32	0x3f811f45	1.0087668
33	0x3f94d461	1.1627313
34	0x3f717d1e	0.9433154
35	0x3f882cc0	1.0638657
36	0x3f74aead	0.95579034
37	0x3f437fac	0.76366687
38	0x3f9c6ed3	1.2221321
39	0x3f5c21a8	0.85988855

encoder.4.block.2.bias f4 [40]
0	0x3e93eb59	0.28890494
1	0x3d2269e9	0.039651785
2	0xbd9d7141	-0.07687617
3	0x3ea90f77	0.3301961
4	0x3e944e1d	0.28965846
5	0x3eca903c	0.39563167
6	0x3e13c0c7	0.14429007
7	0x3da34e14	0.079738766
8	0x3e00f554	0.12593585
9	0xbdbfb618	-0.093609035
10	0x3ddb4f97	0.1070854
11	0x3eb0da74	0.34541667
12	0x3ec200e5	0.37891307
13	0x3ee29f0d	0.4426197
14	0x3ed75963	0.42060384
15	0xbdaa823e	-0.08325623
16	0x3c926150	0.017868668
17	0x3dabe1a8	0.0839265
18	0x3e504dd4	0.20342189
19	0x3e8ba84e	0.27276844
20	0xbe450d32	-0.19243315
21	0xbda11358	-0.07865018
22	0xbe187a11	-0.14890315
23	0xbe0ffff9	-0.1406249
24	0x3df4e730	0.11958158
25	0xbdb298c8	-0.08720547
26	0x3e781d4f	0.2422993
27	0x3cfb1679	0.030650364
28	0xbe0dd889	-0.13852133
29	0x3c9591e5	0.018258044
30	0x3e8b5458	0.27212787
31	0x3e8201d2	0.25392014
32	0x3d0ce193	0.03439481
33	0x3ea2b16e	0.31775993
34	0x3e683706	0.2267724
35	0xbca3e942	-0.020008687
36	0x3cc39a96	0.023877423
37	0xbdc384ea	-0.09546836
38	0xbe5de0d6	-0.216678
39	0x3dfe55ad	0.12418685

encoder.4.block.2.running_mean f4 [40]
0	0x3ea84ce8	0.32871175
1	0xbf47a485	-0.7798541
2	0xbf360450	-0.7110033
3	0xbf1b2160	-0.605978
4	0x3e2e3772	0.17013338
5	0x3f3a31b1	0.72732073
6	0x3e947952	0.2899881
7	0xbe8acac5	-0.27107826
8	0x3e432b03	0.19059376
9	0xbea388f1	-0.31940416
10	0x3ee2e995	0.44318834
11	0x3e13ae51	0.14421965
12	0x3d86d8bf	0.0658431
13	0x3ec99e6d	0.39378682
14	0x3ea9620d	0.3308262
15	0xbf4d92ec	-0.8030231
16	0xbf25e789	-0.6480642
17	0xbd9a3e54	-0.075314194
18	0x3f10d2c1	0.56571585
19	0x3cb9aede	0.022666391
20	0xbcaeff45	-0.021361956
21	0xbf450d03	-0.7697298
22	0xbe828cb8	-0.25497985
23	0xbeae20c8	-0.34009385
24	0x3e8a5677	0.27019092
25	0xbf25f699	-0.64829403
26	0x3f3a25c5	0.7271388
27	0x3f040875	0.51575404
28	0x3d7c4c82	0.0615964
29	0xbf76430f	-0.96196073
30	0x3f5c6351	0.86089045
31	0x3f242b08	0.6412816
32	0xbf1f3c90	-0.62201786
33	0xbd8b654e	-0.06806432
34	0x3eabf426	0.33584708
35	0xbf056471	-0.52106386
36	0xbe0be6e7	-0.13662301
37	0xbf11ef32	-0.5700561
38	0xbeb548a6	-0.3540699
39	0x3ccabee2	0.024749223

encoder.4.block.2.running_var f4 [40]
0	0x3f0328e1	0.5123425
1	0x3f69436f	0.9111852
2	0x3f3270ca	0.6970335
3	0x3f13dbf8	0.5775752
4	0x3eb6252a	0.3557523
5	0x3f42ebcb	0.7614104
6	0x3eef813f	0.46778294
7	0x3e148b72	0.14506319
8	0x3ed22f1a	0.4105156
9	0x3f074dbc	0.5285299
10	0x3f0a0531	0.5391417
11	0x3ecb7f7e	0.39745706
12	0x3ead50d2	0.33850724
13	0x3ea936d9	0.33049658
14	0x3f209df8	0.6274104
15	0x3f341b32	0.70353997
16	0x3ec78428	0.38968015
17	0x3e58012f	0.21094202
18	0x3f152f0e	0.58274925
19	0x3e6308af	0.22171281
20	0x3e033936	0.12814793
21	0x3f559047	0.83423275
22	0x3db9ae4b	0.09066447
23	0x3f22aac7	0.63541836
24	0x3ee965ae	0.45585388
25	0x3f105289	0.5637594
26	0x3f1fae57	0.62375396
27	0x3ed6d31a	0.41957933
28	0x3dbf0b61	0.09328342
29	0x3f9257aa	1.1433003
30	0x3f313409	0.69220024
31	0x3f81f0af	1.0151576
32	0x3f48979a	0.78356326
33	0x3e953288	0.29140115
34	0x3edb7d95	0.4286925
35	0x3eddd40a	0.43325835
36	0x3e8d85c9	0.27641132
37	0x3ed06426	0.40701407
38	0x3df4638c	0.119330496
39	0x3e9799e1	0.29609588

encoder.4.block.4.weight f4 [40, 40, 1, 1]
0	0x3e1a4461	0.15065147
1	0x3dcc8bfc	0.099876374
2	0x3e8c29fc	0.27375782
3	0x3e1a434e	0.15064737
4	0x3e25db4b	0.16196935
5	0xbe71d5a2	-0.2361665
6	0x3dbb7cbd	0.09154651
7	0x3d29e2ad	0.04147594
8	0x3da15d8f	0.07879173
9	0x3cd322ec	0.025773488
10	0xbe34e6ed	-0.17666216
11	0xbdd9b307	-0.1062985
12	0xbdc2d9e5	-0.09514216
13	0xbe5d8f1f	-0.21636628
14	0xbe1a8983	-0.15091519
15	0x3c3da219	0.011574292
16	0x3e70898e	0.23489973
17	0x3d651bbb	0.05593465
18	0xbd649cd1	-0.055813614
19	0xbdfd1cd1	-0.12359012
20	0x3dd56ffc	0.1042175
21	0x3df44866	0.119278714
22	0xbc81bffd	-0.015838617
23	0x3e3aed19	0.18254508
24	0x3e8c31e8	0.27381825
25	0x3d7a9571	0.061177675
26	0xbec1327c	-0.3773383
27	0xbe5f8e30	-0.21831584
28	0xbe754555	-0.2395223
29	0x3c46a144	0.01212341
30	0xbebe8375	-0.3720967
31	0x3db4c1d4	0.08826032
32	0x3dbae540	0.09125757
33	0xbe843f66	-0.2582962
34	0x3d9e91f6	0.077426836
35	0x3ccc365d	0.024928266
36	0xbd387b4f	-0.04503947
37	0x3cb84919	0.022495793
38	0x3ec396c3	0.3820096
39	0x3d669071	0.056290094
40	0x3e273a63	0.16330867
41	0x3be9e17e	0.0071374765
42	0x3ea5d044	0.32385457
43	0xbe100dcd	-0.14067765
44	0x3d19b38f	0.037524756
45	0xbe09b29c	-0.1344704
46	0x3c06d10f	0.008228554
47	0x3b81815e	0.0039521893
48	0x3e0f5521	0.13997318
49	0xbce2de7f	-0.027693985
50	0x3ce8f68a	0.028437871
51	0x3e326977	0.17423044
52	0x3e46597b	0.19370072
53	0x3e2edeec	0.17077225
54	0x3ea204d4	0.3164431
55	0xbe885ac2	-0.26631743
56	0xbdbb31be	-0.09140347
57	0x3e19e812	0.15029934
58	0xbd0063f1	-0.03134531
59	0x3d8761b1	0.0661043
60	0xbcc3ba53	-0.023892557
61	0xbe4000e5	-0.18750341
62	0xbcd3ef06	-0.025870811
63	0xbd993b42	-0.07482006
64	0xbcc0b4b7	-0.023523672
65	0x3c7588aa	0.0149861965
66	0x3d8b3854	0.06797853
67	0x3e19aea0	0.1500802
68	0xbc84f7f2	-0.01623151
69	0xbd49b270	-0.049242437
70	0x3e29cedd	0.16582818
71	0x3e118543	0.14210992
72	0x3d85b2fe	0.06528281
73	0x3ebaced9	0.36485937
74	0x3e597606	0.21236429
75	0xbe2c1bc5	-0.16807468
76	0xbe24e94d	-0.16104622
77	0xbda0bad0	-0.07848132
78	0xbe5556f2	-0.20833948
79	0xbce2397d	-0.027615303
80	0xbe08d494	-0.13362342
81	0x3e95555b	0.29166684
82	0xbd6ad8e3	-0.057335746
83	0xbe016a56	-0.1263822
84	0xbdb7b196	-0.08969419
85	0xbe09e8ce	-0.13467714
86	0xbdd9a1f7	-0.106265955
87	0xbdec10e6	-0.115266606
88	0x3bb57c1b	0.005538476
89	0x3b3e982d	0.0029082403
90	0x3d78ea92	0.06077058
91	0xbe678db7	-0.22612654
92	0x3d93b58e	0.07212363
93	0xbe15aaa3	-0.14615874
94	0xbe2db8a1	-0.16964962
95	0x3e33c4b7	0.1755551
96	0x3d9af5c8	0.0756641
97	0xbcc25bfa	-0.023725498
98	0xbe404c18	-0.18779027
99	0xbd3ceaab	-0.046122234
100	0x3c88cae4	0.016698308
101	0x3e485647	0.19564162
102	0x3c81df7d	0.015853638
103	0x3d1122ef	0.035433706
104	0xbe5c253f	-0.21498583
105	0x3e16eb58	0.14738214
106	0xbe11c2d3	-0.14234476
107	0x3d59b5e4	0.05315198
108	0xbe411f58	-0.18859613
109	0x3e066e00	0.13127899
110	0xbe06135a	-0.1309332
111	0xbe979daf	-0.2961249
112	0xbdae44d7	-0.08509224
113	0xbe88ca09	-0.2671664
114	0x3ae9a3ab	0.0017825266
115	0x3e01b467	0.12666474
116	0x398a8d67	0.00026426764
117	0x3e16f407	0.14741527
118	0x3f01e45e	0.50739086
119	0xbe4a3ec3	-0.19750504
120	0xbd28465f	-0.041082736
121	0x3e92bad0	0.28658152
122	0x3e0cce60	0.13750601
123	0x3de4d314	0.111730725
124	0xbdadc639	-0.084850736
125	0x3d8f9bf0	0.070121646
126	0xbdc8fbb3	-0.09813633
127	0xbeb5ba22	-0.3549357
128	0xbe4e5d05	-0.20152672
129	0xbc8c2345	-0.017106662
130	0x3d46300d	0.04838567
131	0xbe60a71d	-0.21938749
132	0xbc259bb3	-0.010107922
133	0xbca64bce	-0.020299818
134	0xbdf4983e	-0.119431004
135	0xbe605e5c	-0.21910995
136	0xbd395f16	-0.045256697
137	0x3d82d216	0.06387727
138	0xbda5c672	-0.08094491
139	0x3df5321d	0.11972449
140	0x3e6b5596	0.22981867
141	0x3e00a40c	0.12562579
142	0xbc10260f	-0.008798136
143	0x3e3aee83	0.18255048
144	0xbe190a7a	-0.14945403
145	0xbdab4bac	-0.08364043
146	0xbda76830	-0.08174169
147	0xbd8126d2	-0.063062325
148	0x3e237e66	0.15966186
149	0xbd69415c	-0.056947097
150	0xbdf78f03	-0.12087824
151	0x3cb06199	0.021530913
152	0x3e0d9bca	0.1382896
153	0xbe17cf46	-0.14825162
154	0xbbd32371	-0.006443434
155	0x3e4cbe7d	0.1999454
156	0x3e26fe43	0.1630793
157	0xbcfcd8e1	-0.030865135
158	0x3ed7deb0	0.42162085
159	0xbd38b462	-0.0450939
160	0xbe0d0f89	-0.13775457
161	0xbe538ba2	-0.20658734
162	0xbcc2ef00	-0.023795605
163	0xbd1d6e6f	-0.038435396
164	0x3d0163e9	0.031589422
165	0xbe4277d9	-0.18991031
166	0x3e954cd3	0.29160175
167	0xbe25fbd9	-0.16209354
168	0xbd656cb6	-0.056011878
169	0x3e50c1e8	0.2038647
170	0xbd2d4878	-0.04230544
171	0x3d5d51b7	0.054033007
172	0x3e6b831a	0.2299923
173	0x3ea576d3	0.32317218
174	0x3e232bd9	0.15934695
175	0x3d59b618	0.053152174
176	0xbe0e8a70	-0.13919997
177	0x3dd378fe	0.10325812
178	0x3dd984f7	0.10621064
179	0x3e5eb364	0.2174812
180	0x3e5aa193	0.21350698
181	0x3cb2fed1	0.021850022
182	0xbe6c5f33	-0.2308319
183	0x3dc9422b	0.09827074
184	0xbd099a26	-0.033594273
185	0xbe0bbf6b	-0.13647239
186	0xbcf4de37	-0.029891117
187	0x3e39ee6f	0.18157361
188	0x3dda958c	0.10673055
189	0xbe33ca0f	-0.17557548
190	0x3e61473a	0.21999827
191	0xbe1339f9	-0.14377584
192	0xbdc115e0	-0.094280005
193	0x3d928667	0.071545415
194	0x3e6c8b59	0.23100032
195	0xbdf80559	-0.12110395
196	0xbc9fa719	-0.019488858
197	0xbdea81ea	-0.114505604
198	0xbe563f63	-0.20922618
199	0x3e18f2e1	0.14936401
200	0xbd0bfea6	-0.0341784
201	0xbc426310	-0.011864439
202	0x3e579e6b	0.21056525
203	0xbc0c715c	-0.008571949
204	0xbdff1736	-0.12455599
205	0xbe8e40a6	-0.27783698
206	0xbe37a7c5	-0.17935093
207	0x3dc4afc6	0.096038386
208	0xbd3a550b	-0.04549126
209	0xbcef3ca7	-0.029203726
210	0xbda78904	-0.081804305
211	0xbe8968dc	-0.26837814
212	0xbea4284b	-0.3206199
213	0xbce7ef96	-0.028312486
214	0x3d4147b4	0.047187522
215	0x3e4b0ec5	0.19829853
216	0x3d2326cf	0.039831933
217	0x3c69e93c	0.014276799
218	0xbc7bc38c	-0.015366446
219	0xbecc097a	-0.3985098
220	0x3d25593f	0.040368315
221	0x3d547889	0.051872764
222	0xbca4fac7	-0.020139111
223	0x3d851cec	0.06499657
224	0xbc98b4dc	-0.018640928
225	0x3d8a3d47	0.06749969
226	0x3db90952	0.09034981
227	0x3e453950	0.19260144
228	0xbed25dd5	-0.41087213
229	0x3e3189ad	0.17337675
230	0xbe42acfb	-0.190113
231	0x3e48cbbf	0.19608973
232	0x3dc25735	0.0948929
233	0x3e085678	0.13314235
234	0xbeaca1a5	-0.33717075
235	0x3dfbc5c7	0.122935824
236	0x3cbbbde6	0.0229177
237	0x3d1948c5	0.037422914
238	0x3edef7bf	0.4354839
239	0xbd34b4f3	-0.04411788
240	0xbe37977a	-0.17928877
241	0xbe10c0d6	-0.14136061
242	0xbe97b85f	-0.2963285
243	0xbca9dccb	-0.020735165
244	0x3c931cb4	0.017958023
245	0xbe272977	-0.16324411
246	0x3e37ff68	0.17968524
247	0x3dba14c9	0.09085996
248	0x3e8acd2a	0.27109653
249	0x3d10487c	0.035225376
250	0xbf06375f	-0.5242824
251	0xbe5f2350	-0.21790814
252	0xbdc1c541	-0.09461451
253	0xbd6bdff1	-0.057586614
254	0xbdb5abf6	-0.088706896
255	0xbd4e4d0b	-0.050366443

encoder.4.block.4.bias f4 [40]
0	0xbc067fe5	-0.008209203
1	0x3b0593d6	0.0020382307
2	0xbba9d4f9	-0.005182859
3	0xbadf01c3	-0.0017014075
4	0xba24be92	-0.00062845007
5	0x3954e776	0.00020304121
6	0xbc3a83bf	-0.01138395
7	0xbc1834a0	-0.0092898905
8	0x39c8acc9	0.00038275708
9	0xb8d61682	-0.000102085076
10	0xbb0d9c59	-0.0021608083
11	0xbb814d6b	-0.0039459965
12	0xbb93673b	-0.00449839
13	0x3ab10c73	0.0013507738
14	0xbbd850b4	-0.0066014174
15	0x3929d323	0.0001619575
16	0xbbc8e4c7	-0.006130788
17	0x3a28b2cc	0.0006435334
18	0x3b349b09	0.0027558228
19	0x3c2287a7	0.009920037
20	0x3beec8ba	0.007287112
21	0xbba1d391	-0.0049385508
22	0x3b94f436	0.004545714
23	0xba888a19	-0.0010417133
24	0xbbba6c9d	-0.0056892172
25	0xbb88e63c	-0.0041778367
26	0xbb6c087b	-0.0036015797
27	0x38c93b62	9.595488e-05
28	0xbbabc343	-0.005241783
29	0xbc017d6f	-0.007903441
30	0x3adf3d7a	0.0017031871
31	0x3bb531e0	0.005529627
32	0xbb1b95c9	-0.0023740402
33	0xbb502d0a	-0.0031765127
34	0xbc0433da	-0.008069003
35	0xbb8a6fd2	-0.004224756
36	0xbbc439ad	-0.005988321
37	0xbbd275fd	-0.0064227567
38	0x3af8e1a4	0.0018988145
39	0xbaf864f8	-0.001895099

encoder.4.block.5.weight f4 [40]
0	0x3f4efbdf	0.80853075
1	0x3f288dce	0.65841377
2	0x3f3c94a1	0.7366429
3	0x3f25bb89	0.6473928
4	0x3f4f0d72	0.8087989
5	0x3f2a466d	0.6651371
6	0x3f80a022	1.0048869
7	0x3f0df00a	0.55444396
8	0x3f479f19	0.7797714
9	0x3f31750d	0.6931923
10	0x3f61077c	0.87902045
11	0x3f69b746	0.9129528
12	0x3f496c97	0.7868132
13	0x3f2b1845	0.6683391
14	0x3f21506c	0.6301334
15	0x3f9db7ab	1.2321676
16	0x3f12b0e7	0.5730118
17	0x3f74a00f	0.9555673
18	0x3f6cfa59	0.925695
19	0x3f1677b5	0.5877641
20	0x3efc6cd8	0.4930179
21	0x3f783e3d	0.9696997
22	0x3f65897b	0.89662904
23	0x3f37755a	0.7166344
24	0x3f275d76	0.65376985
25	0x3f124148	0.5713086
26	0x3f6859a2	0.9076177
27	0x3f652821	0.89514357
28	0x3f368cd7	0.71308655
29	0x3f410e42	0.7541238
30	0x3f5a990b	0.85389775
31	0x3f12cba2	0.5734197
32	0x3f0c7de2	0.5487958
33	0x3f4c5ac0	0.79825974
34	0x3f6ac06b	0.91699857
35	0x3f564e1b	0.8371293
36	0x3f56ba35	0.8387788
37	0x3f34ada1	0.70577437
38	0x3f05d5f2	0.5227958
39	0x3f28ab1d	0.658861

encoder.4.block.5.bias f4 [40]
0	0xbebde72f	-0.37090442
1	0x3dc593d7	0.09647339
2	0xbe875c91	-0.2643781
3	0xbe0ffc9c	-0.14061207
4	0x3d3b3d9e	0.04571306
5	0xbe276ecb	-0.16350858
6	0xbe818284	-0.25294888
7	0xbe7f2c7d	-0.24919315
8	0x3e07aa14	0.13248473
9	0xbe805f39	-0.2507265
10	0x3dc2460a	0.09486015
11	0xbdbcad80	-0.0921278
12	0xbe94b58f	-0.29044768
13	0x3c95c8d2	0.018284235
14	0xbd60af0d	-0.05485444
15	0xbe846849	-0.25860813
16	0xbe735d6b	-0.23766105
17	0x3d70d864	0.058800116
18	0x3e22bfd5	0.1589349
19	0xbda66d87	-0.081263594
20	0xbd7f9164	-0.062394515
21	0x3db5adae	0.088710174
22	0x3d6d6e91	0.057966772
23	0xbd77ee7f	-0.060530182
24	0xbe67af8f	-0.22625564
25	0xbe049d21	-0.12950565
26	0x3de3ad08	0.111169875
27	0x3da29239	0.07938046
28	0xbe2194f8	-0.15779483
29	0xbde1dee5	-0.11028842
30	0xbe4f78d4	-0.20260936
31	0xbd5c7a28	-0.053827435
32	0xbe002c7d	-0.12516971
33	0xbe6aae95	-0.2291816
34	0xbd9bb831	-0.07603491
35	0xbe9db2a4	-0.30800354
36	0xbe83921c	-0.2569741
37	0xbe192940	-0.14957142
38	0x3cdb3603	0.026759153
39	0xbe3ede0c	-0.18639392

encoder.4.block.5.running_mean f4 [40]
0	0xbe15189c	-0.14560169
1	0x3f3b5c55	0.7318776
2	0xbf2d546f	-0.6770696
3	0x3b874428	0.004127998
4	0x3ec93768	0.39300084
5	0xbe8e1b27	-0.2775509
6	0xbf5515fc	-0.8323667
7	0xbf3f2c48	-0.7467694
8	0x3d839651	0.06425155
9	0xbe812ce3	-0.25229558
10	0x3ed1e01a	0.40991288
11	0x3e3df250	0.18549466
12	0x3e968bf3	0.29403648
13	0x3f1fa5e7	0.6236252
14	0xbef1d8ef	-0.4723582
15	0xbea09ade	-0.31368154
16	0xbe6e559c	-0.23274845
17	0x3ee21c06	0.44162005
18	0x3f78fecd	0.97263795
19	0x3f038d68	0.51387644
20	0x3e41bbca	0.18919292
21	0x3f252428	0.64508295
22	0x3ecea83f	0.40362737
23	0x3de17593	0.11008754
24	0xbd8ed99a	-0.06975098
25	0xbece86f9	-0.4033735
26	0x3ec4f6cf	0.3846955
27	0x3f089653	0.53354377
28	0xbeb4b100	-0.3529129
29	0xbf00a21f	-0.5024738
30	0xbf1609b2	-0.58608544
31	0x3e1817e4	0.14852864
32	0x3c778f2c	0.015109818
33	0xbe9e174f	-0.30877158
34	0xbecb3817	-0.3969123
35	0xbf1487c1	-0.58019644
36	0xbe7588fd	-0.23978038
37	0xbdf392c6	-0.11893229
38	0x3f0e0058	0.55469275
39	0xbe4fb747	-0.20284759

encoder.4.block.5.running_var f4 [40]
0	0x404d653a	3.2093034
1	0x408b0e1b	4.345472
2	0x4099bae2	4.804063
3	0x402e0a4c	2.7193785
4	0x3ff583b6	1.918082
5	0x40216a89	2.5221274
6	0x3ff6170f	1.9225787
7	0x40d8764b	6.76444
8	0x3f98121c	1.1880527
9	0x3fd9fe77	1.7030782
10	0x4054747d	3.3196099
11	0x3fd35e35	1.6513125
12	0x3f080f74	0.5314858
13	0x4079a465	3.9006588
14	0x40ca0c19	6.313977
15	0x3f0d78f2	0.5526267
16	0x3f94850a	1.16031
17	0x3fdddd0b	1.7333082
18	0x406f62dd	3.7404091
19	0x3fbc9716	1.4733608
20	0x3fe050c6	1.752465
21	0x4099a913	4.801889
22	0x3f2794e4	0.65461564
23	0x405cd9ea	3.4508004
24	0x403ca366	2.947473
25	0x3eef8dc4	0.46787846
26	0x40608cbb	3.5085895
27	0x40d8a24e	6.7698126
28	0x3ff1b847	1.8884362
29	0x3f968840	1.176033
30	0x40211b91	2.5173075
31	0x40d4661a	6.6374636
32	0x3fbbbe14	1.4667382
33	0x3f99c6eb	1.201383
34	0x408644e9	4.195912
35	0x4035beed	2.8397782
36	0x3f9621f3	1.172911
37	0x3f707f6e	0.9394444
38	0x40b506b9	5.6570706
39	0x3fcd0931	1.601843
