VQ-VAE/models/vqvae/model_22.pt (torch, 579012 bytes, 64 tensors)

encoder.0.weight f4 [40, 1, 4, 4]
00000000: e947 223d 1da4 cd3c 21fa 89bd 1f04 8dbd
00000010: 1a7e b8bd 6956 7fbd 45c6 27bd 8833 8ebd
00000020: 61ce aebd cb20 b2bc bf18 febd 7988 1b3d
00000030: 0a7c 6dbc 40a1 a9bd 551d c73a 0219 493d
00000040: 71dc 213d f110 a53d 91da 73bd 4c30 4e3d
00000050: 9014 043e 06c2 fe3d d2ee c5bc ff07 223d
00000060: a16d 923d ed89 ac3d d841 a1bd 03d2 bfbc
00000070: bb8e 8b3d 9138 5c3d 5dbe 89bc e4e5 ae3d
00000080: 1dea 8c3d a307 a03d cc80 933d a81d 853d
00000090: c9ff 163d 370e 9c3c 1711 263c 4662 9e3d
000000a0: f797 c73d 66b1 923d 53b2 c33c dbd8 523d
000000b0: d381 623d 6f9b 163d 1400 a53c a58e 093b
000000c0: df87 9f3c 2f3d d53d ce73 a73d 7421 eb3c
000000d0: 368c c73d f97b 4d3d 9aaf d7bc 4cff 8fbd
000000e0: 88bd e93d ab77 2ebc 1728 37bc 7200 b8bc
000000f0: 344f 983d 6ab2 533d 77bd d93c c539 1d3d
00000100: 8d8f 6b3c f370 0fbb 14ae 773c f17a 3f3d
00000110: c06f cdb9 5962 45bc 6768 c83d 98b8 4abc
00000120: 873e 2dbd 7560 2cbd 2be7 583d 552b 953d
00000130: 639e 813d 6415 7ebd 79ce 5d3d 9712 0b3e
00000140: 3935 b3bd c9c5 8cb9 5206 85bd 2138 e5ba
00000150: d68d afbd 7997 22bd 9203 fbbd fe42 bc3c
00000160: 0512 9abd d21f 34bd 0c16 adbd ce47 893d
00000170: a651 adbd 1eaf 4fbd 6230 7e3d a261 a3bc
00000180: 6de9 053c f3f6 a53d 6d8e 35bd ea1e 913b
00000190: f416 6d3d 88db 60bc 2022 78bd 9fa3 7abd
000001a0: c82e 6f3d cb8a 82bd ac54 69bd 5cd2 1dbc
000001b0: c5cf 6bbd 4cb4 7ebd 1244 ffbc 618d 3dbd
000001c0: e238 5abc b26f d6bc fdc6 e9bd 1810 84bd
000001d0: 7b0b 1dbd d668 d5b9 3709 b7bd 3a40 d93c
000001e0: c3e2 f7bd b8c0 72bd bfc3 1b3c 4c50 3ebd
000001f0: b955 b1bc 64eb 803d 4249 b1bd b8ba 88bc
00000200: bc7f 03bd 575c 03bc 42d6 26bb 3fa4 b93c
00000210: b1aa 2dbd ca00 0c3d 77d1 983d 9ebc cd3c
00000220: 5fa0 8e3d 0186 fb3d 4644 49bd 8018 35bc
00000230: 4ae1 053e dd6e 873d 47f1 ba3b 9311 683d
00000240: 88ab 243d f79f b33c 999b 383d 72dd 1e3d
00000250: f0d1 7cbd 1fe0 8ebd ac09 cebd a81f d83c
00000260: 59b5 00be a031 b1bd 3d55 2cbd 8afa 7ebc
00000270: 030a 64bc 25de b23d 50a9 6e3c 0a6b b43d
00000280: 156e 6d3d 5ee3 093d f90f 4cbd 09a8 82bd
00000290: 563f 953d a42a 403c 17cb 23bd 08b5 29bd
000002a0: c2f1 253d b985 093d 5508 10bd c433 72bd
000002b0: eb98 773d f59e 9c3d 1ab2 4bbd b884 8fbd
000002c0: c12b 8dbd a46e 25bc 2079 173c a238 09bb
000002d0: 2e40 8a3c d73e 66bc 402a ffbc d3ce 8fbd
000002e0: 5678 edbc 146d 03be 05b0 ecbd a36b a9bd
000002f0: a577 92bc 030a 74bd 340f f33c 7d05 53bd
00000300: 45d5 583c c50c 573d 6b11 633d ca84 1dbd
00000310: ebc5 bc3c cf7d b2bd a8b2 38bd aa80 a5bd
00000320: bbee 3dbd 0c78 78bd cfd0 2cbb 6576 6ebd
00000330: d49d 8dbd 1066 13bd 0170 6cbd 2023 e1bd
00000340: fc2f c0bd 7729 83bd 9300 fbbc 5159 cc3c
00000350: 1830 5abd c92e 95bd cc3d 4dbd 4ade a3bd
00000360: d9d2 793d 262b 5fbd bb64 8abd ecc8 3bbd
00000370: 9993 643d 0530 2f3d 956c 08bc 3289 c8bc
00000380: 0162 ae3c f15a 083c 0ba8 aebb f272 213c
00000390: eb60 c63c 5565 55bd 9e52 423c 058f ce3c
000003a0: 6d1c 573d 9882 873d 62e9 0d3e 47f9 c83d
000003b0: 860c 053d 4cc9 a43d 0aea be3d 4bdb 513d
000003c0: 64dd 923c 8584 b0bd 9945 97bb 59e6 d0bc
000003d0: c642 2dbd 2e1c 49bd b036 73bd 971e 30bd
000003e0: 43b1 9ebd ad29 0ebd 7fdf 09bc 28b5 8abd
000003f0: b57a a93b 331b 3bbd 894e 72bd 85ae 463c
0.03961936 0.02510267 -0.067371614 -0.06885552 -0.09008427 -0.062338267 -0.04096057 -0.069434226
-0.085354574 -0.021744153 -0.12407064 0.037971947 -0.014494905 -0.08282709 0.0015191237 0.049096115
0.03951687 0.08059872 -0.059534613 0.05033903 0.12898469 0.12439351 -0.02416173 0.039558407
0.07149816 0.08424745 -0.07873887 -0.023415571 0.06814333 0.053764883 -0.016814405 0.08539942
0.06880591 0.078139566 0.072023004 0.06499797 0.03686503 0.019049747 0.0101359105 0.07733588
0.09745782 0.07162742 0.023888743 0.05147634 0.05529959 0.036769327 0.020141639 0.0020989564
0.019473968 0.104120605 0.08176385 0.028702475 0.0974354 0.050167058 -0.02632885 -0.07031116
0.11413103 -0.010648648 -0.011178992 -0.02246115 0.07436982 0.05168382 0.026579602 0.03838517
0.014377487 -0.0021887391 0.015117187 0.046748105 -0.00039183907 -0.012047374 0.09785538 -0.012373112
-0.04229596 -0.042084176 0.052954834 0.072836556 0.06329038 -0.06203212 0.054151986 0.1358131
-0.08750386 -0.00026850242 -0.06495346 -0.0017488041 -0.08571975 -0.039695237 -0.1225654 0.022981163
-0.07522968 -0.04397566 -0.08451471 0.06703149 -0.08462839 -0.050704114 0.06205786 -0.019944016
0.008173329 0.081037425 -0.04432528 0.004428734 0.057883218 -0.013724215 -0.06057942 -0.061191197
0.058394223 -0.06374129 -0.056965515 -0.009632673 -0.05757119 -0.062183663 -0.031160388 -0.046277408
-0.013319226 -0.026176307 -0.11414907 -0.06448382 -0.038341027 -0.00040704635 -0.089373045 0.026519883
-0.12103798 -0.059265822 0.009507119 -0.046463296 -0.021647321 0.06294897 -0.08656551 -0.016690597
-0.03210424 -0.008017621 -0.0025457297 0.022661326 -0.042399112 0.03418044 0.07461827 0.025114354
0.06964182 0.122814186 -0.049137376 -0.011053205 0.13074222 0.06612942 0.005705032 0.056657385
0.040202647 0.021926863 0.045070264 0.038785405 -0.06172365 -0.069763415 -0.100604385 0.026382282
-0.12569179 -0.08652043 -0.042073477 -0.015562663 -0.013918403 0.08733777 0.014566734 0.088094786
0.05796631 0.0336641 -0.04981992 -0.063797064 0.07287471 0.011728916 -0.039988603 -0.04143241
0.04051376 0.033574793 -0.035164196 -0.0591314 0.06044857 0.07647506 -0.049730398 -0.07007736
-0.06893111 -0.01009718 0.009245187 -0.0020938297 0.016876306 -0.014053068 -0.031148076 -0.070218705
-0.028988045 -0.12834579 -0.115570106 -0.08272483 -0.017879317 -0.05957986 0.029670335 -0.051518906
0.013234441 0.052502412 0.055436533 -0.038456716 0.023043593 -0.08715402 -0.045092255 -0.08081181
-0.04637025 -0.06066136 -0.0026369577 -0.05821838 -0.06914869 -0.035986006 -0.057724003 -0.10993028
-0.09384152 -0.06404393 -0.030639922 0.024944933 -0.053268522 -0.07284314 -0.050107762 -0.08001383
0.060992096 -0.05448451 -0.06757494 -0.04584591 0.055804823 0.042770404 -0.008326669 -0.024479482
0.021286966 0.008322463 -0.005330091 0.009854065 0.024216136 -0.05209859 0.011860518 0.025214681
0.052517343 0.06616706 0.1385856 0.09813171 0.032482646 0.08046207 0.09321983 0.051234525
0.017927833 -0.08619026 -0.004616451 -0.025500463 -0.04230001 -0.04909914 -0.059378326 -0.042997923
-0.07748654 -0.034707714 -0.008415102 -0.06772834 0.0051720985 -0.045680236 -0.05915693 0.01212657

encoder.0.bias f4 [40]
00000000: 2778 f3ba f5a0 beba 3f7b 13bb a9a9 ffba
00000010: 6e51 4bbb 1a45 2638 dcf6 153b 7d1a 1b3a
00000020: c314 caba cd8c 8b3b 9a0e 363b af52 85ba
00000030: 2c61 f4ba 8de5 f039 768e a1b9 4cf9 df3a
00000040: 7ce6 98b9 161b 07bb 0bd8 e339 4634 1a3a
00000050: 5ee9 8bbb 2dd5 8fba a13c 07bb f9a9 58bb
00000060: f6e1 aa3a 91a8 1dba 6b3d cb3a a6f8 79b9
00000070: 02a0 b238 82a1 203a c411 2c3b ba35 8b3b
00000080: aa6f f5b9 0271 70bb ad9a 633b 18da bf39
00000090: d00d 20ba cf96 23bb 93e1 17bb 8017 83ba
-0.0018575237 -0.0014543819 -0.002250388 -0.0019505519 -0.0031023878 3.964184e-05 0.0022882735 0.0005916728
-0.0015417564 0.004258728 0.00277797 -0.0010171736 -0.0018644682 0.00045947396 -0.00030814455 0.0017087846
-0.00029163423 -0.002061551 0.00043457779 0.0005882423 -0.004269763 -0.0010973566 -0.0020635503 -0.0033060296
0.0013037312 -0.0006014193 0.0015505975 -0.00023839119 8.517505e-05 0.0006127582 0.0026255706 0.004248348
-0.00046813238 -0.0036688452 0.0034729645 0.0003659285 -0.0006105574 -0.0024961715 -0.0023175224 -0.001000151

encoder.1.weight f4 [40]
00000000: 067d 663f 2f1b 593f 367c 673f c0d5 4f3f
00000010: 55b3 4e3f e465 793f 5954 5c3f cc19 543f
00000020: 54ab 5c3f 54b3 563f 5ebe 653f 5fbc 5e3f
00000030: fbad 733f 45bc 5b3f e379 5e3f 632f 803f
00000040: 4e73 603f 4d7d 723f 76f0 5b3f 2a72 783f
00000050: 4710 573f 0c31 623f dc3e 523f c9d7 5c3f
00000060: 198f 453f 4f81 633f d17b 553f 17e5 4d3f
00000070: 2558 533f bd9d 6a3f 333b 6b3f 74b8 5d3f
00000080: bfab 6b3f 94e7 613f 0fc3 6e3f 69a2 523f
00000090: 324a 773f a7c8 813f 49fc 813f 8ffe 5c3f
0.9003452 0.84807104 0.90423906 0.8118553 0.8074239 0.974211 0.86066204 0.8285186
0.86198926 0.83867383 0.897436 0.8700618 0.9518735 0.8583415 0.86904734 1.0014461
0.8767594 0.94722444 0.8591379 0.970492 0.8400921 0.8835609 0.82127166 0.8626676
0.77171475 0.88869184 0.83392054 0.8042769 0.8255637 0.9164694 0.91887206 0.8660958
0.9205894 0.88243985 0.93266386 0.8227907 0.9659759 1.0139359 1.0155116 0.86325926

encoder.1.bias f4 [40]
00000000: c6cd d0bc c516 0abd 6b8b 2d3d ebde 4e3d
00000010: fda4 a4bc 8fa3 a3bd c433 b8bd d95e 96bd
00000020: c82b f33c e245 793d 56ab d0bc ca98 69bd
00000030: 18c3 f7bd 421b 9abd 5fe4 e53d 1040 47bd
00000040: d509 72bc db2a 98bd 499f a7bd 7d23 94bd
00000050: 8deb 12bd 8970 21bd 9d8c 4a3e 8582 33bd
00000060: bb81 143e a98d 00bd e7e2 553e 5ed6 233e
00000070: 4471 8fbd 1732 133c e914 2ebd fcaf d7bd
00000080: e814 a7bd 9ac7 3f3e cb7b aabc 1d8a 8fbd
00000090: f4dd babd 9337 1abe 4044 ffbd ea90 11bd
-0.025488745 -0.03371312 0.042369287 0.05050556 -0.020098204 -0.07990181 -0.089942485 -0.073423095
0.029683962 0.06085766 -0.025472324 -0.057030477 -0.12097758 -0.0752473 0.11225199 -0.04864508
-0.014772852 -0.07430049 -0.08184678 -0.07233331 -0.03586917 -0.039413963 0.19780202 -0.043825645
0.14502613 -0.031385098 0.20887338 0.15999743 -0.070040256 0.00898411 -0.04250041 -0.10531613
-0.081582844 0.18728486 -0.020810982 -0.07008765 -0.091243654 -0.15060262 -0.124641895 -0.03553859

encoder.1.running_mean f4 [40]
00000000: 5bff cf3e a850 d5be b742 08bf 5668 b9be
00000010: 415d 80be e2f1 d73e 3554 593e 43b0 d13e
00000020: 5d78 a2be db58 0f3e ee86 993c 63af de3e
00000030: aade bd3e 8b30 a83e dd65 e6be 5847 cc3e
00000040: 92a6 98be c6c5 0c3f d4a4 da3e fc96 a43e
00000050: ce17 81be 4dbc 8e3e 855b 5dbe 65ad 8f3e
00000060: b38d 0dbe 2f79 1a3e 4d52 4ebe bd41 d1bd
00000070: 465a 0a3e 68d5 b03e 9615 9f3e eb35 873e
00000080: 52b9 823e acc9 8ebe f472 873e 0d06 81be
00000090: 6b14 ea3e 650e c93e 07cd d23e 781a 3a3e
0.40624508 -0.41663098 -0.532268 -0.36212415 -0.25071147 0.4217673 0.21223529 0.4095479
-0.31732455 0.1399874 0.018741097 0.43493184 0.37083942 0.32849535 -0.4499959 0.3989818
-0.29814583 0.5498928 0.4270388 0.32146442 -0.25213474 0.27878037 -0.21616943 0.28061977
-0.13823585 0.1508529 -0.20148583 -0.10217617 0.13510999 0.34537816 0.31071156 0.26408324
0.25532013 -0.27888238 0.2645489 -0.2519993 0.45718703 0.39268795 0.41172048 0.1817416

encoder.1.running_var f4 [40]
00000000: 52a6 ad3d 3740 a43d 2726 e23d 4dae 933d
00000010: 1ee4 103d 0a5e c03d 8826 253d c817 8e3d
00000020: 8bc7 6b3d c286 143d dc21 143d ec73 a23d
00000030: 2b35 983d a7a9 493d db21 c13d 2411 813d
00000040: 23a0 733d 526c 073e e865 a83d b2af 6c3d
00000050: 314f 063d a503 3d3d 9e6f b43c e4bb 643d
00000060: 3a14 0d3d e986 403d 2966 133d 2249 0b3d
00000070: 0040 1a3d 84d7 833d f6b6 8f3d e1b0 483d
00000080: 9875 203d dd55 323d 101d ea3c 4fc1 5d3d
00000090: 6ca4 d93d a876 8e3d 4d0c 8d3d bb5b ff3c
0.08478989 0.080200605 0.11042433 0.072109796 0.0353738 0.093929365 0.04031995 0.0693813
0.057563346 0.036261328 0.036165103 0.079322666 0.07432016 0.04923406 0.094302855 0.063020974
0.05947889 0.13224915 0.08222562 0.057784744 0.032790367 0.046146054 0.02202588 0.05584325
0.034443118 0.04700366 0.0359861 0.03400529 0.03765869 0.06437591 0.07017319 0.04899681
0.039174646 0.043538917 0.028578311 0.05413943 0.10627064 0.06956226 0.06887112 0.03117167

encoder.3.weight f4 [40, 40, 4, 4]
00000000: 429c 38bc de8e 9bbc 09f9 9dbb 2f99 26bd
00000010: c3dd 9cbc d88b 37bd ff13 4cbd b0ac 8939
00000020: 13d3 913c 19e0 743d fdfc 35bd 5b8a 2f3c
00000030: 16c3 393d e5b2 2a3d b8e8 f73b 551b e73a
00000040: 5808 9abc 011e e6bb 20bc 4f3d d5a0 efbc
00000050: bfa5 a5bc 2720 1cbd 000f 183d f2b4 673d
00000060: f134 073d ba68 023c b666 9ebb 7dfc 863d
00000070: d831 0e3b a404 293b 1e5f 743d 715c 56bc
00000080: ff62 08bd ffa0 a6bc c420 4dbc 08c5 ffbc
00000090: 857c 3e3c 22c9 5bbd b260 61bd 5b41 d4bc
000000a0: 93a1 0d3d 14ca 37bc a851 99bd 12b9 feba
000000b0: bfc9 a43d 7c01 43bd 82eb 8abc f76f 2abb
000000c0: 724d 453d 1a06 2ebd f05a 12bd 85da bc3c
000000d0: 2b5e 873c 6fd6 0dbd 0a8f dbbc d965 f5ba
000000e0: 0df6 e93c f494 12bd 720d dc3c 7554 183d
000000f0: 8814 71bc 5e6b 343d c765 3ebd 0c90 d3bc
00000100: 3aee 253d 365e 123c d38a 04bd 634b 863c
00000110: 0059 673d fb54 32bc 2243 063c 76a8 c1bc
00000120: e4a6 77bd 603d 783d 1fa6 d03a ce47 a93c
00000130: 981c eebc 131a c03b 0316 ae3c 14d9 c8bb
00000140: 1f3d 8fbc 2528 063d bfc0 b7ba 2d71 723c
00000150: 7dfe 8dbd 5a30 c13c 8281 1b3d df0a a7bc
00000160: 58d9 58bd 4332 ae3d cd59 1cbd 046a 94bd
00000170: eca1 393d 7fa5 5f3d f9d5 ebbc ecfa a2ba
00000180: 00c0 033d fcc5 2a3c 5ace f6bb b48a bc3c
00000190: 1c03 1ebd cc95 00bd ac18 1abd 618b 333d
000001a0: 6e94 6d3c e7ce 3f3d c8e9 953d b0b9 d83c
000001b0: e8a7 083d b68e a43c d4d4 e5bc e61f a4bc
000001c0: 2058 b03c 671d 333d 6ca1 3d3d f41c 1bbd
000001d0: 9b33 693c 6fb5 9cbc 9c35 1c3d 0de2 0f3d
000001e0: 4e66 c3bb 48fd 39bc cfc7 45bc 84d7 0bbd
000001f0: fea5 52bd f53a 1a3d f3a2 153d 72fe c6bc
00000200: f5bb 08bc 5b01 9dbd 5c66 0dbd 14b8 903b
00000210: fd13 5b3d 3050 07bd 7182 163c 9925 0ebc
00000220: 305a cebb e4f6 8abb b970 133d ef2f 89bc
00000230: 660b 05bc fc8c 543d 01f5 1e3c 6a79 86bb
00000240: 197c 5d3c c1e4 943c bcbc 213c 8b4c 1f3c
00000250: 0c49 d93c b112 d23c dbc3 0cbd 6d6e b6ba
00000260: 9389 033d 84c4 df3c bd85 bf3c 04d2 713d
00000270: 0c3c f43c f1bb d8bc 81f7 a73c b168 a6bb
00000280: 5b52 903b 9d6a 0a3b ad32 843d 2e0e 0b3d
00000290: 25ab fbbc 993b eb3d b14c 893c 2e9c 76bd
000002a0: cf97 62bd 3697 513d 3421 9e3d d8ec aebc
000002b0: 5f66 383d ef94 473d 8086 003d 12af cd3c
000002c0: f1a7 3abd 8b9b c23b e51e 753c 26a9 983d
000002d0: 6117 8b3c f8f3 babc 4cf3 38bd 7822 a43c
000002e0: 1aef c3bc 8965 56bd eeb4 083d 46d1 82bc
000002f0: 78b8 17bd 298d 11bc d51b 703c 7d74 643d
00000300: 39f9 00bd 69c2 303d 9ce0 8cbb a37a 45bd
00000310: 7fd8 3cbd 8116 15bd ec19 083d 065a 9e3b
00000320: 6b5b 1abd e458 c2bc ca49 0cbc f448 063d
00000330: d4e1 1b3d e8ca 603c 81cc dc3c 82fa cdbc
00000340: b5ca 5cbd 1891 02bd 7cfa a4ba 3ef4 1a3c
00000350: fd84 943d d1b9 c13d 35c7 1fbd eaa1 8bbc
00000360: 89f2 273d 7662 1eba 1f5c 6abb 5241 a13c
00000370: 9a2d ac3c 9f98 96bc 3dd2 70bb 0149 be3c
00000380: dd09 023d cff4 08bd 01a1 0a3d b7c0 3a3d
00000390: 69af 093d 2579 84bd 2456 98bc 8520 333d
000003a0: 6690 353d 5c07 14bc 7372 fc3b 9c9d 0f3d
000003b0: af8e ec3c e988 423d 5976 eabc 43c5 03bc
000003c0: 5767 ec3c a95c 6bbd 8d29 93bc 42f4 f03c
000003d0: 21df 893b 37d3 6abd 0e96 023d 9217 bebc
000003e0: b859 8c3d 0d7c 9f3b 2409 65bd 3661 db3b
000003f0: d3a0 053d 5089 68bc b1e8 b53c c284 2dbd
-0.0112677235 -0.018989023 -0.004820947 -0.04067343 -0.019148713 -0.0448111 -0.049823757 0.00026259338
0.017800843 0.05978403 -0.04443072 0.010714139 0.045352064 0.041674513 0.007565584 0.0017632047
-0.018802807 -0.0070226197 0.05071652 -0.029251495 -0.020220635 -0.0381166 0.03712368 0.056569047
0.033009473 0.007959539 -0.0048340214 0.06591127 0.002169719 0.002579012 0.059661023 -0.013083563
-0.033297535 -0.02034044 -0.012520019 -0.031221882 0.011626367 -0.053658612 -0.055023856 -0.02591007
0.034577917 -0.011217613 -0.07486278 -0.0019433817 0.080462925 -0.047608837 -0.016958002 -0.0026006678
0.04816956 -0.042486288 -0.035731256 0.023053417 0.016524395 -0.034628328 -0.026801605 -0.001872237
0.028559709 -0.035786584 0.02686188 0.03718992 -0.014714368 0.044047706 -0.04648378 -0.025825523
0.040510394 0.008933594 -0.032358956 0.016393369 0.05648136 -0.010884519 0.008194717 -0.023639899
-0.060461894 0.060605407 0.0015918649 0.020664122 -0.029066369 0.0058624833 0.02125073 -0.0061293934
-0.0174852 0.03275313 -0.0014019235 0.014797491 -0.069333054 0.023582626 0.037965305 -0.020390926
-0.05294165 0.085056804 -0.03817158 -0.072467834 0.045320436 0.05460119 -0.028788554 -0.00124344
0.032165527 0.01042318 -0.0075319232 0.023015358 -0.038577184 -0.031392857 -0.037621185 0.043834094
0.01450072 0.046828177 0.07319981 0.02645573 0.033363253 0.020087581 -0.028055586 -0.020034742
0.021526396 0.043729212 0.046296522 -0.03786941 0.014233495 -0.019129483 0.038137063 0.03512769
-0.0059631234 -0.011351891 -0.012071564 -0.03414108 -0.051427834 0.037653882 0.036532354 -0.02429125
-0.008345594 -0.07666274 -0.034521446 0.004416475 0.05348586 -0.033035457 0.009186373 -0.008675956
-0.0062973723 -0.0042408574 0.035996173 -0.01674649 -0.008120393 0.051892266 0.009701968 -0.004103829
0.013518357 0.018175485 0.009871658 0.009722839 0.02652409 0.025643678 -0.03436647 -0.0013918407
0.032113623 0.027315386 0.023379201 0.059038177 0.029813789 -0.026456805 0.020503761 -0.005078398
0.004404349 0.0021120675 0.06454978 0.03394907 -0.030721257 0.11485977 0.016760202 -0.06020754
-0.055320557 0.051169597 0.07721177 -0.02135317 0.045019504 0.04872602 0.03137827 0.025107894
-0.045570318 0.0059389523 0.014960979 0.074541375 0.016978921 -0.022821411 -0.0451539 0.020035967
-0.023917723 -0.052342925 0.033375673 -0.01596893 -0.037041157 -0.008883753 0.014655073 0.055775154
-0.031487677 0.043154154 -0.0042992365 -0.04821266 -0.046104904 -0.036398415 0.033227846 0.004832509
-0.03768484 -0.023724027 -0.008562515 0.032784417 0.038057163 0.013720252 0.026952984 -0.025143865
-0.053904254 -0.031876653 -0.0012586857 0.009457646 0.07251928 0.0945927 -0.039008338 -0.01704498
0.041002784 -0.00060418935 -0.0035760475 0.019684467 0.021017838 -0.018383322 -0.0036746406 0.02322817
0.031747688 -0.033436593 0.03384495 0.045593943 0.03361455 -0.06468419 -0.018595763 0.043732185
0.044327162 -0.009034958 0.007704073 0.035062417 0.02887663 0.04749385 -0.028620886 -0.008042636
0.02885787 -0.057461414 -0.017964149 0.029413346 0.0042075072 -0.057330336 0.031881385 -0.023204599
0.0685305 0.004867083 -0.05591692 0.006694938 0.032624077 -0.014192894 0.022205682 -0.042362936

encoder.3.bias f4 [40]
00000000: 8755 923c adc9 073d ca50 e8bb 8f59 6bbc
00000010: ab75 743d f6d1 42bb 0b16 e43d 3865 9abc
00000020: a667 e03b 3ec3 40bb 38ac 3c3c 1f3b 6f3c
00000030: 53c6 d5bb fe29 053c d8c2 193c 37b9 883c
00000040: 081d fdbb 88a9 83bc 06b8 99bc b413 95bc
00000050: afef aabb 4582 e4ba 32c8 d43d fce8 cfbb
00000060: b977 00bd 6d64 583b fe46 763a ff93 dbba
00000070: 722c e03c 77eb cc3b 77dc 5bbc 41ea 5fbc
00000080: 5b24 07bd f2b0 05bc c16e 91bc b5eb 1ebc
00000090: f5bd 38bc 48f3 95bc 7fd1 ccba df72 53bc
0.017863048 0.033151317 -0.007089709 -0.014364614 0.05968253 -0.0029727197 0.11137017 -0.018847093
0.0068482934 -0.0029413248 0.0115156695 0.014601498 -0.006523886 0.0081276875 0.009384833 0.01668988
-0.007724408 -0.01607205 -0.018764507 -0.018197872 -0.005216561 -0.0017433843 0.10389747 -0.0063449126
-0.031364176 0.0033018843 0.0009394734 -0.001675248 0.027364943 0.0062536555 -0.013419262 -0.01366669
-0.032993656 -0.008159863 -0.017753007 -0.009699752 -0.011275758 -0.018304482 -0.00156264 -0.012905805

encoder.4.block.1.weight f4 [40, 40, 3, 3]
00000000: 99a0 823c 4853 74bd 4d5e 9ebc fa21 65bd
00000010: 6632 d0bd 086e d0bd 49f0 67bd c794 c6bd
00000020: 1098 72bd 3097 e13a a4a1 263c b027 d43d
00000030: f826 603d b3b0 45bd 29ca a7bd d62a 38bd
00000040: 1d06 8a3d a492 fd3c 3921 a73c d5d0 843c
00000050: ae39 b93d ca65 393d 4fa5 d53d 1343 e83a
00000060: 7626 b73d edd2 093d 8fb2 2f3d 382d fabc
00000070: 1bfe 703d 8c61 893d ad69 a2bd cb9e 42bd
00000080: c00a 2bbd f63f e73a 6cee 9bbd 43d4 40bd
00000090: 7198 a2bd 9c24 c6bc 01e2 053d 9bee 123e
000000a0: 62b6 4d3d bcc9 abbd 3fd7 943c 2379 043d
000000b0: 6d18 f33a 90f9 4bbb ffe6 fabc c8c8 903d
000000c0: 152b 0a3e 1345 1d3d 8ec6 cabb 988e a43d
000000d0: 4f79 20bd 6ef9 25bd 39be 84bb f7c0 9a3d
000000e0: 4615 1b3c 4047 6b3d 139f 933d f906 41bd
000000f0: 463b 96bc 95bf 513d ed74 043c 9df8 95bd
00000100: 52f1 f2bc a6da 183d 9704 8fbd 0437 823d
00000110: 1fdd c9bb 2077 263b b2ee b1bd 8666 c3bc
00000120: d98a b2bc 199a dfbc e67f 21bd aa8a 043d
00000130: 5f40 8f3d 1b06 f6bb 4687 2fbd 2bb1 87bd
00000140: 7609 a13a 04b4 573d 6b36 9bbb 013c 8b3c
00000150: 2221 173d 8c25 9e3d 4e52 a2bd 5623 92bd
00000160: 5275 633d a65a d1b8 a956 4b3d 2012 29bd
00000170: 3f38 6abd c8fb 34bd 478f 3dbd 3e27 983c
00000180: cf0c 5f3c c32a efbc f9ab f1bc 6ebb f2bc
00000190: 3fe1 ed3c 4003 7cbd 88b4 1f3d cd05 a43d
000001a0: 2cea 593c 6fff 18bd 1799 1abd 6436 c8bc
000001b0: 11eb 03bd 1761 7d3d bdc5 42bd 8cb8 03bd
000001c0: 31cc 123d 3a4a 25bc 9e45 ffbd b8f5 86bd
000001d0: 814f 0bbd 8d44 8f3c d3f5 76bb 4892 86bd
000001e0: d305 aaba 809f e3bd 15be 2a3d e8d1 073c
000001f0: 5310 17bd 4b26 7e3c 6b47 30bd 6c59 a53d
00000200: a414 4dbd 5a71 783e 673c edbd d711 2c3c
00000210: fd36 e43c f257 223d 39f8 cdbd e2bf c03c
00000220: 4388 603d 8752 e23c b0b2 373d 1cd5 633c
00000230: e98a 523d 4d03 77bc 5677 fdba 324c 4cbd
00000240: d09f debc 142c 64bd 183e b1bd 6b5b a33d
00000250: 65d0 56bd 5b34 003d d0d4 8bbd 3012 1bbd
00000260: e35c 743c 8bf8 103d 88c8 253d 285e ce3c
00000270: 3ea5 49bd 0638 34bd deeb 38bc 91e3 71bd
00000280: 4fdd 993c 42d3 243c 01d4 9f3d 9410 d9b9
00000290: 39f1 8abd 64c3 6c3d 5b97 3e3d 195c 5cbb
000002a0: 82a6 0b3d d93a 02bd 231b e43b c0bf 113d
000002b0: 1044 a03c d55c 71bd 792a 91bd b3c3 66bc
000002c0: d5f6 e53d 8b29 84be a789 ffbb 579d b1bd
000002d0: 11cc cdbc 4b2e cc3d 25e4 e03c 561d 95bb
000002e0: 907d 75bd 4980 82bc 6797 04be e16d 853d
000002f0: 21f8 893d e8ea f8bc e3e6 9f3d 89c6 e5bd
00000300: 2ef4 4ebc cc03 da3c 0e3f 85bd 2e23 39bd
00000310: 2510 e33d 54b9 f7bc 449c 34bb 45ee 53bc
00000320: c7ae 2f3d fd12 eabc f6a5 6d3d 1681 41bd
00000330: 14e7 11bd 1efe c6bd 3663 3fbc 4d7b 0f3d
00000340: 4811 1e3d f1b9 91bd 92de f0bc 6518 a7bd
00000350: 6e01 543c bab7 673d d207 b3bc deff cb3d
00000360: 09d4 643d 63d4 b3bc 3982 5e3c 028e 863d
00000370: ea44 0b3e e7ac 8a3d 60d5 c13c 3135 203d
00000380: 2dfc ba3d 3db6 bdba 72f7 1f3b fe30 0abd
00000390: 29bc 05be 23c2 123e a91b 843c ead9 513d
000003a0: 630d ac3c 503f 923b dc61 df3c 8a3b 8b3d
000003b0: a3c9 153d 3f95 763c c86d d33d 117f 233d
000003c0: 76fd e5bc 6c45 70bd a9f2 2bbd 99b0 b0bd
000003d0: 7427 34bb e556 b8bc 72a4 213e 1845 d2bb
000003e0: 362a 353d 041c 973c a411 4fbd 3780 02be
000003f0: 26fd 5a3d 94e3 163c 8d27 af3d 8266 8f3c
0.01594572 -0.059649736 -0.019332075 -0.055940606 -0.10165863 -0.10177237 -0.05662564 -0.09696346
-0.05922705 0.0017211195 0.010170374 0.10359132 0.054724663 -0.048264217 -0.08192856 -0.044962727
0.06739447 0.030953713 0.020401584 0.01621286 0.09044205 0.04526309 0.10431921 0.0017720185
0.08942883 0.03364842 0.042894896 -0.03053914 0.058836084 0.06708059 -0.07930312 -0.047514718
-0.0417583 0.0017642963 -0.07613835 -0.04707743 -0.07939232 -0.024187379 0.032686237 0.14348833
0.050222762 -0.08388087 0.018169044 0.032342087 0.0018546708 -0.0031124093 -0.030627726 0.07069546
0.13492997 0.038395952 -0.0061882203 0.0803501 -0.03917819 -0.040521078 -0.0040509966 0.075563364
0.009465521 0.057440996 0.072080754 -0.04712579 -0.01833881 0.051208097 0.008084518 -0.0732281
-0.029656086 0.037317894 -0.06983297 0.0635815 -0.006160393 0.0025400594 -0.08688106 -0.023852598
-0.021794723 -0.02729516 -0.039428614 0.032358803 0.069947 -0.007508052 -0.042853616 -0.06625589
0.0012286145 0.05266191 -0.0047367117 0.016996386 0.036896832 0.07722005 -0.079258546 -0.07135646
0.055531807 -9.982781e-05 0.049643192 -0.04127705 -0.057182547 -0.04418543 -0.046279218 0.0185734
0.013613894 -0.029195195 -0.029500948 -0.029630389 0.02903807 -0.061526537 0.038990527 0.08008919
0.01330046 -0.037352975 -0.037743654 -0.024439998 -0.0322066 0.06186017 -0.04755186 -0.03215842
0.035839263 -0.010088498 -0.1246445 -0.06589836 -0.034011368 0.017488742 -0.0037683144 -0.0657087
-0.0012971706 -0.111144066 0.041685183 0.008289792 -0.036880802 0.015512059 -0.04303686 0.080736965
-0.050068513 0.2426199 -0.115837865 0.0105023 0.027858252 0.039634652 -0.1005711 0.023528997
0.05481745 0.027627243 0.044848144 0.01390579 0.051402006 -0.015076471 -0.0019337933 -0.049877353
-0.027175814 -0.0557061 -0.086544216 0.07976421 -0.052444834 0.03129993 -0.068277 -0.03785914
0.014914724 0.03539328 0.040474445 0.025191382 -0.049229853 -0.04399874 -0.011286704 -0.059054915
0.018782286 0.010060133 0.078041084 -0.00041401817 -0.06784291 0.057803527 0.046531063 -0.003362423
0.03409434 -0.031794403 0.0069612428 0.035583258 0.019563705 -0.058926422 -0.07088179 -0.014084744
0.1122872 -0.25812945 -0.007798392 -0.08672588 -0.02512172 0.09969767 0.027452538 -0.0045506163
-0.0599342 -0.015930312 -0.1294838 0.06515098 0.0673678 -0.03038545 0.0780771 -0.11219508
-0.012631459 0.026613139 -0.06506167 -0.045199566 0.11087064 -0.030239739 -0.0027558962 -0.012935226
0.04289129 -0.028573507 0.0580196 -0.047242247 -0.035620764 -0.09716438 -0.011681369 0.0350297
0.0385907 -0.07115544 -0.029403005 -0.0815895 0.012939794 0.0565717 -0.021854315 0.09960912
0.055866275 -0.02195186 0.013580852 0.065700546 0.13600507 0.0677126 0.023661315 0.039113227
0.0913013 -0.0014473867 0.0024408964 -0.03373813 -0.13060059 0.1433187 0.01612647 0.05123321
0.021002477 0.004463114 0.027268343 0.067984655 0.03656925 0.0150502315 0.103236735 0.0399161
-0.028074961 -0.058659956 -0.041979466 -0.08627433 -0.0027489336 -0.022502372 0.15785387 -0.006416928
0.04422971 0.018445976 -0.050553933 -0.12744223 0.053464077 0.009209532 0.085524656 0.017504934

encoder.4.block.1.bias f4 [40]
00000000: 4c1a 383b 2264 a9bb 1b96 d5b9 0689 1b3a
00000010: ef13 f0b9 6e59 323b cc59 c73a 8a99 103a
00000020: d0ca 3b3a 7915 80ba 13df 973b 7479 093c
00000030: c7b1 a3b9 c1c8 e53a 5c40 04ba 2b85 963a
00000040: 9abb 00bb dd8a bfba 0b3f 1f3a 6c9c b63a
00000050: c882 4ab9 ebca 6a38 efe0 08ba ccea 0cbb
00000060: 5a48 693b 95e7 1cba 3211 9b3a 65a5 ac3b
00000070: 0a36 4e38 f5d5 3a3a 9064 d73a c7f7 df3a
00000080: a9aa c43a 2858 0e3b ba3e acb9 4e60 993b
00000090: 5b3d 4fbb cd4f b339 a230 5539 e933 313b
0.0028091846 -0.0051694075 -0.00040738363 0.0005933199 -0.0004579122 0.0027213949 0.0015209257 0.0005516043
0.00071637053 -0.0009772024 0.004634747 0.008390773 -0.00031222237 0.0017531143 -0.00050449907 0.0011483779
-0.001964307 -0.0014613528 0.0006074763 0.0013932115 -0.00019312941 5.597893e-05 -0.0005221506 -0.0021502255
0.0035596103 -0.0005985436 0.0011830686 0.00526874 4.9164555e-05 0.0007127219 0.0016433168 0.0017087393
0.0015004474 0.0021720026 -0.0003285313 0.00468067 -0.0031622264 0.00034200997 0.0002033138 0.0027038998

encoder.4.block.2.weight f4 [40]
00000000: 5ba5 8c3f cca3 743f 687b 6c3f 94cf 6e3f
00000010: 55df 663f ac24 713f 0275 763f ef81 703f
00000020: ea97 673f bc1a 533f 4aa1 823f d7a4 803f
00000030: b4fd 793f beeb 953f b33e 8c3f 1611 863f
00000040: 3120 853f adbb 583f 506f 753f 8324 843f
00000050: 1140 7d3f 91a0 893f bc71 483f 011a 7f3f
00000060: f98e 593f 63f5 6b3f bde8 933f 7f47 873f
00000070: 074a 873f e3ec 8a3f df9b 8f3f 3029 8a3f
00000080: 5898 773f 4c0a 953f ba28 7a3f 5079 873f
00000090: a81c 703f 12a5 5b3f d976 8a3f 997d 653f
1.0987962 0.95562434 0.92375803 0.9328549 0.9018453 0.9419658 0.9627229 0.9394826
0.9046618 0.8246267 1.0205472 1.0050305 0.97652745 1.1712568 1.0956634 1.0473964
1.0400449 0.8466137 0.95872974 1.0323642 0.9892588 1.0752126 0.78298545 0.99649054
0.84983784 0.92171305 1.1555401 1.0568694 1.0569466 1.0853542 1.1219443 1.079382
0.96716833 1.1643767 0.97718394 1.0583897 0.93793726 0.8579875 1.081752 0.8964477

encoder.4.block.2.bias f4 [40]
00000000: a061 2e3e cec8 c9bd b78d 13be 0f5c d13d
00000010: 349b 463e 4304 913e ed2d 0b3e a261 9c3d
00000020: 6a6d 0f3d 3d01 f8bd e324 dd3d 0e42 933e
00000030: 6954 6d3e 4073 c83e f044 b13e 98d8 90bd
00000040: fe78 00bc 6346 293b 35be 373e b49d a03e
00000050: 6344 47be 371b cabd 2883 43bc a783 c3bd
00000060: c1e5 203e 7e5d 08be 5812 723e 45aa cd3d
00000070: 1f33 183e c9ba 613c 57de 853e 516f 793e
00000080: d222 673c 26a7 ae3e c164 5f3e d0e8 7fbc
00000090: efd0 44bd aa9b 8ebd 59ac 29ba b311 003e
0.17029428 -0.098527536 -0.14409529 0.10222637 0.19395143 0.28323564 0.13591738 0.076358095
0.035016455 -0.12109611 0.10798051 0.28761333 0.23176731 0.3915043 0.34622908 -0.07072562
-0.007841347 0.0025829307 0.17943652 0.31370318 -0.19459681 -0.09868472 -0.011933126 -0.09546595
0.15712644 -0.13316914 0.2363981 0.10042242 0.14863251 0.013777443 0.26146194 0.2435887
0.014107423 0.341119 0.21815778 -0.015619472 -0.048050817 -0.06963284 -0.000647252 0.12506752

encoder.4.block.2.running_mean f4 [40]
00000000: f7eb c53e 8799 3abf dd6e 74bf 4874 cbbe
00000010: 99ea 323f d843 763f 30b6 343f c38b 423c
00000020: 83b5 2c3f 60ca 26bf deec 2a3f b5c5 743e
00000030: 8f87 bc3e 7d85 f93e c1c7 ea3e 0172 57bf
00000040: 0968 73bf 38ea 00be d6b6 2b3f 18a5 7f3e
00000050: 1bdd 893c eeac 85bf 5cd7 03be 1fa9 99be
00000060: 04b5 0d3f e26d 45bf 6af5 343f a7e2 ef3e
00000070: 4ea4 503e d693 8abf d7d7 493f 9a13 763f
00000080: a89c 4fbf 4f24 2f3e abfb 363f ea39 47bf
00000090: 255a 11bf 671c 8bbf a459 ddbe a5ee 913e
0.3865659 -0.72890514 -0.95481664 -0.39737153 0.6988922 0.9619727 0.70590496 0.011874142
0.67464465 -0.6515255 0.6676768 0.23903544 0.36822173 0.48734656 0.45855525 -0.8415833
-0.9508062 -0.12589347 0.6707586 0.24965322 0.016829064 -1.0443399 -0.12875122 -0.30011842
0.5535433 -0.7712079 0.7068697 0.4685261 0.20375177 -1.0826366 0.7884497 0.9612366
-0.81098413 0.17103694 0.71477765 -0.77822745 -0.56778175 -1.0868043 -0.43232453 0.28502384

encoder.4.block.2.running_var f4 [40]
00000000: 8b96 d13e 32e4 513f 8109 863f 192d c83e
00000010: f794 563f 4f40 803f 42dc 0f3f f6e2 353e
00000020: 96e7 1e3f 304c 783f 89aa 2c3f 7ece b03e
00000030: 938b dd3e d2de ae3e a0e0 073f cb5e 523f
00000040: b840 543f 0219 883e d63d 373f 2d6e 823e
00000050: 26b0 753e 7a9f 933f c18c 503e e7ec 093f
00000060: 401f 143f dcfe 573f fd40 253f f10f 143f
00000070: b16a 373e 3f99 b43f 898d 373f 9293 9e3f
00000080: 8020 ab3f d75d 583e 299b 5c3f 4791 5b3f
00000090: 964e 3e3f 59c8 933f 49b0 263e 4b99 5e3f
0.40935168 0.81988823 1.047165 0.39096907 0.8382105 1.0019625 0.5619546 0.1776236
0.6207212 0.9699125 0.67447716 0.3453254 0.4327055 0.34154373 0.53077126 0.8217589
0.8291125 0.2658158 0.7157873 0.25474682 0.23992977 1.1533043 0.20366193 0.5387711
0.57860184 0.8437326 0.6455229 0.57836825 0.17911793 1.4109267 0.7170034 1.2388785
1.3369293 0.21129547 0.86174256 0.8576855 0.7433866 1.1545516 0.16278185 0.86952657

encoder.4.block.4.weight f4 [40, 40, 1, 1]
00000000: 48a3 5b3e 2691 b83d 45bf 833e c654 e13d
00000010: 7bd0 3f3e 5be4 63be 3e84 2f3d 7b7a 533d
00000020: bc62 d23d aaec 233c f185 1dbe 8310 0d3d
00000030: 1b13 a3bd d9e1 a5be 6d15 06be 153e 1b3d
00000040: 79c0 8e3e e8dc 8d3d 5ce3 3abe c3e6 20be
00000050: 6369 c93d c238 d03d 256f 6b3d c044 4e3e
00000060: a7f4 163e b416 ebbd b5d5 a5be a0f9 6fbe
00000070: f421 79be e3fa f03c c292 77be 5939 6f3d
00000080: 7cfa 1b3e 20d2 78be f97a 353d f8dc 56bc
00000090: c63c 93bd c2b2 7bbd 7f37 a83e 9512 5c3d
000000a0: 86ea e63c 0af8 18be 78f3 fc3d 20f9 bcbd
000000b0: 9ab2 e2bc 585d 56be 2174 1b3d 5096 053c
000000c0: 1183 6b3e ce68 a43c f7f3 3f3e 849e de3c
000000d0: 50f4 563e 3a5c 063e 1529 393e 6a5e 29be
000000e0: bff7 f53d d1d9 2e3e a51d b43d 602f 653d
000000f0: 45eb fbbc 72db 6cbe 14e9 32ba e28b e53b
00000100: ec4e 533d 5ea7 ed3c 291a 923e 926f 8d3e
00000110: e4c1 773b ccb7 92bd a0a3 bf3d 3b7f 483e
00000120: ce7a 1a3d 6204 813e eabd 973e 424f f2bd
00000130: 6d55 63be c9d4 56be a279 25be 3662 8f3c
00000140: bb64 d6bd 4819 d03e 77f2 1ebe 0bf3 c8bd
00000150: 654d ccbd 51e5 00be 1e81 3a3d 4210 21be
00000160: 3e5a 0c3e 643e 2ebd 9118 2b3e 5595 88be
00000170: 8a60 d23d d669 9fbd 5bfb 35be 27ba 5e3e
00000180: 78b1 8f3b 9672 5b3c f9c0 02be e25a e13d
00000190: 17da c2bc de44 893e 885d b83d 4507 ee3c
000001a0: caf4 5fbe d97b ac3d 28d4 23be 83cc 763d
000001b0: bac7 76be 2f5f 77bd 6209 21be 18e8 91be
000001c0: 1806 e13b 9590 77be da15 7b3c 7187 1b3e
000001d0: 8c86 4fbd 2f46 b23d 4764 d23e 4047 8abe
000001e0: 4e0e 33be 630e 813e 0d08 d93d ef2e 133e
000001f0: d719 283e 0fc7 31bd 9844 96bd abdf debd
00000200: 9220 8fbd f4e8 4dbd e463 ed3d a645 19be
00000210: 4d0d c8bc d946 d83c 3e39 4dbe 9c8a 4bbe
00000220: 8ecd a23a 5ef9 c73d 6aa2 a93c fcd2 2d3e
00000230: 3d79 563e 1374 0c3d 5b93 11be f014 da3d
00000240: 7349 28be 4475 d9bd 2911 1fbe d10f 54be
00000250: acc2 0b3e 189e 14be a058 2bbd 2409 873d
00000260: 13e4 db3d 489f 3fbe 4eda d23c a904 293e
00000270: 51f1 633e 0df3 e4bc 505a c53e 3b40 af3c
00000280: 5a83 86bd 2aa4 5bbe f98b b23c b6fc 5a3d
00000290: 787f 5d3d 9232 4abe fa1c 823e c90a d8bd
000002a0: f721 c2bd c474 393e 29c6 8cbd ec6a 7abc
000002b0: 4743 613e a85f 8c3e 17c4 9d3d 6e96 383e
000002c0: 3e17 aabe 8f44 403e 06da 493e 1d0a 763e
000002d0: ff8d 2a3e 9178 8cbc 4472 08bd 0e6f 193d
000002e0: c5dd 87bd 9beb 1dbd 0efc 173d 3bb7 5f3e
000002f0: e282 843a 6980 2ebe 82d0 a33e a2aa a93c
00000300: fcc0 51be a2d9 fd3d 6435 a33e e5a3 8fbd
00000310: b4ed 4ebd 46d7 51be 5b9d 08be 9f52 ee3d
00000320: 5931 7fbd a74b a83d 1f17 833e 6b06 5f3d
00000330: 9b18 0bbe bf3d 3cbe e76e 5cbe 4963 4a3e
00000340: e230 a2bd 1459 b1bd bd00 2cbe 82a7 a9be
00000350: dee4 5cbe 4b9d 0dbe 745d ca3d 4c76 883e
00000360: 3c4f 4d3e 5d64 05be 0511 91bc 2491 87be
00000370: b1cc 61bd 2f85 743c b3c8 5abd f4f7 9f3c
00000380: 4043 8e3d 1931 d2bd 5b7e 413c 92df 033e
00000390: 9170 a2be b8c9 8d3e f26c 47be 6de3 4b3d
000003a0: 48c2 a6bd c8a7 2f3e 5f86 60be cfe0 183e
000003b0: 7e9f 91bd 00aa 00be ce9e a53e 4aff 603d
000003c0: 7167 3cbe 2952 fcbd f11e 9abe 983b 9fbc
000003d0: 6033 16bd 93cc f7bd 9073 523e 408a 203e
000003e0: aecb 843e efd2 c43c dd10 fbbe b212 85be
000003f0: 27a8 98bd a339 58bd c99c acbd 0dfb d9bd
0.21449006 0.0901206 0.25731865 0.110024974 0.18731873 -0.2225508 0.042850725 0.05163048
0.10272738 0.010005156 -0.15383126 0.034439575 -0.079626285 -0.3239887 -0.13094111 0.037901003
0.2788122 0.069269 -0.18250793 -0.15713029 0.09834554 0.10167076 0.057479043 0.20143414
0.14741765 -0.1147894 -0.32389608 -0.23435068 -0.24329358 0.029416507 -0.24177077 0.0584043
0.15232271 -0.24298906 0.04430673 -0.0131142065 -0.07189326 -0.061449774 0.3285484 0.05372866
0.028188001 -0.1493837 0.123511255 -0.09227204 -0.027673054 -0.20934045 0.037952546 0.008153513
0.22999217 0.020069506 0.18745409 0.027175196 0.20991635 0.13121119 0.18082078 -0.16539922
0.120101444 0.17075278 0.08794717 0.055953383 -0.030751834 -0.23130587 -0.00068248925 0.0070052007
0.051588938 0.029010471 0.28535584 0.27624184 0.0037804777 -0.07163963 0.09357381 0.19579785
0.037714772 0.25198656 0.2963708 -0.118315235 -0.22200556 -0.20979609 -0.1615968 0.017502885
-0.104684316 0.40644288 -0.1552218 -0.09811982 -0.09975699 -0.12587477 0.045533292 -0.15728858
0.137063 -0.04253997 0.1670859 -0.2667643 0.102723196 -0.077838585 -0.17771666 0.21750699
0.0043851696 0.013394019 -0.12768926 0.11003663 -0.023785634 0.26810354 0.09002215 0.0290562
-0.21870723 0.084220596 -0.159989 0.06025363 -0.24099627 -0.06039351 -0.15726236 -0.28497386
0.0068671815 -0.24176247 0.015325034 0.15188386 -0.050665423 0.08704793 0.4109213 -0.27007484
-0.17485926 0.2520629 0.10597239 0.14373372 0.16416107 -0.043402728 -0.07337302 -0.10882505
-0.06988634 -0.05027099 0.11591318 -0.14967975 -0.024420405 0.02640097 -0.20041367 -0.19877094
0.0012420879 0.0976436 0.020707328 0.16975015 0.20944686 0.034290385 -0.14216368 0.10648525
-0.16434269 -0.1061807 -0.1553389 -0.20709158 0.1364848 -0.14513433 -0.041832566 0.0659354
0.10736861 -0.18713105 0.025738861 0.16505684 0.22260024 -0.027947927 0.38545465 0.021392932
-0.06568022 -0.21449342 0.02179526 0.05346366 0.05407664 -0.19745854 0.25412732 -0.10548932
-0.094791345 0.18110949 -0.068737336 -0.015284281 0.2199832 0.2741673 0.07703417 0.18026134
-0.33220857 0.18776153 0.19712076 0.24027295 0.1665573 -0.017147334 -0.033312097 0.037459426
-0.06634096 -0.03855477 0.037105612 0.2184724 0.0010109807 -0.17041172 0.31995016 0.020711247
-0.20483774 0.12395026 0.3187667 -0.07013682 -0.05051966 -0.20492277 -0.13341276 0.116368525
-0.06230292 0.082175545 0.25603577 0.05444948 -0.13583605 -0.1838293 -0.21526681 0.19764437
-0.0791948 -0.086595684 -0.16797157 -0.3313561 -0.21571681 -0.13829534 0.09881106 0.26652753
0.20049757 -0.13026567 -0.01770831 -0.2647792 -0.05512685 0.014924332 -0.053414058 0.019527413
0.06946421 -0.10263271 0.011809911 0.12878254 -0.31726506 0.27692962 -0.19475153 0.049777437
-0.08142525 0.17153847 -0.21926259 0.14929508 -0.07110499 -0.1256485 0.3234772 0.054930963
-0.18398835 -0.12320358 -0.3010173 -0.019437596 -0.03667009 -0.12099566 0.20551896 0.15677738
0.25936645 0.024026362 -0.49036303 -0.25990826 -0.074539475 -0.05278934 -0.08428342 -0.10643587

encoder.4.block.4.bias f4 [40]
00000000: 303b 06bc 6ea0 073b 975e a9bb 66d2 c7ba
00000010: f78a 33ba fb95 8139 3235 3bbc 371b 18bc
00000020: 4119 9d39 ce08 97b8 95c0 07bb 92dd 82bb
00000030: 15fc 92bb 4265 b23a 6498 d7bb 164e 48b9
00000040: 64d0 c9bb fad4 ff39 c675 3a3b d369 233c
00000050: 7202 f03b 6960 a4bb ba5c 9a3b a28d 80ba
00000060: 3a66 b8bb fed7 83bb 3575 6fbb 0574 5839
00000070: f786 acbb 5dcb 04bc ed33 e63a cdb3 b53b
00000080: 7bbe 21bb db24 5dbb 4eb1 03bc 4f27 8abb
00000090: 2328 bdbb cc21 cabb eca9 f93a 15ef d6ba
-0.008192822 0.0020694989 -0.0051687467 -0.0015245199 -0.00068490155 0.00024716542 -0.011426257 -0.009283832
0.0002996419 -7.201881e-05 -0.0020714153 -0.0039936984 -0.004485617 0.00136105 -0.0065794457 -0.00019102576
-0.0061588753 0.0004879607 0.0028451546 0.009973961 0.0073245103 -0.005016376 0.004710761 -0.0009807835
-0.0056274207 -0.004023551 -0.0036538367 0.00020642586 -0.0052651125 -0.008105126 0.0017563083 0.0055451156
-0.0024680186 -0.0033743891 -0.008037878 -0.0042161117 -0.005772607 -0.0061685797 0.0019047833 -0.0016398156

encoder.4.block.5.weight f4 [40]
00000000: 5d72 5e3f ab27 3f3f 7ec8 4a3f a29e 3f3f
00000010: 0c08 593f 9f64 5b3f 83c0 833f ea99 0f3f
00000020: 2904 543f b814 393f 0405 5f3f fa1f 6e3f
00000030: 8c79 493f c27a 333f 3b83 323f 8962 883f
00000040: 88b7 283f 1f6a 7a3f a509 6b3f 91a3 2f3f
00000050: 00cf 183f 30b7 663f 7344 503f 98c1 3e3f
00000060: 1b60 373f 64d8 203f ded3 703f 9448 703f
00000070: 986f 663f 6846 523f 3a64 643f 46da 273f
00000080: c274 0c3f 10c8 5a3f 9f18 6a3f 4e18 643f
00000090: ee85 5a3f 513d 583f 44de 263f ed69 423f
0.86893255 0.74669904 0.79212177 0.7485143 0.84777904 0.8570041 1.0293125 0.5609423
0.8281885 0.7229724 0.8711703 0.9301754 0.7870109 0.7010919 0.6973149 1.065507
0.65905046 0.9781818 0.9181159 0.6860896 0.59690857 0.9012327 0.81354445 0.7451415
0.7163102 0.62830186 0.94073284 0.93860745 0.9001403 0.8213868 0.89215434 0.65567434
0.5486566 0.8546152 0.9144382 0.89099586 0.8536061 0.8446856 0.651829 0.7594288

encoder.4.block.5.bias f4 [40]
00000000: 2332 97be 5ef3 ef3d 1d4a 3dbe ba45 163c
00000010: 1fc4 ef3c f71e 9bbd 3a2a 8ebe ab11 6abe
00000020: ee33 163e 0295 1fbe 8ac5 8c3d 2cff 2fbc
00000030: df96 76be 528a e83a f73b 353c 62e4 29be
00000040: 102d 2cbe db0e 0e3e 030c 483e 4006 583d
00000050: f227 353d 581d fc3c f6cf 993d 8f88 173d
00000060: 4a93 e3bd c99b 20be 08d2 f93d b445 1f3e
00000070: 1339 1ebe b8a4 a1bd 4946 82bd dd89 483d
00000080: 3ac5 d7bd ac75 13be 8073 9dbd bf51 8cbe
00000090: 2655 6bbe 999a 89bd 78a5 5e3d 2819 dfbd
-0.2953044 0.117163405 -0.18485303 0.009171898 0.029268323 -0.075742655 -0.2776659 -0.22858302
0.14668247 -0.15584186 0.06873615 -0.01074199 -0.2408099 0.0017741418 0.01106166 -0.16591027
-0.16814065 0.13872854 0.19535832 0.052740335 0.044227548 0.030775711 0.075103685 0.036995467
-0.111120775 -0.15684427 0.121982634 0.15553933 -0.1545146 -0.07892746 -0.06361062 0.0489596
-0.10535665 -0.14400357 -0.076880455 -0.27406117 -0.229817 -0.0671894 0.054357022 -0.1089347

encoder.4.block.5.running_mean f4 [40]
00000000: a055 a0be 4882 563f bd09 ffbe 70c5 c13c
00000010: bb1c 293f 0910 c4be fa70 1abf b05e 4dbf
00000020: 901f 4b3e 6a23 c7bc c6fe a33e 30a5 03be
00000030: cc8f ce3e d171 5e3f 00d1 f13e 860b b7be
00000040: 0f7f 08bf 7075 763e 43d8 713f 6df9 463c
00000050: f826 883e 27a3 5c3e 0022 1a3f 4290 0f3c
00000060: 941d a3be 87f4 bebe 5b20 a93e f366 503f
00000070: d42b e7bd b772 b6be 14c4 40be 324b de3e
00000080: 390d f2bd e27d 89be 9e7d 99be cfa4 32bf
00000090: cf60 69bd 5bd2 87be 1ea3 293f 5ba6 83be
-0.31315327 0.83792543 -0.49812117 0.023653716 0.66059464 -0.38293484 -0.6032864 -0.80222607
0.19836259 -0.024308879 0.32030314 -0.12855983 0.40344083 0.8689242 0.47229767 -0.3575098
-0.53318876 0.24068236 0.94470614 0.012144429 0.2659223 0.21546613 0.6020813 0.008762421
-0.31858504 -0.37295935 0.33032498 0.8140709 -0.112876564 -0.35634395 -0.18824798 0.43416744
-0.11818928 -0.26853853 -0.2997865 -0.6978273 -0.05697709 -0.26527676 0.6626452 -0.25712857

encoder.4.block.5.running_var f4 [40]
00000000: 1814 2340 22f8 8f40 c85c 3e40 ad2d e53f
00000010: 2588 3440 e55c 2840 748a d23f f58f 7540
00000020: 9988 bb3f d9d5 dc3f 8ffd 2240 472f fa3f
00000030: 8810 183f 05dd 9840 2c04 b240 8847 113f
00000040: 36d1 6840 202d 5f3f 93b5 9140 e821 df3f
00000050: 2685 cf3f b1ce 5740 4328 863f 82d0 2640
00000060: e27e 1940 0e56 203f a164 3740 5ad5 8340
00000070: fa25 d83f 0dc4 803f 5088 ad3f 1e08 9840
00000080: a8b4 903f 4461 393f d074 df3f bff9 7f40
00000090: 8420 4a3f 6439 a13f 9383 9640 b9a3 c33f
2.5481014 4.4990396 2.974413 1.7904564 2.8208096 2.6306698 1.6448503 3.8369114
1.4651061 1.7252761 2.546726 1.9545678 0.59400225 4.77698 5.5630093 0.56749773
3.6377692 0.8717823 4.553415 1.7432222 1.6212509 3.3719904 1.0481037 2.6064763
2.3983693 0.6263131 2.865517 4.119794 1.688659 1.005983 1.3557224 4.750991
1.1305132 0.7241404 1.7457523 3.9996183 0.78955865 1.2595639 4.7035613 1.5284339

encoder.5.block.1.weight f4 [40, 40, 3, 3]
00000000: 1453 bb3c d5d9 543d 9d5e 04bd d76b bdbd
00000010: c39b e33c c724 a53c f8dc c73d 5814 cfbc
00000020: 9367 bebb 71fd cf3b 57e1 13bd 1423 47bc
00000030: df48 e837 2ee5 d83d 9cd2 e73c e6d8 3bbd
00000040: e75a 823d e381 4bbd fa0a 273b 8d15 8b3d
00000050: be71 e1bc cd0e e8bd a31c 34be 5f53 9e3d
00000060: 2376 a6bd 2423 9a3d 235c fbbc 975b 7c3b
00000070: 5d60 5ebd 433d 9cbc 4813 843d 389e 5abd
00000080: 9e34 843d 5554 623b 2b75 da3a 228c bb3b
00000090: 5026 603d c915 613d 77c8 b8bc f3b5 863c
000000a0: 1d8c 94bc 59b1 553d f4c9 0e3c f067 00bc
000000b0: 1102 a73d 05fb a23c fb81 18bc 18ee 4c3d
000000c0: 4d4e 00be 4fc0 cdbd 06e5 4a3b 95d6 b6bc
000000d0: b823 753d 9d06 4ebd c550 0bbd 55af 6e3d
000000e0: 98e2 c03c 83ce 283d dba1 ecbd 4101 f8bc
000000f0: 82a5 e03c ef21 adbc 06fb 213c a116 9abd
00000100: c381 97bd d00a 503d 5d8a 7fbd fec2 aabd
00000110: 1aeb 353d 871d 85bd 63d1 7cbd ac3a e33b
00000120: a1bc 2fbd ad5e c8bc 2953 babc 3258 78bc
00000130: 578f 53bd f80f c3bc c9d3 2e3d 731f 91bd
00000140: d64b 273d 2ab0 d43c 5012 053c 394e 123d
00000150: 13f6 5d3c 6a25 a9bc dd24 3d3d 14a0 74bd
00000160: 84ec 163c 3605 893d a896 673b c7e0 44bc
00000170: e3ec 5eba 1299 da3b 400c dd3d ddc6 16bd
00000180: 9430 3a3d 2eb4 acbc a603 833d c5b2 11bd
00000190: 763b 523c 96f0 853b 771a 7f3b 1a8e cdbd
000001a0: cb61 683d eaea 94bd 137f ccbd 6cf9 13bd
000001b0: c8f0 0d3c 146f 25bd 59ce 353c 1a86 2f3d
000001c0: 0aa5 15be a628 ae3d 5159 f8bd d708 dd3d
000001d0: 29f6 ccbd 4c37 11bc 7cf1 683c 46ec 643d
000001e0: 5b0c cc3a 144f e93c af0b 0bbc b47e a93c
000001f0: 0646 ffbc fd8a c1bb ff59 88bd 737e d3bd
00000200: ded8 2dbd 2578 293d aded 2f3e c17f 16bd
00000210: d7ac 973b 1c4b 923d b38d 603d 2671 bf3b
00000220: f63b b5bd 6e8b e5ba 5fab a03c 3a62 ad3d
00000230: 0193 50bd e59d 66bc e8ca 6e3c c202 c7bc
00000240: e699 c6bd f0ac 69bd 4de9 ae3c 3a55 52bd
00000250: 49c4 43bd 9e74 5dbb 3bb6 e03b f2c0 3e3c
00000260: 2d82 863d a240 093c 1287 3b3d 76f2 2e3d
00000270: f64b 89bd 5396 fc3c 29c9 babc d5aa 563c
00000280: 8768 683c 927f cb3c 9033 44bd 0877 b43c
00000290: 66b8 183b eba3 873d 17bc a53d 2791 9bbd
000002a0: c9d1 1bbd fc47 863d c76e 49bd 48c0 283d
000002b0: 562e 85bd 1d39 eebc 857d 2d3d c9f6 60bc
000002c0: 49ce 60bd 3c61 ef3d 0eaf f2bc 3386 83bd
000002d0: 4e66 00bd 4ea3 ffbc bdcc 23bd 08a5 403c
000002e0: b460 d9bd 57e1 9abd a987 72bd 8643 e5bc
000002f0: 5214 73bd 9e52 9ebc 8140 e6bb 0ee3 263c
00000300: 6738 be3d 4f04 333e 9be1 803d 7ac5 2dbd
00000310: 2674 0b3c 9e9b 97bd 459c 683c 80be febc
00000320: be83 27bc ae6c 21bc b3c2 893e 785f 343c
00000330: 550e 903c 5702 8abd d9d2 01bd 5f1b 5cbd
00000340: 567d 1c3d 2f26 283c e914 39bd 86e5 e23d
00000350: 5dc7 83bd 41af 943c a276 0a3d 1b01 21bc
00000360: 6273 db3b 9d43 ec3b c8bb 4b3d d6ed f1bc
00000370: ce74 30bd 2fcc ffbc f2ce cd3c a8ab bbbd
00000380: e189 8b3d f451 373d 30b1 1cbd 3485 7abc
00000390: 905e d9bc ea01 733d 1797 0cbd 83c6 7dbd
000003a0: 58d9 52bd 82ce 3c3c e0d4 883c 117a d73c
000003b0: 3dae 2bbd bb2a b33c b0b0 2c3d b602 ea3c
000003c0: 7b9b 37bd 95f9 a3bd be0a 363d 19b0 8c3d
000003d0: cb6c ae3c c423 e93c 3651 643c 6588 073e
000003e0: 9506 8dbd 7431 7a3d 1711 913d cc3a a1bd
000003f0: b6b3 afbc c54d 6b3d 6810 07bc 878a 19bd
0.022866763 0.051965553 -0.032316793 -0.092490844 0.027784234 0.020159138 0.09758943 -0.025278255
-0.005810687 0.0063473512 -0.036103573 -0.012154359 2.7690488e-05 0.105905876 0.028298669 -0.045861147
0.063649945 -0.049684417 0.002548872 0.0679122 -0.027520057 -0.11330948 -0.17589049 0.077307455
-0.081280015 0.07526234 -0.030683583 0.003850674 -0.054291118 -0.01907218 0.0644899 -0.053373545
0.064553484 0.003453513 0.0016666999 0.0057234922 0.054724038 0.054952417 -0.022556527 0.016444182
-0.018133217 0.052171085 0.008715142 -0.007837281 0.08154691 0.019895086 -0.0093083335 0.05003175
-0.1252987 -0.100464456 0.0030959263 -0.022319118 0.059848517 -0.050299276 -0.034012575 0.05827268
0.023545548 0.04121257 -0.11554309 -0.030274035 0.02742267 -0.021134345 0.009886509 -0.07523847
-0.07397797 0.05079156 -0.062387813 -0.08337973 0.044413663 -0.064997725 -0.061723124 0.0069344845
-0.0429045 -0.024459207 -0.022744732 -0.015157746 -0.05165037 -0.023811325 0.042682443 -0.070860766
0.040843807 0.025962908 0.008122042 0.03571913 0.013547438 -0.020647723 0.046177734 -0.059722975
0.009211663 0.06690447 0.00353376 -0.012016482 -0.0008503927 0.0066710794 0.10793352 -0.036810745
0.045456484 -0.02108201 0.0639718 -0.03557088 0.012831559 0.004087518 0.0038925686 -0.10036869
0.056733888 -0.07271369 -0.09985175 -0.03612654 0.008663364 -0.040389135 0.01109656 0.0428525
-0.14613739 0.08503847 -0.12126411 0.10792702 -0.10007889 -0.008863281 0.014217731 0.05588939
0.0015567647 0.02848009 -0.008486672 0.0206903 -0.03116132 -0.0059064613 -0.066577904 -0.10326853
-0.04244315 0.041374344 0.1718051 -0.03674293 0.0046287584 0.07143232 0.054822635 0.0058423458
-0.08849327 -0.0017512867 0.019612966 0.08466001 -0.050921444 -0.014075731 0.014574744 -0.024293307
-0.096973225 -0.05704969 0.02135148 -0.05135081 -0.047794614 -0.0033791433 0.006857661 0.011642681
0.06567798 0.008377226 0.04578311 0.042711698 -0.067039415 0.030833399 -0.022800999 0.013102253
0.0141850775 0.024841104 -0.047900736 0.022029415 0.002330327 0.06623062 0.08092516 -0.07596045
-0.038041864 0.06556699 -0.04917791 0.041199 -0.065029785 -0.029079968 0.042356033 -0.013730713
-0.05488423 0.11688468 -0.029624488 -0.06422081 -0.031347565 -0.0312058 -0.039990176 0.0117580965
-0.10614148 -0.075625114 -0.059211407 -0.0279863 -0.05934555 -0.019326504 -0.0070267324 0.01018597
0.09288102 0.17482112 0.06293031 -0.042424656 0.008511579 -0.074027285 0.014197414 -0.031096697
-0.010224281 -0.009852571 0.26906356 0.01100909 0.017584959 -0.067387275 -0.03169522 -0.05373704
0.038205467 0.01026301 -0.045185957 0.11078934 -0.0643451 0.018149974 0.033804543 -0.009826924
0.0066971043 0.0072102086 0.04973963 -0.029532354 -0.043080144 -0.031225292 0.025123093 -0.091636
0.06813408 0.04475589 -0.038254917 -0.015290547 -0.026534349 0.059327997 -0.034323778 -0.061956894
-0.051476806 0.011523845 0.01670307 0.026303323 -0.041914213 0.021870961 0.04216069 0.028565746
-0.044826012 -0.08006588 0.04444384 0.068695255 0.02129211 0.028459437 0.013935378 0.13235624
-0.06886021 0.06108232 0.07083338 -0.07872543 -0.021447998 0.057447214 -0.008243658 -0.037485626

encoder.5.block.1.bias f4 [40]
00000000: 0f5e 4f39 a949 713b 1b85 9d3a ce1d 2e3b
00000010: 7cdf 1b3b 29dc b13a fe92 e43a cd66 de3a
00000020: e470 5338 3309 d73b d46a 7e3b 8a19 6d3b
00000030: 1488 b23a 7131 d3bb e1fb adb9 74ac 1b3b
00000040: df88 123b 8d70 c13b 1472 7d3b b36e 9c3b
00000050: cea4 433b 272d 8fba 2757 5cb9 a270 a33b
00000060: 9102 9c3a bc01 d63a f510 0e3b 85b9 c53a
00000070: 1808 e43a e8d1 383a 5df5 c639 bf5f 093a
00000080: 8493 c23a fdc2 1c3b f06a a43b c73d 803b
00000090: a6c5 a03b a1e3 293b 1a01 1e3a 2a41 f93a
0.00019776098 0.0036817587 0.0012017818 0.0026568058 0.002378433 0.0013569641 0.0017438827 0.0016967893
5.0411458e-05 0.006562376 0.0038820999 0.0036178553 0.0013620877 -0.006445103 -0.00033184796 0.0023753913
0.0022359414 0.0059033097 0.0038672732 0.0047739386 0.002985287 -0.0010923491 -0.00021013302 0.004987792
0.001190262 0.0016327421 0.0021677588 0.0015085196 0.0017397432 0.00070503214 0.00037948313 0.00052404025
0.0014844988 0.0023919933 0.0050176308 0.0039136144 0.004906374 0.002592303 0.0006027386 0.0019016613

encoder.5.block.2.weight f4 [40]
00000000: cdb2 703f dde4 913f 3592 813f 6a08 723f
00000010: 3b12 8f3f e5b8 823f 930b 6d3f cb30 6f3f
00000020: a828 5a3f 5949 a33f f10c 6a3f 9aff 753f
00000030: 6f45 823f 6ef7 493f 9ce6 653f 5765 903f
00000040: 4451 6b3f 5c18 5d3f fee6 633f 3679 983f
00000050: 7d6c 823f ace3 833f 8a6d 7e3f dcd2 8d3f
00000060: f4a2 853f 77bb 633f 0c9d 8b3f 0fd9 863f
00000070: b2e0 803f bac5 613f 34ed 883f 7980 493f
00000080: bd0a 6e3f 244b 5c3f 93e5 7d3f acfd 8d3f
00000090: e675 653f 2848 5b3f f324 593f cee8 883f
0.9402283 1.1397969 1.0122744 0.9454409 1.1177438 1.0212675 0.92595786 0.9343383
0.85218287 1.2756759 0.91425997 0.9609314 1.017744 0.7889317 0.89805007 1.1280926
0.91920877 0.86365294 0.8902434 1.1911991 1.0189358 1.0303855 0.99385893 1.1079974
1.0440354 0.88957924 1.0907302 1.0534991 1.0068572 0.8819233 1.0697389 0.7871166
0.92985135 0.86052155 0.9917843 1.109304 0.89633024 0.85656977 0.84822005 1.0696046

encoder.5.block.2.bias f4 [40]
00000000: 749f 7a3e 9b01 3d3e 8cf0 953d c9e1 b23d
00000010: f204 46bd d5e9 a73d da20 bb3d 308e cfbd
00000020: e035 0fbe abc2 2e3e f667 013e 1273 833e
00000030: 308c 69bd 06b7 71be b1fe 9a3d e3b0 b13e
00000040: 10da b83e 0060 a63e 2cdc 1e3e 2efb 893e
00000050: 8700 44bd 2cec f23c 2f4d 933e 7ce3 bb3d
00000060: d921 193c 934a 4c3e ae59 e83e 560c 523e
00000070: 5c28 8d3d a856 533d f75a 7b3e 8aa1 86be
00000080: 4c02 5c3e 645e be3d cd23 1b3e 0ac0 8c3d
00000090: 78e1 aa3e 4052 643e 66b3 5abd 3ad2 523e
0.24474889 0.18457644 0.07321271 0.08734471 -0.04834456 0.08198897 0.09137125 -0.10134542
-0.13985395 0.17066447 0.12637314 0.2567373 -0.05701846 -0.23604974 0.0756811 0.34705266
0.36103868 0.32495117 0.15513676 0.26949447 -0.047852065 0.029653631 0.28769824 0.091742486
0.009346449 0.19950323 0.4538092 0.20512518 0.068924636 0.051596314 0.24546419 -0.2629512
0.21485251 0.09295347 0.15150376 0.06872566 0.33375144 0.22297001 -0.053393744 0.20588008
