VQ-VAE/models/vqvae/model_49.pt (torch, 579012 bytes, 64 tensors)

encoder.0.weight f4 [40, 1, 4, 4]
000000 fc 23 02 3d 26 8d b6 3a 82 4f 1f bd af b2 85 bd
       0.0317726 0.0013927564 -0.038894184 -0.06528222
000010 55 31 55 bd d5 5b 8f bd 53 f0 0e be 6e 57 9a bd
       -0.052049 -0.069999374 -0.13958864 -0.07536207
000020 bf 9f 57 bd f2 3c 04 be ac 55 1c be f1 31 53 3d
       -0.05264258 -0.12913874 -0.15267056 0.0515613
000030 f3 ea 7b bc f3 d9 8f bd 9f 48 63 3d 2f b1 95 3d
       -0.0153758405 -0.070239924 0.05548918 0.07309186
000040 ee 51 29 3d a2 1f 70 3d d6 07 87 bd 5d d7 74 3d
       0.0413379 0.058623917 -0.065932915 0.0597757
000050 26 ed e8 3d 0e 7d 13 3e 48 24 21 bd aa 56 32 3d
       0.113733575 0.14403173 -0.03934124 0.04353968
000060 71 11 7a 3d 34 a5 ad 3d 6a 7d f1 bd c5 d0 98 bb
       0.06105179 0.084787756 -0.11791499 -0.004663559
000070 a2 82 67 3d 70 b2 98 3d 51 8b a3 bc 94 dc 99 3d
       0.056521066 0.07455909 -0.019963892 0.07512775
000080 70 f4 a3 3d f2 0c b2 3d 62 df cf 3d 0d 93 b2 3d
       0.08005607 0.08693875 0.10150029 0.08719454
000090 a8 6d bf 3c b1 44 81 3c da 73 66 3c ca 14 91 3d
       0.023367718 0.015779825 0.014065707 0.07084043
0000a0 81 0c ae 3d c6 35 8e 3d 2e 50 38 3d d9 51 46 3d
       0.08498479 0.0694385 0.04499834 0.0484179
0000b0 c7 c8 23 3d e9 ff 17 3d 5b 06 bf 3b 6a 7c ad bb
       0.039986398 0.03710929 0.005829615 -0.0052943723
0000c0 9e bb b5 3b 66 fc aa 3d 5c 11 ca 3d bf f4 40 3d
       0.0055460474 0.083489224 0.09866592 0.047108408
0000d0 37 76 af 3d 95 6f 99 3d e7 ce 33 bd 94 9d 8b bd
       0.085674696 0.07491986 -0.04389849 -0.06817165
0000e0 26 c7 da 3d 46 85 4a bc f4 d8 7b bd e7 80 74 3c
       0.10682516 -0.012360876 -0.0614862 0.014923311
0000f0 00 a6 c4 3d 45 a3 db 3c c6 53 5b 3d 21 4b 30 3d
       0.096019745 0.026811251 0.05354669 0.0430404
000100 16 73 e3 3c 15 ca 0c bb 8a 00 9c 3c 05 79 d1 3c
       0.027764838 -0.0021482755 0.019043226 0.025570402
000110 ea 1e 6d 3c bd 8b a5 bc be d6 e0 3d cc 60 62 3a
       0.0144727025 -0.020208234 0.10978459 0.00086356397
000120 d5 89 06 bd 7e 80 c0 bd 86 62 25 3d 30 89 a5 3d
       -0.03284629 -0.09399508 0.040377162 0.08082807
000130 41 3a 8a 3d 80 2d 56 bd 23 6c 01 3d 6f c1 0e 3e
       0.06749392 -0.052289486 0.031597268 0.13940977
000140 2f ff a6 bd c7 b5 09 bd 9f 99 38 bd 5a 64 b5 3c
       -0.08154141 -0.033620622 -0.04506838 0.022142578
000150 03 60 e5 bd 1c 59 84 bd a2 e5 05 be 59 aa c7 3c
       -0.111999534 -0.06462309 -0.13075879 0.02437322
000160 f4 c0 b9 bd 2b a1 8b bd 92 66 c7 bd 11 4c a5 3d
       -0.09070006 -0.0681785 -0.097363606 0.08071149
000170 97 78 9b bd b9 67 61 bd 5e a4 68 3d 08 55 84 bc
       -0.0759136 -0.05503056 0.056797378 -0.016153827
000180 d9 16 2f bb d1 dc 86 3d 05 70 31 bd 20 0b aa bc
       -0.00267165 0.06585086 -0.04331972 -0.020757258
000190 3d 2f a3 3d d9 38 ab 3c be 27 da bd 7b ac 65 bd
       0.07967994 0.02090113 -0.106521115 -0.056072693
0001a0 dd 6e 48 3d 0c 64 0c be 62 da 40 bd 66 29 92 bd
       0.048933852 -0.1371004 -0.047083266 -0.071368024
0001b0 72 42 41 bc 86 2a 56 bd df 5b 84 bc c4 d2 be bc
       -0.011795627 -0.052286647 -0.016157089 -0.02329386
0001c0 80 d0 d7 bb bd ea 76 bd 19 98 fa bd f5 04 b8 bd
       -0.0065861344 -0.060282458 -0.122360416 -0.089853205
0001d0 01 ff 21 bd 21 cb 46 bd 8d 50 ca bd 8d ef 68 3d
       -0.03954983 -0.048533563 -0.09878645 0.05686908
0001e0 a3 01 06 be a4 b6 85 bd 0c f4 2d bd 65 cd 22 bd
       -0.13086562 -0.065289766 -0.04246907 -0.03974666
0001f0 df 61 d8 bc b0 fe 84 3d 83 c6 93 bd 12 97 e5 bc
       -0.026413856 0.0649389 -0.072155975 -0.028026138
000200 bd f2 80 bc eb c3 fe bc b2 47 e1 37 d0 66 11 3d
       -0.015740747 -0.03109928 2.6855476e-05 0.03549844
000210 5e 93 a8 bd 2d 2c 91 3d d7 de ae 3d eb b0 c8 3c
       -0.08231233 0.07088504 0.08538597 0.024498424
000220 20 d0 83 3d a0 f6 f3 3d e7 f7 15 bd 0c 43 cc bc
       0.06436181 0.11912274 -0.03661337 -0.024934314
000230 60 63 f6 3d 2d 19 d7 3d 5f b6 6a bc ef e2 4a 3d
       0.12030673 0.10502849 -0.014325707 0.049532827
000240 9c 6d c6 3c 33 60 83 3d 89 9d 72 3d cf 27 23 3d
       0.024222188 0.06414833 0.05923227 0.039832886
000250 cf eb 3b bd 23 16 1e bd 7e 7d fb bd 75 73 87 bc
       -0.04587918 -0.03859533 -0.12279795 -0.016534546
000260 27 ed 03 be 5e 40 af bd 0b f7 de bd 65 75 d5 3c
       -0.12883435 -0.08557199 -0.108869635 0.026056955
000270 bd 85 5b 3c eb fd a7 3d 33 b1 67 3d 63 2c 4f 3d
       0.013398585 0.08202728 0.056565475 0.05057944
000280 8f 15 90 3d ba a6 05 3d 39 75 a2 bd f1 bb 7b bd
       0.07035362 0.032629706 -0.07932515 -0.06145853
000290 fd 97 80 3d 99 e0 67 3c cb b4 cc bc b5 3e 96 bd
       0.062789895 0.014152669 -0.024988553 -0.07336179
0002a0 f4 70 2e 3d c7 0e dc 3c d1 ba 1c bd e0 0c d3 bd
       0.04258819 0.026862515 -0.0382641 -0.1030519
0002b0 01 13 89 3d 9e 8f 46 3d 4a a6 32 bd 96 a4 8a bd
       0.06693078 0.048476808 -0.043615617 -0.067696735
0002c0 39 f8 80 bd 52 3a ee bc a9 d3 12 3c 09 f1 20 ba
       -0.06297345 -0.029080544 0.0089615965 -0.00061394327
0002d0 8c c6 5f 3c f8 ae 1a bd b4 3e cd bc 2f 47 a3 bd
       0.013658177 -0.03776452 -0.025054313 -0.079725616
0002e0 a9 11 52 bd 32 1a 4a be 37 52 3f be d7 07 41 bd
       -0.051286373 -0.19736555 -0.18683706 -0.047126617
0002f0 51 8d fb 3b 35 07 49 bd 79 27 86 3b 1b 83 4a bd
       0.0076767583 -0.04907914 0.004094061 -0.04944144
000300 21 b6 68 3c 09 25 96 3d e1 f4 8e 3d eb 9e 82 bc
       0.014203579 0.07331283 0.06980301 -0.015944919
000310 2a be 27 3c ff 70 60 bd 79 68 87 bd c9 8d c8 bd
       0.01023821 -0.05479526 -0.066117235 -0.09792668
000320 3b 3c 3e bd b0 34 dd bd 36 96 de bd 74 2b e0 bd
       -0.04644416 -0.10801065 -0.10868494 -0.10945788
000330 8b c9 45 bd 3a 42 37 bd c5 6c 8e bd e1 d1 cd bd
       -0.04828791 -0.044740893 -0.0695434 -0.10049797
000340 bd 71 99 bd 0c 83 58 bd da 96 96 3c 51 ea e9 3c
       -0.07492397 -0.05285935 0.018382479 0.028554114
000350 9a f1 8d bd f5 fd dc bd 0a be b6 bd 36 98 cc bc
       -0.069308475 -0.10790626 -0.08922966 -0.024974924
000360 9c 7d 4c 3d e7 a4 f7 3b 05 fe b8 bd ad d8 d9 bd
       0.049924478 0.0075574997 -0.090328254 -0.10637031
000370 b7 94 40 3d 93 8f a3 3d e6 7a 98 3c 0e b0 e4 bc
       0.047016826 0.07986369 0.01861329 -0.02791598
000380 35 5a f2 3c b5 1f d5 3b fc 23 b3 bb f9 2d 0b 3d
       0.02958403 0.006504024 -0.005466936 0.03397939
000390 c6 fa 5b 3d 86 5e 66 bd 2d 5c f1 bc 56 6f ff 3c
       0.053705953 -0.05624249 -0.029462898 0.031181019
0003a0 f9 4e 00 3d 1d a1 8c 3d 6e 1f 2d 3e e0 4c fd 3d
       0.031325314 0.068666674 0.1690652 0.12368178
0003b0 a9 53 be 3c 89 8f 83 3d 3a 7d b4 3d c1 8d 2d 3d
       0.023233252 0.064238615 0.088129476 0.042371515
0003c0 39 77 20 3d ff 75 a1 bd 3a d3 47 bd fa 9b 20 bc
       0.0391762 -0.07883834 -0.048785426 -0.009802813
0003d0 eb 22 84 bd 13 06 4f bd a4 43 a2 bd 72 8a 65 bd
       -0.064519726 -0.050542902 -0.07923058 -0.056040235
0003e0 d8 10 96 bd 6e 9d bb bd 62 9a 44 bd 1b a0 4e bd
       -0.073274314 -0.09160887 -0.047998793 -0.050445657
0003f0 6a 3e 52 3c 73 f9 2a bd cd 8f 9c bd ca b1 0f 3c
       0.0128322635 -0.0417418 -0.07644615 0.008770416

encoder.0.bias f4 [40]
000000 12 28 ca b9 0c f9 14 ba 4c 55 5b bb 31 f0 03 ba
       -0.00038558297 -0.0005682863 -0.003346759 -0.0005033045
000010 cf 96 a4 bb e2 14 95 b9 f1 09 0c 3b ab 8c 47 3a
       -0.0050228606 -0.00028435054 0.002136823 0.0007612209
000020 d6 30 6e bb 0e ce b9 3b 9d 8a 6c b7 fb 78 29 ba
       -0.0036345026 0.0056703156 -1.409897e-05 -0.0006464866
000030 ae a2 35 bb 48 7f 50 b9 85 5b b7 ba f2 1c 75 3b
       -0.0027715373 -0.00019883842 -0.0013989067 0.0037401286
000040 6b aa e8 ba 1b 5c f8 ba ff 43 24 b9 f1 f9 15 bb
       -0.0017750984 -0.0018948348 -0.0001566559 -0.0022884572
000050 4f 54 cb bb aa 5e df 39 0e e3 44 bb 0f ca 70 bb
       -0.0062051187 0.00042604405 -0.0030042562 -0.003674153
000060 f8 7f d7 3a 23 ae d0 3a 07 80 1b ba 78 47 42 3a
       0.0016441336 0.0015921037 -0.00059318583 0.00074111624
000070 22 be dc 3a 73 eb 58 ba 2e a1 80 3b 4a 09 8f 3b
       0.0016841332 -0.0008274831 0.003925464 0.004365121
000080 fb 20 e9 37 c1 75 b3 bb ac d7 9a 3b d8 9c b9 b9
       2.7791122e-05 -0.005476684 0.004725417 -0.00035402807
000090 46 e2 bc ba e5 53 96 bb 5e a4 58 bb c2 9c 27 ba
       -0.0014410696 -0.0045876377 -0.0033056955 -0.0006393903

encoder.1.weight f4 [40]
000000 72 20 4a 3f f4 70 2e 3f b7 e9 3e 3f 66 74 15 3f
       0.7895576 0.681411 0.7457537 0.58380735
000010 8a 9e 2d 3f a5 e5 68 3f 7f 50 41 3f a2 21 40 3f
       0.67820036 0.9097541 0.7551345 0.7505132
000020 cc 4a 2e 3f 39 b6 32 3f bf 21 4f 3f 60 57 3b 3f
       0.6808288 0.698093 0.8091087 0.731802
000030 b0 b6 5b 3f c0 70 46 3f d4 77 28 3f a6 e3 6d 3f
       0.85825634 0.7751579 0.65807843 0.9292549
000040 64 5e 41 3f 2a c3 5b 3f 5b 47 42 3f e9 6a 59 3f
       0.75534654 0.8584467 0.7589013 0.84928757
000050 47 e6 24 3f ec c6 4a 3f ba 7c 2d 3f 87 dc 31 3f
       0.64413875 0.7920978 0.6776844 0.69477123
000060 a7 19 0c 3f 59 b2 3d 3f 56 62 3c 3f 34 ea 0d 3f
       0.5472664 0.7410026 0.7358755 0.5543549
000070 7a 64 3a 3f b3 09 3e 3f 6f dd 4e 3f 41 ed 4c 3f
       0.72809565 0.7423355 0.8080663 0.8004952
000080 71 a2 4f 3f 3d d7 43 3f 8a b3 5e 3f 37 ae 26 3f
       0.8110724 0.765003 0.86992705 0.6510958
000090 e2 0e 61 3f c1 8a 75 3f ac c8 71 3f d1 ff 37 3f
       0.87913334 0.95914847 0.94446826 0.7187472

encoder.1.bias f4 [40]
000000 ad f9 60 bd 8a cf f6 bc 4d 1c e1 b9 68 3f ab 3c
       -0.05492561 -0.03012826 -0.0004293643 0.020904258
000010 ff cc 1f bb 5a 4d e3 bd 99 1c 1b be 87 96 28 be
       -0.0024383662 -0.11098738 -0.15147628 -0.16463672
000020 8c 85 82 3d f7 a2 62 3d 78 33 ed bd 96 c3 03 be
       0.06373128 0.055331197 -0.115820825 -0.12867579
000030 73 4e 47 be 67 31 11 be d0 dc 0d 3e f5 12 06 bd
       -0.1946352 -0.14179002 0.13853765 -0.032732923
000040 6d 35 96 bb c2 a9 e8 bd 63 29 f6 bd b9 4a 1f be
       -0.0045840056 -0.11360504 -0.12019613 -0.15555848
000050 9f 0b 07 bd d5 fd ba bd 59 27 5f 3e 8a 1f a8 bd
       -0.032970067 -0.09130446 0.21792354 -0.082091406
000060 29 42 a4 3d f4 a8 c9 bd f4 1a 3a 3e 92 01 1b 3e
       0.080204315 -0.098466784 0.18174344 0.15137318
000070 37 32 ba bd 53 76 c2 bc 4b ab 01 be d9 8c 4a be
       -0.09091609 -0.023738062 -0.12663 -0.19780292
000080 9d 58 0f be 93 b4 5f 3e 0f ca 9d bd bd cb 19 be
       -0.13998647 0.21846227 -0.07704555 -0.15019126
000090 88 4d 26 be 35 9b 65 be 2a cd 60 be 88 ba 9f bd
       -0.16240513 -0.22422488 -0.21953264 -0.0779925

encoder.1.running_mean f4 [40]
000000 85 e0 f3 3e 68 a3 bf be 75 06 0c bf 5d a8 b7 be
       0.47632232 -0.37429357 -0.5469735 -0.35870638
000010 b5 90 6d be 52 c1 f6 3e 19 b2 8a 3e 76 82 04 3f
       -0.23199733 0.48194367 0.27089003 0.5176157
000020 48 7f a7 be fa 93 03 3e 3e e4 b4 3d 2e 22 0e 3f
       -0.32714295 0.12849417 0.08832596 0.55520904
000030 6d 44 fa 3e 23 2c 92 3e fd 61 ec be b9 ee 01 3f
       0.4888033 0.285493 -0.4616851 0.50754887
000040 bf a5 90 be 85 6e 1c 3f 68 31 f1 3e 3a c8 b4 3e
       -0.28251454 0.6110614 0.47108006 0.3530901
000050 f1 9a 9d be f6 bf 5b 3e d9 c4 5f be 2f a2 98 3e
       -0.30782273 0.21459946 -0.21852435 0.29811236
000060 8f 61 e6 bd f3 42 0e 3e f3 5c 79 be 1a 1a d6 bd
       -0.112490766 0.13892727 -0.24351864 -0.10454197
000070 b8 d4 0c 3e 73 af 7b 3e 11 53 67 3e b2 12 88 3e
       0.13753021 0.24578647 0.22590281 0.26576763
000080 e6 e9 91 3e a1 57 86 be 71 02 b0 3e a4 2f 86 be
       0.28498763 -0.2623873 0.34376863 -0.26208222
000090 a6 49 09 3f 68 c7 f9 3e 3b d6 14 3f 30 7b 17 3e
       0.53628004 0.48784947 0.5813939 0.14793086

encoder.1.running_var f4 [40]
000000 6f 05 09 3e 48 1d 88 3d 41 7c f6 3d a5 8a 88 3d
       0.13380979 0.0664621 0.12035418 0.06667069
000010 4a 5f f8 3c 84 2d 02 3e 01 be 6e 3d 24 d7 e9 3d
       0.030318875 0.12712675 0.05828667 0.11417988
000020 2f a0 83 3d dd c7 06 3d 98 01 4d 3d 2e 3f 07 3e
       0.06427037 0.03290545 0.050050348 0.13207695
000030 8c 1f 0e 3e de ae 2d 3d 50 de c5 3d 81 16 da 3d
       0.13879222 0.042403094 0.09661543 0.106488235
000040 03 c5 7f 3d 76 e0 32 3e 7a ce ec 3d f3 c3 94 3d
       0.062443744 0.17468438 0.1156282 0.07263937
000050 1c fe 39 3d 71 49 2d 3d e6 af d0 3c 88 e2 86 3d
       0.045408353 0.042306367 0.0254745 0.06586176
000060 f8 e2 fb 3c ab 3e 5f 3d 5d d0 3d 3d bd 31 13 3d
       0.030747876 0.054503124 0.04634129 0.035936106
000070 2c 77 1e 3d 7a e2 4f 3d de 8a 4e 3d c2 0f 4c 3d
       0.03868787 0.050753094 0.050425403 0.049819715
000080 57 cb 4f 3d 15 e1 35 3d 0d a5 50 3d ff 7d 85 3d
       0.05073103 0.044404108 0.050938655 0.065181725
000090 86 1d 17 3e 41 78 e5 3d 36 50 15 3e e3 3e c1 3c
       0.14757356 0.11204577 0.1458138 0.023589557

encoder.3.weight f4 [40, 40, 4, 4]
000000 f4 49 aa bc 65 5e eb bb 7a e3 7a bc aa af af bc
       -0.020787217 -0.0071828836 -0.015313024 -0.021446068
000010 66 87 48 bd c7 f7 97 bd 1f 14 86 bc af 75 ed 3c
       -0.04895725 -0.07420307 -0.016367016 0.02898678
000020 ce de 9d ba 39 3b 74 3d 43 a3 c5 bc 93 29 3b 3d
       -0.001204455 0.05962679 -0.0241257 0.045693945
000030 13 d9 7f 3d 93 95 59 3d d4 e7 11 3b e4 63 14 bb
       0.062462877 0.05312116 0.0022263424 -0.0022642547
000040 7d 9f 93 bc 1e 2f 1d 3c bf d5 35 3d b3 eb df bb
       -0.018020386 0.009593753 0.044393297 -0.0068335175
000050 ee d1 24 bd fe f2 b0 bc 8c 07 17 3d d3 78 69 3d
       -0.040239267 -0.021600243 0.03687243 0.056999993
000060 e5 f1 7c bb fd 7c 40 3c 5c fd b9 3c 12 9f d0 3d
       -0.0038596329 0.0117485495 0.022703819 0.1018659
000070 ef 70 9a bb b2 a4 b6 bb fe de 35 3d 3d 2d 60 bc
       -0.0047131698 -0.0055738324 0.044402115 -0.013682661
000080 fa f5 ec bc 3f f8 94 bc 99 5f ab bc 3a c6 d7 bc
       -0.028925885 -0.01818478 -0.020919608 -0.026339639
000090 e4 d7 74 3c 37 35 56 bd e7 2c 83 bd 83 88 73 bc
       0.01494405 -0.052296843 -0.06405049 -0.01486409
0000a0 e3 f8 40 3d 99 1f e6 bb ba 71 a9 bd 8e e5 0d bd
       0.047112357 -0.0070228097 -0.08273645 -0.03464275
0000b0 02 f0 b5 3d f5 8b 63 bd 15 cf 82 bd 9c 4c cb bb
       0.088836685 -0.055553395 -0.06387154 -0.006204201
0000c0 12 60 24 3d ed 7e d1 bc 14 64 f3 bc a6 5c a4 3c
       0.040130682 -0.025573218 -0.029710807 0.02006371
0000d0 aa 2c e3 3c af ad 54 bd 47 c9 be bc 27 5f 05 ba
       0.027731258 -0.05192345 -0.023289336 -0.0005087726
0000e0 87 b4 f2 3c 8f a5 22 bd 98 c6 f3 3c 13 4f 9f 3c
       0.029627098 -0.03970867 0.029757783 0.019446885
0000f0 fe 3b 12 bc 3e 46 14 3d ea 89 4b 3b 9d 5e b6 bc
       -0.008925436 0.0361998 0.0031057545 -0.022261912
000100 72 67 6c 3d 76 21 e3 3c 5b 69 1a bd d3 5e c7 3a
       0.05771584 0.027725916 -0.03769813 0.0015210755
000110 0e b4 70 3d 91 17 6b 3d ee 4a e2 bc 18 09 1c bd
       0.058765464 0.05739552 -0.02762362 -0.03809461
000120 69 1d 33 bd 30 f2 d7 3d 91 d1 90 3c a8 3c 50 bc
       -0.04372922 0.105442405 0.017678054 -0.012709774
000130 64 72 4d bb 38 1b 71 3c 7e 8f 4b 3c 62 04 06 3c
       -0.00313487 0.014715962 0.012424348 0.008179756
000140 ad 08 e4 bc 3b c1 d2 3c a9 80 5b bc cf 3b 16 3d
       -0.027836168 0.025726905 -0.013397374 0.03667813
000150 a7 72 dd bd a6 41 c3 3c 39 d6 92 3d 5d db ae 3c
       -0.10812884 0.023835015 0.07169766 0.021344835
000160 49 99 44 bd 04 1b 04 3e c0 e7 cb bb 54 54 94 bd
       -0.047997747 0.1290093 -0.006222695 -0.07242647
000170 8c e1 19 3d 19 5e 10 3d 4f f1 d7 ba 7f 19 87 3c
       0.037568614 0.03524599 -0.0016475114 0.01649165
000180 1f 10 63 3c 2d 91 33 bc 5d b4 ee 3b 1a 79 2a 3d
       0.013858824 -0.010959906 0.0072846846 0.041619398
000190 4f c7 ba bc 14 a4 7b bd 08 61 89 3d 6c 8c 27 3d
       -0.022800116 -0.061435774 0.0670796 0.0409054
0001a0 b3 7a fb 3c e4 1c 70 3d 77 c4 7f 3c fa 78 0e bc
       0.030698156 0.058621302 0.015610806 -0.008695835
0001b0 c2 2a 47 bc 98 7b 4e 3d 53 9f 88 bb d7 d9 a6 3c
       -0.01215619 0.050410837 -0.0041693836 0.020367546
0001c0 98 60 9f 3c bf 29 e4 3c be 4f 6d 3d 56 07 92 bc
       0.01945524 0.027851937 0.057937376 -0.017825764
0001d0 c3 fb 0c bb 5b 1f 80 bc 68 42 3e 3d 63 0f 5f 3d
       -0.0021512366 -0.015639951 0.04645005 0.054458033
0001e0 61 eb 7e 3c 12 ee 24 bc 39 10 b2 bc d6 2d 2c bd
       0.015559048 -0.010066526 -0.021736251 -0.0420359
0001f0 bb 01 90 bd af 26 c6 3c 9b ac a3 3d 8b be 51 3b
       -0.0703158 0.024188368 0.07991906 0.0032004442
000200 f8 df 1d bc ba c2 8b bd 0b 18 74 bd 06 12 f2 3c
       -0.009635918 -0.068242505 -0.05959324 0.02954961
000210 4b 81 83 3d 78 fa 6a bd 96 3f 3c bc 56 f2 e1 3c
       0.06421145 -0.057367772 -0.011489769 0.027581375
000220 e4 9c 09 bd e5 ab ae bc 17 60 17 bc 60 9b 63 ba
       -0.03359689 -0.0213222 -0.009239218 -0.00086825155
000230 ff de 92 bc da 08 1b 3d 2c 22 71 bc 34 1a ad 3b
       -0.017928598 0.03785024 -0.01471762 0.0052826647
000240 27 bd 40 bb 00 e7 3d bd db 2d 58 bd 65 dc f2 3b
       -0.0029409619 -0.046362877 -0.052778106 0.007411527
000250 c1 83 81 3d 5b f0 2b 39 9f 3b 81 bd b8 88 9a bc
       0.06323958 0.0001639737 -0.063102 -0.01886402
000260 bb 12 85 3d c3 b7 09 3d 9a 02 b3 bb 71 1b a7 3d
       0.06497713 0.033622514 -0.0054629566 0.08159531
000270 54 87 b0 3c 6f 79 c6 3c 10 ab aa 3a b1 0a e9 bc
       0.021548904 0.024227826 0.0013020951 -0.02844748
000280 b4 e5 97 3c 51 52 a5 3c cd 0f 2a 3d 72 01 0e 3d
       0.018542148 0.020180853 0.041518975 0.034669347
000290 f5 f5 cf bc f3 3b e3 3d ab 89 ca 3c f7 9b 7a bc
       -0.025385836 0.11095419 0.024723848 -0.015295974
0002a0 66 1f d5 bd 84 59 c4 3c 1a 15 03 3e 1b b0 0c 3d
       -0.104063794 0.023968466 0.12801018 0.034347635
0002b0 87 4b d8 3c 0f 0b b9 3c 8a de 86 bc 8c 34 a7 3c
       0.026403202 0.022588281 -0.016463537 0.020410798
0002c0 26 bd 85 bd 13 a9 ca bb cf 24 1b 3d 5a 4b 8c 3d
       -0.06530218 -0.006184706 0.0378769 0.0685031
0002d0 4d 0f ce 3c 53 67 c8 bc 4c 28 15 bd 60 de f7 3c
       0.02515378 -0.024463331 -0.036415383 0.030257404
0002e0 78 6d cb bb e6 fa 92 bd 2c 2c 81 3d 60 96 37 bc
       -0.006208118 -0.07176761 0.06307253 -0.011205286
0002f0 a0 c5 26 3c 71 d2 4e bc 16 c1 ed 3c f4 e6 95 3d
       0.010178953 -0.012623415 0.029022735 0.073194414
000300 5c 7b 7e bd 06 68 6f 3c 3b 26 99 3c e6 64 29 bd
       -0.062129363 0.014612203 0.018694988 -0.04135599
000310 34 ec 10 bd fd 3e 08 bd 47 21 23 3d 82 1e 95 3c
       -0.03538151 -0.033263195 0.039826658 0.018203024
000320 8e 35 8e bd 32 7d 05 b9 8f 6e c5 bc 89 85 9a 3d
       -0.069438085 -0.00012730507 -0.02410057 0.07545001
000330 35 49 d3 ba a3 f3 5e 39 bf 0d c6 3c 1d 27 01 bd
       -0.001611984 0.00021262332 0.024176477 -0.031531442
000340 7f 36 c9 bc 9d 80 06 bd a5 b1 f7 3b a4 60 80 bc
       -0.024562119 -0.0328375 0.0075590187 -0.015671082
000350 1e 72 ed 3d f3 92 04 3e fa ff 4c bd a8 0f af bc
       0.11594032 0.12946682 -0.050048806 -0.02136977
000360 12 03 4f bd bd 28 f0 bc 99 72 0c 3c 7b 92 77 3d
       -0.050540037 -0.0293163 0.008572244 0.06044243
000370 6e 4f ca bb ca a9 31 bd 65 b0 c5 bb 5e d6 2e 3d
       -0.0061740195 -0.043374814 -0.0060329908 0.042684905
000380 0b cb 39 3d f2 58 7a bd 6e eb 0e bc ce 49 35 3d
       0.045359652 -0.06111998 -0.008723123 0.04425984
000390 0f c3 25 3d ed 4d 60 bd d5 c3 aa bc d4 c3 fa 3c
       0.040469225 -0.054761816 -0.020845333 0.030610956
0003a0 9e 5d 5d 3d 5e ee a3 bc b6 ab 32 bd 5c a1 ef 3c
       0.05404436 -0.020011123 -0.043620788 0.029251747
0003b0 7a 84 63 3d fd e3 00 3d dc f9 26 bd 90 ac a9 3c
       0.05554626 0.031467427 -0.04076563 0.020712167
0003c0 02 37 48 3c a3 18 3b bd 0f 2d 5c bc e0 43 e0 3c
       0.012220146 -0.045677792 -0.013438477 0.027376115
0003d0 92 15 03 bc 7b e8 a6 bd a0 6f bb 3c 0e 0d 7a 3c
       -0.008000748 -0.08149811 0.022880375 0.015261902
0003e0 a1 bd 77 3d f8 a0 a2 bc 34 30 77 bd 15 97 a2 3c
       0.06048358 -0.019852147 -0.060348704 0.019847432
0003f0 5d d1 6b 3c 4c dc fb bc 9a db d9 3c 83 a3 be bc
       0.014393178 -0.030744694 0.026593972 -0.023271328

encoder.3.bias f4 [40]
000000 e2 ef f9 3b d2 b2 9d 3d 3b 0f 02 3d de 88 5d bc
       0.007627473 0.07700123 0.031752806 -0.013521401
000010 16 48 c2 3d cd c8 8c 3c 92 01 2f 3e ca d3 4c bb
       0.094864056 0.017185593 0.17090443 -0.0031254166
000020 c0 77 8f bb ce f6 26 3b 44 df 2a 3d 40 e9 65 3d
       -0.004378289 0.0025476697 0.04171683 0.056130648
000030 35 63 2c 3c f1 92 d3 3c 02 88 36 3d 6a 0f 24 3d
       0.0105217 0.025826903 0.0445633 0.040053762
000040 1a 60 4b bc cf 27 5c bc fd 28 4e bb bf ac 90 bc
       -0.012413049 -0.0134372255 -0.0031457536 -0.017660497
000050 cf 56 79 3a 06 c9 dc 3b 86 af 0c 3e 83 7d 1d 3c
       0.00095115317 0.006737831 0.13738832 0.009612444
000060 03 59 f4 bc 15 c2 ba 3c 32 f5 41 3c 8c 63 85 3c
       -0.0298276 0.022797624 0.011838244 0.01628282
000070 5f ac aa 3d 19 ca b0 3c 9c e7 ee ba 9a ae 1e bc
       0.083336584 0.021580743 -0.0018226984 -0.009685183
000080 f3 1d 42 bd 5f 3e 94 bc 4a 7b b0 bc a9 75 1a bd
       -0.047391843 -0.018096147 -0.021543164 -0.037709866
000090 d3 bc e9 bc 94 c4 43 bd 00 d3 a3 3c 92 76 b8 bb
       -0.028532421 -0.047794893 0.019998074 -0.005629369

encoder.4.block.1.weight f4 [40, 40, 3, 3]
000000 a6 71 12 3d 4f 5e 97 bc 3b 0e 92 3d a5 68 6f bd
       0.035752915 -0.018477587 0.071316205 -0.058449406
000010 bf 5b b4 bd 51 30 52 bd 40 b2 31 bc 48 b2 96 bc
       -0.08806562 -0.05131561 -0.010845721 -0.018395558
000020 a2 41 2d 3d 79 3c fe bc ca 02 9c 3d 2c 6a 01 3e
       0.04229892 -0.031034695 0.076177195 0.12638158
000030 69 7c 8a 3c 46 66 07 be 08 1e b5 bd 0a da bf bc
       0.016905027 -0.13222608 -0.08843619 -0.023419399
000040 84 e3 95 3d 66 96 4e bc b6 06 28 3d 0c 59 aa bc
       0.07318786 -0.0126091 0.041022025 -0.020794414
000050 56 10 b1 3d 59 2f 1c 3d 0d bd 8f bc 52 33 b4 3d
       0.08645694 0.03813109 -0.017546201 0.08798851
000060 b5 73 b7 3d eb 74 31 3c 09 b5 53 3c 39 35 00 be
       0.08957616 0.010831098 0.01292158 -0.12520303
000070 94 5f d0 3d 47 a2 3a bd 77 65 14 bc b9 65 11 bd
       0.1017448 -0.045564916 -0.009057394 -0.0354974
000080 0e 95 61 bd 3d fe 36 3d 8d 39 6e be 97 07 03 bd
       -0.05507379 0.044676054 -0.23264141 -0.03198966
000090 e0 74 8b bd 71 9b 9b bc ad 48 f5 3c af 5d f4 3d
       -0.068094015 -0.018995019 0.029941881 0.11931931
0000a0 77 1f 34 3e 77 ab 75 bd a6 aa f9 3c c2 87 57 bc
       0.17590128 -0.059977975 0.03047688 -0.013154926
0000b0 ea dc c3 bc 20 82 a0 3c 1f c8 0c bd a1 92 82 3d
       -0.023909051 0.019593298 -0.034370538 0.063756235
0000c0 9d 25 8c 3d ae 80 f3 3c f2 15 0f bb 97 d1 92 3d
       0.06843112 0.029724445 -0.0021833149 0.07168882
0000d0 61 ca a1 3c 63 49 b7 3b d2 12 ed bc f5 67 57 3d
       0.019749822 0.005593465 -0.028939638 0.052589376
0000e0 7d 60 35 3c 05 4f 2d 3d d4 ed ca 3d d7 18 09 bc
       0.011070368 0.042311687 0.09908643 -0.008367739
0000f0 77 d5 10 bd eb 10 e8 3c b8 c7 66 3c 7c b4 7c bd
       -0.035359826 0.02832838 0.014085703 -0.06169556
000100 31 83 bb bc 6b e0 85 3d 42 38 24 bd 62 8d b2 3d
       -0.022889705 0.06536945 -0.040092714 0.08718373
000110 18 4a cf bc 07 b8 9f bb f4 31 10 bc 20 8f d2 bc
       -0.025303885 -0.0048742327 -0.008800972 -0.025703013
000120 f3 c2 23 bd c8 8c 0f bd 94 ac 07 bd 05 43 2a 3d
       -0.03998084 -0.03504637 -0.033123568 0.04156782
000130 ed b8 c1 3d 24 b1 a8 bc 66 4b ed bc 92 1b a1 bd
       0.094591 -0.02059228 -0.028966617 -0.07866587
000140 42 43 05 bd 55 7f 17 bd 14 b7 b9 3d 8b 0b 5f 3d
       -0.032534845 -0.036986668 0.090681225 0.054454368
000150 2e 71 fc bc 23 c4 ad 3d 0e b3 52 3d 7b cb ed 38
       -0.030815687 0.08484676 0.05144029 0.00011338942
000160 5d 8f 2a 3e ec 59 eb 3c 5e 5f 0f 3d ae b4 1a bd
       0.16656251 0.028729402 0.03500306 -0.037769966
000170 4e 24 be bc 1c 77 3a bd d5 b4 89 bd 81 dc 14 bd
       -0.02321067 -0.045523748 -0.06723944 -0.0363431
000180 48 e0 10 bd 6e 5f 92 bd 03 a1 81 bd 5c ed e8 bc
       -0.03537014 -0.07147108 -0.06329539 -0.028433494
000190 70 73 95 3d c9 c5 af bd 4b 29 46 3c ac e6 13 3d
       0.072974086 -0.085826464 0.012094806 0.036108658
0001a0 95 08 75 3d cc 45 b3 bc a0 3a 60 ba 6e e9 f0 bc
       0.059822638 -0.021883868 -0.00085536577 -0.029408183
0001b0 8a 5b 22 bc 6d c8 ab 3d 62 2f 39 bd a7 ba 81 bd
       -0.00990952 0.083878376 -0.045211203 -0.06334429
0001c0 3a 5d ab 3d b7 47 b9 3b 01 ee ac bd d7 05 58 bd
       0.08367391 0.005654301 -0.08443833 -0.052739944
0001d0 11 cc 74 bd e6 4a 0a 3d e3 f5 69 bd 87 97 a7 3b
       -0.059764925 0.033762835 -0.05711926 0.005114499
0001e0 d2 1d a0 bd b1 d3 18 be b1 d6 16 3e 6a 0f 51 bc
       -0.07818188 -0.14924504 0.14730336 -0.012760023
0001f0 bb 61 b0 bb 7e 66 52 bb d1 ce a0 bd 48 c5 60 3d
       -0.005382744 -0.0032104547 -0.07851947 0.054875642
000200 52 4f 95 3a db 28 4d 3e 8a 5f 4b be 42 1e fa bc
       0.0011391437 0.20035116 -0.19860664 -0.030532006
000210 6d fe 39 3d b4 cc 3b 3d 05 de 11 3c f3 45 62 bd
       0.045408655 0.045849517 0.008903031 -0.05524249
000220 b9 cf 17 3d ab 8f 63 3b ce 49 8d 3d a5 06 bf bc
       0.037063334 0.0034723084 0.06898843 -0.023318598
000230 e9 7d 03 3d ca 78 0a bb c7 ef b6 bc 9b 02 5b bc
       0.0321025 -0.0021129125 -0.022331132 -0.01336732
000240 21 a5 de bc 05 30 64 bd d0 45 b1 bd 92 5f a3 3d
       -0.027178349 -0.055709857 -0.08655894 0.07977213
000250 09 74 4e bd a1 af 03 3d aa 83 8b bd 85 5f 20 bd
       -0.05040363 0.032149915 -0.06812222 -0.039153595
000260 1f 89 84 3c 68 77 98 3d 26 5e 36 3d 5b 75 97 bd
       0.016178666 0.0744465 0.04452338 -0.07395431
000270 55 93 5d bd f9 0c ff 3d 5a 87 e6 3d 19 99 e9 bd
       -0.054095585 0.12453646 0.11256285 -0.11406154
000280 07 f9 0e be 3c c5 0a 3d 91 10 55 3d b2 85 78 bd
       -0.13962184 0.033879504 0.052017752 -0.060674377
000290 e3 7b 88 bd b5 cc b7 bb af 85 f6 3c 57 61 25 bd
       -0.066642545 -0.00560912 0.030093042 -0.040376034
0002a0 86 31 70 bc d4 1b e9 bb 96 86 72 3c 59 6f b4 3b
       -0.014660245 -0.007113913 0.014802596 0.0055064377
0002b0 f6 97 c2 3c 86 90 7b bd 3c 17 5e 3a c6 c6 ee bd
       0.023754101 -0.061417125 0.000847209 -0.11659007
0002c0 58 aa ba bd 43 0e 54 be e1 f1 b2 3b f1 dc 7a bd
       -0.09114522 -0.20708565 0.005460963 -0.061245862
0002d0 c9 b5 5f bd c4 a4 dd 3d 03 1f 9f bd 20 29 d2 ba
       -0.054616723 0.10822442 -0.07769587 -0.0016033985
0002e0 04 14 1e bd f4 20 50 bc c0 19 a3 be d6 a1 89 bd
       -0.038593307 -0.012703169 -0.31855583 -0.06720321
0002f0 d8 8b a7 3c a9 57 91 bd 5a b8 03 be f1 3b c9 bb
       0.020452425 -0.07096798 -0.12863293 -0.006141179
000300 0a ba 3e be 0d 99 bf bd 32 e5 00 3e ea 0f 22 be
       -0.18625656 -0.09355364 0.12587431 -0.15826383
000310 7d ec be 3d ff 82 9c bc 98 78 4d bc 31 86 61 3c
       0.0932245 -0.019105433 -0.012540959 0.013764904
000320 76 e1 a4 3c 9d eb 86 bd b3 13 0d 3e a4 3a 50 bc
       0.02012704 -0.065879084 0.13777046 -0.0127092935
000330 8e cb 12 bd 55 c8 b4 bd a2 f1 08 bd 99 c0 ef bb
       -0.035838656 -0.08827273 -0.033433564 -0.0073166606
000340 17 76 21 bd ea f9 3a 3c 42 39 d2 bd 84 66 2f be
       -0.03941926 0.011412123 -0.10264827 -0.1712895
000350 6f 6a 5a bc 04 70 7c 3d 99 8d 78 3d 2c 8a 81 3d
       -0.01333104 0.061630264 0.060681913 0.06325182
000360 72 52 a4 bc f8 7d 10 bd e5 19 e6 bc 9f 27 84 bd
       -0.020058844 -0.035276383 -0.02808852 -0.064528696
000370 e1 30 4a 3e 14 e1 e3 3d 70 28 bc 3d e0 f3 a4 bc
       0.19745208 0.111269146 0.091874 -0.02013582
000380 9d 51 a7 3c 36 0e df 3c 8b 7f b8 3b 19 8d b2 bc
       0.020424658 0.027228456 0.0056304387 -0.021795796
000390 5a 29 09 be 46 af 31 3e 35 8b e7 bc 5b fb 01 3d
       -0.1339468 0.17352018 -0.028264621 0.031733852
0003a0 15 d5 f8 3c 64 bc 9e ba 22 82 7c 3d 03 2c e0 3c
       0.030375043 -0.0012110588 0.06164754 0.027364736
0003b0 ec 9b f6 3c 96 e7 19 bc 78 80 48 bd 82 ae b1 bc
       0.030103646 -0.009393593 -0.048950642 -0.021689657
0003c0 fa d0 a3 3b c5 c0 30 bd cd bc d5 bc 4f e8 4d bb
       0.004999277 -0.04315259 -0.026091004 -0.0031418984
0003d0 33 74 eb bb a8 64 c2 3c 3f f0 12 3e c4 93 c0 bd
       -0.007185483 0.023729637 0.14349459 -0.09403184
0003e0 04 a7 14 bd 7c e4 01 3d 38 51 f2 bc 7a 09 7a bd
       -0.03629209 0.03171204 -0.029579744 -0.061044194
0003f0 98 49 f4 bc 24 25 08 3d c7 fd e7 3c 1d f7 6c 3c
       -0.029820248 0.033238545 0.028319253 0.014463213

encoder.4.block.1.bias f4 [40]
000000 ba 98 4a 3b 7f f8 a7 bb 8e af c5 b9 2a e4 47 3a
       0.0030913786 -0.0051260586 -0.00037705567 0.00076252467
000010 23 a2 cd b9 19 0e 3a 3b 15 23 c3 3a ba a8 42 39
       -0.00039221448 0.002838975 0.0014887775 0.00018564137
000020 c7 fc 2b 3a 8b b0 71 ba 49 db 98 3b 5e ea 0d 3c
       0.0006560799 -0.00092197274 0.0046648127 0.0086618345
000030 9c 77 52 b9 d8 96 02 3b a5 3f bc b9 ce 8d 98 3a
       -0.00020071719 0.0019926336 -0.00035905573 0.0011638941
000040 9d fc 11 bb 9c f5 bc ba f0 bf 1a 3a 4d b0 9d 3a
       -0.0022275813 -0.0014416459 0.00059032347 0.0012030691
000050 d5 12 ba b8 05 6c 06 36 21 43 54 ba c5 84 10 bb
       -8.872679e-05 2.0030432e-06 -0.0008097161 -0.0022051793
000060 05 5f 74 3b fa 41 21 ba af 0f a5 3a 95 18 a9 3b
       0.0037288081 -0.0006151494 0.0012593175 0.005160401
000070 74 97 c6 b9 28 cd 3e 3a 31 6f e7 3a 6a 7a ca 3a
       -0.00037878344 0.00072784955 0.0017657039 0.0015447859
000080 04 28 bf 3a 49 2b 12 3b 7d 86 f1 b9 db f2 9a 3b
       0.0014584069 0.0022303632 -0.00046067304 0.0047286577
000090 10 55 51 bb ac 55 b9 39 f2 c5 0c ba 9a ae 2f 3b
       -0.003194157 0.0003534978 -0.00053700723 0.0026806952

encoder.4.block.2.weight f4 [40]
000000 cd 2c 8d 3f 90 e5 84 3f 7b 69 7b 3f 84 f0 6d 3f
       1.1029297 1.0382557 0.98207825 0.9294512
000010 0c f6 70 3f 52 67 6f 3f c7 75 71 3f 30 3f 6e 3f
       0.9412544 0.9351703 0.9432034 0.93065166
000020 f0 40 5a 3f 91 1d 5b 3f c4 1a 7d 3f 70 94 88 3f
       0.85255337 0.8559199 0.98868966 1.06703
000030 cb f8 72 3f 56 1d 95 3f 32 b1 91 3f 6c 47 87 3f
       0.9491088 1.1649578 1.1382201 1.0568671
000040 36 e7 89 3f bc da 2f 3f 8f b6 6b 3f b6 5b 6f 3f
       1.0773685 0.6869314 0.9207544 0.93499315
000050 a1 9b 84 3f 9c 97 89 3f 6f f4 38 3f 45 57 84 3f
       1.0359994 1.0749393 0.72247976 1.0339133
000060 ac 8d 59 3f 57 45 67 3f 33 9d 8d 3f d7 12 89 3f
       0.849818 0.9034018 1.1063598 1.0708874
000070 53 99 81 3f bf 53 8f 3f 17 73 8d 3f fd 20 8e 3f
       1.0124916 1.1197432 1.1050748 1.1103817
000080 31 d5 80 3f 02 aa 94 3f 47 91 71 3f 19 10 88 3f
       1.0065061 1.1614382 0.943623 1.0629913
000090 c6 cf 74 3f c5 5a 44 3f a6 c1 9b 3f 9d 50 5c 3f
       0.9562954 0.76701003 1.2168472 0.86060506

encoder.4.block.2.bias f4 [40]
000000 d4 19 93 3e 5c 25 0a 3d d9 9f a4 bd 2e b4 a7 3e
       0.28730643 0.033727035 -0.08038301 0.32754654
000010 30 e8 93 3e 86 bb ca 3e 57 68 12 3e 73 91 9e 3d
       0.28888083 0.39596194 0.14297615 0.07742586
000020 36 9c f9 3d e5 a0 bd bd a4 7d dc 3d bd 17 b0 3e
       0.12187998 -0.09259204 0.107661515 0.3439311
000030 67 17 c3 3e b9 8f e3 3e 24 13 d9 3e 64 fb a3 bd
       0.38103792 0.4444559 0.42397416 -0.08006933
000040 39 58 96 3c 5d 82 a1 3d a5 34 50 3e 66 97 8b 3e
       0.018352615 0.07886193 0.20332582 0.27263945
000050 78 37 46 be 9d b3 a0 bd e7 bc 14 be 9b 52 10 be
       -0.19357097 -0.078467585 -0.14525186 -0.14094011
000060 68 e7 fc 3d 02 24 b7 bd a5 77 7a 3e 4e b7 09 3d
       0.12348825 -0.08942415 0.24459703 0.03362208
000070 e3 d2 06 be e6 fe 91 3c 42 c9 8c 3e 1f a3 82 3e
       -0.13166384 0.01782174 0.27497298 0.25515077
000080 33 2a 04 3d 38 ac a5 3e e0 aa 6b 3e 82 3d b4 bc
       0.032266807 0.32357955 0.23014402 -0.022001985
000090 57 ce b3 3c 51 38 c6 bd 30 e9 5b be 7d 27 01 3e
       0.021948976 -0.0967871 -0.21475673 0.1261272

encoder.4.block.2.running_mean f4 [40]
000000 f6 a0 9f 3e e3 d8 49 bf 1d 5c 38 bf 0c be 18 bf
       0.3117749 -0.7884657 -0.72015554 -0.5966499
000010 a0 47 39 3e 75 50 39 3f 74 b1 88 3e 77 11 8d be
       0.18093729 0.7238839 0.26697886 -0.27552387
000020 89 36 37 3e 22 ca a9 be 73 13 e5 3e 26 b5 1f 3e
       0.17891897 -0.33162028 0.447414 0.15596446
000030 c7 6b 87 3d d7 bd c6 3e 73 76 ae 3e 0e d4 48 bf
       0.06612354 0.3881671 0.34074745 -0.7844857
000040 51 e1 29 bf 08 37 6e bd 0f 11 12 3f 18 fe 00 3d
       -0.6635943 -0.05815795 0.5705728 0.031492323
000050 be 5c 24 3c 98 a3 44 bf 22 1a 79 be 29 28 b4 be
       0.010031877 -0.76812124 -0.24326375 -0.3518689
000060 4b 05 8d 3e 25 86 2d bf ac c0 3d 3f be 88 00 3f
       0.275431 -0.67782813 0.7412212 0.5020865
000070 cc d8 a6 3d b4 18 73 bf bd 0c 5e 3f 8a 15 21 3f
       0.081468195 -0.9495957 0.8673819 0.6292349
000080 0e 28 1c bf 68 06 81 bd 1d 12 a9 3e 3f ad 07 bf
       -0.6099862 -0.0630005 0.33021632 -0.5299873
000090 66 09 0e be eb bf 0e bf a9 8a be be 65 11 9e 3c
       -0.13870773 -0.55761594 -0.37215164 0.019295404

encoder.4.block.2.running_var f4 [40]
000000 c5 a8 00 3f b2 c5 6a 3f 1f ad 35 3f 68 26 18 3f
       0.5025752 0.9170791 0.70967287 0.59433603
000010 d3 c2 b6 3e 68 be 44 3f 22 49 ef 3e 76 f2 0f 3e
       0.35695514 0.76853037 0.46735483 0.14057335
000020 27 31 d0 3e d3 39 0c 3f 41 75 0b 3f 0a 03 cf 3e
       0.406625 0.5477573 0.5447579 0.40432006
000030 1d c6 af 3e e0 6a b1 3e 52 41 20 3f a6 37 35 3f
       0.34330836 0.34651852 0.6259967 0.7078804
000040 2f 59 d1 3e 27 b3 59 3e 7f e8 13 3f 23 9e 65 3e
       0.40888354 0.21259747 0.57776636 0.22423606
000050 95 fa 01 3e d3 f9 56 3f 1f f9 bf 3d ee af 20 3f
       0.12693246 0.8397495 0.09373688 0.6276845
000060 65 eb eb 3e 8a 62 19 3f 87 30 23 3f a4 47 d2 3e
       0.4607803 0.59915984 0.6374592 0.41070282
000070 1d 07 c4 3d dc 83 92 3f 7e f1 35 3f 58 d8 80 3f
       0.09571669 1.144649 0.7107161 1.0066023
000080 78 0a 47 3f f2 96 95 3e 1f 0a d5 3e 74 75 df 3e
       0.7775035 0.29216725 0.41609284 0.43644297
000090 7e 14 8c 3e f0 cf cc 3e de 08 00 3e 90 0f 9e 3e
       0.27359384 0.40002394 0.12503383 0.30871248

encoder.4.block.4.weight f4 [40, 40, 1, 1]
000000 17 b1 1f 3e 69 45 ca 3d 47 bd 8c 3e ff a4 1c 3e
       0.15594898 0.0987652 0.27488157 0.15297316
000010 24 d5 2e 3e 9b 63 6e be b0 ee c1 3d 45 cc 22 3d
       0.17073494 -0.23280184 0.09469354 0.039745588
000020 8a b1 a9 3d 1d e9 ec 3c ec 03 30 be 08 57 cc bd
       0.08285816 0.02891975 -0.17188996 -0.099775374
000030 62 0e be bd 2c 07 5c be d4 bf 16 be 1e 2c 7b 3c
       -0.09280087 -0.21487111 -0.14721614 0.015330343
000040 ad f4 77 3e 51 f7 6e 3d 95 71 57 bd 66 89 00 be
       0.2421443 0.058341328 -0.052598555 -0.12552413
000050 53 9a cc 3d c6 4f f5 3d 62 d8 b3 bc 6c 47 39 3e
       0.099903725 0.11978106 -0.021953765 0.18093652
000060 ce db 8f 3e 93 eb 77 3d 83 41 bf be fd 0a 5e be
       0.28097385 0.060527395 -0.3735467 -0.21683879
000070 c9 21 74 be 07 07 84 3c 1f 6b ba be 64 85 be 3d
       -0.23841013 0.016116632 -0.36409852 0.09302786
000080 75 8f bd 3d f1 85 82 be 87 87 a6 3d b8 31 d4 3c
       0.09255878 -0.25492814 0.081313185 0.025902614
000090 ca 73 2f bd 1d ec c5 3c 7e 85 c4 3e 7b 6c 60 3d
       -0.042835034 0.02416044 0.38383096 0.054790955
0000a0 f8 43 28 3e 97 9e 06 3c 58 51 a3 3e 1b 19 12 be
       0.16432178 0.008216522 0.31897998 -0.1426739
0000b0 a8 e1 12 3d bd 73 12 be d2 7c da 3b e4 22 18 ba
       0.035859734 -0.14301963 0.006667712 -0.0005803539
0000c0 1f 1a 10 3e 4d d0 c9 bc b8 24 0d 3d cf 93 31 3e
       0.14072464 -0.024635458 0.034458846 0.17341541
0000d0 f4 d0 44 3e 30 b9 2b 3e 3c a0 a1 3e ea 7b 89 be
       0.19220334 0.16769862 0.31567562 -0.2685235
0000e0 db 5f a8 bd de 70 1c 3e fc c2 e0 bc a8 a5 85 3d
       -0.08221408 0.1527743 -0.027436726 0.06525737
0000f0 87 83 af bc 09 b6 3c be 63 fc ea bc 6b de 91 bd
       -0.021425022 -0.18428816 -0.0286848 -0.07122501
000100 9a c3 d0 bc 60 18 88 3c f2 70 95 3d 0b 26 1a 3e
       -0.025483895 0.016613185 0.07296933 0.15053575
000110 14 41 5e bc fe 02 55 bd 4b 9f 28 3e cd f1 14 3e
       -0.0135653205 -0.052004807 0.16467015 0.14545365
000120 19 17 8e 3d 57 de bb 3e 5a c3 5c 3e 70 36 25 be
       0.06937999 0.3669307 0.21558896 -0.16134048
000130 4c 38 27 be f5 36 a3 bd 71 1b 51 be 07 93 cf bc
       -0.1633007 -0.079694666 -0.20420624 -0.025338663
000140 c3 57 07 be 57 35 98 3e 15 12 76 bd c5 a3 fb bd
       -0.13217072 0.29728195 -0.060075838 -0.12287096
000150 19 f5 b8 bd 0d 11 08 be a9 da d3 bd ec 3b fd bd
       -0.09031124 -0.13287754 -0.103444405 -0.12364945
000160 3f b9 2b 3c 14 15 10 3c 4a 81 8b 3d 41 d6 66 be
       0.010481178 0.008794088 0.06811769 -0.22542669
000170 75 1d 9a 3d 84 c2 16 be c1 8a 2c be 4c b6 36 3e
       0.0752515 -0.1472264 -0.16849805 0.17842978
000180 f5 cf 99 3d 40 9c ca bc af 2c 3f be 7a 9a 27 bd
       0.07510368 -0.024732709 -0.18669389 -0.040918805
000190 16 96 9e 3c 29 56 48 3e ff 47 82 3c 0f 79 0d 3d
       0.019358676 0.19564117 0.015903471 0.03453928
0001a0 5c 07 5b be f9 cc 13 3e f4 44 10 be a2 62 5d 3d
       -0.21389526 0.1443366 -0.14088804 0.05404914
0001b0 b6 86 3f be c5 09 02 3e 7b 52 03 be 30 ef 96 be
       -0.18703732 0.1269904 -0.12824433 -0.2947936
0001c0 3b b6 a9 bd c4 f4 87 be 20 77 79 3b 49 f4 01 3e
       -0.08286711 -0.2655393 0.0038065389 0.12690844
0001d0 c0 f8 02 bb a8 45 1a 3e 8a b7 01 3f ba 70 52 be
       -0.0019984692 0.15065634 0.50670683 -0.20550814
0001e0 57 26 4b bd ff ec 90 3e 55 e9 08 3e 0d 7f e6 3d
       -0.04959711 0.28305814 0.13370259 0.11254702
0001f0 6f f4 aa bd 54 95 87 3d 50 e3 ca bd 0e ed b1 be
       -0.08347403 0.06620279 -0.09906638 -0.3475117
000200 d5 10 4a be 24 1a cb bc ec 56 45 3d 94 28 60 be
       -0.19732983 -0.024792738 0.0481786 -0.2189048
000210 37 01 94 bc a0 ce b4 bc 59 ac 01 be 60 8f 5d be
       -0.018066986 -0.022071183 -0.12663402 -0.21636724
000220 70 01 3c bd 6b d9 85 3d f7 57 9f bd e3 15 f5 3d
       -0.04589981 0.0653561 -0.0778045 0.11967065
000230 75 53 6b 3e 8a b6 f3 3d d3 88 fa bb 67 1c 38 3e
       0.22981055 0.11900051 -0.0076457052 0.17979585
000240 12 58 1a be d7 c0 a8 bd 29 60 a5 bd 89 14 92 bd
       -0.15072659 -0.08239906 -0.08074982 -0.07132823
000250 f7 48 26 3e 55 67 6c bd 82 74 f5 bd 19 5f 9f 3c
       0.16238771 -0.057715733 -0.11985113 0.019454526
000260 5b a0 08 3e 43 48 1e be 88 1d c5 bb 43 57 4e 3e
       0.13342421 -0.15457253 -0.0060154833 0.20150475
000270 25 b9 28 3e 3c a3 fc bc 6a 4b d8 3e 6a 99 37 bd
       0.16476877 -0.030839555 0.42245036 -0.04482404
000280 92 a1 0d be a2 33 51 be ff fc 9e bc 80 79 28 bd
       -0.13831165 -0.20429853 -0.019407747 -0.041131496
000290 c0 1e 06 3d 76 5a 41 be 54 31 95 3e b3 94 22 be
       0.03274417 -0.18882164 0.29139197 -0.15877037
0002a0 e6 55 68 bd 6e eb 54 3e a8 50 33 bd e7 00 4e 3d
       -0.056722544 0.20792934 -0.04377809 0.05029383
0002b0 04 5d 6b 3e 57 a8 a4 3e 14 e2 21 3e 13 e8 63 3d
       0.22984701 0.32159683 0.15808898 0.055641245
0002c0 54 a9 14 be 44 3c d7 3d f0 44 e0 3d e5 2d 60 3e
       -0.14517719 0.10509542 0.10950649 0.21892507
0002d0 ba 61 5a 3e 61 9e a8 3c 5c 7b 68 be 78 10 c9 3d
       0.21326342 0.020583333 -0.22703308 0.09817594
0002e0 ac 69 02 bd 4b b3 07 be 65 9a cc bc d1 25 3d 3e
       -0.031839058 -0.13251989 -0.024975965 0.18471457
0002f0 38 c9 d8 3d 7b 89 33 be 0e 2f 62 3e 2b 5b 0f be
       0.105852544 -0.17532913 0.22088262 -0.13999622
000300 e6 15 c0 bd 15 1c 92 3d c1 74 6f 3e b1 a1 01 be
       -0.09379177 0.071342625 0.23384382 -0.12659337
000310 31 ab 89 bc 1f c8 ee bd a1 25 56 be a8 84 19 3e
       -0.016805263 -0.11659264 -0.20912792 0.1499201
000320 b5 9c 0b bd 6a 8b 68 bc 0e 20 5a 3e 5b 1d 5b bc
       -0.034084994 -0.014193395 0.2130129 -0.013373698
000330 6b 72 02 be 70 0d 8d be 3c a8 30 be 04 ba ca 3d
       -0.1273896 -0.27549314 -0.17251676 0.09898761
000340 e6 45 22 bd b2 5f e0 bc af fe af bd 4c 7e 8c be
       -0.03961744 -0.027389381 -0.08593499 -0.27440107
000350 b2 54 a0 be 3a b7 d1 bc cd a3 41 3d 22 1e 4e 3e
       -0.31314617 -0.025600065 0.047275353 0.20128682
000360 7b 3b 5c 3d 71 9c 84 3b 4f 83 6d bc 21 76 ca be
       0.053767662 0.0040469696 -0.014496638 -0.3954325
000370 3c e5 1b 3d 5c b2 5c 3d ef 6d ce bc 17 0e 83 3d
       0.03806041 0.053881034 -0.025198905 0.06399172
000380 52 ce 82 bc 11 e2 6c 3d 62 21 b0 3d 9e 94 43 3e
       -0.015967522 0.05783278 0.08600117 0.19099662
000390 40 27 d6 be a8 c1 39 3e 08 76 45 be 86 82 44 3e
       -0.4182682 0.1814028 -0.19283307 0.19190416
0003a0 45 d0 c0 3d c9 6a 03 3e 16 c4 aa be e8 89 00 3e
       0.09414724 0.12833704 -0.33352727 0.12552607
0003b0 79 e0 69 3c 7f 27 0c 3d 63 a1 e0 3e 21 f5 2b bd
       0.01427471 0.034217354 0.43873128 -0.04198182
0003c0 b7 46 37 be 60 41 12 be b4 52 98 be c2 14 91 bc
       -0.1789807 -0.14282751 -0.29750597 -0.017710093
0003d0 4a 75 8d 3c 91 ca 25 be d1 ad 38 3e c4 85 be 3d
       0.017267842 -0.16190554 0.18035056 0.093028575
0003e0 ad 57 8b 3e 96 22 fc 3c 5f db 05 bf b3 26 5f be
       0.2721533 0.03077821 -0.5228786 -0.21792106
0003f0 6f 3d bd bd ab d7 66 bd f2 61 b4 bd b1 da 53 bd
       -0.09240233 -0.05635802 -0.08807744 -0.051722232

encoder.4.block.4.bias f4 [40]
000000 9a 38 06 bc 17 37 05 3b 59 3c aa bb a6 a8 da ba
       -0.008192206 0.0020327026 -0.0051951823 -0.0016682341
000010 b0 72 24 ba 03 c7 60 39 e1 37 3b bc 92 24 18 bc
       -0.0006273193 0.00021436442 -0.011426897 -0.009286063
000020 57 82 d5 39 9c d3 f5 b8 35 eb 0c bb 05 09 82 bb
       0.00040723637 -0.00011721926 -0.00215025 -0.0039683604
000030 18 9d 93 bb f9 1f b3 3a 80 53 d8 bb cf ef 47 39
       -0.004504811 0.0013666145 -0.006601751 0.00019067455
000040 51 4f c9 bb fc ef 25 3a 17 ba 34 3b fb a3 22 3c
       -0.0061434885 0.0006330011 0.0027576739 0.009926791
000050 25 98 ee 3b ad 9d a1 bb 6f 63 96 3b d4 8f 88 ba
       0.0072813206 -0.0049321265 0.00458949 -0.0010418841
000060 54 74 ba bb 4b 16 87 bb 8f 24 6c bb 98 6b b9 38
       -0.005690137 -0.0041225306 -0.0036032533 8.841528e-05
000070 df f4 ab bb 4f 49 01 bc 7c de de 3a fd 29 b5 3b
       -0.005247697 -0.007891013 0.0017003561 0.005528687
000080 64 6a 1b bb b7 fd 53 bb 07 51 04 bc ff 51 8a bb
       -0.0023714537 -0.003234727 -0.008075959 -0.0042212005
000090 c9 db c2 bb 41 f4 d1 bb 1a fb f8 3a 04 f2 f5 ba
       -0.0059466106 -0.006407291 0.0018995733 -0.0018764143

encoder.4.block.5.weight f4 [40]
000000 4c 3f 4f 3f 8d 00 29 3f d2 ac 3c 3f a3 b0 26 3f
       0.8095596 0.66016465 0.737012 0.65113276
000010 f8 ea 4e 3f 91 05 2b 3f e8 bd 80 3f a0 7b 0e 3f
       0.80827284 0.6680537 1.0057955 0.55657387
000020 23 5e 48 3f e2 f8 31 3f 04 f8 60 3f 6e 07 6a 3f
       0.7826864 0.6952039 0.8787844 0.91417587
000030 7a 06 4a 3f ce 25 2b 3f f3 ec 21 3f 87 2a 9d 3f
       0.7891613 0.6685456 0.6325218 1.2278603
000040 cc f6 12 3f 2e 16 75 3f bb e2 6c 3f cf 0d 17 3f
       0.5740783 0.9573697 0.92533463 0.59005445
000050 66 13 ff 3e 68 6b 78 3f 86 2f 65 3f 20 6e 37 3f
       0.49819487 0.9703889 0.8952564 0.7165241
000060 fb ce 27 3f bd 8b 12 3f f5 1b 69 3f bf ae 64 3f
       0.655502 0.57244474 0.91058284 0.8932914
000070 77 fc 37 3f 83 9a 41 3f 4c 3e 5a 3f cd 75 13 3f
       0.71869606 0.7562639 0.8525131 0.57601625
000080 ce ab 0c 3f 80 ad 4c 3f 4d b0 6a 3f 50 56 56 3f
       0.54949653 0.7995224 0.91675264 0.8372545
000090 26 a5 56 3f 00 24 36 3f f1 05 06 3f 76 b1 29 3f
       0.83845747 0.7114868 0.52352816 0.6628641

encoder.4.block.5.bias f4 [40]
000000 2a bd bd be 65 29 cb 3d e0 e0 87 be ad 63 09 be
       -0.37058383 0.09920005 -0.26538754 -0.1341693
000010 00 f9 37 3d a5 f4 25 be 9e a5 82 be 58 5a 7c be
       0.0449152 -0.16206606 -0.2551698 -0.24643838
000020 61 84 09 3e 84 ec 7b be 0e eb c2 3d 73 91 b5 bd
       0.13429405 -0.24601942 0.095174894 -0.08865633
000030 bd 43 93 be a9 d3 9f 3c a5 f7 64 bd ac bf 87 be
       -0.28762618 0.019510107 -0.055900235 -0.26513422
000040 55 17 73 be e6 3d 7a 3d 96 73 24 3e a9 0d a0 bd
       -0.23739369 0.061094187 0.16059718 -0.078151055
000050 b1 4e 71 bd e1 26 b9 3d 6e ff 74 3d 72 b7 6d bd
       -0.058912937 0.09040619 0.05981391 -0.058036275
000060 9c 66 64 be ea 52 05 be 4f 90 eb 3d 8d 46 9f 3d
       -0.22304767 -0.1301991 0.11502134 0.07777128
000070 81 76 22 be ad 6d e0 bd d6 5f 4b be 7e ef 4f bd
       -0.15865518 -0.10958419 -0.19860777 -0.050765507
000080 e1 d2 ff bd 86 8c 6a be df f4 9e bd 2d 09 9f be
       -0.12491394 -0.22905168 -0.07761549 -0.31061688
000090 04 e0 83 be 7e 23 18 be 33 32 00 3d d3 08 3f be
       -0.25756848 -0.14857289 0.031297874 -0.1865571

encoder.4.block.5.running_mean f4 [40]
000000 e5 51 d1 bd fb ae 3d 3f ec b0 28 bf 66 24 ad bc
       -0.10220698 0.74095124 -0.6589496 -0.02113552
000010 33 36 cf 3e 78 d6 8d be 75 a4 53 bf ce 2a 44 bf
       0.40471038 -0.2770269 -0.82672817 -0.76627815
000020 9b 35 79 3d 0c f4 82 be 77 82 c8 3e 63 c6 3c 3e
       0.060842138 -0.25576818 0.39162037 0.18435054
000030 f4 72 99 3e ce 89 1d 3f 6d b2 e6 be f9 3b 95 be
       0.29970515 0.615384 -0.45058003 -0.29147318
000040 69 54 5b be 32 51 e5 3e ff 6e 76 3f a0 d1 00 3f
       -0.21418919 0.4478851 0.96263117 0.5031986
000050 92 e3 44 3e a3 33 26 3f 43 06 d6 3e 6a 11 dd 3d
       0.19227436 0.6492254 0.41801652 0.10794337
000060 c7 2f 9a bd 2d 7a d1 be a2 36 bb 3e b5 a9 06 3f
       -0.07528644 -0.40913525 0.3656512 0.526027
000070 7a a0 b4 be 5b d4 f8 be 46 e1 11 bf cc 60 f0 3d
       -0.35278684 -0.48599514 -0.56984365 0.117372125
000080 1f 13 ee 3c 7c c8 96 be d9 6f c5 be 6d 63 0f bf
       0.029061852 -0.29449832 -0.38561895 -0.56011087
000090 29 ce 62 be 51 d7 08 be 71 72 0e 3f 28 74 45 be
       -0.22148956 -0.13363387 0.55643374 -0.19282591

encoder.4.block.5.running_var f4 [40]
000000 8a 4a 43 40 7a e5 8a 40 a2 84 97 40 18 fb 31 40
       3.0514245 4.3405123 4.7349405 2.7809505
000010 e6 90 fa 3f e8 d1 23 40 0a 62 f4 3f 6c b8 d7 40
       1.957547 2.5596867 1.9092419 6.7412624
000020 5f 42 96 3f 10 84 da 3f df a8 54 40 c0 f2 d1 3f
       1.1739005 1.7071552 3.322807 1.6402206
000030 7e e0 09 3f ed 22 7b 40 56 2b cb 40 28 c8 08 3f
       0.5385817 3.9240067 6.34904 0.53430414
000040 b8 f7 94 3f 8f 07 de 3f a2 66 72 40 c4 8b bf 3f
       1.1638098 1.7346057 3.7875142 1.4964528
000050 8c 51 e0 3f 03 8e 99 40 78 4b 25 3f 0e 9e 57 40
       1.7524886 4.7985854 0.6456828 3.369022
000060 c1 9f 39 40 33 64 fc 3e 4e d4 62 40 2a 9c d9 40
       2.9003756 0.49295196 3.544208 6.800313
000070 94 1f f5 3f 1f ff 95 3f 2b 32 20 40 26 bc d6 40
       1.9150262 1.1718482 2.503062 6.7104673
000080 94 9b b9 3f 0c d9 96 3f 03 89 83 40 23 2b 36 40
       1.4500604 1.1784987 4.110475 2.8463829
000090 20 43 91 3f 44 bf 73 3f c4 e7 b6 40 0e a0 ca 3f
       1.134861 0.95213723 5.7157917 1.5830095
