VQ-VAE/models/vqvae/model_56.pt (torch, 579012 bytes, 64 tensors)

encoder.0.weight f4 [40, 1, 4, 4]
00000000: 0159 f93c a78c 2bba 77eb 17bd aab0 8cbd
00000010: 373a 39bd f8d0 a4bd 5209 11be 7fe7 abbd
00000020: 992b 3dbd 90f7 fcbd 564e 32be 28c9 3c3d
00000030: f761 9fbc 7912 8bbd 2a92 6b3d b209 8e3d
00000040: 2dde 153d 3952 4e3d 609a 76bd 75dc 803d
00000050: 8fbd e13d 6b13 183e cb52 31bd 7e71 533d
00000060: ca15 743d a5be aa3d c75b 00be 57b5 ccbb
00000070: 0c26 653d f34b a03d 2a00 a5bc f093 993d
00000080: 5918 a73d f1e0 af3d 44a9 d43d a65c ba3d
00000090: b287 c63c a235 413c 9e58 423c bdfe 933d
000000a0: 6035 ac3d 5cf5 883d 20e7 353d deaf 593d
000000b0: a79f 233d aea9 233d 6552 db3b 24c5 71bb
000000c0: 6006 42bb 87a7 9c3d 38f4 cc3d a78b 643d
000000d0: f8d8 af3d ac7b a13d 3d15 2cbd ebe7 89bd
000000e0: eb1f de3d e412 cdbc 4696 82bd da62 7a3c
000000f0: 859c c63d 17bc d93c 1062 663d 33de 363d
00000100: e2b3 e53c 4763 f9bb 7f89 ad3c 7e45 9e3c
00000110: 57eb 803c 8f89 b9bc f0d9 e23d 330d b03b
00000120: 8c72 03bd e855 d4bd e462 3a3d f67e a03d
00000130: abda 873d 0ef9 5abd cdf4 e33c 06ed 0b3e
00000140: 917b a6bd 9df0 16bd 721a 22bd c926 ab3c
00000150: 9491 ebbd be8c 87bd 44f5 0bbe ef9d df3c
00000160: 727c b6bd 1596 94bd 8273 d4bd 0562 aa3d
00000170: 707c 9dbd 16ed 60bd ec40 4d3d b124 f3bb
00000180: 9cdc f7bb 35b9 8a3d 81ab 2bbd 4846 b2bc
00000190: 6e35 a43d 91ba 803c 3fb0 e3bd 7baf 5bbd
000001a0: 9123 5c3d e1d9 12be 2e24 54bd d513 93bd
000001b0: a3b8 acbb de33 63bd 0af0 aebc 0872 b1bc
000001c0: 4426 bdb8 c182 7bbd 53bb e2bd 4a85 c5bd
000001d0: e6fd 36bd 4be0 49bd 6cee d5bd 19f4 8a3d
000001e0: 1e17 09be 45c6 6ebd 6349 76bd 4162 0fbd
000001f0: 8e68 b6bc 3f58 933d 0052 88bd dcad e8bc
00000200: b946 7ebc 9298 19bd e4e5 4c3b f9ff 0f3d
00000210: 3eea b2bd 9d18 9c3d 08f7 ba3d 8be7 d63c
00000220: 1f38 763d 8b63 f53d c15f 21bd 2bb3 fdbc
00000230: 8bcf f13d 8178 db3d 19a7 37bc 482e 363d
00000240: d346 c53c ed9b 8f3d 3f6e 643d 5ec7 143d
00000250: fa45 4fbd 9634 28bd ead5 efbd 7dff 74bc
00000260: 8785 02be 52b8 c8bd 4a56 eabd 45c6 d93c
00000270: e13c 8a3c fa12 a63d 7cd0 833d eea1 413d
00000280: e9a0 923d 40ff 053d 6d35 a5bd 2cfd 72bd
00000290: 4acd 833d cba5 9a3c cea9 d5bc e0db 9dbd
000002a0: c25c 393d ea91 e83c 029d 10bd 7866 d6bd
000002b0: 17e9 8a3d fdb9 463d 4904 48bd 62e5 88bd
000002c0: fe47 83bd 21ce f9bc d0bd 593c 6f59 0fbb
000002d0: 540a 6c3c 1865 4ebd 7cfe 1abd ef02 abbd
000002e0: ba1c 6cbd cd44 46be 4613 43be 878f 26bd
000002f0: e851 2f3c 3378 46bd a372 9d3b 9d79 57bd
00000300: 2972 483c 7e13 9e3d 9f1a 8a3d 0e85 09bc
00000310: 8478 c53b bcc6 5abd b284 8cbd 128f d7bd
00000320: f0f2 63bd a0e7 fbbd d1fa e5bd dfec fabd
00000330: 49f8 05bd 2534 26bd 89a1 90bd faac d2bd
00000340: 2f62 8fbd c813 69bd 4e6e be3c d8b4 fe3c
00000350: 021c 92bd 60b9 dfbd 8493 bcbd 8df1 b1bc
00000360: 1c76 3f3d 8ace 973c e40d c2bd d464 dbbd
00000370: 61f1 373d 571a af3d 57f8 d03c dea0 00bd
00000380: 8c94 ee3c f7e2 a63b 492f aebb dd68 213d
00000390: 0183 553d b3cc 75bd 97db 0cbd 35a9 e13c
000003a0: 5d69 d53c 6b22 8e3d 1285 2b3e f965 083e
000003b0: 4fb7 9b3c 874f 873d c16e b93d b23f 2d3d
000003c0: 0ea3 323d 37d7 9abd e8c8 62bd 26c9 15bc
000003d0: c180 8ebd c70e 46bd b9ed 8bbd cdf4 59bd
000003e0: ec3e 97bd 1118 babd 5259 43bd 8fce 4fbd
000003f0: 0a12 853c 5a02 31bd 95f7 a4bd 9b09 343c
0.030437948 -0.0006544091 -0.03708979 -0.068696335 -0.045221534 -0.0804767 -0.14163712 -0.08393764
-0.046184156 -0.12351906 -0.17412695 0.046090275 -0.019455893 -0.06790633 0.05751244 0.06935443
0.036588836 0.050371382 -0.060205817 0.06292049 0.110224836 0.14851157 -0.04329185 0.051621906
0.059591092 0.08337144 -0.1253501 -0.0062472033 0.055944487 0.07826986 -0.02014168 0.0749892
0.08158941 0.08587826 0.10383847 0.090997025 0.024234626 0.011792572 0.011861948 0.07226322
0.08408618 0.066874236 0.04440987 0.053146236 0.03994718 0.03995674 0.006693172 -0.0036891187
-0.002960585 0.07649141 0.100075185 0.055797245 0.085863054 0.07884917 -0.042012442 -0.06733688
0.108459316 -0.025033422 -0.06376319 0.015282357 0.096978225 0.026578946 0.056245863 0.0446455
0.028039876 -0.0076107117 0.021183727 0.019320246 0.015737219 -0.0226486 0.110767245 0.005372667
-0.032091662 -0.10367948 0.045504466 0.07836716 0.066335045 -0.053460173 0.027826691 0.13664636
-0.08129037 -0.03685056 -0.039576 0.020892518 -0.11502376 -0.06618641 -0.1366778 0.027296988
-0.08910455 -0.072551884 -0.10373594 0.08319477 -0.0768975 -0.054913603 0.050110742 -0.0074201454
-0.0075641405 0.06773607 -0.041911606 -0.021762028 0.080180034 0.015713962 -0.11117601 -0.053634148
0.053744856 -0.14340927 -0.051792316 -0.07181517 -0.005271034 -0.055469386 -0.021354694 -0.02166082
-9.01935e-05 -0.061403994 -0.110708855 -0.096445635 -0.04467573 -0.049286168 -0.10445866 0.06784839
-0.13387725 -0.058294553 -0.06012858 -0.03500581 -0.022266652 0.07194566 -0.06656265 -0.028403215
-0.015519791 -0.037499018 0.0031264955 0.035156224 -0.087360844 0.07621882 0.09129149 0.026233455
0.060112115 0.11981877 -0.03939796 -0.030969223 0.11807164 0.10716344 -0.011209273 0.04447773
0.024081623 0.07012162 0.0557692 0.036322944 -0.050603844 -0.041065775 -0.11710723 -0.014953491
-0.12746249 -0.09800781 -0.114422396 0.0265838 0.016874732 0.08109088 0.064362496 0.04727357
0.071595974 0.03271413 -0.08066831 -0.059323475 0.0643564 0.018877884 -0.026081946 -0.077079535
0.045254476 0.02838989 -0.035305984 -0.10468763 0.067827396 0.048517216 -0.04883221 -0.06684376
-0.06410216 -0.030493798 0.013289884 -0.0021873375 0.014406759 -0.05038938 -0.03784035 -0.08350169
-0.057644583 -0.19362183 -0.19050321 -0.040664222 0.01070068 -0.048454475 0.0048049255 -0.052606214
0.012234249 0.077185616 0.06743359 -0.008393539 0.0060263295 -0.053412184 -0.06861247 -0.10525335
-0.055651605 -0.12300038 -0.1122948 -0.12252211 -0.032707486 -0.040577073 -0.070620604 -0.10286899
-0.07001149 -0.05690363 0.023245957 0.031092092 -0.07134248 -0.10924029 -0.09207824 -0.021721626
0.046743497 0.018531103 -0.09475306 -0.10712591 0.04490793 0.08549946 0.025509043 -0.031403415
0.029123567 0.0050929743 -0.0053156954 0.039406646 0.05212689 -0.06000967 -0.034389105 0.027546505
0.026051218 0.069401585 0.16749981 0.1332015 0.019008307 0.066069655 0.09054328 0.042297073
0.043612532 -0.0756058 -0.05536738 -0.009142196 -0.069581516 -0.048353937 -0.068324514 -0.053211976
-0.07385048 -0.090866216 -0.047692604 -0.0507341 0.016243953 -0.043215133 -0.08055035 0.010988618

encoder.0.bias f4 [40]
00000000: 8f62 04ba cc40 9fba 7849 82bb 1925 f0b8
00000010: 8f05 a1bb 29df a3ba d4a5 5a3b f0f2 2a3a
00000020: 5469 7bbb 5269 9c3b 7e36 59ba be85 1bba
00000030: 5145 5fbb e5cf 84ba f9fc bcba 21f3 463b
00000040: 90d9 7fba 4ffe f8ba 343b 86b9 d7a9 4bbb
00000050: b628 b3bb a2aa 763a f81d 51bb 2964 6fbb
00000060: 4985 683a 3b3d 043b f88f 13bb f15f c439
00000070: ece5 7b3a f463 17ba 2d44 b83b 284f 343b
00000080: e698 ff3a f613 c0bb f5a7 ac3b 4168 00ba
00000090: e4aa a0ba 5f54 d4bb 2398 29bb 90f1 b1b9
-0.0005050087 -0.0012150048 -0.0039760433 -0.00011451002 -0.0049139927 -0.001250242 0.0033363001 0.0006521186
-0.003836234 0.0047732973 -0.0008286013 -0.000593271 -0.0034068415 -0.0010132758 -0.0014418653 0.0030357318
-0.00097598974 -0.0018996688 -0.0002560258 -0.0031076574 -0.0054674996 0.00094095815 -0.0031908732 -0.0036528206
0.00088699587 0.0020178098 -0.0022516232 0.00037455515 0.0009609151 -0.0005775087 0.0056233616 0.0027513
0.0019500523 -0.0058617545 0.0052690455 -0.00048983475 -0.0012257961 -0.0064797844 -0.0025878034 -0.0003394005

encoder.1.weight f4 [40]
00000000: 8852 433f 52c6 223f 2268 363f 252c 0c3f
00000010: 6a5c 263f 9b74 653f c375 3c3f 6e04 3e3f
00000020: 4438 263f cf66 2d3f f486 4a3f 8251 373f
00000030: 1074 583f acee 423f e2ea 1d3f b877 683f
00000040: 7423 3a3f 9d9b 563f 3509 3d3f edb1 543f
00000050: 4c94 1a3f a538 473f 4300 253f 901e 2a3f
00000060: eff4 003f d2ba 353f 538c 363f 6beb 013f
00000070: 95e5 353f 8bef 343f 6c5c 4b3f e3b9 4a3f
00000080: eace 4b3f cb49 3e3f 8e5d 5b3f aa9b 203f
00000090: bbde 5c3f cfed 733f e8c3 6e3f ba4a 333f
0.7629781 0.6358386 0.71252644 0.5475486 0.6498476 0.8963105 0.7361719 0.7422551
0.64929605 0.67735 0.7911217 0.71608746 0.845521 0.76145434 0.6168653 0.90807676
0.7271035 0.838312 0.73842174 0.83083993 0.60382533 0.7782081 0.64453524 0.66452885
0.5037374 0.7098819 0.7130787 0.50749844 0.7105344 0.70678014 0.794379 0.7918989
0.796126 0.7433135 0.8568963 0.62737525 0.8627736 0.9528474 0.9326768 0.700359

encoder.1.bias f4 [40]
00000000: 5a15 85bd 1fab c6bc 2c1d d1bb e31f 5c3c
00000010: fb20 613c 344e edbd 2c1f 27be e98e 34be
00000020: fb7f 933d bf67 543d aea7 08be 9d4f 09be
00000030: 58b1 49be 01a0 18be d750 183e 8157 cdbc
00000040: d331 80ba 9bb3 00be d1e6 ffbd a771 28be
00000050: ba59 e3bc ebc4 cfbd 429b 513e 3e85 aabd
00000060: d815 803d 8db1 dfbd a5f9 2e3e d948 0c3e
00000070: 5fba cabd 6e42 e3bc 82c4 0dbe 382c 56be
00000080: 33af 15be 2e35 5a3e 2500 b3bd c598 1cbe
00000090: 04a0 33be 9198 6ebe d1ef 6ebe 7d53 adbd
-0.06498213 -0.024251519 -0.0063816514 0.013435337 0.013740773 -0.11587182 -0.16320485 -0.17632641
0.07202145 0.051856752 -0.13345215 -0.13409276 -0.19696558 -0.14904787 0.14874588 -0.02506614
-0.0009780474 -0.12568514 -0.124951966 -0.16449605 -0.027752746 -0.10144981 0.20469382 -0.08326195
0.06254166 -0.10922537 0.1708742 0.13699664 -0.09898829 -0.027741637 -0.13844493 -0.20915306
-0.14617614 0.21309349 -0.08740262 -0.15292652 -0.1754151 -0.23300387 -0.2333367 -0.0846319

encoder.1.running_mean f4 [40]
00000000: b3be 003f cfed bcbe 9367 0dbf 43c7 b4be
00000010: 15b3 5fbe 7a43 fb3e acd8 913e 0cd9 013f
00000020: acbe a4be 7b88 0a3e 4bd4 aa3d 4a3b 133f
00000030: 11e3 023f 4991 8c3e 63a7 e9be ede1 fe3e
00000040: b2f4 8ebe 0e05 1d3f 39b3 ec3e 19ed b33e
00000050: acb8 9fbe e889 5e3e e041 64be 3f37 9d3e
00000060: 4d9b d1bd e6b1 093e 32fe 78be 0eb4 d4bd
00000070: e4dd 093e c4cf 6e3e 7b99 6f3e 7fdd 843e
00000080: d078 943e f3d1 7dbe c32a b43e 6082 8dbe
00000090: 9812 0b3f 30f1 fd3e 2151 1e3f 249e 0e3e
0.50290984 -0.36900184 -0.55236167 -0.35308275 -0.21845658 0.49074918 0.2848562 0.5072181
-0.3217672 0.13528626 0.08341273 0.5751234 0.51127726 0.27454594 -0.45635518 0.49781743
-0.27921063 0.6133584 0.46230486 0.3514183 -0.3119558 0.21732295 -0.22290754 0.30706212
-0.102346994 0.13446769 -0.24315718 -0.10385905 0.13463551 0.23321444 0.23398392 0.25950238
0.28998423 -0.2478712 0.35188875 -0.2763853 0.54325247 0.49598074 0.6184254 0.13927513

encoder.1.running_var f4 [40]
00000000: 30f9 143e 136b 833d 2330 f93d fd51 833d
00000010: bb88 e93c 9a8f 083e ed36 7f3d 91c8 e33d
00000020: 743a 833d 9a31 0f3d ee80 543d 71a8 103e
00000030: b8f1 193e 74ac 273d 8c5b c53d f48d d23d
00000040: 5a10 7d3d 3802 353e af60 eb3d d422 963d
00000050: 20b7 3d3d a517 333d 4597 d93c 5c1c 8e3d
00000060: 23d4 e93c 2c0f 633d 41bc 3d3d 06b0 153d
00000070: 1fc4 1c3d 6c16 443d fa0a 573d 86d3 493d
00000080: 061b 5a3d 5667 303d 9ce8 593d 391e 8f3d
00000090: 6a5b 1b3e 9893 f23d b633 2a3e 9bd5 ba3c
0.14548182 0.06416907 0.121673845 0.064121224 0.028507581 0.1333603 0.06230824 0.111222394
0.064076334 0.034959413 0.05188077 0.14126755 0.15033615 0.04093595 0.09636602 0.10280982
0.061783172 0.17676628 0.1149305 0.07330862 0.04631722 0.04372372 0.026561389 0.06939003
0.028543537 0.05543439 0.04632211 0.036544822 0.038272973 0.047872946 0.052500702 0.04927399
0.053248428 0.0430673 0.05320035 0.069881864 0.1517159 0.118445575 0.16621289 0.022806933

encoder.3.weight f4 [40, 40, 4, 4]
00000000: 5996 98bc 5f17 1abc 76d8 85bc b971 babc
00000010: 069a 58bd c5e9 abbd c24b 76bc 84e1 073d
00000020: fc98 45bb 30bc 463d 8c54 90bc 0bbb 543d
00000030: 32fb 7e3d f580 6b3d 312f 873b de3d ac3a
00000040: 2c00 85bc a976 713c 2306 293d 8c15 16ba
00000050: 84a3 32bd 1ff8 ddbc 2780 063d c5b2 463d
00000060: 93d2 d0bb 3a18 053c 4eb2 b63c 9922 d43d
00000070: 3360 5cbb 5c22 03bc 62b9 1c3d 4b21 22bc
00000080: 0516 e1bc 6a8a 8dbc 3269 69bc 3d11 bebc
00000090: 4cbd 933c 31a8 52bd 8944 85bd 0523 47bc
000000a0: dc44 423d b4b8 35bc 900d aebd 3c33 11bd
000000b0: 0bf8 ad3d 2a7b 83bd 1d26 93bd 1915 58bc
000000c0: 6170 153d 0463 b0bc cb2b e3bc 7abd 963c
000000d0: e3ef 0e3d 8257 68bd 27f8 75bc dbc0 f5bb
000000e0: bfe3 083d 021f 0dbd 4d41 d23c ded6 ad3c
000000f0: 1aaa 2cbc 4577 f03c 68c4 2d3c ff80 6ebc
00000100: 456a 7b3d bd9c bf3c 8d52 3bbd a1c8 883a
00000110: 5e29 623d de95 843d dc0b 13bd f355 21bd
00000120: 99c1 00bd 0ee6 ff3d 08c0 913c 004a 80bc
00000130: 6624 b2bb 07b8 be3c 350c 1d3c c8b0 5d3b
00000140: b54b a7bc b70b a93c 70f6 83bc 4b23 2d3d
00000150: 833b f8bd 66e5 9c3c e38a 943d 644d e43c
00000160: 3be2 7abd e07a 003e ef5c 2f3b d74d 7fbd
00000170: 908c d13c d38d e53c ae24 3c3c dd10 b93c
00000180: cb71 2c3c 8ccd 19bc 7be1 873c 9919 083d
00000190: 506b 07bd 80b8 63bd a2ae ab3d 11d1 273d
000001a0: 3ea8 193d 0629 973d a36b 643c ed22 97bc
000001b0: 4f9c 4dbc 371e 5c3d 33c1 8ebc 7b7a 763c
000001c0: eec3 4a3c 6c83 df3c 3609 743d 6002 47bc
000001d0: 2bce 19bb 749d 8abc f48a 4b3d 9ecc 6e3d
000001e0: 165a e83c 26bf e7bb 0749 8dbc 0d31 16bd
000001f0: 11a9 a3bd d8c1 d53c 940a b63d bfc3 333c
00000200: 4d61 27bc a4ca 84bd 8cee 6abd c595 f43c
00000210: 78e5 8b3d 0fe1 88bd a284 afbc 7195 ed3c
00000220: d70d 02bd bc1f f2bc d3e7 93bc 3d65 bbba
00000230: cdc0 98bc 8c79 0e3d 6057 92bc be78 b83b
00000240: 5cf0 94bb 9862 27bd 9cde 86bd f37d 693c
00000250: 8e26 9d3d c3bc 07bb 44c4 75bd f2b4 d0bc
00000260: 3443 893d 32c1 f23c 62a1 c8bb f212 b13d
00000270: 810a c43c 7cce 003d 40af cb3a 545b 06bd
00000280: ae1c b13c 15c8 913c ac60 ac3c 68f3 383d
00000290: 5f2f d4bc 34c6 d53d fb83 dc3c 7920 25bc
000002a0: 4879 e9bd a3d4 953c b2d1 053e 3066 513d
000002b0: 69af ab3c 57d8 a43c 91ef d1bc 483e d83b
000002c0: 732d 92bd 6901 7fb7 0fc5 333d f303 8b3d
000002d0: dbef f73c 2353 b9bc 9ed3 24bd 9c1d 0d3d
000002e0: 90c1 29bc 9941 98bd 43ee 8e3d 2e4b d6bb
000002f0: 9c25 9d3c 1a7a 82bc 565a 043d d58f 993d
00000300: abcd 62bd 86a0 2b3c ea4c b43c d2de 22bd
00000310: fa9b e0bc 9375 ddbc d4ba 013d 2217 613c
00000320: 22e2 a2bd e329 773c b217 c8bc 039a a43d
00000330: 7eaa 07bc b19f 37bc 1efd c23c 620c 22bd
00000340: 2c48 6dbc 1590 2dbd f511 5a3c 43bb 8cbb
00000350: aacf 053e e37b 0d3e f499 4fbd a2fa 5abc
00000360: 7163 6cbd 86c4 0cbd 1c00 813c 551f 833d
00000370: 0dcb 11bb aaa5 48bd d263 04bc e20f 103d
00000380: 6275 4a3d 3f61 72bd ddcb a1bc 3769 353d
00000390: cd2b 1f3d 8a9a 5bbd 2b19 ccbc 6293 113d
000003a0: 710d 5e3d bab7 b2bc 7d2c 53bd ff26 eb3c
000003b0: 2a69 7c3d 4710 f33c 8f2e 22bd 8d0c c83c
000003c0: bd1f d63b dd3a 26bd 0138 7ebc 39ed e43c
000003d0: 4271 cdbb 816c b5bd b4fc a23c 56ae ba3c
000003e0: 0776 533d d648 bfbc 4423 60bd 3e85 d43c
000003f0: 8cf7 bb3b 056f fcbc b948 bb3c 88d7 89bc
-0.018626379 -0.009404986 -0.016338568 -0.022759305 -0.052881263 -0.083941974 -0.0150327105 0.033174053
-0.0030151 0.048519313 -0.01761844 0.05193619 0.062251277 0.05749603 0.0041254987 0.0013140996
-0.016235434 0.014737763 0.041265618 -0.00057252566 -0.043612972 -0.027095852 0.03283706 0.04851033
-0.0063727587 0.008123452 0.02230182 0.103581615 -0.0033626675 -0.008003797 0.038262732 -0.009895633
-0.02747632 -0.017277915 -0.014246272 -0.02320158 0.0180346 -0.05142993 -0.06507213 -0.012154345
0.04742895 -0.0110914 -0.084986806 -0.03544925 0.08494576 -0.06419976 -0.07185004 -0.013188624
0.036484126 -0.02153159 -0.027730843 0.018400896 0.034896743 -0.05672408 -0.015012777 -0.007499797
0.03342032 -0.0344534 0.025665903 0.02122062 -0.010538602 0.029353747 0.010605909 -0.014557122
0.061380643 0.023390168 -0.045733023 0.0010435769 0.055215232 0.064738974 -0.03589998 -0.03938861
-0.03143463 0.12495051 0.017791763 -0.015660286 -0.005436468 0.02328111 0.00958543 0.0033827294
-0.020421842 0.020635469 -0.016108721 0.042269986 -0.12120726 0.019152354 0.07253053 0.027868934
-0.061250906 0.12546873 0.0026758274 -0.062330093 0.02557972 0.028021729 0.0114833545 0.022591049
0.010525177 -0.009387385 0.01658701 0.033227537 -0.033061326 -0.055595875 0.08382918 0.040970866
0.037513964 0.073808715 0.013941678 -0.018449271 -0.012549474 0.053739753 -0.017426109 0.01504385
0.012375815 0.027284347 0.059579097 -0.012146562 -0.0023468833 -0.016920783 0.049693063 0.058300607
0.028363269 -0.007072347 -0.017246736 -0.036667872 -0.07991231 0.026093408 0.08888736 0.0109719625
-0.010216069 -0.06483963 -0.057356402 0.029856572 0.06830877 -0.066835515 -0.021425549 0.029001923
-0.03175148 -0.029556148 -0.018054878 -0.0014297139 -0.018646622 0.034783885 -0.01786393 0.005629628
-0.0045452546 -0.04086551 -0.06585428 0.01425122 0.07673369 -0.0020711876 -0.060001627 -0.025476906
0.06702271 0.029633138 -0.006122754 0.08646192 0.02393079 0.03144692 0.00155399 -0.03280194
0.02162012 0.017795602 0.02104219 0.045154005 -0.025901495 0.10438195 0.026918402 -0.010078543
-0.11400086 0.01828987 0.13068274 0.051122844 0.020957666 0.02012269 -0.02562693 0.0065992214
-0.07137575 -1.5199513e-05 0.0438891 0.06787863 0.03026574 -0.02262265 -0.040240876 0.034452066
-0.01036109 -0.07434387 0.069790386 -0.006539724 0.019182973 -0.015927363 0.032312714 0.07498137
-0.05537192 0.0104752835 0.022009332 -0.03976328 -0.027418125 -0.027033603 0.031672314 0.013738425
-0.07953288 0.01508567 -0.024425361 0.08037188 -0.008280395 -0.011207507 0.023802336 -0.03956259
-0.014482539 -0.042373735 0.013309945 -0.0042947843 0.13067499 0.1381679 -0.05068393 -0.01336542
-0.057712022 -0.034367107 0.015747122 0.064024605 -0.0022246272 -0.048986115 -0.00808044 0.035171397
0.04942835 -0.059174772 -0.01975053 0.044289794 0.03886013 -0.053614177 -0.024914345 0.035540946
0.054212037 -0.021816123 -0.0515561 0.028705118 0.06162373 0.029670848 -0.039595183 0.024420047
0.006534545 -0.04058348 -0.015516282 0.027945148 -0.006269605 -0.08858586 0.019895889 0.022788208
0.05162623 -0.02335016 -0.054721132 0.025942441 0.005736297 -0.030814657 0.022861825 -0.016826406

encoder.3.bias f4 [40]
00000000: 27ad de3b 2640 af3d 1349 1f3d 7d4f 73bc
00000010: 8cb3 d93d 9b94 e63c 57ff 3d3e 8577 90b8
00000020: 74e7 01bb 7294 2b3b 3fec 493d a83a 7e3d
00000030: a28f 4a3c 70c5 ef3c 163a 503d 2d9e 4d3d
00000040: 1a60 4bbc c305 25bc 3d7a 76bb b777 8abc
00000050: cfbf 8a3a 185c 133c eadf 0f3e 331f 4c3c
00000060: 935e f3bc cb8c 143d 904b 163c ba56 b23c
00000070: a644 c43d 9759 db3c a806 c63a 6158 49bc
00000080: f2c7 55bd 0eac a5bc 9eae ccbc 8144 3ebd
00000090: 751d 0fbd 7514 57bd 802c b63c beb3 18bb
0.0067955437 0.08557157 0.03888805 -0.014850494 0.10629949 0.028147032 0.18554436 -6.888717e-05
-0.0019821795 0.002618101 0.049297567 0.062067658 0.012363346 0.02926895 0.050836645 0.050199676
-0.012413049 -0.0100721745 -0.003760948 -0.016902788 0.0010585728 0.008994125 0.1405026 0.01245861
-0.029708182 0.036267083 0.009173289 0.02176987 0.09583406 0.026776118 0.0015108185 -0.012289138
-0.052192636 -0.020223644 -0.024985608 -0.04645205 -0.0349402 -0.052509744 0.022238016 -0.0023300494

encoder.4.block.1.weight f4 [40, 40, 3, 3]
00000000: 526b e03c db64 8fbc 3d65 893d 4829 68bd
00000010: 3d3b c0bd c71d 33bd 88d5 bcbb e882 85bc
00000020: 474e 663d a78f 44bd 9b2a b43d 68cc fe3d
00000030: bbf3 e33c a267 1dbe 06cb 93bd 66b6 51bc
00000040: ae7e 8b3d 8e5f 81bc 4035 083d c327 ebbc
00000050: 1e46 9e3d 5a2a 663d 98aa 1bbc 821b 913d
00000060: 098d a03d 62cb 9e3b fbdb 883c a5db f1bd
00000070: 925f 7b3d ce6b efbc d04f 16bc c858 e83b
00000080: f305 e9bc 507b 583d 0fc2 7dbe 49b1 43bd
00000090: d5d1 74bd 0f51 d9bc dff0 893c 2107 e63d
000000a0: b114 493e e958 54bd 5a28 063d 94fc 4abc
000000b0: f198 a2bc 655d 9c3c 5890 32bd 0a3d 693d
000000c0: 3a2d 693d 3529 a93c 1b28 c6b9 9514 8a3d
000000d0: 9bfb ae3c e997 f43b 5244 16bd 67d7 533d
000000e0: 057b 6e3c 8c05 273d 075b ec3d dc02 33bb
000000f0: 6830 18bd 9c3e a63c 7120 493c 8fe4 58bd
00000100: 2e19 00bd 18a5 7c3d 4e6e 1bbd c4bc bc3d
00000110: 547e 99bc c586 debc c356 b43b 3e01 c6bc
00000120: 6ac5 31bd 60fd e9bc 55f4 1cbd 355a 333d
00000130: 1682 df3d ecf6 bebc 415b fcbc d486 aabd
00000140: 3a2a 0fbd 7188 1ebd d0d7 c43d 4bde 683d
00000150: cfb4 d4bc 0865 583d 7046 8d3d 3aa2 71bc
00000160: 6cb5 293e f101 123d 581f 233d 3cd7 fabc
00000170: 2e68 d0bc db9d 0dbd bc56 84bd 5357 52bd
00000180: e43c 18bd 77af 9fbd cbe4 96bd 4fe3 04bd
00000190: 05a3 783d f5ce b6bd ddbe e13b c66a d13c
000001a0: 4dff 773d 2fe8 93bc eae6 f73b ba56 5cbc
000001b0: f973 d93b 24d6 b33d a9aa 24bd 2548 8ebd
000001c0: bb0a d03d d04b 023b e59d 8fbd 02a8 40bd
000001d0: cb91 83bd 6f72 453d 907a 7ebd 8168 983c
000001e0: 9d8e a1bd 99ef 0bbe 155d 103e 8930 74bc
000001f0: 41cf 33bb ee80 b73b f267 a7bd b22b 773d
00000200: 4611 f3bb b901 4c3e 08df 59be d005 70bc
00000210: 1462 6d3d f879 323d f592 f33b d2ed 83bd
00000220: a9d1 0d3d 5cd0 44b9 402c 7e3d 5291 38bb
00000230: bc8d d13c 71a2 14bc b831 01bd 3b08 8ebc
00000240: 21a5 debc 0530 64bd d045 b1bd 925f a33d
00000250: 0974 4ebd a1af 033d aa83 8bbd 855f 20bd
00000260: 1f89 843c 8ea9 a73d 654c 133d e06f d1bd
00000270: b97e 39bd 24bb c53d 1c0a f43d 33d4 5dbd
00000280: 0705 1dbe f708 133d 446e 083d 1c4f 89bd
00000290: 8135 a0bd d691 973b 8799 a33c e126 5ebd
000002a0: c57e bcbb d0d6 cdbc f335 943c f951 5bbb
000002b0: 8ed1 b63c 8459 44bd 1914 693b edf6 bebd
000002c0: f774 75bd cce0 3ebe 2960 e13c 128c 5ebd
000002d0: 8629 c1bc 6f80 be3d 704b bfbd b5cc 323c
000002e0: 7d67 a7bd 1976 9dbc 9133 a4be d494 b1bd
000002f0: 3b15 b93c 0eee 3dbd 6b02 25be 0e03 dd3c
00000300: f27a 25be 2587 ebbd 5c68 243e 2837 23be
00000310: 14f5 993d 3f41 dbbc 33d8 8cbc a9df 7c3c
00000320: bfa7 843c da93 95bd c388 103e 0cb0 3cbc
00000330: 043c 19bd 8a0d aebd 59ad 09bd cfc1 4bbb
00000340: 4d22 3bbd 8b3f a43c 191f e7bd e342 3fbe
00000350: 93dc 8cbb 8dc2 333d 0891 7a3d d0fa 673d
00000360: 8751 17bc 4684 3ebc cf8b f0bc f9cd a6bd
00000370: af1a 4b3e ea56 c33d 06c3 b73d 57e4 85bc
00000380: eb3b 263c 006e c93c e95d a63b a588 96bc
00000390: 2014 10be 940f 443e 05e1 01bd c11a f93c
000003a0: ec78 093d cce7 233b 27bf 873d d00d f73c
000003b0: bab8 0c3d 62a4 23bb 487a a6bd f449 27bd
000003c0: 49b0 bb3b 093b 21bd 66ac b1bc 05c4 68bb
000003d0: 8d4f b83c 393a f53c 8b1a e53d 1995 dfbd
000003e0: d0e1 d8bc 7cfe 0c3d f492 55bd 17da 2bbd
000003f0: fbd2 f4bc 8d52 343d eac9 e33c 4291 073c
0.027394924 -0.017504146 0.06708763 -0.056679994 -0.09386299 -0.04372957 -0.0057627596 -0.016297773
0.056226995 -0.04798856 0.08797189 0.12441331 0.02782618 -0.15371564 -0.07216458 -0.012799835
0.068112716 -0.015792634 0.03325391 -0.028705483 0.077282175 0.056192733 -0.009501122 0.07085325
0.078394 0.0048460225 0.016706457 -0.11809472 0.06137044 -0.02922621 -0.009174302 0.0070906617
-0.02844522 0.052851975 -0.24781059 -0.047776494 -0.059770424 -0.02652791 0.01683849 0.112318285
0.196368 -0.051842604 0.032753326 -0.012389321 -0.019848319 0.019087503 -0.04359469 0.056942977
0.056927897 0.020649532 -0.00037795384 0.06742207 0.02136021 0.007464398 -0.03668625 0.051719096
0.014555697 0.040776774 0.115407996 -0.0027314937 -0.03715554 0.020293526 0.012275801 -0.052952345
-0.031274013 0.061680883 -0.03794699 0.09215692 -0.018736996 -0.027163872 0.005503507 -0.024170514
-0.04340116 -0.028563201 -0.03831895 0.0437872 0.10913484 -0.0233111 -0.030805232 -0.08326498
-0.03495238 -0.03870434 0.096114755 0.05685262 -0.025965123 0.052830726 0.068982005 -0.0147481505
0.16573113 0.035646383 0.039824814 -0.03062021 -0.025440302 -0.03457437 -0.06461856 -0.05135281
-0.037167445 -0.07797139 -0.073678575 -0.03244334 0.060702343 -0.08926193 0.0068892078 0.025563609
0.06054621 -0.01805505 0.007565369 -0.013448412 0.0066361395 0.087810785 -0.040201817 -0.06947354
0.10158297 0.0019881614 -0.07012538 -0.047035225 -0.06424292 0.048204836 -0.062128603 0.018604519
-0.078885294 -0.13665618 0.14098008 -0.01490415 -0.0027436765 0.0056000864 -0.08174123 0.060344405
-0.0074178306 0.19922532 -0.21276486 -0.014649823 0.057954863 0.04357335 0.00743329 -0.06441845
0.034623776 -0.00018769637 0.06205392 -0.002816279 0.02558028 -0.009071932 -0.031541556 -0.017337909
-0.027178349 -0.055709857 -0.08655894 0.07977213 -0.05040363 0.032149915 -0.06812222 -0.039153595
0.016178666 0.08186637 0.035961527 -0.102264166 -0.045286868 0.09654835 0.11915991 -0.054157447
-0.15333949 0.03589722 0.033308282 -0.06704542 -0.07822705 0.0046255393 0.019970668 -0.054236297
-0.005752417 -0.025126845 0.018092131 -0.0033465608 0.02231672 -0.04793693 0.0035564958 -0.09324441
-0.059926 -0.1864044 0.027511673 -0.0543328 -0.02357937 0.093018405 -0.093405604 0.010913064
-0.08174036 -0.019221352 -0.32070592 -0.08670965 0.022593131 -0.046369605 -0.16114204 0.026978996
-0.16160181 -0.11500386 0.16055435 -0.15939009 0.07517448 -0.02676451 -0.017192936 0.015434184
0.016193269 -0.07303591 0.1411467 -0.011516582 -0.03741075 -0.08498676 -0.033612583 -0.003109086
-0.04568701 0.02004983 -0.11285228 -0.18677859 -0.0042987554 0.04388671 0.06117347 0.056635678
-0.009235746 -0.011628216 -0.029363541 -0.08144755 0.19834398 0.09538062 0.08972745 -0.016344232
0.0101461215 0.024588585 0.005077113 -0.018375704 -0.14070177 0.19146568 -0.031708736 0.030408265
0.033562586 0.0025009988 0.06628256 0.030157954 0.034355856 -0.0024969806 -0.08128792 -0.04084201
0.005727802 -0.03936294 -0.021688651 -0.0035517227 0.02249887 0.02993499 0.11186703 -0.1091711
-0.026474863 0.034422383 -0.0521421 -0.041956034 -0.02988576 0.04402404 0.027806241 0.008274378

encoder.4.block.1.bias f4 [40]
00000000: e7ca 4a3b 58d5 a6bb 0993 ccb9 b906 383a
00000010: 870c 55b9 5ea2 373b e40d b73a 85a6 1e39
00000020: 837b 373a ebb5 6bba 89e0 9a3b 0859 103c
00000030: ab0b 65b9 b432 063b 2316 e5b9 cf32 963a
00000040: 96a3 17bb f2d7 b3ba 5cab 0d3a e08f 8c3a
00000050: cbe3 42b7 7bd7 b5b6 7105 aaba 50af 0cbb
00000060: e120 723b 7e13 2aba 2f88 aa3a 3d95 a73b
00000070: 253d 18ba 1ea3 473a 1e90 003b 415c c83a
00000080: 0bab ba3a 0e55 223b 46c3 e9b9 84a1 993b
00000090: 9d5c 4abb e11f bf39 7c39 27ba 2ff3 313b
0.0030943693 -0.0050913505 -0.00039019462 0.0007020045 -0.0002031793 0.0028020362 0.0013965932 0.00015130088
0.00069993007 -0.00089916465 0.0047264737 0.008810289 -0.00021843489 0.0020476999 -0.00043694777 0.0011459234
-0.0023138276 -0.0013720973 0.00054042577 0.001072403 -1.1616338e-05 -5.4193056e-06 -0.0012971592 -0.00214668
0.0036945867 -0.000648789 0.0013010557 0.005114226 -0.0005807451 0.0007615554 0.001961715 0.0015286283
0.0014241649 0.0024769935 -0.00044586713 0.0046884436 -0.0030877956 0.0003645411 -0.000637911 0.0027153005

encoder.4.block.2.weight f4 [40]
00000000: d0e3 8c3f 135c 863f 4eef 7e3f 404b 703f
00000010: e479 723f 8103 713f 3044 723f a611 6d3f
00000020: d66e 553f e0ec 5b3f b8b9 7b3f 9885 883f
00000030: 3f64 743f c519 943f b898 923f 057c 863f
00000040: b3d3 893f 7ff9 283f 541a 6b3f 5dd5 6c3f
00000050: cd16 843f 4783 893f f3a4 373f 8ea0 843f
00000060: 8ae8 5b3f 796b 673f 144b 8e3f 93f0 883f
00000070: ce10 7f3f 0b3b 8f3f 8ebd 8d3f f5a6 8e3f
00000080: 0e9c 823f 9687 953f 4664 703f 073f 883f
00000090: 6793 723f 2d8a 3f3f 62f2 9d3f c144 5c3f
1.1007023 1.0496849 0.995839 0.9386482 0.9471724 0.9414597 0.94635296 0.92605054
0.8337225 0.8590832 0.9833026 1.066577 0.95465463 1.1570364 1.1452856 1.0506598
1.076773 0.660057 0.9183705 0.92513067 1.0319458 1.0743188 0.7173607 1.0361497
0.859017 0.90398365 1.1116662 1.0698417 0.99635017 1.1189893 1.1073472 1.1144701
1.0203874 1.1682003 0.93903005 1.0644234 0.9475617 0.74820215 1.2339594 0.8604241

encoder.4.block.2.bias f4 [40]
00000000: 57bb 9c3e a371 973d e77a 88bd 2b8e c03e
00000010: 8feb 9b3e baeb cc3e c2d6 293e 4cdf ae3d
00000020: bc90 0e3e 9336 babd 59c9 cd3d bfaf b23e
00000030: 10cd bf3e c6d2 e23e 1a18 da3e 7836 bdbd
00000040: 83d2 bb3c c0a2 de3d d43f 593e 4186 8b3e
00000050: 2651 3bbe cd8a a5bd 669e 49be d13b 14be
00000060: bde5 c83d 48e8 86bd be25 6e3e 5cb2 2b3b
00000070: ba80 30be a2c1 433c 7af5 8b3e 8ac3 733e
00000080: 7024 483d 3117 a23e 77d2 543e b4c5 7dbc
00000090: b7e4 8f3c 2c8f 97bd a6a5 77be b66d e93d
0.3061168 0.07394721 -0.06664067 0.37608466 0.30453154 0.40023595 0.1658583 0.08538684
0.139224 -0.090924405 0.1004817 0.3489971 0.37461138 0.44301432 0.42596513 -0.09238905
0.022927528 0.10870886 0.21215755 0.27250865 -0.18292674 -0.08083115 -0.1968933 -0.14475943
0.09809444 -0.06587273 0.23256585 0.002619884 -0.17236605 0.011948021 0.2733572 0.23805061
0.048862875 0.3165832 0.20783411 -0.015489031 0.017565114 -0.07400355 -0.24184284 0.11397879

encoder.4.block.2.running_mean f4 [40]
00000000: 290e 943e deb5 4abf e205 39bf 1067 1dbf
00000010: 2587 033e 9319 273f 0288 743e e361 8ebe
00000020: 1868 cd3d 827e 8dbe 506c d73e 0d30 273e
00000030: d2d3 0739 0eca bd3e c883 963e c7c2 3cbf
00000040: 1902 20bf ade5 2fbd c76e 103f 05f9 553d
00000050: 1070 043d 2348 3abf 1f41 9dbe f03e b5be
00000060: 655b 7c3e 67d3 24bf b2e6 363f 30fc 103f
00000070: 2933 5e3d 7752 70bf a273 573f 83fb 263f
00000080: 9592 1cbf 4a71 acbd 657d a83e a8b1 09bf
00000090: 17dd 01be 610e f3be 0dbb bcbe 611b db3c
0.28917053 -0.7918376 -0.722746 -0.61485386 0.12844522 0.652734 0.23880008 -0.27809057
0.1002962 -0.2763558 0.42074823 0.16326924 0.00012953512 0.37068218 0.29397416 -0.73734707
-0.625032 -0.042943645 0.5641903 0.052239437 0.032333434 -0.7276632 -0.30713746 -0.3539958
0.24644239 -0.64385074 0.71445763 0.5663481 0.05424801 -0.9387583 0.84160817 0.65227526
-0.61161166 -0.08420046 0.32908168 -0.53786707 -0.12681995 -0.47471908 -0.36861458 0.026746454

encoder.4.block.2.running_var f4 [40]
00000000: 1252 053f 87ad 783f 4284 3f3f 5c6b 163f
00000010: 87be ae3e f3e4 313f 7691 eb3e 3e0b 193e
00000020: 3180 be3e 823d 013f 1c22 063f fc1c c33e
00000030: cbfe a23e d0e4 a33e 9aa4 1a3f c24f 1b3f
00000040: 5596 b53e 766f 513e 6b8b 0b3f fc57 633e
00000050: ee48 f83d 1fd8 593f ee1f a33d c744 233f
00000060: b2e9 db3e 4c44 0f3f eff0 153f 4cf0 e83e
00000070: 69db b63d 0540 8c3f 609e 293f d598 843f
00000080: d779 443f c3d4 9d3e 9edb ca3e 3859 ef3e
00000090: 54e3 833e 3172 993e ffbc ff3d 8766 893e
0.52078354 0.9713978 0.74811184 0.5875757 0.34129736 0.69489974 0.46009415 0.14945695
0.37207177 0.5048448 0.52395797 0.3810805 0.31835017 0.32010508 0.6040741 0.60668576
0.35466257 0.20452675 0.5450961 0.22201532 0.12123285 0.850954 0.079650745 0.6377682
0.42951733 0.5596359 0.5857076 0.45495832 0.08928568 1.0957037 0.66257286 1.0359141
0.7674841 0.30826387 0.3962068 0.46747756 0.25759375 0.29969934 0.1248722 0.26836035

encoder.4.block.4.weight f4 [40, 40, 1, 1]
00000000: 53f6 0f3e 4b4b b43d ebc1 8f3e 5f4a 163e
00000010: 59a5 003e d862 67be 6300 9e3d 2071 253d
00000020: 92a9 8c3d d1ad 743c 93bb 3abe dbae 01be
00000030: e997 ccbd 546a 53be 8843 1cbe eb57 b4bb
00000040: 3329 503e d484 2d3d 06e6 44bd fbc7 e5bd
00000050: b2c7 dc3d 7b99 143e f2dd 893a 8bca 3a3e
00000060: 175c 873e 2040 833d 01dd babe a485 54be
00000070: de34 81be 9647 d83b 9a14 d9be eb3e b03d
00000080: 6a59 b03d aa93 7fbe 7e14 5c3d 938d c53c
00000090: 784b e4bc 4760 a03c 22a8 c73e 7549 853d
000000a0: 5709 373e e429 4ebc 2c90 b43e 2874 0ebe
000000b0: a727 6e3d f16f 9fbd b791 a03c 8e23 c43c
000000c0: a3f0 003e c243 21bd dbca 113c d2a4 3b3e
000000d0: 215b 2a3e 7377 303e d791 a13e eca1 85be
000000e0: 8cc7 ffbd f3ac 053e 7d2e 1fbd 27c7 843d
000000f0: fb5e 15bd d8a6 54be 123d 42bc de91 b4bd
00000100: 00ab 61bc 5633 7c3c 58ad ba3c de13 0d3e
00000110: 5819 9ebc 85f7 5cbd 97c7 313e 2b70 093e
00000120: f132 333d b6f8 b73e c883 493e 5f3a 45be
00000130: 8eaa 17be 5f35 79bd b82e 69be 811c 1bbd
00000140: dcb6 15be dffd 843e f6c4 27bd 3853 05be
00000150: 22df b1bd cbdd 17be 6fe6 d2bd df4b abbd
00000160: 64b9 7ebc b21f 27bd 705b 0d3d e7a7 72be
00000170: 793d 533d 7820 06be 084c 34be d955 183e
00000180: d831 8e3d 9161 7cbc d042 42be cd80 a9bd
00000190: 0949 8dbb 3fad 3b3e 2d16 e53c 99ac 183d
000001a0: b2d8 67be 931f 1d3e b516 22be b888 503d
000001b0: 599e 4dbe e492 1a3e 00b2 13be 25f3 a0be
000001c0: 8e2b cbbd bd79 8fbe 83f7 82bc 9aba fb3d
000001d0: 6bed 053a 74ac e43d 43fe 013f 3049 1dbe
000001e0: 35cf dcbc b90b 913e b0d9 0f3e efa3 d53d
000001f0: c266 d3bd 11a6 923d 8874 ebbd 2ced c1be
00000200: ff47 82be 3ec3 5abc 27e2 5c3d 7c9b 76be
00000210: 12ce 1f3a 4aa1 0abd bc37 d6bd 4fdb 6abe
00000220: a68c 40bd 68b4 7b3d 555c d5bd e250 f33d
00000230: 0b07 693e c513 113e 7658 6abb a9d9 3c3e
00000240: 5a7e 15be 3728 abbd d4f7 adbd 90be 05bd
00000250: 1c68 223e 80fb 5cbd 8a5d f2bd 1aea d13c
00000260: 4386 0b3e d992 11be 7a3c b3bc 0f6f 493e
00000270: ee16 193e b970 28bd 0c1f d43e cfa6 19bd
00000280: ad08 08be 68bb 5fbe f74e 55bd a601 0bbd
00000290: 2c9f b83c 917e 4ebe 725b 953e bd0a 2fbe
000002a0: 5b67 7fbd 5013 383e de0a 1fbd f85b 823d
000002b0: ae2f 6e3e 42af a73e c755 253e 2d47 153d
000002c0: 48eb eabd 0d5a cd3d ad94 b93d 91af 543e
000002d0: fdeb 623e 5984 dd3c 9f48 7bbe 8b52 d23d
000002e0: 5b9c 0abd a629 36be 37ce 3fbd 1ae1 233e
000002f0: 14a2 f53d 54c1 39be 76df 5a3e 3d4c 26be
00000300: b4b2 cbbd 976f a13d 50f4 543e 94bd acbd
00000310: 8ab0 39bd 2ff1 ddbd 447e 52be 164f 173e
00000320: 5c0f 82bc 2f91 7b3a 1dce 363e 858f 123c
00000330: c44e c5bd 488b 9bbe dd85 55be c719 af3d
00000340: 5f79 88bd 31a8 11bd 9e7b 4cbd 4189 81be
00000350: 3cde acbe 8d1d 2bbd 8572 503d cdbd 253e
00000360: 2c0f 06bc 2f8c 783d f80e c8bc 5fe6 cabe
00000370: 0d7e d03c d750 083d 4323 933c 5b7f 803d
00000380: c302 fabc 03fb ca3d ee2c c43d 466b 483e
00000390: be7d c0be d594 f43d 2f5a 32be 2c11 763e
000003a0: 0715 d43d 26e9 283e 9715 b0be dd14 ed3d
000003b0: 0a16 553d 16b4 363d 6a3e d43e 1ff4 97bd
000003c0: 8179 35be bbbf 02be e7d6 93be d383 9ebc
000003d0: c9d1 b33c b23a 2fbe acc1 393e e860 9e3d
000003e0: a58a 873e 41da 3c3d 4784 08bf 3f0b 5dbe
000003f0: b604 dbbd 7f24 6bbd 4e3f c1bd fa52 33bd
0.14058809 0.088034235 0.28077635 0.14676808 0.12563075 -0.225963 0.077149175 0.040391088
0.068682805 0.014934019 -0.18235616 -0.12664358 -0.09989912 -0.2064603 -0.15260136 -0.0055036447
0.20328216 0.042363003 -0.04807093 -0.11219784 0.10780276 0.14511673 0.0010518415 0.18241327
0.26437446 0.06408715 -0.36496738 -0.20754105 -0.25235647 0.0066003306 -0.4239853 0.08605751
0.086108044 -0.24958673 0.05373048 0.02411536 -0.027868018 0.019577159 0.38995463 0.065081514
0.17874657 -0.01258323 0.35266244 -0.13911498 0.058143284 -0.07785023 0.019600732 0.023942735
0.12591796 -0.03937126 0.008898462 0.18324593 0.16636325 0.17233066 0.3155658 -0.261001
-0.124892324 0.13054256 -0.038862694 0.06483298 -0.036467534 -0.20766771 -0.011855381 -0.088168845
-0.01377368 0.015393099 0.022787735 0.1377711 -0.019299194 -0.05394699 0.17361294 0.13421695
0.043749753 0.3593194 0.19679177 -0.19260548 -0.14811155 -0.060841914 -0.22771728 -0.03786898
-0.14620537 0.25974938 -0.04095932 -0.13020027 -0.08685137 -0.14830701 -0.10297858 -0.08364081
-0.01554713 -0.04080171 0.03451103 -0.23696862 0.051572297 -0.13098323 -0.17607129 0.14876498
0.06943101 -0.015404121 -0.189708 -0.0827652 -0.004311685 0.18327807 0.027964676 0.037273977
-0.22641256 0.15344076 -0.15828975 0.050911635 -0.20079936 0.15095097 -0.1442337 -0.31435505
-0.09920417 -0.28022566 -0.015987163 0.12291451 0.00051089254 0.11165705 0.507786 -0.1535995
-0.026954273 0.28329256 0.14047885 0.104316585 -0.10322334 0.07160581 -0.11496836 -0.3787626
-0.25445554 -0.013352213 0.053926613 -0.2408275 0.00060960755 -0.033845223 -0.10459849 -0.22935222
-0.047009133 0.061451346 -0.104180016 0.118806615 0.22756593 0.14167698 -0.0035758293 0.18442406
-0.1459898 -0.0835728 -0.08494535 -0.032652438 0.15860027 -0.053950787 -0.118342474 0.025624324
0.13625436 -0.14216174 -0.021879423 0.19671272 0.14950153 -0.041123126 0.41429937 -0.037512597
-0.1328456 -0.21848834 -0.05207726 -0.03393712 0.022536837 -0.20165469 0.2917133 -0.1709394
-0.062354427 0.17976117 -0.038828723 0.06365198 0.23260376 0.327509 0.16146003 0.03644483
-0.114706576 0.100269414 0.09061561 0.20770098 0.22160335 0.027040647 -0.24539421 0.1026965
-0.03384052 -0.17789325 -0.04682752 0.16003838 0.119938046 -0.18140155 0.21374306 -0.1624002
-0.09946194 0.07882612 0.20796323 -0.08434597 -0.045334376 -0.10837018 -0.20555979 0.14776263
-0.015876465 0.0009596524 0.17852063 0.008945351 -0.09634164 -0.303797 -0.20851846 0.085498385
-0.06663775 -0.03556079 -0.049922578 -0.2530003 -0.337633 -0.04177623 0.050890464 0.16185685
-0.008182328 0.060680564 -0.0244212 -0.39628884 0.02545073 0.03328022 0.01796115 0.06274291
-0.030518895 0.09911158 0.09578882 0.19572172 -0.37595934 0.1194245 -0.17417215 0.24029988
0.10355573 0.16495189 -0.34391472 0.11576245 0.05202297 0.044605337 0.41453868 -0.07419609
-0.17722131 -0.12768452 -0.28874895 -0.019349968 0.02195062 -0.17112234 0.18140286 0.07733327
0.26472965 0.04610658 -0.5332684 -0.21586321 -0.10694258 -0.057407852 -0.094359025 -0.043780304

encoder.4.block.4.bias f4 [40]
00000000: 4d7b 07bc 3cff 063b be3f a9bb 7c21 dfba
00000010: 1e96 19ba 2428 5e39 1579 3cbc 99ff 17bc
00000020: 6d93 9239 7f2a e5b8 57b2 0dbb ee37 82bb
00000030: 6533 93bb 195d ad3a 6c93 d8bb 7182 2a39
00000040: 45e5 c9bb d44c 163a 7a28 313b 3d5a 223c
00000050: dcea ef3b 0ef4 a0bb cc5b 8b3b 37ed 89ba
00000060: 2bec babb 6c58 88bb 2ff0 67bb 13ce b338
00000070: 76d1 aabb 9642 00bc 4f18 df3a b65a b53b
00000080: 5fea 20bb 16c2 49bb 8731 05bc 6ecf 8abb
00000090: f254 c6bb 38ee d3bb 7bf8 f83a 0a77 fcba
-0.008269143 0.002059891 -0.0051650694 -0.0017023529 -0.0005858856 0.00021186523 -0.011503478 -0.009277248
0.0002795713 -0.000109274864 -0.0021621191 -0.0039739525 -0.0044922107 0.0013226598 -0.006609371 0.00016261057
-0.0061613643 0.0005733494 0.0027032183 0.00990921 0.0073216986 -0.004911906 0.0042528864 -0.0010522966
-0.005704423 -0.0041609313 -0.0035390963 8.5737694e-05 -0.005212958 -0.007828375 0.0017020794 0.005534495
-0.0024553759 -0.003078585 -0.008129484 -0.0042361533 -0.0060526067 -0.006467607 0.0018994951 -0.0019261551

encoder.4.block.5.weight f4 [40]
00000000: 7fe8 4a3f 46b7 253f fd90 3b3f 71a8 1f3f
00000010: 270e 503f f25c 253f 274f 7f3f 5706 0c3f
00000020: abba 443f 759a 2e3f 1b6b 603f b779 673f
00000030: 7870 453f 2962 2c3f 9ed1 1e3f 474b a03f
00000040: 6562 113f c91a 723f 8ab2 6d3f 4135 113f
00000050: 8244 ef3e c4bb 763f f274 683f a617 383f
00000060: 819b 243f bb04 103f f935 663f 094d 6a3f
00000070: e5fc 313f 7bc8 3d3f 7edc 5c3f b62e 0f3f
00000080: 800e 0c3f 13dc 493f d604 6a3f 0fb1 553f
00000090: 8e04 563f 0a9b 2e3f 156d 053f 72e5 233f
0.7926101 0.6473278 0.7326811 0.62366396 0.81271595 0.6459495 0.9973015 0.54697174
0.7684733 0.6820443 0.8766343 0.904201 0.7712474 0.6733728 0.620386 1.2522973
0.56790763 0.9457212 0.92850554 0.56721884 0.46731955 0.9638026 0.90803444 0.71911085
0.6429978 0.5625722 0.89926106 0.91523796 0.6952651 0.74134034 0.86273944 0.5593065
0.54709625 0.7885143 0.9141363 0.83473295 0.836007 0.6820532 0.5211957 0.6402198

encoder.4.block.5.bias f4 [40]
00000000: 34e6 c8be 3fbf a93d f966 88be c0b8 2ebe
00000010: 2c64 543d 733a 37be 5cd9 7fbe 58ea 84be
00000020: 06cd 023e 5e60 8ebe 2e31 af3d 8ff1 e9bd
00000030: c1a0 9ebe 24b1 7d3c ced6 7dbd 25ca 81be
00000040: 3a41 76be 7cd7 283d 3342 243e f414 d1bd
00000050: 5b07 b1bd d2a2 a53d 3199 5f3d 177c 8cbd
00000060: 52f9 7bbe 22eb f7bd ec1c ce3d d0d0 bf3d
00000070: 89f1 17be e409 e0bd 9e77 68be 1571 8bbd
00000080: 665e 02be 97a1 74be 6fb7 97bd 504b 9bbe
00000090: 8439 87be 4089 0dbe 7e25 113c 26c9 46be
-0.3923813 0.082884304 -0.26641062 -0.17062664 0.051853344 -0.1789339 -0.2498526 -0.2596004
0.12773523 -0.27807897 0.08554302 -0.11423027 -0.3098202 0.015484128 -0.06197243 -0.25349537
-0.2404832 0.041221127 0.16040878 -0.102090746 -0.08643981 0.08087696 0.054589454 -0.06859606
-0.24606827 -0.12105395 0.1006411 0.09366 -0.14838232 -0.109393865 -0.2270188 -0.06808678
-0.12731323 -0.23889767 -0.07408034 -0.30330896 -0.26411068 -0.13821888 0.0088590365 -0.1941267

encoder.4.block.5.running_mean f4 [40]
00000000: 82b8 4abe c9c1 2a3f 7ec8 4ebf 75a0 09bd
00000010: 4e4b 9e3e e2e9 89be 9c0e 58bf 7b13 31bf
00000020: 65d4 5a3d bf5d 78be 040e 0e3f d8f9 7a3e
00000030: af15 873e 8303 243f c084 0abf d153 80be
00000040: dac6 8cbe ba25 df3e 434b 773f 5d99 0a3f
00000050: 9cdf 133e b1ce 223f bc09 a33e b88b 7c3d
00000060: ea72 11bd b8cc cdbe ecfd f13e b1d8 1c3f
00000070: 65d0 bcbe f702 18bf 5e95 29bf def1 783e
00000080: e669 d7bb 4e22 a5be efd4 d0be cc25 12bf
00000090: 3b85 a6be a27f cfbd 548b 093f 2d46 8bbe
-0.19796947 0.6670194 -0.80774677 -0.03360029 0.30916828 -0.2693625 -0.8439729 -0.6917035
0.05342521 -0.24254511 0.55490136 0.2450937 0.2638373 0.6406786 -0.5410881 -0.25063947
-0.27495462 0.4358347 0.96599215 0.54140264 0.14440769 0.63596636 0.31843364 0.061656684
-0.03550998 -0.4019525 0.4726404 0.61268145 -0.36877742 -0.59379524 -0.6624354 0.24311015
-0.0065739034 -0.32252735 -0.40787455 -0.57088923 -0.32523522 -0.10131766 0.5372822 -0.27201977

encoder.4.block.5.running_var f4 [40]
00000000: 263c 6040 73e7 8d40 972d a640 0548 3740
00000010: 47e3 e43f 86b9 0740 4839 0440 5d12 e840
00000020: 90d5 993f e8df cf3f 3d83 4e40 c698 c93f
00000030: 197b 043f 6c25 6440 ad6d c040 d10f ff3e
00000040: 4f7d 8c3f ecc4 df3f 63e9 6a40 3a4f b43f
00000050: 15ff de3f 62de a840 6260 203f fde7 6c40
00000060: 76e8 4740 52e0 ea3e c7eb 5d40 3cb5 db40
00000070: 4db8 ea3f 8c84 953f 9a04 2540 7553 cd40
00000080: 3656 c73f 4164 a03f eac9 8d40 3e0e 3740
00000090: 83d2 a23f aa71 673f 1090 ad40 37d8 d23f
3.5036712 4.434503 5.193065 2.8637707 1.788186 2.1206985 2.0659962 7.2522416
1.2018299 1.6240206 3.2267601 1.5749748 0.5175033 3.564784 6.013388 0.49816754
1.0975741 1.7481971 3.6704948 1.4086678 1.7421595 5.2771463 0.6264707 3.7016594
3.1235633 0.45874268 3.4675157 6.8658733 1.8337494 1.1681075 2.5784059 6.4164376
1.5573184 1.2530595 4.4308977 2.8602443 1.2720493 0.9040781 5.4238358 1.6472234

encoder.5.block.1.weight f4 [40, 40, 3, 3]
00000000: c92b 0f3e 6377 96bc 245f 0ebd 4c4f 8bbd
00000010: 7827 ba3a 9a90 9abd e291 0a3e b3cf 91bd
00000020: ca67 283d a941 dc3c cafb 02bc 5f26 49bc
00000030: f492 1cbd 4889 393e 5ee1 813c 71f9 91bc
00000040: 9c39 8b3d be34 ddbc ed06 18bd 7d58 b93d
00000050: 0ca3 823c 8b0a 26bd 4ad7 8cbe fd5c 913d
00000060: f4d7 a8bd b9ef 3e3c 2af3 27bd 3c27 f53c
00000070: a5a6 f7ba dbc8 da3a c120 b53d 0b44 1bbc
00000080: 1ecd a1bd 4890 1e3d 65fb 81bb f475 7b3d
00000090: bcc1 603d 1a26 123b 3fcb 39bc 0b5b 223d
000000a0: 206a 37be 089a 733d 0b02 46ba ca81 30bd
000000b0: a87c ee3c ac4d 0bbd 1623 003c 09f0 7e3d
000000c0: 3175 9dbc ec08 26be b8c1 8abd 84f6 febc
000000d0: fca5 8b3d 37f9 273d db3b 2bbd a6f0 013e
000000e0: c702 64bc 4014 98bd 5608 94be c23d c7bd
000000f0: 04bb ce3b ad7a 8abd 6086 ddbc 967e 643c
00000100: 607b cfbc e075 3e3c 86d8 88bc 27fe 16be
00000110: 52a2 5cbd c7a1 a5bc b8b0 d03c 8e4c e7b8
00000120: 2c61 6f3c f203 dcbc 7312 81bd 3f47 be3c
00000130: a697 25be 12fc 31bd 61a6 5f3d 3276 5fbd
00000140: e5fc 79bb 2644 ac3c 4478 313d 213f 0a3d
00000150: e24f 003d 4e04 d03c dec0 943d 97d5 47bd
00000160: 0bb5 0b3d 95df 143d dffe 4fbb 12f2 60bc
00000170: f400 823c eec3 a1b9 6ab8 203e 265e c13c
00000180: de11 043d 1dff 8cbb f172 ba3d 3d4e 69bc
00000190: f355 313d 5d2a 1dba 293c febc c176 8ebe
000001a0: b761 d43c b689 18bd 29f0 5ebd d7f9 adbc
000001b0: 15dc 5b3d e4c6 35bd 0590 083c 1b06 093e
000001c0: c2d2 12be fbe7 003e e2d0 35bd fb0e 9d3d
000001d0: a086 90bd a901 0abc f55b 2c3c 6319 603d
000001e0: d535 28bc 151a edbc f286 40bd c8f1 3b3c
000001f0: 359c 073d 666b 22bd e02e 8dbd 3b58 9cbd
00000200: 8695 1abd 7484 aa3c c352 213e 5ceb 2cbd
00000210: 251c 483c 359d 853d e6df 2e3d 549e 23ba
00000220: e7e7 b63b fad8 6e3c f3ca 6d3b a3fa 793c
00000230: 629a a23b 389e 3b3c aa7a fabb 2102 aa3b
00000240: 4389 32be 6452 1a3c 4d17 2a3d e7cd 113d
00000250: b65c 1ebe 74ff acbc 0b84 e23c eef1 1d3c
00000260: 0c7c 333d 9993 fc3c e142 473d 667d 083d
00000270: 5636 93bd 87e0 21bd 0a46 783d df34 8b3c
00000280: f655 94bc fc48 c4bb 5b30 fcbc ae13 b0bc
00000290: 9b87 d9bc 62bf a43c 4eb0 b83e 01d4 89bd
000002a0: 7558 d3bb 6432 8b3c 7cbb e5bc b028 873d
000002b0: c0ae 6cbd 1782 95bd 6d24 c73c 53fd 4dbd
000002c0: c29b 09bc f09a 463d 706e 12bd 9114 81bc
000002d0: c696 37bd 0fc3 52bc a0bd 193b fa0d adbb
000002e0: 435d 0abe 4321 b7bd 02f7 77bd 9805 303d
000002f0: 4880 6dbd 6b65 86bc b705 0d3b ff53 963c
00000300: ff8b 8b3d 18ce 973e 2b14 853d 26ba 39bd
00000310: e293 a6bc d4bd 43bd 551f 6b3c 541a 043d
00000320: 0f83 f43b 37a6 293c 9cbc 12bd 9acf abbb
00000330: 7ee5 103d fca4 b9bc f3f5 97bc 7a1b 5fbd
00000340: edf4 e43c 8ae7 563d 38b9 75bd ad59 523d
00000350: 9543 7cbd d18b ef3a 73a0 403c f9cd 073d
00000360: a3ca a83c 8cbf 493d e86a b43d 8783 3abc
00000370: 0d4f 52bc 10bd 73bd 4236 1c3d c6c9 a4bd
00000380: 2672 ac3d cb1e 2ebd 3e77 48bd 5629 773c
00000390: 1ff6 1c3c e345 1c3d 7bab 48bd e52f abbd
000003a0: 69fe b639 d418 183d 6cc3 28bc 5fcd 993c
000003b0: ab86 1fbd a315 58bc 5fb5 693e aadb 9abb
000003c0: 53f5 40bd a86b 48bd 4a66 1f3d 76bc 913d
000003d0: 3ee5 8139 9c38 1b3d 3173 b5ba 2789 3d3e
000003e0: 729c c4bc 5909 573d c415 403d 38b3 75bd
000003f0: ea0f b7bc 4063 b6ba f676 d53c e1fd b2bc
0.13981546 -0.018367475 -0.034758702 -0.06802234 0.0014202436 -0.07547112 0.13532212 -0.071196936
0.041114606 0.026886778 -0.0079946015 -0.012277215 -0.038226083 0.18118775 0.015854534 -0.017819138
0.067980975 -0.027002688 -0.03711598 0.09050081 0.015946887 -0.0405374 -0.27508003 0.07097814
-0.08244315 0.011653834 -0.041003384 0.029925935 -0.0018894268 0.001669194 0.08844138 -0.009476672
-0.07900451 0.038711816 -0.003966736 0.061391786 0.05487226 0.0022300542 -0.011339962 0.039637607
-0.17911577 0.059473068 -0.0007553405 -0.043092526 0.029112175 -0.03400962 0.007820865 0.062240634
-0.01922092 -0.16214341 -0.0677523 -0.031123407 0.068187684 0.041009154 -0.04180513 0.12689456
-0.013916678 -0.074257374 -0.2891261 -0.09728576 0.006308915 -0.0676168 -0.027041614 0.013946196
-0.025327384 0.011624783 -0.016704809 -0.14745389 -0.05386574 -0.020218743 0.025474891 -0.00011029198
0.01461057 -0.02685735 -0.06302347 0.023227332 -0.1617113 -0.043453284 0.05460203 -0.05455608
-0.0038145122 0.02102859 0.043327585 0.03375161 0.031326182 0.025392678 0.07263349 -0.04878768
0.034108203 0.036346037 -0.0031737608 -0.013729589 0.015869595 -0.00030854292 0.15695348 0.023604464
0.032243602 -0.004302873 0.091039546 -0.014239845 0.04329486 -0.00059953873 -0.031034546 -0.27824977
0.0259255 -0.037240706 -0.054428253 -0.021237297 0.053676683 -0.04437913 0.008335118 0.13381235
-0.1433821 0.12588494 -0.04438866 0.07668873 -0.07056928 -0.008423247 0.010519971 0.05471171
-0.010266741 -0.028943101 -0.047003694 0.011471219 0.033107955 -0.039653204 -0.06893706 -0.07634016
-0.037740253 0.020815112 0.15754227 -0.042216644 0.012213741 0.065241255 0.042693995 -0.0006241549
0.005581844 0.014578098 0.0036284297 0.01525751 0.0049622515 0.0114512965 -0.007644017 0.005188242
-0.17435174 0.0094190575 0.041526128 0.035596754 -0.15465054 -0.021117903 0.027650854 0.0096402
0.043819472 0.030832099 0.048647765 0.033322714 -0.07188098 -0.039520767 0.06061367 0.016992984
-0.018107396 -0.0059901457 -0.030784776 -0.021493759 -0.02655392 0.02011079 0.3607201 -0.0672989
-0.006449754 0.016991802 -0.028043501 0.065995574 -0.057783842 -0.07300203 0.024309361 -0.050290417
-0.008398952 0.048487604 -0.035749853 -0.015756877 -0.044821523 -0.012863888 0.0023458973 -0.005281207
-0.13512139 -0.08941891 -0.0605383 0.042974085 -0.057983667 -0.016405782 0.00215183 0.0183506
0.068138115 0.29649425 0.06497987 -0.04534354 -0.020334188 -0.047788456 0.014350732 0.03225167
0.0074619125 0.01035457 -0.035824403 -0.005243254 0.03537511 -0.022661678 -0.018549895 -0.054469563
0.027948821 0.052466907 -0.05999109 0.051355053 -0.06158789 0.0018275921 0.011757004 0.033155415
0.020604437 0.04925494 0.08809453 -0.011383898 -0.01283623 -0.059506476 0.03813768 -0.08046298
0.084202096 -0.042509835 -0.048941843 0.015085539 0.009580164 0.038152587 -0.04899166 -0.083587445
0.00034903295 0.037133053 -0.010300498 0.018774686 -0.03894679 -0.013188752 0.22823094 -0.004725893
-0.04710896 -0.048930794 0.03891591 0.07116024 0.00024775596 0.037895784 -0.0013843534 0.1850935
-0.02400038 0.05249915 0.046895757 -0.05998537 -0.022346456 -0.0013915077 0.026057702 -0.021849575

encoder.5.block.1.bias f4 [40]
00000000: f649 2839 fc71 6d3b 1c36 123a f81c 313b
00000010: 1e87 e73a 1100 b03a eeb7 cc3a 3a84 dd3a
00000020: 7a4b 8538 3e56 d23b 9232 823b a56d 663b
00000030: 1f6e 8e3a 456a d5bb a27d 17ba d327 1e3b
00000040: 0c41 123b 7153 c03b b95a 803b 68d8 a23b
00000050: 981f 3f3b cb4b 7fba 4fab 90b9 55a3 a33b
00000060: d856 973a 48b4 cf3a 87f0 163b cd6c cf3a
00000070: 7526 cf3a a1f2 5839 2b20 d839 b810 8339
00000080: 6574 a83a 8e74 103b 4b38 a53b 6874 833b
00000090: 0841 a13b 5c8f 2d3b 5dec 273a 673b ea3a
0.00016049281 0.003623127 0.0005577521 0.0027025323 0.001766417 0.0013427754 0.001561878 0.0016900369
6.355993e-05 0.0064189723 0.0039733136 0.0035160568 0.0010866559 -0.0065129125 -0.00057789136 0.0024132624
0.0022316603 0.005869322 0.003917065 0.0049696453 0.0029163118 -0.0009738772 -0.00027593455 0.004993836
0.0011546267 0.0015846575 0.002303155 0.0015825272 0.0015804308 0.00020689752 0.00041222697 0.00024998724
0.0012852071 0.0022042128 0.005042111 0.0040116794 0.0049210824 0.0026483154 0.00064057653 0.0017870486

encoder.5.block.2.weight f4 [40]
00000000: 43f2 6e3f 50d9 8e3f d0ee 8c3f e1f5 5e3f
00000010: def8 833f c634 7b3f 83ca 6b3f f890 813f
00000020: 2780 733f 11dd 9a3f 8e21 583f dd5f 623f
00000030: 9564 863f 70e0 393f 966a 8c3f 3c51 843f
00000040: 5d33 563f 9b55 513f 3bcb 4f3f 37e1 a23f
00000050: 2040 793f b7ae 843f 42db 823f 284c 943f
00000060: 4bfb 793f 087f 5e3f 252b 673f 2dea 833f
00000070: 25af 793f b500 843f b580 8e3f 72b4 333f
00000080: 762b 773f 5a0d 5c3f f6d2 703f c171 803f
00000090: 0589 443f 99b3 5b3f b99c 693f f280 893f
0.9333841 1.1160069 1.101038 0.8709393 1.0310323 0.981274 0.92105883 1.0122366
0.9511742 1.2098714 0.844262 0.88427526 1.0499445 0.7260809 1.0970027 1.0337291
0.83672124 0.8177125 0.8116948 1.272498 0.9736347 1.0365819 1.0223162 1.1585741
0.9764907 0.86912584 0.9030021 1.030584 0.97532874 1.0312716 1.1133028 0.7019721
0.9655069 0.8595787 0.940719 1.0034715 0.76771575 0.8582092 0.91254765 1.0742476

encoder.5.block.2.bias f4 [40]
00000000: b4b3 b73e e21e 4dbe 4f9f c4be aad9 533e
00000010: ba22 59be 87ea ac3d b727 133d b0ba e9bd
00000020: 6658 3ebc 1c3f bcbd b9a9 593e d8d3 893e
00000030: 8a79 8ebe d71f 20be 1fe3 2bbe 2bc0 a73e
00000040: ce39 a93e 70fa 8b3e 70de be3e f444 7b3e
00000050: a8e0 4dbe b00f 9b3d c7d3 ae3e 6424 823d
00000060: a462 48be df96 fc3d 19b9 313f d367 9a3d
00000070: 8c3c 74be f476 17be 5ce8 7e3e 0863 d8be
00000080: 2465 463e 6ac6 a53d fbf7 c6bc a03c 683c
00000090: 120b 853e 9014 4f3e 30fa e4bd 7bdb 483e
0.3587929 -0.20031312 -0.38402793 0.20688501 -0.21204653 0.0844317 0.035926547 -0.11412561
-0.0116177555 -0.09191725 0.2125615 0.26919436 -0.27827102 -0.15637146 -0.16785859 0.327638
0.33051914 0.27339506 0.3727908 0.24538022 -0.20105231 0.075713515 0.34145948 0.06354597
-0.19568878 0.12333464 0.6942306 0.07539334 -0.23851222 -0.14791471 0.24893326 -0.42263055
0.1937452 0.08094485 -0.024288168 0.01417461 0.25985008 0.20222688 -0.11180532 0.19614975
