VQ-VAE/models/vqvae/model_96.pt (torch, 579012 bytes, 64 tensors)

encoder.0.weight f4 [40, 1, 4, 4]
000000 80 41 42 3d 20 bc d2 bb cc b8 17 bd 04 82 a8 bd
       0.047425747 -0.0064311177 -0.03704147 -0.082279235
000010 16 2c f8 bc c3 0d 05 be 38 85 cf bd c8 66 b3 bd
       -0.03029446 -0.12993531 -0.10132831 -0.08759838
000020 81 58 83 bd 0e 71 27 be 88 ac 55 be c2 84 51 3d
       -0.06413365 -0.1635172 -0.20866597 0.051152
000030 c6 7a 1a bd 63 45 22 bd d4 4a ce 3d de 23 21 3d
       -0.037714742 -0.039616954 0.10072866 0.039340846
000040 bc 21 35 3d 57 06 3e 3d 40 4d a4 bd f8 e0 99 3d
       0.044221625 0.046392765 -0.08022547 0.075136125
000050 26 bf a4 3d d5 57 14 3e 6b fd a2 bd 44 07 88 3d
       0.08044271 0.1448663 -0.07958492 0.06642011
000060 fe e0 58 3d 91 9a c4 3d 6c a2 17 be 34 9b 1d bb
       0.052948944 0.09599794 -0.14808053 -0.0024048807
000070 7c 29 48 3d f0 00 be 3d e5 33 dc bc 7c b5 83 3d
       0.048867688 0.092775226 -0.026880214 0.064311
000080 b2 72 b2 3d 66 79 b7 3d 69 01 e5 3d 01 f1 d7 3d
       0.08713283 0.08958702 0.111819096 0.10544015
000090 a2 47 01 3d cb cd c0 bb ef 63 88 bb fd 22 95 3d
       0.031562455 -0.0058839074 -0.0041623036 0.07282064
0000a0 fb 6c af 3d cd 75 77 3d dd 49 4b 3d c4 6a 87 3d
       0.08565708 0.060415078 0.04963099 0.06612161
0000b0 6b 55 f2 3c 62 fa 35 3d 0d 40 57 3c fb f5 89 3c
       0.029581746 0.044428237 0.0131378295 0.016840925
0000c0 0b 7a 08 bc 7e c5 6a 3d 76 0f cd 3d 4f 3f 83 3d
       -0.008329879 0.05731725 0.100127146 0.064085595
0000d0 4d ef bc 3d 7c 7f c4 3d db 3d 1e bd 1f a7 96 bd
       0.092253305 0.09594628 -0.03863321 -0.073560946
0000e0 4b c6 e7 3d 98 1a 96 bd ef 3a 6d bd 08 16 13 3c
       0.11317118 -0.07329291 -0.05791753 0.008977421
0000f0 8e 48 cd 3d f9 10 33 3d a3 89 93 3d be 39 f6 3c
       0.10023604 0.04371736 0.072039865 0.03005683
000100 11 b6 ee 3c 18 63 57 bc 6e 36 9e 3c ad 84 58 3b
       0.02913955 -0.013146184 0.019313063 0.0033038065
000110 ec 4f 20 3c 8e fd 18 bd 66 5b 08 3e ec a0 87 3c
       0.00978468 -0.037351184 0.13316116 0.016556226
000120 47 7c cc bc 32 6e 02 be 4c 35 49 3d 15 aa b8 3d
       -0.024961604 -0.12737349 0.049123093 0.090168156
000130 2f a4 62 3d c1 ae 78 bd 4a e5 18 3d 0c 6b 06 3e
       0.05533236 -0.060713533 0.037328042 0.13126773
000140 78 f4 9b bd 1b 2c 46 bd 99 3c 04 bd 30 6d b3 3c
       -0.07614988 -0.048381906 -0.032284353 0.02190265
000150 5c f9 01 be d7 ff 99 bd 32 a0 1f be e2 7b 62 3d
       -0.1269278 -0.07519501 -0.15588453 0.055293925
000160 98 e4 da bd e0 85 a6 bd 68 69 f0 bd 92 46 a4 3d
       -0.10688132 -0.081310034 -0.11738855 0.08021273
000170 6f 42 99 bd 1f 6a 40 bd b9 86 30 3d 0d 59 98 b9
       -0.07483374 -0.046976205 0.04309723 -0.00029058047
000180 8c 57 98 bc da 96 83 3d fb dd 20 bd 08 e7 8a bc
       -0.018596433 0.06425257 -0.039274197 -0.016955867
000190 10 62 bc 3d 7c ab c4 3c 3e 94 e8 bd ad fb 9a bd
       0.091983914 0.024007551 -0.113564 -0.075675346
0001a0 28 6a 86 3d e8 c8 20 be 5b 9f 42 bd 18 db e4 bd
       0.065632164 -0.1570164 -0.047515254 -0.11174601
0001b0 e7 25 b6 3c 40 57 99 bd 9e 24 28 bd 37 46 ff bb
       0.02223487 -0.07487345 -0.041050546 -0.0077903527
0001c0 ec 06 82 3c ae 81 40 bd 81 66 c2 bd ad d8 dc bd
       0.015872441 -0.046998672 -0.09492207 -0.10783515
0001d0 97 80 81 bd 3b 2b 89 bd c9 fa 18 be 12 ff f6 3d
       -0.06323355 -0.06697699 -0.14939417 0.120603696
0001e0 2e c9 ea bd 3b 9b 18 bd 0a 56 00 be 61 15 0d bd
       -0.11464153 -0.037257414 -0.12532821 -0.034444217
0001f0 da 82 4b bc 2c f2 9f 3d 35 cb cd bc 36 a9 d1 bc
       -0.012421334 0.078098625 -0.02512131 -0.025593381
000200 84 94 0f bc bb a7 2c bd d3 69 8f 3c df 9a bb 3c
       -0.008763436 -0.042152148 0.017506516 0.022900997
000210 c4 5d ca bd 49 9e b4 3d 50 4f 11 3e 9e b9 ff 3c
       -0.098811656 0.08819253 0.14190412 0.031216439
000220 13 b9 27 3d a3 ac fa 3d fa 64 7d bd db 5d 47 bd
       0.040947985 0.12239959 -0.061863877 -0.048673492
000230 8a 20 bd 3d 4d 95 eb 3d a4 9d a3 bc 23 1d 0b 3d
       0.09234722 0.11503086 -0.01997263 0.033963334
000240 5d d9 08 3d 4a e9 a4 3d 79 69 27 3d 1d 9d 15 3d
       0.03341042 0.08052309 0.04087207 0.036526788
000250 21 48 84 bd 41 13 be bc bc bb e9 bd 26 52 91 bc
       -0.0645907 -0.02320254 -0.114127606 -0.017739367
000260 ae ab 01 be 80 ca e8 bd aa da 08 be 13 c4 01 3d
       -0.12663147 -0.11366749 -0.13364664 0.03168113
000270 77 ce 0c 3d f1 4d c4 3d 40 d7 a8 3d 06 e9 3e 3d
       0.034376588 0.09585179 0.08244181 0.046608947
000280 59 00 82 3d 10 03 eb 3c 97 9c 9a bd f0 d8 89 bd
       0.063477226 0.028687984 -0.075493984 -0.06730831
000290 59 97 65 3d 04 74 35 3d de c7 19 bd dd 45 ca bd
       0.05605254 0.044300094 -0.037544124 -0.098766066
0002a0 3e d4 4a 3d a0 11 27 3d e2 43 30 bd fe 8d 0c be
       0.049518816 0.040788293 -0.043033488 -0.1372604
0002b0 01 b4 91 3d b0 fd 59 3d 55 6a 88 bd fa f6 89 bd
       0.07114411 0.05322045 -0.06660906 -0.0673656
0002c0 0d bf a6 bd ee 8a f5 bc 1a ea 0d 3d a8 cf 80 bc
       -0.08141909 -0.029973473 0.034647085 -0.015724018
0002d0 7f 3d fd 3b f7 15 82 bd e9 a9 fe bd af c7 be bd
       0.007728278 -0.06351846 -0.124347515 -0.093154304
0002e0 ee 9e 29 bd b5 58 d7 bd ad fd 5e be c2 e5 66 bd
       -0.041411333 -0.105149664 -0.21776457 -0.056371458
0002f0 8e 4b 83 3c b5 10 7b bd 6f 55 06 3c 1b 29 88 bd
       0.016027238 -0.06129523 0.00819908 -0.06648465
000300 b3 22 de 3b b7 11 b3 3d 1c 31 a8 3d 3b ca a5 3c
       0.006779039 0.08743613 0.08212492 0.020238033
000310 30 d2 37 3c fa 01 34 bd 4f 42 8c bd ab d9 0e be
       0.011219546 -0.043947197 -0.06848585 -0.13950221
000320 9f 1a 78 bd ed f5 0e be 06 f0 35 be 00 b7 20 be
       -0.060572263 -0.13961 -0.17767343 -0.15694809
000330 d3 da 0b bc 15 57 58 bd 1d 91 47 bc 94 0f a9 bd
       -0.0085360585 -0.052817423 -0.012180594 -0.082549244
000340 4f c2 52 bd 71 c5 9e bd 1b ad c9 3c 10 93 3e 3d
       -0.05145484 -0.07752503 0.024618676 0.04652697
000350 b9 2a 9f bd 6a 41 13 be 5d a7 03 be 34 75 91 bc
       -0.077718206 -0.14380422 -0.12856813 -0.017756082
000360 9d 84 40 3d 20 55 74 3d 06 d1 c0 bd ed fa 00 be
       0.04700147 0.059651494 -0.09414868 -0.1259572
000370 fa b3 05 3d c3 6a b2 3d 1a db 09 3d 91 a4 d6 bc
       0.032642342 0.087117694 0.033656217 -0.026201518
000380 da 5e 96 3c 8a b8 a5 3a f3 dc 50 bc 80 37 4c 3d
       0.018355776 0.0012643498 -0.012747991 0.049857616
000390 97 1d 28 3d 8c 89 79 bd 73 13 4b bd ed c0 ca 3c
       0.041043844 -0.06092219 -0.049579095 0.024750197
0003a0 1c f4 29 3c f5 c0 7c 3d 14 2d 46 3e 39 fe 23 3e
       0.010373142 0.061707456 0.19353133 0.16014947
0003b0 27 33 17 3c d7 1c a0 3d 08 d9 db 3d 69 75 22 3d
       0.009228504 0.07818001 0.10734755 0.039662752
0003c0 be c3 57 3d ec c8 8b bd ec 9b a9 bd 48 43 8a 3b
       0.05267691 -0.06825432 -0.08281693 0.0042194463
0003d0 ff ef af bd f0 e4 4d bd 40 12 78 bd 8a 53 6a bd
       -0.085906975 -0.05026716 -0.06056428 -0.057208575
0003e0 4a 86 9d bd 5d 56 c5 bd 6c 17 cb bc c4 fb 6a bd
       -0.07691629 -0.09635613 -0.024791442 -0.05736901
0003f0 61 cc f8 3c 9b 3f 3d bd 5c 53 ae bd c5 8e 2c 3c
       0.030370893 -0.046203237 -0.08511993 0.010532086

encoder.0.bias f4 [40]
000000 0d 6f 8a ba d5 41 08 bb 9f d5 5a bb c5 c3 2f bb
       -0.001056166 -0.0020791192 -0.0033391488 -0.0026819569
000010 65 b4 df bb 52 3e b8 ba 8e 89 36 3b 8b 30 69 ba
       -0.0068269246 -0.0014056659 0.0027852985 -0.0008895478
000020 6b 3f a5 bb 4d c2 8b 3b 11 1e 72 3a 4a 80 e5 ba
       -0.0050429604 0.004265106 0.00092360476 -0.0017509547
000030 28 08 44 bb 77 16 22 ba 52 b6 2a bb d6 8d e5 3a
       -0.0029912088 -0.0006183157 -0.0026048613 0.0017513584
000040 66 2b 1f 3a 9f 50 12 bb 58 04 04 ba 01 e3 13 bb
       0.00060718355 -0.0022325886 -0.00050360477 -0.0022565725
000050 f6 1d d5 bb 3f c0 9d ba ad 54 a0 ba 57 21 9b bb
       -0.0065038158 -0.0012035443 -0.0012232267 -0.004734199
000060 0e a6 51 ba 91 8e 67 3b 65 a3 92 ba 35 bb 01 ba
       -0.00079974614 0.003533278 -0.0011187611 -0.00049488555
000070 b0 72 b8 3a 9b 42 4f ba 25 0c f2 3b 35 bc dc ba
       0.0014072265 -0.00079063483 0.0073867016 -0.0016840758
000080 6c 92 d3 b9 c3 2c fc bb 94 a3 e9 3b 88 04 65 ba
       -0.0004035415 -0.0076957657 0.0071300957 -0.0008736332
000090 75 50 7b ba 9f 99 c5 bb ac 07 87 bb 41 73 32 3b
       -0.0009586879 -0.006030276 -0.0041207876 0.0027229341

encoder.1.weight f4 [40]
000000 6d 8c 2a 3f 3b 1d dc 3e 2f f8 18 3f f4 24 c9 3e
       0.6662052 0.4299105 0.597537 0.39286005
000010 7a a3 08 3f 91 0c 4e 3f dd 99 28 3f 0e 5d 30 3f
       0.53374445 0.80487925 0.65859777 0.6889199
000020 ae 0b 03 3f 73 59 14 3f 82 74 35 3f 4f 32 2d 3f
       0.51189697 0.5794899 0.708809 0.6765489
000030 f4 24 43 3f 94 d8 2f 3f da 61 ed 3e 27 d1 4d 3f
       0.7622826 0.68689847 0.46363717 0.80397266
000040 29 ec 17 3f 94 3b 40 3f 85 6b 21 3f cd 33 3f 3f
       0.59344727 0.7509091 0.63054687 0.74688417
000050 aa 96 e2 3e 90 08 36 3f 06 31 fe 3e a8 45 0b 3f
       0.44255573 0.71106815 0.49646777 0.5440316
000060 ee 11 a5 3e 23 3a 15 3f 4f eb 15 3f 28 cd 9e 3e
       0.32240242 0.58291835 0.5856218 0.31015897
000070 4e f8 1f 3f 41 86 10 3f 86 ce 38 3f 4e 63 40 3f
       0.6248826 0.56454855 0.7219013 0.75151527
000080 e6 82 38 3f e2 43 22 3f 3b 5b 47 3f 7e 25 06 3f
       0.72074735 0.6338483 0.7787358 0.5240096
000090 4a 85 46 3f 69 c5 69 3f 5a 8c 61 3f ac 4f 18 3f
       0.7754713 0.9131685 0.88104784 0.5949657

encoder.1.bias f4 [40]
000000 56 3d 92 bd 37 55 33 bd c2 f1 f2 bc 37 e9 f2 bb
       -0.07140605 -0.04378244 -0.029656295 -0.0074130553
000010 a9 5e 78 3d 32 18 0c be b4 35 70 be 86 94 71 be
       0.06063715 -0.13681105 -0.23457986 -0.23591813
000020 08 79 0a 3e 6f 19 21 3c 13 d4 32 be 22 cc 0b be
       0.13522732 0.009832724 -0.17463712 -0.13652089
000030 63 0c 58 be fb f4 3e be 4f 85 3b 3e c9 22 cd 3c
       -0.21098475 -0.1864814 0.18312572 0.025041
000040 79 53 7b 3c 15 d3 32 be a4 0d 29 be 8c 6a 55 be
       0.015339726 -0.17463334 -0.1650911 -0.20841426
000050 62 44 e9 bc a2 7b 1c be a2 74 19 3e cc 96 9c bd
       -0.02847499 -0.15281537 0.14985898 -0.0764595
000060 38 06 3e bc e9 c1 26 be 46 9d 07 3e 4a f5 94 3d
       -0.011598162 -0.16284908 0.13243589 0.07273348
000070 2f 69 14 be e4 1c 1b bd 8a a2 3c be 20 6b 74 be
       -0.1449325 -0.03786935 -0.18421379 -0.2386899
000080 eb 31 2d be 95 85 32 3e 20 5a 13 be 06 56 32 be
       -0.16913573 0.1743377 -0.14389849 -0.17415628
000090 bb 11 53 be ab 0e 85 be b1 13 95 be 2e 97 c3 bd
       -0.20612232 -0.25987753 -0.29116586 -0.095503196

encoder.1.running_mean f4 [40]
000000 69 8e 0c 3f c4 f6 9e be 85 15 13 bf 4d 57 af be
       0.549048 -0.31047642 -0.5745471 -0.34246293
000010 a6 b7 51 be 47 4c 06 3f a1 0c a3 3e aa b5 f8 3e
       -0.20480213 0.5246014 0.31845573 0.485761
000020 bd b0 9c be c0 1b f0 3d f1 14 02 3e ec 19 21 3f
       -0.3060359 0.11724043 0.12703301 0.6293018
000030 49 cb 05 3f b9 34 9a 3e 53 57 ec be 07 05 fe 3e
       0.52263314 0.3011835 -0.46160373 0.4961321
000040 fe 02 77 be c5 72 1c 3f d4 3f bb 3e 54 f2 b0 3e
       -0.24122235 0.61112624 0.36572134 0.34559882
000050 25 11 90 be d6 08 83 3e 0a 60 72 be 9b 77 90 3e
       -0.2813808 0.2559268 -0.23669448 0.28216252
000060 9b 4e 76 bd 98 0f 0f 3e 9d 5f 7f be 82 79 c6 bd
       -0.060133558 0.13970792 -0.24938817 -0.096911445
000070 3d e6 1d 3e f1 94 4b 3e c6 6f 86 3e 76 90 a4 3e
       0.1541986 0.19881035 0.2625715 0.32141465
000080 fd dc a1 3e 8f 28 80 be 67 b2 c0 3e 0f 6d 9d be
       0.31613913 -0.25030944 0.3763611 -0.30747268
000090 45 e2 12 3f 81 5b 10 3f 8e 94 48 3f 3b 98 e4 3d
       0.5737651 0.56389624 0.78351676 0.11161848

encoder.1.running_var f4 [40]
000000 3a 9f 32 3e dd 7f 45 3d 45 f5 02 3e ad a1 7d 3d
       0.17443553 0.048217643 0.12788875 0.061921764
000010 f9 20 fa 3c c0 76 20 3e 18 90 a6 3d 38 11 e3 3d
       0.0305333 0.156703 0.081329525 0.110872686
000020 9e b8 78 3d 36 bd 13 3d cc 6c 8d 3d 4d 68 2b 3e
       0.06072294 0.036069117 0.06905517 0.16739006
000030 3c c2 2e 3e 53 17 4d 3d d6 67 e2 3d a4 59 d2 3d
       0.17066282 0.05007107 0.110549614 0.10271004
000040 a1 b2 7b 3d ed 9e 41 3e bb 10 c1 3d 70 22 9c 3d
       0.06144965 0.18908282 0.09427019 0.07623756
000050 af 3f 22 3d ae 04 80 3d e3 6e fe 3c b7 94 8b 3d
       0.039611515 0.062508926 0.031058734 0.068154745
000060 af c1 de 3c 72 77 8f 3d cb 8d 4d 3d 12 6b 15 3d
       0.027191965 0.07005204 0.050184052 0.036479063
000070 8d 22 39 3d 84 1f 43 3d 9d ae 82 3d 54 27 97 3d
       0.045198966 0.047637478 0.06380961 0.07380548
000080 72 54 89 3d 21 37 4e 3d a6 d9 80 3d 4f b3 bc 3d
       0.0670556 0.050345544 0.06291513 0.09213888
000090 c6 13 36 3e 4e 61 1f 3e 00 b0 8c 3e 85 45 a0 3c
       0.1778098 0.15564463 0.27478027 0.0195644

encoder.3.weight f4 [40, 40, 4, 4]
000000 26 83 2d 3b 34 80 95 3c 4a b4 0d bc 4e 36 a9 bc
       0.0026475876 0.018249609 -0.008648941 -0.020655777
000010 0b 8b 62 bd ef 33 ef bd a3 ca 1f 3c b9 b7 4a 3d
       -0.055308383 -0.116798274 0.009752902 0.049491618
000020 47 06 ce bc 7d b2 98 3b 12 d3 c5 3b 3b cd 58 3d
       -0.025149478 0.0046599493 0.0060371244 0.052930098
000030 0e f8 92 3d 92 12 2f 3d af 5e fd 3c ac f4 c1 bb
       0.07176219 0.04274232 0.030928938 -0.0059190597
000040 52 2b 22 3c 80 7e 07 3c ee c0 f9 3c 1e 02 de 3c
       0.009898024 0.008269906 0.030487504 0.027100619
000050 c1 16 8c bc fd e5 16 bd aa c2 15 3d 1d 37 7b 3d
       -0.017100694 -0.036840428 0.0365626 0.061331857
000060 79 0d e1 bb 05 b6 69 bc e7 aa fd 3c de b5 cd 3d
       -0.006868061 -0.014264588 0.030965282 0.10044454
000070 5b e9 8e 3b 7c 0e c0 bb b0 fa c2 3c cb ea 10 3d
       0.0043613142 -0.0058611017 0.023801178 0.035380166
000080 0e 02 e3 bc 9b 06 b7 bc a5 f1 86 bb 85 77 10 3b
       -0.02771094 -0.022342017 -0.0041181617 0.0022043895
000090 e4 25 01 3d 82 e9 f3 bc df d6 c6 bd 9d ad 8a 3c
       0.031530276 -0.029774431 -0.09708952 0.016928488
0000a0 b6 2e 0a 3d b0 13 0e bd 7a ea e1 bd 76 f6 1c bd
       0.033735953 -0.034686744 -0.11031051 -0.03832098
0000b0 11 8b 8f 3d 44 c4 db bd aa d7 cb bd 9f 50 37 bd
       0.07008947 -0.10730794 -0.09953244 -0.04475462
0000c0 c2 67 a8 3c 1a db 50 bc 03 42 97 bc 0d 00 8e 3c
       0.020557288 -0.01274755 -0.018464094 0.017334009
0000d0 d6 c6 8c 3d 5e b5 77 bd ba 88 ab bc 55 44 4a 3b
       0.068738624 -0.0604757 -0.02093922 0.0030863483
0000e0 21 cc 14 3d b0 af 16 bd f6 f0 f0 3c 1b 7e 1e 3d
       0.036327485 -0.036788642 0.029411774 0.038694482
0000f0 01 2e 65 3b 50 6f d7 3c aa 6b 02 3d 4d 1c b5 3c
       0.0034970047 0.026298195 0.031840958 0.022108221
000100 92 b7 76 3d a8 ae 1d 3d 91 e1 a0 bd 70 74 62 bc
       0.06023366 0.038496643 -0.078555234 -0.013821706
000110 4e f1 69 3b 48 19 21 3e 56 55 bd bd e9 3c 10 bd
       0.0035696807 0.157323 -0.09244792 -0.03521434
000120 3f 38 ea bc 9e fb 3f 3e 37 5d b7 3b ce 7d 8d bb
       -0.028591273 0.18748328 0.005595829 -0.0043179756
000130 07 32 2f b9 0e ca 3e 3d 52 d5 e9 3b f4 3b c2 bc
       -0.00016707937 0.046579413 0.0071360255 -0.023710229
000140 b6 6a 92 bc b4 1a 5f ba e9 21 32 bd 4b e9 6e 3d
       -0.01787315 -0.0008510754 -0.04348937 0.058327954
000150 52 99 e6 bd f5 16 2d bc 5c 78 98 3d a4 2f f3 3c
       -0.11259712 -0.010564555 0.07444832 0.029685803
000160 39 51 bd bd 2d c3 f1 3d 84 9f 44 3d ab 77 31 bd
       -0.092440076 0.11804805 0.04800369 -0.043327015
000170 39 f8 d9 bc 36 e4 92 3c de b4 bb 3d a7 b3 b3 3c
       -0.02660762 0.017931085 0.09165357 0.02193625
000180 6c 30 0e bc b5 cc d3 3b f9 4f 20 3d e1 7a aa 3c
       -0.008678537 0.006463612 0.039138768 0.020810546
000190 41 6a 98 bd 4c b1 b9 bd 4b 8e f1 3d 36 63 f3 3c
       -0.07442141 -0.0906702 0.11794718 0.029710393
0001a0 4f 98 ea 3c 7c 41 9d 3d 9d bc 1c 3c ca 99 e6 bb
       0.02863708 0.07678506 0.009566453 -0.007037376
0001b0 e7 17 2b bc 36 79 00 3e c0 a9 16 bd 81 f5 22 bc
       -0.0104427105 0.12546238 -0.03678298 -0.009946228
0001c0 a8 32 c9 bc 85 1a 84 3c 40 f1 97 3d cd b2 cb 3c
       -0.024560288 0.016125927 0.07419062 0.024865532
0001d0 0d a1 30 bc cc d2 1f bb 45 bf 26 3d a4 a0 cc 3d
       -0.010780585 -0.002438712 0.040709753 0.09991577
0001e0 f2 b5 1b 3d 77 f1 ad 3d 95 4e 23 bd be c8 94 bc
       0.038015313 0.084933214 -0.039869864 -0.018162128
0001f0 3c 07 0c be 23 49 60 bc 89 85 03 3e 44 2a 26 3d
       -0.13674635 -0.013689312 0.12843908 0.04056765
000200 0f 2b d1 bb 42 6b 8a bd 20 10 5c bd 84 40 2b 3d
       -0.006383307 -0.06758739 -0.053726315 0.041809574
000210 62 57 92 3d 22 19 db bd 55 58 81 bd 33 5b 59 3d
       0.07145573 -0.10698153 -0.06315676 0.05306549
000220 b1 90 91 bc 1e 35 54 bd 5b aa 0d bd e1 be c1 3c
       -0.01776919 -0.05180847 -0.03458629 0.023650588
000230 67 35 27 bc be 72 39 3d c0 3f 02 bd dc df ec 3b
       -0.010205603 0.045275442 -0.031799078 0.0072288346
000240 91 12 cd bb 66 ea b4 bc 27 34 7f bd 15 88 f4 bb
       -0.006258317 -0.022084426 -0.062305596 -0.0074625113
000250 d7 fc aa 3d 37 22 9f 3b b9 32 70 bd 75 be 38 bd
       0.083490066 0.0048563736 -0.058642123 -0.04510351
000260 0f 0c 87 3d 1f 61 c8 bc 4b 19 bc bc f7 7e e1 3d
       0.06594097 -0.024460373 -0.02296128 0.11010545
000270 43 c5 b7 3c 23 bd 54 3d 21 5b 4a bc 50 0c 27 bd
       0.022432929 0.051938187 -0.012350828 -0.040783226
000280 80 a3 72 3c 5b ee 15 3c 31 5d f9 bb 64 a6 ad 3d
       0.014809489 0.009151067 -0.0076099862 0.08479002
000290 78 1a 43 bd 2f b6 ae 3d 3c b6 19 3d 38 39 89 3c
       -0.047632664 0.085308425 0.037527308 0.016750917
0002a0 b7 91 f6 bd f9 7b 22 3c 19 01 f2 3d 86 b5 32 3b
       -0.12039512 0.009917253 0.118166156 0.002726884
0002b0 89 e8 cd bb 47 cb 6d 3c d0 24 07 bd b9 bb 20 bd
       -0.006283824 0.014513797 -0.03299409 -0.039241526
0002c0 38 0c 95 bd af 60 9f 3c d1 d6 8e 3d 55 c4 a3 3d
       -0.07277721 0.019455282 0.06974567 0.07996432
0002d0 8b 6c 8e 3d 60 ae 58 bc 2b 1f 52 bd 19 79 7a 3d
       0.06954297 -0.013225168 -0.051299255 0.061150644
0002e0 2c 7a 4d bd 28 ef bf bd ab b0 bd 3d ae 07 43 3c
       -0.05016534 -0.09371787 0.09262212 0.011903686
0002f0 d7 22 08 3d fb 0f 48 bd a0 d3 5f 3d 09 24 c9 3d
       0.03323635 -0.048843365 0.05464518 0.09821326
000300 ae ee 1a bd 1c aa 93 bc 34 8e 8b bc bd ac fa bc
       -0.03782528 -0.01802545 -0.017035581 -0.030599946
000310 51 af 56 3d 6c 57 f4 bc 5d ba af bb 16 6f 33 3d
       0.05241329 -0.029826842 -0.0053627924 0.04380711
000320 b7 7d 93 bd 3f 11 8a 3d 9f 45 c5 bb 7d 5e ad 3d
       -0.072017126 0.06741571 -0.0060202624 0.08465288
000330 f6 75 c2 bc 35 42 f9 bc 97 8f 1b 3d 90 1c 63 bc
       -0.023737889 -0.030427078 0.037978735 -0.01386179
000340 a8 8a 62 bc e2 0f 54 bd df 38 13 3d a8 c3 55 3d
       -0.013827004 -0.05177296 0.03594291 0.052188545
000350 81 f9 10 3e 34 44 11 3e 7f 41 06 bd c7 7a 39 3c
       0.14157678 0.14186174 -0.032777306 0.011320776
000360 55 7a 61 bd a5 9c 2e bd b5 68 8d 3d ff 90 ca 3d
       -0.055048306 -0.042629857 0.06904737 0.09890937
000370 91 c0 38 bc 25 9c 4b bd ed 46 54 bb f8 be 0b 3d
       -0.01127638 -0.049709458 -0.0032390908 0.03411767
000380 28 82 6b 3d 0c b2 81 bd a9 07 a5 bd 6f 21 60 3d
       0.057497174 -0.06332788 -0.08058102 0.054719385
000390 0a 7f 30 3d 0d 7a 69 bd b5 a3 17 bd 49 76 6f 3d
       0.043089904 -0.057001162 -0.037021358 0.058462415
0003a0 99 20 4e 3d c2 89 22 bd e2 1f c3 bd a2 f2 97 3c
       0.050324056 -0.039682157 -0.095275655 0.018548314
0003b0 a0 65 ab 3d 4b 01 c1 3c bb 73 47 bd 44 31 45 3d
       0.08368993 0.023560187 -0.048694354 0.048142686
0003c0 05 03 1d 3c 88 39 fd bc f1 ce c7 bb 06 cf fb 3c
       0.009583239 -0.030911222 -0.0060976674 0.030738365
0003d0 ac 98 67 bd 8f ca 0a be 29 14 96 3c a0 ce 75 3d
       -0.056542084 -0.13553832 0.01832016 0.060011506
0003e0 6a 85 9c b9 3b 04 25 bd b7 47 81 bd 01 ff 32 3d
       -0.0002985404 -0.040287238 -0.06312507 0.043700222
0003f0 a8 ae 58 bd f1 87 c7 bc 38 19 bd 3b ab 1f c1 3c
       -0.05290094 -0.024356814 0.0057708286 0.02357467

encoder.3.bias f4 [40]
000000 e3 ef 70 3c 8f fc fa 3d 16 e0 8f 3d c9 88 70 bc
       0.014705631 0.12255203 0.07025163 -0.01468105
000010 63 10 13 3e 6b 79 89 3d 28 d5 7f 3e eb 31 65 3c
       0.1436172 0.06712612 0.24983656 0.013988952
000020 eb ce b5 3b bb 0a f5 3b 8f 66 a5 3d a2 db b7 3d
       0.005548348 0.007478086 0.08076202 0.089774385
000030 97 3f ce b9 fb 6b 10 3d 12 39 94 3d 13 5e df 3d
       -0.0003933876 0.03525923 0.07237448 0.10906615
000040 1a 60 4b bc 5f 21 0a 3c 2d c4 6f 3c f5 7a 43 bc
       -0.012413049 0.008430808 0.014634174 -0.011931171
000050 ae 79 b4 3b 78 37 ff 3b 81 d1 2d 3e b2 3f 08 3d
       0.0055076694 0.007788595 0.1697445 0.03326387
000060 23 a7 13 bd b9 dc e2 3d 2a df ad bc ac 46 3c 3d
       -0.036048066 0.11077256 -0.021224577 0.045965835
000070 dd be 1c 3e 82 f0 29 3d ed b1 7c 3c e8 46 bd bc
       0.15307184 0.04148913 0.01542328 -0.0231051
000080 23 e3 ad bd 4c 78 ef bc 6f 7d 11 bd 27 0e a6 bd
       -0.084905885 -0.029232167 -0.035520013 -0.08108168
000090 f2 0b 6c bd 1d 04 90 bd d4 b5 31 3d a3 d1 7c 3c
       -0.05762858 -0.070320345 0.043386295 0.015430841

encoder.4.block.1.weight f4 [40, 40, 3, 3]
000000 fc 2f 15 bc b5 80 21 bd b2 fa f7 3c e3 af 2d 3c
       -0.009105679 -0.039429385 0.030270908 0.010601017
000010 11 85 2b be 1f 66 a3 bd e4 ab 9f bb 78 4d b0 bb
       -0.1674998 -0.079784624 -0.004872786 -0.0053803287
000020 bb 9f 80 3d 32 a6 af bd 85 d5 13 3e ac 8c e5 3d
       0.06280466 -0.08576621 0.1443692 0.11208472
000030 6f b3 16 3d 81 8b 40 be 76 ee 6f 3b 90 5e 31 3c
       0.036792215 -0.18803217 0.003661064 0.010825768
000040 24 e7 5a 3d e3 80 fb bc 12 21 b8 3a e7 b8 aa bc
       0.05344309 -0.030701106 0.0014047942 -0.020840121
000050 4c 0b 1a 3d 4c 3c 74 3d c4 ca 0a bd 31 78 6a 3d
       0.03760843 0.059627816 -0.03388478 0.05724353
000060 1d e0 5c 3d d2 fe 72 bc 02 16 ff 3b 07 e5 cd bd
       0.05392467 -0.014831262 0.007784606 -0.10053449
000070 a7 41 18 bd d0 89 9e bc bf 9f 99 bd 91 ad 48 3d
       -0.037171986 -0.019352823 -0.07501172 0.04899365
000080 24 69 32 bd e7 1d e0 3d 8e 77 94 be ca cb 61 bc
       -0.0435573 0.109432034 -0.28997463 -0.013781497
000090 0d 47 53 bc 62 34 1f bd 96 2b 62 ba cd 6b 3a 3d
       -0.012895358 -0.038868316 -0.00086277106 0.045512963
0000a0 25 ce 17 3e fa 10 3a bb b1 bf 55 3d bc c6 11 bd
       0.14824732 -0.0028391466 0.052184764 -0.03558992
0000b0 91 80 9b bb e1 8e 2e bc 73 ae 5e bd 59 ce 32 3d
       -0.004745551 -0.010654182 -0.054365586 0.04365382
0000c0 e3 98 53 3d be a8 61 bc f5 ee 9b bc 68 b2 90 3c
       0.051659476 -0.013773141 -0.019034842 0.017663196
0000d0 f6 72 b6 bc dd b4 ce 3b 6d dc 3a bd b9 0d 60 3d
       -0.022271615 0.0063081817 -0.04562037 0.054700587
0000e0 67 8a 4c 3c 21 46 db 3c b3 b0 47 3e 41 28 67 3c
       0.01248417 0.026766839 0.19500999 0.014108718
0000f0 dc 9f 62 bd a7 33 a9 3c 63 20 eb 3b 5e e4 ac 3c
       -0.055328235 0.020654513 0.0071754917 0.021104988
000100 5f fc 5d bd 9f e7 54 3d 20 09 57 bc fb 0d 8f 3d
       -0.054195758 0.051978704 -0.013124734 0.069850884
000110 b7 63 1f 3b 14 40 f5 bb 5f d1 19 bd 8f 21 8f bb
       0.002432091 -0.0074844453 -0.037553187 -0.004368014
000120 f4 db 0a bd 67 7b 29 bc 56 e6 a4 bc 3c 47 bc 3c
       -0.03390117 -0.010344363 -0.020129364 0.022983186
000130 d7 7d 4c 3d 9f f8 26 bd 13 e2 28 bd 88 06 ae bd
       0.049924698 -0.040764447 -0.041231226 -0.084973395
000140 da 62 84 bd 93 45 1b bd dd 0d f3 3d ab 3a 8d 3d
       -0.06464167 -0.037908148 0.118678786 0.06895956
000150 a0 39 e4 bd 42 10 94 3d b9 df 74 3d b1 d6 67 bc
       -0.111438036 0.072296634 0.05978367 -0.0141503075
000160 8d 6b 08 3d bb aa 2f 3d e8 f8 f4 3b f9 c0 d3 bc
       0.033305693 0.04288743 0.007475961 -0.025848852
000170 88 7c 3a bc aa 37 33 bd c8 04 c6 bc 52 44 47 bd
       -0.01138223 -0.043754257 -0.024172202 -0.04864914
000180 f0 7d 01 bd ee 81 75 bd 4c 71 90 bd ea 7f 0c bd
       -0.031614244 -0.059938364 -0.0705286 -0.034301676
000190 62 d8 a1 3d 2f fe 41 bd e0 dd 4c 3b 1b 26 09 bd
       0.079026 -0.04736155 0.0031260177 -0.033483606
0001a0 37 91 7b 3d 92 65 92 bc b4 b3 1d 3d 4a 4c 8d 3c
       0.061417785 -0.017870698 0.038501456 0.017248292
0001b0 cc 3c c1 3c d2 ae b8 3d f6 24 f4 bc ac 88 9d bd
       0.02358856 0.09017719 -0.02980278 -0.07692084
0001c0 43 f7 ff 3d 38 4a 2f bb 71 8f da bc f4 a2 f3 bb
       0.12498333 -0.0026747119 -0.026679726 -0.007435197
0001d0 03 7b 60 bd d1 d2 7c 3d 8f a6 15 bd 4f 61 28 3d
       -0.054804813 0.061724488 -0.036535796 0.041108426
0001e0 35 ad e5 bd 54 3a 5b be f5 31 00 3e 9c dd 37 3b
       -0.11214677 -0.21408969 0.12519057 0.0028055673
0001f0 f9 bf ac 3b 37 6e c4 bc bd 17 9f bd ce f8 be 3d
       0.0052719084 -0.023978336 -0.077681996 0.093247995
000200 c4 c4 fe bc ec 4f 6b 3e 72 b5 a5 be 47 94 67 3d
       -0.031099685 0.22979707 -0.32364994 0.056537893
000210 12 1f 8d 3d e2 e1 a9 bc e9 d9 2c 3c a3 ea b7 bd
       0.06890692 -0.020737592 0.010550001 -0.089803
000220 4e 29 a1 3d 22 af 5f 3c b7 e2 97 3d a6 ab 5f 3c
       0.07869206 0.013652595 0.07416289 0.013651764
000230 e4 45 64 3c 8b 4e aa bc dd c7 8d bc 79 3c ff bc
       0.013932679 -0.020789405 -0.017307216 -0.031156765
000240 21 a5 de bc 05 30 64 bd d0 45 b1 bd 92 5f a3 3d
       -0.027178349 -0.055709857 -0.08655894 0.07977213
000250 09 74 4e bd a1 af 03 3d aa 83 8b bd 85 5f 20 bd
       -0.05040363 0.032149915 -0.06812222 -0.039153595
000260 1f 89 84 3c 86 33 e1 3d f2 0e 1a bd 7b ec 00 be
       0.016178666 0.109961554 -0.03761191 -0.1259021
000270 cb 1d 1a bd 86 8b 28 3d ae 6d e9 3d 1c 28 f9 3c
       -0.03762607 0.041148685 0.11397873 0.030414633
000280 b1 66 d9 bc c4 3b b2 3c 5b 00 de 3b b7 d7 c8 bd
       -0.026538225 0.021757014 0.0067749447 -0.09806769
000290 0e 41 28 bd 3e e7 09 3c d3 44 a8 bd 86 c6 19 bd
       -0.041077666 0.008416949 -0.08216252 -0.037542842
0002a0 35 06 54 3c ba 95 1f bd 39 bd d0 b9 64 6b 3f bd
       0.012940933 -0.03896115 -0.00039813833 -0.046733275
0002b0 ab d1 3d bc b7 c8 6b bd 4e bd ca bc b1 0e fa 3c
       -0.011585633 -0.057564463 -0.02474847 0.030524584
0002c0 e0 58 ee bd 2e da 26 be 4c a3 e0 3d 1a f6 ee 3c
       -0.11638045 -0.16294166 0.109686464 0.029170085
0002d0 ca 79 67 bc 21 2b d7 3d 7b 13 1a be a6 5d 8b 3d
       -0.014128158 0.10506273 -0.15046494 0.068049714
0002e0 d1 ff 4a bd 01 0a 8b bd 43 f2 76 be 84 78 0c 3d
       -0.04956037 -0.067890175 -0.24115853 0.03429462
0002f0 c7 54 92 bd 94 be 89 3c 5a 3c 14 be 85 b5 d3 3b
       -0.07145076 0.016814508 -0.14476147 0.006460848
000300 2c 7b a7 bc f3 af 6f 3d d2 2f 0f 3e 88 a3 2a bc
       -0.020444475 0.058517408 0.13983086 -0.010414965
000310 48 82 d2 3c ef 89 18 bd f7 e1 98 bc 86 78 0c 3b
       0.025696889 -0.03724092 -0.018662436 0.0021434142
000320 df 58 65 bb f1 ae ac bd be ea 3c 3e 47 32 9a 3b
       -0.0034995598 -0.08431805 0.18448922 0.0047057006
000330 86 9b 33 bd 01 a4 aa bc e6 14 19 bd fc ac c1 3c
       -0.04384949 -0.020830156 -0.037373446 0.023642056
000340 b4 44 3c be 21 5c 15 3b 5c 83 29 bd a8 3a 63 be
       -0.18385583 0.0022790509 -0.04138504 -0.22190344
000350 8d 89 3d 3c 6b 7b 39 3c 18 7a 2b 3d 09 df 09 3d
       0.011568439 0.011320929 0.041864485 0.03365997
000360 cf 92 5f 3d c0 42 13 3d 8d b9 59 bd a3 f1 3d be
       0.054583367 0.03595233 -0.05315547 -0.18549208
000370 96 7e 28 3e 7d c4 a1 3d 11 53 8b 3d 78 79 11 3d
       0.16454539 0.07898805 0.06802953 0.035516232
000380 1b 32 17 bd cf a9 12 3c 98 5f 71 bb 82 e5 86 bc
       -0.03691302 0.008951618 -0.003683066 -0.01646686
000390 8a fd 07 be fc 6a 8c 3e 5e c2 93 bd ca ec 8e 3c
       -0.13280311 0.27425373 -0.07214807 0.017446894
0003a0 f8 c6 20 3d 74 80 37 3c 1f b4 39 3d f9 ea 41 3c
       0.03925225 0.011200059 0.045337792 0.011835807
0003b0 b9 30 95 bc 98 6a 1b 3d ff 49 44 be b4 c5 67 bd
       -0.01821171 0.037943453 -0.19168852 -0.05658503
0003c0 58 fa e0 3c 1f b4 9b 3b 8b 6b 28 3a af e7 fe bb
       0.027463123 0.0047516967 0.00064247166 -0.0077790837
0003d0 f4 03 c9 3d e5 52 0d 3d 91 f5 d9 bc 28 cb 2e be
       0.09815207 0.034502883 -0.026606353 -0.17069685
0003e0 d8 ad 22 3c 4c 26 bb 3d bc 13 73 bd c8 44 0e bb
       0.009929143 0.09138164 -0.059344992 -0.0021708477
0003f0 ca 57 9a bc e1 78 06 3d 14 87 5c bc 87 25 bf bc
       -0.01884069 0.032830123 -0.0134599395 -0.023333324

encoder.4.block.1.bias f4 [40]
000000 5d 9e 48 3b 32 fd a8 bb a0 b2 9b b9 f7 12 44 3a
       0.003061197 -0.0051571364 -0.0002969699 0.00074796326
000010 8c 84 6e b9 b1 ff 26 3b b7 67 ab 3a a7 c2 e7 38
       -0.00022746826 0.0025481994 0.0013077174 0.00011051195
000020 47 d6 3b 3a 03 ff 85 ba a2 82 9e 3b d2 62 0f 3c
       0.00071654137 -0.0010223094 0.00483735 0.008751588
000030 59 48 1e b9 c5 49 0f 3b c2 ea 9d b9 d3 98 8f 3a
       -0.00015095006 0.0021864038 -0.00030120282 0.0010955579
000040 87 cf 21 bb 3a 80 b6 ba 30 af 32 3a c9 1e 43 3a
       -0.0024690346 -0.0013923713 0.0006816266 0.0007443247
000050 61 f0 1f b8 e4 2f d8 36 cb 06 06 bb ee 4f 18 bb
       -3.8132424e-05 6.442877e-06 -0.0020450826 -0.0023241001
000060 7a 53 63 3b 1c e5 46 ba 63 da bb 3a e4 4e a6 3b
       0.0034687207 -0.00075872405 0.0014332052 0.0050753225
000070 d0 0c 4a b9 ff 67 6c 3a 13 f4 03 3b 98 26 b9 3a
       -0.00019268994 0.0009018182 0.0020134493 0.0014125882
000080 67 9e ad 3a 86 07 3d 3b 82 15 01 ba 9b 1e 8f 3b
       0.001324606 0.0028843596 -0.00049241644 0.004367662
000090 81 84 47 bb 57 59 d3 39 18 38 59 ba f4 8f 2e 3b
       -0.0030443969 0.0004031162 -0.00082862517 0.0026636096

encoder.4.block.2.weight f4 [40]
000000 df 55 8a 3f cb 1e 8c 3f d6 5b 83 3f 6b 12 71 3f
       1.0807456 1.0946897 1.0262401 0.9416873
000010 57 78 7b 3f fb 26 75 3f 39 49 68 3f 33 85 69 3f
       0.982305 0.95762604 0.9073673 0.9121887
000020 63 5b 47 3f 5a 80 60 3f 96 0c 7a 3f fa 2e 89 3f
       0.7787382 0.8769585 0.97675455 1.0717461
000030 47 23 7d 3f 77 fe 8b 3f c9 cf 95 3f 7c 43 88 3f
       0.98881954 1.0937032 1.1704036 1.0645595
000040 b9 a7 89 3f ac eb 1f 3f 15 a4 6f 3f 9b 93 5a 3f
       1.075431 0.6246898 0.93609744 0.8538148
000050 f5 13 75 3f 78 e1 8b 3f 3c 20 38 3f 26 f4 6d 3f
       0.95733577 1.0928183 0.71924186 0.92950666
000060 1b ed 65 3f 04 91 5e 3f ba 5d 8a 3f b9 3a 8e 3f
       0.8981492 0.86940026 1.0809853 1.1111671
000070 d8 55 6f 3f 6f 51 92 3f 7b b5 8a 3f 55 72 8c 3f
       0.9349036 1.1431102 1.0836633 1.0972391
000080 83 bd 8c 3f c3 96 9a 3f 15 c1 71 3f 6e 2a 87 3f
       1.0995334 1.2077259 0.94435245 1.0559824
000090 30 95 69 3f 5d b5 30 3f 6c 45 a6 3f 83 84 58 3f
       0.9124327 0.6902674 1.2989936 0.84577197

encoder.4.block.2.bias f4 [40]
000000 c9 b1 bd 3e ee 46 66 3e 64 ca 29 bd 41 bc 1f 3f
       0.37049702 0.22487995 -0.04145278 0.6239663
000010 2b d8 c6 3e c5 cb d3 3e a5 d8 82 3d 91 a8 8b 3d
       0.38836798 0.413664 0.06388978 0.06819261
000020 ff 70 b1 3d 72 11 5d bd fd 4e 61 3d 10 cd c8 3e
       0.086641304 -0.053971715 0.05500697 0.3921895
000030 76 6a c5 3e d8 df 03 3f 0a 35 d6 3e 82 de 7e bd
       0.38557786 0.51513433 0.4183734 -0.06222392
000040 0b 4e 4f 3d cc c0 26 3e 5b 9a 82 3e 7d fe 67 3e
       0.050611537 0.16284484 0.2550839 0.22655673
000050 69 e4 2b be 88 f7 9f bd e7 9e dc be ee 33 68 bd
       -0.1678635 -0.07810885 -0.43089983 -0.05669015
000060 60 02 8c 3d e2 55 48 3c 12 a4 87 3e 95 29 58 bd
       0.068363905 0.012227507 0.26492363 -0.05277403
000070 17 3b 91 be e8 f6 03 bd 65 cf b0 3e cf c0 36 3e
       -0.28365394 -0.03221789 0.3453323 0.17846988
000080 45 bb a3 3d fd fa 97 3e 5d cd 00 3e e8 d5 09 3c
       0.07994703 0.29683676 0.1257834 0.008412816
000090 54 e5 16 bb cd df 60 bc fa 19 b4 be 8e de 75 3d
       -0.0023024874 -0.013725233 -0.3517607 0.060026698

encoder.4.block.2.running_mean f4 [40]
000000 dd 56 64 3e d9 32 3c bf 3e f2 3c bf a3 5d 0c bf
       0.2229876 -0.7351509 -0.7380713 -0.5483038
000010 ac 1b a9 bc 81 86 0d 3f 6e 0b 52 3e 62 20 a2 be
       -0.020643078 0.5528336 0.20512173 -0.3166533
000020 31 61 e5 bd 96 d4 4a be ab d8 d0 3e be 03 9e 3e
       -0.112001784 -0.19807658 0.40790305 0.3086223
000030 08 95 12 3d 76 32 c2 3e 73 92 22 3e e5 f4 2c bf
       0.03578666 0.37929124 0.15876178 -0.6756118
000040 3a fe 07 bf 30 fa f9 bc 93 b4 0a 3f 42 f8 87 bc
       -0.53122294 -0.030514807 0.54181784 -0.01659787
000050 74 90 07 3e e1 19 1e bf 0a da ce be 28 e2 8f be
       0.13238698 -0.6175824 -0.40400726 -0.2810223
000060 67 66 b6 3d 28 58 02 bf d5 5a 1d 3f 15 86 36 3f
       0.089062504 -0.50915766 0.61466724 0.7129834
000070 5c 9e 34 3c 6f 46 53 bf 85 88 55 3f e6 ba 10 3f
       0.011024084 -0.8252935 0.8341144 0.56535184
000080 d0 15 11 bf ca ef ad bd 88 2f 71 3e d1 ad f9 be
       -0.5667391 -0.08493002 0.23553288 -0.48765424
000090 5b 69 83 bd f9 4b 2b be cd ff ca be f2 6b 27 39
       -0.06416579 -0.167282 -0.39648286 0.00015966574

encoder.4.block.2.running_var f4 [40]
000000 d8 98 bf 3e fe 2b 71 3f 0e 7c 4c 3f 58 58 d1 3e
       0.37421298 0.9420775 0.7987679 0.40887713
000010 03 76 ad 3e 5a a7 ca 3e 79 82 e4 3e 11 2f 1d 3e
       0.33879098 0.39580804 0.44630793 0.15349986
000020 e1 0f 74 3e fe 63 f3 3e 93 16 0c 3f 11 da fb 3e
       0.23834182 0.47537225 0.54721946 0.4918981
000030 64 b3 95 3e b0 ef 9d 3e a9 cc 24 3f cb 0b 02 3f
       0.29238427 0.3084693 0.64374787 0.50799245
000040 d3 85 c3 3e 9e 7c 41 3e 4e c2 0d 3f c7 21 54 3e
       0.38188037 0.18895194 0.5537461 0.2071601
000050 f3 8b e6 3d 0d 07 66 3f e9 d3 98 3d 37 14 01 3f
       0.11257162 0.8985451 0.07462294 0.5042147
000060 67 a1 d5 3e 24 de d0 3e 06 ad 02 3f 87 a8 2e 3f
       0.41724703 0.4079448 0.5104526 0.682259
000070 d8 13 bc 3d 8c ed 67 3f 4f 07 21 3f 96 2d 7a 3f
       0.091834724 0.9059684 0.6290178 0.9772581
000080 79 db 40 3f 9f 8f cf 3e 89 f7 e0 3e cf de 00 3f
       0.7533489 0.40539262 0.43938854 0.5033998
000090 4c 19 76 3e 02 2d 2a 3e c2 13 16 3e 49 e0 39 3e
       0.24033087 0.16618732 0.14655975 0.18151964

encoder.4.block.4.weight f4 [40, 40, 1, 1]
000000 bf b1 1f 3d 1d a4 44 3e 83 69 8b 3e 23 ae 18 3e
       0.03898787 0.19203229 0.27228937 0.14910178
000010 c5 12 32 bd 91 5d 29 3d f1 c0 01 bb 48 5f 3a 3d
       -0.04347493 0.041348998 -0.001979884 0.045501024
000020 42 c6 4a bd 2a de fb 3d c2 24 5d be 2c 12 5f be
       -0.04950548 0.12298234 -0.21596053 -0.21784276
000030 06 6f 73 be 1b c5 41 be b9 c3 4f be 34 54 9a bd
       -0.23772821 -0.18922846 -0.20289506 -0.07535592
000040 99 b4 bd 3d b6 f3 0f bc 10 05 13 be 2b 75 f8 bc
       0.09262962 -0.008786133 -0.143574 -0.030329308
000050 65 0d 19 3e 6d ed 44 3e bf 20 2e ba ce cd 6d 3e
       0.14946516 0.19231196 -0.0006642453 0.2322304
000060 93 18 3d 3e 61 bf 54 3d 12 2c 91 be 2a 19 81 be
       0.18466406 0.051940326 -0.28353935 -0.2521451
000070 92 13 9c be e9 45 02 be f4 61 07 bf 90 cd b6 bc
       -0.3048368 -0.12721981 -0.5288384 -0.022314817
000080 5a 1f b5 bc cd ee 83 be 8a 70 8d 3d 5d b7 22 3d
       -0.022109676 -0.25768128 0.06906231 0.03972565
000090 81 82 8e 3d 33 f8 b4 bd 3b dd 9f 3e c3 82 b2 3d
       0.069584854 -0.08836403 0.31223473 0.08716347
0000a0 92 b8 e8 3d 15 9b df bd 78 8c f2 3e 36 dd 1a be
       0.11363329 -0.109182514 0.47372794 -0.15123448
0000b0 36 ae 2a 3d 34 23 6d 3d 68 e8 84 bb bf 27 3f 3d
       0.041670047 0.0578949 -0.0040560253 0.046668764
0000c0 90 04 03 3e 3c 89 bd bc c6 d2 59 bd d3 84 64 3e
       0.12794709 -0.023136728 -0.053179525 0.22316293
0000d0 23 76 8c 3d 32 69 23 3e b1 63 8c 3e 1b 7c 36 be
       0.0685847 0.15958098 0.27419809 -0.1782078
0000e0 ea 9a e9 bd ff b6 fa 3d 16 12 90 bd 77 d0 ad 3c
       -0.11406501 0.12241935 -0.070346996 0.021217568
0000f0 55 b7 bf bd 2b f3 7f be 15 aa a7 3c e4 cc 6c bd
       -0.0936114 -0.24995105 0.020466844 -0.057812586
000100 93 bd 8f bc ec e1 b6 bb d2 1d 1f bc 96 67 65 3d
       -0.01754645 -0.005581131 -0.0097117 0.05600699
000110 76 32 76 bc 68 9f df bd 07 35 ca 3d fb 95 a0 3d
       -0.015026679 -0.10919076 0.098733954 0.078411065
000120 22 48 34 3d e2 a6 c7 3e 8c 4a 1a 3e 2a d0 0b be
       0.044014104 0.3899451 0.150675 -0.13653627
000130 88 7d 98 bd 73 bf f5 3d a1 7c c0 be 97 ec 1f bd
       -0.07445818 0.11999407 -0.37595084 -0.03904399
000140 ea 43 15 be 9f af 16 3e 08 f8 83 3d 78 80 8a be
       -0.14576688 0.14715432 0.064437926 -0.2705114
000150 1d 2a 79 bd 7b 64 02 be c5 0c f0 bd f1 9f bd bd
       -0.060831178 -0.12733643 -0.117211856 -0.09259022
000160 19 95 3f 3b a9 03 e5 bd 2c cb 19 3d cf ce 7c be
       0.0029233156 -0.11182339 0.037547275 -0.24688266
000170 ae 79 2e 3d ae b4 6e bd 64 6b 1d be ba bb ac 3c
       0.04259651 -0.05827778 -0.15372998 0.021085609
000180 1c 34 3d 3d 38 f8 1b 3d e6 1e 0c be 17 e5 2d be
       0.046192273 0.038078517 -0.13683662 -0.16981922
000190 23 66 94 bd 40 04 ba 3d 1b fd 41 3d 17 0a ba 3d
       -0.072460435 0.09082842 0.04736052 0.09083956
0001a0 26 ea 53 be f6 2e 1d 3d ed 64 27 be 6e 3f c4 3d
       -0.2069479 0.038374864 -0.16347094 0.09582411
0001b0 0d ae 0f be f0 0d 2d 3e 79 55 e9 bd f9 6f a3 be
       -0.14031239 0.16899848 -0.11393256 -0.31921366
0001c0 bd 8a 04 be 51 93 89 be 3d 42 43 bb 05 70 31 3e
       -0.1294355 -0.26870206 -0.002979412 0.17327888
0001d0 39 18 02 3d 88 78 2e 3c 96 32 08 3f 29 9f 1b bd
       0.03176138 0.010648854 0.5320219 -0.037993584
0001e0 af 12 8c bc d2 47 91 3e 8e 49 1e 3e c9 1e 5a bd
       -0.017098753 0.28375107 0.15457746 -0.053252015
0001f0 2d 6b 38 be 7f 6d 73 3d 87 eb 29 be b5 75 be be
       -0.18009634 0.059430595 -0.16593753 -0.37199178
000200 48 13 07 bf aa 71 79 bd 71 17 f0 3d 9c da ad be
       -0.52763796 -0.060899414 0.11723221 -0.33955848
000210 52 27 bd bd c7 7d 15 be 0f 20 8c bd 34 c4 6b be
       -0.092360154 -0.14598761 -0.06842052 -0.23024064
000220 dd 47 b3 bc 5c 48 85 3d d2 80 85 be 86 5c 00 3e
       -0.021884853 0.06507942 -0.26074845 0.12535295
000230 13 83 62 3e 87 65 30 3e 02 29 d0 3b 22 b0 15 3e
       0.22120313 0.1722623 0.0063525448 0.1461797
000240 51 bb 67 be 9c 62 9c 3b 20 aa 8d bd 1a 78 6d 3b
       -0.2263005 0.0047724973 -0.069172144 0.0036234916
000250 af 5f 37 3e 8a 2c 27 3c cb 28 58 bd b6 d3 51 3d
       0.17907594 0.01020349 -0.05277328 0.051227294
000260 55 f7 a4 3d f1 c8 cf bd aa 6a f5 bd 46 d5 59 3e
       0.08054987 -0.101457484 -0.11983235 0.21272764
000270 0e 4e b5 3d 76 93 77 bd 38 79 b1 3e 86 2a 26 bd
       0.088527784 -0.060443364 0.34662795 -0.040567897
000280 34 c9 d7 bd f3 7d 46 be 3d 75 38 bd 0b 87 05 ba
       -0.10536423 -0.19383983 -0.045033682 -0.00050936703
000290 dc ee 3e bd bb e0 98 be 22 5d 7d 3e a7 5f 4d be
       -0.046614513 -0.29858956 0.24742559 -0.2005602
0002a0 74 17 c6 bd 0e 56 41 3d cc 9f e8 3c b6 06 ef 3d
       -0.09672442 0.04720121 0.02839651 0.11671202
0002b0 09 ef 82 3e 17 99 b7 3e d9 4a 29 3e 67 89 f3 bc
       0.25572994 0.35858986 0.16532458 -0.029728604
0002c0 9d 04 be bd 8f e0 1b 3d 81 a0 a5 3d 0c 03 26 3e
       -0.09278224 0.038055953 0.08087254 0.162121
0002d0 d3 f9 2b 3e 70 9c c6 3c 89 20 8d be 21 d3 a6 3d
       0.16794519 0.024244517 -0.27563885 0.081457384
0002e0 23 f0 03 bd 9a 51 6a be d4 7b 12 be 84 25 12 3e
       -0.032211434 -0.22882691 -0.14305049 0.14272124
0002f0 3d 4b f6 3d c8 db e6 bd 94 f2 17 3e 1b 29 68 be
       0.12026069 -0.11272389 0.1483863 -0.2267193
000300 9c df 20 be 9b f9 0a 3e 41 98 32 3e 1e 12 5f bd
       -0.157103 0.1357178 0.17440893 -0.054460637
000310 c4 2e ee bd 66 70 24 be 4f 00 51 be ea 5f e5 3d
       -0.116300136 -0.16058502 -0.20410274 0.11199935
000320 44 67 86 3d 6e 91 83 bd d3 11 09 3d 95 16 38 bd
       0.06562665 -0.06424223 0.033464264 -0.04494341
000330 a4 24 a4 bd 00 8f e1 be 8e 35 98 be 37 18 7b 3d
       -0.08014801 -0.44054413 -0.2972836 0.06130239
000340 49 05 13 be 27 48 41 bd cf e9 d5 3d a7 a7 2a be
       -0.14357485 -0.04718795 0.10444986 -0.16665517
000350 53 b9 c3 be e2 46 20 3c cc 43 32 3d 5e 96 73 bb
       -0.3822733 0.009782525 0.043521687 -0.0037168483
000360 75 94 ae bd e0 0c db 3d e0 92 9a bd e8 3d 76 be
       -0.0852441 0.10695815 -0.075475454 -0.24047053
000370 1f 95 d2 bc aa 8b 80 bb 8d 21 23 3e 87 c9 00 3d
       -0.025705872 -0.0039228993 0.15930767 0.03144219
000380 08 3c 5b bc 95 2e dc 3d 06 86 c4 3d 70 5d 3a 3e
       -0.013381012 0.10751072 0.095958754 0.18199706
000390 89 bd 12 be 6b 70 aa 3a c4 56 29 be c4 ff c3 3e
       -0.14330114 0.0013003474 -0.16537005 0.3828107
0003a0 1b 36 f0 3d 39 7b 7a 3e 93 80 37 be 57 2c 03 3d
       0.1172907 0.24461068 -0.17920141 0.032024708
0003b0 23 7f b0 3d b6 df ea bc cb 75 92 3e 2a 1b 11 be
       0.086179994 -0.028671127 0.28605494 -0.14170519
0003c0 a9 b0 26 be da 82 fe bd 38 4f 8e be 78 2d db 3c
       -0.16278328 -0.12427302 -0.27794814 0.02675508
0003d0 ce 02 14 3d f9 23 51 be c7 6a 22 3e 5c 0c 4b 3d
       0.036135487 -0.20423879 0.15861045 0.049572334
0003e0 e3 b9 6f 3e 55 00 e3 3c fe cb 0b bf 2b c8 5e be
       0.23410754 0.02771012 -0.5460814 -0.21756046
0003f0 ab b7 40 be db 3a a4 bd 88 38 ce bd 3d 64 6e bd
       -0.18820064 -0.08019038 -0.10069376 -0.058201063

encoder.4.block.4.bias f4 [40]
000000 be 3b 07 bc a9 c2 09 3b 86 8b a9 bb 24 87 de ba
       -0.00825399 0.0021020568 -0.005174103 -0.0016977531
000010 3d f7 2a ba 3c 5a a7 39 04 52 3f bc 18 66 18 bc
       -0.0006521827 0.00031919952 -0.011677269 -0.009301685
000020 49 cc 7e 39 58 cb 30 b9 e1 52 15 bb 0f 16 87 bb
       0.0002429943 -0.0001686042 -0.0022784995 -0.0041225026
000030 4f 42 96 bb f6 fb a7 3a c5 35 d8 bb f9 31 3c 3a
       -0.0045855413 0.0012816179 -0.0065982067 0.00071790774
000040 00 24 ce bb bf e0 b1 39 1f fd 32 3b 7e 31 22 3c
       -0.0062909126 0.0003392752 0.0027311516 0.009899495
000050 fe 96 ee 3b 69 00 9f bb fc e2 77 3b 0f 07 89 ba
       0.0072811833 -0.004852344 0.0037824502 -0.0010454374
000060 dd e5 ba bb e3 5c 8c bb 99 d0 66 bb 4c b6 05 39
       -0.0057036714 -0.004283534 -0.0035219549 0.0001275178
000070 31 56 ad bb 08 4f fc bb 59 b8 d5 3a 73 e5 b4 3b
       -0.005289816 -0.007699851 0.001630555 0.0055205165
000080 a8 77 28 bb ed 33 48 bb e0 93 02 bc 1b aa 8a bb
       -0.0025706086 -0.0030548528 -0.007969826 -0.004231704
000090 9b 84 c1 bb 61 88 d4 bb f2 51 fb 3a 1f 88 03 bb
       -0.0059057004 -0.006485984 0.0019174202 -0.0020070148

encoder.4.block.5.weight f4 [40]
000000 51 8a 39 3f ce be 0c 3f d4 38 3a 3f 7b b8 0c 3f
       0.7247668 0.54978645 0.7274296 0.54968995
000010 e0 2b 4a 3f 3c 76 0f 3f ce 28 71 3f aa e9 04 3f
       0.789732 0.56039786 0.9420289 0.51919043
000020 10 d2 40 3f a3 4d 1a 3f 4a 76 5c 3f 2d d7 51 3f
       0.7532053 0.60274714 0.86117995 0.8196896
000030 e7 d1 32 3f b0 cb 2a 3f a7 99 0b 3f 37 84 a9 3f
       0.69851536 0.6671705 0.5453133 1.3243474
000040 b2 e8 04 3f ee 61 65 3f 24 b4 79 3f 29 f4 f6 3e
       0.51917565 0.89602554 0.975405 0.48233154
000050 41 50 a7 3e 42 84 69 3f 4d a2 7c 3f b2 9a 2c 3f
       0.32678416 0.91217434 0.9868515 0.67423546
000060 dd 37 11 3f 32 0c 00 3f 49 09 5c 3f 51 c3 71 3f
       0.56725866 0.5001861 0.8595167 0.94438654
000070 cb c1 23 3f b3 80 29 3f c1 8a 4f 3f 21 0f f0 3e
       0.6396758 0.66212004 0.81071097 0.46886542
000080 7a 44 07 3f 6d 84 3d 3f cf c8 59 3f ce 51 4b 3f
       0.5283886 0.7403019 0.85072035 0.794217
000090 a1 1e 56 3f f6 c8 1b 3f 3e b1 fb 3e 90 84 10 3f
       0.83640486 0.6085352 0.49158663 0.56452274

encoder.4.block.5.bias f4 [40]
000000 99 f5 ed be 5d 3b 47 3c fa a2 96 be 7e 2b 6d be
       -0.4647644 0.012160149 -0.29421216 -0.23161122
000010 66 0c 2e 3d d3 ee 77 be 8d cd 65 be 83 c3 a1 be
       0.042492293 -0.24212198 -0.22441693 -0.31594476
000020 5b 84 06 3e 36 06 ac be 55 82 5a 3d f3 69 4b be
       0.13136427 -0.3359849 0.05334695 -0.19864635
000030 ef 30 ce be cf 24 e5 bc 4e 1f eb bd a9 b9 7b be
       -0.40271708 -0.027971653 -0.1148058 -0.24582542
000040 26 be 95 be 3b 46 59 bc e8 0b 1d 3e 0e 4a 16 be
       -0.29246634 -0.013261373 0.15336573 -0.14676687
000050 82 ca 45 be 1b 06 11 3d 2c b0 1b 3d aa 52 22 be
       -0.19315532 0.035406213 0.038009807 -0.15851846
000060 cd 04 ab be c8 6a a0 bd b7 05 2d 3d d1 f8 97 3d
       -0.334021 -0.07832867 0.04224178 0.07420505
000070 f8 f3 12 be 10 81 dc bd 4a 0f 8a be ca 27 2e be
       -0.14350879 -0.10766804 -0.2696479 -0.17007366
000080 e0 35 1a be 7f 3e 87 be f3 9b be bd ca 4f 97 be
       -0.15059614 -0.26414868 -0.09307089 -0.29553062
000090 6b 03 91 be 2c 94 47 3c f2 17 af bd 46 83 3e be
       -0.2832292 0.012181323 -0.08549489 -0.18604764

encoder.4.block.5.running_mean f4 [40]
000000 35 3e 20 bf b9 09 ec 3e 46 97 6c bf 2d f7 ee be
       -0.6259492 0.46101168 -0.92418325 -0.46672955
000010 7d 72 bd bb bf 79 b3 be 01 5d 66 bf bf c8 84 be
       -0.0057814703 -0.35053822 -0.8998566 -0.25934407
000020 4a cf 5d bd 6c 74 2e bf d2 ca 1b 3f c3 3b 29 3e
       -0.054152764 -0.68146396 0.60856354 0.16526704
000030 b3 1d d6 3d 0c 3e 1c 3f 30 08 5e bf 27 72 4e be
       0.104548834 0.61032176 -0.86731243 -0.20160733
000040 e5 2e 1c be 58 9f bc 3e 56 4f 93 3f 78 ab 1f 3f
       -0.15252264 0.3684032 1.1508586 0.62371016
000050 26 e9 95 be ef 99 d3 3e fd 5b bb 3e 94 30 59 be
       -0.2927944 0.4132838 0.3659362 -0.21209937
000060 9f fe 38 3d 75 28 de be ee 29 08 3f 67 87 01 3f
       0.0451647 -0.4339024 0.5318898 0.5059723
000070 18 55 cf be 91 3a 47 bf 6a 91 69 bf b9 4d 8a be
       -0.4049461 -0.7782374 -0.9123751 -0.27012423
000080 c3 34 11 bc cd 74 05 bf 2a 78 be be 0d 62 0d bf
       -0.008862677 -0.5213135 -0.37201053 -0.5522774
000090 22 52 1b bf c9 8a c1 be e2 eb de bd f5 ff be be
       -0.606722 -0.37801197 -0.10884835 -0.37304655

encoder.4.block.5.running_var f4 [40]
000000 6a ef b7 40 92 9e 4c 40 cf 53 5f 40 d9 b3 86 40
       5.7479753 3.1971784 3.4894903 4.209454
000010 08 c9 a5 3f 11 41 05 3f 72 54 13 40 ee 0e b8 40
       1.2951975 0.5205241 2.3020291 5.7518225
000020 e3 60 93 3f ff 64 cf 3f ba a2 1f 40 15 f5 e8 3f
       1.1513942 1.6202697 2.494307 1.8199793
000030 f6 fa 36 3f 68 1a 2c 40 d8 34 97 40 f5 a3 4f 3f
       0.71476686 2.6891117 4.7252007 0.81109554
000040 bd 9b 73 3f 55 fa e3 3f 34 cb 58 40 87 61 56 3f
       0.9515951 1.781077 3.3874025 0.83742565
000050 96 df dc 3f 4c 6d a0 40 81 92 42 3f b0 24 7b 40
       1.7255733 5.013342 0.760048 3.9241142
000060 c6 f5 99 40 ca b9 cf 3e 4c 89 44 40 a4 6d cb 40
       4.8112516 0.40571433 3.07088 6.357134
000070 51 56 b6 3f 0c 78 83 3f 26 17 9e 40 26 e8 c3 40
       1.4245092 1.027101 4.9403257 6.1220884
000080 a5 ff bf 3f 48 d3 bf 3f 6d aa 9a 40 b3 45 e6 3f
       1.4999892 1.4986353 4.833304 1.799002
000090 67 7d b2 3f 65 34 6f 3f 29 42 2b 40 1e e6 a6 3f
       1.394452 0.9343932 2.675913 1.3038976
