VQ-VAE/models/vqvae/model_7.pt (torch, 579012 bytes, 64 tensors)

encoder.0.weight f4 [40, 1, 4, 4]
00000000: 678b 9e3d a417 4d3d d0df b8bd 7cde 863c
00000010: d4c7 c4bd 4374 7e3a 7cd8 483c 88c1 85bd
00000020: 8627 b1bd 1d8d d53c f44a d8bd 5ff2 5a3d
00000030: d4fb 9a3c ee7d 63bd f52c 483c 32dd 523d
00000040: c230 f53c e303 113d 852c 7dbd 5786 833d
00000050: f7df f73d 0802 cf3d 9a31 873c acd1 183d
00000060: 292a ba3d d969 aa3d 10d4 93bd 5ac9 90bd
00000070: 3d2e ae3c d691 b83c 7762 a9bb 0e1e c63d
00000080: 186c a83d ee89 9d3d 0043 163d 9a10 593d
00000090: d1ea 003d 3536 183d 6751 48bd af83 a03d
000000a0: c23a 933d 4599 a93d f684 cfbc f24b 8f3d
000000b0: c8bf 0c3d 0f48 bc3c e55c 563c 3963 c03a
000000c0: 1d45 c2bb f40e 553d e1cc 663d 5f16 493d
000000d0: 7e86 993d ad7a 1b3d b260 99bc b0de 9ebd
000000e0: 6a5a d93d b4f5 7ebd 3669 4d3c 4af1 98bd
000000f0: cab9 4d3d df3e 813d 8db3 4f3c 732d 3c3d
00000100: bc94 cd3c 185c 74bc 2465 71bc a818 833d
00000110: 09b2 593c 0c9c 93bc 6651 b83d f550 5ebd
00000120: 285b 94bd 3958 2d3c fde4 893c 8d37 ee3c
00000130: 60a0 913d 4cd1 9cbd 5dbf 1d3d a1ee e33d
00000140: 73bc 96bd 4c5d 833d c5b5 5dbd 1fdf 6ebd
00000150: c4ab b8bd a7bb 94bd 509a 72bd 2330 903d
00000160: 0c9b 82bc 916d 59bd ae1c 93bd 83f0 a93d
00000170: 9556 5abd e626 61bd 24e7 523d b2b5 38bc
00000180: 2e83 563b 5e19 8e3d c2ab 17bd 4014 5d3c
00000190: fb89 3c3d 05ad f2bc a57b 31bd c009 83bc
000001a0: dbc9 ad3d d728 cdbc cafc 04bd 7f29 fd3c
000001b0: aa19 bfbd 23bf 98bc 921e fc3b 3af9 8fbd
000001c0: 6752 a6bb e8a8 e33c 23db d6bd 0a85 6ebd
000001d0: e2a8 04bd 5a6a 1a3d f6fb 66bd 4a31 813d
000001e0: 23cf b4bd c6c2 58bd defd 953d 2a16 08bd
000001f0: 9457 203b a6d0 9e3d 6e07 bebd db22 ce3c
00000200: 17da 54bd 314a 61bc 126f 75bd e297 3c3c
00000210: 2cb9 1bbd 97b3 e13c 4dab ac3d e890 c63c
00000220: 8ee2 563d 75b1 ad3d 8445 99bd eada d63b
00000230: fb94 d13d 2408 843d 83f5 de3b 3b6e 603d
00000240: bb88 143d 744a 49bd 602d eb3c b81e 203c
00000250: da5e efbc 9d68 dbbd 1a19 b6bd 4cb3 2f3d
00000260: 7ebc 87bd bc37 65bc aee8 543c 9fa0 22bd
00000270: 3a7f aabd 8f1b a13d f9f0 0bbd dbe9 c13d
00000280: 1f1d 403d 15a7 79bc 6d8d 8dbc 683c 6bbc
00000290: 3a88 a13d 12c4 c7bc 35f6 bdbc 41ed 5dbd
000002a0: b86f 8b3d ac7b 073d 2e22 0f3d ca5b b7bd
000002b0: 4776 813d d90b 723d a327 0cbd 68de a0bd
000002c0: e385 a0bd 2bdc cd3c 33b2 fe3c 9cdc 303c
000002d0: 1518 cb3c 165c 5a3c c440 00b9 59d8 a6bd
000002e0: ec19 36bd 2687 a0bd 905a 65bd 998e d8bd
000002f0: 516f 07bd f72f b5bc eb89 7a3d e0a2 68bd
00000300: 6921 f0b9 c3d5 543d 640e 443d 7bd3 2dbd
00000310: 837a 483d 78b2 94bd 5c17 bc3c c8be 10bd
00000320: 0612 17bd 640b a4bd efcd dabc d8e2 99bd
00000330: fc2c c4bd 3acd 4e3d 6d33 cdbd 43ac 22bd
00000340: ab98 d9bd 673f b5bd 9457 05bd d74a 793c
00000350: f36f 25bd 8b40 0d3c 193b 2e3d 8465 ccbd
00000360: f12f 5f3d 60ca 9bbd a9b4 21bd 1a70 ff3c
00000370: 72bc 5e3d 791c 163d 7ac6 8eba 4282 26bc
00000380: b347 e1bb cc24 153d 6727 85bd 96fe 913c
00000390: ed32 83bc fb2c 14bd 3afe 973d ebbd 9b3c
000003a0: f80b c23c 5a7b 603d 8e07 cc3d 3208 6e3d
000003b0: 5cb8 6b3d 6a30 7a3d 9c2e de3d e2cc 493d
000003c0: 1769 083b 368e c8bd 75ae 9a3d 9e01 25bd
000003d0: b6c8 ac3c f3f0 5c3b 40e4 0cbd 45ec 3bbc
000003e0: e26c 63bd a92b 28bc 1e77 c6bc fa40 48bd
000003f0: e289 ba3c 1177 c0bc 5ba2 88bd a085 cd39
0.07741433 0.050071374 -0.09027064 0.01646351 -0.09608427 0.00097066554 0.012258645 -0.06531054
-0.086501166 0.026068265 -0.10561171 0.0534538 0.01891891 -0.055540018 0.01221775 0.05148048
0.029930476 0.035404097 -0.061810035 0.06422108 0.12103265 0.10107809 0.016503144 0.037309334
0.09090073 0.0832097 -0.07218182 -0.07069655 0.021262283 0.022530477 -0.0051692086 0.09673701
0.08223742 0.076923236 0.03668499 0.052994348 0.03147394 0.03716107 -0.048905756 0.07837617
0.071889415 0.08281187 -0.025331955 0.06996907 0.034362584 0.022983579 0.013083671 0.0014678008
-0.005928649 0.052016214 0.05634773 0.0490936 0.074963555 0.03795879 -0.018722866 -0.07757318
0.10612948 -0.06224604 0.012537291 -0.07467897 0.05022601 0.0631082 0.012677086 0.04594178
0.025095336 -0.014914535 -0.014733586 0.06401187 0.013287076 -0.018018745 0.089999005 -0.054276425
-0.07243949 0.010580116 0.016832823 0.029079223 0.07110667 -0.07657108 0.038512576 0.11129499
-0.073601626 0.06414279 -0.054128427 -0.058318254 -0.09017137 -0.07262354 -0.059229195 0.07040431
-0.015943073 -0.053083006 -0.071832046 0.08297827 -0.053305227 -0.054968737 0.051489964 -0.011273788
0.0032731998 0.06938432 -0.037029035 0.0134935975 0.046030026 -0.029623518 -0.043330807 -0.01599586
0.084857665 -0.025043888 -0.03246764 0.030903576 -0.09331067 -0.018645829 0.007694074 -0.07029958
-0.005075741 0.027790502 -0.10491016 -0.058232345 -0.03238762 0.03769908 -0.056392632 0.06308229
-0.08828571 -0.052920125 0.07323812 -0.033224262 0.0024466263 0.0775464 -0.09278761 0.025163105
-0.0519658 -0.013750599 -0.059920378 0.011510821 -0.03801839 0.027551455 0.084311105 0.024239019
0.052462153 0.08481113 -0.07483962 0.0065568583 0.10233494 0.06446865 0.0068041696 0.054792624
0.03626321 -0.04914327 0.02870816 0.009772949 -0.029220033 -0.10713313 -0.088915065 0.0428956
-0.06627749 -0.013990339 0.012994928 -0.03970396 -0.08325048 0.078665845 -0.034165356 0.094684325
0.046902772 -0.015237589 -0.017279351 -0.014357664 0.07887311 -0.024385486 -0.02318869 -0.05418134
0.06808418 0.033076927 0.034944706 -0.08953054 0.06321388 0.05909333 -0.034217488 -0.078549206
-0.07838037 0.025129398 0.031090831 0.010794785 0.024791757 0.013327619 -0.00012231158 -0.08146734
-0.044458315 -0.078382775 -0.05599457 -0.10574073 -0.033065144 -0.022117598 0.061166685 -0.056795955
-0.0004580126 0.05196167 0.047865286 -0.04243801 0.04894496 -0.07260603 0.022960357 -0.035338193
-0.036882423 -0.08009985 -0.026709525 -0.0751397 -0.095788926 0.050488688 -0.10019574 -0.039715063
-0.10624822 -0.08849984 -0.032554224 0.015215597 -0.040389966 0.008621345 0.04253683 -0.099803
0.05448908 -0.07606959 -0.03947893 0.031181384 0.054378934 0.036648247 -0.0010892891 -0.010162892
-0.0068750023 0.036412045 -0.06501656 0.017821591 -0.016015494 -0.03617571 0.07421537 0.019011458
0.023687348 0.054805137 0.099623784 0.058113284 0.057548866 0.061081327 0.10848734 0.049267657
0.0020814592 -0.097927496 0.07552806 -0.040284745 0.0210918 0.0033712953 -0.034397364 -0.011469905
-0.05552376 -0.010264316 -0.024226721 -0.04889009 0.022770826 -0.023494275 -0.06671592 0.00039200205

encoder.0.bias f4 [40]
00000000: 5b02 03bb 708f 55ba 288a 02ba c8db 00bb
00000010: 1cfe edba f947 983a 4be1 823a 9e68 c939
00000020: 6712 97b9 a441 993a 5386 48b9 5ccc 11ba
00000030: 5a46 84ba 3665 cbba 25cb e139 d779 183b
00000040: 6814 15b9 f786 c3ba cced ab39 6a8b 7038
00000050: a541 9abb f449 4437 e11f d0ba d7df ddba
00000060: 1a08 b13a 07bc 9438 524f 0f3b 57b7 943a
00000070: b2b5 33ba 3a8a 813a 1c10 a53a c61c 0a3b
00000080: f569 393a 69c8 d9ba bcd4 4b3a 52d5 383a
00000090: 8ad2 d5ba 4a83 ffba 2bd8 daba 0291 4bba
-0.0019990418 -0.0008146679 -0.00049796933 -0.001966225 -0.0018157396 0.0011618129 0.0009985355 0.00038415653
-0.00028814675 0.0011692536 -0.00019123526 -0.0005561763 -0.0010091767 -0.0015517834 0.000430667 0.0023265982
-0.00014217349 -0.0014917542 0.00032792834 5.73503e-05 -0.0047075325 1.1699729e-05 -0.0015878641 -0.0016927671
0.0013506443 7.092213e-05 0.0021867347 0.0011346143 -0.0006855383 0.0009883114 0.0012593302 0.002107428
0.0007072979 -0.0016615513 0.00077755353 0.000705083 -0.0016313356 -0.0019494083 -0.0016696503 -0.00077654433

encoder.1.weight f4 [40]
00000000: b76b 773f ef40 753f aeca 783f b20c 763f
00000010: 3736 6f3f d97c 7e3f 70fc 733f 9ba6 703f
00000020: 4814 7c3f ae52 7b3f 5b45 7a3f 3883 783f
00000030: d7f3 7c3f 0d01 793f 9ed9 7d3f ad3a 7e3f
00000040: cd8b 7b3f fdeb 793f 0878 783f 9fff 7a3f
00000050: bed1 733f 0fe9 773f 251e 6d3f 4c66 753f
00000060: dabe 723f eb38 763f 8350 783f 7df8 773f
00000070: 01e3 743f 8920 7d3f d7c8 7a3f 0bec 783f
00000080: b330 7f3f 9a88 793f 6983 783f 02d4 773f
00000090: a152 7e3f d4f8 7f3f 45f5 7d3f 0045 793f
0.96648735 0.95802206 0.97184265 0.9611312 0.934421 0.9940925 0.95307064 0.9400422
0.98468447 0.98173034 0.9776208 0.97075224 0.9880957 0.9726723 0.9916018 0.9930828
0.98260194 0.97625715 0.97058153 0.98046297 0.95241916 0.96839994 0.9262412 0.9585922
0.94822466 0.961806 0.9699785 0.9686354 0.9565888 0.9887777 0.9796271 0.97235173
0.99683684 0.9747406 0.97075516 0.96807873 0.9934483 0.99989057 0.99202377 0.9737091

encoder.1.bias f4 [40]
00000000: ddd8 3bbc e0a1 943b 6651 67ba 0c6e 093c
00000010: 1dfd 56bc c7f1 34bb bdd6 35bc 4334 b2bc
00000020: 3503 3e3c 4938 00bb 3496 143c 6373 30bc
00000030: 4bbc 0dbc 8f68 4fbc bfe1 fd3c 6e64 533b
00000040: ecb3 483c 7f88 7bbc f6ce 85bc 1ed3 bbbb
00000050: 1432 bfbb 91fd 32bc b255 9d3b b897 a4bc
00000060: e2dc ec3a 4bb9 dfbc 904f a33c 063f 293c
00000070: 5815 b8bc 8894 cfbb 0509 07bc 14b4 19bc
00000080: ca2f a53a 8b42 823c b339 43bc 170e f03a
00000090: f89f d5bb f8eb 23ba 1208 50ba 1574 95bc
-0.011465278 0.0045358986 -0.000882408 0.008388054 -0.01312187 -0.002760993 -0.011098561 -0.021753436
0.011597444 -0.0019564799 0.009069014 -0.010769698 -0.00865085 -0.012659206 0.030991433 0.0032255906
0.012249928 -0.015352367 -0.016334038 -0.0057319542 -0.005834827 -0.010924713 0.0048014754 -0.020091876
0.0018071199 -0.027310034 0.0199354 0.010329967 -0.022471115 -0.006334845 -0.0082418965 -0.009381313
0.0012602743 0.01590087 -0.011915612 0.0018314746 -0.006519314 -0.00062531186 -0.0007935773 -0.018243829

encoder.1.running_mean f4 [40]
00000000: d616 0b3e 6268 afbe 5e08 d3be e322 56be
00000010: 3afa 0ebe 7c33 8e3e 5e87 9a3d 4edf 143e
00000020: 7c1c 45be 6918 243e bcd4 bcbc 7b71 863e
00000030: b465 843e 0091 2e3e c639 bdbe fe68 4e3e
00000040: 3fbf 36be 09bc 933e 48b3 503e 58f6 433e
00000050: 915d 47be ee37 213e f418 03be ab0d 293e
00000060: c5de 11bd 7ae2 6b3d 637b 15be 0abc 61bd
00000070: abe3 0b3e 7d40 873e 4f93 823e 77f5 303e
00000080: 6f9c 4b3e 4e62 88be de23 1e3e b400 22be
00000090: 33fd e53e 59fa a83e c4b8 ac3e 3791 e73d
0.1358293 -0.34259325 -0.4121732 -0.20911746 -0.13962641 0.27773654 0.075453505 0.14538309
-0.19249147 0.16024937 -0.023050658 0.26258454 0.25858843 0.170475 -0.3695814 0.20157239
-0.17846392 0.28854397 0.2038089 0.19136941 -0.19469287 0.15743992 -0.12802488 0.1650912
-0.03561284 0.05758903 -0.1459785 -0.05511097 0.13661067 0.26416388 0.25503013 0.17281137
0.19883893 -0.266375 0.1544337 -0.1582058 0.44919738 0.330035 0.33734715 0.113069944

encoder.1.running_var f4 [40]
00000000: e7f1 8f3c 2969 683d eb97 873d 3cec 053d
00000010: e230 493c 10bb 493d 31f4 3e3c 70da 5f3c
00000020: 98c8 003d d5b8 e63c e3a0 023d 18bb 053d
00000030: d39f 273d a5d8 ad3c 900b 973d 36aa 873c
00000040: 9474 0f3d e24c 2b3d f334 ad3c b440 b73c
00000050: eff7 a03c 5afa 5a3c 9d22 1a3c 8622 cd3c
00000060: 9fb0 8b3c 3041 d63c 010c e63c fce1 bb3c
00000070: e396 e23c 37c0 3e3d af76 673d 4432 093d
00000080: d18c d43c f286 083d 7360 2c3c 7b86 f93c
00000090: 3124 b93d b816 563d 82c4 5e3d b562 843c
0.017571403 0.056740914 0.06620773 0.032695994 0.012279721 0.049250662 0.011654899 0.013662919
0.0314413 0.028164307 0.031891715 0.03264913 0.040923905 0.021221468 0.07375252 0.016560655
0.035023287 0.041821368 0.021143412 0.02236972 0.019649474 0.0133653525 0.0094076665 0.025040876
0.017051993 0.02615413 0.028081896 0.022934906 0.027659839 0.04657003 0.05650967 0.033495203
0.025946053 0.03333182 0.010521042 0.030459633 0.09040106 0.05226776 0.054386623 0.016160348

encoder.3.weight f4 [40, 40, 4, 4]
00000000: 16d6 b0bc f489 00bd 5c81 033d 7ad1 05bb
00000010: 567a 6c3a 46c8 33bc 44ec 45bd 42b7 b6bb
00000020: 9918 8c3c 16fa 123d 31cc 303c 4e2a 6c3c
00000030: c45b 413d f654 093d 22e2 b73c 3bf2 8a3c
00000040: caf2 1bbc b428 693b 27f2 503d de5a 49bd
00000050: f5c4 10bd 5f57 8abc 1e63 ec3c 4916 483d
00000060: 48cd e83c 7339 073c 67bf 48bd c889 6c3d
00000070: 8125 eabc 5798 99b9 b9c4 683d 38eb a2bb
00000080: 8970 f4bc 97ab babc 7615 09bd 827d 27bd
00000090: 0dc4 983c eee7 7abd 62a0 9abd 9d46 e8bc
000000a0: 64bd 4dbc 381b 8d3c 7a6d 7bbd 5bde d33c
000000b0: 5703 423d c934 3abd 9372 10bc 6352 883c
000000c0: 30b4 8b3d e151 1ebd a44e f7bc 39ca 433d
000000d0: ad47 ea3c e8b2 35bd 75d4 02bc ae16 60bc
000000e0: 98ce 973c dfe4 dbbc a713 003d 2c23 7b3d
000000f0: 1c55 1bbb 9284 753d 60df bdbc 4f17 23bc
00000100: 456e 493d aebb b03b 8d17 95bc 71a0 973c
00000110: 8085 113c ec31 0cbd ed92 dc3c 8fde 823c
00000120: 913b dcbc c2db 753d ebe0 d5bc a169 773d
00000130: c76a 4fbd efce 3ebc c9bf 4c3c ccd2 c8bc
00000140: 2efa eabc 2473 a23c 9c25 c539 2622 a7bc
00000150: 2f69 82bc 1eef 8c3c d8e6 103d ea8c 46bd
00000160: 0457 10bd 85c2 cd3c 0a4d 8abd 72b5 9bbd
00000170: c9e6 2d3d 0b90 2f3d 0049 25bd ddf6 1d3c
00000180: f7ab 233d dcd5 463d 3c29 eabc 0768 11bd
00000190: 07dc c8bb 1a4f a1bb 961d 14bd ebdd 9c3d
000001a0: 8928 3e3d ed7f 003d 4ca6 7b3d eb87 803d
000001b0: 90e8 0dbd 1922 c5bc be8a d73c 6c98 63bd
000001c0: a1b4 0f3d b365 5b3d ab5a 533d c07e 76bd
000001d0: bf7d 05bb a356 4dbd 7875 ab3c ad88 2d3d
000001e0: e1cd 14bd 7cde 1dbd df2e 2c3b b09b 01ba
000001f0: 8e52 47bc 3792 3f3d 2bff 133d 46ff 16bd
00000200: 1876 bb3c 37c5 52bd 30b8 1dbd 1dda 55bc
00000210: 3d4d c73c 2b09 e5bc 56c8 653d 7571 bdbc
00000220: 85e3 223c eba9 d23b d204 103d db38 d3bc
00000230: 6c89 11bd a468 273d b6dd c23c ecc1 18bc
00000240: 67bf 763c 4f29 99bc 7a18 43bd 15c7 c73a
00000250: 82e9 5ebd 1dc0 303c ff27 53bd deef 93bc
00000260: 766a 893c d1af 19bc 1d51 193d 0601 d73c
00000270: 56ed 6c3c f230 6bbd fe6d 053d abb6 e53c
00000280: 270c 57bd 7b23 583c 8875 aa3d 4192 2cbd
00000290: 1f08 91bd c480 783d 28b4 7d3c 236b 5cbd
000002a0: 4f02 16bd 493a 203d 050d 853d e081 af3c
000002b0: 6580 9c3d e4fd 7c3d 4757 c03c dce5 bf3a
000002c0: 5651 ecbc 385e 813b f846 223c 2ccd 873d
000002d0: 9fb2 093d 0cc0 5c3c a342 71bd 4eb7 e13c
000002e0: eb6d 2abd d335 fabc fa69 003c 1c0a c5bc
000002f0: 8395 8abd 7f2b 05bd fe96 df3b 90c8 2a3d
00000300: b4e2 fabc eb62 3c3d 1ab6 04bd 1df5 5abd
00000310: 442c 07bd 5da1 c2bc 075d 1c3d 8532 8abc
00000320: bd67 66bd b8a5 8dbc 3770 52bd 56b1 44bc
00000330: 79c0 533c 75de 313c 781d f73c c353 75bd
00000340: c2a1 35bd 022e 8a3a b0ef eb3c 367b 0f3d
00000350: 1112 923d 954f 6c3d ed26 363c 4407 e73c
00000360: bc3f 753d 8b52 a73b 593a 50bc 8ba2 5a3c
00000370: d870 383d f795 a33c 2eaa 00bd b918 e6bb
00000380: f98a 573d 789f 2fbd 6058 083d bffa 603d
00000390: c4ee 333d fca1 2dbd 4179 a8bc 16c2 833d
000003a0: fdee 333d 073b 75bb 58e5 073d 70e0 1d3d
000003b0: 9ceb 9e3c 4823 7b3d 5c0e d3bc b457 6fbc
000003c0: 48fa 673d ec45 83bd 8014 4cbb 7fbd f73c
000003d0: b285 e33c fb18 3ebd 3c7d a6bc 96c0 d0bc
000003e0: 8402 0e3d f713 883c 221c 38bd 70af e43c
000003f0: 6878 2a3d 179d ec3c b45f e23c 33d5 47bd
-0.02158646 -0.031381562 0.03210579 -0.0020419047 0.0009020915 -0.010973042 -0.048321024 -0.0055760453
0.017101573 0.03588303 0.0107908705 0.014414383 0.047206655 0.03352829 0.022446696 0.016961208
-0.009518335 0.003557724 0.051012184 -0.049158923 -0.035344083 -0.016887365 0.028855857 0.048849378
0.028418198 0.008253443 -0.04901066 0.057748586 -0.028582336 -0.00029295936 0.056828234 -0.004971888
-0.029838817 -0.022786899 -0.033467732 -0.040891178 0.018648172 -0.06125634 -0.07550122 -0.028353984
-0.012557361 0.017224893 -0.0613837 0.025862863 0.047366466 -0.045460496 -0.008816379 0.016640848
0.068214774 -0.038652305 -0.030188866 0.047800276 0.02859863 -0.04436007 -0.007985224 -0.013677282
0.018531129 -0.026842533 0.031268742 0.06131284 -0.0023701852 0.059940882 -0.023177803 -0.009954288
0.049177427 0.005393467 -0.018199706 0.018509122 0.008881927 -0.034227297 0.026925528 0.015975265
-0.026883872 0.06002403 -0.026108226 0.06040347 -0.05063894 -0.0116460165 0.012496897 -0.024514578
-0.028683748 0.019830294 0.0003760279 -0.020402025 -0.015919296 0.017203864 0.0353764 -0.04847423
-0.035239235 0.025117168 -0.06752975 -0.07602967 0.042456422 0.04286198 -0.04035282 0.009641376
0.03995892 0.048543796 -0.028584115 -0.0354996 -0.006129745 -0.0049227597 -0.036161028 0.07659515
0.046425376 0.031372 0.06143789 0.06275924 -0.034645617 -0.02406411 0.026311275 -0.055565283
0.03508437 0.053563785 0.05160014 -0.060179472 -0.002036914 -0.05013145 0.020930037 0.042366672
-0.036329154 -0.038542256 0.0026273055 -0.0004944159 -0.012165679 0.0467703 0.03613202 -0.03686454
0.02288346 -0.05145761 -0.038505733 -0.013052491 0.024328822 -0.027958473 0.05609926 -0.02312539
0.00994194 0.006428947 0.035160847 -0.025783947 -0.035531446 0.040871277 0.02378736 -0.009323578
0.015060282 -0.018696455 -0.047630765 0.0015241826 -0.05442191 0.010787991 -0.051551815 -0.018058714
0.016774397 -0.009380297 0.03743087 0.026245605 0.014460882 -0.057419725 0.0325756 0.028041204
-0.052501824 0.013192053 0.083231986 -0.042131666 -0.07081627 0.060669675 0.015484847 -0.05381311
-0.036623295 0.039118085 0.06496624 0.021424234 0.07641677 0.061765566 0.023479117 0.0014640647
-0.028847378 0.0039479993 0.009904616 0.0663093 0.033617612 0.013473522 -0.05890144 0.027553227
-0.041608732 -0.030543244 0.007837767 -0.024052672 -0.06766798 -0.032512184 0.0068234196 0.041695178
-0.030625679 0.045992773 -0.032400228 -0.053456414 -0.0330012 -0.023758585 0.038174655 -0.016869793
-0.056251276 -0.017290935 -0.051376548 -0.012005171 0.012924307 0.010856261 0.030165419 -0.059894335
-0.044343717 0.0010542276 0.028800815 0.035029612 0.07132352 0.057693083 0.011117679 0.028201707
0.059875235 0.0051062754 -0.012709224 0.013344417 0.04502949 0.01996897 -0.031412296 -0.00702199
0.05262277 -0.04287669 0.033287406 0.05492663 0.043928877 -0.04239081 -0.02056563 0.06433503
0.04392909 -0.0037419216 0.033177704 0.03854412 0.019399457 0.061312944 -0.025763683 -0.014608312
0.05663517 -0.06409821 -0.0031140149 0.030241726 0.027773712 -0.046410542 -0.020323388 -0.025482457
0.034670368 0.016611082 -0.044948705 0.027915686 0.041618735 0.0288835 0.027633525 -0.048787307

encoder.3.bias f4 [40]
00000000: ca9a e63b 5751 25bb 57a2 e3bb 132e 11bc
00000010: 484f f23b b17f 48bb e9c8 843b 3a10 4bbc
00000020: e8ca 10ba 509c 64bb c8fe e039 5705 4c3b
00000030: 1a1d b1bb 1676 b93a 6213 db3b a366 b0ba
00000040: eccc 70bb 7f26 2dbc 38e3 f0bb 195e adbb
00000050: 6a0e e8bb 2b93 343b 0baa 083c 7ddb 9dbb
00000060: 75c9 7dbb 80b6 4a3b 90a8 a63b 2cf6 adbb
00000070: ff22 0fbb f432 90bb adeb 73bc da8e 7abb
00000080: c8a1 8dbc 7fc0 c5bb a49a 3dbc ff03 3bbb
00000090: 14a2 ffbb 640f 0fbb 3812 9836 b5d4 113a
0.0070374953 -0.0025225484 -0.0069468427 -0.008861083 0.007394705 -0.0030593688 0.0040522707 -0.012394005
-0.00055233994 -0.0034883209 0.00042914436 0.0031131112 -0.0054050805 0.0014149572 0.00668566 -0.0013458323
-0.0036743237 -0.01056826 -0.0073513053 -0.0052907583 -0.0070817964 0.002755354 0.008341323 -0.004817425
-0.0038724814 0.0030931532 0.005086012 -0.005308887 -0.0021840928 -0.0044006053 -0.014887732 -0.0038232119
-0.017289057 -0.00603491 -0.011572514 -0.0028536317 -0.0078013036 -0.0021829242 4.532074e-06 0.0005563007

encoder.4.block.1.weight f4 [40, 40, 3, 3]
00000000: 4e6c 823d 296a 16bb 4d76 303c dd8f c53a
00000010: 61dc 97bd 1798 dfbd cea0 97bd 2115 acbd
00000020: d626 193d 2da1 36bd f1bf 1ebd 6f32 a33d
00000030: 0bdb 983d 991c 843d 6770 82bd d6da 87bb
00000040: 1ebf 573d 81de ac3d 61e7 1e3c 81d8 213d
00000050: 3d2b 833d c70f 8e3d ec92 8b3d 2f82 c0bc
00000060: bd61 8abb fcfb 253d bdbc 8d3d eb26 c4bc
00000070: cc7b 993c fa99 843d 045d 82bd 9483 bfbc
00000080: f394 c4bd c098 8abd 0527 a03d cd05 78bd
00000090: e747 3bbd bd1a 913c 10fb 27bc 7197 af3d
000000a0: aa55 05bc 1572 a1bd 12a1 583d dbd7 02bd
000000b0: 51c2 453c 87d2 ba3c b464 abbd 2ede 01bc
000000c0: a8b2 613d 2d5b 1dbc f359 68bd 3212 973d
000000d0: 333d cbbd 4ae3 6dbd 04b7 273d 1e87 0d3e
000000e0: f0c4 9b3c ef67 273e f1e1 303e b35e 40bd
000000f0: bbd0 28bc 7a2f f23a 04a3 6a3c f188 8cbd
00000100: ea59 86bc c135 7c3d 7541 84bd 11ae 583d
00000110: 4356 86bb a157 083b c274 a6bd a84d 81bd
00000120: 1f96 f8bc 6b91 33bd 3070 a7bb de9d 103c
00000130: b323 14bd 1cca 51bd 19d8 e53a 27eb a2bd
00000140: e16a 833d 4d97 993d e485 43bd da6f b1bc
00000150: a8e0 913d c69c af3d 9d30 babd 39d0 6fbd
00000160: 89a2 823c c417 d5bb e83b cf3c 3662 cdbc
00000170: 195b 4ebd 7188 10bd 61ff 9dbd 74bc 213d
00000180: c877 773d daac 42bd 44b8 84bd 4ed3 93bd
00000190: a700 4ebd 9e74 16bd 7524 783c 07b0 a93c
000001a0: f0ee 0ebd 4920 6fbc 655b 8dbd 9da3 a3bd
000001b0: 8f4b 9abb 11aa af3d 5043 58bc b3f6 8dbd
000001c0: 735a eebb 625c debc 5424 84bd 60b9 10bd
000001d0: 8060 45bd 541a 2a3d cc92 fb3c a880 62bd
000001e0: 14f1 a03d c10d d1bc e8b4 a6bd ecbf 283d
000001f0: c984 63bc 9ef4 ae3d 6c6b 75bc 203d 4a3c
00000200: 434e 36bd 5902 1e3d c6e8 823c 3fbb 3d3d
00000210: e3d8 b03c cea5 683d c466 a6bd d5d6 4a3c
00000220: 2e80 c93c 0119 783d a408 b0bc 121b 63bc
00000230: ce37 2b3d 83ad 9e3b 2766 733d 79ea 2fbd
00000240: 6c14 dcbc e732 66bd 0b33 b3bd 1bac a13d
00000250: 17d3 4bbd 0c93 fa3c 4205 91bd 4680 1cbd
00000260: 5d41 623c 18a5 af3d 370b 1a3d eda5 36bd
00000270: 04a3 b0bc 7b9e 9cbd 1959 62bd 7550 20bd
00000280: ef6f 973d 45af 693c de69 493d 4f50 773d
00000290: a182 74bd aa05 1a3d a826 c1bc 5c97 573c
000002a0: f674 ac3d 5677 f8bc 012f 273c 3b93 b73d
000002b0: 75bb f5bc 69c6 02bd e78f e1bc b3ff f9bc
000002c0: ded8 a33c f5d4 94bd 1c82 87bd e280 72bc
000002d0: 6f03 04bc c334 913d 79bc a5bd 12e6 b73d
000002e0: 65f7 a6bd 4889 d2bc 5692 17bd f01f a73d
000002f0: 2bc3 b83d 38ac 03bd 4ff3 c63c b56e 7dbd
00000300: 31c5 1f3c be6b cf3c d714 4dbd 97a0 93bc
00000310: 5763 263d 818f 4a3b eed2 813c c58a 883b
00000320: 6d3b 093d 74ee 3cbd 0586 903d c495 f43c
00000330: 6991 3e3d 345d 0abd 8422 f03a df09 6b3d
00000340: 4937 553d f7e7 97bd 6ac5 43bd f162 84bd
00000350: 86ed 293c 2eff d4bc f5d4 e83c e4bb 903d
00000360: 7bb3 6b3d 2d62 72bd 3cd3 9d3c 2694 933d
00000370: a88c a13d 8365 99bd f8fb b43c d54e 7f3c
00000380: 3511 463d 2839 16bd de1a abbb 56ac 15bc
00000390: 8a5d adbd 66c8 d73d 4955 b73c 92f4 803d
000003a0: e996 b93c ccb1 92bb e1af 2c3c 314a 2b3d
000003b0: 33f4 823d a9eb 373d 8f12 a93d c70e 583d
000003c0: f52a 6b3c 13fe 9abd 91bb e8bc 135a 6fbd
000003d0: f49b 26bd 7a71 75bd 48ff 413d e0cc d83b
000003e0: 9fce 903d 1747 92bd e895 833d 0fc3 bebd
000003f0: fbef 8a3d 12f6 1a3c 0a49 053e f84a 673d
0.06368314 -0.002295146 0.010770393 0.0015072782 -0.07415081 -0.10917681 -0.07403718 -0.084024675
0.037390552 -0.044587303 -0.03875727 0.07968604 0.07463654 0.06450767 -0.06369095 -0.0041459603
0.052672498 0.08440877 0.00969872 0.039513115 0.064047314 0.06936603 0.068151325 -0.023499576
-0.004223077 0.040523514 0.069207646 -0.023944339 0.018735789 0.06474681 -0.063653976 -0.023378171
-0.09598722 -0.06767416 0.078199424 -0.060552407 -0.04572287 0.017712945 -0.010252729 0.08573807
-0.0081381 -0.078830875 0.052887984 -0.031944137 0.012070254 0.022805465 -0.08368817 -0.007926507
0.05510202 -0.0096042575 -0.056726407 0.07376517 -0.09923782 -0.058078088 0.04094602 0.13821074
0.019014806 0.16348241 0.1727369 -0.046965312 -0.0103036715 0.0018477284 0.0143210925 -0.06862057
-0.016400296 0.0615747 -0.064577974 0.052900378 -0.0040996387 0.0020804184 -0.081277385 -0.0631364
-0.03034502 -0.043839853 -0.0051098093 0.008826701 -0.036166858 -0.051218137 0.0017535716 -0.07955008
0.0641687 0.074995615 -0.04773511 -0.02165978 0.07122928 0.08574824 -0.090913035 -0.058548186
0.015946643 -0.006503077 0.02529712 -0.025071245 -0.050379846 -0.03528637 -0.07714725 0.039486364
0.060416967 -0.047528125 -0.064804584 -0.072180375 -0.05029359 -0.03673231 0.015145411 0.02071382
-0.034895837 -0.0145951 -0.06902198 -0.07990191 -0.0047087143 0.085773595 -0.013199642 -0.0693182
-0.007273966 -0.027143661 -0.064522415 -0.035333037 -0.048187733 0.041529015 0.030709647 -0.055298477
0.07858482 -0.025519254 -0.08139974 0.041198656 -0.013886639 0.08542751 -0.014979225 0.012343675
-0.04450823 0.038576458 0.015980136 0.04632115 0.021587795 0.05679875 -0.0812507 0.0123803215
0.024597254 0.06057072 -0.021488495 -0.0138614345 0.041801266 0.0048424616 0.059423592 -0.04294822
-0.026865207 -0.056200888 -0.0874997 0.07894155 -0.049761858 0.030587696 -0.07081081 -0.03820827
0.013809529 0.08576411 0.03760835 -0.044591833 -0.021562107 -0.07647415 -0.05526075 -0.03913923
0.073943965 0.014262979 0.04917323 0.060379323 -0.05969489 0.037603058 -0.023578003 0.0131586455
0.08420746 -0.030330341 0.010204078 0.08963629 -0.029996613 -0.0319275 -0.027534438 -0.030517435
0.020000871 -0.07267181 -0.06616613 -0.014801236 -0.008057459 0.070901416 -0.08092589 0.08979429
-0.081526555 -0.025700226 -0.03700479 0.081603885 0.090216 -0.032146662 0.02428594 -0.061873157
0.009751604 0.02531993 -0.050068703 -0.018020911 0.04062208 0.003090829 0.01584765 0.0041669332
0.03350394 -0.046125844 0.07056812 0.02985657 0.046525393 -0.03378029 0.0018320833 0.05738246
0.052054677 -0.07417291 -0.04779569 -0.06464184 0.010371571 -0.026000585 0.028421858 0.07067087
0.057544213 -0.05917566 0.019265763 0.072059914 0.07888156 -0.07490065 0.022092804 0.01558276
0.048356254 -0.036675602 -0.0052217087 -0.009135326 -0.08465107 0.1053627 0.022379534 0.06296648
0.022654967 -0.0044767614 0.01053998 0.0418188 0.063942336 0.044902477 0.08255493 0.052748468
0.0143535035 -0.07567992 -0.028409751 -0.05843551 -0.040676072 -0.059922673 0.047362596 0.00661622
0.0707066 -0.071424656 0.06425077 -0.09314548 0.06784054 0.009458082 0.13016143 0.05646798

encoder.4.block.1.bias f4 [40]
00000000: 7a0d 313b 5623 a4bb fdcc 3db9 0da3 2c3a
00000010: 7810 34ba 4537 203b 2677 a43a 6628 8539
00000020: c742 263a 3482 36ba 562f 8a3b 88c7 003c
00000030: d501 15ba 2ccc c33a 2f90 89ba b815 8c3a
00000040: ba40 f7ba aec1 dbba 4314 ab39 6fda 683a
00000050: 27b7 7b37 c1f3 4cb8 9775 eeb9 55dc 04bb
00000060: 408a 593b b668 b6b8 2403 8d3a 17aa aa3b
00000070: 5acb 54b8 ad38 133a b300 de3a fb30 c13a
00000080: 272c c73a 1d45 d43a 98be 03ba 47c0 973b
00000090: 2a6d 47bb 67e5 243a 6ff5 a439 54b4 2a3b
0.002701609 -0.005009095 -0.00018100809 0.0006585576 -0.0006868909 0.0024447006 0.0012547716 0.00025397836
0.0006342348 -0.0006962151 0.0042170687 0.007860072 -0.0005684172 0.0014938167 -0.001049524 0.0010687625
-0.0018863895 -0.0016766095 0.00032630758 0.0008882647 1.5003409e-05 -4.8864404e-05 -0.0004548251 -0.002027293
0.0033193976 -8.69794e-05 0.0010758382 0.0052082646 -5.0734125e-05 0.00056160503 0.0016937464 0.0014739329
0.0015195654 0.0016194914 -0.0005025654 0.0046310755 -0.0030430057 0.0006290287 0.0003146338 0.0026047425

encoder.4.block.2.weight f4 [40]
00000000: 425d 7d3f 7ff7 713f ee37 733f cf95 753f
00000010: 9cf0 7e3f ef82 7e3f 6ac1 783f 55a0 7d3f
00000020: f2f6 733f 2bc2 723f db4f 803f 9c00 823f
00000030: e64a 803f 56db 893f 7eeb 813f 4fb3 7f3f
00000040: 46c6 7f3f 1ed0 7b3f 1772 833f e880 883f
00000050: 1ac5 7d3f 5859 853f 709b 7c3f c460 6f3f
00000060: 1778 743f 2ca5 7b3f c7e2 893f 1d1b 813f
00000070: 2ad6 853f 44aa 803f dc80 833f 83d6 833f
00000080: f39c 7d3f 40bf 883f a94f 823f bc75 833f
00000090: 6f16 773f dd53 733f 3c46 7d3f 0d27 803f
0.98970425 0.94518274 0.95007217 0.95931715 0.9958589 0.9941854 0.97170126 0.9907277
0.95298684 0.94827527 1.002437 1.0156436 1.0022857 1.0770061 1.0149992 0.9988298
0.99911916 0.98364437 1.0269192 1.0664339 0.9912888 1.041789 0.9867468 0.9350703
0.9549574 0.9829891 1.0772332 1.0086399 1.0455983 1.0051961 1.02737 1.0299839
0.9906761 1.0683365 1.018056 1.0270305 0.96518606 0.9504984 0.98935294 1.0011917

encoder.4.block.2.bias f4 [40]
00000000: 8ff3 8b3d 7bb8 91bd 018e 06bd 11b7 563c
00000010: 2b33 643d d5eb bb3d d38b ab3c c10d a03c
00000020: 6307 973b 8448 79bc 5ea9 883d 90bb db3d
00000030: 3aa5 c53c 1be9 dd3d ffdf c93d 5062 b43c
00000040: 8df8 e03b 57e2 713c e6ab 823d b20a d43d
00000050: 97e8 383d d437 1e3d 7ace 0c3d a719 a0bc
00000060: 1364 863c 0a84 9b3b a663 953d ae98 0d3d
00000070: 3279 a63d c802 043d cd0b 993d 7fca a33d
00000080: d6bf c43c 31ae ef3d 1ec1 cb3d 8449 c33d
00000090: d9ad f3bb 7d83 ca3a 398e 383d 7aec e33c
0.068335645 -0.07115265 -0.03285027 0.01310517 0.05571286 0.09175841 0.020940697 0.019537808
0.004609035 -0.015215043 0.06672929 0.10729134 0.024126638 0.10835477 0.09857177 0.022019535
0.006865567 0.014763436 0.06380443 0.103536025 0.04514369 0.03862746 0.0343766 -0.019543482
0.016405141 0.004745965 0.07294397 0.034569435 0.08128585 0.032229215 0.07472954 0.079976074
0.024017256 0.11703146 0.099489436 0.09535506 -0.0074364957 0.0015450564 0.04505751 0.027822722

encoder.4.block.2.running_mean f4 [40]
00000000: cc03 263f a1a1 68bf 7fb6 60bf b200 6abe
00000010: 19e7 a03f 4995 813f 6c81 823f 4517 dd3d
00000020: d6ce 6d3f a739 51bf 9fef 4e3f f24e ea3e
00000030: 39d4 073f 0ad1 023f c1f6 633f 3b34 6fbf
00000040: 19d3 9fbf 2fdc 5dbc e4e6 9a3f 7abf 0b3f
00000050: b4cd 2a3d d9b2 94bf a8ac 5b3d 20c6 e3be
00000060: 7269 7c3f eb33 19bf 26ce 913f e12b 863f
00000070: 433f d93e 1387 cbbf 5f39 543f 554b 953f
00000080: 01c3 73bf 67ad 353f d94f 8e3f d775 84bf
00000090: 90d5 19bf cd5a 61bf be66 65bf 9e3b 483e
0.64849544 -0.90871626 -0.87778467 -0.22851828 1.2570525 1.0123683 1.0195746 0.10795454
0.9289373 -0.81728595 0.8083438 0.45763355 0.530582 0.5110022 0.8904839 -0.9343907
-1.2486297 -0.013541265 1.2101712 0.54589045 0.04170008 -1.161708 0.053631455 -0.44487095
0.98598397 -0.59844846 1.1391037 1.0482141 0.42431077 -1.5900596 0.8290004 1.1663615
-0.9521943 0.70967716 1.1118118 -1.0348462 -0.60091496 -0.88029176 -0.896099 0.19553992

encoder.4.block.2.running_var f4 [40]
00000000: bad0 363f e63b 693f c1dc 8b3f fd83 dc3e
00000010: c877 cc3f 9f14 913f 77c4 ad3f f9a6 303f
00000020: 03df 873f 1cfa 8e3f cf20 413f faa0 173f
00000030: dd26 423f efa7 0d3f 15de 943f e4b2 b03f
00000040: f86a a73f 1302 073f c3fc aa3f 7054 433f
00000050: f8f6 2c3f f70f b43f 84f6 363f 0bbf 6f3f
00000060: 2771 523f 29a8 2b3f ba9d 963f f9f3 a73f
00000070: f6ed 4e3f 3545 f83f cbdb 833f e94d c23f
00000080: d428 7f3f cd20 0f3f 0633 ab3f 297a 8b3f
00000090: f949 3f3f 3c8d 313f 2c60 803f 283e 4f3f
0.7141224 0.9110702 1.0926744 0.4306945 1.5974054 1.1334418 1.3575581 0.6900478
1.0614933 1.1170077 0.75440687 0.59230006 0.7584055 0.5533437 1.1630274 1.3804593
1.3079519 0.5273754 1.3358387 0.76300716 0.67564344 1.4067372 0.71469903 0.93650883
0.82203907 0.6705347 1.1766884 1.312133 0.8083185 1.939612 1.030145 1.5180026
0.99671674 0.55909425 1.3374946 1.0896655 0.7472225 0.6935613 1.0029349 0.8095422

encoder.4.block.4.weight f4 [40, 40, 1, 1]
00000000: d8ca 3e3e 3427 0ebe 858e 863e adac 5abd
00000010: 252e 4e3e 26ff 48be b496 883d b890 c23d
00000020: 2a79 0e3e bfc9 8bbc 6aaf 3abe e27c 993d
00000030: 636d 803c ba61 90be e87c 0bbe dbbb e9bd
00000040: 0a88 8a3e b9c4 0a3d 9b12 56be fb13 5cbe
00000050: 8d09 893c 4f88 723d 8be9 363e 3e0b 373e
00000060: 0032 ba3d baaa 34be f9e6 95be 31ac 83be
00000070: bfee 8cbe 6f29 83bd 92e4 f8bd 9781 c33d
00000080: 788b 003e c914 61be fd1a f73c aaf0 8fbd
00000090: 5827 edbd 6d55 abbd e6a0 5a3e 6769 e83c
000000a0: 3058 69bd 02e9 3cbe 87b0 163e 9deb f6bd
000000b0: cb41 02be 06d0 87be 8cc9 12bd cbd5 7cbb
000000c0: 1af9 5c3e 9a4a 973d 98f4 3d3e fab8 89bd
000000d0: 6649 6f3e d7d6 943d 9d3e 273e 8593 a5bd
000000e0: 738e 653e 71c3 473e 2855 fe3c ee08 993d
000000f0: 1032 7e3d a902 5bbe 0e72 03bd 2a5f 313d
00000100: 6120 b03d 3bbc cc3d e3ca 8d3e 7264 953e
00000110: 8416 df3b 88ca 9cbc 99b5 ef3c 85dd 153e
00000120: a840 c03d 1c46 4d3e e13b 913e 94c6 3abd
00000130: 2162 37be bbf4 51be 9921 50bd dfea 1a3d
00000140: e86b a0bd 55df 813e b400 85be 9e17 3dbe
00000150: be45 e4bd 7fd9 d0bd 4e0d 47bd 1a5f 11be
00000160: 16b0 ad3d 12db a2bd c129 5c3e e3ce 34be
00000170: 77a0 ff3d f2be a8bd c0db b1bd a0ca c03d
00000180: 34ca 3abe b311 313d ad17 41be aea1 3c3e
00000190: 0de3 54bd 0c67 9f3e d739 393d 88b9 53be
000001a0: f33e 45be 1671 cdbd e3c2 78be 89cb 833d
000001b0: ae5f a0be 6774 1dbe 1cb4 12be 8794 98be
000001c0: af14 85bd 8c63 f6bd 8dc3 883d be33 0d3e
000001d0: e661 2dbe 01ee 223e 7a76 7e3e b398 46be
000001e0: ecb9 30be cc52 5e3e f3cd 013e 8b96 413e
000001f0: 8a02 5a3e c5f3 963b cf2a 1ebe ceef 5ebd
00000200: 694f d7bd d19f 07be a2e3 6e3e daaf 9a3c
00000210: 89ae 793d 1073 193e 5131 97bd ecad 24be
00000220: 9549 8b3d 9051 0d3d 641c 2abc bef3 463e
00000230: 778d ec3d dfa9 b33d 2710 0bbe 2640 fe3d
00000240: bffd 4ebe c61f 47be 2ff8 6ebe 8ebe 5bbe
00000250: 5c07 823c c93d 0dbe 14e7 183e c097 793d
00000260: 79e3 a73d cc87 2fbe b623 953d 769f c33d
00000270: d536 873e 0901 00bb f5c0 743e 4eac da3c
00000280: ae52 0ebd 00d3 f9bd e798 883c ff43 2e3e
00000290: 8403 8ebc 3cf8 75be 6b82 623e 1f7e d3bd
000002a0: 9452 32be 00eb 3d3e 36c0 07be b9e8 d8bc
000002b0: 8f67 0a3e b121 5d3e b408 4c3d 26a8 763e
000002c0: 358b 8fbe 48f1 843e 1b64 203e cb99 7c3e
000002d0: 1393 183e 8cff b9bd 2e74 22bd 9bb9 2d3d
000002e0: 770d d3bd c3ae 59bd 42bc 283d 9eec 2f3e
000002f0: 3eb5 08bd a7a8 29be e89b 953e 134d cabd
00000300: eb87 89be 3fcd 3b3e 7fd1 8b3e 65a9 753c
00000310: f324 d6bd aebd 1fbe 0ff0 633c 7d50 d03d
00000320: 2c40 d4bd 55e2 b7bc 73eb 773e dba7 263e
00000330: 12b8 0bbe a928 2dbe bc73 80be aa00 813e
00000340: aaca 12be c6f3 1fbe d60c fcbd a41d 7bbe
00000350: 4d95 52be 6fdb 4fbe d4ee 103e 3a19 433e
00000360: 0f7b 573e bb4f 0dbd 45d6 d2bc d097 39be
00000370: 9084 9f3d 49ef 903a 19a1 88bc d127 5abb
00000380: 158b a13d 8667 5dbe 4219 aabc 728b db3d
00000390: 408a 54be 8e4a 8a3e 52bf 40be 5c3f 2abd
000003a0: 1e04 2bbe f12a 2b3e 4d6e 36be c014 043e
000003b0: 3cf5 50bd aaf5 61be 7a3b e83d 3a0e e53d
000003c0: 5af9 8ebe b980 c0bd 7527 57be 98a7 b4bc
000003d0: 1145 203d a635 91bd cef2 493e a889 5e3e
000003e0: 2897 7e3e c66a e53d 1dd8 9cbe c085 89be
000003f0: f34e 91bd 8b9c 36be 2441 49be 0d55 b3bd
0.18632066 -0.13882142 0.2628061 -0.053387333 0.2013479 -0.19628581 0.06669369 0.09500259
0.13913408 -0.017063973 -0.18230978 0.07494523 0.01567716 -0.2819956 -0.13621867 -0.11412784
0.27056915 0.033879016 -0.20905535 -0.21491997 0.016728187 0.059212025 0.17862527 0.17875382
0.09091568 -0.17643252 -0.2927778 -0.2571731 -0.275259 -0.06404387 -0.12152971 0.09546202
0.12553203 -0.21980585 0.030164236 -0.07028325 -0.1157977 -0.08365903 0.2135044 0.028370572
-0.056968868 -0.1844826 0.14715777 -0.120566584 -0.1272041 -0.26525897 -0.03583674 -0.003857958
0.215794 0.07387276 0.18550336 -0.067247346 0.23367843 0.0726754 0.16332479 -0.08084778
0.22417621 0.19508149 0.031046465 0.07472406 0.062059462 -0.21387734 -0.032091193 0.043303646
0.08599926 0.099968396 0.27693853 0.29178196 0.006808104 -0.019139543 0.029261397 0.14635284
0.09387332 0.20046276 0.28365996 -0.045599535 -0.17908527 -0.20503514 -0.05081329 0.037821647
-0.078330815 0.253657 -0.259771 -0.1846604 -0.11146115 -0.10197734 -0.048596673 -0.14196435
0.08480851 -0.079519406 0.21500303 -0.17657046 0.12481778 -0.08239545 -0.08684492 0.09413648
-0.18241197 0.04322977 -0.18856688 0.18421051 -0.051974345 0.31133306 0.045221176 -0.20676243
-0.19262294 -0.10031335 -0.24293093 0.064353056 -0.31322998 -0.15376435 -0.14326519 -0.29800817
-0.06498086 -0.12030706 0.06677923 0.1378927 -0.16931877 0.15911104 0.24849883 -0.19394188
-0.17258424 0.21711272 0.1267622 0.18905084 0.21290031 0.0046066963 -0.15446018 -0.054427914
-0.10513193 -0.13244559 0.23329023 0.01888268 0.060957465 0.14985299 -0.07382453 -0.16081971
0.06801144 0.034501612 -0.010382745 0.19428918 0.1155042 0.08772635 -0.1358038 0.12414579
-0.20213984 -0.19445714 -0.23336862 -0.2145941 0.01587265 -0.137931 0.149319 0.060935736
0.08197684 -0.17141646 0.07282202 0.09551899 0.2640902 -0.0019531867 0.23901732 0.02669349
-0.03474682 -0.12198448 0.016674472 0.17018126 -0.01733566 -0.24020475 0.22120063 -0.1032679
-0.17414314 0.18546677 -0.13256916 -0.026478158 0.13516067 0.21594884 0.049812987 0.24087581
-0.28035894 0.25965333 0.15663187 0.24668042 0.14899854 -0.09081945 -0.03966158 0.042413335
-0.103053026 -0.05314518 0.04119516 0.17180106 -0.03337597 -0.16568242 0.2922051 -0.09877982
-0.2686151 0.18340014 0.2730827 0.014994 -0.10456266 -0.15599701 0.013912215 0.10171602
-0.10363802 -0.02244679 0.2421091 0.1627497 -0.13644436 -0.16910042 -0.25088298 0.2519582
-0.14335123 -0.15620336 -0.12307136 -0.24523026 -0.20564766 -0.20298551 0.14153606 0.19052592
0.21043037 -0.034499865 -0.025736937 -0.18124318 0.07788956 0.0011057641 -0.01667838 -0.0033287893
0.07887856 -0.21621522 -0.020763997 0.107199565 -0.20755863 0.27010006 -0.18822983 -0.04156433
-0.1670079 0.167156 -0.17815514 0.1289854 -0.051015124 -0.2206637 0.11339469 0.11184354
-0.27924615 -0.09399552 -0.21011145 -0.022052571 0.039128367 -0.07090311 0.19721529 0.21732199
0.24862349 0.11202006 -0.3063363 -0.26859856 -0.070951365 -0.17833154 -0.19653755 -0.087564565

encoder.4.block.4.bias f4 [40]
00000000: 4c0d 03bc 3e3c df3a e3d1 9cbb 31a2 07bb
00000010: c4a6 79ba d712 2939 249d 37bc 10a4 16bc
00000020: 915d 19b9 46ed 4837 8b8e 19bb d552 80bb
00000030: c2b1 89bb 7678 9e3a 0e5b dabb 6c8d 11b9
00000040: 608a c2bb 45d7 9639 9077 273b f110 1a3c
00000050: f183 df3b 56f1 a8bb 3d01 8b3b 860d 71ba
00000060: ed19 b2bb b2aa 69bb 077c 80bb f9c2 a6b9
00000070: 2da9 acbb 50ca 01bc 821c c73a 6aec ab3b
00000080: d50e 23bb 131a 51bb c0ac ffbb d26c 81bb
00000090: 1a03 babb 1539 c4bb dea7 e73a d5ee a5ba
-0.007998776 0.0017031503 -0.0047857626 -0.002069604 -0.0009523446 0.00016124114 -0.011206899 -0.009194389
-0.00014626073 1.19761735e-05 -0.002343091 -0.0039161243 -0.0042020986 0.0012090344 -0.0066636866 -0.00013880961
-0.0059369057 0.00028770618 0.0025553443 0.009403453 0.0068211486 -0.0051557226 0.004242091 -0.00091954356
-0.0054352195 -0.003565472 -0.003921035 -0.00031807253 -0.0052691908 -0.00792177 0.0015190991 0.0052466886
-0.0024880667 -0.003190641 -0.007802576 -0.00394974 -0.0056766393 -0.00598825 0.001767393 -0.0012659678

encoder.4.block.5.weight f4 [40]
00000000: c17d 763f ee31 6d3f be19 6f3f fcdd 6a3f
00000010: f6f6 743f ea0c 7f3f eb58 813f b9a0 503f
00000020: 7790 6c3f 28dd 5a3f c339 643f 31d6 743f
00000030: c76d 643f 695b 683f 4b83 5d3f 45a5 713f
00000040: 9126 603f fc93 713f fe24 693f 5cc2 573f
00000050: 18e5 603f 30ac 6c3f 56ba 583f e567 693f
00000060: e542 673f ba60 553f c8e3 6b3f 17c0 803f
00000070: 6368 6e3f 4f3e 693f 3ac6 783f 1414 653f
00000080: 76c2 563f dab6 703f 411d 783f 3b0b 803f
00000090: 8ad8 6d3f c512 753f f97e 633f be3c 763f
0.96285635 0.9265431 0.93398654 0.9174497 0.9568933 0.9962908 1.0105261 0.81495243
0.92407936 0.8549371 0.8915064 0.9563933 0.89230007 0.9076448 0.8652846 0.94392806
0.8755885 0.9436643 0.9107207 0.84280944 0.8784957 0.9245024 0.84659326 0.91174155
0.9033645 0.8335072 0.9214444 1.0058621 0.9312803 0.911107 0.9717747 0.8948376
0.83890474 0.9402901 0.9691964 1.0003427 0.9290854 0.95731765 0.8886562 0.96186435

encoder.4.block.5.bias f4 [40]
00000000: 9920 1cbe 5bbc 97bb 9aa3 6fbd bc0f 2cbd
00000010: f947 20bc 7f2f adbc f809 8fbe ccdc 0ebe
00000020: f645 0f3d 9ab9 22bd 2bd2 813a baa4 2fbd
00000030: 738e 03be 00d7 91bc 23f2 0cb9 81c0 a3bd
00000040: 01f3 bebd e239 103d cf7f 8b3c e439 24bb
00000050: c05b 44bd 7582 14bd 6a21 81bd 6611 bf3c
00000060: 4c1e ccbb 52d1 f9bd 29ea 75bc fcfd 703d
00000070: 1ba9 afbd 2439 d4bd c9cd 2cbd ab41 d03c
00000080: aff9 9cbd 3245 d3bc f120 c3bc 24f0 8fbd
00000090: edc6 e0bd f167 29bd d5f5 f3bc 95cc b0bb
-0.1524681 -0.004630608 -0.058505632 -0.042007193 -0.009782785 -0.021140812 -0.27937293 -0.13951415
0.03497883 -0.039727785 0.0009904554 -0.042881705 -0.12847309 -0.017802715 -0.00013441643 -0.079957016
-0.09323693 0.03521145 0.017028717 -0.002505892 -0.047939062 -0.036257226 -0.06305201 0.023323726
-0.0062291976 -0.12198128 -0.015009441 0.05883597 -0.08577176 -0.10362461 -0.04218844 0.025421938
-0.07664811 -0.02578983 -0.023819419 -0.07028225 -0.10975442 -0.041358892 -0.029780308 -0.005395482

encoder.4.block.5.running_mean f4 [40]
00000000: 27d6 eebe 86c9 393f da25 52bf f900 8b3e
00000010: 5ffe dd3e bc24 ebbe 7387 4abe b4c6 38bf
00000020: 7bb6 f23e 2762 8a3d b094 0f3d 1247 e33d
00000030: 7a34 5c3d 9277 c13e 2826 373e a198 d03d
00000040: 6fb0 94be f3d3 183e 5d3a 163f 309f 1e3f
00000050: 0481 fb3e f2f4 26be 1bcd 623f 1c2b 72be
00000060: 8de2 a0be e84c b83c 7da8 cbbd 06da 803f
00000070: a25e 6d3e fa2c 59be 3734 383e f245 063f
00000080: 097d 203c ed10 7bbe e412 b1be 9a7d adbe
00000090: 201c 0bbf 57b3 3b3e 1c0a ba3e 0880 6dbe
-0.4664776 0.72573125 -0.82089007 0.2714918 0.43358132 -0.45926464 -0.19778232 -0.72178197
0.47404847 0.06757002 0.03505391 0.1109754 0.053760983 0.37786537 0.17885649 0.10185362
-0.29040858 0.14924602 0.58682805 0.6196165 0.4912187 -0.16304377 0.88594216 -0.23649257
-0.31422845 0.02249761 -0.09944246 1.0066535 0.23180631 -0.21208563 0.17988668 0.5245048
0.009795436 -0.24518175 -0.34584725 -0.3388489 -0.5433979 0.18330131 0.36335838 -0.23193371

encoder.4.block.5.running_var f4 [40]
00000000: 3219 843f 3a1e c53f 9165 8f3f 55ef 203f
00000010: 86af 913f 692d db3f edc0 853f d59e 7e3f
00000020: 09f9 c73f 7479 0f3f d87c 963f 3748 6e3f
00000030: 481e bb3e f185 8c3f 6b97 cd3f e5d0 c53e
00000040: f4cd 403f d27e 103f 3f4e a63f 030a d43e
00000050: 18dc e93e 65bc ae3f 906f 793f 1463 8b3f
00000060: fe68 053f a37d 133f ad48 743f 44ed b53f
00000070: cd72 503f 28eb 123f f8de 1f3f 15c3 6f3f
00000080: 70f8 583e dbac bb3e b787 203f feec e73f
00000090: 446e 403f fe5b d53e d801 a63f 6d12 1a3f
1.0320189 1.539985 1.1202871 0.6286519 1.138169 1.7123233 1.0449501 0.9946111
1.5622874 0.560447 1.1756849 0.9307894 0.3654654 1.0978376 1.6061834 0.38635936
0.7531426 0.5644351 1.2992629 0.41413888 0.4567573 1.3651243 0.97435856 1.0889611
0.5211333 0.5761358 0.95423394 1.4213033 0.8142517 0.5739007 0.624496 0.93657047
0.21188521 0.36655316 0.62707084 1.8119199 0.7516825 0.41671747 1.2969313 0.60184366

encoder.5.block.1.weight f4 [40, 40, 3, 3]
00000000: 7885 27bd bc59 883d b18c 12bc e014 bdbd
00000010: 263f 9e3c e899 0138 8682 723d 0c27 57bd
00000020: de40 d23c 5699 85bc 3dbd 03bd 2526 22bd
00000030: bc02 2fbc 3062 a93d 39de 483d 17e4 a5bd
00000040: aa84 8c3d 32e4 80bd 52ee c7bc 5670 613d
00000050: d4c3 a7bc 5664 d0bd a014 adbc d131 8b3d
00000060: 8e51 88bd 8582 083d 42ec 8a3b d90a 0bbd
00000070: aced 8cbd 162a 2fbd 8c8a c83d 3860 8d3c
00000080: f290 7c3d 2e21 823d 011c e03c 2eda 8eb9
00000090: 66d8 7b3d 4554 a03d 6ba5 5ebd 42d4 9cba
000000a0: e3c7 57bd e0c9 7d3d 583d 4d3c 9c3c 9f3a
000000b0: 3b4d c83d 6efe f2bc fb43 16bd aa33 c73d
000000c0: 3b42 57bd 599a 663d c23a 613d 1d89 5abc
000000d0: 0df2 d1ba c377 9bbc 493f 1dbd 4104 2d3d
000000e0: ec4b 303d c2bf 6ebc d641 a7bd c4d0 85bc
000000f0: cc03 a13d c82c a53c 489c 933d 8f12 383c
00000100: 3f57 6ebd 1b28 973d c777 63bd 95b7 55bd
00000110: b9f0 e03c 6871 69bd db6d 80bd 12e2 4c3d
00000120: f697 12bc 6586 103d 1049 413d ceac 65bd
00000130: 74e0 89bd c34b cabc e6f1 863d e380 80bd
00000140: 33db 483d 53e7 e73c 840d 0bbb e1d2 553c
00000150: b337 803d c1b2 9abc 281d 41ba ed31 32bd
00000160: 3056 a03c 2783 9b3d cadf b53c 1ce7 473c
00000170: abdf 1cbd 1dec 6f3c 0f3a b43d affb a8bc
00000180: 3a9c 623d ae28 9fbc 1e84 923d 80a3 56bc
00000190: f9ea b83c 31d9 c63c d4a8 f03c 1875 fd3c
000001a0: 8bd6 513d 2c86 96bd ba77 bcbd 3dd5 4ebd
000001b0: b6bd 7fbd a6ca 7ebd b52f 24bc 0ffc 803d
000001c0: f4f8 8c3c abc0 2f3d d0a5 48bd c93a 943d
000001d0: f126 a4bd 3229 86bc a097 383d 4654 453d
000001e0: 4d76 b83c abbd 8a3c 9aff b23c 5ec0 3abb
000001f0: 066f 09bd e896 fcbb 59ae 9cbd b099 99bd
00000200: 4add 44bd a9f2 0d3d 3736 c13d eb7d 7cbd
00000210: 3531 e43c 0354 923d 2b7d 803d eec7 93bd
00000220: 6722 8fbd 2b03 6bbd 3959 9bbb 5f07 b43d
00000230: 1788 853c 7324 5cbd e066 8dbc 308c d3bc
00000240: bc2a 21bd 29ba 03bd 363b 713d c3e1 a9bc
00000250: 8a77 17bd b2a1 85ba b6c9 d43c e810 0fbd
00000260: 2bf5 9b3d 1fb4 743d b591 b23d a25e b53d
00000270: ed72 4bbd fc65 ea3a 83e2 36bd 8552 143c
00000280: fdfe 0a3c cde8 8e3d ce25 27bd d5a5 553d
00000290: 333e bebb 2e66 d43d 08d3 383d ae23 8dbd
000002a0: c17d 8fbd d55d ba3d 579c f7bc 9416 a83c
000002b0: e652 9dbd 8613 7abd 6764 5e3d 0c80 853d
000002c0: 5ed5 e0bc 5b66 e53d 49cc 12bd d442 92bd
000002d0: 29e4 26bd 3372 a0bd dfc4 adbd 0b02 973b
000002e0: d6fb 7bbd abee 5cbd 63a2 54bd 17fd 25bd
000002f0: abaf babd 8318 c83c 23bd fa3c 5902 3ebc
00000300: 0be0 c43d 394e b43d bedb 9f3d fa89 0cbd
00000310: 668f a53c 6d67 92bd 6dce a7bb 499c 83bd
00000320: 5be0 f1bc 6338 7bbc 8c4e 843d cb53 03bd
00000330: c6a0 703c b621 8fbd 87db 43bd 8c70 80bd
00000340: 22e6 093d a951 d93a 9954 48bd 5757 853d
00000350: 91e3 a9bd 8fb6 a33d bb14 863d c591 8dbc
00000360: 9c89 0a3b b934 07bc 57a1 b63c ff33 cc3c
00000370: 34e3 06bd 79bc e8bc 5eb5 2c3d cd34 39bd
00000380: 5353 923d eac1 823d b7ba 05bd 80a1 81bc
00000390: 12eb a6bd 9a64 07bd 1bcc f13b 5173 9a3c
000003a0: 268d 3dbd 7529 693d 0601 773d 076f bb3d
000003b0: 2952 63bd 8bce ff3c c7a6 46bc 6ab1 8d3d
000003c0: 686f 84bd 3127 a3bd 3d4a 813d bdb1 883d
000003d0: 171b 593d 6f22 103b d3e9 e83c 1dc4 ce3d
000003e0: d316 55bd a184 8c3d 9564 a93d f310 8cbd
000003f0: 92be 20bd 7479 0c3d 185f 80bd 9fa5 72bc
-0.04089877 0.066577405 -0.008944676 -0.09232497 0.01931722 3.0899333e-05 0.059206508 -0.052527472
0.025665697 -0.016308468 -0.032162894 -0.03958716 -0.010681804 0.08270681 0.049040053 -0.08100145
0.06861241 -0.06293525 -0.024405632 0.055038773 -0.02047912 -0.101753876 -0.021127999 0.06796611
-0.0665618 0.033327598 0.00423959 -0.033945892 -0.0688127 -0.042764746 0.09792051 0.017257795
0.061661668 0.06353985 0.027357103 -0.00027246907 0.06148567 0.07828573 -0.054356974 -0.0011965113
-0.05268086 0.0619601 0.0125268325 0.00121488 0.097803555 -0.029662337 -0.036685925 0.09726651
-0.052553397 0.05629954 0.054987676 -0.013338354 -0.0016017571 -0.018978005 -0.03839043 0.042240385
0.043041155 -0.014572086 -0.08166854 -0.016334899 0.07862052 0.020162955 0.07207543 0.011234893
-0.058188673 0.073806964 -0.05553415 -0.05217703 0.027458536 -0.05699292 -0.06270953 0.050020285
-0.008947363 0.03528442 0.04718882 -0.056073003 -0.06732264 -0.02469433 0.06589107 -0.06274583
0.04903717 0.028308546 -0.0021217773 0.013050766 0.06260624 -0.018884065 -0.00073667103 -0.043504644
0.019572347 0.07593375 0.022201438 0.012201097 -0.038299244 0.014643696 0.08800136 -0.020627825
0.05532477 -0.019428577 0.071541056 -0.013100505 0.022572981 0.024273487 0.029377379 0.030939624
0.051229995 -0.0734981 -0.092025235 -0.05049633 -0.06243678 -0.06220498 -0.01002114 0.06298076
0.017208554 0.042908352 -0.048986256 0.07237775 -0.0801524 -0.016377065 0.045066476 0.048176073
0.022517348 0.016936144 0.021850396 -0.0028496007 -0.033553146 -0.007708419 -0.07650442 -0.07500017
-0.0480626 0.034655247 0.09434169 -0.061643522 0.027855495 0.0714493 0.06273874 -0.07215868
-0.069889836 -0.057376068 -0.004740861 0.087904684 0.016300244 -0.0537457 -0.017260969 -0.025823683
-0.039347395 -0.032159958 0.05889436 -0.020737534 -0.036979236 -0.0010195284 0.02597509 -0.034928232
0.076151215 0.05974209 0.08719198 0.088559404 -0.04967015 0.0017883177 -0.044649612 0.009052877
0.0084836455 0.06977997 -0.040807538 0.052160103 -0.0058057546 0.10371052 0.04512313 -0.06891571
-0.070064075 0.09099928 -0.030225916 0.020518579 -0.07681827 -0.061053775 0.05429497 0.06518564
-0.027445491 0.112011634 -0.035839353 -0.07141653 -0.040744934 -0.07834282 -0.08484816 0.004608398
-0.061519466 -0.05393855 -0.051912677 -0.04052457 -0.09115537 0.02442575 0.030607766 -0.011597239
0.09613045 0.08803982 0.07805584 -0.034311272 0.02020998 -0.07148633 -0.0051210434 -0.064262934
-0.029525926 -0.015333268 0.06460294 -0.032062333 0.014686769 -0.06988852 -0.04781678 -0.062714666
0.033666737 0.0016580123 -0.048908804 0.065107994 -0.08295358 0.07993805 0.06546923 -0.017281422
0.002113915 -0.008252316 0.02229373 0.024927137 -0.03293152 -0.028410183 0.042165153 -0.04521637
0.07144799 0.063846424 -0.03264877 -0.01582408 -0.08150305 -0.033054926 0.0073790676 0.018853815
-0.046277188 0.056924302 0.06030371 0.09152036 -0.055498276 0.031226417 -0.012124724 0.06918605
-0.064665616 -0.079664595 0.06312988 0.06674526 0.05300435 0.002199318 0.028431809 0.100959994
-0.05202372 0.068612345 0.082711376 -0.0683917 -0.039244242 0.034295514 -0.06268138 -0.014809995

encoder.5.block.1.bias f4 [40]
00000000: ee16 d1b7 a331 553b e243 ac3a 3693 253b
00000010: 87d4 043b dcf0 ac3a 2397 e13a b000 f23a
00000020: a27d b439 5d6b c23b 1060 713b 5b32 4c3b
00000030: 4c4f af3a c3f5 c8bb 2d6e 4dba 0110 143b
00000040: 0947 fe3a b571 ae3b 2aa0 603b 9d78 8e3b
00000050: 40d3 453b 7235 8fba 13fb b4b9 8976 9d3b
00000060: 35db aa3a 8842 b33a e4a4 fc3a c2de b53a
00000070: ccd1 bc3a dc38 4e3a ab7c a139 64f3 863a
00000080: fae9 b43a 23db 183b 8db2 a13b 4b9c 863b
00000090: e751 8c3b 0c0a 223b 4197 4c3a a041 db3a
-2.4925419e-05 0.0032530806 0.0013142789 0.0025264747 0.0020268278 0.001319434 0.001721118 0.001846334
0.0003442588 0.005933209 0.003683094 0.0031157944 0.0013375073 -0.0061328127 -0.0007836547 0.0022592547
0.0019399832 0.0053236135 0.0034275153 0.0043478743 0.003018573 -0.0010925962 -0.0003451934 0.0048053903
0.00130353 0.0013676444 0.0019275215 0.0013875591 0.0014405786 0.0007866749 0.00030801198 0.0010295925
0.0013802641 0.0023323975 0.004934615 0.004107987 0.0042822245 0.0024725227 0.0007804521 0.0016727932

encoder.5.block.2.weight f4 [40]
00000000: 883f 783f 15bb 8f3f aa07 823f bc34 7d3f
00000010: c6e1 7d3f 223b 7d3f 07de 723f 50c2 703f
00000020: 921a 763f 3b4e 893f 422b 843f 996f 823f
00000030: 160a 7c3f 9340 6c3f c45a 6b3f 609e 953f
00000040: 455f 833f b648 883f f4a7 783f b8fc 853f
00000050: feb9 813f dbc5 7e3f 1f14 783f 7e1e 863f
00000060: 000b 783f afcf 7b3f df15 903f b5fb 823f
00000070: 670e 7d3f 3686 743f 15b1 823f 747a 723f
00000080: 5b54 753f 09bb 6a3f 7ed9 7b3f e6a8 893f
00000090: fca5 843f 9f51 623f 6b43 753f 90da 753f
0.9697194 1.1228968 1.0158589 0.9890859 0.9917263 0.98918355 0.94870037 0.940465
0.96134293 1.0726999 1.0325701 1.0190307 0.9845289 0.9228603 0.9193537 1.1688957
1.0263449 1.064719 0.97131276 1.0467749 1.0134885 0.99520653 0.969057 1.0478055
0.96891785 0.98363775 1.1256675 1.0233065 0.988501 0.9551729 1.0210291 0.947181
0.9583184 0.91691643 0.9837874 1.0754669 1.0363154 0.88405794 0.95805997 0.96036625

encoder.5.block.2.bias f4 [40]
00000000: e75f c63d d985 243e 9472 a73d f4a5 3a3d
00000010: 7e3d 2f3d f843 823d 059f 413c 08e9 1abd
00000020: a5a2 bdbc fb51 163e ed1d 013e 1b7f 553e
00000030: c560 293c f518 77bd 9660 ab3d 13ff 203e
00000040: 5ab4 223e 35bc 1c3e 575a 9e3d 764f 193e
00000050: 3e1a 573d 0da1 20bc c99a c83d 7223 9f3d
00000060: 868f a63b e860 ad3d 3708 2f3e d5cf b03d
00000070: 3b9d 313d c12c 563c 40f1 ce3d b007 da3b
00000080: 74ad d33c 12fc 283c dbdd e43d 00be 103e
00000090: 5562 343e e608 633d 934d c23c a644 243c
0.09686261 0.16066684 0.08176151 0.04556842 0.042783253 0.0636062 0.011817698 -0.037819892
-0.023148844 0.1467971 0.12609072 0.20849268 0.010338013 -0.060326535 0.08368032 0.15722303
0.15889111 0.1530617 0.07732075 0.14971718 0.05251526 -0.0098040225 0.09795148 0.077704325
0.0050830273 0.08465749 0.17092977 0.08633391 0.043362837 0.013072194 0.101046085 0.0066537485
0.025839545 0.0103140045 0.11175128 0.14134979 0.17615636 0.055428408 0.02371863 0.010026133
