VQ-VAE/models/vqvae/model_45.pt (torch, 579012 bytes, 64 tensors)

encoder.0.weight f4 [40, 1, 4, 4]
0	0x3d0a4f05	0.033766765
1	0x3b9a0ca8	0.004701216
2	0xbd258052	-0.04040558
3	0xbd7737f6	-0.060356103
4	0xbd78f2b6	-0.060778342
5	0xbd8a64e6	-0.06757526
6	0xbe109b86	-0.14121827
7	0xbd93cb34	-0.07216492
8	0xbd45f387	-0.04832795
9	0xbdfebb50	-0.12438071
10	0xbe14e516	-0.14540514
11	0x3d5c3262	0.053758986
12	0xbc1b24f5	-0.00946926
13	0xbd9a4170	-0.075320125
14	0x3d3bff82	0.045897968
15	0x3d98782a	0.074447945
16	0x3d2f05ee	0.042730264
17	0x3d80bd2b	0.06286081
18	0xbd871320	-0.06595445
19	0x3d765f07	0.06014922
20	0x3dec1557	0.11527508
21	0x3e105ac8	0.1409713
22	0xbd1b5a22	-0.037927754
23	0x3d2275a8	0.039662987
24	0x3d854d06	0.06508832
25	0x3dad302f	0.08456456
26	0xbdeae87c	-0.11470124
27	0xbbe0af7f	-0.0068568583
28	0x3d5a7120	0.05333054
29	0x3d91069c	0.07081339
30	0xbc8ca1d8	-0.017167017
31	0x3d9ef714	0.0776197
32	0x3da497dd	0.08036778
33	0x3db09a93	0.08623233
34	0x3dcd767e	0.10032366
35	0x3dae346f	0.08506095
36	0x3cbf7624	0.023371764
37	0x3c7af012	0.015316026
38	0x3c675cae	0.014121218
39	0x3d8fd184	0.07022384
40	0x3dacf902	0.08445932
41	0x3d91358c	0.070902914
42	0x3d3b686b	0.045753878
43	0x3d4a29f8	0.04935643
44	0x3d1b9ee7	0.037993338
45	0x3d15e77e	0.03659772
46	0x3be764fe	0.0070615998
47	0xbbaa44b7	-0.0051961797
48	0x3bf0a856	0.007344286
49	0x3db751d2	0.08951153
50	0x3dc24257	0.094853096
51	0x3d3e4de1	0.04646099
52	0x3dafe890	0.0858928
53	0x3d97af8e	0.07406531
54	0xbd2a2338	-0.041537493
55	0xbd90852b	-0.0705665
56	0x3dd4c670	0.103894114
57	0xbbc1df12	-0.0059164846
58	0xbd72edfd	-0.059308995
59	0x3c252779	0.010080212
60	0x3dc24e2a	0.09487565
61	0x3ce12b8f	0.02748659
62	0x3d553163	0.052049052
63	0x3d308198	0.04309234
64	0x3ccc57b5	0.024944166
65	0x3acc41ec	0.0015583611
66	0x3c901496	0.017587941
67	0x3cf02679	0.02931522
68	0x3c2575a5	0.010098849
69	0xbcabc93c	-0.02096998
70	0x3dd931ac	0.10605177
71	0x3bd2e22e	0.006435654
72	0xbd0d6ba5	-0.034526486
73	0xbdb5163f	-0.08842134
74	0x3d1bc0d2	0.038025685
75	0x3dac99cc	0.08427772
76	0x3d928917	0.07155054
77	0xbd4dccb3	-0.050244045
78	0x3d0102a2	0.03149665
79	0x3e110ab6	0.14164242
80	0xbdabfde9	-0.08398039
81	0xbd01d7ae	-0.03169983
82	0xbd3b0ee4	-0.045668498
83	0x3cb73f21	0.02236897
84	0xbdda770f	-0.1066724
85	0xbd7b60a8	-0.061371475
86	0xbe008b2c	-0.1255309
87	0x3cad048d	0.021120334
88	0xbdbe1c38	-0.09282726
89	0xbd8212dd	-0.06351254
90	0xbdc380a2	-0.09546019
91	0x3da23972	0.07921113
92	0xbda0e946	-0.078569934
93	0xbd690043	-0.056885015
94	0x3d7170a3	0.05894531
95	0xbc9a3d79	-0.01882814
96	0xba383efb	-0.0007028428
97	0x3d86a063	0.0657356
98	0xbd20d6c2	-0.03926731
99	0xbca737c4	-0.020412333
100	0x3da45c27	0.08025389
101	0x3cbf5bf5	0.023359278
102	0xbdd20b57	-0.10256069
103	0xbd7c6d4c	-0.06162767
104	0x3d409d22	0.047024854
105	0xbe081ec9	-0.13292994
106	0xbd39bd33	-0.04534645
107	0xbd83c44a	-0.064339235
108	0xbc460474	-0.012086023
109	0xbd577e80	-0.052610874
110	0xbc8f7481	-0.017511608
111	0xbcd2d015	-0.025733987
112	0xbb988ac5	-0.0046552145
113	0xbd8debfa	-0.069297746
114	0xbe001b0e	-0.1251032
115	0xbda88398	-0.082282245
116	0xbd06d8a9	-0.032921467
117	0xbd4ccc93	-0.049999785
118	0xbdc8b588	-0.09800249
119	0x3d619a52	0.055078812
120	0xbe061e28	-0.13097441
121	0xbd8e6341	-0.06952525
122	0xbcf956a9	-0.03043683
123	0xbd400ca6	-0.046887062
124	0xbcc1d0f1	-0.023659201
125	0x3d885173	0.0665616
126	0xbd8a209d	-0.06744502
127	0xbcef871e	-0.029239234
128	0xbc8cfab4	-0.017209388
129	0xbcfd65d0	-0.030932337
130	0xbb6a6026	-0.0035762875
131	0x3d0f095d	0.03492104
132	0xbda5cddb	-0.080959044
133	0x3d8563cd	0.06513176
134	0x3daa0e2a	0.08303483
135	0x3cc09614	0.023509063
136	0x3d865e8f	0.06561004
137	0x3df8550a	0.12125595
138	0xbd12ac33	-0.035808753
139	0xbcbd2f30	-0.02309379
140	0x3df56655	0.11982409
141	0x3dcec59c	0.10096285
142	0xbc8402a9	-0.01611455
143	0x3d53c53a	0.05170176
144	0x3cd84aa8	0.026402786
145	0x3d78442d	0.060611892
146	0x3d814443	0.06311848
147	0x3d249e21	0.040189866
148	0xbd2b826b	-0.041872423
149	0xbd308773	-0.043097924
150	0xbdfdfa5c	-0.12401268
151	0xbc7afbcb	-0.015318821
152	0xbdfff4b0	-0.12497842
153	0xbdb30c6f	-0.08742606
154	0xbdd3eba4	-0.10347679
155	0x3ca70ab1	0.02039084
156	0x3c122cee	0.008921845
157	0x3da5c05b	0.080933295
158	0x3d56f62d	0.052480865
159	0x3d69afd5	0.057052452
160	0x3d93fcfa	0.07225986
161	0x3d18e6a2	0.037329324
162	0xbd999bc2	-0.075004116
163	0xbd7bd789	-0.061484847
164	0x3d810603	0.06299975
165	0x3c4c1790	0.01245679
166	0xbcdaedf0	-0.026724786
167	0xbd8c6259	-0.06854696
168	0x3d30e018	0.043182462
169	0x3cdf0fd2	0.027229223
170	0xbd1d32c4	-0.038378492
171	0xbdca5f3d	-0.098814465
172	0x3d877ce6	0.06615619
173	0x3d4af87c	0.04955338
174	0xbd29cbc1	-0.04145408
175	0xbd8c7c37	-0.068596296
176	0xbd7f800b	-0.06237797
177	0xbce84837	-0.028354747
178	0x3bd4b5b3	0.006491387
179	0xba4737ab	-0.0007599543
180	0x3c3f6b66	0.011683321
181	0xbcfa94f5	-0.030588606
182	0xbcd40207	-0.025879873
183	0xbda515d1	-0.08060802
184	0xbd399dc0	-0.045316458
185	0xbe484ded	-0.19560976
186	0xbe3cfc9f	-0.18455742
187	0xbd38165f	-0.04494321
188	0x3c00aea7	0.00785414
189	0xbd4b65b6	-0.049657546
190	0x3b7db035	0.0038709764
191	0xbd4d4917	-0.050118532
192	0x3c58f9b9	0.013243132
193	0x3d928232	0.07153739
194	0x3d8b1853	0.06791749
195	0xbcba358f	-0.022730617
196	0x3bfdef3f	0.0077494676
197	0xbd7047f4	-0.05866237
198	0xbd83aa44	-0.0642896
199	0xbdbf8dce	-0.09353219
200	0xbd49d1c6	-0.04927232
201	0xbdd30b79	-0.103049226
202	0xbdc91162	-0.09817769
203	0xbdd1ecdf	-0.10250258
204	0xbd4a0612	-0.049322195
205	0xbd25c266	-0.040468596
206	0xbd9ea23c	-0.077457875
207	0xbdcfbb90	-0.101431966
208	0xbd92e5b0	-0.07172716
209	0xbd5ee7a8	-0.054420143
210	0x3c8311f0	0.015999764
211	0x3ce8271c	0.028338961
212	0xbd7ed4ef	-0.062214788
213	0xbdd70ef9	-0.10500903
214	0xbdbca4d5	-0.09211127
215	0xbcc6add6	-0.024252813
216	0x3d58de46	0.05294635
217	0x3c08adab	0.008342187
218	0xbdad04f2	-0.08448209
219	0xbdda1e03	-0.106502555
220	0x3d41c886	0.047310375
221	0x3da22538	0.07917255
222	0x3c85faf3	0.016355013
223	0xbcfd3661	-0.030909719
224	0x3ceac1ab	0.028656801
225	0x3c005bd5	0.007834394
226	0xbbb4f12c	-0.005521914
227	0x3ce63721	0.02810246
228	0x3d650a97	0.055918302
229	0xbd5e882f	-0.054329094
230	0xbcc78332	-0.024354551
231	0x3cf92db7	0.030417306
232	0x3d0bcd17	0.034131136
233	0x3d8e5d13	0.06951346
234	0x3e2b9292	0.16755131
235	0x3df801bb	0.12109705
236	0x3ce4c78b	0.02792718
237	0x3d867385	0.06565002
238	0x3dab0ae0	0.083516836
239	0x3d29acbb	0.041424494
240	0x3d1b3f1b	0.03790198
241	0xbda2c4f6	-0.079477236
242	0xbd39f467	-0.045399096
243	0xbc33eabb	-0.010981257
244	0xbd7bed73	-0.061505746
245	0xbd569001	-0.052383427
246	0xbda09334	-0.07840577
247	0xbd6157eb	-0.055015486
248	0xbd9679f0	-0.073474765
249	0xbdb54690	-0.08851349
250	0xbd3c8157	-0.046021786
251	0xbd59f645	-0.053213377
252	0x3c357f13	0.01107766
253	0xbd37935f	-0.04481828
254	0xbd971c05	-0.07378391
255	0x3c04b508	0.008099802

encoder.0.bias f4 [40]
0	0xba0f78c6	-0.0005473014
1	0xba92fc5c	-0.0011214125
2	0xbb740db2	-0.0037239608
3	0xba8f9083	-0.0010953102
4	0xbba3e844	-0.0050020535
5	0xba0c398b	-0.0005349151
6	0x3b0a038d	0.0021059245
7	0x3a5a9626	0.0008338414
8	0xbb693718	-0.0035585817
9	0x3bb367f5	0.005475039
10	0x3a0bf5b4	0.0005339042
11	0xba020ab8	-0.00049607037
12	0xbb3e9404	-0.0029079923
13	0xb988042b	-0.00025943047
14	0xbaa12b68	-0.0012296261
15	0x3b59fb07	0.0033261196
16	0xbab519d2	-0.0013816899
17	0xbaa20717	-0.0012361732
18	0x3795d0d8	1.7859435e-05
19	0xbb0655f6	-0.0020498014
20	0xbbc40241	-0.005981714
21	0xba3744ed	-0.0006991167
22	0xbb4a4f1e	-0.0030869911
23	0xbb6f4729	-0.003651092
24	0x3adc27a2	0.001679648
25	0x3a02aae8	0.00049845735
26	0xba11684c	-0.00055468525
27	0x3abd5d58	0.0014447374
28	0x39e8ae27	0.00044380242
29	0xba15d891	-0.000571617
30	0x3b8a9626	0.004229325
31	0x3ba52bbe	0.005040615
32	0xb98fffb2	-0.00027465593
33	0xbbbe581b	-0.005808843
34	0x3b56d4b2	0.0032780585
35	0xb96f666e	-0.00022830974
36	0xbaca27bd	-0.001542322
37	0xbb9fdd0f	-0.004878647
38	0xbb4c98f6	-0.0031219102
39	0xbaac0edc	-0.0013126987

encoder.1.weight f4 [40]
0	0x3f4e91b2	0.80691063
1	0x3f34b28e	0.7058495
2	0x3f449ae7	0.7679886
3	0x3f1bb91b	0.60829324
4	0x3f3240b2	0.6962997
5	0x3f6a3d19	0.9149948
6	0x3f4496d5	0.7679265
7	0x3f41e9e3	0.7574751
8	0x3f33a03b	0.7016637
9	0x3f35fc3e	0.71088016
10	0x3f520a1f	0.82046694
11	0x3f3e8b52	0.74431336
12	0x3f5f28df	0.8717174
13	0x3f48189d	0.78162557
14	0x3f2ef9ee	0.6835011
15	0x3f707c67	0.9393982
16	0x3f457eec	0.7714679
17	0x3f5ed552	0.8704425
18	0x3f456a9d	0.77115804
19	0x3f5bc185	0.8584216
20	0x3f2b1c22	0.668398
21	0x3f4e1552	0.8050128
22	0x3f326c67	0.6969666
23	0x3f35a9f2	0.7096244
24	0x3f12926c	0.5725467
25	0x3f424e2f	0.7590055
26	0x3f4035d8	0.7508216
27	0x3f14dd00	0.5814972
28	0x3f3de0a9	0.7417093
29	0x3f430b90	0.7618952
30	0x3f51d8de	0.8197154
31	0x3f4f0d2a	0.8087946
32	0x3f52fed3	0.8242008
33	0x3f47b26c	0.78006625
34	0x3f60fb19	0.87883145
35	0x3f2af092	0.6677333
36	0x3f637a95	0.8885892
37	0x3f771bf8	0.9652705
38	0x3f737723	0.95103663
39	0x3f3aae96	0.72922647

encoder.1.bias f4 [40]
0	0xbd5267fe	-0.051368706
1	0xbd017c13	-0.031612467
2	0x3b84b6a2	0.004050092
3	0x3ce0c7ef	0.027439086
4	0xbc0d5977	-0.008627287
5	0xbde50579	-0.111826845
6	0xbe14056e	-0.14455196
7	0xbe1f28aa	-0.15542856
8	0x3d67abbc	0.056560263
9	0x3d6824d5	0.05667575
10	0xbddab0ab	-0.10678228
11	0xbdfc4bbb	-0.12319132
12	0xbe3f4f8a	-0.18682685
13	0xbe0d81f2	-0.13819101
14	0x3e0ae011	0.13562037
15	0xbd28391f	-0.0410701
16	0xbbb07069	-0.005384494
17	0xbddfc198	-0.10925597
18	0xbdeffa53	-0.117176674
19	0xbe1a536a	-0.15070882
20	0xbd04f0cf	-0.032456215
21	0xbdac38f9	-0.08409304
22	0x3e68654b	0.2269489
23	0xbdaa5394	-0.083167225
24	0x3dc3b76b	0.095564686
25	0xbdb99796	-0.09062116
26	0x3e44af15	0.19207413
27	0x3e231928	0.15927565
28	0xbdb4d3b6	-0.08829443
29	0xbcaecd34	-0.021338083
30	0xbdf14b7d	-0.11781976
31	0xbe4567a3	-0.19277816
32	0xbe0bb9d5	-0.13645108
33	0x3e5eedcc	0.217704
34	0xbd8f8a14	-0.07008758
35	0xbe0d72f2	-0.1381338
36	0xbe1f8a1f	-0.15580033
37	0xbe5e938e	-0.21735975
38	0xbe57620a	-0.21033493
39	0xbd9c0174	-0.07617465

encoder.1.running_mean f4 [40]
0	0x3eee8fc4	0.4659406
1	0xbec1bc04	-0.37838757
2	0xbf0ba65d	-0.54550725
3	0xbeb8e4b6	-0.36111993
4	0xbe7613cb	-0.24030988
5	0x3ef32ff9	0.47497538
6	0x3e853e37	0.2602403
7	0x3f02ca67	0.5109009
8	0xbea35418	-0.31900096
9	0x3e033378	0.12812603
10	0x3d9be45e	0.07611917
11	0x3f0bb50e	0.5457314
12	0x3ef887a4	0.48540986
13	0x3e8e2ce7	0.27768633
14	0xbeedb125	-0.46424213
15	0x3f013886	0.5047687
16	0xbe93421b	-0.28761372
17	0x3f1c0864	0.60950303
18	0x3ef81629	0.48454407
19	0x3eb64278	0.35597587
20	0xbe9e840b	-0.30960116
21	0x3e64f2bd	0.22358222
22	0xbe5f6391	-0.21815325
23	0x3e9971dd	0.29969683
24	0xbdf0ba75	-0.11754314
25	0x3e12fdc4	0.14354616
26	0xbe7d1e1e	-0.2471852
27	0xbdd8b716	-0.10581796
28	0x3e050052	0.12988403
29	0x3e878654	0.26469672
30	0x3e6d14ae	0.2315242
31	0x3e81fe7d	0.25389472
32	0x3e8c4f3e	0.27404207
33	0xbe85a5fa	-0.26103193
34	0x3ead4a97	0.3384597
35	0xbe844ac1	-0.25838283
36	0x3f08cb53	0.5343525
37	0x3ef39d03	0.47580728
38	0x3f0f7c56	0.56049097
39	0x3e198682	0.14992717

encoder.1.running_var f4 [40]
0	0x3e034b36	0.1282166
1	0x3d8a6c77	0.06758969
2	0x3df4225b	0.11920615
3	0x3d8b4006	0.06799321
4	0x3d05fe34	0.03271313
5	0x3dfb8fcd	0.12283287
6	0x3d6574bd	0.056019533
7	0x3de4ef04	0.11178401
8	0x3d7d5839	0.061851714
9	0x3d0725ab	0.032994907
10	0x3d467ed6	0.048460804
11	0x3e02a13c	0.12756819
12	0x3e08df82	0.13366511
13	0x3d260191	0.040528838
14	0x3dc5e07e	0.09661959
15	0x3dd775b4	0.10520497
16	0x3d824baf	0.06362092
17	0x3e2ef16b	0.17084281
18	0x3df651e4	0.12027338
19	0x3d965e73	0.073422335
20	0x3d39dd12	0.045376845
21	0x3d31ef6d	0.043441225
22	0x3ccd8202	0.025086407
23	0x3d859183	0.06521895
24	0x3d02b939	0.031914923
25	0x3d5c76d8	0.053824276
26	0x3d3e1342	0.046405084
27	0x3d135a0c	0.035974547
28	0x3d17d9c1	0.0370729
29	0x3d5e667a	0.054296948
30	0x3d5411fa	0.051774956
31	0x3d3ff55c	0.046864852
32	0x3d41c5bf	0.047307726
33	0x3d325c1a	0.043544866
34	0x3d492fdd	0.04911791
35	0x3d820e78	0.06350416
36	0x3e146125	0.14490183
37	0x3dd8f244	0.105930835
38	0x3e0a6f40	0.13519001
39	0x3cbfa8a4	0.023395844

encoder.3.weight f4 [40, 40, 4, 4]
0	0xbc9feda2	-0.019522492
1	0xbc18f239	-0.009335094
2	0xbc5de4bc	-0.013543304
3	0xbcafd489	-0.02146365
4	0xbd3a3b8a	-0.045466937
5	0xbd93bc6f	-0.07213675
6	0xbc86f064	-0.016472049
7	0x3cd85f4e	0.026412632
8	0x3b486cb0	0.003058236
9	0x3d83c237	0.06433528
10	0xbce63468	-0.028101161
11	0x3d0e7904	0.03478338
12	0x3d790628	0.060796887
13	0x3d43dab3	0.04781599
14	0xba76cfbb	-0.00094151095
15	0xbbcee06f	-0.0063133757
16	0xbc8f092b	-0.017460426
17	0x3bf2c3e4	0.007408606
18	0x3d361095	0.044449408
19	0xbc201ed9	-0.00977298
20	0xbd21489c	-0.039375886
21	0xbc9ffff9	-0.019531237
22	0x3d103992	0.035211153
23	0x3d6cdef5	0.057829816
24	0x3a0ec8bf	0.00054467836
25	0x3c334425	0.01094154
26	0x3ca22bdd	0.019796306
27	0x3dcc4c6e	0.09975515
28	0xbb035945	-0.0020042222
29	0xbbadc9be	-0.0053035906
30	0x3d342f83	0.043990623
31	0xbc43306b	-0.011913399
32	0xbcf60181	-0.030030014
33	0xbc98e280	-0.018662691
34	0xbcaa2853	-0.020771181
35	0xbceb0f58	-0.02869384
36	0x3c7ab71d	0.015302447
37	0xbd583e68	-0.05279389
38	0xbd7e9d82	-0.06216193
39	0xbc8c2757	-0.017108602
40	0x3d419232	0.047258563
41	0xbba62f98	-0.0050715916
42	0xbdac08f9	-0.08400149
43	0xbd1157fc	-0.0354843
44	0x3db76513	0.08954825
45	0xbd564c8e	-0.052319102
46	0xbd6f18ec	-0.058373377
47	0xbb9cd8d1	-0.0047865887
48	0x3d3075ac	0.04308097
49	0xbcd92a9a	-0.026509572
50	0xbcfdd344	-0.030984528
51	0x3cb47d91	0.022032531
52	0x3cc62a40	0.024190068
53	0xbd407dc9	-0.046994958
54	0xbcdc83c8	-0.026918307
55	0x393fd9fe	0.00018296388
56	0x3cf282e2	0.029603425
57	0xbd318016	-0.043335043
58	0x3d07073e	0.03296589
59	0x3c995392	0.018716607
60	0xbc1d992d	-0.0096190395
61	0x3d24f2da	0.040270664
62	0xbb6a192c	-0.003572057
63	0xbccb1ea0	-0.024794877
64	0x3d689065	0.05677833
65	0x3ce72301	0.028214933
66	0xbd1667e0	-0.036720157
67	0x3b3d1041	0.00288488
68	0x3d77a2b4	0.0604579
69	0x3d3fc967	0.04682293
70	0xbcde2218	-0.027115867
71	0xbd0e04f8	-0.034672707
72	0xbd55ab2a	-0.052165188
73	0x3dbefc51	0.09325469
74	0x3c9ef3b6	0.01940332
75	0xbc158525	-0.009125982
76	0xbbc0a6d1	-0.005879261
77	0x3c01f47e	0.007931827
78	0x3c83632c	0.0160385
79	0x3c00e78e	0.007867707
80	0xbcdcaf46	-0.026939046
81	0x3ced1f26	0.028945517
82	0xbc434f8b	-0.01192082
83	0x3d0996f8	0.03359124
84	0xbdd368dc	-0.10322735
85	0x3ced9fdc	0.029006891
86	0x3d916c0f	0.07100689
87	0x3c5e0c52	0.013552742
88	0xbd3f3ca7	-0.046688702
89	0x3e011620	0.12606096
90	0xbc19cb7d	-0.009386894
91	0xbda3ee59	-0.080044456
92	0x3d22ef42	0.039778955
93	0x3d200ede	0.03907668
94	0xbc0682ab	-0.008209865
95	0x3c0a680d	0.008447659
96	0x3c953e40	0.01821816
97	0xbc2457b5	-0.010030677
98	0x3b493ee6	0.0030707656
99	0x3d272bde	0.04081332
100	0xbcb5af17	-0.022178216
101	0xbd76e90d	-0.06028085
102	0x3d6c7471	0.057728235
103	0x3d280896	0.041023813
104	0x3cd8366c	0.026393138
105	0x3d4f6a51	0.0506385
106	0x3c9f2e9d	0.019431407
107	0xba0adedd	-0.00052974914
108	0xbc3ba37f	-0.011452555
109	0x3d5767cd	0.052589227
110	0xbb91ae46	-0.004445824
111	0x3c968916	0.018375915
112	0x3ca8c836	0.02060328
113	0x3ce98d31	0.028509708
114	0x3d66cfa9	0.056350384
115	0xbcb12b79	-0.021627175
116	0x390ffd1c	0.00013731833
117	0xbc7a18aa	-0.015264669
118	0x3d369012	0.04457099
119	0x3d4b7187	0.049668815
120	0x3c297e52	0.0103450585
121	0xbc19d8a9	-0.009390035
122	0xbcb46128	-0.022018984
123	0xbd4106e2	-0.047125705
124	0xbd82f4cc	-0.063943475
125	0x3cdb9b19	0.026807355
126	0x3d9a8d25	0.075464524
127	0xbb336863	-0.0027375452
128	0xbc42a00a	-0.011878977
129	0xbd8aa507	-0.06769758
130	0xbd74f38b	-0.059802573
131	0x3cd0f3ba	0.025506843
132	0x3d829e17	0.063778095
133	0xbd586266	-0.052828215
134	0xbbe76e64	-0.00706272
135	0x3ccc5c97	0.024946494
136	0xbd036060	-0.032074332
137	0xbc8290dc	-0.015938215
138	0xbb964519	-0.004585874
139	0xbb639f56	-0.0034732423
140	0xbc86708e	-0.016411092
141	0x3d1dae92	0.03849656
142	0xbc43b5ba	-0.011945182
143	0x3b2fad98	0.002680635
144	0xbaf20156	-0.0018463533
145	0xbd4ae8b2	-0.04953832
146	0xbd38f7d2	-0.045158215
147	0x3bdea87e	0.006794988
148	0x3d71a770	0.05899757
149	0x3b860de6	0.0040910123
150	0xbd7354f8	-0.059407204
151	0xbc71e157	-0.014763198
152	0x3d7fe57f	0.062474724
153	0x3cfb1248	0.030648366
154	0xbb84ada8	-0.0040490218
155	0x3d9dfeeb	0.07714637
156	0x3c95df43	0.018294936
157	0x3c8d2e55	0.017234007
158	0xbb621357	-0.003449639
159	0xbccc77ec	-0.024959527
160	0x3c7e96fe	0.015538929
161	0x3ca10288	0.019654527
162	0x3d60fac9	0.054926667
163	0x3ce4347b	0.027857056
164	0xbcdaee43	-0.02672494
165	0x3de43d58	0.11144513
166	0x3cc61001	0.024177553
167	0xbccc456c	-0.024935447
168	0xbdc378dd	-0.09544537
169	0x3cdc4ce3	0.026892131
170	0x3e014a9a	0.12626114
171	0x3cc2a5ab	0.023760637
172	0x3cf44855	0.029819647
173	0x3cb98bc5	0.022649655
174	0xbbc90da1	-0.006135658
175	0x3cd247a0	0.02566892
176	0xbd7efa28	-0.062250286
177	0xbbfdfe86	-0.007751289
178	0x3d084a13	0.033273768
179	0x3d8b15ce	0.06791268
180	0x3cc9226b	0.024552545
181	0xbcc5dfd2	-0.024154577
182	0xbd11c186	-0.03558495
183	0x3cce6950	0.025196701
184	0xbc071c71	-0.008246527
185	0xbd8d89a8	-0.069110215
186	0x3d6931c1	0.056932215
187	0xbc6cee80	-0.01446116
188	0x3b19cf27	0.002346942
189	0xbc414a7a	-0.011797542
190	0x3cc4693d	0.023975963
191	0x3d8e344d	0.06943569
192	0xbd87028b	-0.06592282
193	0x3c89ce09	0.016821878
194	0x3c851e0d	0.01624968
195	0xbd3174ee	-0.043324403
196	0xbd201aaa	-0.03908793
197	0xbd10046c	-0.035160467
198	0x3d35250b	0.04422478
199	0x3c9b8163	0.018982595
200	0xbd84842f	-0.064705245
201	0xbb879efc	-0.0041388255
202	0xbcbb122a	-0.02283581
203	0x3d8f28d0	0.06990206
204	0x3b8041f1	0.003914111
205	0x3b1967db	0.002340785
206	0x3cc8a84a	0.024494309
207	0xbcfa25a8	-0.030535534
208	0xbd043827	-0.032280114
209	0xbce1db7d	-0.02757048
210	0x3be07e86	0.0068510203
211	0xbc78db77	-0.015189043
212	0x3ddec3d6	0.108771965
213	0x3e075f40	0.13219929
214	0xbd506208	-0.05087474
215	0xbcc723c2	-0.024309043
216	0xbd2a7660	-0.041616797
217	0xbcfc22d2	-0.030778322
218	0x3c19b615	0.009381791
219	0x3d65ff80	0.056151867
220	0xbb910e73	-0.0044267713
221	0xbd1d107d	-0.038345803
222	0xbbd2761a	-0.00642277
223	0x3d33a78c	0.043860957
224	0x3d346d0f	0.04404932
225	0xbd77b989	-0.060479674
226	0xbab57084	-0.0013842736
227	0x3d3329e1	0.04374111
228	0x3d2b571a	0.041831113
229	0xbd612137	-0.054963317
230	0xbc97d5de	-0.018534597
231	0x3ce2c46b	0.02768155
232	0x3d559b1f	0.052149888
233	0xbcac3dc5	-0.021025548
234	0xbd25195e	-0.040307395
235	0x3cefb397	0.02926044
236	0x3d54fa41	0.051996473
237	0x3cfdd145	0.030983577
238	0xbd265193	-0.04060514
239	0x3c91a6fb	0.017779818
240	0x3c7e6ce1	0.015528888
241	0xbd4ef755	-0.050528843
242	0xbc524e35	-0.012836029
243	0x3cd6b050	0.02620712
244	0xbc1316c8	-0.008977599
245	0xbd9f000a	-0.07763679
246	0x3cc4d763	0.024028486
247	0x3c06f81e	0.008237867
248	0x3d7cd2fd	0.06172465
249	0xbc7a4233	-0.015274572
250	0xbd820bd4	-0.06349912
251	0x3c6525e5	0.013986086
252	0x3c9064ed	0.01762625
253	0xbcfb4426	-0.030672144
254	0x3ce507e3	0.027957862
255	0xbcea21a4	-0.028580494

encoder.3.bias f4 [40]
0	0x3c0842e1	0.008316726
1	0x3d92f503	0.071756385
2	0x3ce3ced2	0.02780858
3	0xbc55ee1f	-0.013057261
4	0x3db2c79c	0.08729479
5	0x3c4b8fdc	0.0124244355
6	0x3e25d29e	0.16193625
7	0xbbabacc6	-0.005239102
8	0xbb7a1fe8	-0.003816599
9	0x3b4252b4	0.0029651346
10	0x3d1b3df7	0.03790089
11	0x3d595e91	0.0530687
12	0x3c1d24c3	0.009591284
13	0x3cc1ad30	0.023642153
14	0x3d27bb7f	0.040950295
15	0x3d0a18bb	0.03371499
16	0xbc4b601a	-0.012413049
17	0xbc80aa06	-0.015706073
18	0xbb9b3c9a	-0.004737449
19	0xbc9ef192	-0.0194023
20	0xb802d578	-3.1193224e-05
21	0x3bc25fa9	0.0059318137
22	0x3e0d9100	0.13824844
23	0x3c023627	0.007947481
24	0xbcf38727	-0.029727532
25	0x3c927f58	0.017882988
26	0x3c3f7e83	0.011687878
27	0x3c5fad1c	0.013652112
28	0x3d98c83d	0.074600674
29	0x3caf89b7	0.021427972
30	0xbba8127d	-0.005129157
31	0xbc271400	-0.010197639
32	0xbd3651c4	-0.04451157
33	0xbc8bdb4b	-0.01707234
34	0xbc9ef04f	-0.019401697
35	0xbd019ca1	-0.031643514
36	0xbcd682a5	-0.026185343
37	0xbd34b637	-0.044119086
38	0x3c9c05ad	0.019045675
39	0xbbc58227	-0.0060274783

encoder.4.block.1.weight f4 [40, 40, 3, 3]
0	0x3d1f5b11	0.038905207
1	0xbceb3574	-0.028712012
2	0x3d91b56b	0.07114681
3	0xbd45e418	-0.04831323
4	0xbdae513f	-0.0851159
5	0xbd5d10db	-0.053971153
6	0xbb06b434	-0.0020554187
7	0xbd217a3c	-0.039423212
8	0x3cff5f0d	0.031173253
9	0xbc3fbd72	-0.011702882
10	0x3d8d9b06	0.06914334
11	0x3df87182	0.12131025
12	0x3c08a4bd	0.008340058
13	0xbe014fa1	-0.12628032
14	0xbdbaebea	-0.09127028
15	0xbd00de1b	-0.031461816
16	0x3d9db504	0.077005416
17	0xbc34d9c7	-0.01103825
18	0x3d263874	0.04058118
19	0xbcc1c947	-0.023655547
20	0x3dc0414b	0.09387454
21	0x3d0a3d4f	0.033749875
22	0xbc586bdb	-0.0132093085
23	0x3da4daba	0.08049531
24	0x3ddaa714	0.10676399
25	0x3c3beee3	0.011470529
26	0xbbd5a996	-0.0065204604
27	0xbe1297f3	-0.14315777
28	0x3e058cec	0.13042039
29	0xbce76ee2	-0.028251115
30	0xbc7e9c61	-0.015540213
31	0xbd633cea	-0.055478014
32	0xbd8f3fce	-0.06994592
33	0x3cf436e1	0.029811325
34	0xbe62e3fc	-0.22157282
35	0xbd11d68d	-0.035605002
36	0xbd8f8a96	-0.07008855
37	0xbc9b38df	-0.018948017
38	0x3d043476	0.032276593
39	0x3e02c09f	0.12768792
40	0x3e24a7af	0.16079591
41	0xbd89e352	-0.06732811
42	0x3d0c6020	0.03427136
43	0xbc2ba476	-0.010476222
44	0xbcb14c18	-0.02164273
45	0x3c843151	0.016136797
46	0xbcfccdbf	-0.030859826
47	0x3d8d249c	0.06891748
48	0x3d99de20	0.0751307
49	0x3d00a1eb	0.031404417
50	0xbaee174c	-0.0018164902
51	0x3d919751	0.071089394
52	0x3c55da5a	0.013052547
53	0x3bc37136	0.0059644235
54	0xbccc25be	-0.02492034
55	0x3d6279f8	0.0552921
56	0x3c21f5ef	0.009885295
57	0x3d31abb8	0.043376654
58	0x3db04b36	0.08608095
59	0xbc5f255f	-0.01361975
60	0xbd088dd4	-0.033338383
61	0x3d007d26	0.03136935
62	0x3c643925	0.01392964
63	0xbd8d5db2	-0.069026366
64	0xbc9bd66a	-0.019023139
65	0x3d7fe6c0	0.06247592
66	0xbc971b6c	-0.018445693
67	0x3da1df27	0.07903891
68	0xbcfdfe77	-0.031005127
69	0x3b19685b	0.0023408148
70	0xbd00bc99	-0.03142986
71	0xbcc04008	-0.023468032
72	0xbd334924	-0.043770924
73	0xbd15b0a3	-0.036545407
74	0xbcdf2045	-0.027237067
75	0x3d56d03d	0.052444685
76	0x3da43c22	0.08019282
77	0xbc77066b	-0.015077214
78	0xbccaa636	-0.024737459
79	0xbd924dd3	-0.0714375
80	0xbce6fb3a	-0.028195966
81	0xbce1ddfc	-0.02757167
82	0x3da89e94	0.082333714
83	0x3d80f620	0.062969446
84	0xbcf3de23	-0.029769009
85	0x3dd38b02	0.10329248
86	0x3c6e3d9b	0.014541055
87	0x3c846563	0.016161626
88	0x3e27104b	0.16314809
89	0x3cfa8523	0.030581063
90	0x3d271334	0.040789798
91	0xbd21e810	-0.039527953
92	0xbcc16c7c	-0.0236113
93	0xbd4f6fa9	-0.050643597
94	0xbd9096f5	-0.07060043
95	0xbcf8c646	-0.030367982
96	0xbd0fd4a0	-0.035114884
97	0xbd84c946	-0.06483702
98	0xbd6f35a8	-0.05840078
99	0xbce1cb61	-0.027562799
100	0x3d95ac44	0.07308248
101	0xbdb9f06b	-0.09079059
102	0x3c8407fe	0.016117092
103	0x3d2a18f2	0.041527696
104	0x3d5195e8	0.051168352
105	0xbc94e719	-0.018176602
106	0x3b6b5603	0.0035909421
107	0xbcea4384	-0.028596647
108	0xbbf3b5b2	-0.0074374313
109	0x3db08ef0	0.08621013
110	0xbd594d7a	-0.053052403
111	0xbd3570f3	-0.04429717
112	0x3d952efc	0.07284352
113	0x3be1f165	0.0068952315
114	0xbd957db4	-0.072993666
115	0xbd57b624	-0.052663937
116	0xbd73d20f	-0.0595265
117	0x3cb4650d	0.022020841
118	0xbd54397d	-0.051812638
119	0xbc4a0dd8	-0.012332402
120	0xbd933da0	-0.071894884
121	0xbe1f9f90	-0.15588212
122	0x3e13bd1b	0.14427607
123	0xbb8da651	-0.004322805
124	0xbbe04705	-0.0068444037
125	0xbb45d965	-0.0030189392
126	0xbd9ae26c	-0.07562718
127	0x3d53a51b	0.05167113
128	0xbb22716a	-0.0024786838
129	0x3e566494	0.20936805
130	0xbe456793	-0.19277792
131	0xbca7b3c2	-0.020471457
132	0x3d287b7e	0.041133396
133	0x3d3d97b5	0.046287257
134	0x3c1b512a	0.0094798
135	0xbd498363	-0.049197566
136	0x3d2d2936	0.04227563
137	0xbbae20b8	-0.005313959
138	0x3d9316ec	0.071821064
139	0xbcd80576	-0.026369791
140	0x3d0d0505	0.034428615
141	0x3b915a72	0.0044358307
142	0xbc8e0229	-0.017335014
143	0xbc959f84	-0.01826454
144	0xbcdea521	-0.027178349
145	0xbd643005	-0.055709857
146	0xbdb145d0	-0.08655894
147	0x3da35f92	0.07977213
148	0xbd4e7409	-0.05040363
149	0x3d03afa1	0.032149915
150	0xbd8b83aa	-0.06812222
151	0xbd205f85	-0.039153595
152	0x3c84891f	0.016178666
153	0x3dae9298	0.08524054
154	0x3d3bf5b9	0.045888636
155	0xbd7fef04	-0.062483802
156	0xbd9484cc	-0.072518915
157	0x3df4254f	0.119211785
158	0x3dc697d9	0.096969314
159	0xbe076a0e	-0.1322405
160	0xbe027064	-0.12738186
161	0x3d1e7f62	0.0386957
162	0x3d542625	0.05179419
163	0xbd4ce22a	-0.050020374
164	0xbd80732c	-0.06271967
165	0xbc7fe79a	-0.015619183
166	0x3cd2126e	0.025643554
167	0xbcf7033c	-0.03015291
168	0xbc3122cd	-0.01081152
169	0x39144903	0.00014141579
170	0x3c583291	0.01319565
171	0x3c5580f3	0.013031232
172	0x3cd6880a	0.026187915
173	0xbd881643	-0.06644871
174	0xbbbd4329	-0.0057758284
175	0xbdf706b4	-0.120618254
176	0xbde053ef	-0.10953509
177	0xbe5d0a2e	-0.21585914
178	0xba8e482b	-0.0010855248
179	0xbd92f0e8	-0.071748555
180	0xbd84c2ba	-0.06482454
181	0x3dd3166d	0.10307012
182	0xbd8c845f	-0.06861185
183	0xbcf9bb54	-0.030484833
184	0xbd15109b	-0.03639279
185	0xbbe3da8c	-0.006953543
186	0xbea2edad	-0.31821957
187	0xbd6793ee	-0.05653756
188	0x3c18e109	0.009330996
189	0xbdba259f	-0.09089207
190	0xbdd574ea	-0.1042269
191	0xbc937f69	-0.01800509
192	0xbe45b2fd	-0.1930656
193	0xbd7d0236	-0.061769687
194	0x3dc634a2	0.09678008
195	0xbe18b28a	-0.14911857
196	0x3de92082	0.113831535
197	0xbcb6327f	-0.022240875
198	0xbbc8877b	-0.006119666
199	0x3b5b2b40	0.0033442527
200	0x3c8b8b86	0.017034303
201	0xbd649b44	-0.055812135
202	0x3e0fd4f6	0.14046082
203	0xbc1f64d6	-0.009728631
204	0xbd0ba2d3	-0.03409083
205	0xbdbc9c78	-0.092095315
206	0xbd07b2a7	-0.03312936
207	0xbc8c1f78	-0.01710485
208	0xbc8e3db8	-0.017363414
209	0x3bec002e	0.00720217
210	0xbde8d0a5	-0.11367921
211	0xbe26af44	-0.16277796
212	0xbc2ba361	-0.010475964
213	0x3d8adf40	0.06780863
214	0x3d5619ed	0.05227082
215	0x3d90f295	0.07077519
216	0xbbcc8786	-0.0062417416
217	0xbd249f2c	-0.04019086
218	0xbd120ecb	-0.03565864
219	0xbd627c6e	-0.055294447
220	0x3e5add51	0.21373488
221	0x3ddc2b82	0.10750486
222	0x3db4dfd9	0.08831758
223	0xbc59a8ed	-0.013284904
224	0x3cb90071	0.022583218
225	0x3cd1bc27	0.025602413
226	0x3bee4793	0.007271716
227	0xbcbc7016	-0.023002665
228	0xbe068c18	-0.13139379
229	0x3e183d75	0.14867194
230	0xbcad846c	-0.021181308
231	0x3d0c5d1d	0.034268487
232	0x3cfa0214	0.030518569
233	0xbb655c69	-0.0034997708
234	0x3d7cb5ec	0.06169693
235	0x3cf4b6ca	0.029872317
236	0x3cfc6e6a	0.030814368
237	0xbbcc417b	-0.006233392
238	0xbcf7c389	-0.030244606
239	0xbc39b959	-0.011335694
240	0x3a2bb0d2	0.00065494806
241	0xbd20f352	-0.03929455
242	0xbcf87763	-0.030330366
243	0xbbb4bd4b	-0.0055157295
244	0xbac4c763	-0.0015013035
245	0x3c8fb84b	0.017543932
246	0x3e15c66d	0.14626475
247	0xbdaf9ded	-0.08575044
248	0xbd195128	-0.037430912
249	0x3d1a790c	0.037713096
250	0xbd002c10	-0.03129202
251	0xbd92ebb6	-0.071738645
252	0xbcfbf85e	-0.03075808
253	0x3cd980b4	0.026550628
254	0x3d0d0f2c	0.034438297
255	0x3ccefc20	0.025266707

encoder.4.block.1.bias f4 [40]
0	0x3b4aeb59	0.0030963032
1	0xbba8a15d	-0.005146189
2	0xb9c6e033	-0.00037932544
3	0x3a498596	0.00076874474
4	0xb9ddaeb7	-0.00042282577
5	0x3b35dcd0	0.0027750023
6	0x3ab44f2c	0.0013756505
7	0x399d10fd	0.0002995803
8	0x3a45dc7c	0.00075478083
9	0xba6b4ddb	-0.000897614
10	0x3b92b98d	0.004477686
11	0x3c0e3fab	0.008682172
12	0xb95a290c	-0.00020805391
13	0x3af9780c	0.0019032969
14	0xb994d0af	-0.0002838424
15	0x3a97a705	0.0011570161
16	0xbb090b98	-0.0020911451
17	0xbabdd433	-0.0014482796
18	0x3a12521a	0.0005581692
19	0x3aa152c3	0.001230799
20	0xb89c3324	-7.448185e-05
21	0x37e8177a	2.7667487e-05
22	0xba6095d2	-0.0008567247
23	0xbb0f86bf	-0.0021900383
24	0x3b6ee984	0.0036455104
25	0xba1c3107	-0.00059582334
26	0x3a9a2446	0.0011760078
27	0x3baa018c	0.0051881727
28	0xb958942b	-0.00020654562
29	0x3a41ef7e	0.0007398053
30	0x3ae456bf	0.0017420872
31	0x3ad0e510	0.0015937407
32	0x3abffe40	0.0014647916
33	0x3b146496	0.0022642962
34	0xb9e9d038	-0.00044596358
35	0x3b9b6585	0.0047423267
36	0xbb537a63	-0.0032268993
37	0x39abb4a0	0.00032750238
38	0xb9e3e0f3	-0.00043464414
39	0x3b2f8376	0.0026781238

encoder.4.block.2.weight f4 [40]
0	0x3f8cd670	1.1002941
1	0x3f842dda	1.0326493
2	0x3f78a832	0.97131646
3	0x3f704832	0.9386016
4	0x3f6cd43b	0.9251134
5	0x3f6e52c9	0.9309507
6	0x3f717e54	0.94333386
7	0x3f6f8965	0.9356902
8	0x3f5c8c84	0.8615191
9	0x3f5a7839	0.85339695
10	0x3f7dd706	0.99156225
11	0x3f885c6c	1.0653205
12	0x3f72b862	0.94812596
13	0x3f9559ca	1.1668026
14	0x3f8eb080	1.1147614
15	0x3f887881	1.0661775
16	0x3f8a6634	1.081244
17	0x3f33d6f8	0.7024989
18	0x3f6bc710	0.9210062
19	0x3f70863b	0.9395482
20	0x3f841d91	1.0321523
21	0x3f88c644	1.0685506
22	0x3f3a846d	0.72858316
23	0x3f839b91	1.028185
24	0x3f58cbb6	0.8468584
25	0x3f66b57a	0.9012066
26	0x3f8db215	1.1069971
27	0x3f896049	1.0732509
28	0x3f832496	1.024554
29	0x3f900bf7	1.1253651
30	0x3f8dc1db	1.1074785
31	0x3f8dda56	1.1082256
32	0x3f80c8a5	1.0061232
33	0x3f948146	1.1601951
34	0x3f72077b	0.94542664
35	0x3f87538e	1.0572374
36	0x3f76bf06	0.9638523
37	0x3f481a8a	0.78165495
38	0x3f98fdb5	1.1952425
39	0x3f5cf1f9	0.8630672

encoder.4.block.2.bias f4 [40]
0	0x3e8b58b5	0.27216116
1	0x3c794470	0.015214071
2	0xbdbf8e06	-0.09353261
3	0x3e968f51	0.29406217
4	0x3e923284	0.28554165
5	0x3ecdfea2	0.40233332
6	0x3e123014	0.14276153
7	0x3d9d3b56	0.07677333
8	0x3dfe5fa7	0.12420588
9	0xbdc22732	-0.09480132
10	0x3ddd73f7	0.10813134
11	0x3ea7f667	0.32805178
12	0x3ec79ca2	0.3898669
13	0x3ee19087	0.44055578
14	0x3ee16fdc	0.44030654
15	0xbd97454a	-0.07386263
16	0x3c9b1f16	0.018935721
17	0x3d775338	0.060382098
18	0x3e4dd5ea	0.20101133
19	0x3e8c489c	0.27399147
20	0xbe50e97a	-0.20401564
21	0xbdb70240	-0.08935976
22	0xbdfb27c8	-0.12263447
23	0xbe13ba14	-0.14426452
24	0x3e097384	0.13422972
25	0xbdd48e7e	-0.10378741
26	0x3e7ff966	0.24997482
27	0x3d4b8c5e	0.04969441
28	0xbdc3dcb6	-0.09563582
29	0x3cb5eb1d	0.022206837
30	0x3e8e186f	0.27753016
31	0x3e84a99f	0.2591066
32	0x3d1662ec	0.036715433
33	0x3eb0f1bc	0.3455943
34	0x3e7d16b4	0.24715692
35	0xbceb7401	-0.028741838
36	0x3c6c1654	0.01440962
37	0xbdd4544a	-0.10367639
38	0xbe54823e	-0.20752808
39	0x3e08b59b	0.13350527

encoder.4.block.2.running_mean f4 [40]
0	0x3ea3ccc7	0.3199217
1	0xbf481875	-0.7816232
2	0xbf3646e9	-0.7120195
3	0xbf10c464	-0.5654967
4	0x3e40f80e	0.18844625
5	0x3f41f9c5	0.75771743
6	0x3e91e5d7	0.28495666
7	0xbe775c6f	-0.24156354
8	0x3e5034ec	0.20332688
9	0xbec19352	-0.3780771
10	0x3ef6dbad	0.48214474
11	0x3df32483	0.118721984
12	0x3da78429	0.081795044
13	0x3ec02890	0.37530947
14	0x3eb44ac1	0.35213283
15	0xbf463a66	-0.7743286
16	0xbf28b115	-0.65895206
17	0xbd82981f	-0.06376671
18	0x3f09807e	0.5371169
19	0x3d02bcfc	0.03191851
20	0xbca87d93	-0.020567691
21	0xbf409f08	-0.7524266
22	0xbe5c637d	-0.21522327
23	0xbeae278c	-0.34014547
24	0x3e97ee10	0.29673815
25	0xbf2a56fd	-0.66538984
26	0x3f37f50a	0.71858275
27	0x3efc943f	0.49331853
28	0x3d96a5a1	0.0735581
29	0xbf7a345c	-0.97736144
30	0x3f5b5bf6	0.85687196
31	0x3f2772b4	0.654094
32	0xbf24cdb2	-0.64376366
33	0xbd2d8771	-0.042365495
34	0x3eaaa279	0.33327082
35	0xbf069289	-0.52567345
36	0xbe3b37bd	-0.18282981
37	0xbf1ccf98	-0.6125426
38	0xbeb7bbe6	-0.35885543
39	0x3d019087	0.031631973

encoder.4.block.2.running_var f4 [40]
0	0x3ef345bd	0.47514144
1	0x3f699cef	0.91255087
2	0x3f30df62	0.69090855
3	0x3f0c80ca	0.54884017
4	0x3eb140e4	0.3461982
5	0x3f4eeee8	0.8083329
6	0x3efd09bd	0.49421492
7	0x3e14bc5b	0.14524977
8	0x3ee990dc	0.4561833
9	0x3f10a204	0.56497216
10	0x3f119944	0.5687449
11	0x3eb63335	0.35585943
12	0x3eae62a7	0.3405964
13	0x3eae98e3	0.34101018
14	0x3f195cb4	0.5990708
15	0x3f313e11	0.6923533
16	0x3ed690aa	0.41907245
17	0x3e5d8ea2	0.21636441
18	0x3f15d45b	0.58527154
19	0x3e5e3442	0.21699622
20	0x3e0bb5ad	0.13643523
21	0x3f4f3d32	0.8095275
22	0x3dc12c4a	0.094322756
23	0x3f1844d5	0.5948003
24	0x3ef225f0	0.4729457
25	0x3f10aa4f	0.5650987
26	0x3f23471b	0.63780373
27	0x3ee78209	0.45216396
28	0x3dc41590	0.09574425
29	0x3f98e4d2	1.194483
30	0x3f3ccfd3	0.73754615
31	0x3f819ef7	1.0126637
32	0x3f50f4e0	0.8162365
33	0x3e90706c	0.2821077
34	0x3eeb172c	0.45916116
35	0x3ed35152	0.4127298
36	0x3e9c94b9	0.30582216
37	0x3ec66ed8	0.38756442
38	0x3df72dae	0.120692596
39	0x3ead542f	0.3385329

encoder.4.block.4.weight f4 [40, 40, 1, 1]
0	0x3e279c20	0.1636815
1	0x3dc9173b	0.09818884
2	0x3e87e67c	0.26543033
3	0x3e268ac8	0.16263878
4	0x3e46905c	0.19391006
5	0xbe74a0cf	-0.23889469
6	0x3dd7fefa	0.1054668
7	0x3d2745a8	0.040837914
8	0x3dc23381	0.0948248
9	0x3ccdd215	0.025124589
10	0xbe2e26c3	-0.17006974
11	0xbda0deee	-0.078550205
12	0xbdc278b6	-0.0949568
13	0xbe69554d	-0.22786446
14	0xbe19ebd1	-0.15031363
15	0x3d009dea	0.0314006
16	0x3e83987a	0.25702268
17	0x3d8092fd	0.06278036
18	0xbd5f4533	-0.054509353
19	0xbe044c38	-0.129197
20	0x3dc0696e	0.09395109
21	0x3de27331	0.11057127
22	0xbccfec3c	-0.0253812
23	0x3e2f4180	0.1711483
24	0x3e9089c6	0.28230113
25	0x3d69d297	0.0570856
26	0xbec04c43	-0.37558183
27	0xbe6790ed	-0.22613879
28	0xbe6b1da1	-0.22960521
29	0x3caf682f	0.021411983
30	0xbeb32eba	-0.34996587
31	0x3db94e5e	0.090481505
32	0x3daf5f84	0.0856314
33	0xbe85c631	-0.2612777
34	0x3d9b3d5c	0.07580063
35	0x3cbe6a03	0.02324391
36	0xbd382afa	-0.04496286
37	0x3c39b47b	0.011334534
38	0x3ec26ae9	0.3797219
39	0x3d3bface	0.045893483
40	0x3e1ec747	0.15505706
41	0x3bfb8cca	0.0076766955
42	0x3e93efe5	0.28893963
43	0xbe1f9e4f	-0.15587734
44	0x3d2a9881	0.041649345
45	0xbe36612a	-0.17810503
46	0x3c4ee0bd	0.012626824
47	0xbbec010f	-0.0072022746
48	0x3e1bad0b	0.1520273
49	0xbc4da2f8	-0.012551062
50	0x3d6d044f	0.057865437
51	0x3e16d14d	0.1472828
52	0x3e54630d	0.2074091
53	0x3e2765fd	0.16347499
54	0x3ea02b2f	0.31282946
55	0xbe8a4527	-0.27005884
56	0xbd3b4633	-0.045721244
57	0x3e295993	0.16538076
58	0xbc8d7ff9	-0.017272936
59	0x3d886b5f	0.066611044
60	0xbc900323	-0.01757962
61	0xbe39dcba	-0.18150607
62	0xbd02e42f	-0.031955894
63	0xbd75e916	-0.06003674
64	0xbd2ea224	-0.042635098
65	0x3c2de9b4	0.010614801
66	0x3daf04e1	0.085458525
67	0x3e28533a	0.16437998
68	0xbb534a1c	-0.0032240218
69	0xbd74f333	-0.059802245
70	0x3e239a36	0.15976796
71	0x3e182695	0.14858468
72	0x3da2b932	0.079454795
73	0x3eb5ff72	0.35546452
74	0x3e646a9e	0.22306296
75	0xbe1d2481	-0.15345956
76	0xbe355b41	-0.17710592
77	0xbdb38201	-0.08765031
78	0xbe437bcb	-0.19090192
79	0xbcb55b8c	-0.02213838
80	0xbe041a37	-0.12900625
81	0x3e99a9c2	0.30012327
82	0xbd9ed3bc	-0.07755229
83	0xbde03321	-0.10947252
84	0xbdc62dc8	-0.09676701
85	0xbe03548f	-0.12825225
86	0xbdb1bc91	-0.08678544
87	0xbe154b3f	-0.14579485
88	0x3ce7e95a	0.028309513
89	0x3ca8a0e8	0.020584539
90	0x3da80a6b	0.08205112
91	0xbe69727a	-0.22797576
92	0x3dad2bc8	0.08455616
93	0xbe165221	-0.14679767
94	0xbe2af749	-0.16695894
95	0x3e3d0b2d	0.18461294
96	0x3d9c3cd2	0.07628788
97	0xbcc8e1b7	-0.024521692
98	0xbe392568	-0.18080676
99	0xbc8dfbe5	-0.017332027
100	0x3cd2bcc5	0.025724778
101	0x3e4870f6	0.19574341
102	0x3cad92bc	0.021188132
103	0x3cdb8c9a	0.026800442
104	0xbe58e7fb	-0.21182244
105	0x3e0a812a	0.13525835
106	0xbe0dce95	-0.13848336
107	0x3d5ed1c7	0.054399278
108	0xbe367f22	-0.17821935
109	0x3de0c9bb	0.10975977
110	0xbdfc850f	-0.123300664
111	0xbe9573b7	-0.29189846
112	0xbd860229	-0.06543381
113	0xbe859533	-0.26090392
114	0x3bea82d2	0.0071567083
115	0x3dfde040	0.12396288
116	0xbbc78dfb	-0.0060899234
117	0x3e1cac6b	0.15300147
118	0x3f0178d2	0.5057498
119	0xbe6eca6d	-0.23319407
120	0xbd9ac2d0	-0.07556689
121	0x3e82c06c	0.2553743
122	0x3de94597	0.11390226
123	0x3ddeda32	0.10881461
124	0xbd8d5787	-0.0690146
125	0x3d30435b	0.043032985
126	0xbda3de7e	-0.080014214
127	0xbea0030c	-0.31252325
128	0xbe251294	-0.16120368
129	0xbd2de154	-0.042451218
130	0x3d4101c3	0.04712082
131	0xbe514d3c	-0.20439619
132	0xbd262a58	-0.040567726
133	0xbc83995c	-0.016064338
134	0xbe152fec	-0.14569062
135	0xbe6ba750	-0.23013043
136	0xbd51a840	-0.051185846
137	0x3dab58b8	0.08366531
138	0xbd81f0df	-0.06344771
139	0x3dfbddb2	0.122981444
140	0x3e6c389a	0.23068467
141	0x3dd3911d	0.103304125
142	0xbc3ed303	-0.011646989
143	0x3e1fc4eb	0.15602462
144	0xbe1933d6	-0.1496118
145	0xbd9dbfea	-0.0770262
146	0xbdb21627	-0.086956315
147	0xbddf99dc	-0.10918018
148	0x3e33ad04	0.17546469
149	0xbd8c6de5	-0.06856898
150	0xbdf416b9	-0.119183965
151	0x3c8ada8e	0.016949918
152	0x3e0be78a	0.13662544
153	0xbe2a5e13	-0.16637449
154	0x3bd21c78	0.006412085
155	0x3e4ecdbd	0.2019567
156	0x3e25493b	0.16141216
157	0xbd1418fa	-0.036156632
158	0x3eda4d09	0.42636898
159	0xbd3a0f16	-0.045424543
160	0xbe0cc9e8	-0.13748896
161	0xbe4a42b1	-0.19752003
162	0xbc20a23e	-0.009804307
163	0xbd3f8ab7	-0.04676315
164	0x3d12ad07	0.035809543
165	0xbe3ee17a	-0.186407
166	0x3e925472	0.28580052
167	0xbe1c1f99	-0.15246429
168	0xbd766d4e	-0.060162835
169	0x3e5d0651	0.21584441
170	0xbd395f92	-0.04525716
171	0x3d27543e	0.040851824
172	0x3e6b4c08	0.22978222
173	0x3ea074ec	0.31339204
174	0x3e1969c5	0.14981754
175	0x3d88c317	0.066778354
176	0xbe321eaa	-0.1739451
177	0x3dec8a74	0.11549845
178	0x3df1a0d9	0.117982574
179	0x3e679645	0.22615917
180	0x3e59d547	0.21272765
181	0x3c2e781c	0.0106487535
182	0xbe52e91a	-0.20596734
183	0x3dc852b1	0.09781397
184	0xbd035b18	-0.032069296
185	0xbdcf93de	-0.10135625
186	0xbc6f4592	-0.014603989
187	0x3e47a882	0.19497874
188	0x3dc7453d	0.09730003
189	0xbe386b11	-0.18009593
190	0x3e6f6059	0.23376597
191	0xbdf38128	-0.11889869
192	0xbdbfdef0	-0.09368694
193	0x3d8d98e8	0.0691393
194	0x3e82a133	0.2551361
195	0xbe0e4637	-0.13893972
196	0x3a48c709	0.0007659053
197	0xbe0d58ef	-0.13803457
198	0xbe5acb16	-0.21366534
199	0x3e162544	0.14662653
200	0xbd242d89	-0.04008249
201	0xbcabef05	-0.020987997
202	0x3e697e27	0.2280203
203	0xbca7ea05	-0.020497331
204	0xbe0d998d	-0.13828106
205	0xbe8d1d42	-0.27561384
206	0xbe1de250	-0.15418363
207	0x3de73a19	0.11290378
208	0xbc9b9f03	-0.018996721
209	0xbcd59f27	-0.026076866
210	0xbdda5298	-0.10660285
211	0xbe907a66	-0.28218383
212	0xbe9c54f2	-0.30533558
213	0xbc6d6012	-0.014488237
214	0x3d5ad2f2	0.05342383
215	0x3e5cd52e	0.21565697
216	0x3dc34795	0.095351376
217	0xbd24ae17	-0.040205088
218	0xbc2e0bb5	-0.010622908
219	0xbec6dcff	-0.38840482
220	0x3d0480bd	0.032349337
221	0x3d8443f8	0.064582765
222	0xbd2c168f	-0.0420137
223	0x3d85f124	0.065401345
224	0xbc43d255	-0.0119520025
225	0x3ce4ef30	0.027946085
226	0x3d90e2dc	0.0707452
227	0x3e3b1cca	0.18272701
228	0xbedb97a0	-0.42889118
229	0x3e49d35a	0.1970953
230	0xbe4faf4d	-0.20281716
231	0x3e291b29	0.16514267
232	0x3db6fe68	0.08935243
233	0x3deade8d	0.114682294
234	0xbea5c840	-0.3237934
235	0x3e0ac899	0.13553084
236	0xbc27ee14	-0.010249633
237	0x3c8751bd	0.016518468
238	0x3edd38e0	0.43207455
239	0xbd06dd7d	-0.03292607
240	0xbe388a54	-0.18021518
241	0xbe162bd2	-0.14665154
242	0xbe9aa9b3	-0.30207595
243	0xbc31858f	-0.0108350655
244	0x3c4fd0df	0.012684076
245	0xbe226f65	-0.15862806
246	0x3e3b0ff2	0.18267801
247	0x3dd0368c	0.10166654
248	0x3e8d1248	0.2755301
249	0x3ccbe3e1	0.024888935
250	0xbf03a57d	-0.5142439
251	0xbe61b5f0	-0.2204206
252	0xbdb5029e	-0.0883839
253	0xbd6101f3	-0.0549335
254	0xbdb1f063	-0.08688428
255	0xbd7e7ae3	-0.062128913

encoder.4.block.4.bias f4 [40]
0	0xbc0654ba	-0.008198911
1	0x3b0508ff	0.0020299552
2	0xbbaad72c	-0.005213639
3	0xbad9026b	-0.0016556507
4	0xba2023da	-0.0006108858
5	0x396f4355	0.000228179
6	0xbc3ca1be	-0.011513172
7	0xbc1819e5	-0.0092835175
8	0x39d6ec1e	0.00040993182
9	0xb8d63dcd	-0.000102158265
10	0xbb0cdd01	-0.0021494033
11	0xbb818ed3	-0.0039537936
12	0xbb94e65f	-0.004544064
13	0x3aafbf8e	0.0013408528
14	0xbbd8221f	-0.0065958644
15	0xb71b1751	-9.244149e-06
16	0xbbc928eb	-0.006138911
17	0x3a102947	0.0005499315
18	0x3b369ee5	0.0027865705
19	0x3c230a68	0.0099512115
20	0x3bee9e2a	0.007282038
21	0xbba1c02b	-0.0049362383
22	0x3b917363	0.004438804
23	0xba89039f	-0.001045335
24	0xbbba3967	-0.0056831124
25	0xbb88a12b	-0.0041696033
26	0xbb6a81a4	-0.0035782838
27	0x38e32c3a	0.00010832441
28	0xbbaba598	-0.005238246
29	0xbc027df1	-0.007964597
30	0x3ade3b77	0.0016954978
31	0x3bb5044c	0.005524194
32	0xbb22df6e	-0.0024852413
33	0xbb538119	-0.0032272993
34	0xbc04e707	-0.008111722
35	0xbb8a1256	-0.0042136116
36	0xbbc23742	-0.0059269974
37	0xbbcf943e	-0.0063348105
38	0x3afa71f5	0.0019107448
39	0xbaf2a0c4	-0.0018511047

encoder.4.block.5.weight f4 [40]
0	0x3f506418	0.8140273
1	0x3f2ac072	0.666999
2	0x3f3ccbc1	0.73748404
3	0x3f27c9b4	0.6554215
4	0x3f4d5f55	0.8022359
5	0x3f2d4e6f	0.67697805
6	0x3f8104ae	1.0079553
7	0x3f0dba08	0.55361986
8	0x3f4b9ab7	0.7953295
9	0x3f3296a3	0.69761103
10	0x3f62811d	0.8847826
11	0x3f6af6ee	0.91783035
12	0x3f4bc078	0.7959056
13	0x3f2a4d4a	0.66524184
14	0x3f23adc1	0.63937
15	0x3f9ab20d	1.2085587
16	0x3f157015	0.5837415
17	0x3f779373	0.96709365
18	0x3f6e7b27	0.93156666
19	0x3f18f4df	0.59748644
20	0x3f04a7ce	0.5181855
21	0x3f7796a2	0.9671422
22	0x3f625747	0.88414425
23	0x3f37a699	0.7173858
24	0x3f28a112	0.65870774
25	0x3f14248c	0.57868266
26	0x3f6bdb33	0.92131346
27	0x3f64e5e0	0.8941326
28	0x3f41bc00	0.7567749
29	0x3f44e726	0.76915205
30	0x3f5b6801	0.8570557
31	0x3f16723d	0.58768064
32	0x3f0c2ce9	0.5475603
33	0x3f4e9064	0.8068907
34	0x3f69ba8b	0.91300267
35	0x3f574c35	0.8410066
36	0x3f55e1d7	0.8354773
37	0x3f3de329	0.74174744
38	0x3f072c0d	0.5280159
39	0x3f2c8628	0.67392206

encoder.4.block.5.bias f4 [40]
0	0xbeba1ba1	-0.36349204
1	0x3de23ad3	0.11046376
2	0xbe88dacd	-0.26729432
3	0xbdfc1c8d	-0.12310133
4	0x3d1e9c94	0.038723543
5	0xbe1f371c	-0.15548366
6	0xbe84045b	-0.25784573
7	0xbe800c2c	-0.25009286
8	0x3e102dbe	0.1407995
9	0xbe75ae7b	-0.2399234
10	0x3dca3183	0.09872725
11	0xbd9e6b08	-0.07735258
12	0xbe8e537c	-0.2779807
13	0x3c92b034	0.017906286
14	0xbd5aa889	-0.053383384
15	0xbe8e8647	-0.2783682
16	0xbe6b941e	-0.23005721
17	0x3d955afd	0.07292745
18	0x3e2aba76	0.16672692
19	0xbd88d1ee	-0.06680666
20	0xbd3eb731	-0.046561424
21	0x3dc5d446	0.096596286
22	0x3d83aab9	0.06429047
23	0xbd161fd2	-0.03665144
24	0xbe5874a9	-0.21138252
25	0xbe07dfdf	-0.13268994
26	0x3e0028db	0.12515585
27	0x3da7a203	0.08185198
28	0xbe33856b	-0.17531364
29	0xbdccc99f	-0.09999394
30	0xbe35a31d	-0.17738004
31	0xbd20580d	-0.03914647
32	0xbdfe8952	-0.124285355
33	0xbe6331bb	-0.2218694
34	0xbdb5e6eb	-0.08881935
35	0xbe9f6c0f	-0.3113713
36	0xbe8538b3	-0.2601982
37	0xbe173979	-0.14768018
38	0x3d4e70a2	0.050400384
39	0xbe3e9730	-0.18612361

encoder.4.block.5.running_mean f4 [40]
0	0xbde9eeb9	-0.11422486
1	0x3f41143a	0.7542149
2	0xbf21f9e4	-0.6327193
3	0xbdc6cab4	-0.09706631
4	0x3ee1be13	0.44090328
5	0xbe9f6d9a	-0.31138307
6	0xbf4fca34	-0.8116791
7	0xbf43ad5e	-0.7643641
8	0x3da746df	0.081678145
9	0xbe7e2487	-0.24818622
10	0x3ecbff59	0.39843252
11	0x3e2611be	0.16217706
12	0x3e9a1b43	0.30098924
13	0x3f21b318	0.631639
14	0xbe9f7c13	-0.3114935
15	0xbe68e43f	-0.22743319
16	0xbdfa0b0a	-0.12209137
17	0x3eefb206	0.4681551
18	0x3f7e1059	0.99243695
19	0x3ee2c711	0.442925
20	0x3e5dd7d4	0.21664363
21	0x3f14b91e	0.58094966
22	0x3ec92786	0.39287966
23	0x3dbfb000	0.09359741
24	0xbdde8fd6	-0.10867278
25	0xbecf4a71	-0.40486482
26	0x3ec982af	0.39357516
27	0x3f02f14a	0.5114943
28	0xbec95336	-0.39321297
29	0xbeecf207	-0.46278402
30	0xbf0deb06	-0.5543674
31	0x3d7fe0f9	0.06247041
32	0x3c7e6cbd	0.015528855
33	0xbe854718	-0.26030803
34	0xbea17747	-0.31536314
35	0xbf1bf491	-0.60920054
36	0xbe5417bb	-0.20712177
37	0xbe24a6fa	-0.16079322
38	0x3f0fba24	0.56143403
39	0xbe2e59bd	-0.1702642

encoder.4.block.5.running_var f4 [40]
0	0x403c6560	2.9436874
1	0x40888278	4.2659264
2	0x408f7369	4.482838
3	0x40301efb	2.751891
4	0x40060527	2.0940645
5	0x402fbc59	2.7458708
6	0x3fe9b5e8	1.8258638
7	0x40cadb88	6.3392982
8	0x3f99f45a	1.2027695
9	0x3fe04bee	1.7523172
10	0x40472fe4	3.112298
11	0x3fcbda68	1.5926027
12	0x3f0bc5ab	0.5459849
13	0x4085bcea	4.179311
14	0x40d34e01	6.603272
15	0x3eed3515	0.4632956
16	0x3f96c18f	1.1777819
17	0x3fd777a7	1.683339
18	0x406bc486	3.6838698
19	0x3fcb70d5	1.5893809
20	0x3fdd4230	1.7285824
21	0x409276b9	4.5769925
22	0x3f1bbee0	0.6083813
23	0x4058758a	3.382174
24	0x4033bf0d	2.8085358
25	0x3efd5b2e	0.49483627
26	0x40617352	3.5226636
27	0x40d2b408	6.5844765
28	0x4004002c	2.0625105
29	0x3f89669f	1.0734442
30	0x401649dd	2.3482583
31	0x40dbff52	6.874917
32	0x3fb4b8b0	1.4118862
33	0x3f8a6831	1.0813047
34	0x406a171f	3.6576612
35	0x4038d80a	2.888186
36	0x3f88281c	1.063724
37	0x3f677245	0.90408736
38	0x40b2db0a	5.589238
39	0x3fc674cb	1.5504392
