VQ-VAE/models/vqvae/model_88.pt (torch, 579012 bytes, 64 tensors)

encoder.0.weight f4 [40, 1, 4, 4]
000000 47 14 3b 3d a9 d6 3b bc 8a ae 1c bd d8 78 9d bd
       0.045673635 -0.011464753 -0.03825239 -0.07689065
000010 f9 46 19 bd a1 a2 02 be 6b 3a d9 bd 00 20 ab bd
       -0.0374212 -0.1275735 -0.106068455 -0.08355713
000020 1b 13 79 bd 2f 95 20 be de a6 4b be b2 42 57 3d
       -0.060809236 -0.15681909 -0.19887874 0.05255384
000030 88 88 13 bd d0 0d 41 bd b1 25 c2 3d 42 80 3d 3d
       -0.03601888 -0.047132313 0.09479845 0.046264894
000040 36 9f 39 3d 4a 8c 3e 3d 70 78 9c bd a5 88 96 3d
       0.04531785 0.04652051 -0.07640159 0.073502816
000050 c3 50 b9 3d ce 4e 14 3e 3f 05 94 bd b6 18 81 3d
       0.09048607 0.14483187 -0.07227563 0.06303541
000060 bf 67 68 3d d9 a9 b8 3d 34 97 14 be 3f 37 ac ba
       0.056739565 0.09016771 -0.14510804 -0.0013139023
000070 87 b7 48 3d bb 10 b6 3d 3f af d5 bc 04 67 85 3d
       0.04900315 0.0888991 -0.02608454 0.06513789
000080 d0 f7 b2 3d a1 de b6 3d 19 b9 e1 3d e2 17 d5 3d
       0.08738673 0.08929182 0.11021633 0.10404946
000090 95 bc e8 3c 14 aa 5a bb 46 12 5d bb 2f 8e 92 3d
       0.028410235 -0.0033365535 -0.0033732816 0.071560256
0000a0 a4 7d ae 3d 8c 9b 79 3d ae a8 46 3d 95 5e 84 3d
       0.08520058 0.060939357 0.04850071 0.064633526
0000b0 85 51 f0 3c 29 81 32 3d 76 2c 45 3c a0 aa 55 3c
       0.029335747 0.043580208 0.012034526 0.013041168
0000c0 29 57 f9 bb a0 41 72 3d cd b7 cb 3d 52 5d 81 3d
       -0.0076092673 0.059144616 0.099471666 0.063166276
0000d0 6b 48 c0 3d 2c 4d ba 3d 4c f5 29 bd 78 35 96 bd
       0.09388813 0.090967506 -0.0414937 -0.07334417
0000e0 16 2c e6 3d 1b 03 87 bd 30 bd 70 bd 4e 7c 2c 3c
       0.112388775 -0.06592389 -0.058774173 0.010527683
0000f0 4a 59 cb 3d b7 ed 33 3d 29 ce 8b 3d 61 79 04 3d
       0.0992914 0.043927874 0.06826431 0.03234232
000100 33 42 f2 3c 7d 95 59 bc ab 4b b2 3c c5 7e 98 3b
       0.029572582 -0.01328027 0.021764597 0.004653784
000110 2b 30 20 3c 35 c2 13 bd 9b 05 06 3e 5a 26 81 3c
       0.009777109 -0.036073882 0.13088076 0.015765358
000120 53 bf cb bc 5b 54 fb bd bc 9a 50 3d 72 3b b6 3d
       -0.024871504 -0.12271949 0.050928816 0.08898057
000130 d3 35 6a 3d 62 2a 6d bd ae 91 14 3d ba 98 03 3e
       0.057180237 -0.057901748 0.036271743 0.1285123
000140 c0 d6 9c bd ca 63 43 bd 39 63 0a bd bd 5a b0 3c
       -0.07658148 -0.04770259 -0.033786032 0.021527642
000150 73 a8 ff bd 01 29 92 bd e1 8d 1c be ee 88 4e 3d
       -0.12483301 -0.07136727 -0.15288498 0.050423555
000160 f0 9f d4 bd 20 e6 a0 bd 60 27 e9 bd 4e 83 a5 3d
       -0.10382068 -0.07856393 -0.11384463 0.08081685
000170 d2 d3 97 bd be 46 4e bd 97 82 3e 3d 00 ee 57 b9
       -0.074134484 -0.050360434 0.04651126 -0.0002059266
000180 25 11 7d bc ed 88 71 3d d4 6b 22 bd 11 9c b2 bc
       -0.015445982 0.058968473 -0.039653614 -0.021802934
000190 9d c2 bd 3d 91 15 ae 3c e1 82 e2 bd 42 db 8d bd
       0.09265635 0.021250518 -0.110601194 -0.06926586
0001a0 77 26 79 3d 6b ed 23 be 12 71 37 bd 17 0e dc bd
       0.0608277 -0.16008537 -0.044785567 -0.10744875
0001b0 3f 0f 8f 3c 67 45 96 bd 85 84 f4 bc a9 27 32 bc
       0.017463325 -0.07337456 -0.029848346 -0.0108737135
0001c0 b3 41 3d 3c c2 2c 3d bd 46 75 cd bd 46 8b d9 bd
       0.011551308 -0.046185263 -0.10032134 -0.106222674
0001d0 32 f5 87 bd 97 6d 83 bd 11 48 15 be 90 4d e5 3d
       -0.06638564 -0.06417387 -0.14578272 0.111964345
0001e0 7f 42 e7 bd ea 31 1a bd ec e0 ef bd 87 df 04 bd
       -0.1129198 -0.037645258 -0.11712822 -0.032439735
0001f0 f1 3c 6f bc ba f7 9a 3d 5e f2 08 bd 4a 5f f3 bc
       -0.014601932 0.07566781 -0.033434264 -0.029708523
000200 a0 7f 33 bc 6f cc 2a bd 77 0f 87 3c 68 69 d2 3c
       -0.010955721 -0.04169887 0.016486866 0.025685027
000210 d9 af c9 bd 6a d2 b2 3d 2c cf 07 3e 60 9a f3 3c
       -0.098479934 0.087315395 0.13262624 0.029736698
000220 69 dd 31 3d 5f fe f0 3d 89 68 71 bd 76 6a 41 bd
       0.043424044 0.117672674 -0.058937583 -0.04722067
000230 3b e6 c8 3d 00 99 e5 3d 7d 63 a6 bc 70 a4 11 3d
       0.09809538 0.11210823 -0.020311112 0.03555721
000240 84 bf ff 3c bb c7 a5 3d d7 ef 26 3d 76 51 0e 3d
       0.031219251 0.08094736 0.040756073 0.034745656
000250 6f a4 81 bd 5c cf dd bc 9c f8 e8 bd c6 9e 86 bc
       -0.06330191 -0.027076416 -0.113755435 -0.016433131
000260 d4 d7 03 be 90 1a e4 bd 0c b3 03 be aa 81 f8 3c
       -0.128753 -0.11137879 -0.1286127 0.030335266
000270 ef 25 fe 3c fb d8 bb 3d ce 36 a5 3d 4e dd 41 3d
       0.031023948 0.09172245 0.08067094 0.047330193
000280 0d c9 86 3d 13 f4 e9 3c e6 27 9f bd ed 87 86 bd
       0.06581316 0.028558766 -0.07771282 -0.065688945
000290 61 c3 66 3d 9f 46 22 3d 00 49 07 bd 6e 29 c1 bd
       0.05633867 0.03961813 -0.033028603 -0.0943173
0002a0 23 63 4a 3d b0 4f 1f 3d 07 5b 35 bd b4 67 08 be
       0.04941095 0.038894355 -0.044276264 -0.1332081
0002b0 c3 b1 8c 3d 6f 40 53 3d c9 0b 84 bd 78 17 88 bd
       0.06869843 0.05157512 -0.0644756 -0.06645101
0002c0 09 38 a2 bd c2 ba f9 bc a8 14 0b 3d 34 f1 82 bc
       -0.07920844 -0.03048456 0.033955246 -0.015984155
0002d0 2e c1 cc 3b ec 2d 73 bd fe 8c e2 bd 9d 21 c2 bd
       0.0062486148 -0.059369966 -0.110620484 -0.094790675
0002e0 af a3 35 bd e0 5e 00 be 59 63 56 be fc 3c 4a bd
       -0.044345554 -0.12536192 -0.20936336 -0.049374565
0002f0 c6 1d 7c 3c 38 31 83 bd 80 f3 2c 3c 86 ff 78 bd
       0.015387958 -0.06405872 0.010556102 -0.06079056
000300 53 f2 31 3c bd bc b0 3d 82 e2 a9 3d 08 ea 89 3c
       0.010860997 0.08629749 0.08295156 0.016835228
000310 67 f0 e7 3b 17 c2 4c bd 3f e6 8a bd 6a 13 08 be
       0.0070782187 -0.049989786 -0.06782197 -0.13288656
000320 25 ea 7a bd 31 fb 06 be 86 8e 28 be 50 93 15 be
       -0.061258454 -0.1318176 -0.16460618 -0.14606977
000330 de 63 53 bc 54 ef 5e bd ad 4d 99 bc e5 73 ac bd
       -0.012902228 -0.05442746 -0.018713797 -0.08420543
000340 13 cf 5e bd c2 9c 91 bd da 4b dd 3c 56 d4 2c 3d
       -0.0543967 -0.07109977 0.027013708 0.042194687
000350 cb 3f a2 bd ea 54 0e be 87 4c f4 bd 78 fe 9a bc
       -0.07922324 -0.1389958 -0.11928659 -0.018920168
000360 eb a9 3f 3d cf 83 46 3d e1 54 c0 bd 2e fc fb bd
       0.046792906 0.048465546 -0.09391189 -0.12303959
000370 74 9e 22 3d 35 cd b2 3d f5 71 01 3d 3c 9e de bc
       0.039701894 0.087305464 0.03160282 -0.027175061
000380 32 fb 9a 3c 1d 88 7b ba 88 5d 1b bc 3b 9b 48 3d
       0.018918607 -0.00095951726 -0.009482749 0.048976164
000390 1a 6b 2e 3d 37 d7 7a bd c4 99 3e bd 03 3a b8 3c
       0.04258261 -0.0612404 -0.04653336 0.0224886
0003a0 69 91 62 3c 49 d5 81 3d 45 86 40 3e 9c 87 22 3e
       0.013828614 0.06339509 0.1880122 0.15872043
0003b0 8f da 04 3c 75 1b 95 3d 1f 99 d8 3d ce c8 21 3d
       0.008108749 0.07280628 0.105760805 0.039498143
0003c0 c2 74 55 3d 91 f0 8b bd 0a b2 a0 bd d0 09 08 3b
       0.052113302 -0.06832994 -0.07846458 0.0020757802
0003d0 69 66 ae bd 9e 32 51 bd 97 91 81 bd df ba 64 bd
       -0.08515627 -0.051073663 -0.06326597 -0.055842277
0003e0 30 5f 9a bd 68 54 bc bd bb 0a bf bc 36 2b 67 bd
       -0.07537687 -0.09195787 -0.023320546 -0.056437694
0003f0 87 f2 ed 3c 03 8e 36 bd 8a 40 af bd 89 ef 1c 3c
       0.02904631 -0.044569027 -0.08557232 0.009578594

encoder.0.bias f4 [40]
000000 ae e9 94 ba 33 c3 fd ba ef 49 7e bb 41 75 20 bb
       -0.0011361146 -0.0019360542 -0.0038801392 -0.0024483951
000010 bf 7b db bb 70 76 bc b9 d8 0c 57 3b 27 85 53 ba
       -0.0066981013 -0.00035946397 0.0032814052 -0.00080688525
000020 f6 d4 b6 bb 28 7a 8a 3b 06 67 b0 3a b1 3b 39 bb
       -0.005579586 0.004225988 0.0013458438 -0.0028264339
000030 65 2c 47 bb a3 e9 84 ba 89 f3 01 bb 7a 30 03 3b
       -0.0030391451 -0.001014043 -0.0019828996 0.0020017908
000040 78 e8 58 b9 5c c1 27 bb 74 a9 0f ba 29 73 a2 ba
       -0.00020685967 -0.002559743 -0.00054802676 -0.001239394
000050 2b d6 d7 bb ec 57 5f ba 98 4f 16 bb f7 e9 93 bb
       -0.00658681 -0.0008519876 -0.0022935625 -0.004513975
000060 e3 02 13 ba 24 da 69 3b 01 fd a1 ba 2e 7c d0 b9
       -0.0005608035 0.0035683 -0.0012358726 -0.00039765373
000070 b9 ed 51 3b 52 a8 86 ba e2 11 fd 3b 6c fa da ba
       0.0032032563 -0.0010273552 0.007723079 -0.0016706712
000080 b4 7f 18 ba 22 87 f7 bb 7f 7d 9c 3b 0d 1e 5f ba
       -0.0005817369 -0.007553951 0.0047757025 -0.0008511253
000090 aa 43 ad ba b4 74 c2 bb 33 9f 90 bb b8 3e 0f 3a
       -0.0013219018 -0.0059343223 -0.0044135093 0.0005464363

encoder.1.weight f4 [40]
000000 e6 37 2e 3f 6b ff eb 3e 2d 3a 1e 3f 6c c6 d4 3e
       0.68054044 0.46093306 0.6180752 0.41557634
000010 a5 0c 0e 3f 15 4b 53 3f 38 ab 2b 3f 11 1b 33 3f
       0.55488044 0.8253644 0.67058134 0.69963175
000020 a2 b6 08 3f bd 38 19 3f 35 cc 38 3f 0f 42 2f 3f
       0.53403676 0.598522 0.72186595 0.6846017
000030 3f 7e 47 3f 58 a0 32 3f 09 09 f7 3e f7 2a 52 3f
       0.7792701 0.69775915 0.4824908 0.8209681
000040 ff 8c 1e 3f b6 d5 43 3f f3 ef 25 3f fd 2e 42 3f
       0.6193389 0.7649797 0.6481926 0.7585295
000050 ad 42 f0 3e c6 ba 39 3f 93 8c 05 3f bd d6 10 3f
       0.4692587 0.7255062 0.52167624 0.56577665
000060 7b 9b b0 3e af 69 1b 3f b6 15 1c 3f 5f c9 af 3e
       0.34493622 0.60708135 0.6097063 0.3433332
000070 5e c4 23 3f 7e d0 16 3f c2 1c 3c 3f 6e 45 42 3f
       0.6397151 0.58911884 0.7348138 0.7588719
000080 bf bd 3b 3f be bc 27 3f dc ae 4b 3f 63 d4 0a 3f
       0.73336405 0.6552237 0.7956369 0.54230326
000090 42 65 4a 3f 6d cd 6b 3f b5 39 64 3f b2 b5 1d 3f
       0.7906076 0.9211033 0.89150554 0.6160537

encoder.1.bias f4 [40]
000000 af a4 97 bd 66 4f 07 bd 54 f2 d2 bc 8e 89 8a bb
       -0.07404458 -0.033034705 -0.025750317 -0.0042278236
000010 b1 03 75 3d d9 2d 07 be 5d 68 62 be 17 64 65 be
       0.059817974 -0.13201083 -0.22110124 -0.22401462
000020 b6 be 00 3e 98 b4 ac 3c b8 28 30 be af d1 09 be
       0.1257275 0.021082208 -0.17203033 -0.13458894
000030 49 0a 55 be 5b f9 3c be 58 64 3a 3e 8c a9 a7 3c
       -0.20804705 -0.18454497 0.1820234 0.020466588
000040 f0 dc 4e 3c 9a 07 29 be db de 21 be 1e c3 4d be
       0.012625918 -0.16506806 -0.15807669 -0.20093963
000050 c8 86 13 bd 40 50 13 be 79 79 22 3e e8 06 9f bd
       -0.03601721 -0.14386082 0.1586665 -0.07764989
000060 86 41 a8 bb 84 cf 1b be 24 59 0d 3e 94 c5 ac 3d
       -0.005134764 -0.1521588 0.13803536 0.084361225
000070 08 01 0c be 50 56 15 bd f2 b7 35 be 88 a1 70 be
       -0.13672268 -0.036459267 -0.17745951 -0.2349912
000080 74 ac 2b be 3b 9f 3a 3e b1 87 06 be 7a 96 2e be
       -0.16765004 0.18224804 -0.131377 -0.1704959
000090 bf a0 4e be 6d d9 81 be b8 85 8f be f6 2f bd bd
       -0.20178507 -0.25361195 -0.28031707 -0.092376634

encoder.1.running_mean f4 [40]
000000 2f 0b 0b 3f a4 09 a5 be d5 28 11 bf 87 25 af be
       0.5431394 -0.32233918 -0.5670293 -0.3420832
000010 c0 d6 57 be 43 08 04 3f 88 9d a1 3e d5 3f fe 3e
       -0.21078014 0.51575106 0.315655 0.49658075
000020 80 7e 9a be e6 70 fb 3d 21 93 fd 3d e8 ac 1e 3f
       -0.30174637 0.12277393 0.12381578 0.61982584
000030 07 eb 02 3f ae bb 96 3e 5b 7d e9 be 6f 50 fb 3e
       0.51139873 0.29440063 -0.4560345 0.49084803
000040 94 da 7e be 3c 96 1e 3f 52 e5 c0 3e a6 ec ae 3e
       -0.24888068 0.6194799 0.37674958 0.34164923
000050 d0 e3 92 be 4a 89 7c 3e de 99 6d be f3 f4 92 3e
       -0.28689432 0.24661747 -0.23203227 0.28702506
000060 50 fe 80 bd cd 01 10 3e 88 21 7d be 0c 10 c5 bd
       -0.06298506 0.14063187 -0.24719822 -0.09622201
000070 ec 59 1a 3e b6 4a 49 3e 2f 98 82 3e 55 1c 9d 3e
       0.15073365 0.19657406 0.25506732 0.30685678
000080 5b 85 9e 3e 9a 52 7f be 6a 82 c1 3e fa 66 99 be
       0.30961117 -0.24933854 0.3779481 -0.29961377
000090 30 78 11 3f 30 b8 0c 3f 4e 17 40 3f 68 b2 ee 3d
       0.56824017 0.5496855 0.7503556 0.11655122

encoder.1.running_var f4 [40]
000000 b0 d7 2e 3e 88 61 53 3d 4a ef ff 3d f2 df 7c 3d
       0.17074466 0.051606685 0.12496813 0.06173701
000010 3e 3a f9 3c d5 c0 1a 3e 31 a5 9e 3d df cc e7 3d
       0.03042328 0.15112622 0.077463515 0.11318373
000020 c8 11 72 3d c2 3a 15 3d ba 4d 87 3d ac 0d 27 3e
       0.05909899 0.03643299 0.06606622 0.16313809
000030 11 eb 25 3e 44 90 45 3d 00 ba da 3d 29 49 cd 3d
       0.16202952 0.048233286 0.10680008 0.1002372
000040 86 1f 7a 3d 61 9b 43 3e 0a 43 c4 3d 18 9d 97 3d
       0.06106522 0.19102241 0.09583099 0.0740301
000050 88 77 25 3d 55 52 6b 3d 8f d2 f2 3c 50 df 8c 3d
       0.040397197 0.057451565 0.029641418 0.06878531
000060 a7 19 d9 3c 9c 11 8c 3d d3 e4 49 3d c1 f5 18 3d
       0.02650149 0.06839296 0.04929049 0.037343744
000070 36 cf 32 3d eb f2 3a 3d bc bd 79 3d db e1 8b 3d
       0.043654643 0.04564182 0.06097196 0.06830188
000080 7e a6 83 3d c3 d5 48 3d 14 ec 81 3d f5 bb b1 3d
       0.0642824 0.049031984 0.063438565 0.08678428
000090 41 a4 31 3e b7 04 16 3e c1 d2 80 3e 54 b2 a5 3c
       0.17347814 0.14650236 0.25160792 0.020226635

encoder.3.weight f4 [40, 40, 4, 4]
000000 d8 57 a9 ba b1 4f 26 3c 7e 8f 06 bc 7c 8a b1 bc
       -0.0012919856 0.010150836 -0.008212922 -0.02167248
000010 99 b1 67 bd 69 5e df bd 47 65 54 3a 79 c8 2f 3d
       -0.056565855 -0.10906679 0.00081022497 0.042915795
000020 4e a3 6d bc c4 77 19 3c 0f 1f bc 3a c2 c9 51 3d
       -0.014504267 0.009366933 0.0014352518 0.051217802
000030 e7 1d 93 3d 5d c7 41 3d 91 e0 cd 3c 81 e9 d1 bb
       0.07183438 0.04730927 0.025131496 -0.0064060097
000040 f1 3c a2 3b 2a 80 7b 3c d9 9a 02 3d cd f4 c5 3c
       0.0049511124 0.015350381 0.031885955 0.024164582
000050 d8 73 bf bc c5 82 13 bd 55 46 13 3d f2 21 77 3d
       -0.023370668 -0.036013383 0.035955746 0.060335107
000060 93 4c af bb b1 a2 cb bb 89 ec de 3c 07 57 cf 3d
       -0.0053497045 -0.0062144627 0.027212398 0.10124021
000070 71 1b 9d 3b 6c 52 92 bb f4 b4 e0 3c e1 af cb 3c
       0.004794531 -0.004465392 0.027430035 0.024864139
000080 08 6e cf bc 93 a8 bf bc f3 b2 f5 bb 3f 89 a3 b9
       -0.025321022 -0.023395812 -0.007498139 -0.0003119204
000090 46 56 e5 3c 51 de 14 bd 82 22 b9 bd c4 c9 53 3c
       0.02799524 -0.03634483 -0.09039785 0.012926523
0000a0 82 65 1a 3d fd 59 0d bd e3 7a d2 bd 40 d1 1f bd
       0.03769446 -0.034509648 -0.10277345 -0.039017916
0000b0 f7 5b 9c 3d 1c 16 d4 bd bb ae c6 bd 8a be 27 bd
       0.076347284 -0.103557795 -0.09701296 -0.040953197
0000c0 82 5d bd 3c c5 31 72 bc d7 1e 99 bc 0e e0 32 3c
       0.023115877 -0.014782374 -0.018691463 0.010917677
0000d0 6b d3 81 3d 61 7d 83 bd da 3c 90 bc e6 86 8b ba
       0.06339153 -0.064203985 -0.017607141 -0.0010645061
0000e0 14 c1 16 3d 0e 77 12 bd ef ae 00 3d 99 dc 07 3d
       0.036805227 -0.03575807 0.03141683 0.033169363
0000f0 c2 eb 01 3b e8 b3 e2 3c 0e c9 fb 3c 4f 99 9f 3c
       0.001982436 0.027673677 0.030735519 0.019482283
000100 ca ae 70 3d 69 2e f3 3c 0d 6f 9b bd 6d ae 7e ba
       0.05876044 0.029685216 -0.07589541 -0.00097153225
000110 d7 0e 7c 3c 8f f2 12 3e a1 7f ac bd f8 6b 16 bd
       0.0153843975 0.14350341 -0.08422781 -0.03672406
000120 ed f0 d2 bc 7c 3d 37 3e c4 6c 40 3c 98 4f 9f bb
       -0.025749648 0.17894548 0.011744682 -0.0048617832
000130 42 c8 01 bb 80 fc 37 3d 75 dd fb 3b 24 cc 95 bc
       -0.00198032 0.044918537 0.007686312 -0.018285818
000140 13 df 91 bc be 67 83 3b a7 f5 1c bd 96 a8 5a 3d
       -0.017806565 0.0040101698 -0.03832021 0.053383432
000150 53 e1 e0 bd 9d d0 4f bb 05 22 91 3d 46 f4 f8 3c
       -0.10980477 -0.0031710037 0.07086567 0.030389916
000160 cd b3 b4 bd 8e 51 f4 3d 79 f4 1c 3d f3 84 35 bd
       -0.08823357 0.11929618 0.038319085 -0.044316243
000170 ea b1 72 bc 09 33 a5 3c 64 37 a1 3d 42 2e ec 3c
       -0.014812926 0.020165937 0.07871893 0.028830651
000180 76 d8 fc bb e2 6a f4 3a ea c8 11 3d b6 de a4 3c
       -0.007716234 0.0018647576 0.035591997 0.020125728
000190 ab 5a 85 bd 0d 0e a8 bd 98 95 d7 3d 45 2e 13 3d
       -0.06511434 -0.08205805 0.105265796 0.035932798
0001a0 3f 01 0b 3d 56 21 aa 3d e8 30 30 3c 67 b3 7e 39
       0.033936735 0.083071396 0.010753848 0.0002429016
0001b0 70 26 67 bc 23 07 de 3d 15 20 07 bd 65 51 c1 bb
       -0.014108285 0.10841205 -0.03298958 -0.0058995956
0001c0 84 15 82 bc 5a c2 8e 3c 94 16 8e 3d 41 74 76 3c
       -0.0158794 0.017426658 0.069379 0.0150423655
0001d0 87 ad 67 bc 50 b3 08 bc 16 2b 30 3d 8d 0e b9 3d
       -0.014140493 -0.008343533 0.04300984 0.090359785
0001e0 c4 3e 21 3d 96 41 80 3d b7 28 b5 bc 84 59 e0 bc
       0.0393665 0.062625095 -0.02211414 -0.027386434
0001f0 59 a6 05 be af d9 db bb 84 6b f9 3d a1 cb 0e 3d
       -0.13051738 -0.0067092995 0.1217871 0.034862164
000200 9e fb 03 bc 78 a1 8b bd b0 f0 64 bd 63 4c 23 3d
       -0.008055596 -0.06817907 -0.0558936 0.03986777
000210 7b 3d 93 3d de 95 c9 bd 64 8f 6d bd 0f a1 49 3d
       0.07189461 -0.09843038 -0.057998076 0.049225863
000220 12 9b b8 bc 05 5f 3c bd fb 66 10 bd 57 36 94 3c
       -0.02253488 -0.045989055 -0.03525446 0.018092318
000230 a0 9f 5c bc 54 6a 2c 3d 24 35 e8 bc 2c 9a b8 3b
       -0.013465792 0.04209359 -0.028345652 0.005633613
000240 a9 06 47 bc b0 e0 a9 bc 93 82 85 bd ed 3c 9c ba
       -0.012147584 -0.020737022 -0.06519046 -0.0011920013
000250 57 01 b8 3d 29 cb a4 b9 00 4d 80 bd e6 c3 1f bd
       0.089846306 -0.00031431884 -0.062646866 -0.039005183
000260 aa dd 82 3d c4 9a 3c bc da e2 94 bc 38 89 e2 3d
       0.06389935 -0.011511508 -0.018174578 0.11061329
000270 e8 7a bb 3c 58 e0 26 3d c2 0c 54 bc 6f ce 1f bd
       0.022885755 0.040741295 -0.012942495 -0.03901523
000280 06 88 8b 3c 67 f2 58 3c 2f 29 e8 bb a4 56 af 3d
       0.017032634 0.013241387 -0.0070849876 0.08561447
000290 d7 ab 2f bd 07 10 bc 3d af 04 26 3d a1 a6 89 3c
       -0.04288849 0.091827445 0.04053181 0.016803088
0002a0 e7 21 fd bd d7 c1 40 3c 13 51 f2 3d c3 c0 a5 3c
       -0.12359982 0.011764965 0.1183187 0.020233518
0002b0 55 84 4f bb ac f8 58 3c 65 6b 0a bd 5e fc 06 bd
       -0.003166457 0.013242882 -0.033793826 -0.03295552
0002c0 a0 8c 96 bd f2 49 a2 3c 93 b3 86 3d 2f dc 97 3d
       -0.07351041 0.01981065 0.0657722 0.074150436
0002d0 99 d9 62 3d 42 cf 8c bc d4 d2 3e bd d3 05 68 3d
       0.0553833 -0.017188672 -0.04658778 0.05664618
0002e0 76 bd 2c bd 3b e5 c2 bd 9e 50 b8 3d f1 a9 cf 3b
       -0.04217287 -0.095163785 0.089997515 0.0063373973
0002f0 cb 71 17 3d 9e 38 2d bd 93 78 49 3d 43 6b c0 3d
       0.036973756 -0.042290322 0.049187254 0.093954585
000300 dd d5 54 bd 1a 89 7f bc be 16 71 bb b2 e8 0f bd
       -0.05196177 -0.015596652 -0.0036787237 -0.035134025
000310 c1 18 23 3d ea 14 ed bc 73 0b 82 3b c0 ae 07 3d
       0.03981853 -0.028940637 0.00396865 0.03312564
000320 f8 42 ac bd d7 cf 75 3d 99 37 68 bc 85 ad ab 3d
       -0.08411211 0.060012665 -0.014173412 0.083827056
000330 49 49 a1 bc 93 3d 0d bd bf a1 18 3d 54 89 b8 bc
       -0.019688265 -0.03448255 0.037263628 -0.02252642
000340 0f 2e d2 bb c8 ec 50 bd 7d e3 01 3d 8d 52 22 3d
       -0.006414182 -0.051007062 0.03171109 0.039629508
000350 1d ed 12 3e 2f 11 09 3e 6c 3e 11 bd 16 69 90 ba
       0.14348264 0.13385461 -0.03545992 -0.0011017646
000360 fa 0b 6a bd 6b ee 4c bd ed e4 76 3d b8 61 b9 3d
       -0.057140328 -0.05003206 0.060276914 0.090518415
000370 0e 3d 70 bc d1 71 47 bd 99 5a 23 bc 4e a1 e5 3c
       -0.014662994 -0.04869253 -0.009970331 0.028031018
000380 ef ff 69 3d fb 6e 83 bd 52 d0 96 bd a2 2a 53 3d
       0.057128843 -0.06417652 -0.07363953 0.05155433
000390 60 e6 25 3d 74 96 74 bd 2c 24 07 bd 1f af 52 3d
       0.040502906 -0.059713796 -0.03299348 0.05143654
0003a0 11 8d 55 3d 4d 96 15 bd b5 33 b3 bd 87 42 ae 3c
       0.052136485 -0.03652029 -0.08750097 0.021271957
0003b0 e2 87 ae 3d 38 fb be 3c 4f c2 3a bd 13 4e 3e 3d
       0.08522011 0.02331315 -0.045595463 0.046461176
0003c0 24 5d db 3b d9 2c f1 bc b0 f8 2f bc 18 45 e9 3c
       0.006694453 -0.02944033 -0.010740444 0.02847533
0003d0 2a 15 52 bd cf 7d 03 be 5a 73 9b 3c 0a cc 51 3d
       -0.051289715 -0.12840961 0.018975902 0.051219977
0003e0 6b 99 2f 3c b9 b6 16 bd 58 eb 79 bd 5b 0d 21 3d
       0.01071773 -0.03679535 -0.061015457 0.039319377
0003f0 0a 67 23 bd d5 78 bb bc 77 36 f3 3b 93 88 80 3c
       -0.039893188 -0.022884766 0.007422264 0.015690124

encoder.3.bias f4 [40]
000000 10 be 49 3c e0 eb eb 3d a9 2b 89 3d d2 63 85 bc
       0.012313381 0.11519599 0.06697781 -0.01628295
000010 47 7d 0b 3e e8 39 81 3d bf 28 75 3e 00 73 37 3c
       0.13622008 0.06309873 0.23941325 0.011196852
000020 1b 91 ad 3b d6 6a ad 3b 7f 4f 9b 3d 1c ca b2 3d
       0.005296839 0.005292277 0.07583522 0.087299556
000030 63 df 31 3b b8 ac 0d 3d 9d db 8e 3d 39 9a c5 3d
       0.0027141206 0.034588546 0.06975482 0.09648556
000040 1a 60 4b bc fb 7c a2 3b 1d 64 46 3c e0 54 4d bc
       -0.012413049 0.0049587465 0.01210883 -0.012532443
000050 78 1b 97 3b 1f 54 1d 3c 66 bb 25 3e 8a 58 f2 3c
       0.004611429 0.009602576 0.16184768 0.029583234
000060 96 9c 0d bd 99 6d c3 3d 11 a8 75 bc ed 90 2b 3d
       -0.03457316 0.095423885 -0.014993683 0.04188626
000070 b3 ad 14 3e 90 bf 2d 3d dd f1 72 3c 2f 19 b3 bc
       0.14519386 0.042419016 0.0148281725 -0.021862594
000080 36 25 9f bd f1 ff e5 bc ab 8f 14 bd d6 87 9d bd
       -0.07770769 -0.028076144 -0.036269825 -0.07691924
000090 67 7d 59 bd 79 2a 90 bd 3f c6 1f 3d 93 15 41 3c
       -0.05309811 -0.07039351 0.03900742 0.011784929

encoder.4.block.1.weight f4 [40, 40, 3, 3]
000000 96 67 1d bc a8 84 07 bd 4b 93 15 3d 70 51 e4 bb
       -0.009607216 -0.033085495 0.036517423 -0.006967716
000010 f8 cf 26 be 10 65 92 bd 47 bf 62 bc 0d 5b a5 bb
       -0.16290271 -0.071481824 -0.013839549 -0.0050462545
000020 07 3f 96 3d 4d 23 ab bd 3d e8 09 3e cd 90 dc 3d
       0.0733624 -0.083563425 0.13467498 0.10769806
000030 81 e7 21 3d 99 ac 43 be b8 28 df bb 63 14 82 3c
       0.03952742 -0.1910881 -0.006810274 0.015878862
000040 8f 66 32 3d 90 e3 d6 bc 9f eb 72 3b 90 6f e7 bc
       0.04355484 -0.026231557 0.003706671 -0.02825144
000050 be 6d 3f 3d 8f 78 85 3d ea b2 d7 bc a2 7b 50 3d
       0.046735518 0.06517135 -0.02633043 0.050899155
000060 b8 88 42 3d ab f4 47 bc db f0 cc 3b cc 5e d1 bd
       0.047493666 -0.0122043295 0.006254298 -0.10223159
000070 e8 1b 05 bd 1a 23 25 bd e4 aa 34 bd 64 02 7c 3d
       -0.032497317 -0.04031668 -0.044108286 0.061525717
000080 38 0a 1a bd 64 85 db 3d 60 96 95 be ff c3 98 bc
       -0.0376074 0.107188016 -0.2921629 -0.018648146
000090 23 a1 a4 bc ae ce 45 bd a7 a4 1a ba bf 71 5d 3d
       -0.020096367 -0.04829281 -0.0005899169 0.054063555
0000a0 9d 67 23 3e ae 08 22 bc 72 b6 52 3d e0 cd fd bc
       0.15957494 -0.009889765 0.051443525 -0.030981958
0000b0 fe f2 c4 bb 44 37 b7 bb 39 d9 61 bd e9 c7 27 3d
       -0.0060104122 -0.005591305 -0.0551388 0.040962134
0000c0 3d 58 4b 3d 13 1d 33 bc e7 93 38 bc 29 0c e4 3c
       0.049644697 -0.010932225 -0.011265731 0.02783783
0000d0 04 4b 79 bc 3c 6e 29 3c 9c da 35 bd 89 1e 59 3d
       -0.015215639 0.010341223 -0.044397935 0.053007636
0000e0 6a c7 60 3c 7d 1e e9 3c db ec 40 3e cb cf 2b 3c
       0.013719419 0.02845692 0.18840353 0.010486553
0000f0 00 ef 55 bd c7 39 86 3c e0 f9 e6 3b ab 68 73 3c
       -0.05222988 0.016384972 0.0070488304 0.014856498
000100 ed a3 64 bd f2 ce 5f 3d 46 b3 bc bb 5f d9 9f 3d
       -0.055820394 0.054640718 -0.0057586757 0.07805132
000110 e6 e2 a5 bb 1c 73 08 bb 15 0f 16 bd f8 b3 c0 bb
       -0.005062449 -0.0020820564 -0.036635477 -0.005880829
000120 32 00 fc bc 84 ca 36 bc 1f f9 c1 bc 27 f2 08 3d
       -0.030761812 -0.011156682 -0.02367836 0.03343406
000130 05 32 83 3d 0d cf 42 bd 49 72 25 bd d7 1a ac bd
       0.06406025 -0.04756074 -0.040392194 -0.08403557
000140 e4 89 75 bd cc 0d 34 bd cc 26 fd 3d d7 65 99 3d
       -0.059945956 -0.04395847 0.123609155 0.074901275
000150 b7 b3 e4 bd 20 ff 72 3d d4 4b 97 3d 51 c2 df bc
       -0.111670904 0.059325337 0.0738751 -0.027314337
000160 86 ad 57 3d a9 35 21 3d 28 4b 94 3c 3e 52 c1 bc
       0.05265572 0.039357815 0.018102244 -0.023598786
000170 f6 e4 80 bc 03 5d 2e bd 96 f1 0a bd 44 f5 40 bd
       -0.015734177 -0.04256917 -0.0339218 -0.047108904
000180 0b bf fd bc 05 f7 89 bd fb 9b a7 bd 48 4f 2c bd
       -0.030974885 -0.06736568 -0.08184048 -0.042067796
000190 14 80 a3 3d 39 bf 3f bd 57 42 96 3b 5e e0 c5 bc
       0.07983413 -0.046813224 0.004585545 -0.024154838
0001a0 a0 9c 73 3d 10 9e c6 bc 3b b4 0e 3d b2 3f 84 3c
       0.05947554 -0.024245292 0.03483985 0.016143654
0001b0 1b c1 91 3c b5 ed c0 3d b3 47 c9 bc ce 02 db bd
       0.017792275 0.09420339 -0.024570322 -0.10693894
0001c0 e1 bb f7 3d 04 f5 28 b9 f5 81 ea bc 7e f7 35 bc
       0.12096382 -0.00016113004 -0.028626421 -0.01110637
0001d0 b1 97 77 bd 45 a8 a5 3d 62 81 40 bd e9 5d 2d 3d
       -0.0604474 0.080887355 -0.04699839 0.042325888
0001e0 74 8b f0 bd cc 6d 3d be b1 60 f1 3d ec c2 a8 bb
       -0.117453486 -0.18498915 0.117860205 -0.0051501896
0001f0 4b 48 06 3c e7 5f 92 bc cd e6 9d bd f5 82 cc 3d
       0.008195947 -0.017867995 -0.077100374 0.099859156
000200 0d fe d5 bc 19 cb 64 3e 52 c6 9a be a7 50 3c 3d
       -0.026122117 0.223431 -0.3022943 0.045975354
000210 fb f5 86 3d 94 32 d2 bb 93 24 af 3c c8 9f b1 bd
       0.06589886 -0.006414721 0.021379745 -0.08673054
000220 cf 96 a5 3d c6 3b 46 3c f1 06 83 3d ca e4 6b 3c
       0.08085405 0.012099212 0.06397808 0.014397809
000230 8a 41 3c 3c 1e 82 12 bc f0 4c 94 bc 84 0e 0a bd
       0.011490235 -0.008942155 -0.018103093 -0.03370525
000240 21 a5 de bc 05 30 64 bd d0 45 b1 bd 92 5f a3 3d
       -0.027178349 -0.055709857 -0.08655894 0.07977213
000250 09 74 4e bd a1 af 03 3d aa 83 8b bd 85 5f 20 bd
       -0.05040363 0.032149915 -0.06812222 -0.039153595
000260 1f 89 84 3c 8e c1 da 3d dc 31 0d bd 9d 1b 05 be
       0.016178666 0.10681449 -0.034471378 -0.12998815
000270 c8 ba 35 bd aa 01 b8 3d e9 84 d7 3d 78 f1 35 3d
       -0.04436758 0.089846924 0.105233975 0.044419736
000280 8a e0 80 bd 4a 97 0a 3d 88 21 15 3c eb 9c c7 bd
       -0.062928274 0.033835687 0.009102233 -0.097467266
000290 bf e8 4d bd a0 3a 28 ba b8 8c 4d bd 50 f8 17 bd
       -0.050270792 -0.0006417427 -0.050183028 -0.037102044
0002a0 d3 17 87 3c 2d 50 1f bd 85 7b 5f 3b 1b 01 2f bd
       0.016490852 -0.03889482 0.0034100723 -0.042725664
0002b0 8a 8d a7 3b 4e 6c 95 bd 95 c9 de bc 3b c1 32 3c
       0.0051133083 -0.07296048 -0.027195731 0.010910328
0002c0 6a 4c c2 bd 5b 76 24 be 36 be c8 3d d8 a4 bc 3c
       -0.09487231 -0.16060774 0.09801905 0.023027822
0002d0 ea eb 34 bc 36 81 ba 3d d9 4f 11 be 28 6b 99 3d
       -0.011042574 0.09106676 -0.14190616 0.074911416
0002e0 0f 31 8e bd 62 44 81 bd 2d e6 85 be 14 7d 8e 3c
       -0.06942951 -0.06311871 -0.26152173 0.017393626
0002f0 a0 9a 46 bd 22 3a 31 3c f1 d0 19 be e7 dd 4e 3c
       -0.048487306 0.010817083 -0.15021111 0.012626148
000300 f3 dc 8f bd 75 1c 40 3d 27 ea 1c 3e 79 7a 17 bd
       -0.070245646 0.04690214 0.15323697 -0.036982033
000310 c9 eb e7 3c 3a f4 a9 bc ac 82 a6 bc 60 8b d9 3b
       0.028310673 -0.02074634 -0.020325981 0.0066389292
000320 cf dd b7 3b b8 52 a8 bd 44 16 3f 3e 2d a5 1b 3b
       0.0056111584 -0.08218902 0.18660837 0.0023749575
000330 91 6b 13 bd 59 4f f6 bc f2 5f 22 bd 40 b7 ac 3c
       -0.035991255 -0.030067133 -0.03964228 0.021083474
000340 46 18 32 be af 81 19 3b 61 3b 85 bd 4c a1 67 be
       -0.17392072 0.0023423245 -0.06505466 -0.22620124
000350 06 91 ac 3b 7e 85 18 3c c1 39 31 3d 98 76 28 3d
       0.0052663116 0.009309171 0.04326797 0.041128725
000360 bb 82 51 3d 9f 16 dd 3c 4a 0e 51 bd 1c 23 22 be
       0.051150065 0.026988326 -0.051039018 -0.15833706
000370 ec 0a 39 3e 1e 39 a2 3d 3e f0 94 3d 22 d0 c7 3c
       0.18070573 0.079210505 0.07272385 0.024391238
000380 a1 88 f6 bc fa 69 3c 3c fc a3 f4 39 d1 5d a2 bc
       -0.030094447 0.011499876 0.00046661485 -0.019820126
000390 23 97 09 be a0 fe 82 3e c3 e0 8e bd 9c ee a0 3c
       -0.1343656 0.25584888 -0.06976464 0.019645028
0003a0 93 2d 27 3d 90 08 02 3c 87 1c 54 3d 94 df 82 3c
       0.040814947 0.007936612 0.05178502 0.015975751
0003b0 f2 a0 27 bc 89 2d d3 3c a8 9f 2c be 97 a7 32 bd
       -0.010231243 0.025778549 -0.16857779 -0.043616857
0003c0 da 17 a6 3c 3c 94 39 bb 0f 3a db bb 09 c2 19 bc
       0.020275045 -0.0028317114 -0.0066902707 -0.0093846405
0003d0 9c 40 bf 3d 07 b2 ef 3c 26 51 ba bc 66 0f 1c be
       0.09338495 0.029259695 -0.022743773 -0.15240249
0003e0 3d 2f 36 3c 19 24 ab 3d 4f 02 87 bd 63 a6 b3 bb
       0.011119661 0.083564945 -0.06592237 -0.0054824813
0003f0 ee e4 90 bc dd 5c 0f 3d 49 12 25 bc 3d 13 7c bc
       -0.017687287 0.03500067 -0.01007516 -0.015385446

encoder.4.block.1.bias f4 [40]
000000 95 15 48 3b 85 53 a7 bb 35 8c a9 b9 c3 72 50 3a
       0.0030530442 -0.005106392 -0.00032338654 0.0007951671
000010 3a e6 fa b8 b2 78 2c 3b 21 80 a6 3a ae f1 49 38
       -0.00011963812 0.0026317057 0.001270298 4.8147216e-05
000020 ae b4 28 3a ba 8e 79 ba 9b 9e 9c 3b 8f 12 0d 3c
       0.0006435615 -0.0009519864 0.0047796494 0.008610382
000030 64 79 11 b9 a9 e8 10 3b a8 24 af b9 19 b1 8f 3a
       -0.00013873499 0.0022111333 -0.00033405912 0.0010962813
000040 be 1d 1f bb 46 31 a8 ba 49 34 32 3a 91 5b 22 3a
       -0.0024279202 -0.0012832067 0.0006797952 0.0006193454
000050 bf 10 02 b8 70 75 c7 b6 3d 80 e3 ba b7 74 16 bb
       -3.101001e-05 -5.9443337e-06 -0.0017356944 -0.002295775
000060 af 9a 62 3b 17 df 46 ba 25 b7 a9 3a bd 91 a7 3b
       0.0034577062 -0.00075863436 0.0012948258 0.005113809
000070 13 f1 34 b9 4b 23 53 3a d3 c2 06 3b 1c 68 c3 3a
       -0.00017255945 0.00080542703 0.0020562902 0.0014908346
000080 f0 85 b1 3a 7b 98 39 3b 15 f6 0d ba 89 f0 90 3b
       0.0013543945 0.0028319645 -0.0005415392 0.0044232053
000090 06 a6 47 bb 76 06 d3 39 b2 9c 34 ba ea 68 32 3b
       -0.0030463948 0.0004024987 -0.00068898045 0.0027223178

encoder.4.block.2.weight f4 [40]
000000 2d 19 8b 3f 2b 5b 8a 3f 7c 5f 82 3f f3 36 70 3f
       1.0867058 1.0809072 1.018539 0.93833846
000010 ca b4 79 3f c7 e3 73 3f df 5e 69 3f 68 2b 6b 3f
       0.9754149 0.95269436 0.91160387 0.9186311
000020 0d 2e 49 3f aa ab 60 3f 24 39 7b 3f 00 50 8a 3f
       0.7858589 0.8776194 0.98134065 1.0805664
000030 89 e3 7c 3f 39 fa 8d 3f bf 83 94 3f 92 c4 88 3f
       0.9878469 1.1091987 1.1602706 1.0684988
000040 55 67 89 3f 20 55 20 3f e4 3f 6e 3f ba ab 5c 3f
       1.073466 0.6262989 0.9306624 0.86199534
000050 ef b0 78 3f fb db 8b 3f da c5 37 3f 2a 8e 73 3f
       0.9714498 1.0926508 0.7178627 0.951388
000060 34 99 64 3f 37 53 60 3f 63 ca 8b 3f 50 e7 8c 3f
       0.8929627 0.87626976 1.0921139 1.1008091
000070 50 ef 70 3f a5 f3 91 3f 35 78 8b 3f 18 54 8d 3f
       0.9411516 1.140248 1.0896059 1.1041288
000080 b3 bc 8a 3f f2 85 99 3f 28 03 71 3f e2 b9 86 3f
       1.0838836 1.1994002 0.9414544 1.0525477
000090 c3 7f 6a 3f a0 e4 30 3f 63 49 a5 3f 6e 79 59 3f
       0.916012 0.69098854 1.2913021 0.8495091

encoder.4.block.2.bias f4 [40]
000000 90 ee b7 3e 43 43 53 3e 33 b0 4b bd a4 fe 1b 3f
       0.35924196 0.20631127 -0.049728584 0.60935426
000010 e0 77 c1 3e 62 65 d3 3e bc 7c c8 3d ba 51 8f 3d
       0.3778677 0.41288286 0.09789416 0.0699801
000020 50 97 cc 3d b4 21 98 bd ec 02 7e 3d c2 5f c3 3e
       0.09989798 -0.07428303 0.062014505 0.38158995
000030 a5 d3 c7 3e ea f7 ff 3e 2e c4 d9 3e da 0d 94 bd
       0.3902866 0.4999383 0.42532486 -0.072292045
000040 0f 71 32 3d 44 52 22 3e 8c 73 7c 3e 66 bc 76 3e
       0.043564852 0.15851694 0.24653453 0.24095306
000050 cf 14 32 be ee b8 8a bd 8c a8 c7 be ab c4 9d bd
       -0.1739075 -0.06773554 -0.3899578 -0.07703527
000060 e1 f7 8a 3d 26 7c 63 39 38 20 7f 3e c5 94 19 bd
       0.067855604 0.00021694656 0.24914634 -0.037495393
000070 43 d1 8d be 9b aa da bc 4b cf a5 3e a1 1e 41 3e
       -0.27698717 -0.02669268 0.32384714 0.1885934
000080 9c e1 9b 3d 41 54 99 3e 4e 72 07 3e 80 b0 6e 39
       0.07611391 0.29947093 0.13227198 0.000227632
000090 c7 69 ba ba c5 ea e5 bc ba 36 ab be 11 5f 90 3d
       -0.0014222198 -0.028066048 -0.3344019 0.070493825

encoder.4.block.2.running_mean f4 [40]
000000 b2 38 69 3e a0 b2 45 bf 82 f2 33 bf eb 34 0d bf
       0.22775534 -0.77225685 -0.7029191 -0.5515887
000010 1a e0 d8 3a 50 35 0d 3f 3d 38 5c 3e fa 44 9c be
       0.001654628 0.55159473 0.21505828 -0.30521375
000020 c6 81 c9 bd 85 32 71 be 0d 89 d4 3e f1 26 8d 3e
       -0.098392054 -0.23554428 0.4151081 0.27568772
000030 d4 55 09 3d 37 bf c1 3e ea 5d 2d 3e 66 09 2e bf
       0.033529118 0.37841198 0.16930357 -0.6798309
000040 bb 1b 0d bf 46 02 28 bd 15 6d 10 3f ff ba a2 3c
       -0.5512044 -0.041017793 0.56416446 0.019864557
000050 0d 87 c7 3d eb 02 29 bf 94 15 ca be 21 85 82 be
       0.09742556 -0.6602008 -0.39469588 -0.25492194
000060 d3 77 92 3d 27 8f ff be 30 05 22 3f 9a 69 2d 3f
       0.07151761 -0.49913904 0.63289165 0.6773926
000070 96 49 d0 3c f3 fd 53 bf a4 c3 50 3f 7d c9 14 3f
       0.025425714 -0.8280937 0.81548524 0.58119947
000080 21 41 0d bf 58 97 c7 bd 77 88 82 3e 20 e4 01 bf
       -0.55177504 -0.097456634 0.2549474 -0.50738716
000090 75 93 d1 bd a8 f9 55 be f3 20 c2 be 2c 6b 39 39
       -0.10233203 -0.20896018 -0.37915763 0.000176829

encoder.4.block.2.running_var f4 [40]
000000 c8 c4 d3 3e bf 8c 81 3f 01 4a 48 3f eb 8e ea 3e
       0.4136107 1.0121077 0.7823792 0.45812163
000010 77 5d a8 3e 27 2a d9 3e bf 5c 00 3f fe fc 1e 3e
       0.32883808 0.42414972 0.5014152 0.15526196
000020 d7 62 82 3e 66 60 f8 3e 32 1d 0e 3f 08 97 ea 3e
       0.25466034 0.48511046 0.555133 0.45818353
000030 70 aa 9c 3e 9f d6 9f 3e ea d5 2c 3f fe a0 04 3f
       0.30598783 0.3121843 0.67513907 0.51808155
000040 8b 6e c8 3e a7 01 40 3e a4 50 0d 3f 6e 9b 5d 3e
       0.39146838 0.1875063 0.5520117 0.21641323
000050 02 ce ed 3d 30 b6 76 3f e1 3d 97 3d 17 29 f7 3e
       0.116115585 0.96371746 0.07384849 0.48273537
000060 f7 8d c9 3e 0a 6b d8 3e bb 84 0a 3f 77 79 2a 3f
       0.39366123 0.42269164 0.5410878 0.6659159
000070 0a 17 bc 3d 49 9d 68 3f db c4 24 3f e4 d3 81 3f
       0.09184082 0.90865 0.6436288 1.0142789
000080 19 82 3d 3f de 8b c8 3e fe d6 e0 3e 09 08 09 3f
       0.7402664 0.3916921 0.43914026 0.53527886
000090 52 d7 81 3e a4 87 2b 3e 25 67 15 3e e2 12 41 3e
       0.2535959 0.16750962 0.14590128 0.1885486

encoder.4.block.4.weight f4 [40, 40, 1, 1]
000000 be cc 5b 3d 9e be 06 3e 58 5b 88 3e 96 90 16 3e
       0.053662054 0.13158652 0.2663219 0.14703593
000010 ac 30 3f bc b9 46 4b bd 9f ae 77 3c b5 ba 4c 3d
       -0.011669319 -0.049627993 0.0151173165 0.049982745
000020 95 16 dc bc cb 44 b3 3d 72 e0 5f be 61 06 4a be
       -0.026866237 0.087533556 -0.21862963 -0.19728996
000030 0a b7 3c be f5 93 3a be c6 d6 48 be 26 3c 93 bd
       -0.18429199 -0.18220504 -0.1961318 -0.07189207
000040 47 b0 e4 3d 42 9b a0 bb d3 93 be bd a0 36 3b bd
       0.11166435 -0.0049013207 -0.09305539 -0.04570639
000050 b3 b5 11 3e 8a 0e 48 3e bb 9a d4 3c 63 32 60 3e
       0.14229469 0.19536796 0.025952687 0.21894221
000060 0d ed 4b 3e dd e0 6c 3d 87 f5 a2 be 24 50 76 be
       0.19914646 0.057831634 -0.31827947 -0.24054009
000070 43 5d 9b be 75 9f d4 bd 9b ba 0b bf ee 51 c2 3b
       -0.3034459 -0.103819765 -0.5458161 0.005930177
000080 36 f7 74 ba 96 2a 83 be 60 9c 80 3d 5b f3 21 3d
       -0.00093446986 -0.25618428 0.06279826 0.039538722
000090 be 78 64 3d ce c3 83 bd f7 84 ab 3e 20 1a ad 3d
       0.05577921 -0.06433831 0.33499882 0.084522486
0000a0 71 f0 08 3e 5d 52 a6 bd 7c 06 ed 3e 97 59 35 be
       0.13372971 -0.08121178 0.4629401 -0.17709957
0000b0 0e 93 67 3d 9c 08 6f 3d d2 7d 06 3b 54 70 3c 3d
       0.056536727 0.05835782 0.0020521772 0.046005562
0000c0 59 f1 f2 3d da 44 d9 bc a0 41 3a bd bc 02 61 3e
       0.1186244 -0.026522089 -0.04547274 0.219737
0000d0 9b 31 a8 3d 39 b2 2e 3e 02 84 91 3e 1e 8e 4d be
       0.082125865 0.17060174 0.28421026 -0.20073745
0000e0 74 16 ef bd 44 6d f5 3d d6 80 89 bd 6d 52 bf 3c
       -0.116742045 0.119837314 -0.06714027 0.023354733
0000f0 77 d6 bb bd 04 fe 6b be d4 92 77 3c 17 10 91 bd
       -0.09171765 -0.23046118 0.01511069 -0.07083147
000100 f2 75 a7 bc 6a f8 e3 bb 0b a2 25 bc 6d b0 85 3d
       -0.020441983 -0.0069571035 -0.010109435 0.06527791
000110 31 cf 72 bc 51 8f c1 bd 15 e4 e6 3d 6f e7 ca 3d
       -0.014819906 -0.094511636 0.11273972 0.09907424
000120 66 20 23 3d 47 9b be 3e 79 75 1a 3e 13 ab 10 be
       0.03982582 0.37227842 0.15083875 -0.1412776
000130 a8 23 ba bd 2e 42 ea 3d 68 e3 b3 be 2a 46 34 bd
       -0.09088832 0.11438404 -0.35134435 -0.044012226
000140 27 34 13 be 27 b0 39 3e d6 d8 75 3d 5e 8e 7a be
       -0.14375363 0.18133603 0.060021244 -0.24468371
000150 4e a2 43 bd 9a ad 04 be c9 fd ed bd 10 36 ea bd
       -0.047762208 -0.12956849 -0.11620671 -0.11436093
000160 d8 fa 1b 3c 8b 10 ef bd 7e 08 1b 3d f1 b2 7d be
       0.009520255 -0.11673077 0.037849896 -0.24775292
000170 3f 31 3d 3d 1e e6 8a bd 18 a6 22 be a4 bc 85 3c
       0.046189543 -0.067821726 -0.15883672 0.016325302
000180 a5 2f 5b 3d c0 8f 31 3d ba e0 18 be 37 23 37 be
       0.053512234 0.04334998 -0.14929476 -0.17884527
000190 ff 05 9f bd 15 0b d7 3d d9 4c 00 3d 9b 9e aa 3d
       -0.077648155 0.105001606 0.031323288 0.08331033
0001a0 e9 b0 56 be 69 94 33 3d 6b 31 20 be 69 82 b1 3d
       -0.20965923 0.043842707 -0.15643851 0.08667452
0001b0 51 ec 1c be f8 82 3f 3e 51 7b f2 bd 70 a0 a1 be
       -0.15324523 0.18702304 -0.11839927 -0.31567717
0001c0 c9 de fa bd 65 35 8a be 52 4d 53 bc 2e 13 2a 3e
       -0.12249524 -0.26993862 -0.012896853 0.16608879
0001d0 74 1e e5 3c eb 8b ee 3c 7f 61 07 3f 03 16 22 bd
       0.027968623 0.029119452 0.5288314 -0.039571773
0001e0 e1 2e f4 bc 06 e8 91 3e 16 7a 2a 3e 3d e2 27 bd
       -0.02980751 0.28497332 0.16648135 -0.040987242
0001f0 24 28 2b be a2 b8 59 3d 90 20 33 be e0 49 ca be
       -0.16714531 0.053154595 -0.1749289 -0.39509487
000200 33 07 00 bf 1f 9c 81 bd 8d 10 ce 3d 40 27 a1 be
       -0.50010985 -0.06328606 0.100617506 -0.31475258
000210 0e 81 78 bd c8 d8 f9 bd c8 6e 92 bd 39 ce 6c be
       -0.06066995 -0.12199551 -0.07150036 -0.23125543
000220 c4 1a 84 bc ad 05 83 3d fb de 66 be b6 87 f8 3d
       -0.016126044 0.06397567 -0.22545998 0.1213526
000230 5d c2 65 3e 25 a6 3f 3e 48 a7 ed 3b be 39 1f 3e
       0.22437425 0.18715723 0.0072526075 0.1554937
000240 8b 8b 5e be 85 9e 93 bb d1 d4 a3 bd 90 64 b2 3a
       -0.21732919 -0.004504981 -0.07999576 0.0013610292
000250 83 d9 37 3e 27 88 c0 bb ca f4 7d bd cc a6 47 3d
       0.17954068 -0.0058756056 -0.062001027 0.048743054
000260 77 e0 e5 3d 92 f4 dc bd 98 b3 e0 bd 3b 57 5a 3e
       0.11224454 -0.107888356 -0.10971755 0.21322338
000270 23 7e cf 3d 02 92 75 bd 1f bb b1 3e a9 85 24 bd
       0.101314805 -0.059953697 0.34713075 -0.04016653
000280 17 f4 c5 bd 1f f3 47 be b6 f1 51 bd ae 28 80 bc
       -0.09665697 -0.19526337 -0.051255904 -0.015644398
000290 65 98 f4 bc 6b 4f 8c be bc 90 85 3e b0 ad 48 be
       -0.029857824 -0.2740434 0.26086986 -0.19597507
0002a0 4f 98 c0 bd 70 b9 82 3d 51 a2 ac 3c b8 ea e8 3d
       -0.094040506 0.06383026 0.021073492 0.11372894
0002b0 3a 67 86 3e be 3c b8 3e 7a 25 27 3e 01 d9 af bc
       0.2625063 0.35983843 0.1632289 -0.02146578
0002c0 88 14 d6 bd f9 ce 3a 3d fc b0 b4 3d b1 48 24 3e
       -0.10453135 0.04560754 0.088228196 0.16043355
0002d0 2e aa 38 3e 15 aa f7 3c 73 9f 89 be 82 dc a9 3d
       0.18033668 0.030232469 -0.26879463 0.08294012
0002e0 9d 5c cc bc d2 fa 6e be 77 e5 07 be b1 93 15 3e
       -0.024946505 -0.23337868 -0.13271128 0.14607121
0002f0 a1 0e f1 3d 3d d8 f6 bd 22 dc 24 3e 4e 33 63 be
       0.11770368 -0.12052963 0.16099599 -0.2218754
000300 c9 1b 13 be aa 42 01 3e 0d 75 37 3e 26 07 2b bd
       -0.14366068 0.12623087 0.17915745 -0.041754864
000310 12 4d e3 bd 5a 47 20 be 43 3b 49 be 1b e3 eb 3d
       -0.11098684 -0.15652218 -0.19651513 0.11517926
000320 d4 a2 7a 3d a7 4e 7c bd 09 56 2e 3d 45 88 07 bd
       0.06119044 -0.061598446 0.04256252 -0.03308894
000330 30 28 99 bd 5f d5 d8 be 4e 78 92 be e9 bf 8b 3d
       -0.07478368 -0.4235029 -0.2860741 0.06823713
000340 af 71 11 be b2 d9 32 bd 41 1b b1 3d d0 3a 34 be
       -0.14203523 -0.04366464 0.086477764 -0.1760056
000350 63 7b c3 be bb 75 e3 b7 c9 29 2e 3d e4 f3 0b 3c
       -0.38180074 -2.7115331e-05 0.04252032 0.008542035
000360 fc 08 b2 bd 68 c2 eb 3d 65 2d 99 bd 77 6a 8c be
       -0.0869312 0.115116894 -0.074793614 -0.27424976
000370 84 42 7a bc 04 c5 1a bc ec 67 19 3e fe 06 fb 3c
       -0.015274648 -0.009446386 0.1498105 0.030642983
000380 8a e7 09 bc fc 48 f6 3d 0a f8 c9 3d 0c df 3d 3e
       -0.00841702 0.120256394 0.09861763 0.18542117
000390 6c 5d 1a be 61 61 69 3b 89 44 25 be a8 8c c1 3e
       -0.150747 0.003561102 -0.16139425 0.37802625
0003a0 81 33 f4 3d 07 8e 79 3e 7c b3 4b be 0f 72 1c 3d
       0.11923886 0.24370585 -0.19892687 0.038194712
0003b0 4f 40 b4 3d 78 45 9a bc 2e 39 9b 3e 9a 72 06 be
       0.088013284 -0.018831953 0.30317062 -0.13129655
0003c0 a5 c6 29 be bf db 09 be b1 1a 8f be db ab a8 3c
       -0.16579683 -0.13462733 -0.2795005 0.02058976
0003d0 c6 06 0d 3d e1 2c 49 be 12 50 26 3e 83 ff 60 3d
       0.034430288 -0.19646026 0.16241482 0.054931175
0003e0 4a a9 74 3e c6 a8 28 3d ea 79 0d bf 97 5a 5a be
       0.23892704 0.04117658 -0.5526415 -0.2132362
0003f0 16 65 39 be ce b5 8e bd 21 6e c4 bd 38 ee 62 bd
       -0.18104967 -0.0696827 -0.09591318 -0.055402964

encoder.4.block.4.bias f4 [40]
000000 9c 97 07 bc 6b a7 07 3b 3c 7c a9 bb 09 b7 e1 ba
       -0.008275893 0.0020699154 -0.0051722806 -0.0017220686
000010 01 36 2b ba 74 2a ba 39 f2 22 40 bc 37 50 18 bc
       -0.00065311795 0.00035508315 -0.011727082 -0.009296468
000020 fe 5a a6 39 e5 a1 20 b9 8b 9c 13 bb 81 0e 87 bb
       0.00031729782 -0.000153191 -0.0022523727 -0.004121602
000030 fb 42 94 bb a4 7b a7 3a 48 fa d7 bb bc a3 f2 39
       -0.0045245863 0.0012777937 -0.006591115 0.00046279829
000040 11 36 ca bb 69 4e cd 39 ea 4d 32 3b 97 c0 22 3c
       -0.006170996 0.00039159067 0.0027207085 0.009933612
000050 a0 9c ee 3b 04 02 a0 bb 3a 2c 7b 3b 63 3c 89 ba
       0.0072818547 -0.004883053 0.0038325922 -0.0010470267
000060 21 87 bb bb 7d 0e 8b bb b6 09 65 bb 15 ce de 38
       -0.0057228957 -0.0042436705 -0.0034948415 0.00010624171
000070 7e 2b ac bb 2f 84 fc bb af d1 db 3a 2e ce b4 3b
       -0.005254208 -0.007706187 0.0016770865 0.0055177426
000080 44 fc 2b bb b3 e8 49 bb b7 ef 02 bc d4 78 88 bb
       -0.0026242891 -0.0030808866 -0.007991723 -0.0041647945
000090 c9 f9 c2 bb 79 16 d5 bb ec 8a f9 3a dc c8 06 bb
       -0.005950187 -0.006502923 0.0019038594 -0.00205665

encoder.4.block.5.weight f4 [40]
000000 a7 c0 3b 3f 8d 56 13 3f 07 4e 3a 3f 85 7c 0f 3f
       0.7334084 0.5755394 0.7277531 0.56049377
000010 8a ad 4c 3f a7 59 13 3f 2f d8 73 3f c3 12 06 3f
       0.799523 0.57558674 0.95251745 0.5237238
000020 e9 c8 40 3f 80 4b 1e 3f 58 38 5e 3f a1 c7 54 3f
       0.75306565 0.61833954 0.86804724 0.8311711
000030 1c 95 38 3f 35 65 2c 3f dc 4a 0f 3f c9 a1 aa 3f
       0.7210252 0.6734193 0.559736 1.3330623
000040 89 13 08 3f 0d 5e 67 3f 65 58 71 3f d6 5c 00 3f
       0.5315481 0.90377885 0.94275504 0.50141656
000050 7b 31 b3 3e c8 99 6c 3f 76 19 79 3f c6 e8 2e 3f
       0.34998688 0.9242215 0.97304475 0.68323934
000060 9b 47 13 3f 99 b0 03 3f b7 9a 5f 3f 61 95 73 3f
       0.57531136 0.5144134 0.8734545 0.9514981
000070 53 3c 26 3f 82 bb 2d 3f cf 0d 51 3f 1b 3f fb 3e
       0.649358 0.6786424 0.81661695 0.49071583
000080 f4 13 08 3f 55 f3 3f 3f 7b d8 5c 3f 51 91 4e 3f
       0.53155446 0.7498067 0.86267823 0.80690485
000090 f9 3a 55 3f 0c 72 21 3f ad 56 fe 3e 3e 01 14 3f
       0.8329311 0.63064647 0.49675503 0.57814395

encoder.4.block.5.bias f4 [40]
000000 87 1e e9 be 6b 5e b6 3c 2a 6b 95 be 2a 1e 66 be
       -0.45531103 0.022261819 -0.29183322 -0.22472444
000010 28 09 3a 3d c8 65 6f be 6a ea 66 be 24 5a 9d be
       0.04541889 -0.2337867 -0.2255036 -0.30732834
000020 13 6c 07 3e fc 79 a6 be 46 7d 85 3d 6a 07 43 be
       0.13224821 -0.32514942 0.06518035 -0.19045797
000030 92 2a c4 be 25 20 bb bc 97 ef e3 bd 1f 69 7d be
       -0.3831373 -0.022842476 -0.111296825 -0.24747132
000040 20 5d 8f be 29 e4 8f b7 5d ab 23 3e 64 8c 08 be
       -0.28000736 -1.7153174e-05 0.15983339 -0.13334805
000050 40 bc 33 be bd ed 24 3d 45 66 29 3d 1d 65 13 be
       -0.1755228 0.040265787 0.041357297 -0.1439404
000060 aa 89 a4 be d9 4b a5 bd ab 1c 71 3d 60 88 ba 3d
       -0.3213628 -0.080711074 0.05886523 0.09108043
000070 1d bc 09 be 96 9a de bd f5 ca 88 be 1f 62 12 be
       -0.13450666 -0.10869329 -0.26717344 -0.14295243
000080 71 53 19 be 4b 47 87 be a9 08 c7 bd ae 6c 96 be
       -0.14973237 -0.2642158 -0.09718449 -0.2937979
000090 09 1f 92 be 12 3e 95 bc f7 d9 97 bd 81 96 40 be
       -0.28539303 -0.018218074 -0.0741462 -0.18807413

encoder.4.block.5.running_mean f4 [40]
000000 20 0a 15 bf a2 1a fe 3e f0 75 64 bf 31 2a ca be
       -0.58218575 0.49629694 -0.8924246 -0.39485314
000010 78 ad 88 3d de a1 a9 be 32 86 64 bf 53 90 96 be
       0.066737115 -0.33131307 -0.89267266 -0.29406986
000020 00 f6 d1 ba 3a e4 1b bf a7 72 14 3f 86 de 42 3e
       -0.0016018748 -0.6089512 0.57987446 0.19030198
000030 24 28 28 3e 77 4b 33 3f 6d 8e 44 bf c6 40 3a be
       0.16421562 0.70037025 -0.76779824 -0.18188772
000040 ba 4a 51 be 9b c2 b0 3e d1 59 74 3f 6f aa 13 3f
       -0.20438662 0.34523472 0.9544955 0.57681936
000050 60 c9 4b be 1c 36 ee 3e 1e b8 b7 3e be 01 10 be
       -0.19901037 0.46525657 0.35882658 -0.14063165
000060 4b dc 69 bc 8a c3 df be 61 ad 07 3f 56 70 04 3f
       -0.014273713 -0.43703872 0.5299893 0.5173391
000070 ca 2f b0 be 00 88 3d bf c2 7e 60 bf 58 36 10 be
       -0.3441146 -0.74035645 -0.8769342 -0.1408323
000080 ec 43 12 3b 6e 01 f6 be 83 30 c0 be f6 41 00 bf
       0.0022318317 -0.48047966 -0.37537012 -0.5010065
000090 54 b2 13 bf 3e 05 af be a1 c6 89 3d 65 06 cc be
       -0.5769398 -0.34183687 0.067273386 -0.3984863

encoder.4.block.5.running_var f4 [40]
000000 8a e4 aa 40 11 a1 5f 40 a6 62 6f 40 75 4e 83 40
       5.340398 3.4942057 3.740396 4.1033273
000010 4a 55 bb 3f a3 0c 1a 3f 96 12 10 40 5b 77 c5 40
       1.4635403 0.6017553 2.2511344 6.1708198
000020 98 90 94 3f d9 db ce 3f 94 8c 32 40 75 b1 db 3f
       1.1606627 1.6160842 2.7898302 1.716353
000030 fe ae 1b 3f f3 07 33 40 d1 7c 9e 40 8d 09 23 3f
       0.6081389 2.7973602 4.9527364 0.6368645
000040 2e 38 6b 3f c8 b3 ee 3f 14 ab 63 40 fc df 75 3f
       0.918826 1.8648615 3.5573168 0.960449
000050 1c b2 eb 3f 97 9b a4 40 7a de 40 3f 15 a9 7b 40
       1.841373 5.143993 0.7533947 3.932195
000060 d6 45 93 40 fe 8a dd 3e b8 31 51 40 44 77 de 40
       4.602275 0.43270105 3.2686596 6.952059
000070 9b f6 b6 3f 6a 8f 83 3f bb 13 89 40 c5 07 c7 40
       1.4294008 1.0278141 4.2836585 6.2196984
000080 7d 25 c1 3f b0 67 b5 3f 35 b5 9b 40 5c 34 e8 3f
       1.5089566 1.4172268 4.86587 1.8140979
000090 25 8a b0 3f 66 22 72 3f 1c 47 44 40 e0 e0 b0 3f
       1.3792158 0.9458374 3.0668402 1.3818626
