VQ-VAE/models/vqvae/model_10.pt (torch, 579012 bytes, 64 tensors)

encoder.0.weight f4 [40, 1, 4, 4]
0	0x3d913539	0.070902295
1	0x3d3b47b5	0.045722682
2	0xbdc1fd5f	-0.09472155
3	0x3c326496	0.010888239
4	0xbdca904a	-0.09890802
5	0xbb495bdd	-0.003072492
6	0x3bf2d075	0.007410104
7	0xbd8a0d69	-0.06740839
8	0xbdbac80d	-0.09120188
9	0x3ca315b9	0.01990782
10	0xbddfcc76	-0.1092767
11	0x3d3ea6ee	0.046545915
12	0x3c3a7049	0.01137931
13	0xbd735131	-0.059403602
14	0x3c0474f5	0.008084525
15	0x3d3584ba	0.04431603
16	0x3d36e4b1	0.04465169
17	0x3d3c1a82	0.045923717
18	0xbd763114	-0.0601054
19	0x3d619899	0.05507717
20	0x3e05cd9b	0.13066714
21	0x3dd52c64	0.104088575
22	0x3ca4ee38	0.020133123
23	0x3d189238	0.03724882
24	0x3dba699a	0.09102173
25	0x3db085ec	0.086192936
26	0xbd8a1188	-0.06741625
27	0xbd877740	-0.06614542
28	0x3d02f3dc	0.031970844
29	0x3ceb40ba	0.028717387
30	0xbbd36b32	-0.0064519877
31	0x3dbca703	0.092115425
32	0x3d9dff9c	0.07714769
33	0x3d93f270	0.07223976
34	0x3d2bf1cb	0.04197864
35	0x3d5ed3b8	0.05440113
36	0x3d0ff379	0.035144303
37	0x3d208320	0.03918755
38	0xbd1d0929	-0.038338814
39	0x3d9fe21d	0.078067996
40	0x3d9e063f	0.07716035
41	0x3db3a38e	0.0877143
42	0xbc877b17	-0.016538186
43	0x3d810b3d	0.06300972
44	0x3d38e34c	0.045138642
45	0x3cc13a7c	0.023587458
46	0x3c823d9f	0.015898524
47	0x3ae1ae90	0.0017218161
48	0xbb12977a	-0.002236812
49	0x3d78cf91	0.060744826
50	0x3d80719a	0.06271668
51	0x3d3a69ff	0.045511242
52	0x3d9d24ed	0.07673059
53	0x3d21335a	0.039355613
54	0xbc22b258	-0.009930216
55	0xbd9af128	-0.07565528
56	0x3ddf685c	0.10908577
57	0xbd46ab7b	-0.04850338
58	0x3c8e72d8	0.017388746
59	0xbd8ccd9a	-0.06875153
60	0x3d61d056	0.055130325
61	0x3d866412	0.06562056
62	0x3c685e67	0.0141826635
63	0x3d33a1df	0.043855544
64	0x3ce3deea	0.027816255
65	0xbc3154a0	-0.010823399
66	0xbc77df9a	-0.015128994
67	0x3d817568	0.063212216
68	0x3ca07586	0.01958729
69	0xbc733386	-0.014843827
70	0x3db7e0d2	0.08978428
71	0xbd320a05	-0.043466587
72	0xbd7f7c6d	-0.06237452
73	0x3c3d9bbf	0.011572777
74	0x3cdbdccb	0.02683868
75	0x3d2d28ee	0.04227536
76	0x3d8b6e3d	0.06808136
77	0xbd920f00	-0.07131767
78	0x3d36e9d1	0.04465658
79	0x3df97a55	0.12181536
80	0xbd99c099	-0.07507438
81	0x3d5ba64d	0.053625394
82	0xbd79670c	-0.06088929
83	0xbd3e43e9	-0.046451483
84	0xbde08048	-0.10961968
85	0xbdb20ae9	-0.08693487
86	0xbd815123	-0.06314304
87	0x3d80f885	0.06297401
88	0xbd2eba42	-0.042658098
89	0xbd76517e	-0.06013631
90	0xbd8ef11e	-0.06979583
91	0x3d9a3790	0.07530129
92	0xbd6b1e7a	-0.05740211
93	0xbd543342	-0.051806696
94	0x3d416cf3	0.047223043
95	0xbcb12d5c	-0.021628074
96	0x3ba196ba	0.004931298
97	0x3d926f91	0.07150186
98	0xbd0c83e4	-0.03430547
99	0x3c03fe2b	0.008056204
100	0x3d3d2de9	0.04618636
101	0xbcc0b6f5	-0.02352474
102	0xbd2b8cec	-0.04188244
103	0xbcca0a7f	-0.024663208
104	0x3da387df	0.079849
105	0xbce674fa	-0.02813195
106	0xbd2e6f94	-0.042586878
107	0x3cc0f63f	0.02355492
108	0xbdbf7a55	-0.09349505
109	0xbce13d0c	-0.02749493
110	0x3a71167f	0.00091967726
111	0xbd931357	-0.07181423
112	0xbc006f9c	-0.00783911
113	0x3cbb2caa	0.022848446
114	0xbdded371	-0.10880173
115	0xbd7320b8	-0.059357375
116	0xbd0a7333	-0.03380127
117	0x3d0912d5	0.033465225
118	0xbd75adb9	-0.059980128
119	0x3d6c28e8	0.0576562
120	0xbdb8d814	-0.09025589
121	0xbd66d8d8	-0.056359142
122	0x3d86ed27	0.06588202
123	0xbd309064	-0.04310645
124	0xbab56c9e	-0.0013841575
125	0x3d93691c	0.071977824
126	0xbdc461f5	-0.09588996
127	0x3c9b4798	0.018955037
128	0xbd58d908	-0.052941352
129	0xbc430eb1	-0.011905358
130	0xbd6056c5	-0.05477025
131	0x3c3c30c3	0.011486235
132	0xbd08801a	-0.033325292
133	0x3cfb901f	0.03070837
134	0x3da5eb9d	0.0810158
135	0x3ca75534	0.02042637
136	0x3d71d3fc	0.059040055
137	0x3db3d019	0.08779926
138	0xbd8a3242	-0.06747867
139	0x3bb89a3f	0.005633622
140	0x3de92cd9	0.11385507
141	0x3d966ed8	0.073453605
142	0x3c3b5ccd	0.0114357
143	0x3d4b5122	0.04963792
144	0x3d063383	0.03276397
145	0xbd1de3a9	-0.03854719
146	0x3d0c535b	0.03425918
147	0x3c6cb283	0.014446857
148	0xbd2302c9	-0.039797578
149	0xbdea5947	-0.114428096
150	0xbdaf0be1	-0.085471876
151	0x3d36106e	0.044449262
152	0xbda8ee43	-0.0824857
153	0xbcd9e46b	-0.026598176
154	0x3c00ce31	0.00786166
155	0xbd0c9005	-0.034317035
156	0xbda348b8	-0.079728544
157	0x3da0c588	0.07850176
158	0xbce6ad04	-0.028158672
159	0x3dbf88a5	0.09352235
160	0x3d4091c8	0.047014028
161	0xbbf3c2b3	-0.0074389814
162	0xbcd039fb	-0.025418272
163	0xbcbed8d9	-0.02329676
164	0x3d9822f4	0.07428542
165	0xbc61ee8f	-0.013789787
166	0xbcfb8dd0	-0.03070727
167	0xbd78eee6	-0.060774706
168	0x3d8cdcd0	0.06878054
169	0x3d27b54a	0.040944375
170	0x3cd064be	0.025438663
171	0xbda32f5c	-0.079680175
172	0x3d6f8834	0.058479503
173	0x3d84da87	0.06486993
174	0xbd06bc95	-0.03289469
175	0xbda51940	-0.08061457
176	0xbd9ae591	-0.075633176
177	0x3ca14130	0.019684404
178	0x3c9c71ef	0.019097297
179	0x3bfaa240	0.0076487362
180	0x3caf0db0	0.021368831
181	0x3b86d1b8	0.004114356
182	0xbc60a947	-0.013712234
183	0xbdb9463f	-0.090466015
184	0xbd2f4296	-0.04278811
185	0xbda815fa	-0.08207317
186	0xbd82ffcc	-0.06396446
187	0xbde8ee91	-0.11373628
188	0xbd036217	-0.032075968
189	0xbcfb3bf3	-0.030668234
190	0x3d53738d	0.05162387
191	0xbd68957b	-0.05678318
192	0x3a77b421	0.00094491435
193	0x3d42e24a	0.047579087
194	0x3d3e255c	0.046422347
195	0xbd20cbb2	-0.03925676
196	0x3d3d1fd1	0.04617292
197	0xbd93fbe6	-0.0722578
198	0x3c9d3371	0.019189568
199	0xbd2030b8	-0.03910896
200	0xbd26cf72	-0.04072518
201	0xbda10898	-0.07862967
202	0xbcf6e490	-0.030138284
203	0xbda44d0f	-0.0802251
204	0xbdc8fe35	-0.09814111
205	0x3d1eb2a6	0.03874459
206	0xbdd3d6a4	-0.10343674
207	0xbd673747	-0.0564492
208	0xbdd41768	-0.10356027
209	0xbdbec431	-0.09314764
210	0xbd1a7695	-0.037710745
211	0x3bf4f6cf	0.007475711
212	0xbd360e2c	-0.04444711
213	0x3a06cecf	0.0005142511
214	0x3d166810	0.036720335
215	0xbdcffa5f	-0.10155176
216	0x3d5200d9	0.05127034
217	0xbd9c01f9	-0.07617564
218	0xbd2c8a57	-0.04212412
219	0x3cdba8e3	0.02681393
220	0x3d53ecc2	0.05173946
221	0x3d13a1be	0.03604292
222	0xbab9ab27	-0.0014165387
223	0xbc5de268	-0.013542749
224	0x3b396db2	0.0028294143
225	0x3d02215f	0.031770106
226	0xbd7b8fc8	-0.061416417
227	0x3c8696cc	0.016429327
228	0xbba29aad	-0.0049622864
229	0xbd016941	-0.03159452
230	0x3d85eada	0.06538935
231	0x3ca925d3	0.020647919
232	0x3cfb861c	0.030703597
233	0x3d619436	0.055072986
234	0x3dcfb388	0.10141665
235	0x3d8a8f1f	0.067655794
236	0x3d617207	0.055040386
237	0x3d87ea5b	0.06636497
238	0x3dedfa67	0.11620026
239	0x3d38f00e	0.04515081
240	0xbaf49ee6	-0.0018663078
241	0xbdcbdad1	-0.09953845
242	0x3d856146	0.06512694
243	0xbd3a45e6	-0.045476817
244	0x3c5ba90d	0.013407004
245	0xba21f51d	-0.00061781873
246	0xbd1e8b98	-0.038707346
247	0xbc836db6	-0.016043525
248	0xbd8587e7	-0.06520062
249	0xbc61024f	-0.013733461
250	0xbcc82134	-0.024429895
251	0xbd48628a	-0.0489221
252	0x3c5d4cfb	0.013507123
253	0xbce925de	-0.02846044
254	0xbd7c80d7	-0.06164631
255	0x39c797ad	0.00038069245

encoder.0.bias f4 [40]
0	0xbb3bded1	-0.0028666744
1	0xbae5b02f	-0.001752382
2	0xba4bf2f4	-0.0007780038
3	0xbb03bf33	-0.0020102977
4	0xbb0d8e70	-0.0021599792
5	0x3a7ddc5b	0.00096840196
6	0x3a57a40d	0.00082260446
7	0xb91c4bda	-0.00014905576
8	0xbaaa7399	-0.0013004421
9	0x3b1107d7	0.0022129917
10	0x39b432cd	0.00034370125
11	0xba163ba3	-0.00057309325
12	0xbaa6c985	-0.0012724852
13	0xbaa480f7	-0.0012550642
14	0x39da89b2	0.0004168279
15	0x3b0bf9ea	0.0021358677
16	0xba69ea54	-0.0008923162
17	0xbafbdf82	-0.0019216391
18	0x39d94496	0.00041440566
19	0xb958b240	-0.00020665769
20	0xbb9ec573	-0.004845315
21	0x39b0ba12	0.0003370797
22	0xbaf863a9	-0.00189506
23	0xbb354aa0	-0.0027662888
24	0x3a83da28	0.0010059522
25	0xb9aa0fb6	-0.00032436632
26	0x3b09c30a	0.0021020793
27	0x39f57a4a	0.00046821154
28	0xbaa4c66f	-0.0012571345
29	0x3a51e775	0.0008007207
30	0x3aae6e74	0.0013308064
31	0x3b24ef15	0.0025166918
32	0x39d39987	0.00040359443
33	0xbaf3f3b6	-0.001861206
34	0x3ab39805	0.0013701922
35	0x392f144d	0.00016696863
36	0xbabe6fe2	-0.0014529193
37	0xbaba5e2e	-0.0014218742
38	0xba901275	-0.0010991829
39	0xba91eb97	-0.0011132833

encoder.1.weight f4 [40]
0	0x3f7295cf	0.9475984
1	0x3f6f793f	0.9354438
2	0x3f76a4fc	0.96345496
3	0x3f6fefbf	0.937252
4	0x3f69cd3f	0.91328806
5	0x3f7b4ddf	0.98165697
6	0x3f6ee29a	0.93314517
7	0x3f6b6fd0	0.9196749
8	0x3f787359	0.97051007
9	0x3f75670e	0.95860374
10	0x3f745d8a	0.9545523
11	0x3f745bd3	0.9545261
12	0x3f7b5eb1	0.9819136
13	0x3f7608ab	0.96106976
14	0x3f79db9f	0.9760074
15	0x3f7cf238	0.98807096
16	0x3f76ddef	0.96432394
17	0x3f778a5e	0.96695507
18	0x3f738fb7	0.95141166
19	0x3f7ae05a	0.97998583
20	0x3f6fe776	0.93712556
21	0x3f7315eb	0.9495532
22	0x3f67b45b	0.90509576
23	0x3f718546	0.94343984
24	0x3f671f1e	0.90281856
25	0x3f702d49	0.938191
26	0x3f71d2ba	0.9446217
27	0x3f707c7e	0.9393996
28	0x3f6d702d	0.9274929
29	0x3f7a9367	0.9788117
30	0x3f797290	0.97440434
31	0x3f72c641	0.9483376
32	0x3f7cd3f1	0.98760897
33	0x3f76c671	0.9639655
34	0x3f754e24	0.9582236
35	0x3f70cd42	0.940632
36	0x3f7ea46a	0.99469626
37	0x3f807d05	1.0038153
38	0x3f80ce8f	1.0063037
39	0x3f7458d1	0.95448023

encoder.1.bias f4 [40]
0	0xbc98e2f2	-0.018662903
1	0x3c07beca	0.008285234
2	0x3c352d24	0.011058126
3	0x3cbfb928	0.023403719
4	0xbb8c8c02	-0.004289151
5	0xbc10da74	-0.008841146
6	0xbcd10dd1	-0.025519283
7	0xbd0abd93	-0.0338722
8	0x3c8144e5	0.015779922
9	0xbb4dd51b	-0.0031407538
10	0x3cff5e61	0.031172933
11	0xbc82c30f	-0.015962152
12	0xbc859d6b	-0.016310414
13	0xbcad9cb7	-0.021192892
14	0x3d43e4aa	0.047825493
15	0xbb9c7842	-0.004775078
16	0x3c420e3e	0.011844216
17	0xbcb74cff	-0.022375582
18	0xbcfb2e62	-0.030661765
19	0xbba19c8b	-0.0049319915
20	0x3b92cdc7	0.004480097
21	0xbc8c6b2f	-0.017140953
22	0x3d154810	0.036445677
23	0xbceba350	-0.028764397
24	0x3cc2eac3	0.023793584
25	0xbd06d1e4	-0.03291501
26	0x3d33187c	0.043724522
27	0x3ce3d2c1	0.027810456
28	0xbd319ce3	-0.04336251
29	0xbc186ecf	-0.009303763
30	0xbc04a900	-0.008096933
31	0xbcb90efb	-0.022590151
32	0xbb7384c8	-0.0037158001
33	0x3d043077	0.032272782
34	0xbcab56da	-0.020915437
35	0xbbc0bab2	-0.005881631
36	0xbc489a35	-0.012243797
37	0xbc11df33	-0.0089033125
38	0x3c06dc75	0.008231272
39	0xbce637f5	-0.028102854

encoder.1.running_mean f4 [40]
0	0x3e409308	0.18806088
1	0xbec3fc72	-0.38278538
2	0xbee191e0	-0.44056606
3	0xbe8215c9	-0.25407246
4	0xbe46893b	-0.19388287
5	0x3eb4012d	0.35157147
6	0x3dd5c2f2	0.104375735
7	0x3e448bcd	0.19193955
8	0xbe643d49	-0.22289003
9	0x3e320a8f	0.1738684
10	0xbc94edb7	-0.018179758
11	0x3ea65de3	0.32493505
12	0x3e97803e	0.2959003
13	0x3e536a91	0.2064612
14	0xbecb3f04	-0.39696515
15	0x3e7a86c8	0.24465477
16	0xbe4b3f2b	-0.19848315
17	0x3eb43622	0.3519755
18	0x3e72daef	0.23716329
19	0x3e79c946	0.24393186
20	0xbe658c03	-0.22416691
21	0x3e3ca776	0.18423256
22	0xbe2781d8	-0.16358125
23	0x3e3a8757	0.1821569
24	0xbd8b29e6	-0.06795101
25	0x3dc2661e	0.094921336
26	0xbe1d3753	-0.15353136
27	0xbd83ff56	-0.06445186
28	0x3e30100f	0.17193626
29	0x3ea744b3	0.326696
30	0x3e95f558	0.29288745
31	0x3e619f75	0.22033484
32	0x3e859cd8	0.26096225
33	0xbe88ed7d	-0.2674369
34	0x3e4388f3	0.1909521
35	0xbe3e9054	-0.18609744
36	0x3eee5c4f	0.465548
37	0x3eba9746	0.36443537
38	0x3ec105d6	0.37699765
39	0x3e06129f	0.13093041

encoder.1.running_var f4 [40]
0	0x3cccb48e	0.024988439
1	0x3d8f3605	0.06992725
2	0x3d9ae3d6	0.075629875
3	0x3d2957fd	0.041343678
4	0x3c9edf92	0.019393716
5	0x3d90f7b2	0.07078494
6	0x3c852ff6	0.016258221
7	0x3c9bf9a1	0.01903993
8	0x3d1d12d1	0.038348023
9	0x3d0a94d1	0.03383333
10	0x3d07eecd	0.033186723
11	0x3d3f9514	0.04677303
12	0x3d5157bb	0.051109057
13	0x3cd7c36a	0.026338298
14	0x3da52d30	0.080652595
15	0x3cbd2d69	0.023092942
16	0x3d20d943	0.039269697
17	0x3d70fd7e	0.0588355
18	0x3ce5ba83	0.028043037
19	0x3d043279	0.032274697
20	0x3ccca245	0.02497972
21	0x3c91d20c	0.017800353
22	0x3c5162df	0.01277992
23	0x3ced6fa6	0.028983902
24	0x3ca8506a	0.020546157
25	0x3cfdbe75	0.030974606
26	0x3cf79a55	0.030224958
27	0x3cdb9be9	0.026807742
28	0x3d10b43b	0.03532813
29	0x3d7e3399	0.062060926
30	0x3d897189	0.06711108
31	0x3d302246	0.043001436
32	0x3d1b1514	0.0378619
33	0x3d109e55	0.035307247
34	0x3c6df3cc	0.014523458
35	0x3d18c8ff	0.03730106
36	0x3dc33af7	0.09532731
37	0x3d76856e	0.060185842
38	0x3d83781e	0.06419395
39	0x3ca76581	0.020434143

encoder.3.weight f4 [40, 40, 4, 4]
0	0xbc8994b2	-0.016794536
1	0xbd015b8e	-0.031581454
2	0x3cdb6fab	0.026786646
3	0xbbddcef2	-0.0067690546
4	0xbbaf91ce	-0.0053579574
5	0xbc672fdc	-0.014110532
6	0xbd5bc19c	-0.053651437
7	0xbbfd2336	-0.0077251447
8	0x3c802cec	0.01564642
9	0x3ce81867	0.028331948
10	0x3b85d9d6	0.004084806
11	0x3c89af2d	0.016807163
12	0x3d441402	0.047870643
13	0x3cf7409b	0.030182173
14	0x3cb9b063	0.022667116
15	0x3c651d69	0.013984063
16	0xbcc0f1c6	-0.023552787
17	0xbabc5292	-0.001436787
18	0x3d3d0ef7	0.04615685
19	0xbd40d77e	-0.04708051
20	0xbccf0532	-0.025271032
21	0xbcc33b01	-0.023831846
22	0x3cee5a2a	0.029095728
23	0x3d4f3544	0.050587907
24	0x3d068907	0.032845523
25	0x3c0d9f1a	0.00864389
26	0xbd14d776	-0.036338292
27	0x3d79593d	0.06087612
28	0xbbf51931	-0.0074798097
29	0x3b2728d3	0.002550651
30	0x3d619ce2	0.055081256
31	0xbc1a2240	-0.00940758
32	0xbd102245	-0.035188932
33	0xbce5ed87	-0.028067363
34	0xbd000906	-0.031258605
35	0xbd26f9fa	-0.04076574
36	0x3cab6405	0.020921716
37	0xbd864463	-0.065560125
38	0xbd9ad96c	-0.07561001
39	0xbcdf9ed0	-0.027297407
40	0x39356b46	0.00017301468
41	0x3caab775	0.020839432
42	0xbd7af73f	-0.06127095
43	0x3ccd8ba4	0.025091
44	0x3d764594	0.06012495
45	0xbd39f6a0	-0.045401216
46	0xbc12653a	-0.008935267
47	0x3c327e66	0.010894394
48	0x3d7127c4	0.058875814
49	0xbd53aace	-0.051676564
50	0xbd03166b	-0.0320038
51	0x3d46d10a	0.0485392
52	0x3d026701	0.031836513
53	0xbd47cfee	-0.04878228
54	0xbc027760	-0.0079630315
55	0xbc4a141d	-0.012333897
56	0x3cf8558f	0.030314235
57	0xbd173a76	-0.036920987
58	0x3d01bb0c	0.031672522
59	0x3d80affb	0.062835656
60	0xbbd23338	-0.006414797
61	0x3d6b6422	0.05746854
62	0xbced8753	-0.028995192
63	0xbc8609c6	-0.016362082
64	0x3d3ce500	0.04611683
65	0x3b76386d	0.0037570253
66	0xbcbec8c2	-0.023289088
67	0x3c93faad	0.018063867
68	0x3ca05529	0.019571858
69	0xbccc1a20	-0.024914801
70	0x3ccd185e	0.025036033
71	0x3c884a9a	0.016637135
72	0xbcd6671a	-0.02617221
73	0x3d810ff3	0.0630187
74	0xbc956a88	-0.018239275
75	0x3d6aeaca	0.05735282
76	0xbd44a408	-0.048007995
77	0xbc76fe0a	-0.015075216
78	0x3c4e0ade	0.012575833
79	0xbcd2abdd	-0.025716716
80	0xbcfa0a0b	-0.030522367
81	0x3c659d5e	0.01401457
82	0x3b19ba31	0.0023456926
83	0xbc36026a	-0.011108974
84	0xbcb7ba1b	-0.02242761
85	0x3c83b0a5	0.016075442
86	0x3d06af9b	0.032882314
87	0xbd349516	-0.044087492
88	0xbd2ef886	-0.04271748
89	0x3cfc3145	0.030785212
90	0xbd7b77e9	-0.061393652
91	0xbd9d1abc	-0.07671115
92	0x3d30c989	0.04316095
93	0x3d1dc56e	0.03851836
94	0xbd3caf72	-0.046065755
95	0x3a3a3b2c	0.0007104154
96	0x3d29c1dc	0.041444644
97	0x3d0fd21b	0.03511248
98	0xbcf95a53	-0.030438578
99	0xbcaad430	-0.020853132
100	0xbc504490	-0.012711659
101	0xbc441a78	-0.011969201
102	0xbd11750b	-0.03551201
103	0x3d9d819e	0.07690738
104	0x3d22adf3	0.039716672
105	0x3cf8baac	0.03036245
106	0x3d4a7ac7	0.049433496
107	0x3d6a8036	0.057251178
108	0xbcb60221	-0.022217812
109	0xbc6ef7d6	-0.014585456
110	0x3ccdd89e	0.025127705
111	0xbd6452f8	-0.055743188
112	0x3d03e7a5	0.032203335
113	0x3d527f17	0.051390734
114	0x3d44dfaf	0.048064884
115	0xbd7cd1a7	-0.061723378
116	0xbb0dcbe6	-0.0021636426
117	0xbd5dc951	-0.05414707
118	0x3cce04a2	0.025148693
119	0x3d2abc49	0.04168347
120	0xbd0bc009	-0.034118686
121	0xbcf0ab9f	-0.02937871
122	0x3b993be9	0.0046763313
123	0x3ae154af	0.0017191375
124	0xbc9f444b	-0.019441744
125	0x3d3e7a63	0.046503436
126	0x3d0173da	0.031604625
127	0xbd01f391	-0.031726424
128	0x3c74da10	0.014944568
129	0xbd5aab0b	-0.053385776
130	0xbd1e2b82	-0.03861571
131	0xbc8cff4f	-0.017211584
132	0x3d02fc0a	0.031978644
133	0xbcce84b2	-0.025209758
134	0x3d678287	0.056520965
135	0xbccbc153	-0.024872458
136	0x3cbc62ba	0.022996295
137	0x3bdc0788	0.006714765
138	0x3d1e24c0	0.038609266
139	0xbcaa520a	-0.020791072
140	0xbd28df59	-0.041228626
141	0x3d229156	0.039689384
142	0x3cb69b9e	0.022291001
143	0xbc81c91c	-0.015842967
144	0x3c917bf7	0.017759306
145	0xbc8fca90	-0.017552644
146	0xbd47b4c8	-0.04875639
147	0x3c13a6b5	0.009011914
148	0xbd4074ea	-0.046986498
149	0x3c9daca0	0.019247353
150	0xbd5f02c6	-0.054446004
151	0xbc94bc4c	-0.018156193
152	0x3a18fc0e	0.0005835899
153	0xbc8aeb6c	-0.016957961
154	0x3d1f4a60	0.03888929
155	0x3cd1dad6	0.025617044
156	0x3b966308	0.004589442
157	0xbd64d1c4	-0.05586411
158	0x3d081ad4	0.03322871
159	0x3c98dd82	0.01866031
160	0xbd0bbfc3	-0.034118425
161	0x3cb1391a	0.021633673
162	0x3d8998d4	0.06718603
163	0xbd21a68a	-0.039465465
164	0xbd667ce8	-0.056271464
165	0x3dac020c	0.08398828
166	0x3c96fe1c	0.018431716
167	0xbd81c595	-0.06336514
168	0xbcbeeb6e	-0.023305621
169	0x3d367257	0.044542637
170	0x3d80b8c8	0.06285244
171	0x3c96e13b	0.018417945
172	0x3dadca98	0.08485907
173	0x3d59bb9c	0.053157434
174	0x3c83185e	0.01600283
175	0x3ba63858	0.0050726347
176	0xbd0b39d9	-0.033990715
177	0x3bbbbc00	0.0057291985
178	0x3c86cdb5	0.01645551
179	0x3d6a9e77	0.05728003
180	0x3cd511ff	0.026009558
181	0x3c828df7	0.015936835
182	0xbd6e3f00	-0.05816555
183	0x3ce2c826	0.027683329
184	0xbd333c79	-0.043758843
185	0xbcfe8308	-0.03106834
186	0x3c106ec6	0.008815473
187	0xbca67f2d	-0.020324314
188	0xbd88bd8c	-0.06676778
189	0xbcdc4471	-0.026888104
190	0x3b9cf281	0.004789651
191	0x3d252701	0.0403204
192	0xbd086be5	-0.03330602
193	0x3d42c306	0.04754927
194	0xbce6e53d	-0.028185481
195	0xbd7a9204	-0.061174408
196	0xbd2fa701	-0.042883877
197	0xbc90d6ce	-0.017680552
198	0x3d2322a4	0.039827958
199	0xbc876661	-0.01652831
200	0xbd510eb8	-0.051039428
201	0xbc64544c	-0.013936114
202	0xbd585d8b	-0.052823585
203	0xbc5bcad3	-0.013415056
204	0x3c25406b	0.010086159
205	0x3c52e486	0.012871867
206	0x3ccca906	0.02498294
207	0xbd6fb27a	-0.058519818
208	0xbd172b96	-0.0369068
209	0x3b83060e	0.0039985245
210	0x3d04e233	0.032442283
211	0x3ca9d641	0.020732047
212	0x3d8ff54b	0.07029208
213	0x3d89ba16	0.06724946
214	0x3c06d084	0.008228425
215	0x3c2fe57f	0.0107358685
216	0x3d788f4d	0.060683537
217	0x3c0dfbbd	0.008665976
218	0xbc2d51d9	-0.010578596
219	0x3cb2f2d9	0.021844314
220	0x3d4465ce	0.04794865
221	0x3c9da419	0.019243287
222	0xbcbc1ac7	-0.022961987
223	0xbb9cc951	-0.004784741
224	0x3d35ba7d	0.044367302
225	0xbd2cb9c6	-0.042169355
226	0x3d057a4d	0.03258734
227	0x3d5dcda3	0.05415119
228	0x3d1643e7	0.03668585
229	0xbd3300b3	-0.04370184
230	0xbca7a846	-0.020465981
231	0x3d85318c	0.06503591
232	0x3d414fab	0.047195118
233	0x3ac392b3	0.0014921039
234	0x3d0abebe	0.033873312
235	0x3d283818	0.04106912
236	0x3c883bbd	0.016630048
237	0x3d77008e	0.060303263
238	0xbcfd4b76	-0.030919772
239	0xbc8ed551	-0.017435702
240	0x3d45634e	0.048190407
241	0xbd79826a	-0.06091539
242	0xbb89eba1	-0.0042089974
243	0x3c8d936a	0.017282207
244	0x3cc6d241	0.024270179
245	0xbd3eccc9	-0.046582017
246	0xbb5db119	-0.0033827482
247	0xbc9131d3	-0.017723953
248	0x3d0afc33	0.033931922
249	0x3cf3e4f4	0.02977226
250	0xbd0128df	-0.03153312
251	0x3cfa89b4	0.03058324
252	0x3d3730ad	0.044724155
253	0x3ca3c235	0.019990066
254	0x3c99c96a	0.0187728
255	0xbd4f6eac	-0.050642654

encoder.3.bias f4 [40]
0	0x3c08b1ce	0.008343173
1	0x3b511210	0.0031901635
2	0xbbfdd702	-0.007746578
3	0xbc376b51	-0.01119502
4	0x3c23c0b8	0.009994678
5	0xbb18a123	-0.0023289404
6	0x3cc43246	0.023949753
7	0xbc55d0a5	-0.013050233
8	0x3b848093	0.0040436476
9	0xbb8064be	-0.0039182594
10	0x3ac46056	0.0014982324
11	0x36c43377	5.8472465e-06
12	0xbbf2e29a	-0.007412267
13	0x3adde981	0.0016930552
14	0x3bdee619	0.006802332
15	0x3bf86bcc	0.0075812098
16	0xbb95863f	-0.0045631225
17	0xbc25878b	-0.010103117
18	0xbbfaaf8c	-0.0076503213
19	0xbbe3b539	-0.0069490937
20	0xbbf93453	-0.0076051145
21	0x3b730118	0.003707951
22	0x3cd7abab	0.026326975
23	0xbbb809f5	-0.0056164213
24	0xbbd5d127	-0.006525177
25	0x3bc48676	0.0059974743
26	0x3c0a3bd1	0.008437113
27	0xbb52b64a	-0.003215211
28	0xb9e267d4	-0.00043183437
29	0x3a4d2f43	0.0007827172
30	0xbc75b71c	-0.01499727
31	0xbbc6bf88	-0.006065313
32	0xbca7b38f	-0.020471362
33	0xbbe41a6b	-0.006961157
34	0xbc545c17	-0.012961409
35	0xbba4e173	-0.0050317585
36	0xbc1905ab	-0.00933973
37	0xbbc89943	-0.006121786
38	0xbb318354	-0.0027086334
39	0x39fd2d08	0.0004828947

encoder.4.block.1.weight f4 [40, 40, 3, 3]
0	0x3cfeeb96	0.031118196
1	0x3c3e9bce	0.011633826
2	0x3bc7137c	0.0060753208
3	0xbb3ff30a	-0.002928915
4	0xbda39594	-0.07987514
5	0xbdb555bd	-0.08854244
6	0xbd932e9b	-0.07186624
7	0xbdb7474b	-0.08949145
8	0x3d153098	0.036423296
9	0xbd2d3472	-0.042286344
10	0xbd11c563	-0.035588633
11	0x3da0bd2b	0.07848581
12	0x3d95447a	0.072884515
13	0x3d8b0661	0.06788326
14	0xbd8d9c9f	-0.06914639
15	0xbc3a20f8	-0.011360399
16	0x3d64b93e	0.055840723
17	0x3dab5f42	0.08367778
18	0x3c193f61	0.00935349
19	0x3d1cdcb1	0.038296405
20	0x3d83062a	0.0639766
21	0x3d8c08c3	0.06837609
22	0x3d90c677	0.07069104
23	0xbcb8be01	-0.022551538
24	0xbba95b2e	-0.00516834
25	0x3d2459fe	0.040124886
26	0x3d8c126b	0.068394504
27	0xbcc510f3	-0.024055934
28	0x3c9db12e	0.019249525
29	0x3d857c6b	0.065178715
30	0xbd86cc35	-0.06581918
31	0xbcce8eaf	-0.025214521
32	0xbdbd30a0	-0.0923779
33	0xbd87cd15	-0.06630913
34	0x3d9cdbf1	0.07659138
35	0xbd7e3ecb	-0.062071603
36	0xbd48aa6c	-0.048990652
37	0x3c5b38e9	0.013380268
38	0xbc8d745a	-0.017267395
39	0x3dba7367	0.091040425
40	0x3c2d78b6	0.010587862
41	0xbdb3a50f	-0.08771717
42	0x3d52d57f	0.051473137
43	0xbcdd7251	-0.02703205
44	0x3bfd9c20	0.007739559
45	0x3cdde790	0.027087957
46	0xbdb9eeb1	-0.0907873
47	0xbc276009	-0.010215768
48	0x3d924bf9	0.07143397
49	0x3bdb6556	0.00669543
50	0xbd3cdb2f	-0.046107467
51	0x3da93f8c	0.08264074
52	0xbdb62742	-0.088942066
53	0xbd5fd791	-0.05464894
54	0x3c293eb5	0.010329892
55	0x3e05ab04	0.13053519
56	0x3c2bbb35	0.010481645
57	0x3de87254	0.11349931
58	0x3e1c55d7	0.1526712
59	0xbd6eaec9	-0.058272157
60	0x3c274ef1	0.010211692
61	0x3cdf4185	0.027252922
62	0x3c1b4e02	0.009479048
63	0xbd8c8cf7	-0.068628244
64	0xbc8672a4	-0.016412087
65	0x3d7c5842	0.061607607
66	0xbd8438f6	-0.06456177
67	0x3d58dc91	0.052944724
68	0xbb84dafb	-0.004054425
69	0x3b07aea2	0.0020703455
70	0xbda6d731	-0.08146513
71	0xbd808999	-0.06276245
72	0xbd290825	-0.041267533
73	0xbd07c7c5	-0.0331495
74	0xb81f38f1	-3.7961585e-05
75	0x3c6f5e4e	0.014609886
76	0xbc945bf8	-0.01811026
77	0xbd0f7f2c	-0.03503339
78	0xbc69754b	-0.014249156
79	0xbdc97606	-0.09836964
80	0x3d661d25	0.05618014
81	0x3d9265a1	0.071482904
82	0xbd44da96	-0.048060022
83	0xbcb53a1e	-0.022122439
84	0x3d935b15	0.07195107
85	0x3da9b2f9	0.082860895
86	0xbdb7fa17	-0.08983248
87	0xbd77123a	-0.060320117
88	0x3cc0ceaf	0.023536054
89	0xbc8e9018	-0.017402694
90	0x3cb9dc28	0.022687986
91	0xbcab9434	-0.020944692
92	0xbd30ba08	-0.043146163
93	0xbd23012a	-0.039796032
94	0xbdac6c79	-0.08419127
95	0x3d2b396d	0.041802812
96	0x3d8537af	0.065047614
97	0xbd30db04	-0.04317762
98	0xbd6a641c	-0.057224378
99	0xbd8488d1	-0.06471408
100	0xbd6fe18c	-0.058564708
101	0xbd145d13	-0.036221575
102	0x3cef5a72	0.029217932
103	0x3d4982ff	0.049197193
104	0xbd159192	-0.03651578
105	0xbc05a8d9	-0.008157932
106	0xbd88775f	-0.06663393
107	0xbd9949f0	-0.074848056
108	0xbbc49f1b	-0.006000412
109	0x3dae97dc	0.085250586
110	0xbb7bc85f	-0.003841899
111	0xbd99ea4e	-0.07515393
112	0xbadf9488	-0.0017057816
113	0xbc1acd44	-0.009448353
114	0xbd873ba3	-0.06603172
115	0xbd2419d6	-0.0400637
116	0xbd28a052	-0.04116852
117	0x3d2f2fd5	0.042770226
118	0x3ccb0cf7	0.024786456
119	0xbd5f2e70	-0.054487646
120	0x3da0a1a4	0.078433305
121	0xbc9698ec	-0.018383466
122	0xbda89616	-0.082317516
123	0x3d34f758	0.044181198
124	0xbc52842e	-0.012848897
125	0x3dab42b5	0.08362333
126	0xbc85a722	-0.016315047
127	0x3c5def8e	0.013545884
128	0xbd4577d1	-0.04820997
129	0x3d64e977	0.055886712
130	0x3bfc933a	0.0077079805
131	0x3d39401d	0.04522716
132	0x3ca03b52	0.019559536
133	0x3d5609c6	0.052255414
134	0xbdab223b	-0.08356138
135	0x3b80dcbc	0.0039325636
136	0x3cb13e87	0.02163626
137	0x3d5c1863	0.053734194
138	0xbc770c76	-0.0150786545
139	0xbaa6efc0	-0.0012736246
140	0x3d08a222	0.033357747
141	0x3b5dae0a	0.003382566
142	0x3d520afb	0.051280003
143	0xbd27df23	-0.040984284
144	0xbcdbff34	-0.026855089
145	0xbd65d040	-0.056106806
146	0xbdb3430c	-0.087530226
147	0x3da1f08c	0.07907209
148	0xbd4ab6e1	-0.049490813
149	0x3cfb9625	0.030711243
150	0xbd91282a	-0.07087739
151	0xbd1d2e3a	-0.038374163
152	0x3c6246bc	0.01381081
153	0x3dae8a23	0.08522441
154	0x3d210ff1	0.039321844
155	0xbd2d85ca	-0.04236392
156	0xbcaf6b8d	-0.021413589
157	0xbd99dc30	-0.075127006
158	0xbd511a39	-0.0510504
159	0xbd23260b	-0.039831202
160	0x3d9730ab	0.073823296
161	0x3c8209d1	0.015873821
162	0x3d11867c	0.035528645
163	0x3d83b63c	0.06431243
164	0xbd88def2	-0.066831484
165	0x3d240136	0.040040217
166	0xbccd9550	-0.025095612
167	0x3c730a0c	0.014833938
168	0x3dbbfcf9	0.0917911
169	0xbcd88596	-0.026430886
170	0x3c197424	0.009366069
171	0x3dbb2f87	0.091399245
172	0xbcc84ba7	-0.024450136
173	0xbd0656b9	-0.03279755
174	0xbcd4a759	-0.025958704
175	0xbd1d9bdc	-0.038478717
176	0x3ca59942	0.02021468
177	0xbda09aa7	-0.078419976
178	0xbd93c47c	-0.07215211
179	0xbc5d53f5	-0.013508786
180	0xbc048017	-0.00808718
181	0x3d90764c	0.07053813
182	0xbda27c80	-0.07933903
183	0x3db1dfc3	0.08685257
184	0xbda86769	-0.08222849
185	0xbcd95032	-0.026527498
186	0xbd09c4e5	-0.03363504
187	0x3da9ce9e	0.08291362
188	0x3db9d0e6	0.09073047
189	0xbcf4764b	-0.029841563
190	0x3cd3d0c5	0.025856385
191	0xbd80dbe4	-0.06291941
192	0x3b831120	0.003999844
193	0x3c62e27c	0.013847943
194	0xbd46ab2c	-0.048503086
195	0xbce3bb92	-0.027799401
196	0x3d292032	0.04129047
197	0xbba9bc7d	-0.0051799403
198	0x3d0fee2e	0.035139255
199	0x3b4e1d4d	0.003145057
200	0x3c2a44c8	0.010392375
201	0xbd612122	-0.05496324
202	0x3d5994be	0.053120367
203	0x3b3980f1	0.0028305615
204	0x3ca9588f	0.02067211
205	0xbd8a1df5	-0.06743995
206	0x3c5bf833	0.0134258745
207	0x3d619704	0.05507566
208	0x3d4f2e92	0.050581522
209	0xbd993dc9	-0.07482488
210	0xbd3ea667	-0.046545412
211	0xbd884ba2	-0.06655051
212	0x3c0666dd	0.008203235
213	0xbcdfe394	-0.027330197
214	0x3cde8d08	0.027166858
215	0x3d85fb8c	0.065421194
216	0x3d67b801	0.056571964
217	0xbd8005b0	-0.06251085
218	0x3c86bea2	0.016448323
219	0x3d94e3b8	0.072699964
220	0x3da10cc3	0.07863762
221	0xbd8c18af	-0.068406455
222	0x3cbf1c64	0.023328967
223	0x3c5e698e	0.013574971
224	0x3d4befda	0.049789287
225	0xbc89ff0c	-0.016845249
226	0xbb821613	-0.0039699166
227	0xbb84c863	-0.0040522083
228	0xbdd960c7	-0.10614162
229	0x3df075bf	0.11741208
230	0x3d459bd4	0.048244312
231	0x3d8cf98d	0.068835355
232	0x3c721a1d	0.014776734
233	0xbbefdeb1	-0.007320248
234	0xbb985b48	-0.0046495534
235	0x3d278fad	0.040908504
236	0x3d97cd26	0.07412176
237	0x3d3a0bbf	0.04542136
238	0x3da0aefd	0.07845876
239	0x3d3ca809	0.04605869
240	0x3c28c0d6	0.010299882
241	0xbda2ebef	-0.07955157
242	0xbd1e3229	-0.038622055
243	0xbd7b96f3	-0.061423253
244	0xbd1b6d21	-0.03794587
245	0xbd64b33b	-0.05583499
246	0x3d45dfea	0.048309244
247	0x3b94a656	0.0045364304
248	0x3d938b16	0.07204263
249	0xbd8d813b	-0.069094144
250	0x3d6f49a0	0.058419824
251	0xbdc07023	-0.093963884
252	0x3d8b228f	0.06793701
253	0xbc03c9f9	-0.0080437595
254	0x3dfe5bbc	0.12419841
255	0x3d5747bd	0.05255865

encoder.4.block.1.bias f4 [40]
0	0x3b38a6dd	0.002817563
1	0xbbaae84c	-0.00521568
2	0xb9c32ef8	-0.00037228293
3	0x3a31045d	0.00067526643
4	0xba0d8215	-0.0005398107
5	0x3b285c9d	0.0025689967
6	0x3ab0f77c	0.001350149
7	0x39f900d9	0.00047493613
8	0x3a31977d	0.00067745877
9	0xba6258c4	-0.0008634443
10	0x3b93f04e	0.0045147305
11	0x3c067686	0.008206969
12	0xb9ed5d6e	-0.00045273773
13	0x3ae7ce0a	0.0017685306
14	0xba23ce30	-0.0006248681
15	0x3a98af8c	0.0011648997
16	0xbaf5994b	-0.0018737701
17	0xbac4b21e	-0.0015006696
18	0x39fd68ee	0.000483341
19	0x3a83a200	0.0010042787
20	0x3750b30e	1.24394555e-05
21	0x38b3ca1d	8.573032e-05
22	0xb9c2f9fb	-0.00037188813
23	0xbb0c5295	-0.0021411527
24	0x3b62ca05	0.0034605276
25	0xb9ccc50b	-0.0003905672
26	0x3a88ecda	0.0010446564
27	0x3ba89b26	0.0051454483
28	0xb8dcd208	-0.00010529539
29	0x3a26adcf	0.0006358297
30	0x3ae50699	0.001747328
31	0x3ac7fb3b	0.0015257368
32	0x3aca5d7f	0.0015439241
33	0x3b0ab500	0.0021165013
34	0xb9c9bee4	-0.00038479932
35	0x3b9a7758	0.004713934
36	0xbb482fae	-0.0030545997
37	0x39e43e4e	0.0004353397
38	0x398af86e	0.00026506506
39	0x3b2a143a	0.0025951997

encoder.4.block.2.weight f4 [40]
0	0x3f7fbfd0	0.9990206
1	0x3f6ca25f	0.9243526
2	0x3f6ebad5	0.93253833
3	0x3f761674	0.9612801
4	0x3f7b4f01	0.98167425
5	0x3f7ea7d8	0.9947486
6	0x3f7a1556	0.97688806
7	0x3f7b81a2	0.9824468
8	0x3f6ee9a9	0.9332529
9	0x3f6bc432	0.92096245
10	0x3f7fb77f	0.9988937
11	0x3f807eea	1.0038731
12	0x3f7fcacd	0.99918824
13	0x3f8e2e41	1.1107866
14	0x3f84e0b7	1.0381078
15	0x3f809b77	1.0047444
16	0x3f80a108	1.0049143
17	0x3f77bfe4	0.96777177
18	0x3f82e262	1.0225337
19	0x3f8abf15	1.0839564
20	0x3f76f8a2	0.96473134
21	0x3f89a8bd	1.075462
22	0x3f774d77	0.96602577
23	0x3f69c3c3	0.91314334
24	0x3f72d2ef	0.9485311
25	0x3f76e10b	0.9643714
26	0x3f8f5354	1.1197305
27	0x3f82c3ea	1.0216038
28	0x3f87aed0	1.0600224
29	0x3f81507e	1.0102689
30	0x3f87967f	1.0592803
31	0x3f856ca8	1.0423784
32	0x3f7bdd09	0.9838415
33	0x3f8a4c3e	1.0804517
34	0x3f8118c5	1.0085684
35	0x3f85fe1d	1.0468174
36	0x3f74b853	0.95593756
37	0x3f6d24df	0.92634386
38	0x3f7df3c8	0.99200106
39	0x3f7d9c23	0.9906637

encoder.4.block.2.bias f4 [40]
0	0x3dbf8592	0.093516484
1	0xbddb8b65	-0.10719947
2	0xbd8d413b	-0.06897207
3	0x3cd177fa	0.025569905
4	0x3da4b97d	0.080431916
5	0x3dfabcd3	0.122430466
6	0x3d2e79d6	0.04259666
7	0x3d2ce892	0.042213984
8	0xbc17b758	-0.009260021
9	0xbcd8acc0	-0.026449561
10	0x3dbde58c	0.09272298
11	0x3e206068	0.15661776
12	0x3d53366f	0.051565584
13	0x3e3493e9	0.17634548
14	0x3e38394c	0.17990607
15	0x3cb74451	0.022371443
16	0x3bb5d322	0.0055488506
17	0x3cebf761	0.028804483
18	0x3dd29508	0.10282332
19	0x3e22f1b0	0.15912509
20	0x3d61175b	0.054953914
21	0x3d5b4b98	0.05353889
22	0x3d1c76cd	0.038199235
23	0xbd2866da	-0.041113712
24	0x3d1c0c80	0.03809786
25	0xbc682e29	-0.014171162
26	0x3de4a944	0.11165097
27	0x3d2ce036	0.04220601
28	0x3dd110cb	0.10208281
29	0x3d62ea3e	0.055399172
30	0x3df3a202	0.11896135
31	0x3e13246d	0.14369364
32	0x3cacea69	0.02110787
33	0x3e56cbec	0.20976228
34	0x3e0894d4	0.13338023
35	0x3dd68792	0.10475077
36	0xbc63888e	-0.013887538
37	0xbd0caf8b	-0.0343471
38	0x3d7e0be1	0.062023047
39	0x3d0d04d7	0.034428444

encoder.4.block.2.running_mean f4 [40]
0	0x3f1f9f3a	0.62352335
1	0xbf9425fb	-1.1574091
2	0xbf96d52c	-1.1783805
3	0xbe9d5859	-0.30731466
4	0x3fb3cab9	1.4046241
5	0x3f8786f1	1.0588056
6	0x3f8bb21e	1.0913732
7	0x3e4622e6	0.1934925
8	0x3f7e090d	0.9923256
9	0xbf6b0022	-0.9179708
10	0x3f66c1c9	0.9013944
11	0x3f114056	0.56738794
12	0x3f2114a4	0.6292212
13	0x3f17a223	0.59231776
14	0x3f4d60b6	0.80225694
15	0xbf979e91	-1.1845266
16	0xbfa96b79	-1.3235923
17	0x3d4a0283	0.0493188
18	0x3f953860	1.1657829
19	0x3f204160	0.62599754
20	0xbc8d078c	-0.017215513
21	0xbfa681c2	-1.3008349
22	0x3ddc552e	0.10758434
23	0xbf0223ee	-0.50836074
24	0x3f8bd220	1.09235
25	0xbf586689	-0.84531456
26	0x3f948b44	1.1605
27	0x3f7b5849	0.9818159
28	0x3e934b85	0.28768554
29	0xbfee8c3f	-1.863655
30	0x3f570ee7	0.84007114
31	0x3fa2c403	1.2716068
32	0xbf93ccc1	-1.1546861
33	0x3f194638	0.5987277
34	0x3f8b60e9	1.088895
35	0xbf97d53d	-1.186195
36	0xbf4a40ff	-0.79005426
37	0xbf9d87d9	-1.2307082
38	0xbf6a73a9	-0.91582733
39	0x3e9fe803	0.31231698

encoder.4.block.2.running_var f4 [40]
0	0x3f221d97	0.633264
1	0x3fb9dfcc	1.4521422
2	0x3fd4cd67	1.6625184
3	0x3f01216f	0.5044164
4	0x40068c1a	2.1023011
5	0x3f9c25ac	1.2198997
6	0x3fc56bcb	1.5423521
7	0x3f0f7c1c	0.5604875
8	0x3f9ec062	1.240246
9	0x3fbe293e	1.4856336
10	0x3f51e7ba	0.8199421
11	0x3f3da624	0.74081635
12	0x3f762e12	0.9616405
13	0x3f149753	0.580434
14	0x3f897086	1.0737464
15	0x3fe167e2	1.7609828
16	0x3fc44cbc	1.5335917
17	0x3f02ddba	0.5111958
18	0x3fb80e8a	1.4379437
19	0x3f71cc4d	0.94452363
20	0x3f3607c1	0.7110558
21	0x3feda4d9	1.8565933
22	0x3f542e53	0.82883185
23	0x3f9cfaab	1.2263998
24	0x3f895b0e	1.0730913
25	0x3f87342e	1.0562799
26	0x3f9d951c	1.231113
27	0x3fb3a697	1.4035214
28	0x3f567418	0.83770895
29	0x4029e721	2.654732
30	0x3f90bb1e	1.1307104
31	0x3ff3f772	1.9059889
32	0x3fb2953b	1.3951792
33	0x3ed999f1	0.4250026
34	0x3fce6fa0	1.6127815
35	0x3fbae174	1.4600053
36	0x3f8ffc0e	1.1248796
37	0x3f9e4aed	1.2366616
38	0x3f89deb8	1.0771093
39	0x3f7ec719	0.9952255

encoder.4.block.4.weight f4 [40, 40, 1, 1]
0	0x3e33a14a	0.17541996
1	0xbde21b3d	-0.110403515
2	0x3e8654da	0.26236612
3	0xbd2b5d6b	-0.041837137
4	0x3e423528	0.1896559
5	0xbe54ecac	-0.20793408
6	0x3d8380f6	0.06421082
7	0x3dd0deac	0.10198721
8	0x3dfcba8f	0.12340271
9	0xbc268f3c	-0.010165986
10	0xbe3d3587	-0.1847745
11	0x3d83d68b	0.06437405
12	0x3bcc04e0	0.006226167
13	0xbe9bbb1f	-0.304162
14	0xbe19c18b	-0.15015237
15	0xbdd3a217	-0.103336506
16	0x3e8c704c	0.27429426
17	0x3d05b014	0.032638624
18	0xbe65893e	-0.22415635
19	0xbe51de49	-0.20494951
20	0x3c9b8fa0	0.018989384
21	0x3d91d1da	0.07120104
22	0x3e29eac0	0.16593456
23	0x3e40d391	0.18830706
24	0x3d98aec5	0.0745521
25	0xbe2d0ebc	-0.16900152
26	0xbe9b3ee5	-0.30321422
27	0xbe8d8be3	-0.27645788
28	0xbe899f55	-0.26879373
29	0xbd40f2b0	-0.047106445
30	0xbe100e9e	-0.14068076
31	0x3d8f9244	0.0701032
32	0x3e0a4cda	0.13505879
33	0xbe61a07f	-0.2203388
34	0x3c9d310a	0.019188423
35	0xbd4a76b8	-0.049429625
36	0xbdc57efb	-0.0964336
37	0xbda1eba1	-0.07906271
38	0x3e5a0a83	0.21293072
39	0x3d027550	0.03185016
40	0xbd6415ce	-0.055684857
41	0xbe4b043f	-0.19825839
42	0x3e0d48c8	0.13797295
43	0xbe05a826	-0.13052425
44	0xbde7be87	-0.11315637
45	0xbe829afe	-0.25508875
46	0xbcf66ac3	-0.030080205
47	0x3a21e2fc	0.0006175486
48	0x3e60553a	0.21907511
49	0x3d3eab20	0.046549916
50	0x3e3a902e	0.18219063
51	0xbd43c0de	-0.047791354
52	0x3e6aec8e	0.22941801
53	0x3dafdd8f	0.08587181
54	0x3e2bffa9	0.16796745
55	0xbdc8c2c2	-0.09802772
56	0x3e491c16	0.1963962
57	0x3e3b07fb	0.18264763
58	0x3d2d46cf	0.042303856
59	0x3d67c9b6	0.05658885
60	0x3d24f0d8	0.04026875
61	0xbe716913	-0.23575239
62	0xbc7fe233	-0.015617895
63	0x3ce74901	0.028233053
64	0x3dafcf60	0.085844755
65	0x3dbe594b	0.09294375
66	0x3e959dbb	0.292219
67	0x3e99d8f1	0.30048326
68	0xba52db2f	-0.0008043525
69	0xbd1df370	-0.03856224
70	0x3d0cf7ec	0.034416124
71	0x3e20183e	0.15634248
72	0x3daa21bb	0.08307215
73	0x3e5795ee	0.21053287
74	0x3e9167a0	0.28399372
75	0xbd84f191	-0.06491388
76	0xbe42ca69	-0.19022526
77	0xbe5e81ee	-0.21729252
78	0xbd98e53e	-0.074655995
79	0x3cf38eb3	0.02973113
80	0xbdbecac0	-0.09316015
81	0x3e84db18	0.25948405
82	0xbe77bd7e	-0.2419338
83	0xbe22aae2	-0.15885499
84	0xbdf71f75	-0.12066547
85	0xbded621f	-0.11590981
86	0xbd5defc6	-0.054183744
87	0xbe0e8833	-0.13919143
88	0x3dba25d2	0.09089245
89	0xbd705c5e	-0.05868184
90	0x3e556b1e	0.20841643
91	0xbe40c946	-0.1882678
92	0x3debc180	0.115115166
93	0xbdd64fde	-0.10464452
94	0xbdecc778	-0.11561483
95	0x3dcd6590	0.10029137
96	0xbe3be80f	-0.18350242
97	0x3d528ac2	0.05140186
98	0xbe419afe	-0.18906781
99	0x3e37db47	0.17954741
100	0xbd2d6de1	-0.042341117
101	0x3ea28fb6	0.31750268
102	0x3d98347e	0.07431887
103	0xbe302030	-0.17199779
104	0xbe4bdf5c	-0.19909424
105	0xbd8bee43	-0.06832554
106	0xbe8055cd	-0.2506546
107	0x3d803f60	0.06262088
108	0xbe9edb77	-0.31026813
109	0xbe1c6db7	-0.15276228
110	0xbe239e26	-0.15978298
111	0xbe9d4fff	-0.30725095
112	0xbd4a99a1	-0.04946292
113	0xbe09d792	-0.1346114
114	0x3d62cbe1	0.055370215
115	0x3e14dd0b	0.14537446
116	0xbe0c6cdc	-0.13713402
117	0x3e1e8896	0.15481791
118	0x3e7f53ab	0.2493426
119	0xbe43fb3f	-0.19138812
120	0xbe3b6e4a	-0.1830379
121	0x3e5976aa	0.21236673
122	0x3e03701e	0.12835738
123	0x3e422217	0.18958317
124	0x3e589f87	0.21154605
125	0xbad5608e	-0.0016279386
126	0xbe29d9d4	-0.16587001
127	0xbdca0fc0	-0.09866285
128	0xbdc405aa	-0.09571393
129	0xbe0a92e7	-0.13532601
130	0x3e6118ae	0.21982071
131	0xbb23903f	-0.0024957804
132	0x3d3f2466	0.04666557
133	0x3e08c5c0	0.13356686
134	0xbddc6f48	-0.10763413
135	0xbe2cbd10	-0.16868997
136	0x3d8b7958	0.06810254
137	0x3d5c584a	0.053795137
138	0xbc92ff13	-0.017943894
139	0x3e431b83	0.19053464
140	0x3df5a792	0.11994852
141	0x3dbaac3f	0.091148846
142	0xbe24b1e9	-0.16083492
143	0x3dc28b25	0.09499196
144	0xbe48abff	-0.19596861
145	0xbe3f9b68	-0.18711627
146	0xbe72a7bb	-0.23696797
147	0xbe60f8b1	-0.21969868
148	0x3c8f232a	0.017472822
149	0xbe1c424c	-0.15259665
150	0x3e0bebb0	0.13664126
151	0x3d990212	0.07471098
152	0x3da15df4	0.07879248
153	0xbe420f60	-0.18951178
154	0x3d810f9f	0.063018076
155	0x3dce7186	0.100802466
156	0x3e83f96e	0.25776237
157	0x3b200d70	0.0024422072
158	0x3e715b97	0.23570095
159	0x3cb3f5a5	0.021967718
160	0xbcc8c08e	-0.02450588
161	0xbe075cf5	-0.13219054
162	0x3c410ca3	0.011782798
163	0x3e17ba9d	0.14817281
164	0xbbe8096d	-0.0070812018
165	0xbe71c4c0	-0.2361021
166	0x3e6e13ff	0.23249815
167	0xbdb6cc64	-0.08925703
168	0xbe237743	-0.15963463
169	0x3e2cd32d	0.16877432
170	0xbe0bea43	-0.13663583
171	0xbcb892b9	-0.0225309
172	0x3e1a076f	0.15041898
173	0x3e6fac91	0.23405673
174	0x3d6782af	0.056521114
175	0x3e761841	0.2403269
176	0xbe92ba9a	-0.2865799
177	0x3e81b62e	0.25334305
178	0x3e21b8ba	0.15793124
179	0x3e7c3af8	0.2463187
180	0x3e1e68cf	0.15469669
181	0xbdcfd346	-0.10147719
182	0xbcce174c	-0.025157593
183	0x3d3280f3	0.043580007
184	0xbdcf57af	-0.10124146
185	0xbd6dbd84	-0.058042064
186	0x3d3cf306	0.046130203
187	0x3e34ee83	0.1766911
188	0xbcad224d	-0.02113452
189	0xbe2600b4	-0.16211206
190	0x3e9936c8	0.29924607
191	0xbd8c1160	-0.068392515
192	0xbe8ba310	-0.27272844
193	0x3e360bec	0.17777985
194	0x3e921171	0.28528932
195	0x3bbc8a67	0.0057538035
196	0xbdbfc546	-0.09363799
197	0xbe14a8fe	-0.1451759
198	0x3c91a8af	0.01778063
199	0x3dd96bcb	0.10616263
200	0xbde4e036	-0.11175577
201	0xbbb80a61	-0.0056164716
202	0x3e7d1b3b	0.24717419
203	0x3e2a1fb5	0.16613658
204	0xbe166e70	-0.14690566
205	0xbe2f72dd	-0.1713366
206	0xbe7e7586	-0.24849519
207	0x3e7dc013	0.24780302
208	0xbe04879e	-0.12942359
209	0xbe19cae8	-0.15018809
210	0xbdf99808	-0.12187201
211	0xbe7fa221	-0.24964191
212	0xbe5a012f	-0.21289514
213	0xbe6ac3ba	-0.22926226
214	0x3e0bc697	0.13649975
215	0x3e4bf60a	0.19918075
216	0x3e5199a5	0.20468767
217	0xbc84a1ab	-0.01619037
218	0xbce7a34a	-0.028276104
219	0xbe445d65	-0.19176252
220	0x3da94ffe	0.082672104
221	0xbbed6257	-0.007244389
222	0xbc95a91d	-0.018269116
223	0xbb99a6bb	-0.0046890653
224	0x3d9d6b9f	0.07686543
225	0xbe4389ba	-0.19095507
226	0xbcaf6b76	-0.021413546
227	0x3dc905a4	0.09815529
228	0xbe684046	-0.22680768
229	0x3e848269	0.25880745
230	0xbe3cdab6	-0.18442807
231	0xbcd00839	-0.025394546
232	0xbe252770	-0.16128325
233	0x3e28f270	0.16498733
234	0xbe376b50	-0.1791203
235	0x3de96b54	0.11397424
236	0xbd824246	-0.06360297
237	0xbe5be382	-0.21473506
238	0x3e005720	0.12533236
239	0x3ddbc9c0	0.1073184
240	0xbe7bf37a	-0.24604598
241	0xbdbcbb64	-0.092154294
242	0xbe6d24fc	-0.2315864
243	0xbcaea71a	-0.021319915
244	0x3cf586ee	0.029971566
245	0xbdbfe90b	-0.09370621
246	0x3e5ebd27	0.21751843
247	0x3e575e03	0.21031956
248	0x3e81d93d	0.25361052
249	0x3da8ee75	0.08248607
250	0xbeac2bd1	-0.3362718
251	0xbe8fa64e	-0.28056568
252	0xbd76291e	-0.060097806
253	0xbe199ac7	-0.15000449
254	0xbe497068	-0.19671786
255	0xbdaae53a	-0.08344503

encoder.4.block.4.bias f4 [40]
0	0xbc0573f0	-0.008145317
1	0x3af75385	0.0018869495
2	0xbba56181	-0.0050470238
3	0xbadd3085	-0.0016875422
4	0xba5a0fa5	-0.0008318371
5	0x39682114	0.00022137567
6	0xbc3bb9b8	-0.011457853
7	0xbc1766bb	-0.009240801
8	0x383835f5	4.391927e-05
9	0xb5e79da4	-1.7256721e-06
10	0xbb0b879a	-0.0021290542
11	0xbb816027	-0.00394823
12	0xbb8db001	-0.00432396
13	0x3ab2a12b	0.0013628354
14	0xbbd9c656	-0.006645958
15	0xb8600eb8	-5.341947e-05
16	0xbbc7c764	-0.0060967673
17	0x39e02640	0.00042753108
18	0x3b2f79b5	0.0026775424
19	0x3c217360	0.009854168
20	0x3bede853	0.007260361
21	0xbba7c8f0	-0.005120389
22	0x3b9a4ac3	0.0047086193
23	0xba669e54	-0.00087973964
24	0xbbb5bc3b	-0.0055461205
25	0xbb71687b	-0.0036835957
26	0xbb732cab	-0.0037105482
27	0xb7bad71b	-2.2273094e-05
28	0xbbabd0b8	-0.005243387
29	0xbc00dfcf	-0.00786586
30	0x3ad985ee	0.00165957
31	0x3bb474ee	0.005507103
32	0xbb1f4730	-0.0024303906
33	0xbb60960a	-0.0034269118
34	0xbc027f5a	-0.007964933
35	0xbb85b142	-0.0040799687
36	0xbbbbe1f6	-0.0057337238
37	0xbbc64b5c	-0.006051464
38	0x3af6fa31	0.0018842873
39	0xbacfcfbd	-0.0015854758

encoder.4.block.5.weight f4 [40]
0	0x3f7057b1	0.93883806
1	0x3f601eab	0.87546796
2	0x3f682d54	0.90694165
3	0x3f5c79e6	0.861235
4	0x3f70550d	0.9387978
5	0x3f7c0e99	0.98459774
6	0x3f861424	1.0474896
7	0x3f38de74	0.72214437
8	0x3f609a30	0.8773527
9	0x3f4bde7c	0.7963636
10	0x3f5f8740	0.8731575
11	0x3f71027a	0.94144404
12	0x3f5a18a8	0.8519387
13	0x3f5dfde1	0.86715513
14	0x3f4d237c	0.8013227
15	0x3f6edef3	0.93308944
16	0x3f51ee64	0.8200438
17	0x3f7385da	0.95126116
18	0x3f6435a2	0.8914434
19	0x3f451bb3	0.7699539
20	0x3f4ac339	0.79204136
21	0x3f66efd3	0.9020969
22	0x3f4a90e1	0.7912732
23	0x3f5b375e	0.8563136
24	0x3f593cd8	0.84858465
25	0x3f3def94	0.7419369
26	0x3f6ab945	0.9168895
27	0x3f7ec9be	0.99526584
28	0x3f6f8617	0.9356398
29	0x3f621c67	0.8832459
30	0x3f6e7f48	0.93162966
31	0x3f53b075	0.8269113
32	0x3f3b74a4	0.73224854
33	0x3f6691e8	0.90066385
34	0x3f75428c	0.9580467
35	0x3f7dd8ab	0.99158734
36	0x3f698a64	0.9122679
37	0x3f6ebe2d	0.93258935
38	0x3f569aa8	0.83829737
39	0x3f60f4d6	0.8787359

encoder.4.block.5.bias f4 [40]
0	0xbe37c402	-0.17945865
1	0x3d5be008	0.05368045
2	0xbd934310	-0.071905255
3	0xbc8656d0	-0.016398817
4	0xbb48229d	-0.003053821
5	0xbc19e894	-0.00939383
6	0xbea55c22	-0.32296854
7	0xbe2ad966	-0.16684493
8	0x3d9d9d42	0.0769601
9	0xbd3a6041	-0.04550195
10	0x3cbc8878	0.023014292
11	0xbd447430	-0.047962368
12	0xbe31cba0	-0.17362833
13	0x3bbd102b	0.0057697496
14	0x3d1045ca	0.035222806
15	0xbdb9844f	-0.09058439
16	0xbdf0406a	-0.11731036
17	0x3d9efd36	0.0776314
18	0x3d9f2823	0.07771327
19	0x3d8f5250	0.06998122
20	0xbd5c3e1f	-0.05377018
21	0xbc8d8d05	-0.017279157
22	0xbd15b4ed	-0.036549497
23	0x3d0ade43	0.03390337
24	0xbca2bb74	-0.019864775
25	0xbe0c02a8	-0.13672888
26	0x3c92b00b	0.01790621
27	0x3dd51c43	0.10405781
28	0xbdca6d4b	-0.09884127
29	0xbd9ab3ea	-0.07553847
30	0xbd248192	-0.04016263
31	0x3d873796	0.06602399
32	0xbd7253b9	-0.059161875
33	0xbd857005	-0.06515507
34	0xbd0f7883	-0.03502704
35	0xbde52082	-0.11187841
36	0xbe063e38	-0.13109672
37	0xbd3988e7	-0.045296576
38	0xbd09b25e	-0.03361737
39	0xbcd229ea	-0.025654752

encoder.4.block.5.running_mean f4 [40]
0	0xbf0b4815	-0.54406863
1	0x3f315d97	0.6928343
2	0xbf55e4a7	-0.8355202
3	0x3e1f371c	0.15548366
4	0x3f097527	0.53694385
5	0xbef517c3	-0.4786969
6	0xbe9ace56	-0.30235547
7	0xbf4ba6a5	-0.79551154
8	0x3ef58b23	0.47957715
9	0x3bfd43c5	0.007729026
10	0x3dd6fd3d	0.1049752
11	0x3d91b79f	0.07115101
12	0x3d8e50b7	0.06948989
13	0x3f0896d9	0.53355175
14	0x3e439c12	0.19102505
15	0xbc1d2754	-0.009591896
16	0xbecf7ce0	-0.4052496
17	0x3e2349fc	0.15946192
18	0x3f203b66	0.62590635
19	0x3edf8d44	0.43662465
20	0x3ed63d38	0.4184358
21	0xbcd575e0	-0.026057184
22	0x3f5c9f35	0.8618043
23	0xbe47687d	-0.19473453
24	0xbe5f18a2	-0.2178674
25	0xbde7a31f	-0.1131041
26	0xbcc920ae	-0.024551716
27	0x3f844bce	1.0335634
28	0x3e695d2b	0.22789447
29	0xbe7e889d	-0.24856801
30	0x3db0abaa	0.08626492
31	0x3eff5560	0.49869823
32	0xbda31992	-0.079638615
33	0xbe855971	-0.260448
34	0xbeb3280a	-0.34991485
35	0xbedc743b	-0.43057427
36	0xbf09681b	-0.5367448
37	0x3e13d3fe	0.14436337
38	0x3eef05cd	0.46684113
39	0xbec46d77	-0.38364765

encoder.4.block.5.running_var f4 [40]
0	0x3fbe02d2	1.4844611
1	0x40032437	2.0490854
2	0x3fcd1db3	1.6024688
3	0x3f46df9a	0.7768494
4	0x3fbc6984	1.4719701
5	0x3fecc6f3	1.8498214
6	0x3faa0329	1.3282214
7	0x3fc4334a	1.5328152
8	0x3fd01c16	1.6258571
9	0x3f47c861	0.7804013
10	0x3fd2cf80	1.6469574
11	0x3f8ba260	1.0908928
12	0x3eec0824	0.4609996
13	0x3fd19cdd	1.6375996
14	0x400cf7fc	2.2026358
15	0x3f00fc69	0.5038515
16	0x3fa02e1d	1.2514073
17	0x3f27bb11	0.65519816
18	0x400004c3	2.0002906
19	0x3f1b4111	0.6064616
20	0x3f1dbb57	0.6161398
21	0x3fe18745	1.7619406
22	0x3fad5c72	1.3543837
23	0x3fb4c9ca	1.4124081
24	0x3f6aabb9	0.9166828
25	0x3f23f33e	0.64043033
26	0x3faaa98f	1.3332995
27	0x3fe008a8	1.7502642
28	0x3f6d7ca6	0.92768323
29	0x3f396435	0.7241853
30	0x3f3f4f4f	0.7473039
31	0x3fb9d6c0	1.4518661
32	0x3eb40518	0.35160136
33	0x3f02c9ce	0.5108918
34	0x3f3e6305	0.7436984
35	0x40104cbf	2.2546842
36	0x3f822ade	1.0169332
37	0x3f1e7d92	0.61910355
38	0x3fd9e651	1.7023412
39	0x3f6b44c9	0.9190183
