VQ-VAE/models/vqvae/model_17.pt (torch, 579012 bytes, 64 tensors)

encoder.0.weight f4 [40, 1, 4, 4]
0	0x3d616780	0.055030346
1	0x3cf0c07c	0.029388659
2	0xbdc81530	-0.09769666
3	0xbcfa8e38	-0.030585393
4	0xbdc5e1fc	-0.09662244
5	0xbcfacf97	-0.030616565
6	0xbc640642	-0.013917508
7	0xbd8fdc48	-0.07024437
8	0xbda69cb1	-0.08135355
9	0xbb95b85e	-0.0045690974
10	0xbdfac3d8	-0.122443855
11	0x3d0aa751	0.03385097
12	0xb93b4c0c	-0.0001786204
13	0xbdab9a54	-0.08379045
14	0x3bbb0a94	0.005708048
15	0x3d200d94	0.03907545
16	0x3cd113c8	0.025522128
17	0x3d9c5e22	0.07635142
18	0xbd4f2fd5	-0.050582726
19	0x3d470138	0.048585147
20	0x3e0b11c4	0.13580996
21	0x3e046cd5	0.12932141
22	0xbbfc7de7	-0.0077054384
23	0x3d0cf353	0.03441174
24	0x3da17506	0.078836486
25	0x3dc7ec2a	0.097618416
26	0xbd893594	-0.06699672
27	0xbd083a05	-0.033258457
28	0x3d6729bd	0.05643629
29	0x3d38aa56	0.04508432
30	0xbc8a5d39	-0.016890155
31	0x3daf9d8c	0.085749716
32	0x3d8e56c7	0.06950145
33	0x3d9a70c1	0.07541037
34	0x3d85ff43	0.06542828
35	0x3d5e8c35	0.05433293
36	0x3d281d8b	0.0410438
37	0x3ce756c3	0.028239613
38	0xbb0ad120	-0.0021181777
39	0x3d9ae004	0.07562259
40	0x3dc58262	0.09644009
41	0x3d8c2299	0.068425365
42	0x3c49d209	0.012318143
43	0x3d6bdbc5	0.057582635
44	0x3d486a87	0.048929717
45	0x3d2d804a	0.042358674
46	0x3ce54f71	0.027991982
47	0x3c1887de	0.009309737
48	0x3c28e3e7	0.010308242
49	0x3db7d7b7	0.08976691
50	0x3d99a455	0.07502047
51	0x3d1bb5da	0.038015224
52	0x3db543c6	0.088508174
53	0x3d40b013	0.047042917
54	0xbc26007c	-0.010131951
55	0xbd9911ff	-0.074741356
56	0x3dd94c52	0.1061026
57	0xbce3816c	-0.027771674
58	0x3b9c7060	0.0047741383
59	0xbd13c3be	-0.036075346
60	0x3d8c3dd0	0.06847727
61	0x3d7cb206	0.061693214
62	0x3cc45f79	0.023971306
63	0x3d2e321e	0.042528264
64	0x3c9bbd90	0.019011289
65	0xbb838659	-0.004013818
66	0x3b698d55	0.003563722
67	0x3d54bf27	0.05194011
68	0x3c67f0eb	0.01415656
69	0xbc0d3952	-0.008619623
70	0x3dbb4e84	0.09145835
71	0xbc7c6229	-0.015404263
72	0xbd46ea96	-0.048563562
73	0xbcccc24a	-0.024994988
74	0x3d379fbe	0.044830076
75	0x3d808f1e	0.062772974
76	0x3d74830c	0.05969529
77	0xbd8e3443	-0.06943562
78	0x3d6ea2f4	0.058260873
79	0x3e0a4df7	0.13506304
80	0xbdaf0a5f	-0.085469
81	0x3cab278f	0.020892886
82	0xbda09a7c	-0.078419656
83	0xbcb15e25	-0.021651337
84	0xbdb95eb8	-0.09051269
85	0xbd7923ab	-0.06082503
86	0xbdcd1019	-0.10012836
87	0x3ce52bb6	0.027974945
88	0xbd81bc7b	-0.06334778
89	0xbd206cce	-0.039166264
90	0xbd917627	-0.07102614
91	0x3d788682	0.06067515
92	0xbdb4ab6d	-0.088217594
93	0xbd47a2b4	-0.04873915
94	0x3d5b546d	0.05354731
95	0xbcffe0b5	-0.031235078
96	0x3c353aad	0.011061353
97	0x3d9c13d6	0.07620971
98	0xbd2177b1	-0.039420787
99	0x3c325e58	0.010886751
100	0x3d5c065a	0.053716995
101	0xbc6a39c8	-0.014296003
102	0xbd2068eb	-0.039162558
103	0xbd2ded6e	-0.04246276
104	0x3d86a418	0.06574267
105	0xbd2bd08b	-0.04194693
106	0xbd6442c8	-0.05572775
107	0x3bcc8e2a	0.006242533
108	0xbda501be	-0.08056973
109	0xbd722587	-0.05911782
110	0xbc931030	-0.017952055
111	0xbd5fb18e	-0.05461269
112	0xbc8d1d2e	-0.017225828
113	0xbb78aa54	-0.003794332
114	0xbdeed0e8	-0.116609395
115	0xbd7c33ac	-0.061572716
116	0xbd083b76	-0.03325983
117	0x3c952533	0.018206215
118	0xbd9fa588	-0.077952445
119	0x3d11d44f	0.035602864
120	0xbdcb9f99	-0.0994255
121	0xbd83b2d4	-0.06430593
122	0x3d141169	0.036149416
123	0xbd652c35	-0.055950362
124	0xbc316665	-0.010827635
125	0x3d6a624d	0.057222653
126	0xbdc83139	-0.097750135
127	0x3b66de7b	0.0035227824
128	0xbd1929b1	-0.037393276
129	0x39a5975c	0.00031584024
130	0xbc80e0e4	-0.015732236
131	0x3cc83d98	0.024443433
132	0xbcf185b7	-0.029482706
133	0x3d00585e	0.031334274
134	0x3d9a3f54	0.0753161
135	0x3cf35c53	0.02970711
136	0x3d8516b6	0.064984724
137	0x3de782e4	0.11304262
138	0xbd5c8e20	-0.05384648
139	0xbb90e650	-0.0044219866
140	0x3e050409	0.1298982
141	0x3d94266b	0.0723389
142	0x3befaf10	0.0073145702
143	0x3d50df30	0.0509941
144	0x3d0b16ba	0.03395722
145	0x3c54feaa	0.01300017
146	0x3d485e5c	0.048918113
147	0x3d09a214	0.033601835
148	0xbd7f0bd0	-0.062267125
149	0xbd8b30d7	-0.06796425
150	0xbdb61f27	-0.088926606
151	0x3d264b66	0.04059925
152	0xbdf4cf3a	-0.11953588
153	0xbd9f4b04	-0.0777798
154	0xbcdc2e7b	-0.026877632
155	0xbcbaebee	-0.022817578
156	0xbd20d13c	-0.03926204
157	0x3d9ecd9c	0.077540606
158	0x3a8f09c4	0.0010912945
159	0x3dc9a67e	0.09846209
160	0x3d64cd74	0.055859998
161	0x3ca7f888	0.020504251
162	0xbd28cd50	-0.041211426
163	0xbd437677	-0.0477204
164	0x3da6b447	0.08139854
165	0x3bccfc45	0.006255659
166	0xbd34b082	-0.044113643
167	0xbd2ada89	-0.041712318
168	0x3d19fdc0	0.03759551
169	0x3d13e849	0.036110196
170	0xbcc8b4aa	-0.02450021
171	0xbd5278da	-0.051384784
172	0x3d73b763	0.059501063
173	0x3da0ef5d	0.07858155
174	0xbd3a2031	-0.045440856
175	0xbda74820	-0.081680536
176	0xbd84814e	-0.064699754
177	0xbab45e05	-0.001376093
178	0x3bd62dd8	0.0065362267
179	0xbaa7d7dd	-0.0012805421
180	0x3c8b070c	0.016971134
181	0xbca74394	-0.020417966
182	0xbce5b972	-0.028042529
183	0xbdb0ee06	-0.08639149
184	0xbd22f048	-0.03977993
185	0xbdb7dc34	-0.08977547
186	0xbda756ed	-0.08170877
187	0xbdde1e39	-0.10845608
188	0xbcb3c112	-0.021942649
189	0xbd724cbf	-0.059155222
190	0x3cd0a5a7	0.025469614
191	0xbd7d3aa6	-0.06182351
192	0x3c439199	0.011936569
193	0x3d35a5bc	0.04434751
194	0x3d3e3feb	0.046447676
195	0xbd27f903	-0.04100896
196	0x3cdee619	0.027209328
197	0xbdc246c8	-0.09486157
198	0xbcd50e1b	-0.026007703
199	0xbd90f9b1	-0.07078875
200	0xbd398c41	-0.045299772
201	0xbd819db3	-0.06328907
202	0x3b3b5e7d	0.0028590255
203	0xbd5b3744	-0.053519502
204	0xbd9b8151	-0.075930245
205	0xbb90840c	-0.0044102725
206	0xbd62bd4d	-0.055356313
207	0xbddd9f31	-0.10821379
208	0xbdc49f8b	-0.09600743
209	0xbdbfc338	-0.09363407
210	0xbd1e2b31	-0.03861541
211	0x3ca4f36c	0.020135604
212	0xbd34183f	-0.043968435
213	0xbd1adf28	-0.037810475
214	0x3c26f578	0.01019036
215	0xbdcfb912	-0.10142721
216	0x3d629ce1	0.055325393
217	0xbd954b5e	-0.07289766
218	0xbd54199b	-0.05178223
219	0xbc50b7dd	-0.012739149
220	0x3d7e8725	0.062140603
221	0x3ce16647	0.02751459
222	0xbbc59364	-0.006029533
223	0xbc874557	-0.016512556
224	0x3c9c8cd5	0.019110123
225	0x3ca13b31	0.019681545
226	0xbc58879a	-0.013215924
227	0x3c34b55d	0.0110295685
228	0x3c759c90	0.014990941
229	0xbd473889	-0.0486379
230	0x3ce7899e	0.028263863
231	0x3c6b2352	0.014351683
232	0x3d63f147	0.055650022
233	0x3d7ed5a5	0.062215466
234	0x3df1246a	0.117745236
235	0x3dc84487	0.097786956
236	0x3d237824	0.039909497
237	0x3db01e57	0.08599537
238	0x3dc93c2b	0.09825929
239	0x3d2d0288	0.042238742
240	0x3bf4f651	0.0074756523
241	0xbdb82206	-0.089908645
242	0x3cbe07cc	0.023197077
243	0xbd4df645	-0.05028369
244	0xbcd94a77	-0.026524765
245	0xbca2296e	-0.019795146
246	0xbd3cb64b	-0.046072286
247	0xbd19ef0b	-0.037581485
248	0xbda762be	-0.081731305
249	0xbc647e45	-0.013946121
250	0xb9a2dbf7	-0.00031062934
251	0xbd7f90e7	-0.06239405
252	0x3c0e3cff	0.008681535
253	0xbd381db1	-0.04495019
254	0xbd60fb9f	-0.054927465
255	0x3986ff87	0.00025748854

encoder.0.bias f4 [40]
0	0xbb339904	-0.0027404437
1	0xba96fd16	-0.0011519517
2	0xbad4488b	-0.0016195936
3	0xbb3c10dc	-0.0028696572
4	0xbb519653	-0.003198047
5	0x3a76d23e	0.0009415484
6	0x3ac08f1d	0.0014691089
7	0x39ffe275	0.00048806114
8	0xba4825a0	-0.0007635001
9	0x3b43093e	0.0029760147
10	0x3abd3094	0.0014434033
11	0xba832af4	-0.0010007308
12	0xbab894bd	-0.0014082413
13	0xb886b935	-6.4241154e-05
14	0xb9ce2db9	-0.00039325448
15	0x3b069cde	0.0020540277
16	0xba3a1dac	-0.00070997584
17	0xbae5a757	-0.0017521185
18	0xb7ca60f3	-2.4125422e-05
19	0x3a80f92b	0.0009839883
20	0xbb89b518	-0.0042024963
21	0xba2b29b6	-0.0006529348
22	0xbaadb55f	-0.0013252905
23	0xbb537d78	-0.003227083
24	0x3ac976b4	0.0015370459
25	0xba8555fa	-0.0010172718
26	0x3acda120	0.0015688278
27	0x37173af6	9.014029e-06
28	0x398afed2	0.00026511267
29	0x3a91da72	0.0011127724
30	0x3af738de	0.0018861552
31	0x3b6b6d40	0.0035923272
32	0xb9d84527	-0.00041250253
33	0xbb154520	-0.0022776797
34	0x3b6fa11c	0.0036564535
35	0xb95abfea	-0.00020861594
36	0xba8d818d	-0.0010796055
37	0xbaf531ca	-0.0018706855
38	0xba1e8150	-0.0006046491
39	0xba1c0e46	-0.00059530546

encoder.1.weight f4 [40]
0	0x3f682168	0.90675974
1	0x3f61895e	0.8810023
2	0x3f6d6f30	0.92747784
3	0x3f5fd627	0.87436146
4	0x3f594d08	0.84883165
5	0x3f7a15c9	0.9768949
6	0x3f653ca9	0.89545685
7	0x3f5ae916	0.8551191
8	0x3f68610c	0.9077308
9	0x3f6054c1	0.87629324
10	0x3f6994ee	0.91242874
11	0x3f6852f7	0.90751594
12	0x3f784b00	0.9698944
13	0x3f65f6c1	0.8982964
14	0x3f6d5141	0.9270211
15	0x3f809563	1.0045589
16	0x3f68c6aa	0.9092814
17	0x3f75b5c1	0.9598046
18	0x3f63e4c9	0.89020973
19	0x3f7cccb1	0.98749834
20	0x3f62d8f8	0.8861232
21	0x3f68b023	0.90893763
22	0x3f5b72f8	0.85722303
23	0x3f664f22	0.899645
24	0x3f542ba3	0.82879084
25	0x3f680f60	0.9064846
26	0x3f5f1156	0.8713583
27	0x3f5dd1b3	0.866481
28	0x3f5d3ef2	0.8642417
29	0x3f733dc8	0.95016146
30	0x3f7184a4	0.9434302
31	0x3f65682f	0.89612097
32	0x3f77282f	0.9654569
33	0x3f6bc0cc	0.9209106
34	0x3f70f1bd	0.94118863
35	0x3f5ca8fa	0.8619534
36	0x3f7c3b95	0.98528415
37	0x3f82f698	1.0231504
38	0x3f849302	1.0357363
39	0x3f67ad3a	0.904987

encoder.1.bias f4 [40]
0	0xbc7dfc74	-0.015502084
1	0xbc9078a6	-0.017635655
2	0x3cf7b37d	0.030236954
3	0x3d5d88f2	0.05408568
4	0x38c88c33	9.562857e-05
5	0xbd6b18c9	-0.057396684
6	0xbd8a474f	-0.06751882
7	0xbd773f60	-0.060363173
8	0x3ce5e7bc	0.028064601
9	0x3d129d8c	0.03579478
10	0xbb233add	-0.0024906911
11	0xbd1b6476	-0.037937604
12	0xbda2d293	-0.0795032
13	0xbd6b5340	-0.05745244
14	0x3da4c624	0.08045605
15	0xbd1dcfc9	-0.038528237
16	0xbcb4ac96	-0.022054952
17	0xbd6ec7fe	-0.058296196
18	0xbd8f312a	-0.06991799
19	0xbd3a5bf9	-0.04549787
20	0xbc092103	-0.008369687
21	0xbcebc264	-0.028779216
22	0x3e22a1eb	0.1588208
23	0xbcffbac5	-0.031216988
24	0x3df08395	0.11743847
25	0xbcdbbdc9	-0.026823895
26	0x3e3f4b62	0.186811
27	0x3e0becf3	0.13664608
28	0xbd93412e	-0.071901664
29	0x3b270ada	0.0025488646
30	0xbd03d376	-0.032184087
31	0xbd81d07c	-0.06338593
32	0xbcd998fd	-0.026562208
33	0x3e0e3d32	0.13890532
34	0xbc024f25	-0.00795344
35	0xbd1f7a33	-0.038934898
36	0xbd6f9f78	-0.05850169
37	0xbde65646	-0.11246924
38	0xbd945f1c	-0.07244703
39	0xbd1f73cc	-0.038928792

encoder.1.running_mean f4 [40]
0	0x3eaa110d	0.33216134
1	0xbedcd349	-0.43129948
2	0xbf0545ad	-0.5205944
3	0xbead05bb	-0.33793435
4	0xbe79f12f	-0.2440841
5	0x3ed8c35e	0.42336553
6	0x3e1eecb0	0.15519977
7	0x3eaa2eb7	0.33238766
8	0xbea05b0e	-0.3131947
9	0x3e0cd637	0.13753591
10	0x3b735cf7	0.0037134269
11	0x3ed8904c	0.4229759
12	0x3eaea274	0.34108317
13	0x3e8e3707	0.27776358
14	0xbee29e9a	-0.44261628
15	0x3eaccf74	0.33752024
16	0xbe8b3a2c	-0.2719282
17	0x3f01254b	0.5044753
18	0x3eb00f35	0.34386602
19	0x3e9456c0	0.28972435
20	0xbe850a0c	-0.25984228
21	0x3e795302	0.24348071
22	0xbe4e1d1f	-0.20128296
23	0x3e86fc40	0.26364326
24	0xbe062acc	-0.13102263
25	0x3e11c542	0.14235404
26	0xbe35c74a	-0.17751804
27	0xbdabd46e	-0.08390127
28	0x3e42afe1	0.19012405
29	0x3ea83825	0.32855335
30	0x3eae0276	0.33986253
31	0x3e905ed3	0.28197345
32	0x3e7f7c31	0.24949719
33	0xbe8af73e	-0.27141756
34	0x3e75ab93	0.23991232
35	0xbe6d3a29	-0.23166718
36	0x3ef17af9	0.47164133
37	0x3eb139bc	0.3461436
38	0x3ec6f33e	0.38857454
39	0x3e292aaa	0.16520181

encoder.1.running_var f4 [40]
0	0x3d6daaa6	0.05802407
1	0x3db11b92	0.08647837
2	0x3dd42e30	0.10360372
3	0x3d7b6519	0.06137571
4	0x3d022cc3	0.03178097
5	0x3db891f1	0.09012211
6	0x3ce5f6a8	0.028071716
7	0x3d3e052a	0.046391644
8	0x3d655991	0.05599362
9	0x3d120c3d	0.035656203
10	0x3d08e500	0.033421516
11	0x3d98bfcd	0.07458458
12	0x3d781142	0.060563333
13	0x3d1ba74c	0.038001344
14	0x3db9c09c	0.090699404
15	0x3d313864	0.04326667
16	0x3d4b1a08	0.049585372
17	0x3dde2baa	0.10848172
18	0x3d59f63e	0.05321335
19	0x3d39c31f	0.045352098
20	0x3d0704c1	0.032963518
21	0x3d047fc9	0.032348428
22	0x3c9e818a	0.019348878
23	0x3d4f0918	0.05054578
24	0x3cfcb823	0.030849522
25	0x3d2795ee	0.04091447
26	0x3d0805ed	0.033208776
27	0x3cfafe53	0.03063885
28	0x3d329e34	0.043607906
29	0x3d7b729f	0.061388608
30	0x3da2cc04	0.07949069
31	0x3d6658f0	0.05623716
32	0x3d1467f4	0.03623195
33	0x3d24deea	0.04025165
34	0x3cb7a8e6	0.022419404
35	0x3d430d72	0.047620244
36	0x3de939d4	0.11387983
37	0x3d5f4213	0.054506373
38	0x3d78669d	0.060644735
39	0x3ce5f75e	0.028072055

encoder.3.weight f4 [40, 40, 4, 4]
0	0xbc1c1968	-0.009527542
1	0xbccb6049	-0.024826186
2	0x368c0f31	4.1740936e-06
3	0xbd2e8da1	-0.042615537
4	0x3ae963e4	0.0017806259
5	0xbcee4fad	-0.029090727
6	0xbd4ac40e	-0.04950338
7	0xbac7e7fb	-0.0015251631
8	0x3c9e1493	0.01929692
9	0x3d15c12f	0.036561187
10	0xbd0c99ee	-0.034326486
11	0x3cc163b9	0.023607122
12	0x3d430b22	0.04761804
13	0x3d219c3a	0.03945563
14	0x3c48c201	0.012253285
15	0x3b1ba78e	0.0023750993
16	0xbcd19778	-0.025584921
17	0xbc102e53	-0.008800107
18	0x3d4720f3	0.048615407
19	0xbd17c9d2	-0.037057705
20	0xbcb8a31e	-0.022538718
21	0xbd336113	-0.04379375
22	0x3cf89bf2	0.030347798
23	0x3d534d00	0.051587105
24	0x3d235734	0.039878085
25	0x399b7b16	0.0002965561
26	0xbc891201	-0.016732218
27	0x3d872f46	0.066008136
28	0x3adf9651	0.0017058348
29	0x3ba4cf80	0.0050296187
30	0x3d70bfad	0.058776546
31	0xbc85dc6e	-0.01634046
32	0xbd0dd959	-0.034631107
33	0xbce68edd	-0.028144294
34	0xbc6b81da	-0.014374221
35	0xbd25eca0	-0.040508866
36	0x3c4d0584	0.012513522
37	0xbd919f53	-0.07110467
38	0xbd8801ed	-0.06640992
39	0xbcd3c346	-0.02584995
40	0x3ce20661	0.027590932
41	0xbc059a25	-0.008154427
42	0xbd96f9f6	-0.07371895
43	0x3c7a8612	0.015290754
44	0x3da05e35	0.078304686
45	0xbd407b09	-0.046992335
46	0xbc036bc8	-0.0080213025
47	0xbb16a2e1	-0.0022985267
48	0x3d2dbab1	0.04241437
49	0xbd5f5493	-0.054524016
50	0xbcec294f	-0.028828291
51	0x3cfe77e1	0.031063022
52	0x3c4106dd	0.0117814215
53	0xbd4f4b83	-0.050609123
54	0xbccc53a7	-0.024942232
55	0xbc69fc15	-0.014281292
56	0x3d1a67a2	0.03769649
57	0xbd2269e4	-0.039651766
58	0x3cd4d536	0.025980573
59	0x3d59399a	0.05303345
60	0xbc80cdfc	-0.015723221
61	0x3d473292	0.048632212
62	0xbd32992b	-0.043603104
63	0xbcf8cb94	-0.030370511
64	0x3cf0293e	0.02931654
65	0x3b9c3116	0.0047665937
66	0xbcc718a0	-0.024303734
67	0x3c4dd6cc	0.012563419
68	0x3d16c25f	0.03680646
69	0xbc0f17c1	-0.008733691
70	0x3bec3276	0.007208164
71	0xbbcf7e93	-0.0063322275
72	0xbd304554	-0.043034866
73	0x3d811283	0.06302359
74	0xbbf20604	-0.007385971
75	0x3cf7e079	0.030258404
76	0xbd41212a	-0.04715077
77	0x3b4f9c81	0.0031678977
78	0x3c3ef7e8	0.011655785
79	0xbc42b72d	-0.011884493
80	0xbce815ce	-0.02833071
81	0x3cc31927	0.023815705
82	0xbc0de09d	-0.008659509
83	0x3a0d3dab	0.00053879124
84	0xbd578256	-0.052614532
85	0x3c129e25	0.008948837
86	0x3d1763e3	0.036960494
87	0xbcf6b708	-0.030116573
88	0xbd3a779d	-0.04552423
89	0x3d841ad6	0.06450431
90	0xbd677045	-0.056503553
91	0xbd97c80c	-0.07411203
92	0x3d13e095	0.03610285
93	0x3d61193e	0.054955713
94	0xbd24b989	-0.040216003
95	0xbbad7110	-0.005293019
96	0x3d1dead2	0.03855402
97	0x3d066f4b	0.03282098
98	0x3c1500ca	0.009094426
99	0x3c57948a	0.013157973
100	0xbce76c85	-0.028249988
101	0xbd2871a5	-0.041124005
102	0xbd504e7a	-0.05085609
103	0x3d6e71fb	0.05821417
104	0x3c46ed56	0.012141546
105	0x3d7f4e67	0.06233063
106	0x3d885d42	0.066584125
107	0x3d14a769	0.036292467
108	0x3d3819c1	0.044946436
109	0x38b7880d	8.7514614e-05
110	0xbcaf3ad6	-0.02139036
111	0xbcfc4058	-0.0307924
112	0x3cc62278	0.024186358
113	0x3d2713d4	0.040790394
114	0x3d3355d6	0.04378303
115	0xbd4086ff	-0.047003742
116	0x3c23b549	0.009991952
117	0xbd028aa1	-0.031870488
118	0x3cf945c6	0.030428778
119	0x3d08fdb6	0.033445083
120	0xbbd6e200	-0.006557703
121	0xbced57ab	-0.028972467
122	0xbbb06bcd	-0.0053839446
123	0xbc8b2319	-0.01698451
124	0xbd31729a	-0.043322183
125	0x3d09aa1d	0.0336095
126	0x3cc4044c	0.02392783
127	0xbceff771	-0.029292794
128	0xbc09b345	-0.008404558
129	0xbd97311e	-0.07382415
130	0xbcc3b4ba	-0.023889888
131	0xbc343770	-0.010999545
132	0x3d4ca0b3	0.049957942
133	0xbcefbfa5	-0.029266188
134	0x3ca19fbf	0.019729493
135	0xbcd6f9f5	-0.026242236
136	0x3c28d9ce	0.010305835
137	0xbb301d30	-0.0026872866
138	0x3d0c4505	0.03424551
139	0xbc992ae5	-0.018697212
140	0xbc8db7f3	-0.017299628
141	0x3d28159d	0.041036237
142	0x3c82868e	0.015933301
143	0xbc1b51f1	-0.009479986
144	0x3cd30f38	0.025764093
145	0x3be71aab	0.0070527396
146	0xbc4864c1	-0.012231053
147	0x3c3cbc5d	0.011519519
148	0x3bb904ab	0.0056463084
149	0x3d0addeb	0.033903044
150	0xbd33487f	-0.04377031
151	0xbb90075e	-0.0043954095
152	0x3cc8ce16	0.024512332
153	0x3c7c6a2f	0.0154061755
154	0x3ccc3975	0.024929741
155	0x3d24eb80	0.040263653
156	0x3c352e66	0.0110584255
157	0xbd1c974a	-0.038230218
158	0x3d0c60a9	0.03427187
159	0x3c21a043	0.0098648695
160	0x3b873faf	0.0041274647
161	0x3b516edd	0.0031956949
162	0x3d3dfa25	0.046381135
163	0x3c493250	0.012280062
164	0xbd66ed3b	-0.056378584
165	0x3deec17e	0.116579995
166	0x3c916bf1	0.017751666
167	0xbd8d2fcf	-0.068938844
168	0xbd4657ac	-0.048423454
169	0x3d7884c4	0.06067349
170	0x3d8c8abf	0.06862401
171	0xbbce4515	-0.0062948563
172	0x3d59d704	0.05318357
173	0x3d4dfb3f	0.050288435
174	0x3c9e4cfe	0.019323822
175	0x3c9cadc9	0.019125836
176	0xbd48ac3d	-0.048992384
177	0x3b9f43be	0.0048603704
178	0x3cb2749c	0.02178412
179	0x3d928670	0.07154548
180	0x3ca189ac	0.019718967
181	0xbc4614f9	-0.012089961
182	0xbd41fcb7	-0.04736015
183	0x3cbc093b	0.02295362
184	0xbcab4cc1	-0.020910623
185	0xbd23ce21	-0.0399915
186	0x3d004718	0.0313178
187	0xbc2abe16	-0.010421297
188	0xbd63ec7e	-0.05564546
189	0xbc16d487	-0.009205944
190	0x3c1a8c49	0.009432861
191	0x3d51134a	0.051043786
192	0xbd026f73	-0.031844568
193	0x3d3d1aff	0.046168324
194	0xbc29c335	-0.010361482
195	0xbd3ec538	-0.0465748
196	0xbd0f844f	-0.03503829
197	0xbd2bcbea	-0.041942514
198	0x3d204b8d	0.03913455
199	0xbbc0a8ee	-0.005879513
200	0xbd1b7825	-0.037956376
201	0xbc517be7	-0.012785888
202	0xbca4fd04	-0.020140179
203	0x3c116e94	0.008876462
204	0x3cdf5fdd	0.02726739
205	0x3bfa55dc	0.0076396298
206	0x3ccd17db	0.02503579
207	0xbd2940c1	-0.04132152
208	0xbd5390dd	-0.051651824
209	0xbca9db2d	-0.020734394
210	0x3c609df9	0.013709539
211	0x3cb76db7	0.022391183
212	0x3d8a660a	0.06757744
213	0x3dc6de02	0.097103134
214	0xbd0b1890	-0.03395897
215	0xbc17c06c	-0.009262186
216	0x3d54d7e6	0.05196371
217	0x3aff65a7	0.0019485251
218	0x3c934608	0.01797773
219	0x3c473e1e	0.012160806
220	0x3d324e55	0.043531734
221	0xbc01e464	-0.007927988
222	0xbbcfcb21	-0.0063413535
223	0x3c3d1f04	0.011543039
224	0x3d0434e0	0.032276988
225	0xbd068edf	-0.032851096
226	0x3d15b89c	0.03655301
227	0x3d45da73	0.048304033
228	0x3ce76c16	0.028249782
229	0xbd8a4151	-0.06750739
230	0xbcc6b9f9	-0.0242586
231	0x3d5af4fc	0.05345629
232	0x3d4448ef	0.047921117
233	0x3aa15ecf	0.001231158
234	0x3cc72564	0.024309821
235	0x3d18fe34	0.037351802
236	0x3cbddef5	0.023177603
237	0x3d57e5f1	0.052709524
238	0xbd0068ba	-0.031349875
239	0xbc835b7b	-0.016034832
240	0x3d0bbd71	0.034116212
241	0xbd865024	-0.06558254
242	0xbc983003	-0.018577581
243	0x3cbaffc7	0.022827042
244	0x3c39c974	0.011339534
245	0xbd44b991	-0.048028532
246	0x3d124333	0.035708617
247	0xbc533f06	-0.012893444
248	0x3d91130f	0.07083713
249	0x3b338aea	0.0027396032
250	0xbd2184fd	-0.039433468
251	0x3c9a4238	0.018830404
252	0x3d08c90c	0.03339486
253	0xbbe1ad3d	-0.0068871067
254	0x3cae51d2	0.02127925
255	0xbd446733	-0.04794998

encoder.3.bias f4 [40]
0	0x3c98f410	0.018671066
1	0x3cd8c796	0.026462357
2	0xbc2aa3bf	-0.010415017
3	0xbc74534e	-0.0149124395
4	0x3d3df8bf	0.0463798
5	0xbb7c5b8f	-0.0038506722
6	0x3dbd816d	0.09253202
7	0xbc6a7464	-0.014309976
8	0x3bebe1e9	0.0071985614
9	0xbbd97bb2	-0.00663706
10	0x3bd176db	0.0063923425
11	0xb9be41e8	-0.00036288728
12	0xbc735ada	-0.014853204
13	0x3bb17fad	0.0054168315
14	0xb9511916	-0.00019941138
15	0x3c996dec	0.018729173
16	0xbbc24d7f	-0.0059296484
17	0xbc49ece4	-0.0123245455
18	0xbc5f05ea	-0.01361225
19	0xbc8f9b4e	-0.01753011
20	0xbbdba789	-0.0067033214
21	0x39190b97	0.00014595535
22	0x3db3fab2	0.08788051
23	0xbbc025ed	-0.005863896
24	0xbccd312a	-0.025047857
25	0x3c110138	0.008850388
26	0x3c09ee2d	0.008418602
27	0xbb7a799e	-0.0038219462
28	0x3c51b8a5	0.01280037
29	0x3c10440f	0.008805289
30	0xbc5bbed1	-0.013412193
31	0xbc3923c8	-0.011300035
32	0xbd0523f7	-0.032505002
33	0xbbe73047	-0.0070553157
34	0xbc7ba530	-0.015359208
35	0xbc0c06de	-0.008546559
36	0xbc3e63b7	-0.011620454
37	0xbbf124a8	-0.007359106
38	0xbb9e900e	-0.00483895
39	0xbb60983f	-0.0034270433

encoder.4.block.1.weight f4 [40, 40, 3, 3]
0	0x3c9a068e	0.018801954
1	0xbd35b474	-0.044361547
2	0xbd46c3b7	-0.048526492
3	0xbd426437	-0.047458854
4	0xbdbe0236	-0.092777655
5	0xbdbc9042	-0.092072025
6	0xbd7ef2ee	-0.062243395
7	0xbdab4f23	-0.083647035
8	0xbd3ee2a3	-0.046602856
9	0xbc9fd369	-0.019509988
10	0xbbfd7191	-0.0077344854
11	0x3dcb1eb6	0.09917967
12	0x3d7ac543	0.06122328
13	0x3c53d816	0.012929937
14	0xbdc9fd6d	-0.0986279
15	0xbcd50dad	-0.026007498
16	0x3d7fc783	0.06244613
17	0x3d80ea06	0.062946364
18	0x3b9a17c3	0.0047025396
19	0x3d0c2731	0.034217063
20	0x3d8e3163	0.069430135
21	0x3d90625e	0.07050012
22	0x3d9d8bee	0.07692705
23	0xbcbeeb51	-0.023305567
24	0x3b42e3cf	0.0029737835
25	0x3d1ca145	0.038239736
26	0x3d8ad0ac	0.06778082
27	0xbcb6221d	-0.022233063
28	0x3cad9527	0.021189285
29	0x3d8a6eaa	0.06759389
30	0xbd8d4d71	-0.068995364
31	0xbcee7b5e	-0.02911156
32	0xbdb2a20f	-0.087223165
33	0xbd7af60f	-0.061269816
34	0x3d4f7bd3	0.050655197
35	0xbd72c1d2	-0.059266873
36	0xbd67aa0b	-0.05655865
37	0xbc7350ad	-0.014850778
38	0x3d1a70da	0.03770528
39	0x3dfc7eec	0.12328896
40	0x3cbc8312	0.023011718
41	0xbdc3e624	-0.0956538
42	0x3c8c6887	0.017139686
43	0x3cd837d2	0.026393805
44	0xbb921905	-0.004458549
45	0x3ac60189	0.0015106659
46	0xbd50e52e	-0.050999813
47	0x3cd63d80	0.026152372
48	0x3e0fe6b9	0.14052857
49	0x3d179a09	0.037012134
50	0xbc469c8d	-0.012122286
51	0x3da5c697	0.08094519
52	0xbd34c433	-0.044132423
53	0xbd5addc7	-0.05343416
54	0xbbc7e078	-0.006099757
55	0x3dbcc81a	0.09217854
56	0x3c8ed2f5	0.017434577
57	0x3d8a4508	0.06751448
58	0x3db68362	0.08911778
59	0xbd6d3e05	-0.057920475
60	0xbb3c1d37	-0.0028703937
61	0x3d5b7f5f	0.053588267
62	0x3c3364d2	0.01094933
63	0xbd8cc295	-0.06873051
64	0xbc7d0582	-0.015443208
65	0x3d764536	0.0601246
66	0xbd844600	-0.06458664
67	0x3d5b4a8d	0.053537894
68	0xbb8347d7	-0.0040063667
69	0x3b012c45	0.0019710225
70	0xbda85c87	-0.08220773
71	0xbd81541e	-0.06314872
72	0xbccf294a	-0.025288243
73	0xbcf9b04e	-0.030479576
74	0xbd3e8ace	-0.046519093
75	0x3cdde102	0.027084831
76	0x3d448d49	0.047986303
77	0xbc497bf8	-0.012297623
78	0xbd688bb6	-0.056773864
79	0xbd97eee2	-0.0741861
80	0x3cf140f2	0.029449914
81	0x3d860603	0.065441154
82	0xbd06a540	-0.03287244
83	0xbcd48963	-0.025944417
84	0x3d877e27	0.066158585
85	0x3dc1b512	0.094583645
86	0xbde662b0	-0.11249292
87	0xbdd377fe	-0.10325621
88	0x3d1a0d3c	0.037610278
89	0xbcefca98	-0.029271409
90	0x3d4df338	0.05028078
91	0xbd0cd91e	-0.034386747
92	0xbd3c5769	-0.0459818
93	0xbd1e7d9e	-0.038694017
94	0xbd6b3deb	-0.057432096
95	0x3d287320	0.041125417
96	0x3d0e7df2	0.03478808
97	0xbca37edd	-0.019957954
98	0xbd248c89	-0.040173087
99	0xbd0d11f8	-0.034440964
100	0xbc298664	-0.010346983
101	0xbccedcdd	-0.0252518
102	0x3d8fc657	0.07020252
103	0x3da12f35	0.07870332
104	0xb85d7266	-5.2797048e-05
105	0xbc8424e2	-0.016130868
106	0xbd712b0b	-0.05887894
107	0xbcfe1161	-0.031014146
108	0xbd29af25	-0.041426796
109	0x3d936a41	0.07198001
110	0xbd23c4d1	-0.03998262
111	0xbdba9361	-0.091101415
112	0x3cdc5ec5	0.026900658
113	0x3bb32de0	0.005468115
114	0xbdbfb7fc	-0.09361264
115	0xbcc51795	-0.024059096
116	0xbcfa04fe	-0.030519959
117	0x3d0a0b11	0.03370196
118	0x3be36542	0.006939561
119	0xbd6ef087	-0.058334854
120	0x3d0b429b	0.033999067
121	0xbd3fe713	-0.04685123
122	0xbd5468d3	-0.05185778
123	0x3c9f5f26	0.01945455
124	0xbd257b0d	-0.040400553
125	0x3d50ba24	0.050958768
126	0x3b19f0b4	0.0023489418
127	0x3d0acd21	0.033887032
128	0xbd5cf8a3	-0.053948056
129	0x3e38ce5a	0.18047467
130	0xbd99f5e9	-0.07517607
131	0xbb8f8114	-0.004379401
132	0x3c54a690	0.012979165
133	0x3d3f98b5	0.046776492
134	0xbdd85d63	-0.10564687
135	0x3b124d3b	0.0022323865
136	0x3cdf4a5a	0.027257133
137	0x3d403836	0.046928607
138	0x3cda57d7	0.026653213
139	0x3bca55d5	0.0061747828
140	0x3c87781e	0.016536769
141	0xba39bfb3	-0.00070857554
142	0x3c9c2abb	0.019063344
143	0xbd5a2cf2	-0.05326552
144	0xbcdaf635	-0.026728729
145	0xbd67fd75	-0.0566382
146	0xbdb0f984	-0.08641341
147	0x3da1296a	0.07869227
148	0xbd4dc5ff	-0.050237652
149	0x3cfc8b16	0.03082804
150	0xbd8f9080	-0.07009983
151	0xbd1c59ad	-0.03817146
152	0x3c61a97c	0.013773318
153	0x3db10d72	0.086451426
154	0x3d057118	0.032578558
155	0xbc9d673f	-0.01921427
156	0xbcac8c53	-0.021063006
157	0xbd8b18ed	-0.067918636
158	0xbd21fa9a	-0.039545633
159	0xbd3551cc	-0.04426746
160	0x3d57d19d	0.052690137
161	0x3c87717a	0.016533602
162	0x3d89fcec	0.06737694
163	0x3d16d6ff	0.03682613
164	0xbd664bac	-0.05622451
165	0x3d8b9b7b	0.06816765
166	0xbbd13f7a	-0.006385741
167	0x3c16f029	0.009212532
168	0x3dc08f06	0.094022796
169	0xbd76d961	-0.060265902
170	0x3c6aaf1e	0.014323978
171	0x3d91c3b4	0.071174055
172	0xbc1fa3d6	-0.009743651
173	0xbd0341f1	-0.03204531
174	0xbd9d9475	-0.076943316
175	0xbcab40ab	-0.02090486
176	0x3d0cb50b	0.034352344
177	0xbe154dab	-0.14580409
178	0xbd5c2c63	-0.053753268
179	0xbd0ca81c	-0.03434001
180	0xbc4486db	-0.011995043
181	0x3d9847ab	0.074355446
182	0xbcc0cde9	-0.023535686
183	0x3d84f1f1	0.06491459
184	0xbd9d72fa	-0.07687946
185	0xbcbfee1a	-0.023428965
186	0xbcfd3d23	-0.030912941
187	0x3d926baa	0.071494415
188	0x3db14205	0.0865517
189	0xbd061cb4	-0.032742217
190	0x3d36607d	0.044525612
191	0xbdbaf57f	-0.09128856
192	0x3b700883	0.0036626167
193	0x3beea727	0.0072831097
194	0xbd6e1247	-0.0581229
195	0xbd45d28d	-0.0482965
196	0x3da4878c	0.08033666
197	0x38a80f7f	8.0137506e-05
198	0x3c8ea098	0.017410561
199	0xbbc60104	-0.0060426015
200	0x3d2815d3	0.04103644
201	0xbd034c17	-0.032054987
202	0x3d1ecb1f	0.03876793
203	0xbd4ea12b	-0.05044667
204	0xbc9d335b	-0.019189527
205	0xbdb2b519	-0.08725948
206	0x3b0faaf7	0.0021921971
207	0x3d55933a	0.05214236
208	0x3d4bb113	0.049729418
209	0xbdba6b48	-0.091024935
210	0xbc84a8c7	-0.01619376
211	0xbd999d87	-0.07500749
212	0xbb8f01d4	-0.0043642316
213	0xbca3f3a7	-0.020013643
214	0x3ac08d94	0.0014690631
215	0x3d643ddd	0.05572306
216	0x3d67a80d	0.05655675
217	0xbd3e4d0c	-0.046460196
218	0x3c9a430a	0.018830795
219	0x3d93012e	0.071779594
220	0x3e0425b6	0.1290501
221	0x3bcffad0	0.006347038
222	0x3cc58aa7	0.024113966
223	0x3c9c43f3	0.01907537
224	0x3d97ea7d	0.07417772
225	0xbb81f973	-0.0039665042
226	0x3b3e2cd3	0.0029018417
227	0xbcf57513	-0.029963052
228	0xbe03ed9a	-0.12883607
229	0x3e27664b	0.16347615
230	0x3cdd20f7	0.026993258
231	0x3d8425cf	0.06452524
232	0x3ce094d5	0.027414719
233	0x3bbdc8f1	0.0057917763
234	0x3c32f58c	0.010922801
235	0x3db0dbfc	0.08635709
236	0x3d6b4e88	0.05744794
237	0x3d1d12ad	0.03834789
238	0x3d9e335a	0.07724638
239	0x3cfa011c	0.030518107
240	0xbd04c7a8	-0.03241697
241	0xbd9355aa	-0.071940735
242	0xbd39e85d	-0.045387615
243	0xbd5e7004	-0.054306045
244	0xbce21a3b	-0.027600398
245	0xbd2f68ce	-0.04282456
246	0x3da6e596	0.08149259
247	0xbb4ab555	-0.0030930836
248	0x3d638160	0.055543303
249	0xbcb885bd	-0.022524709
250	0x3c5587a6	0.013032829
251	0xbdcb805b	-0.09936591
252	0x3d1ce252	0.038301773
253	0xbb19b056	-0.0023451052
254	0x3dfd27aa	0.12361081
255	0x3c400d71	0.011721955

encoder.4.block.1.bias f4 [40]
0	0x3b3630b2	0.002780002
1	0xbbad57d4	-0.005290011
2	0xb9dd5644	-0.00042216678
3	0x3a0a2dfd	0.0005271135
4	0xb9fb1822	-0.0004789243
5	0x3b2c7765	0.0026316282
6	0x3abac093	0.0014248065
7	0x39df4f2d	0.00042592865
8	0x3a3c975d	0.0007194186
9	0xba754a91	-0.00093571196
10	0x3b95c035	0.004570032
11	0x3c0957a4	0.008382712
12	0xb9bb358a	-0.0003570731
13	0x3ad6ea97	0.0016396818
14	0xb9accb6f	-0.00032957966
15	0x3a9b62cf	0.0011855009
16	0xbafcf2d2	-0.001929844
17	0xbabe6c71	-0.0014528168
18	0x3a0cbe59	0.000536894
19	0x3aa320b8	0.0012445664
20	0xb94aa366	-0.00019325092
21	0x38a0b8b6	7.6637996e-05
22	0xb9e50799	-0.00043683944
23	0xbb0f9bc0	-0.0021912903
24	0x3b65deec	0.0035075499
25	0xba153a44	-0.0005692581
26	0x3a92066a	0.0011140828
27	0x3bab7ff5	0.0052337595
28	0x3896b7e0	7.186807e-05
29	0x3a3633e0	0.0006950479
30	0x3ad6cbcb	0.0016387639
31	0x3ad82a7e	0.0016492156
32	0x3ac7f770	0.0015256237
33	0x3b1341e6	0.0022469698
34	0xb9bfcf31	-0.00036584729
35	0x3b9a5d2a	0.004710813
36	0xbb4c05e4	-0.003113144
37	0x39a65bce	0.00031730387
38	0x3978fce6	0.00023745335
39	0x3b2d0f5c	0.002640686

encoder.4.block.2.weight f4 [40]
0	0x3f8a46d0	1.080286
1	0x3f6db805	0.92858917
2	0x3f6e4343	0.93071383
3	0x3f7396ca	0.9515196
4	0x3f6d7aff	0.927658
5	0x3f74a839	0.9556919
6	0x3f762629	0.9615198
7	0x3f73ef15	0.95286685
8	0x3f695e11	0.9115916
9	0x3f5a7f59	0.8535057
10	0x3f81de0e	1.0145891
11	0x3f7ba77e	0.9830245
12	0x3f7b3812	0.9813243
13	0x3f95a71a	1.169162
14	0x3f87a6b8	1.0597754
15	0x3f84b313	1.0367149
16	0x3f83193a	1.0242074
17	0x3f61ff81	0.88280493
18	0x3f7c31df	0.985136
19	0x3f8825f7	1.0636586
20	0x3f75b33e	0.95976627
21	0x3f8c7d79	1.0975791
22	0x3f571137	0.8401064
23	0x3f775147	0.96608394
24	0x3f62e0ca	0.8862425
25	0x3f722c6f	0.9459905
26	0x3f9439f3	1.1580185
27	0x3f8618ac	1.0476279
28	0x3f86a7b1	1.0519925
29	0x3f88c22d	1.0684258
30	0x3f8db8a5	1.1071974
31	0x3f897973	1.0740188
32	0x3f78581e	0.97009456
33	0x3f906023	1.1279339
34	0x3f7cd92a	0.98768866
35	0x3f879995	1.0593745
36	0x3f6efb84	0.9335253
37	0x3f5ee99e	0.8707522
38	0x3f86f2f9	1.0542899
39	0x3f6e1d56	0.93013513

encoder.4.block.2.bias f4 [40]
0	0x3e2128aa	0.15738168
1	0xbdea0e85	-0.11428551
2	0xbe09e9b4	-0.13468057
3	0x3d49a6e3	0.04923142
4	0x3e0fb6e2	0.14034608
5	0x3e60cb38	0.21952522
6	0x3de6ba0e	0.11265956
7	0x3d82f6d3	0.06394734
8	0x3c915d23	0.017744606
9	0xbdbe7796	-0.09300153
10	0x3dc7d264	0.09756926
11	0x3ea14fb4	0.3150612
12	0x3e12645a	0.14296094
13	0x3eacb3a9	0.3373082
14	0x3ead13b9	0.3380411
15	0xbd82116f	-0.063509814
16	0xbc9ae52d	-0.018908108
17	0xbc2bcae6	-0.0104853865
18	0x3e275537	0.163411
19	0x3e94d77b	0.2907065
20	0xbe126c1e	-0.14299056
21	0xbd2bb291	-0.04191834
22	0xbc707f39	-0.01467877
23	0xbd8b8381	-0.06812192
24	0x3ddef576	0.10886662
25	0xbda9546c	-0.08268055
26	0x3e51ae78	0.20476711
27	0x3dcf87d3	0.10133328
28	0x3e3c016a	0.18359914
29	0x3d590b98	0.052989572
30	0x3e7c3955	0.24631245
31	0x3e7f6db8	0.24944198
32	0x3caa1121	0.02076012
33	0x3ebd6d60	0.3699751
34	0x3e2fe3d0	0.17176747
35	0x3c9c01fa	0.019043911
36	0xbd0e13b0	-0.034686744
37	0xbd79325c	-0.060839042
38	0x3d21a623	0.03946508
39	0x3dbd0c4c	0.09230861

encoder.4.block.2.running_mean f4 [40]
0	0x3f0a298e	0.5396966
1	0xbf3dbf2f	-0.7411985
2	0xbf87cab0	-1.060873
3	0xbec8cb51	-0.39217618
4	0x3f849802	1.0358889
5	0x3f7a0217	0.9765944
6	0x3f5151d9	0.81765515
7	0x3d56e526	0.052464627
8	0x3f3fc8a9	0.7491556
9	0xbf54f1f2	-0.8318168
10	0x3f478c26	0.77948225
11	0x3ec45615	0.38346925
12	0x3f2ae317	0.6675276
13	0x3f132584	0.5747912
14	0x3ef7c1df	0.483901
15	0xbf7cd21b	-0.98758096
16	0xbfa41b72	-1.2820876
17	0xbdb9cff9	-0.09072871
18	0x3f40bef1	0.75291353
19	0x3ea48851	0.3213525
20	0xbd9d7adc	-0.07689449
21	0xbfa3d383	-1.2798923
22	0xbc4a8d36	-0.012362769
23	0xbeaf7e89	-0.34276226
24	0x3f553872	0.83289254
25	0xbf6d05f6	-0.9258722
26	0x3f6be2af	0.92142767
27	0x3f0541b8	0.52053404
28	0x3e6dbbf1	0.23216225
29	0xbfb854c5	-1.440087
30	0x3f547511	0.8299113
31	0x3f8f757b	1.1207727
32	0xbf8c0244	-1.0938191
33	0x3e896a29	0.26838806
34	0x3f4b9ade	0.79533184
35	0xbf87da43	-1.0613483
36	0xbf4240dd	-0.75880224
37	0xbf9a4b5b	-1.2054247
38	0xbf02f829	-0.5115991
39	0x3edf35e5	0.43595806

encoder.4.block.2.running_var f4 [40]
0	0x3f10ce0b	0.56564397
1	0x3f7971e9	0.9743944
2	0x3fab4118	1.337924
3	0x3ed6977d	0.4191245
4	0x3fa03bd7	1.2518262
5	0x3f837645	1.0270468
6	0x3f6cd081	0.9250565
7	0x3e752994	0.23941642
8	0x3f554cf2	0.83320534
9	0x3fae1bbf	1.3602217
10	0x3f39e1be	0.7261008
11	0x3f07ac44	0.5299723
12	0x3f41d49a	0.7571503
13	0x3ed2f854	0.41205084
14	0x3f1a792b	0.6034114
15	0x3f8481be	1.0352094
16	0x3fc28fde	1.5200155
17	0x3ea908c3	0.33014497
18	0x3f5c8d38	0.8615298
19	0x3ec683de	0.38772482
20	0x3eced663	0.4039794
21	0x3fdff955	1.7497965
22	0x3eab1cc3	0.3342038
23	0x3f519d0d	0.81880265
24	0x3f5453a7	0.82940143
25	0x3f99c6a3	1.2013744
26	0x3f58a806	0.84631383
27	0x3f3d7f34	0.7402222
28	0x3eab97d6	0.3351428
29	0x400da719	2.2133238
30	0x3f82e16f	1.0225047
31	0x3fc6c1a5	1.5527846
32	0x3fd17d38	1.6366339
33	0x3e652821	0.22378589
34	0x3f918923	1.1369976
35	0x3fa4855c	1.2853198
36	0x3f6d2870	0.9263983
37	0x3fa1872f	1.261938
38	0x3e87e1f8	0.26539588
39	0x3f8a3968	1.0798769

encoder.4.block.4.weight f4 [40, 40, 1, 1]
0	0x3e3f4f1b	0.1868252
1	0xbc3b8787	-0.011445886
2	0x3e872a7f	0.2639961
3	0x3d7bf0fb	0.061509114
4	0x3e454e5e	0.19268176
5	0xbe659759	-0.22421016
6	0x3d2cd254	0.042192772
7	0x3d9ca527	0.07648688
8	0x3de685b8	0.112559736
9	0xba26ed40	-0.00063677505
10	0xbe3948ad	-0.1809413
11	0x3d1ea1d4	0.03872855
12	0xbcc41a10	-0.023938209
13	0xbe9cbd5d	-0.30613223
14	0xbe1c13f7	-0.15241991
15	0xbd05b426	-0.032642506
16	0x3e97a908	0.29621148
17	0x3d58ba2e	0.05291193
18	0xbe5d9aff	-0.21641158
19	0xbe397508	-0.1811105
20	0x3db0047d	0.08594606
21	0x3dd6488f	0.10463058
22	0x3df714a5	0.120644845
23	0x3e5dd617	0.216637
24	0x3d93416a	0.07190211
25	0xbe10b784	-0.14132506
26	0xbe9ddb06	-0.30831164
27	0xbe83a0a7	-0.25708506
28	0xbe7832b7	-0.24238096
29	0x3c3d482b	0.011552851
30	0xbe4882ff	-0.19581221
31	0x3d56f9e5	0.05248441
32	0x3e27e958	0.16397607
33	0xbe76bc37	-0.24095236
34	0x3c95f4a0	0.018305123
35	0xbc83b376	-0.016076785
36	0xbd2b337c	-0.041797146
37	0xbce08d83	-0.027411228
38	0x3e90abe5	0.28256145
39	0x3d420bd2	0.047374554
40	0x3af237fe	0.0018479822
41	0xbe38f401	-0.1806183
42	0x3df84929	0.12123329
43	0xbdd6e9a1	-0.1049378
44	0xbd898406	-0.067146346
45	0xbe5c4332	-0.21510008
46	0x3c803f08	0.015655056
47	0x3c970b6f	0.01843807
48	0x3e5a8b40	0.21342182
49	0x3bd63b79	0.0065378514
50	0x3e40cc79	0.18828
51	0xbcaa61f7	-0.020798666
52	0x3e79002d	0.24316473
53	0x3ded2904	0.11580089
54	0x3e2d66b8	0.16933715
55	0xbe02d5e2	-0.12776902
56	0x3e215022	0.15753224
57	0x3e2ab5ef	0.16670965
58	0x3d9d6b0f	0.076864354
59	0x3d5099d6	0.05092796
60	0xbcca4d51	-0.02469507
61	0xbe6f0e0a	-0.23345199
62	0x3b77ba4a	0.0037800246
63	0x3c1eb1d5	0.009685953
64	0x3db67a98	0.08910102
65	0x3d96c68b	0.07362088
66	0x3e9fddc0	0.3122387
67	0x3e9afd7c	0.30271518
68	0x3a05e180	0.00051071495
69	0xbd63f588	-0.05565408
70	0x3da54a0a	0.080707625
71	0x3e4a9181	0.19782068
72	0x3d66527b	0.056231003
73	0x3e79fdef	0.24413274
74	0x3e93c7ac	0.28863275
75	0xbdb42b9b	-0.087973796
76	0xbe4ccbfc	-0.19999689
77	0xbe4d3884	-0.2004109
78	0xbe165ddd	-0.14684244
79	0x3cc8a55b	0.02449291
80	0xbdb7b802	-0.089706436
81	0x3eb39efc	0.35082233
82	0xbe23a144	-0.15979487
83	0xbdce220b	-0.10065087
84	0xbdd6c746	-0.10487227
85	0xbde36978	-0.11104101
86	0xbcb02e9a	-0.021506596
87	0xbe14c894	-0.1452964
88	0x3dfecd5e	0.124415144
89	0xbcc68788	-0.024234548
90	0x3e48c965	0.19608076
91	0xbe68e070	-0.22741866
92	0x3dee1291	0.11624635
93	0xbdb9850a	-0.09058578
94	0xbe278e7c	-0.16362947
95	0x3e2191fe	0.15778348
96	0xbdbe9a08	-0.09306723
97	0x3d8c1b66	0.06841163
98	0xbe265450	-0.162431
99	0x3e21e7ab	0.1581103
100	0xbbeeca92	-0.007287332
101	0x3ea17a3d	0.31538573
102	0x3ddc944a	0.107704714
103	0xbd6633be	-0.05620169
104	0xbe48fc67	-0.19627534
105	0x3d404289	0.046938453
106	0xbe480c16	-0.1953586
107	0x3d9e9958	0.07744092
108	0xbea26df6	-0.3172452
109	0xbda9d389	-0.082923
110	0xbe1e18eb	-0.15439193
111	0xbe8e727a	-0.27821714
112	0x3c836815	0.016040841
113	0xbe4c0893	-0.19925146
114	0x3d40681b	0.046974283
115	0x3e0a4fc4	0.1350699
116	0xbd628b96	-0.0553089
117	0x3dd0aa84	0.10188773
118	0x3ebf7ccb	0.37399897
119	0xbe521002	-0.20513919
120	0xbe4ff3da	-0.20307866
121	0x3e78a22c	0.24280614
122	0x3deb3dfd	0.11486433
123	0x3e0eac37	0.13932882
124	0x3e4a6378	0.19764507
125	0xbd12f014	-0.035873488
126	0xbe08a047	-0.13342391
127	0xbde2410c	-0.11047563
128	0xbdb15f44	-0.086607486
129	0xbd8b5643	-0.068035625
130	0x3e3840d3	0.17993478
131	0xbdadee41	-0.08492709
132	0xbbbe17cf	-0.005801178
133	0x3d8d1411	0.06888593
134	0xbe418914	-0.18899947
135	0xbe442fdc	-0.19158882
136	0x3ca1708a	0.019706983
137	0x3db0b5bd	0.08628414
138	0xbb562a63	-0.0032679073
139	0x3e39e1ed	0.1815259
140	0x3e39436a	0.18092123
141	0x3d6375ca	0.055532254
142	0xbe49be74	-0.19701558
143	0x3dde3682	0.1085024
144	0xbe3fd1a4	-0.18732315
145	0xbe1b3b6c	-0.15159386
146	0xbe4fcd09	-0.20293058
147	0xbe65d331	-0.22443844
148	0x3dbf0edd	0.09329007
149	0xbe245199	-0.16046752
150	0x3ccdd8a4	0.025127716
151	0x3d8eaf25	0.06967
152	0x3dbdc78b	0.092665754
153	0xbe48e51e	-0.19618651
154	0x3c8262cd	0.015916253
155	0x3e03ffc6	0.12890539
156	0x3e6c1142	0.23053458
157	0xbcac33af	-0.021020738
158	0x3ea62289	0.32448223
159	0x3cb854e9	0.022501426
160	0xbd602b89	-0.05472902
161	0xbe466e4f	-0.19378017
162	0xbca75a97	-0.020428939
163	0x3da60a12	0.081073895
164	0x3d1d9ab4	0.038477615
165	0xbe5d973f	-0.21639727
166	0x3e7f7dd2	0.2495034
167	0xbd9b4ac3	-0.07582619
168	0xbdf76d3d	-0.120813824
169	0x3e195b8e	0.14976332
170	0xbdd0a978	-0.101885736
171	0xbcc8a36b	-0.024491986
172	0x3e504ead	0.20342512
173	0x3e87e693	0.26543102
174	0x3d8ade44	0.06780675
175	0x3e5986b1	0.21242787
176	0xbe9fa8ec	-0.31183565
177	0x3e56f1bb	0.2099065
178	0x3e4195fd	0.18904872
179	0x3e78bf8b	0.24291818
180	0x3e11d593	0.14241628
181	0xbd9b6700	-0.07588005
182	0xbd44a098	-0.048004717
183	0x3cda9e25	0.026686737
184	0xbd984f96	-0.07437055
185	0xbd971f94	-0.0737907
186	0x3d40c1b8	0.047059745
187	0x3e51dd6f	0.20494626
188	0xbc22bc10	-0.009932533
189	0xbe40e505	-0.18837364
190	0x3ea91523	0.3302394
191	0x3c2767cb	0.010217617
192	0xbe85ea52	-0.26155335
193	0x3e10f176	0.1415461
194	0x3e9d7a78	0.307575
195	0xbd508da3	-0.050916325
196	0xbdc9b76b	-0.09849437
197	0xbe37db3f	-0.1795473
198	0xbd5dbe01	-0.05413628
199	0x3dda9c18	0.10674304
200	0xbda048cd	-0.07826386
201	0x3d619491	0.055073325
202	0x3e85b899	0.261174
203	0x3dcf4ce6	0.10122089
204	0xbe0d2741	-0.13784505
205	0xbe23f4ce	-0.16011354
206	0xbe6f470e	-0.23366949
207	0x3e694af5	0.227825
208	0xbddc6735	-0.10761873
209	0xbdca8531	-0.098886855
210	0xbe11d2be	-0.14240548
211	0xbea2f3ac	-0.31826532
212	0xbe55a8b9	-0.20865144
213	0xbe767bb2	-0.24070624
214	0x3dd80f5e	0.10549806
215	0x3e762b2e	0.24039909
216	0x3e5b5138	0.21417701
217	0xbda842d0	-0.082158685
218	0xbc3957ce	-0.011312438
219	0xbe6494a1	-0.22322322
220	0x3be0a303	0.00685537
221	0x3adde6bd	0.0016929727
222	0xbd2c4487	-0.04205754
223	0x3c9f3dc4	0.019438632
224	0x3d9aeece	0.0756508
225	0xbded287a	-0.11579986
226	0x3c2bbdc6	0.010482257
227	0x3db85275	0.090001024
228	0xbe8be396	-0.27322072
229	0x3e893160	0.26795483
230	0xbe3107a2	-0.17288068
231	0x3d169341	0.036761526
232	0xbdc82bce	-0.0977398
233	0x3e355373	0.17707615
234	0xbe3f6463	-0.18690638
235	0x3e0d4924	0.13797432
236	0xbd691901	-0.05690861
237	0xbe219fab	-0.15783565
238	0x3e83d38b	0.25747332
239	0x3db99549	0.09061677
240	0xbe56f5b3	-0.20992164
241	0xbe000cfc	-0.12504953
242	0xbe9a646a	-0.30154735
243	0xbc8d8b11	-0.017278226
244	0xbc55d36f	-0.013050898
245	0xbde594f9	-0.11210055
246	0x3e5cf0ab	0.21576183
247	0x3e2b72b2	0.16742972
248	0x3e89a47a	0.26883298
249	0x3d077806	0.033073448
250	0xbed8db51	-0.42354825
251	0xbe8b2dbe	-0.27183336
252	0xbd9073eb	-0.070533596
253	0xbd81f0cb	-0.06344756
254	0xbdc52495	-0.09626118
255	0xbdd2852b	-0.10279306

encoder.4.block.4.bias f4 [40]
0	0xbc0621a8	-0.008186735
1	0x3b0351ac	0.0020037694
2	0xbba8d4c9	-0.005152319
3	0xbac892ca	-0.0015302536
4	0xba307d18	-0.00067325076
5	0x395c766f	0.00021024955
6	0xbc398445	-0.011323039
7	0xbc181b74	-0.009283889
8	0x3988e671	0.00026111634
9	0xb86a7546	-5.5899167e-05
10	0xbb0e13da	-0.0021679313
11	0xbb804d6e	-0.0039154803
12	0xbb92b168	-0.004476715
13	0x3ab44366	0.0013752996
14	0xbbd852c6	-0.0066016642
15	0xb979c5a6	-0.0002382012
16	0xbbc9a938	-0.0061542057
17	0x3a0ae0a9	0.0005297759
18	0x3b381f29	0.0028094745
19	0x3c240770	0.010011539
20	0x3bf1314a	0.007360612
21	0xbba5d8b2	-0.0050612325
22	0x3b9f8840	0.004868537
23	0xba82cf0b	-0.0009979917
24	0xbbb81d93	-0.00561876
25	0xbb785fd4	-0.0037898915
26	0xbb70c321	-0.00367374
27	0x39222a90	0.0001546538
28	0xbbabbaf2	-0.0052407915
29	0xbc0833a6	-0.008313095
30	0x3ae237ba	0.001725904
31	0x3bb6109e	0.00555618
32	0xbb211f5e	-0.0024585347
33	0xbb6295ae	-0.003457408
34	0xbc02d7e1	-0.00798604
35	0xbb89d679	-0.0042064753
36	0xbbbfbda2	-0.0058514634
37	0xbbc7c414	-0.0060963724
38	0x3af53790	0.0018708576
39	0xbadb1bcf	-0.0016716662

encoder.4.block.5.weight f4 [40]
0	0x3f5ed6eb	0.8704669
1	0x3f43818a	0.76369536
2	0x3f51a3b9	0.81890446
3	0x3f48bb2b	0.78410596
4	0x3f5fff20	0.87498665
5	0x3f6925da	0.9107338
6	0x3f850725	1.0392805
7	0x3f15e548	0.5855298
8	0x3f559619	0.83432156
9	0x3f382317	0.7192854
10	0x3f5cd9c9	0.86269814
11	0x3f6adf18	0.91746664
12	0x3f49726f	0.78690237
13	0x3f3adba7	0.7299141
14	0x3f34f3a2	0.70684254
15	0x3f79d891	0.9759608
16	0x3f2f42e4	0.6846144
17	0x3f77c865	0.9679015
18	0x3f677ba8	0.9042306
19	0x3f3414a5	0.70344
20	0x3f21243c	0.62945914
21	0x3f665ca6	0.8998512
22	0x3f44e337	0.769092
23	0x3f44e318	0.7690902
24	0x3f40486c	0.75110507
25	0x3f2566aa	0.6460978
26	0x3f6c7e82	0.92380536
27	0x3f736247	0.95071834
28	0x3f6a2cff	0.9147491
29	0x3f5659d4	0.83730817
30	0x3f69fbf5	0.9140008
31	0x3f3303de	0.69927776
32	0x3f11b2a8	0.5691323
33	0x3f5cdda2	0.86275685
34	0x3f6cd18e	0.92507255
35	0x3f6c9f45	0.92430526
36	0x3f61576a	0.8802401
37	0x3f5cf0af	0.86304754
38	0x3f33b4db	0.7019784
39	0x3f467c0b	0.77533025

encoder.4.block.5.bias f4 [40]
0	0xbe8a6746	-0.27031916
1	0x3de3e278	0.1112718
2	0xbe2f6474	-0.17128164
3	0x3cc5d1fa	0.024147976
4	0x3cae02f1	0.021241637
5	0xbd3ac433	-0.045597266
6	0xbe96bd7c	-0.2944144
7	0xbe5b23f7	-0.21400438
8	0x3e0b657c	0.13612932
9	0xbe155ad9	-0.14585437
10	0x3d6f7dd5	0.058469612
11	0xbc0d4d47	-0.008624381
12	0xbe73efa1	-0.2382188
13	0x3b0a2401	0.002107859
14	0x3cbdbc4e	0.02316108
15	0xbe0a64fe	-0.13515088
16	0xbe22fd66	-0.15916976
17	0x3e135745	0.1438876
18	0x3e49d91a	0.19711724
19	0x3da38cd2	0.07985844
20	0x3d0d5160	0.034501433
21	0x3cb24c8e	0.02176502
22	0x3d2df296	0.042467676
23	0x3d49cb5a	0.049266197
24	0xbda05341	-0.078283794
25	0xbe32641c	-0.17421001
26	0x3dde321a	0.108494
27	0x3e3fd276	0.18732628
28	0xbde75726	-0.11295919
29	0xbd99c5ad	-0.07508407
30	0xbd9fc252	-0.078007355
31	0x3d7fa3e1	0.062412146
32	0xbdb429db	-0.08797046
33	0xbe1c54bb	-0.15266697
34	0xbd784f07	-0.06062224
35	0xbe72aace	-0.2369797
36	0xbe4f9827	-0.20272885
37	0xbd53f4eb	-0.051747244
38	0x3c90412d	0.017609203
39	0xbd9077a7	-0.07054072

encoder.4.block.5.running_mean f4 [40]
0	0xbed151b7	-0.40882656
1	0x3f59d07a	0.85083735
2	0xbf07c986	-0.53041875
3	0xbcfdb333	-0.030969238
4	0x3f123841	0.57117087
5	0xbec13853	-0.37738284
6	0xbf07cd5c	-0.5304773
7	0xbf628d2c	-0.8849666
8	0x3e86134e	0.26186603
9	0xbdac8be4	-0.084251195
10	0x3e8cd59e	0.27506727
11	0xbe60827a	-0.21924773
12	0x3e6de59f	0.23232125
13	0x3f542dba	0.82882273
14	0x3f071280	0.52762604
15	0xbe9c8bcd	-0.3057541
16	0xbf2000ee	-0.6250142
17	0x3dfab259	0.12241048
18	0x3f378a60	0.7169552
19	0xbca31e77	-0.019911988
20	0x3ec130cf	0.3773255
21	0x3e3a7d68	0.18211901
22	0x3f101868	0.5628724
23	0xbd8f361a	-0.06992741
24	0xbe9000b7	-0.28125545
25	0xbe991a11	-0.299027
26	0x3e3ddd03	0.1854134
27	0x3f7633e8	0.9617295
28	0xbd0f2c0e	-0.034954123
29	0xbea998b1	-0.33124307
30	0xbe7205f0	-0.23635077
31	0x3efe7952	0.49701935
32	0xbe923e92	-0.28563362
33	0xbe75fa79	-0.24021329
34	0xbe7cf09e	-0.24701163
35	0xbf0c085b	-0.5470025
36	0xbbcea361	-0.0063060974
37	0xbe32e6f6	-0.17470917
38	0x3f2a726d	0.6658085
39	0xbe96d165	-0.2945663

encoder.4.block.5.running_var f4 [40]
0	0x401f410c	2.4883451
1	0x407b33a6	3.9250274
2	0x4016b980	2.355072
3	0x3fb79839	1.434333
4	0x40244792	2.5668683
5	0x401d1679	2.4544966
6	0x3fba2c62	1.4544795
7	0x404df3f7	3.2180154
8	0x3fc6993c	1.5515513
9	0x3fb97c6a	1.4491093
10	0x402d2934	2.7056398
11	0x3ffe740b	1.9879164
12	0x3f2bce7c	0.67111945
13	0x406995e9	3.6497748
14	0x4090e1db	4.5275702
15	0x3f2dea3d	0.67935544
16	0x404ffbde	3.2497478
17	0x3f20078b	0.6251151
18	0x407cd8af	3.9507253
19	0x3fb1466f	1.384962
20	0x3f97224c	1.1807342
21	0x403a0560	2.906578
22	0x3f9f99ab	1.2468771
23	0x4013abc2	2.3073583
24	0x3fff4574	1.994307
25	0x3f3c8d3a	0.73652995
26	0x402125ef	2.5179403
27	0x40553097	3.3310907
28	0x3fb42f6f	1.4076976
29	0x3f6c326e	0.9226445
30	0x3f819ddf	1.0126303
31	0x404c2de1	3.1903002
32	0x3f80048f	1.0001391
33	0x3f1fab1e	0.6237048
34	0x3f82c273	1.0215591
35	0x404dce31	3.21571
36	0x3f2037e6	0.62585294
37	0x3f95d8c9	1.1706783
38	0x40608e75	3.508695
39	0x3fb8c705	1.4435736
