VQ-VAE/models/vqvae/model_8.pt (torch, 579012 bytes, 64 tensors)

encoder.0.weight f4 [40, 1, 4, 4]
000000 59 cb 99 3d 25 20 47 3d 67 f3 bb bd a3 bc 71 3c
       0.075094886 0.04861464 -0.09177285 0.014754447
000010 cd 11 c7 bd 9e 73 bc b9 1e e6 2f 3c d5 60 87 bd
       -0.09720192 -0.00035944296 0.010736017 -0.06610266
000020 bb 89 b4 bd db 3f c5 3c 79 0b db bd 90 38 51 3d
       -0.088153325 0.0240783 -0.106955476 0.051079333
000030 2f 66 83 3c 4a 11 6c bd 5c a9 21 3c 04 c6 47 3d
       0.016039936 -0.057633676 0.009867039 0.048772827
000040 d7 ce 0f 3d e9 8f 10 3d d4 c6 80 bd df 00 76 3d
       0.035109367 0.035293493 -0.062879235 0.060059424
000050 d2 99 01 3e 9b e9 cd 3d 9d b8 92 3c 5d 0f 18 3d
       0.12656334 0.10054322 0.017910296 0.037124027
000060 f9 4e bc 3d c4 44 aa 3d 13 c7 90 bd a0 fa 8e bd
       0.0919475 0.08313897 -0.070692204 -0.06981397
000070 73 d7 c1 3c c8 46 c5 3c 2a 3e b0 bb ca 4b c3 3d
       0.023662305 0.024081603 -0.0053785043 0.0953594
000080 d3 4d a6 3d b7 d8 98 3d 37 47 17 3d 8d 08 5a 3d
       0.081203125 0.0746321 0.03693315 0.05323081
000090 96 5b 04 3d 26 37 17 3d b7 67 3d bd f4 61 a2 3d
       0.032313906 0.036917828 -0.04624149 0.07928839
0000a0 19 af 96 3d 51 77 ac 3d 21 77 be bc de f8 8c 3d
       0.07357616 0.08421195 -0.023250164 0.06883405
0000b0 b7 49 1a 3d 47 8e ba 3c f4 34 46 3c 14 db fe 39
       0.037667956 0.022772921 0.012097586 0.0004860988
0000c0 0a 19 86 bb a9 ec 61 3d 15 00 6c 3d db 78 43 3d
       -0.0040923404 0.055157337 0.057617266 0.04772268
0000d0 88 c1 99 3d 70 53 1e 3d 42 46 8a bc c7 39 9e bd
       0.07507616 0.03865379 -0.016879205 -0.07725864
0000e0 41 f6 d9 3d f4 1f 71 bd 95 56 60 3c 18 c6 97 bd
       0.10642672 -0.058868363 0.013692518 -0.0741083
0000f0 6c 9c 54 3d 9a 9c 83 3d b9 ab 5a 3c 1d 69 34 3d
       0.051906988 0.06426354 0.013346606 0.044045556
000100 58 89 d8 3c 39 02 61 bc 4b 84 76 bc 73 e4 82 3d
       0.026432678 -0.01373344 -0.01504619 0.063912295
000110 5c 3b 80 3c de 40 87 bc 10 23 b9 3d 83 76 51 bd
       0.015653305 -0.016510423 0.09039891 -0.051138412
000120 72 11 8f bd 7b ad 36 3c 06 72 a1 3c 1f 21 05 3d
       -0.06985749 0.011149759 0.01970769 0.03250229
000130 99 9b 91 3d c1 95 97 bd 2c d6 27 3d f7 d7 e9 3d
       0.07109756 -0.0740161 0.040975735 0.11418145
000140 92 9d 99 bd 58 3d 78 3d 07 72 68 bd 2f 1c 5f bd
       -0.07500757 0.060605377 -0.05674937 -0.054470237
000150 4a e2 c4 bd 02 9e 9f bd 15 a9 7d bd 59 a4 8a 3d
       -0.09613474 -0.077938095 -0.061928827 0.06769628
000160 5c 8b bf bc 21 bc 65 bd 42 5c 94 bd e2 eb a3 3d
       -0.023381881 -0.056087617 -0.07244159 0.080039755
000170 ae 8a 5b bd c5 f7 5b bd b5 81 51 3d a7 78 50 bc
       -0.053599052 -0.05370309 0.05114909 -0.012724078
000180 20 04 55 3b 88 a0 8e 3d 84 85 14 bd a5 c7 43 3c
       0.003250368 0.06964213 -0.036260143 0.011949454
000190 15 98 3a 3d c5 d5 e7 bc 2a 4e 2f bd af 9e 93 bc
       0.045555193 -0.028300175 -0.042799152 -0.018020002
0001a0 18 49 a8 3d 88 d8 d9 bc 7e 0e 12 bd f8 57 eb 3c
       0.082170665 -0.026592508 -0.035658352 0.02872847
0001b0 aa d6 c1 bd 9e 7d b4 bc 05 3f a8 3b 7c 20 92 bd
       -0.09464772 -0.022032555 0.0051344656 -0.07135102
0001c0 3a 7f b9 bb 7d 59 da 3c 25 51 d9 bd 36 65 72 bd
       -0.0056609185 0.026654 -0.1061118 -0.059178554
0001d0 26 bf 06 bd 46 a8 15 3d 9b 4b 6c bd ab 49 7a 3d
       -0.032897137 0.03653743 -0.05768929 0.06110541
0001e0 e7 a6 b5 bd 5e 7e 5d bd 64 98 90 3d 15 bd 15 bd
       -0.08869725 -0.05407559 0.07060316 -0.036557276
0001f0 20 bc e7 3a a6 9c 9b 3d c4 a3 c0 bd 1f b2 b8 3c
       0.0017679967 0.07598238 -0.09406236 0.022545872
000200 67 a3 55 bd a9 70 4a bc c5 69 6d bd ff cb 43 3c
       -0.052157786 -0.012355962 -0.057962198 0.011950492
000210 2d 75 12 bd b2 2b f4 3c a6 04 ab 3d 88 5b c0 3c
       -0.03575628 0.029805992 0.08350496 0.023481146
000220 15 72 5f 3d 68 01 b0 3d 8e 1a 96 bd b4 7b ca 3b
       0.054552156 0.08594018 -0.07329284 0.0061792973
000230 1d 99 d6 3d db dc 87 3d b9 a2 04 3c 10 d6 5c 3d
       0.10478423 0.06633922 0.008095437 0.053915083
000240 12 20 10 3d 68 ef 3e bd 2a 85 f5 3c b3 47 2a 3c
       0.035186835 -0.046615034 0.029970724 0.010393071
000250 0d 80 02 bd e4 b6 e0 bd 10 14 b4 bd 95 cf 2f 3d
       -0.0318604 -0.109723836 -0.08792889 0.042922575
000260 53 89 90 bd 7d ad 8c bc cf f8 4b 3c 5d 32 15 bd
       -0.070574425 -0.01717257 0.012449457 -0.036424983
000270 9b 69 a8 bd 06 cc a0 3d ca d2 03 bd f8 84 c4 3d
       -0.08223268 0.078514144 -0.032183446 0.09595674
000280 d0 0d 36 3d 5d d0 6a bc 30 0d a8 bc 83 ec 99 bc
       0.044446766 -0.014331904 -0.0205141 -0.018789535
000290 a0 d4 9e 3d 07 60 ad bc 0f 85 cc bc c3 3e 6a bd
       0.07755399 -0.021163953 -0.024965791 -0.05718876
0002a0 07 db 8c 3d b4 74 11 3d 84 eb 03 3d e4 b2 b4 bd
       0.06877714 0.035511687 0.032207027 -0.08823183
0002b0 d0 95 76 3d 2b b2 70 3d 48 59 11 bd ec 4e a4 bd
       0.060201466 0.058763664 -0.035485536 -0.08022866
0002c0 43 86 9d bd c6 2a c6 3c 24 4b e6 3c f1 02 2c 3c
       -0.07691624 0.024190318 0.028112002 0.010498748
0002d0 71 ef bb 3c 4f dc 2b 3c 11 b1 8d bb 1e 34 aa bd
       0.022941323 0.010489537 -0.0043240865 -0.08310722
0002e0 56 3f 3a bd 8a 7b a3 bd a1 23 70 bd 16 7c df bd
       -0.045470558 -0.079825476 -0.05862773 -0.109123394
0002f0 eb f2 06 bd 93 a2 c5 bc 8f f6 6c 3d 95 65 6e bd
       -0.03294651 -0.024125373 0.057852324 -0.058202345
000300 db a6 d2 ba 3d 4c 4c 3d 0e 46 40 3d 7f df 2b bd
       -0.0016071455 0.049877394 0.04694181 -0.04196119
000310 c1 a9 44 3d e3 b0 94 bd 99 36 b4 3c 81 7b 14 bd
       0.048013452 -0.07260301 0.02199869 -0.036250595
000320 83 cf 1d bd e4 9c a3 bd e9 40 e2 bc 4d 34 9e bd
       -0.038527977 -0.07988909 -0.027618842 -0.07724819
000330 70 e7 c5 bd 94 8c 45 3d 86 9d ce bd 35 93 36 bd
       -0.09663284 0.04822977 -0.10088639 -0.04457398
000340 53 12 d9 bd 36 47 b8 bd e6 c4 0b bd 74 99 53 3c
       -0.10599198 -0.089979574 -0.034123324 0.012915004
000350 7b 8a 21 bd 3a d1 eb 3b 2e 2b 26 3d 12 a1 ce bd
       -0.039438706 0.0071965726 0.040568523 -0.100893155
000360 48 56 5f 3d 02 75 9b bd c9 e3 27 bd a8 e6 ed 3c
       0.054525644 -0.07590677 -0.040988717 0.02904065
000370 c9 d4 59 3d 81 c1 13 3d 0b ee f3 ba b2 6f 41 bc
       0.053181443 0.03607321 -0.0018610371 -0.011806415
000380 19 50 be bb 34 08 0b 3d 86 10 85 bd c6 ee 8a 3c
       -0.005807888 0.03394337 -0.06497292 0.01695956
000390 cc 15 61 bc 06 f3 10 bd 1d ad 92 3d e5 af a1 3c
       -0.013738107 -0.035388015 0.07161925 0.019737193
0003a0 96 d2 c8 3c 9b 6b 5a 3d 5b b4 ca 3d 8c 5f 79 3d
       0.024514478 0.053325277 0.09897681 0.060882136
0003b0 3f 91 6a 3d e8 e7 7f 3d 81 e6 e6 3d 8d 1d 48 3d
       0.057267424 0.062477022 0.11274434 0.048856307
0003c0 20 0a 60 ba f2 9d ca bd b6 26 95 3d 15 cf 29 bd
       -0.00085464306 -0.09893407 0.07282774 -0.041457254
0003d0 c7 10 97 3c 3f c8 0d 3b e4 83 11 bd 04 2a 4f bc
       0.018440617 0.0021634249 -0.03552617 -0.012644295
0003e0 b5 c8 6e bd f4 fa 3b bc 70 06 c9 bc 92 86 48 bd
       -0.058296878 -0.011473406 -0.024539202 -0.04895646
0003f0 1c 60 a5 3c a4 65 c8 bc 8a e9 85 bd d1 4a 71 b9
       0.02018743 -0.024462529 -0.06538685 -0.00023011422

encoder.0.bias f4 [40]
000000 07 7e 11 bb 77 7f 79 ba b5 a4 30 ba 5f a2 2d bb
       -0.0022200362 -0.000951759 -0.00067384104 -0.0026494486
000010 7e 7f ea ba 38 b6 a1 3a 01 ac 38 3a 01 1b 29 39
       -0.0017890779 0.0012337631 0.00070446735 0.00016127156
000020 19 b1 e2 b9 94 48 b5 3a 50 c9 e0 39 f7 0e cd b9
       -0.00043238027 0.0013830834 0.000428746 -0.00039111797
000030 61 90 8b ba 7a 46 cb ba d0 24 93 39 d1 61 fd 3a
       -0.0010647887 -0.0015508675 0.00028065452 0.001933152
000040 9e 3a 15 ba 6b fd df ba 2e 06 95 39 7a 6a 99 38
       -0.00056926336 -0.0017089074 0.000284241 7.315441e-05
000050 85 f4 9c bb 3e 9c a6 39 cc 3c e5 ba 5c 2e 06 bb
       -0.004789891 0.00031778397 -0.0017489432 -0.002047441
000060 4c 75 b5 3a 5c 67 1e 39 4a 68 bf 3a 93 9e 89 3a
       0.0013844161 0.00015106559 0.0014603224 0.0010499529
000070 5a 45 75 ba 75 04 4f 3a a6 5a af 3a e9 44 19 3b
       -0.00093563425 0.00078970875 0.0013378456 0.002338702
000080 94 d5 4e 3a 76 7a de ba 84 93 71 3a 42 39 60 3a
       0.0007890102 -0.0016973752 0.0009215402 0.0008553454
000090 d8 47 cd ba 38 50 06 bb ad b6 cf ba f5 47 d8 b9
       -0.001566167 -0.0020494591 -0.0015847288 -0.00041252343

encoder.1.weight f4 [40]
000000 db 12 76 3f 0a 14 73 3f 91 5b 78 3f ee 07 74 3f
       0.9612252 0.9495245 0.9701472 0.953246
000010 8a 32 6d 3f e0 69 7d 3f 43 4a 72 3f 5b 45 6f 3f
       0.9265524 0.9898968 0.94644564 0.93465203
000020 d3 19 7b 3f 44 7c 79 3f 0b d9 78 3f a0 0c 77 3f
       0.9808628 0.9745524 0.9720618 0.9650364
000030 a6 81 7c 3f 48 60 78 3f 5d 8c 7c 3f 32 89 7d 3f
       0.9863533 0.97021914 0.9865168 0.9903747
000040 bb 29 7a 3f 74 18 79 3f f8 19 77 3f 5d e6 7a 3f
       0.97719926 0.9730294 0.96524 0.98007756
000050 c4 3a 72 3f 1d 81 76 3f e6 05 6b 3f 90 34 74 3f
       0.9462092 0.9629076 0.91805875 0.95392704
000060 72 68 6f 3f cf 88 74 3f 9e 7f 76 3f 65 c3 75 3f
       0.93518746 0.95521253 0.9628848 0.96001273
000070 51 e2 72 3f 82 3f 7c 3f 7f 39 7a 3f 73 12 77 3f
       0.9487658 0.98534405 0.9774398 0.96512526
000080 c8 83 7e 3f 49 86 78 3f fe 62 77 3f 85 b7 75 3f
       0.9941983 0.970799 0.96635425 0.95983154
000090 d0 4d 7e 3f 98 12 80 3f 14 ba 7e 3f 4d c0 77 3f
       0.9933748 1.0005674 0.9950268 0.967778

encoder.1.bias f4 [40]
000000 d9 be 52 bc 72 95 a1 3b da 56 36 3b 64 57 42 3c
       -0.012862884 0.0049311453 0.0027822764 0.011861656
000010 32 b7 4b bc 75 e8 9a bb d1 e6 79 bc e2 da c7 bc
       -0.012433814 -0.004727418 -0.015252785 -0.024396364
000020 95 84 5f 3c ce fb 6f bb 29 17 99 3c 5c 36 50 bc
       0.01364245 -0.0036618593 0.018687801 -0.012708273
000030 58 59 36 bc c2 af 5e bc bd 5d 0c 3d 50 0d 16 39
       -0.0111297 -0.013591709 0.034269083 0.00014310074
000040 22 16 3c 3c c6 1d 8f bc 5f 9f a7 bc 91 da b2 bb
       0.011479886 -0.017470252 -0.020461736 -0.005458184
000050 bf f8 76 bb 2c 45 54 bc 22 fc 4e 3c ca 88 c2 bc
       -0.0037684885 -0.012955945 0.012633355 -0.023746867
000060 4b 96 ef 3b 8d 3b f1 bc 49 94 c0 3c ec 96 6c 3c
       0.0073116175 -0.029447341 0.023508208 0.014440279
000070 7a d2 f2 bc da 82 e7 bb d7 15 09 bc c1 03 60 bc
       -0.029641379 -0.0070651593 -0.008367023 -0.01367277
000080 cf cf ae b9 89 d1 9d 3c ae 46 75 bc 7d 54 89 39
       -0.00033342696 0.019264953 -0.014970465 0.00026193625
000090 c6 77 ff bb c2 0b 01 bb d2 84 35 3b ed 40 b2 bc
       -0.0077962605 -0.0019690846 0.0027697575 -0.021759475

encoder.1.running_mean f4 [40]
000000 c8 ed 1e 3e ac 95 b3 be 7f 8b d5 be e5 a9 61 be
       0.15520394 -0.35075128 -0.4170799 -0.22037466
000010 af be 21 be 30 ee 9a 3e 74 67 b4 3d cb 68 24 3e
       -0.15795396 0.30259848 0.088087946 0.160556
000020 71 56 50 be 2b e0 25 3e 63 9b 43 bc 01 cb 90 3e
       -0.20345475 0.16198795 -0.011938903 0.2827988
000030 35 06 8b 3e a7 e4 39 3e 16 0e bf be cb 85 5c 3e
       0.27153173 0.1815363 -0.37315434 0.21535413
000040 55 9a 37 be 49 73 9d 3e f5 59 60 3e ee 40 57 3e
       -0.17929967 0.30752018 0.21909316 0.21020862
000050 62 aa 52 be 29 d3 27 3e 30 c2 14 be 14 91 31 3e
       -0.20572808 0.16389145 -0.14527202 0.17340499
000060 e4 6a 23 bd 70 66 79 3d e4 1a 1d be f8 93 6d bd
       -0.03989686 0.060888708 -0.15342289 -0.058002442
000070 d6 93 18 3e 1c 22 97 3e 14 6d 89 3e 1b d0 42 3e
       0.14900145 0.2951821 0.26841033 0.19024698
000080 3d 4c 59 3e f1 fe 88 be 00 48 2b 3e 06 4d 34 be
       0.21220489 -0.26757005 0.16726685 -0.17607507
000090 8e 3f e9 3e db 8c ad 3e 1b 18 b1 3e cc 01 f6 3d
       0.455563 0.33896527 0.34588704 0.120120615

encoder.1.running_var f4 [40]
000000 7e 22 a4 3c a1 bb 74 3d 9c 00 8b 3d ec 19 0f 3d
       0.020035978 0.05974925 0.067872256 0.03493683
000010 8c ad 6a 3c ae f4 65 3d 33 dc 57 3c 4e 75 78 3c
       0.014323603 0.056141548 0.013175058 0.015164686
000020 1d c9 08 3d 14 d6 f3 3c fc 90 04 3d 94 4b 17 3d
       0.03339492 0.029765166 0.03236483 0.03693731
000030 69 3d 33 3d 55 3c b8 3c 38 07 9a 3d f8 f5 96 3c
       0.043759737 0.022489706 0.07520908 0.018427834
000040 ad 6e 13 3d 9b e0 3e 3d 89 74 c2 3c c9 7d d1 3c
       0.03599422 0.04660092 0.023737209 0.025572674
000050 f2 85 b0 3c 15 05 69 3c 57 f1 32 3c 7d 01 da 3c
       0.021548245 0.014222403 0.010921798 0.026612038
000060 df ac 93 3c da 20 db 3c 5b fc ef 3c 95 25 c6 3c
       0.018026767 0.026749063 0.029295137 0.024187842
000070 3d 4f f6 3c f6 c6 5b 3d 82 31 74 3d 3c fe 15 3d
       0.03006708 0.05365654 0.059617527 0.03661941
000080 61 6d e8 3c 51 7c 0b 3d 57 7f 41 3c 16 83 07 3d
       0.028372468 0.034054104 0.011810145 0.033083998
000090 2e a2 bd 3d a7 bf 5e 3d 26 a8 69 3d d5 b8 8f 3c
       0.09259449 0.054381993 0.057045124 0.01754419

encoder.3.weight f4 [40, 40, 4, 4]
000000 d4 13 9a bc 39 74 01 bd c7 16 f2 3c 61 73 06 bb
       -0.018808283 -0.03160498 0.029551877 -0.0020515549
000010 f9 3f 99 ba 46 39 41 bc 81 37 4b bd 7b f4 d3 bb
       -0.0011692039 -0.01179344 -0.04961348 -0.0064683533
000020 5a 5f 8a 3c fe 56 0c 3d b7 65 17 3c 5e b4 63 3c
       0.01689117 0.03426265 0.009240559 0.013897983
000030 dd 58 3c 3d 85 51 05 3d 21 52 bc 3c 3b 76 7b 3c
       0.045983184 0.032548446 0.02298838 0.015348013
000040 1d 92 52 bc d7 31 20 3b 14 41 44 3d e4 c3 48 bd
       -0.012852219 0.002444377 0.047913626 -0.04901494
000050 b0 cd 05 bd fd 30 9e bc ad 78 ee 3c b0 c9 47 3d
       -0.032666862 -0.019310469 0.029110277 0.04877633
000060 fe d3 ec 3c 32 3e 13 3c f8 26 3b bd ed e6 6c 3d
       0.02890968 0.0089869965 -0.04569146 0.057837415
000070 70 d0 b2 bc 91 a6 9f 3a eb 8f 66 3d 49 57 ce bb
       -0.021827906 0.0012180378 0.056289595 -0.0062970263
000080 5d 66 f5 bc 8b a4 ce bc d5 87 10 bd 21 ba 29 bd
       -0.029956037 -0.025224945 -0.03528579 -0.041437272
000090 20 94 a4 3c 3f 0a 80 bd bf 3e 9d bd 3e 17 ef bc
       0.020090163 -0.06251954 -0.076779835 -0.029185887
0000a0 32 ce 22 bc 93 91 99 3c 5e d2 7e bd b6 0c c5 3c
       -0.009936856 0.018746173 -0.06221234 0.024053913
0000b0 e5 c5 53 3d 74 bb 36 bd 84 8b 12 bc d4 a3 77 3c
       0.0517024 -0.044612363 -0.008944396 0.015114743
0000c0 3f 1d 89 3d 6b af 29 bd a7 02 fd bc 4a 39 43 3d
       0.066950314 -0.041427057 -0.030885054 0.047662057
0000d0 df 83 f3 3c a1 40 3c bd 85 d2 dc bb 88 09 52 bc
       0.029725967 -0.045960072 -0.006738963 -0.012819655
0000e0 d3 8e ba 3c 29 5e e3 bc 3e 32 fc 3c 71 5e 77 3d
       0.022773182 -0.02775486 0.030785676 0.0603928
0000f0 cf 95 93 ba 9c c8 71 3d b0 17 c5 bc 95 7f 38 bc
       -0.0011259856 0.059029207 -0.024059147 -0.011260887
000100 79 98 52 3d cc 70 86 3b 7b 16 b1 bc 59 58 99 3c
       0.05141494 0.004102802 -0.021617165 0.018718885
000110 f2 a2 30 3c a5 a1 01 bd cc 26 d6 3c 42 26 6d 3c
       0.010781037 -0.031648297 0.026141547 0.014474453
000120 cc 34 c7 bc d9 bf 76 3d 9c b8 c4 bc 5a 08 73 3d
       -0.024317168 0.060241554 -0.02401381 0.059334137
000130 f4 a5 46 bd 27 16 4a bc 92 c3 5f 3c f6 53 d0 bc
       -0.04849811 -0.012334383 0.013657467 -0.02543066
000140 1e 4f e6 bc 9d 14 8e 3c 26 94 e6 3a 67 7f 91 bc
       -0.028113898 0.017343814 0.0017591759 -0.017760945
000150 28 7e 8d bc c2 58 8b 3c b4 84 06 3d a7 e0 3f bd
       -0.01727207 0.017010096 0.0328414 -0.046845105
000160 16 2f 1b bd f6 e2 d7 3c fa 1c 87 bd e7 47 a0 bd
       -0.0378867 0.02635334 -0.06597324 -0.07826214
000170 ae 3e 31 3d 5a 35 2b 3d d0 ff 2d bd 9c 3f c2 3b
       0.043272667 0.041798927 -0.04248029 0.005927993
000180 eb 6d 26 3d d0 dd 33 3d 1e 07 e4 bc e5 fe f8 bc
       0.04063217 0.04391271 -0.027835425 -0.03039498
000190 9c bf f1 bb 3a d4 e6 bb 6e b7 19 bd 07 3c 9c 3d
       -0.007377578 -0.0070443423 -0.037528448 0.07628637
0001a0 5f 22 34 3d c9 bb ff 3c bd e5 68 3d 7a 97 79 3d
       0.04397809 0.031217473 0.05685972 0.060935475
0001b0 82 f1 f3 bc a4 0e c2 bc 51 5c d7 3c d7 2d 5e bd
       -0.029778246 -0.023688622 0.026289137 -0.054242935
0001c0 0d 37 0b 3d 78 2e 5c 3d cd 21 4e 3d 84 7f 78 bd
       0.033988047 0.053755254 0.050325204 -0.060668483
0001d0 f3 3d 09 bb ea ad 4f bd 6c bc af 3c 3b 7d 2e 3d
       -0.0020941466 -0.050702967 0.021452151 0.042599898
0001e0 f4 f6 19 bd b2 dc 15 bd 6b 95 31 3b 74 60 d7 ba
       -0.03758903 -0.036587425 0.0027097117 -0.0016431944
0001f0 d6 93 77 bc 53 51 40 3d 5a 59 0f 3d 1d e6 11 bd
       -0.01511093 0.046952557 0.03499732 -0.035619844
000200 2e 4b ac 3c fa 86 58 bd e2 c7 22 bd da a7 6f bc
       0.021031942 -0.0528631 -0.039741404 -0.014627421
000210 89 cd ce 3c aa 9b e1 bc 78 2d 66 3d 76 77 c5 bc
       0.025244491 -0.027540047 0.056195706 -0.024104815
000220 e6 ef 74 3c 11 81 0a 3c e7 cd 12 3d d6 26 cf bc
       0.014949774 0.008453623 0.035840895 -0.025287073
000230 5e 19 1e bd ec 01 25 3d 13 7d c6 3c 1d d4 28 bc
       -0.03859841 0.040285036 0.024229562 -0.010304478
000240 0d c3 80 3c 45 d6 98 bc cc 8a 44 bd 0a 4e 88 3b
       0.015718007 -0.01865686 -0.04798393 0.0041596936
000250 5e 10 55 bd c0 90 4c 3c ac d0 56 bd ae 51 99 bc
       -0.052017562 0.012485683 -0.0524451 -0.018715706
000260 7d 2d 3e 3c 67 eb 42 bc 0b ec 17 3d 6c e2 d0 3c
       0.011607525 -0.011896945 0.037090342 0.025498591
000270 61 8f 3b 3c 43 c1 68 bd 07 28 02 3d a0 f5 cb 3c
       0.011447758 -0.056824934 0.031776454 0.024897397
000280 ab 5a 46 bd 25 ad 91 3c c2 64 a3 3d 44 28 2d bd
       -0.04842631 0.017782757 0.079782024 -0.04227473
000290 64 d2 87 bd 8b 9d 88 3d 09 66 95 3c 91 c0 64 bd
       -0.06631926 0.06670674 0.01823713 -0.055847708
0002a0 55 9b f1 bc 57 e3 2a 3d 30 4b 85 3d 82 93 bc 3c
       -0.029493013 0.041720714 0.065084815 0.023019556
0002b0 c6 8b af 3d d1 99 72 3d 89 63 b4 3c fc b5 21 3b
       0.085715815 0.059228722 0.022020118 0.0024675122
0002c0 c9 3f f6 bc 7e 39 b0 3b f3 ea 35 3c 3b 7f 81 3d
       -0.030059712 0.0053779474 0.01110338 0.063230954
0002d0 d7 83 ff 3c 11 30 71 3c f0 4b 71 bd 9a f4 d9 3c
       0.031190796 0.014720933 -0.05891031 0.026605893
0002e0 6a f2 2f bd 25 d8 00 bd 47 f0 cf 3b 3a 8f c3 bc
       -0.042955793 -0.03145613 0.006345782 -0.023872007
0002f0 58 e7 89 bd 75 27 fc bc 4e 6a cd 3b 87 01 2c 3d
       -0.067335784 -0.030780533 0.006268776 0.041993644
000300 56 9d fb bc 6b a8 3f 3d 39 a7 fb bc 12 60 60 bd
       -0.030714672 0.046791475 -0.030719386 -0.05477912
000310 05 d0 13 bd 3a 0f b4 bc c5 37 19 3d 83 4f 95 bc
       -0.036087055 -0.021979917 0.0374067 -0.01822639
000320 56 ec 5d bd a9 cf 66 bc 1c 9f 56 bd 37 21 62 bc
       -0.054180466 -0.014087596 -0.052397832 -0.013801864
000330 ac 55 42 3c 2c fc 51 3c c5 03 ef 3c 36 c7 70 bd
       0.011861246 0.01281647 0.029176602 -0.058783732
000340 78 4e 2f bd 5e 10 bb 3a 9e 32 05 3d f1 ad f2 3c
       -0.042799443 0.0014271846 0.032518975 0.029623957
000350 46 4e 94 3d 8f 5f 72 3d 5f fe 1f 3c 20 ab c9 3c
       0.07241492 0.059173163 0.009765237 0.024617732
000360 7e b8 7a 3d a6 e7 dc 3b 55 0e 45 bc 74 a7 83 3c
       0.0612111 0.006741482 -0.012027343 0.016071059
000370 7f 8c 39 3d e1 0d a0 3c 27 6f ee bc 58 ef f2 bb
       0.045300003 0.019537868 -0.029105736 -0.007413786
000380 9c 31 4d 3d 75 db 2f bd 8e 67 03 3d a1 8b 5c 3d
       0.05009614 -0.0429339 0.03208118 0.053844098
000390 79 5e 2d 3d 71 c1 2c bd 5b d0 aa bc 65 f6 80 3d
       0.042326424 -0.042176668 -0.020851305 0.06296996
0003a0 fb e5 3e 3d a6 04 e9 ba 30 2c 07 3d b8 82 1e 3d
       0.046606045 -0.0017777875 0.033001125 0.038698882
0003b0 95 38 95 3c 48 7a 7c 3d e0 8b da bc a4 10 73 bc
       0.018215457 0.061640054 -0.026678026 -0.01483551
0003c0 84 2f 5f 3d 3f 3f 7f bd c6 79 76 bb 30 b4 d4 3c
       0.054488674 -0.062316176 -0.0037609204 0.025964826
0003d0 dd 9d d8 3c 90 7a 39 bd 00 9b 85 bc 30 a2 cb bc
       0.026442463 -0.0452829 -0.016309261 -0.02485761
0003e0 02 98 09 3d 77 0e 9a 3c 39 36 2c bd 36 3a e0 3c
       0.03359223 0.018805725 -0.0420439 0.027371507
0003f0 89 35 32 3d 0a ce e1 3c 61 3d cb 3c 8a 7c 48 bd
       0.043508086 0.027564067 0.024809541 -0.048946895

encoder.3.bias f4 [40]
000000 97 b5 f1 3b 09 ac 90 ba 0f 73 e9 bb a7 ba 1b bc
       0.0073763835 -0.0011037599 -0.0071243118 -0.009504951
000010 09 07 01 3c 75 37 35 bb 24 a8 f9 3b 8f 29 4d bc
       0.0078752125 -0.0027651463 0.007618921 -0.012522115
000020 76 92 4e 3a 01 51 6b bb 98 78 53 3a 45 1e 28 3b
       0.0007880101 -0.0035906436 0.0008066981 0.0025652808
000030 56 63 cb bb b1 30 c2 3a 32 01 ea 3b fb 9e 6a 3a
       -0.00620691 0.0014815537 0.007141256 0.00089500815
000040 cc a2 81 bb 8b 03 25 bc c4 9e e4 bb 66 48 ad bb
       -0.0039561745 -0.0100716455 -0.006976934 -0.0052881716
000050 07 31 ff bb ae 19 5d 3b 2b 8e 47 3c 95 2f a7 bb
       -0.007787827 0.003373723 0.012179892 -0.0051021078
000060 1c fc 8c bb 3d 99 68 3b 0a 0f cd 3b b5 d4 a2 bb
       -0.0043025147 0.0035491728 0.0062578963 -0.0049692043
000070 d3 11 9f ba eb ed 88 bb b8 4b 74 bc 62 e4 88 bb
       -0.0012136049 -0.0041787527 -0.014910631 -0.004177616
000080 49 78 97 bc 5a 08 d2 bb 36 63 49 bc e0 20 62 bb
       -0.018489974 -0.006409687 -0.01229172 -0.0034504458
000090 2b 4d 06 bc 4a dc 6a bb 37 70 4a b9 65 c3 26 3a
       -0.008197109 -0.003583687 -0.00019306024 0.00063615135

encoder.4.block.1.weight f4 [40, 40, 3, 3]
000000 f1 f7 61 3d e8 98 a5 3b 39 4e 21 3c c6 6a 02 3b
       0.055168096 0.0050536282 0.00984531 0.0019900068
000010 68 d4 9b bd 1d bb d9 bd c2 99 98 bd 00 d2 b3 bd
       -0.07608873 -0.10631392 -0.07451202 -0.08780289
000020 e9 01 1b 3d 30 03 31 bd 9c 06 1a bd b1 41 a1 3d
       0.03784362 -0.04321593 -0.03760396 0.07873858
000030 bf c4 97 3d 9b e3 85 3d 39 e3 85 bd 86 0a bc bb
       0.07410573 0.06537553 -0.0653748 -0.005738559
000040 1f 9f 5c 3d 04 fd ab 3d 0f 89 1c 3c 6f 2c 21 3d
       0.053862687 0.08397868 0.009554162 0.039349016
000050 a5 fa 82 3d 2a 6b 8d 3d c3 71 8d 3d 5d 04 bc bc
       0.06395463 0.069052055 0.06906464 -0.0229513
000060 69 0a 9e bb 30 b4 25 3d a3 db 8c 3d e1 59 c4 bc
       -0.0048230183 0.040455043 0.0687783 -0.023968639
000070 4e cb 9a 3c 08 17 85 3d db e8 82 bd 78 0a c0 bc
       0.018895771 0.064985335 -0.0639207 -0.023442492
000080 8f d3 c2 bd 9a 00 89 bd 68 64 a1 3d ce 9f 78 bd
       -0.09513008 -0.06689568 0.07880479 -0.060699277
000090 36 01 4a bd 09 d2 8d 3c 9f 51 6c bc dd 06 b1 3d
       -0.04931756 0.017312067 -0.014423757 0.08643887
0000a0 aa 69 6f ba c0 ca a6 bd 00 ec 58 3d b0 82 01 bd
       -0.00091328716 -0.0814414 0.052959442 -0.031618774
0000b0 ce dc 37 3c 2a 1a bc 3c d8 91 b2 bd f3 67 ee bb
       0.0112220775 0.022961695 -0.08719224 -0.0072755753
0000c0 50 ed 72 3d 40 c0 7b bb e0 f8 60 bd d2 a6 9a 3d
       0.05930835 -0.003841415 -0.054924846 0.0755135
0000d0 9e 1e ca bd 08 9c 6b bd db 52 0d 3d bb 58 0b 3e
       -0.09869121 -0.05752185 0.034502845 0.13608067
0000e0 b8 3e 4e 3c da 04 18 3e f5 85 35 3e d5 9d 64 bd
       0.0125881955 0.148456 0.17726882 -0.055814583
0000f0 71 07 66 ba 63 4c c3 3b 2f d4 fd 3b 83 89 8c bd
       -0.00087749126 0.0059600337 0.0077462415 -0.06862166
000100 17 71 86 bc 0c 35 7c 3d 5b 42 84 bd 1a c4 58 3d
       -0.016411347 0.061574027 -0.06457969 0.052921392
000110 fc ab 85 bb 33 cf 07 3b 02 9c a6 bd 1a f5 80 bd
       -0.00407934 0.0020722866 -0.08135225 -0.062967494
000120 e1 c1 05 bd 3f b0 27 bd cf ac cc ba a1 92 59 3c
       -0.0326556 -0.040939566 -0.0015615466 0.013279588
000130 18 16 0f bd af e2 3c bd a2 d9 4e ba 36 cd ab bd
       -0.03493318 -0.04611462 -0.0007890706 -0.0838875
000140 f3 c1 7e 3d 9e c4 97 3d a9 2a 45 bd 92 7a b3 bc
       0.062196683 0.074105486 -0.048136387 -0.021909032
000150 b0 50 92 3d 56 80 ad 3d 76 c3 b8 bd e8 6e 71 bd
       0.07144296 0.08471744 -0.09021656 -0.05894366
000160 3a 82 94 3c a1 d8 09 bc 3f 81 c2 3c 43 42 c4 bc
       0.018128503 -0.008413465 0.02374327 -0.023957377
000170 df f9 48 bd 94 ad 18 bd 40 f0 a1 bd cf 86 20 3d
       -0.04906642 -0.037274912 -0.07907152 0.039191063
000180 be 13 7a 3d a1 19 3e bd 29 bc 7f bd c9 e0 90 bd
       0.061053984 -0.04641116 -0.062435303 -0.07074124
000190 0c 2f 58 bd da ac 15 bd 7d 9f 92 3c d8 f8 00 3d
       -0.052779242 -0.036541797 0.017898316 0.031487316
0001a0 23 91 1b bd 5e 5c 68 bc 31 6e 8e bd 97 a0 a3 bd
       -0.03798021 -0.014182178 -0.06954611 -0.079896145
0001b0 61 e4 64 bb 89 f1 af 3d ba e9 d4 bb 07 4b 90 bd
       -0.0034926163 0.08590991 -0.006497589 -0.0704556
0001c0 bb 2f d5 bb 07 ce 99 bc 64 e4 83 bd 4c 0d 19 bd
       -0.006505934 -0.018775 -0.064400464 -0.037366197
0001d0 c3 f6 41 bd f1 3e 2b 3d 55 2e f1 3c b3 a3 61 bd
       -0.04735447 0.041808072 0.029441038 -0.055087756
0001e0 d6 7e 9f 3d 51 7c ba bc f8 aa a6 bd 42 ed 29 3d
       0.07787864 -0.022764357 -0.081380785 0.041486032
0001f0 d4 8f 50 bc 54 95 ad 3d 67 4f 84 bc d1 2c 52 3c
       -0.012729604 0.08475748 -0.016151143 0.012828068
000200 43 11 3a bd 81 ee 32 3d b7 b1 4a 3c dc d1 3e 3d
       -0.04542662 0.043684486 0.012371472 0.046586856
000210 cc aa a7 3c 5b 57 66 3d 76 40 a6 bd 13 71 15 3c
       0.020467184 0.056235652 -0.08117764 0.009121197
000220 09 8c cc 3c 7d 9d 6f 3d fd 03 95 bc 97 e6 ef bb
       0.024969118 0.058499802 -0.018190378 -0.0073211896
000230 a2 77 21 3d 6d 2d 75 3b 64 cd 66 3d 56 9c 2f bd
       0.03942073 0.003741111 0.05634822 -0.042873703
000240 a5 e7 db bc b5 17 66 bd 56 3b b3 bd 0a d0 a1 3d
       -0.026843855 -0.056174953 -0.08751552 0.079010084
000250 76 2c 4b bd 2b e6 fa 3c dc 05 91 bd 16 c8 1c bd
       -0.049602948 0.03062733 -0.07081196 -0.038276754
000260 d4 8f 61 3c 3b dc af 3d e6 bb 1a 3d c5 ce 33 bd
       0.013767201 0.085869275 0.03777685 -0.043898363
000270 ca be b0 bc 3f 0a 9c bd 96 ae 5c bd 79 45 21 bd
       -0.02157535 -0.07619142 -0.053877436 -0.039372895
000280 25 75 96 3d e6 1b 6d 3c 86 41 3d 3d 2e fe 76 3d
       0.07346562 0.014471984 0.046205066 0.060301
000290 d6 8e 7e bd e3 90 17 3d f4 91 ca bc d0 b8 54 3c
       -0.062147938 0.03700341 -0.024727799 0.012983516
0002a0 15 8d b0 3d e4 7d ef bc 98 cb 13 3c c9 5d b8 3d
       0.08620659 -0.029234834 0.0090207085 0.09002263
0002b0 3c b3 e4 bc 70 91 03 bd 34 72 ce bc ba a8 07 bd
       -0.027917497 -0.032121122 -0.02520094 -0.033119895
0002c0 8b 5f a3 3c 7a ee 97 bd 35 77 8a bd 4c 98 76 bc
       0.01994302 -0.07418533 -0.06761018 -0.015050959
0002d0 b9 9f 03 bc 2d 0e 91 3d 65 ce a4 bd 3b 53 b6 3d
       -0.008033686 0.07082782 -0.08047179 0.08902594
0002e0 78 90 a7 bd 8d 88 d4 bc 61 f1 12 bd fe d8 a7 3d
       -0.08181852 -0.025944019 -0.035874728 0.08195685
0002f0 1a 1f b9 3d 85 ab f7 bc 26 68 c7 3c ad d8 82 bd
       0.09039135 -0.030233154 0.024341654 -0.06388984
000300 4d 1f 02 3c 1e c9 ab 3c ce 94 4b bd 8c 99 ac bc
       0.007942033 0.020969924 -0.049702458 -0.02106931
000310 b8 6b 2a 3d f0 da 71 3b 2d 1b 9f 3c 86 44 52 3c
       0.041606635 0.0036904179 0.019422138 0.01283372
000320 f4 1d cb 3c ad b9 3c bd 97 da 90 3d cd b0 c1 3c
       0.024794556 -0.04607551 0.07072943 0.023643875
000330 a6 9f 29 3d 83 53 23 bd 32 a3 09 3b 64 33 66 3d
       0.04141202 -0.039874565 0.0021001813 0.056201354
000340 96 6b 52 3d 6e 17 99 bd 34 82 44 bd f2 7f 86 bd
       0.051372133 -0.07475172 -0.047975734 -0.065673724
000350 21 9a 1d 3c 36 b4 d8 bc d4 fc e7 3c ac e9 8c 3d
       0.009619267 -0.026453119 0.0283188 0.06880507
000360 69 dc 68 3d 8c 8a 74 bd cd 10 9e 3c a0 2a 94 3d
       0.056850825 -0.05970244 0.01929512 0.072346926
000370 1b e4 a1 3d 91 12 94 bd 27 2e b7 3c fc 22 77 3c
       0.07904836 -0.07230104 0.022360874 0.0150840245
000380 cb b8 48 3d eb 84 ef bc e5 83 e7 bb de c9 cc bb
       0.049004357 -0.029238185 -0.0070652836 -0.0062496504
000390 47 61 b3 bd 2b cb da 3d c4 38 fe 3c 51 69 86 3d
       -0.087587886 0.106832825 0.031032927 0.06563056
0003a0 0c 1c a6 3c 53 47 0d bc e1 74 dc 3b dc 09 1c 3d
       0.020277046 -0.008622962 0.0067278002 0.03809534
0003b0 bd b7 88 3d 70 ca 3a 3d 8d b9 a8 3d 36 85 4e 3d
       0.0667567 0.045603216 0.08238516 0.05042001
0003c0 b2 56 4d 3c eb c9 99 bd 61 2b fd bc 25 df 74 bd
       0.012532877 -0.07509216 -0.030904474 -0.05978312
0003d0 81 95 21 bd 5a 75 72 bd 19 71 42 3d 01 be bb 3b
       -0.03944922 -0.059193946 0.04747114 0.0057294373
0003e0 28 d4 90 3d 50 73 91 bd 1c e7 7e 3d 2d f4 c0 bd
       0.070717156 -0.07102072 0.06223212 -0.09421573
0003f0 b3 87 8b 3d 7d 13 c0 3b f1 b4 fc 3d ec 10 6a 3d
       0.06812992 0.005861698 0.12339199 0.057145044

encoder.4.block.1.bias f4 [40]
000000 a3 50 33 3b 70 ad a6 bb b0 ab 95 b9 0e a6 37 3a
       0.0027361296 -0.0050865933 -0.00028547412 0.000700564
000010 bc d3 24 ba 47 13 27 3b bc 0e a9 3a 40 91 9c 39
       -0.00062876544 0.0025493668 0.0012898068 0.00029862858
000020 1c 5b 29 3a 6c b6 4b ba f0 a6 8d 3b b9 75 04 3c
       0.0006460415 -0.00077710184 0.004322879 0.008084708
000030 69 b7 04 ba 9e cc cc 3a 75 c3 5c ba f8 5b 90 3a
       -0.00050627306 0.0015624946 -0.00084214594 0.0011013737
000040 1a 12 f5 ba d1 9f cc ba 3d f3 b4 39 44 b0 62 3a
       -0.0018697411 -0.0015611594 0.00034513502 0.00086474814
000050 b5 14 88 b7 82 4a b0 37 3d a1 d7 b9 de 6f 08 bb
       -1.6222106e-05 2.101553e-05 -0.00041128127 -0.0020818631
000060 e0 b9 57 3b a5 aa 7f b9 26 69 95 3a b0 be aa 3b
       0.0032917187 -0.00024382265 0.0011399135 0.00521072
000070 29 de 7d b8 b9 2d 1a 3a 73 06 e4 3a 1c 3c c2 3a
       -6.0526803e-05 0.0005881447 0.0017396942 0.0014818939
000080 c0 ac c7 3a eb 57 e8 3a 0b c6 f3 b9 dd 38 9b 3b
       0.0015233979 0.0017726397 -0.00046496125 0.0047370032
000090 b3 24 49 bb dc db 1e 3a ce 7e 93 39 49 f0 2c 3b
       -0.003069204 0.0006059983 0.00028132502 0.0026388338

encoder.4.block.2.weight f4 [40]
000000 09 fd 7c 3f f3 02 70 3f 09 6c 71 3f 4e 7f 75 3f
       0.988236 0.937545 0.94305474 0.95897377
000010 aa b3 7d 3f aa ba 7e 3f ea 6d 79 3f 37 07 7d 3f
       0.9910227 0.99503577 0.9743334 0.98839134
000020 09 7c 72 3f df 03 70 3f 5a 35 80 3f 93 67 81 3f
       0.9472051 0.93755907 1.0016282 1.0109733
000030 23 4a 80 3f c9 62 8b 3f b8 c6 82 3f dc 16 80 3f
       1.0022625 1.0889522 1.0216894 1.0006976
000040 53 24 80 3f 4e e2 7a 3f fd 38 83 3f 5d c7 89 3f
       1.0011085 0.98001564 1.0251766 1.0763966
000050 cb 8e 7c 3f 0a f2 86 3f 78 05 7a 3f cd 88 6c 3f
       0.98655385 1.0542614 0.97664595 0.9239624
000060 fa fc 73 3f c6 be 79 3f f9 b1 8b 3f 7e dc 81 3f
       0.95307887 0.9755672 1.0913688 1.0145414
000070 3c 9d 86 3f 7f b2 80 3f a9 bb 84 3f 7e 51 84 3f
       1.0516734 1.0054473 1.0369769 1.033737
000080 5f c2 7c 3f be 50 89 3f 9e 0a 82 3f 36 b0 84 3f
       0.98734087 1.0727766 1.015949 1.0366275
000090 4d 61 76 3f c6 13 71 3f 85 eb 7c 3f 8e bb 7f 3f
       0.9624222 0.94170797 0.98796874 0.9989556

encoder.4.block.2.bias f4 [40]
000000 23 90 9e 3d 22 9a aa bd 3d 08 39 bd a9 ce 99 3c
       0.07742336 -0.0833018 -0.045173872 0.018775301
000010 bf 36 81 3d 06 d0 db 3d 2a 0a 03 3d 68 e3 ce 3c
       0.0630927 0.10733037 0.031992115 0.02525492
000020 29 b7 f2 ba fa e3 af bc cc 6f 96 3d c1 31 fa 3d
       -0.0018517721 -0.021471012 0.07345542 0.12216521
000030 94 a9 03 3d b3 61 06 3e ad 27 00 3e 04 93 c9 3c
       0.032144144 0.13123207 0.12515135 0.024606235
000040 ab 68 f9 3b 04 89 b1 3c 13 7c 9c 3d 2f de f4 3d
       0.0076113543 0.02167178 0.07640853 0.11956441
000050 4d d0 5d 3d 26 86 46 3d 65 c7 07 3d 2d dc f7 bc
       0.05415373 0.048467778 0.03314914 -0.030256355
000060 70 cb ad 3c 70 3a 0e bb b8 bd af 3d e3 64 1a 3d
       0.02121517 -0.0021702312 0.08581108 0.03769387
000070 97 0c b9 3d c5 98 25 3d a1 70 b0 3d 9e ac ca 3d
       0.090356044 0.040428896 0.08615232 0.09896205
000080 fa 8c bd 3c 50 7a 15 3e b7 57 e7 3d 27 1b d7 3d
       0.023138512 0.1459744 0.11296027 0.10503226
000090 f9 d4 ea bb bf dc 1f bc 25 7e 54 3d e4 ea eb 3c
       -0.0071665016 -0.00975722 0.051878113 0.028798528

encoder.4.block.2.running_mean f4 [40]
000000 a4 f0 27 3f 63 93 7f bf f8 65 7b bf ce 64 8c be
       0.65601563 -0.9983427 -0.98202467 -0.27420658
000010 b8 13 a8 3f e6 4b 84 3f 56 ff 89 3f dd 42 12 3e
       1.3131018 1.0335662 1.0781047 0.14283319
000020 34 79 7b 3f 99 9f 61 bf e5 e6 57 3f fe a0 05 3f
       0.98231816 -0.8813415 0.8433669 0.5219878
000030 2a 13 0d 3f 51 48 08 3f cb f1 58 3f 7a ae 7a bf
       0.5510737 0.53235346 0.84743947 -0.9792248
000040 bb a2 a3 bf af 73 22 3d 9c 48 9c 3f 22 6a 16 3f
       -1.2784036 0.039661106 1.2209659 0.58755696
000050 d2 75 96 3d 19 f4 9e bf 15 52 bf 3d 7d 52 e9 be
       0.07346691 -1.2418243 0.09341828 -0.45570746
000060 2d a0 84 3f 6c 36 30 bf 23 8a 95 3f b6 4a 87 3f
       1.0361382 -0.6883304 1.1682781 1.0569675
000070 3e c9 c1 3e f4 82 db bf 50 44 5a 3f 26 0c 9a 3f
       0.37848848 -1.7149339 0.85260487 1.2034957
000080 28 3f 86 bf f8 4d 2d 3f e7 2f 90 3f 35 38 8a bf
       -1.0488024 0.67697096 1.1264619 -1.0798403
000090 00 da 2b bf be b4 7f bf 12 98 68 bf e9 3a 4e 3e
       -0.67129517 -0.99885166 -0.9085704 0.2013966

encoder.4.block.2.running_var f4 [40]
000000 2a 63 3a 3f b6 74 89 3f 1f d0 a3 3f 34 03 f9 3e
       0.7280756 1.0738742 1.2797889 0.48635256
000010 e1 f0 e5 3f f4 10 93 3f 1e 33 bc 3f 4b af 2d 3f
       1.7964135 1.1489549 1.47031 0.678456
000020 04 32 93 3f 1a 04 a4 3f e1 e8 45 3f 26 19 2f 3f
       1.1499639 1.2813752 0.7730847 0.6839775
000030 a4 e1 4e 3f 21 fa 0f 3f f4 33 8e 3f fd f1 c0 3f
       0.8081305 0.5624104 1.1109605 1.5073849
000040 ce 2c b0 3f d6 30 0b 3f 80 b7 b5 3f 1e c4 51 3f
       1.3763673 0.5437139 1.4196625 0.81939876
000050 e8 24 38 3f d9 a0 cb 3f 6e 2e 49 3f 77 ec 87 3f
       0.71931314 1.5908462 0.7858647 1.0619038
000060 8b dd 6b 3f 8f 37 4d 3f a6 a7 a1 3f 97 88 b3 3f
       0.9213492 0.801629 1.2629287 1.4026059
000070 a5 f3 54 3f 2f b7 0e 40 2d 59 8b 3f 0a 24 d5 3f
       0.8318427 2.2299306 1.0886589 1.6651623
000080 f8 1a 96 3f dd 89 00 3f d7 58 be 3f c0 bd 9b 3f
       1.172698 0.5021036 1.4870862 1.2167282
000090 5c 9c 58 3f 3e 5a 5e 3f 3f 1e 89 3f 2d 06 63 3f
       0.84613585 0.8685645 1.0712355 0.886813

encoder.4.block.4.weight f4 [40, 40, 1, 1]
000000 e9 b2 3a 3e d3 b8 04 be fb 1e 87 3e 8a c3 44 bd
       0.18232311 -0.1296113 0.26390824 -0.048038043
000010 e3 b6 49 3e ae 6e 4c be 56 10 83 3d 2d 5a c1 3d
       0.19698672 -0.19964096 0.063996 0.09441028
000020 e3 3e 07 3e 4a a4 58 bc b0 55 3b be 13 b0 93 3d
       0.13207583 -0.013222763 -0.18294406 0.07211318
000030 9b 5a 51 3c a7 ea 92 be c4 b2 0e be ab 69 e3 bd
       0.01277795 -0.2869465 -0.13935381 -0.11104139
000040 68 a5 8b 3e b4 da 09 3d 19 8c 5d be 64 ea 58 be
       0.27274632 0.033655837 -0.21635474 -0.21183163
000050 1b 80 76 3c 48 c2 88 3d 93 e9 2f 3e 1b 0b 3a 3e
       0.015045191 0.06677681 0.17178945 0.18168299
000060 96 ae af 3d 43 5e 32 be 73 62 98 be 50 c8 87 be
       0.085782215 -0.1741877 -0.2976261 -0.26520014
000070 cf 33 8d be a1 78 5f bd 3f ed 01 be 65 36 ae 3d
       -0.2757859 -0.0545584 -0.12688158 0.08506469
000080 bb 27 05 3e bf 92 62 be dc 48 d0 3c 5a ed 7b bd
       0.13003437 -0.22126292 0.025425367 -0.061505653
000090 d2 67 e2 bd c9 38 a5 bd 67 20 5a 3e 17 2c ee 3c
       -0.110549584 -0.080674715 0.21301423 0.029073758
0000a0 cf a1 70 bd 51 c2 42 be f5 33 14 3e d2 7b f8 bd
       -0.058748063 -0.19019438 0.14472945 -0.12132992
0000b0 03 2e fc bd 5f 74 86 be ec 06 0b bd 8b 2d 5a bb
       -0.123134635 -0.2626066 -0.033942148 -0.0033291306
0000c0 35 00 5f 3e 7f 28 87 3d 6d b3 3b 3e a7 1d 76 bd
       0.21777423 0.06599521 0.18330164 -0.060086872
0000d0 03 80 6d 3e 0e e4 99 3d d5 3f 26 3e 06 2d ac bd
       0.23193364 0.07514201 0.16235287 -0.08407025
0000e0 1c bb 5c 3e 6f 76 44 3e 80 44 10 3d 51 38 8c 3d
       0.21555752 0.19185804 0.035221577 0.06846679
0000f0 b9 b2 63 3d 87 96 62 be dc bf cd bc 91 3d 1c 3d
       0.055590365 -0.22127734 -0.0251159 0.03814465
000100 e0 14 b3 3d a1 90 d0 3d 92 df 90 3e 2a 5b 97 3e
       0.08744216 0.10183836 0.2829557 0.2956174
000110 be d5 05 3b 1c 14 c7 bc a8 f0 fe 3c a1 29 1a 3e
       0.002042159 -0.024301581 0.031120613 0.15054943
000120 aa c5 b9 3d ec ad 49 3e 25 e7 91 3e 37 85 52 bd
       0.090709046 0.19695252 0.28496662 -0.051396575
000130 08 49 3c be 68 9e 56 be c2 dc 66 bd bc 4c 0d 3d
       -0.18387234 -0.20958865 -0.056362875 0.034497008
000140 bd cb ab bd 87 e8 82 3e 3f 43 82 be e9 31 33 be
       -0.08388469 0.2556803 -0.2544193 -0.17499508
000150 14 1e ed bd 17 3e da bd 1c 80 54 bd 86 52 11 be
       -0.115780026 -0.10656374 -0.051879987 -0.14191636
000160 d0 e4 af 3d 69 7d 93 bd 8c d6 59 3e b4 7e 38 be
       0.085885644 -0.072016545 0.2127325 -0.18017083
000170 8a c8 f9 3d 58 5f bb bd b3 b2 c3 bd 62 18 c3 3d
       0.12196453 -0.09149045 -0.095555685 0.09526135
000180 9d b5 39 be 34 fc 38 3d a2 c3 41 be ae b4 3b 3e
       -0.18135686 0.045162395 -0.18922284 0.18330643
000190 da fa 46 bd 65 a2 a1 3e 13 f3 4e 3d f7 0e 48 be
       -0.048579074 0.3156921 0.050524782 -0.19536959
0001a0 34 7a 47 be 1c d5 b7 bd a5 7f 7c be ec 2a 81 3d
       -0.1948021 -0.08976194 -0.24658068 0.06307015
0001b0 b8 7d 9f be e2 fa 1d be 58 56 18 be 4d 43 9a be
       -0.31150603 -0.15427735 -0.14876688 -0.3012947
0001c0 aa fd 71 bd 7f a2 fe bd f2 bb 80 3d c7 02 13 3e
       -0.059079804 -0.124333374 0.06285848 0.14356528
0001d0 94 f8 1e be d5 42 24 3e 6a c0 7c 3e 6e 2f 45 be
       -0.15524513 0.1604112 0.24682775 -0.19256374
0001e0 6e 8b 35 be 90 1d 5c 3e 3e 43 02 3e 75 65 41 3e
       -0.1772897 0.21495652 0.12720963 0.18886359
0001f0 aa 12 59 3e b0 7d 7b 3b 36 8b 22 be ae 7e 8a bd
       0.21198526 0.0038374476 -0.15873417 -0.067624435
000200 ed 40 d0 bd 39 29 0a be 6b 28 6b 3e 91 be 59 3c
       -0.101686336 -0.13492288 0.22964637 0.0132900635
000210 75 a0 67 3d 38 63 12 3e 65 56 ac bd 10 c9 26 be
       0.056549508 0.14295661 -0.08414916 -0.16287637
000220 15 e3 8d 3d 2f ea 1f 3d 18 c9 5a bc f7 50 45 3e
       0.06928078 0.039041694 -0.013353609 0.19269167
000230 d9 8e f0 3d 98 3b b4 3d 7f 46 12 be 7b 98 eb 3d
       0.11745996 0.08800429 -0.14284705 0.11503693
000240 65 be 4e be 2d 16 46 be f9 70 70 be ec 3a 5d be
       -0.20189817 -0.19344397 -0.23480596 -0.21604508
000250 03 53 89 3c d3 20 13 be e5 bb 17 3e 7b 9f 86 3d
       0.016763216 -0.1436799 0.1481777 0.06573387
000260 7c c0 a4 3d e2 c2 34 be 5e 43 90 3d b9 1b c7 3d
       0.08044526 -0.17652467 0.07044099 0.097220846
000270 79 53 86 3e 0c 06 ff 39 aa ed 71 3e 7f 5f cb 3c
       0.2623556 0.00048641895 0.23625818 0.02482581
000280 c3 d5 00 bd 51 5d 00 be d5 35 81 3c 66 71 27 3e
       -0.03145386 -0.12535597 0.01577274 0.16351852
000290 08 57 81 bc 27 47 74 be e4 24 64 3e 01 47 cb bd
       -0.01578857 -0.23855267 0.22279698 -0.09925652
0002a0 ac cd 2e be 08 44 39 3e 3c b8 09 be da 46 c4 bc
       -0.17070645 0.18092358 -0.13449186 -0.023959566
0002b0 1b 5b 0d 3e 85 10 62 3e 20 9a 53 3d 1f cb 77 3e
       0.13804285 0.22076614 0.051660657 0.24198578
0002c0 66 a9 90 be 3f 54 84 3e d0 fa 1d 3e fb f8 7d 3e
       -0.2825424 0.25845525 0.15427709 0.2480201
0002d0 1a 40 1c 3e f6 17 c0 bd 50 71 0b bd 33 ad 31 3d
       0.15258828 -0.0937957 -0.03404361 0.043378066
0002e0 58 98 d2 bd d8 93 5d bd 7e 80 30 3d 4e 99 2e 3e
       -0.102829635 -0.054096073 0.04309129 0.17050669
0002f0 ea f2 f0 bc 29 70 27 be 97 1d 97 3e e3 4a ba bd
       -0.029412705 -0.1635138 0.29514763 -0.09096315
000300 84 df 89 be e8 21 3b 3e cf 2a 8e 3e f7 7d 40 3c
       -0.2692834 0.18274653 0.27767035 0.011748782
000310 d1 4f cc bd 91 e7 1b be a2 71 7c 3c 33 43 d7 3d
       -0.09976161 -0.15225054 0.015407952 0.10510864
000320 8b f2 db bd 08 1b 88 bc 77 d0 79 3e d4 9a 27 3e
       -0.10739621 -0.016614452 0.2439593 0.16367656
000330 81 7f 10 be 60 92 2f be 4b cd 80 be e1 f3 7f 3e
       -0.14111139 -0.17145681 -0.25156626 0.24995376
000340 07 6c 0e be 93 f9 1d be bb e6 fc bd 10 88 7d be
       -0.13908397 -0.15427236 -0.12348696 -0.24758935
000350 2f 17 55 be 90 25 58 be 21 59 0e 3e d0 f9 45 3e
       -0.20809625 -0.21108079 0.13901187 0.19333577
000360 c3 68 54 3e 9b 6b e8 bc 59 ec e6 bc 44 f1 3d be
       0.20743088 -0.028371623 -0.028188871 -0.18549067
000370 5b b6 a4 3d 88 89 c3 ba e0 8b 8b bc 48 b5 f6 ba
       0.08042594 -0.0014918307 -0.017034471 -0.0018822337
000380 9b 32 9d 3d c9 75 56 be fe f2 ba bc 92 76 d3 3d
       0.07675668 -0.20943369 -0.022820946 0.1032535
000390 cc 7a 59 be 63 df 87 3e 77 27 41 be 12 02 1c bd
       -0.2123825 0.26537618 -0.18862711 -0.038087912
0003a0 00 52 29 be b4 f1 27 3e 4c ab 38 be 7c 47 ff 3d
       -0.16535187 0.16400796 -0.18034095 0.124648064
0003b0 8c 3c 60 bd 29 c9 5f be e9 9b ec 3d 46 b1 e1 3d
       -0.054745242 -0.2185408 0.11553175 0.1102014
0003c0 0f 50 89 be 6b c0 bb bd 71 a8 5c be 7c 5b ca bc
       -0.26818892 -0.0916756 -0.2154863 -0.024701826
0003d0 15 01 11 3d 3c 3a a2 bd fe 0b 53 3e 22 2e 60 3e
       0.035401423 -0.079212636 0.20610043 0.21892598
0003e0 e8 7f 80 3e 6b d0 ce 3d 0f bb a1 be a5 4c 8b be
       0.25097585 0.10098346 -0.31588027 -0.27206913
0003f0 20 83 8c bd a2 ce 2c be b3 fb 4b be 2a 31 ad bd
       -0.068609476 -0.16875699 -0.19920234 -0.08456643

encoder.4.block.4.bias f4 [40]
000000 5c 3a 04 bc b4 60 f8 3a f9 13 a0 bb 53 76 fc ba
       -0.008070555 0.0018949718 -0.0048851934 -0.0019261338
000010 48 0a 6b ba 03 f8 23 39 f5 bb 3b bc 42 40 16 bc
       -0.00089660706 0.00015637283 -0.011458387 -0.009170594
000020 54 7e 8b b8 d9 7a ba b7 af 67 10 bb 7d f6 80 bb
       -6.651567e-05 -2.2230133e-05 -0.0022034456 -0.0039356337
000030 64 2f 8d bb 0f 63 aa 3a b1 d5 d9 bb 2a 63 02 b9
       -0.004308628 0.0012999492 -0.0066477885 -0.00012434708
000040 2e 3e c5 bb 75 72 e0 39 c3 5f 2a 3b ef 12 1e 3c
       -0.0060193753 0.00042809887 0.002599702 0.009648069
000050 a1 a1 e5 3b 85 78 a9 bb 4a bb 94 3b 18 60 66 ba
       0.007007793 -0.0051718378 0.004538928 -0.0008788123
000060 35 5b b3 bb 94 23 6a bb 82 8e 7b bb db df 40 b9
       -0.005473519 -0.0035726773 -0.0038384502 -0.0001839394
000070 1e 13 ab bb f7 49 02 bc a0 88 d2 3a 32 63 b0 3b
       -0.005220785 -0.007952205 0.0016062446 0.0053829188
000080 ff 56 1c bb 9d be 55 bb 3b d5 00 bc 73 76 83 bb
       -0.0023855565 -0.0032614835 -0.007863338 -0.004011923
000090 e2 c6 bb bb 85 58 c2 bb 75 55 ec 3a 8d 0a bc ba
       -0.005730496 -0.0059309625 0.0018030839 -0.0014346406

encoder.4.block.5.weight f4 [40]
000000 8a 80 75 3f f7 d8 69 3f 17 d7 6c 3f 4c 6f 66 3f
       0.9589926 0.9134669 0.925157 0.90013576
000010 dd 72 73 3f 54 fa 7d 3f 04 7f 83 3f ad 10 49 3f
       0.9509714 0.99210095 1.0273137 0.7854107
000020 fc 8e 68 3f 57 6a 56 3f b4 4e 62 3f 90 c8 73 3f
       0.90843177 0.8375601 0.8840134 0.9522791
000030 30 84 61 3f 13 57 65 3f 1a 51 58 3f 7e 08 71 3f
       0.8809233 0.8958599 0.8449875 0.94153583
000040 27 c3 5b 3f 0b 90 71 3f 71 d3 67 3f 1f 24 51 3f
       0.85844654 0.9436042 0.9055701 0.8169574
000050 93 70 5a 3f 6b 93 6b 3f 41 e9 53 3f 46 f2 64 3f
       0.85328025 0.92021817 0.8277779 0.8943218
000060 24 95 62 3f 6c cb 4e 3f cd 7a 6b 3f e3 6a 80 3f
       0.8850882 0.8077915 0.91984254 1.0032619
000070 a6 2b 6f 3f 92 bc 67 3f 73 dc 75 3f e0 45 5f 3f
       0.9342598 0.9052211 0.96039504 0.87215996
000080 fc 6f 4f 3f ae 2d 6d 3f 61 c6 77 3f e1 22 80 3f
       0.8103025 0.92647827 0.9678708 1.0010644
000090 6e ba 6c 3f 39 85 72 3f 57 27 60 3f 59 f5 6f 3f
       0.9247197 0.9473453 0.8756003 0.93733746

encoder.4.block.5.bias f4 [40]
000000 7e 2f 1f be 61 dc 6f 3c 55 23 82 bd bf 59 11 bd
       -0.1554546 0.014639945 -0.06354395 -0.03548598
000010 ce 08 08 bc f9 e9 91 bc 89 b5 97 be ff 13 19 be
       -0.00830288 -0.017811762 -0.29630688 -0.14949034
000020 ec 08 41 3d 07 e2 11 bd f7 27 3a 3c 26 b8 34 bd
       0.04712765 -0.035615947 0.011362067 -0.04412093
000030 08 78 0f be 67 20 1c bc eb 47 87 3c 93 37 a5 bd
       -0.14010632 -0.00952921 0.016513785 -0.080672406
000040 28 3f cd bd f2 15 4b 3d a2 c1 08 3d ef 28 ae 3c
       -0.10021812 0.049581476 0.033387788 0.021259753
000050 c9 79 4b bd c2 6e f1 bc 2b be 5a bd 56 d0 ee 3c
       -0.04967669 -0.029471759 -0.053404015 0.029152077
000060 3a 15 05 bc 12 3a 00 be ed 30 9f bb e3 4d 90 3d
       -0.008122737 -0.12522152 -0.0048581273 0.07046106
000070 d9 bd b1 bd 44 3f bf bd bf 03 19 bd 24 c3 1c 3d
       -0.08678789 -0.09338239 -0.03735709 0.038272038
000080 a2 96 72 bd 61 42 00 bd 75 55 ca bc 6c e5 a5 bd
       -0.059225686 -0.031313304 -0.024698952 -0.081003994
000090 2b fe ec bd 5f ad 2e bd 50 5a e2 bc 14 74 5d bc
       -0.11571916 -0.04264581 -0.027630955 -0.013516445

encoder.4.block.5.running_mean f4 [40]
000000 97 16 fe be 58 d3 36 3f 8f 83 52 bf 48 f0 71 3e
       -0.4962661 0.71416235 -0.8223199 0.23626816
000010 92 47 f0 3e 50 7e f3 be 93 73 6d be 7d ce 40 bf
       0.46929604 -0.47557306 -0.2318862 -0.75315076
000020 6b d1 f7 3e f2 97 5b 3d dd a8 18 3d 10 e0 c3 3d
       0.4840196 0.053611703 0.037270416 0.09564221
000030 d1 f9 38 3d be 49 dc 3e 8e fa 34 3e c5 ce 77 3d
       0.04516012 0.4302501 0.17673704 0.060499925
000040 4c 46 af be db c4 15 3e 57 f3 1b 3f da 0a 11 3f
       -0.3423332 0.14625876 0.6091818 0.56657183
000050 48 80 eb 3e 80 88 df bd 7b 3d 61 3f 4a 0e 60 be
       0.45996308 -0.10914707 0.87984437 -0.21880451
000060 4f ba 93 be eb d7 7e bc 17 88 8c bd e3 c0 82 3f
       -0.2885308 -0.015554409 -0.068618946 1.0215114
000070 a9 72 66 3e 9c 0c 53 be 3b 85 22 3e 52 ce 03 3f
       0.22504677 -0.20610279 0.15871136 0.51486695
000080 e1 e2 d3 bb ea 11 80 be f9 a2 b0 be 39 2c b6 be
       -0.006466255 -0.25013667 -0.34499338 -0.35580614
000090 5c 27 0a bf c2 24 2b 3e 67 af cb 3e 63 20 99 be
       -0.5396631 0.1671324 0.3978226 -0.29907522

encoder.4.block.5.running_var f4 [40]
000000 66 ab 97 3f ad 39 d6 3f 7e 75 a1 3f 88 e7 2e 3f
       1.1849182 1.6736351 1.2613981 0.6832204
000010 e9 c0 9f 3f 3d 20 e5 3f 97 f7 91 3f 00 c3 91 3f
       1.2480747 1.7900463 1.1403683 1.1387634
000020 bd 38 ce 3f e8 20 21 3f 44 13 a2 3f b9 2e 7d 3f
       1.6111065 0.62940836 1.2662129 0.9889942
000030 64 17 d3 3e 37 8c a6 3f d8 24 dd 3f 89 c0 d3 3e
       0.41228783 1.301154 1.7276869 0.4135783
000040 9c 14 63 3f 12 e8 1b 3f d0 00 bf 3f ad ca ec 3e
       0.8870332 0.60900986 1.4922123 0.4624838
000050 4b 73 05 3f a7 04 be 3f 7c 7f 8f 3f 63 64 9c 3f
       0.5212905 1.484517 1.121078 1.2218136
000060 de 77 25 3f d9 e1 15 3f 78 47 8a 3f 4c 0b c1 3f
       0.6463603 0.5854774 1.080306 1.5081573
000070 73 44 5b 3f 7f 96 1e 3f 08 59 27 3f d2 09 8f 3f
       0.8565132 0.6194839 0.65370226 1.1174872
000080 aa b1 65 3e 99 50 d0 3e 79 9b 28 3f 2c 26 f6 3f
       0.22431055 0.4068649 0.6586223 1.9230399
000090 14 43 52 3f 78 eb f3 3e cd de b7 3f 66 7d 30 3f
       0.82133603 0.47640586 1.4364868 0.6894134
