VQ-VAE/models/vqvae/model_48.pt (torch, 579012 bytes, 64 tensors)

encoder.0.weight f4 [40, 1, 4, 4]
0	0x3d04cccd	0.032421876
1	0x3b27a293	0.002557908
2	0xbd1dca2c	-0.038522884
3	0xbd854915	-0.0650808
4	0xbd66fff2	-0.056396432
5	0xbd91201b	-0.07086202
6	0xbe0f7279	-0.14008512
7	0xbd9bcd32	-0.07607497
8	0xbd5056fa	-0.050864197
9	0xbe01a468	-0.12660372
10	0xbe18f21f	-0.14936112
11	0x3d552456	0.052036606
12	0xbc742426	-0.014901197
13	0xbd93548d	-0.07193861
14	0x3d56e4c0	0.052464247
15	0x3d95452a	0.072885826
16	0x3d2b0cb2	0.041760154
17	0x3d7435a9	0.059621487
18	0xbd87bcc9	-0.06627805
19	0x3d72fa0a	0.059320487
20	0x3de42837	0.11140483
21	0x3e12a11e	0.14319274
22	0xbd258b27	-0.04041591
23	0x3d2a715d	0.041612018
24	0x3d821287	0.0635119
25	0x3dac2550	0.08405554
26	0xbdf40593	-0.11915126
27	0xbbbeed35	-0.005826617
28	0x3d65241a	0.055942632
29	0x3d965063	0.07339551
30	0xbca798dd	-0.020458633
31	0x3d996ffe	0.07492064
32	0x3da3a048	0.079895556
33	0x3db151c8	0.08658177
34	0x3dcef59b	0.10105439
35	0x3db0c27a	0.086308435
36	0x3cc0f01a	0.02355199
37	0x3c850ad1	0.01624051
38	0x3c6da9fc	0.014505859
39	0x3d92d2c4	0.071691066
40	0x3dad85e9	0.08472807
41	0x3d8f6552	0.07001747
42	0x3d38fc62	0.045162566
43	0x3d4891c4	0.048967138
44	0x3d21857d	0.039433945
45	0x3d18b2bd	0.037279833
46	0x3bd419b3	0.00647279
47	0xbba8b8e8	-0.0051489957
48	0x3bd1f961	0.006407902
49	0x3dad96ef	0.08476054
50	0x3dca3c4a	0.098747805
51	0x3d3ec0ab	0.04657046
52	0x3dabdb3d	0.08391426
53	0x3d97ed23	0.07418277
54	0xbd360c04	-0.044445053
55	0xbd8f1e80	-0.06988239
56	0x3dd8056e	0.10547911
57	0xbc418409	-0.011811265
58	0xbd7e2358	-0.062045425
59	0x3c62f447	0.013852186
60	0x3dc2a1bb	0.09503504
61	0x3cd70ebb	0.026252141
62	0x3d5842d9	0.052798126
63	0x3d358e5b	0.044325214
64	0x3cdee03e	0.027206536
65	0xbaa48a45	-0.0012553415
66	0x3c98d58d	0.018656516
67	0x3cdff386	0.0273378
68	0x3c5d98ce	0.013525201
69	0xbcaebb8c	-0.021329664
70	0x3ddeab6f	0.10872542
71	0x3b54cea7	0.0032471807
72	0xbd0c9c25	-0.0343286
73	0xbdbdf471	-0.09275139
74	0x3d22fac1	0.03978992
75	0x3da30aef	0.0796107
76	0x3d8b00eb	0.067872845
77	0xbd513cf0	-0.051083505
78	0x3d07854a	0.0330861
79	0x3e0fba53	0.14035921
80	0xbda6b2d1	-0.08139575
81	0xbd06f3fd	-0.03294753
82	0xbd39e74e	-0.045386605
83	0x3caea0f3	0.021316981
84	0xbde32b98	-0.11092299
85	0xbd84234b	-0.06452044
86	0xbe066626	-0.13124904
87	0x3cb753e0	0.022378862
88	0xbdbcab5f	-0.09212374
89	0xbd8936f0	-0.066999316
90	0xbdc7972d	-0.09745631
91	0x3da220a0	0.07916379
92	0xbd9d9367	-0.076941304
93	0xbd66feb2	-0.05639524
94	0x3d66d6a2	0.056357034
95	0xbc937f94	-0.01800517
96	0xbb698646	-0.0035633012
97	0x3d84eac7	0.06490093
98	0xbd26783f	-0.04064202
99	0xbca23477	-0.019800408
100	0x3da42a7b	0.08015915
101	0x3ca924f6	0.020647507
102	0xbdd6821b	-0.104740344
103	0xbd5f0c3e	-0.054455034
104	0x3d4b194d	0.049584676
105	0xbe0d77cd	-0.13815232
106	0xbd3aff5f	-0.045653697
107	0xbd8d8602	-0.069103256
108	0xbc344c6d	-0.011004549
109	0xbd58c404	-0.05292131
110	0xbc8cf32e	-0.0172058
111	0xbcc99b90	-0.02461031
112	0xbbbf0505	-0.005829456
113	0xbd7f2d2a	-0.06229893
114	0xbdfb7206	-0.122776076
115	0xbdb12433	-0.086494826
116	0xbd2b47d7	-0.04181656
117	0xbd43ca24	-0.0478002
118	0xbdc7b5f6	-0.09751503
119	0x3d6e901f	0.058242913
120	0xbe0a0c4f	-0.13481258
121	0xbd822dae	-0.06356369
122	0xbd1ee1d0	-0.03878957
123	0xbd263447	-0.0405772
124	0xbcd671d2	-0.02617732
125	0x3d857ddf	0.06518149
126	0xbd940785	-0.07227997
127	0xbcdb8819	-0.026798295
128	0xbc8c1fb1	-0.017104955
129	0xbcfeca68	-0.031102374
130	0x3a3a9dfc	0.00071188784
131	0x3d148ef1	0.036269132
132	0xbda700b2	-0.081544295
133	0x3d8f6418	0.07001513
134	0x3dae1dbd	0.08501766
135	0x3cc78fc8	0.024360552
136	0x3d83f65f	0.06443476
137	0x3df204f4	0.11817351
138	0xbd151dee	-0.036405496
139	0xbcbf0264	-0.02331657
140	0x3df6d5d1	0.12052501
141	0x3dd5f2ed	0.10446725
142	0xbc77d44d	-0.0151263
143	0x3d4d2bc4	0.050090566
144	0x3ccf8629	0.025332527
145	0x3d7f5d36	0.062344752
146	0x3d769b08	0.060206443
147	0x3d2dd740	0.042441607
148	0xbd38c1c1	-0.045106653
149	0xbd1f8f64	-0.038955107
150	0xbdfa7856	-0.122299835
151	0xbc84f933	-0.016232109
152	0xbe02ee85	-0.127863
153	0xbdb13d76	-0.08654301
154	0xbddf1651	-0.108929284
155	0x3cbcca82	0.023045782
156	0x3c35f3dc	0.011105504
157	0x3da7ff0b	0.082029425
158	0x3d5f0ad7	0.054453697
159	0x3d54142c	0.05177705
160	0x3d8ffe1b	0.07030889
161	0x3d09a5c4	0.033605352
162	0xbda10028	-0.07861358
163	0xbd7c5f35	-0.061614234
164	0x3d80f11c	0.06295988
165	0x3c647148	0.013943024
166	0xbccfde5d	-0.025374586
167	0xbd93b6c4	-0.07212594
168	0x3d2fcf1c	0.042922124
169	0x3cdbd1b7	0.026833398
170	0xbd1e62ff	-0.03866863
171	0xbdd02238	-0.10162777
172	0x3d8926a1	0.06696821
173	0x3d4572c7	0.048205163
174	0xbd328771	-0.0435862
175	0xbd8b314a	-0.067965105
176	0xbd80e83c	-0.06294295
177	0xbcea3942	-0.028591756
178	0x3c091a7e	0.008368133
179	0xba917470	-0.0011097323
180	0x3c532f56	0.012889704
181	0xbd129f61	-0.035796527
182	0xbcc16226	-0.023606371
183	0xbda49125	-0.080354966
184	0xbd4f6cd0	-0.05064088
185	0xbe4b5b30	-0.19859004
186	0xbe406b59	-0.1879095
187	0xbd339936	-0.043847285
188	0x3bbaf0ef	0.005704991
189	0xbd51762d	-0.05113809
190	0x3b91112d	0.0044270963
191	0xbd3d1804	-0.04616548
192	0x3c5be975	0.01342236
193	0x3d949100	0.07254219
194	0x3d8e6537	0.06952899
195	0xbc97f720	-0.018550456
196	0x3c0a4ea3	0.0084416
197	0xbd6a0552	-0.05713398
198	0xbd880921	-0.06642366
199	0xbdc4cec7	-0.09609752
200	0xbd42d237	-0.047563758
201	0xbdd48a17	-0.10377901
202	0xbddbf2d4	-0.10739675
203	0xbddf4101	-0.109010704
204	0xbd50e6db	-0.05100141
205	0xbd298239	-0.041383956
206	0xbd8e0a0f	-0.06935512
207	0xbdcae2e1	-0.09906555
208	0xbd97863a	-0.073986486
209	0xbd511d82	-0.05105353
210	0x3c98767c	0.018611185
211	0x3cf0fa24	0.029416151
212	0xbd8b72a1	-0.06808973
213	0xbdd9c1ed	-0.106326915
214	0xbdb6cbd1	-0.08925594
215	0xbcc3b08f	-0.0238879
216	0x3d517d2e	0.05114477
217	0x3c0f62db	0.008751596
218	0xbdb566b2	-0.08857478
219	0xbdd97050	-0.10617125
220	0x3d3e4091	0.046448294
221	0x3da5d745	0.080977
222	0x3c9a68e7	0.01884885
223	0xbce38fd6	-0.027778547
224	0x3cee775d	0.029109651
225	0x3bddf149	0.006773148
226	0xbb9cc301	-0.0047839885
227	0x3d0556c4	0.03255345
228	0x3d5c6310	0.05380541
229	0xbd66c93e	-0.056344263
230	0xbcf30c0b	-0.029668828
231	0x3cfc40d3	0.03079263
232	0x3d06c8e0	0.032906413
233	0x3d8c184a	0.0684057
234	0x3e2bfb00	0.16794968
235	0x3dfbd6fc	0.122968644
236	0x3cca1ae8	0.024671033
237	0x3d8637b5	0.06553594
238	0x3db157f5	0.086593546
239	0x3d2c91db	0.042131286
240	0x3d1cd489	0.038288627
241	0xbda1d065	-0.07901076
242	0xbd43447b	-0.04767273
243	0xbc1c64db	-0.00954553
244	0xbd856f8b	-0.06515416
245	0xbd4fb224	-0.050706998
246	0xbda0a981	-0.0784483
247	0xbd67d028	-0.056594998
248	0xbd978cec	-0.073999256
249	0xbdb79684	-0.089642555
250	0xbd40d29b	-0.04707585
251	0xbd4d4810	-0.050117552
252	0x3c52206c	0.012825113
253	0xbd2f6ff0	-0.04283136
254	0xbd9bae33	-0.07601585
255	0x3c167b38	0.009184651

encoder.0.bias f4 [40]
0	0x3926fd56	0.00015925369
1	0xb9be34a3	-0.0003627884
2	0xbb656ae5	-0.003500634
3	0xba0869e1	-0.00052037655
4	0xbba460c6	-0.005016419
5	0xb9c5c378	-0.00037720404
6	0x3b0bc944	0.002132968
7	0x3a604af1	0.0008556089
8	0xbb6c6a78	-0.0036074203
9	0x3bb6515d	0.0055638985
10	0x3a517e16	0.00079915056
11	0xba0f5a9c	-0.0005468519
12	0xbb276c7b	-0.0025546837
13	0xba70c558	-0.000918468
14	0xbacc81ec	-0.0015602685
15	0x3b6d092e	0.0036168802
16	0xbb0d83d9	-0.002159348
17	0xbb09097b	-0.0020910192
18	0xb96b2900	-0.0002242662
19	0xbad4b850	-0.0016229246
20	0xbbc96968	-0.0061465986
21	0x3924748d	0.00015683677
22	0xbb3d64f4	-0.0028899284
23	0xbb85dc71	-0.0040851166
24	0x3ae23491	0.0017258098
25	0x3aad323c	0.0013213824
26	0xba624c67	-0.00086326007
27	0x3a7744c8	0.00094325515
28	0x3ab11a49	0.0013511862
29	0xba1ab61e	-0.00059017714
30	0x3b9891f7	0.0046560722
31	0x3b9f401b	0.004859937
32	0x39c1d665	0.00036971565
33	0xbbb704d0	-0.0055852905
34	0x3b9c5393	0.004770705
35	0xb9402b9c	-0.00018326793
36	0xbac93aff	-0.0015352665
37	0xbb965885	-0.004588189
38	0xbb56485b	-0.0032696936
39	0xba8ab592	-0.0010582677

encoder.1.weight f4 [40]
0	0x3f4afa4e	0.79288185
1	0x3f303583	0.6883165
2	0x3f402a99	0.75065
3	0x3f1719df	0.5902385
4	0x3f2ee946	0.68324697
5	0x3f690a4a	0.91031325
6	0x3f4235b7	0.7586321
7	0x3f40b33b	0.75273484
8	0x3f2f6bb6	0.6852373
9	0x3f33623f	0.70071787
10	0x3f4ff31b	0.81230325
11	0x3f3c4fc4	0.7355921
12	0x3f5c7146	0.8611034
13	0x3f46e4b8	0.7769275
14	0x3f2a14d7	0.6643805
15	0x3f6e9075	0.93189174
16	0x3f4279d7	0.7596716
17	0x3f5cb5e9	0.8621507
18	0x3f431c33	0.76214904
19	0x3f5a1be6	0.8519882
20	0x3f26b777	0.65123695
21	0x3f4ba1f0	0.7954397
22	0x3f2f1f26	0.68406904
23	0x3f32dad3	0.6986515
24	0x3f0da108	0.5532384
25	0x3f3ee261	0.74564177
26	0x3f3d8046	0.74023855
27	0x3f0f9486	0.56086004
28	0x3f3b2437	0.73102134
29	0x3f3f470a	0.7471777
30	0x3f4fa197	0.8110594
31	0x3f4d8882	0.8028642
32	0x3f50448f	0.8135461
33	0x3f4508c1	0.7696648
34	0x3f5f5ef2	0.8725425
35	0x3f27c306	0.6553196
36	0x3f618544	0.8809397
37	0x3f75d2db	0.96024865
38	0x3f722ba3	0.94597834
39	0x3f38a88f	0.721322

encoder.1.bias f4 [40]
0	0xbd606857	-0.054787006
1	0xbcfb3a9b	-0.030667594
2	0x39d13c41	0.0003990848
3	0x3cb290fe	0.021797653
4	0xbbb1406f	-0.0054092924
5	0xbde38689	-0.11109645
6	0xbe194de9	-0.14971127
7	0xbe262b43	-0.1622744
8	0x3d7ea2c6	0.06216695
9	0x3d642ea4	0.055708542
10	0xbde7f46f	-0.11325919
11	0xbe013cce	-0.12620851
12	0xbe45beb6	-0.19311032
13	0xbe1070a2	-0.14105466
14	0x3e0eb6ee	0.1393697
15	0xbd0e2fbb	-0.034713488
16	0xbb8c2c4d	-0.004277742
17	0xbde57220	-0.11203408
18	0xbdf319d3	-0.1187016
19	0xbe1dcc81	-0.15410043
20	0xbd0899c3	-0.033349764
21	0xbdb788c4	-0.08961633
22	0x3e61f0e2	0.22064546
23	0xbda7c88c	-0.08192548
24	0x3dad604b	0.08465632
25	0xbdc67866	-0.09690933
26	0x3e3bfea7	0.18358861
27	0x3e1b333d	0.15156265
28	0xbdb8bf25	-0.09020833
29	0xbcbbc563	-0.02292127
30	0xbdff6b10	-0.124715924
31	0xbe49270e	-0.19643804
32	0xbe0f03af	-0.13966249
33	0x3e5e88d1	0.21731879
34	0xbd99b4dd	-0.075052
35	0xbe17889e	-0.14798209
36	0xbe24b682	-0.16085246
37	0xbe6377c4	-0.22213656
38	0xbe5e7c71	-0.21727158
39	0xbd9f3b01	-0.07774926

encoder.1.running_mean f4 [40]
0	0x3ef42b62	0.47689348
1	0xbebc6764	-0.3679763
2	0xbf0c62a8	-0.5483804
3	0xbeb5552e	-0.3541655
4	0xbe6f5441	-0.23371984
5	0x3ef969a9	0.48713425
6	0x3e88593a	0.26630574
7	0x3f039f67	0.51415104
8	0xbea759ac	-0.32685602
9	0x3e0539bb	0.13010304
10	0x3db24581	0.08704663
11	0x3f0db0f2	0.5534812
12	0x3efa176f	0.48846003
13	0x3e8d2c8c	0.2757305
14	0xbeec0c0f	-0.4610295
15	0x3f017d37	0.5058169
16	0xbe918ef5	-0.2842938
17	0x3f1ae649	0.6050764
18	0x3ef1ee05	0.47251907
19	0x3eb48f5a	0.3526562
20	0xbe9bb886	-0.30414218
21	0x3e6196ae	0.22030136
22	0xbe5c5016	-0.21514925
23	0x3e971e90	0.29515505
24	0xbde5d02d	-0.11221347
25	0x3e12d26d	0.14338084
26	0xbe7b4b01	-0.2454033
27	0xbdcc16d4	-0.099652916
28	0x3e0b8df5	0.13628371
29	0x3e801829	0.25018433
30	0x3e6c4995	0.23074944
31	0x3e85cb77	0.26131794
32	0x3e8daa91	0.27669194
33	0xbe853afb	-0.2602156
34	0x3eadb2ee	0.33925575
35	0xbe8808b9	-0.26569155
36	0x3f0ac1af	0.5420179
37	0x3ef93a58	0.48677325
38	0x3f129cda	0.57270586
39	0x3e193ec7	0.14965354

encoder.1.running_var f4 [40]
0	0x3e086070	0.13318038
1	0x3d857bcb	0.06517752
2	0x3df73456	0.12070529
3	0x3d8639fd	0.06554029
4	0x3cfe15b6	0.031016212
5	0x3e0338d6	0.1281465
6	0x3d689b3d	0.05678867
7	0x3de768d3	0.112992905
8	0x3d8346b2	0.064099684
9	0x3d076cdd	0.033062804
10	0x3d4ba752	0.049720116
11	0x3e06be5f	0.13158558
12	0x3e0bf424	0.13667351
13	0x3d259ea2	0.040434487
14	0x3dc4bdd3	0.096065186
15	0x3dd857b1	0.10563601
16	0x3d80de3f	0.0629239
17	0x3e2eab1e	0.17057464
18	0x3df006b2	0.11720027
19	0x3d94065f	0.07227778
20	0x3d3738f9	0.044732068
21	0x3d3024ff	0.043004032
22	0x3ccc50b3	0.024940824
23	0x3d8513fc	0.06497952
24	0x3cfc7a2d	0.030819977
25	0x3d5e64cb	0.054295342
26	0x3d3e468c	0.046453997
27	0x3d10f33b	0.035388213
28	0x3d1cbfb5	0.038268764
29	0x3d532427	0.05154815
30	0x3d519800	0.05117035
31	0x3d47a408	0.048740417
32	0x3d47584c	0.04866819
33	0x3d345f6f	0.044036325
34	0x3d4a9e22	0.049467213
35	0x3d8680a8	0.06567508
36	0x3e19ea3a	0.15030757
37	0x3de4165c	0.11137077
38	0x3e11e1d1	0.14246298
39	0x3cc0d718	0.023540065

encoder.3.weight f4 [40, 40, 4, 4]
0	0xbcac06b2	-0.020999286
1	0xbbdd8f12	-0.00676144
2	0xbc7f4d12	-0.01558234
3	0xbcb2bbbd	-0.021818036
4	0xbd43fd44	-0.047848955
5	0xbd97a740	-0.07404947
6	0xbc903ffb	-0.017608633
7	0x3ceafc71	0.028684827
8	0xba294848	-0.0006457609
9	0x3d7f4a92	0.062326975
10	0xbccad014	-0.024757423
11	0x3d2de38a	0.042453326
12	0x3d800623	0.062511705
13	0x3d558e9d	0.05213796
14	0x3ab45f96	0.0013761397
15	0xbb4b930c	-0.0031062989
16	0xbc91e47e	-0.017809149
17	0x3c1c2c44	0.009532038
18	0x3d34667c	0.04404305
19	0xbc02e8da	-0.007990086
20	0xbd27127f	-0.040789124
21	0xbca15146	-0.019692075
22	0x3d15918f	0.03651577
23	0x3d6e13e2	0.05812443
24	0xbb5e3df2	-0.0033911434
25	0x3c4ade37	0.012382082
26	0x3cb2b1f2	0.021813367
27	0x3dcf9f73	0.101378344
28	0xbb8e3ce5	-0.0043407553
29	0xbbada423	-0.0052991076
30	0x3d34b289	0.044115577
31	0xbc582918	-0.013193391
32	0xbceb397a	-0.02871393
33	0xbc939ad2	-0.01801816
34	0xbcad9bd5	-0.02119247
35	0xbcdf9a84	-0.027295358
36	0x3c76e828	0.015069999
37	0xbd5586dc	-0.052130565
38	0xbd827a87	-0.063710265
39	0xbc829309	-0.015939252
40	0x3d427f0e	0.04748445
41	0xbbcb5828	-0.0062055774
42	0xbda8eb52	-0.08248009
43	0xbd0d51b2	-0.03450174
44	0x3db6b1cc	0.08920631
45	0xbd61e700	-0.05515194
46	0xbd8088d5	-0.06276099
47	0xbbae5e26	-0.005321282
48	0x3d26f420	0.04076016
49	0xbcd0614b	-0.025437018
50	0xbcf80237	-0.030274494
51	0x3ca66672	0.020312522
52	0x3cdb1b4a	0.02674641
53	0xbd4e6176	-0.050385915
54	0xbcc8ac8e	-0.024496343
55	0x39a9e539	0.00032404976
56	0x3cf376bb	0.029719701
57	0xbd26ab47	-0.040690687
58	0x3cfc9c0d	0.03083613
59	0x3c9a97eb	0.018871268
60	0xbc19e7c2	-0.009393634
61	0x3d18136e	0.037127905
62	0x3aae8be2	0.0013316835
63	0xbcbdd6ec	-0.023173772
64	0x3d6ba68c	0.05753188
65	0x3ce907fc	0.02844619
66	0xbd172a4c	-0.03690557
67	0x3b112adf	0.0022150797
68	0x3d77049e	0.060307138
69	0x3d604f3e	0.05476307
70	0xbce99236	-0.028512102
71	0xbd1793c6	-0.037006162
72	0xbd397ffa	-0.045288064
73	0x3dd142cf	0.10217821
74	0x3c8def34	0.017325975
75	0xbc32218a	-0.010872254
76	0xbbb42611	-0.005497702
77	0x3c4dffa7	0.012573159
78	0x3c44791b	0.011991764
79	0x3c15d2f3	0.0091445325
80	0xbce5ebed	-0.0280666
81	0x3cd4eb99	0.025991248
82	0xbc5fc79e	-0.013658432
83	0x3d0f2313	0.03494556
84	0xbddaee3f	-0.10689973
85	0x3ccfee62	0.025382224
86	0x3d91af8d	0.07113562
87	0x3ca11f07	0.019668115
88	0xbd407f1f	-0.046996232
89	0x3e038468	0.12843478
90	0xbc06db75	-0.008231034
91	0xbd9a700a	-0.07540901
92	0x3d229941	0.039696936
93	0x3d150d25	0.03638949
94	0xbb56b1af	-0.0032759716
95	0x3c6d4051	0.014480666
96	0x3c8754ec	0.016519986
97	0xbc42b08e	-0.011882914
98	0x3bd3928d	0.006456679
99	0x3d2ac52d	0.041691948
100	0xbcaacc30	-0.020849317
101	0xbd80edba	-0.06295343
102	0x3d86a38d	0.065741636
103	0x3d20b1ba	0.039231993
104	0x3ce8c8ab	0.028415998
105	0x3d62567d	0.055258263
106	0x3c83d40e	0.016092326
107	0xbbfb1479	-0.0076623526
108	0xbc538979	-0.012911194
109	0x3d554c82	0.052074917
110	0xbb0d3697	-0.002154743
111	0x3c982404	0.018571861
112	0x3ca09eb5	0.019606927
113	0x3ce2fa4c	0.027707241
114	0x3d6b3756	0.05742582
115	0xbc98622e	-0.018601503
116	0xbacbe15f	-0.0015554837
117	0xbc83dcd2	-0.016096506
118	0x3d3d079a	0.046149828
119	0x3d5be6e8	0.053687006
120	0x3c6baadf	0.014384001
121	0xbc2b59ed	-0.010458452
122	0xbcac1b2e	-0.021009054
123	0xbd30b505	-0.043141384
124	0xbd8b4142	-0.06799556
125	0x3cc77f20	0.02435261
126	0x3da1b202	0.078952804
127	0x3ab9ff4f	0.0014190468
128	0xbc2ee7af	-0.010675355
129	0xbd89be14	-0.06725708
130	0xbd787e38	-0.060667247
131	0x3cebe2e5	0.028794715
132	0x3d825333	0.06363525
133	0xbd65caa9	-0.056101475
134	0xbc24cd31	-0.010058687
135	0x3cdd8a84	0.027043588
136	0xbd077ac6	-0.03307607
137	0xbca36eca	-0.01995029
138	0xbc0c78ec	-0.008573752
139	0xbb0f75d4	-0.00218903
140	0xbc8fc599	-0.017550277
141	0x3d1c7cb2	0.038204856
142	0xbc653f6d	-0.013992173
143	0x3b9f1547	0.0048548314
144	0xbb669edb	-0.00351899
145	0xbd396c90	-0.04526955
146	0xbd51b6a5	-0.051199574
147	0x3bb5ad8e	0.005544371
148	0x3d7b2381	0.061313156
149	0x399e3c77	0.00030181158
150	0xbd8193f9	-0.06327052
151	0xbc946b32	-0.018117521
152	0x3d851c92	0.0649959
153	0x3d099aa8	0.033594757
154	0xbb92094a	-0.0044566737
155	0x3da3ef4d	0.080046274
156	0x3caf3ebc	0.021392219
157	0x3cc600f0	0.024170369
158	0x3aa66107	0.0012693711
159	0xbcd7660f	-0.026293783
160	0x3c91f079	0.017814862
161	0x3ca8349f	0.020532904
162	0x3d3956cc	0.04524879
163	0x3d08d3f3	0.033405256
164	0xbcd3a2bc	-0.025834434
165	0x3de53d94	0.11193386
166	0x3cc41962	0.023937885
167	0xbc9dc46f	-0.019258706
168	0xbdd11025	-0.102081574
169	0x3cce068b	0.025149604
170	0x3e00c95a	0.1257681
171	0x3cfb5cba	0.030683864
172	0x3cdb183e	0.026744958
173	0x3cbf871c	0.023379855
174	0xbc84bcc1	-0.016203286
175	0x3ca6097b	0.020268193
176	0xbd85040e	-0.06494914
177	0xbbeb3404	-0.0071778316
178	0x3d188499	0.03723583
179	0x3d8c3895	0.0684673
180	0x3cce5e56	0.025191467
181	0xbcc793cf	-0.024362473
182	0xbd1023f6	-0.035190545
183	0x3cefe405	0.029283533
184	0xbbc3026b	-0.005951216
185	0xbd9297e3	-0.07157876
186	0x3d7d3c00	0.0618248
187	0xbc422ce8	-0.011851527
188	0x3c0e893d	0.008699712
189	0xbc490eb8	-0.012271576
190	0x3ce1ca84	0.027562387
191	0x3d93fba6	0.072257325
192	0xbd80c74e	-0.06288014
193	0x3c657c7a	0.014006728
194	0x3c920fa2	0.01782972
195	0xbd28d651	-0.041220013
196	0xbd139a4d	-0.036035825
197	0xbd11eed0	-0.03562814
198	0x3d2a599a	0.041589357
199	0x3c97a412	0.018510852
200	0xbd8b3f50	-0.06799185
201	0xbb088fcc	-0.0020837663
202	0xbcc46627	-0.023974491
203	0x3d95d4d0	0.073159814
204	0x3964ccf6	0.00021820128
205	0x3a315207	0.0006764237
206	0x3cce0fbc	0.025153987
207	0xbcfd09fc	-0.03088855
208	0xbcdbe1f3	-0.02684114
209	0xbd002b15	-0.031291086
210	0x3be0d8bd	0.0068617747
211	0xbc819173	-0.015816426
212	0x3dea4a6f	0.11439978
213	0x3e05289c	0.13003772
214	0xbd45dddd	-0.04830729
215	0xbcb0096b	-0.021488866
216	0xbd420186	-0.047364734
217	0xbcf9d4d3	-0.03049699
218	0x3c172780	0.009225726
219	0x3d775ac4	0.060389295
220	0xbb94dafd	-0.004542707
221	0xbd30b8df	-0.043145057
222	0xbbd23454	-0.0064149294
223	0x3d2ec4a6	0.042668007
224	0x3d3a557f	0.04549169
225	0xbd7e86ef	-0.0621404
226	0xbbf61a70	-0.007510476
227	0x3d33f57c	0.043935284
228	0x3d29c8bf	0.041451212
229	0xbd5e45bc	-0.054265723
230	0xbca2655e	-0.019823726
231	0x3cee77e3	0.0291099
232	0x3d599efc	0.053130135
233	0xbcac850d	-0.021059537
234	0xbd2f9cff	-0.042874333
235	0x3cf4f063	0.029899782
236	0x3d62110e	0.055192046
237	0x3cfcff42	0.030883435
238	0xbd276f59	-0.040877674
239	0x3ca79939	0.020458804
240	0x3c534fe8	0.012897469
241	0xbd3fb85b	-0.046806674
242	0xbc57929d	-0.013157514
243	0x3cddd156	0.027077358
244	0xbbf60689	-0.0075081033
245	0xbda53bff	-0.08068084
246	0x3cbee6b4	0.023303367
247	0x3c62270c	0.013803255
248	0x3d7e6ad9	0.062113617
249	0xbc990165	-0.018677423
250	0xbd7929d3	-0.060830902
251	0x3c9797ad	0.018504942
252	0x3c77a7d5	0.015115698
253	0xbcfc6c98	-0.0308135
254	0x3cdb6aeb	0.02678438
255	0xbccb055a	-0.024782825

encoder.3.bias f4 [40]
0	0x3bf512a5	0.0074790292
1	0x3d9be513	0.07612052
2	0x3cfad4ba	0.030619014
3	0xbc5d4583	-0.013505342
4	0x3dbe4739	0.092909284
5	0x3c879fda	0.016555715
6	0x3e2cf592	0.16890553
7	0xbb752bc4	-0.003741012
8	0xbb99aaab	-0.0046895347
9	0x3b2cfedc	0.0026397025
10	0x3d272ae6	0.040812396
11	0x3d62d320	0.055377126
12	0x3c2fdb27	0.010733402
13	0x3cd14456	0.02554528
14	0x3d3291ce	0.04359608
15	0x3d1c9c44	0.038234964
16	0xbc4b601a	-0.012413049
17	0xbc64248d	-0.01392473
18	0xbb83e11f	-0.0040246393
19	0xbc94cd03	-0.018164163
20	0x3a525a14	0.0008024287
21	0x3bd6e610	0.0065581873
22	0x3e0c7c2b	0.13719241
23	0x3c22d67a	0.0099388305
24	0xbcf1be5c	-0.029509716
25	0x3caf05b4	0.021365024
26	0x3c3b2314	0.0114219375
27	0x3c802472	0.015642378
28	0x3da7276b	0.08161815
29	0x3caf0a44	0.0213672
30	0xbb36e19c	-0.002790547
31	0xbc1dee16	-0.009639284
32	0xbd3f4f08	-0.04670623
33	0xbc8d4c6b	-0.017248353
34	0xbcaf78cd	-0.021419907
35	0xbd15ae57	-0.036543217
36	0xbce682b9	-0.028138505
37	0xbd401db2	-0.04690332
38	0x3ca22bde	0.019796308
39	0xbbb9eefc	-0.005674241

encoder.4.block.1.weight f4 [40, 40, 3, 3]
0	0x3d23a8a3	0.039955746
1	0xbcc45f8d	-0.023971343
2	0x3d964c41	0.07338763
3	0xbd6a239c	-0.057162866
4	0xbdb4079e	-0.08790515
5	0xbd5aa34b	-0.053378385
6	0xbc01f9a7	-0.007933057
7	0xbcea3364	-0.028588958
8	0x3d2379a2	0.03991092
9	0xbcd2bd1e	-0.025724944
10	0x3d9faf06	0.07797055
11	0x3e01eb86	0.12687501
12	0x3c629a82	0.013830783
13	0xbe054eb7	-0.13018309
14	0xbdb7ddeb	-0.08977874
15	0xbcc64964	-0.024204917
16	0x3d979b1a	0.0740263
17	0xbc460ca1	-0.012087972
18	0x3d334c96	0.04377421
19	0xbcaa3381	-0.020776512
20	0x3dc572f8	0.09641069
21	0x3d102a49	0.035196576
22	0xbc89c64d	-0.01681819
23	0x3db677aa	0.08909543
24	0x3dbee82d	0.09321628
25	0x3c1ea565	0.009682988
26	0x3c255678	0.010091417
27	0xbe0911f6	-0.13385758
28	0x3de3af6e	0.11117445
29	0xbd3646d2	-0.044501133
30	0xbbaf548c	-0.005350655
31	0xbd3d9efa	-0.04629419
32	0xbd81079f	-0.06300282
33	0x3d2be586	0.041966937
34	0xbe6d8ff8	-0.23199451
35	0xbd0e1be7	-0.03469458
36	0xbd8c7e77	-0.06860059
37	0xbc9e9bfa	-0.019361485
38	0x3d0016d8	0.031271785
39	0x3df83ad3	0.12120595
40	0x3e2e15aa	0.17000452
41	0xbd805364	-0.062659055
42	0x3ceee9cb	0.029164216
43	0xbc54ff41	-0.01300031
44	0xbcc0e6b4	-0.023547508
45	0x3ca35127	0.019936157
46	0xbd0d6ce6	-0.03452768
47	0x3d7e3b1e	0.062068097
48	0x3d93612f	0.07196271
49	0x3cf804c6	0.030275714
50	0xbb4d3a31	-0.0031315202
51	0x3d91ad4f	0.07113134
52	0x3c88b497	0.016687674
53	0x3bb9acd6	0.0056663556
54	0xbce61af0	-0.028089017
55	0x3d55d2bb	0.05220292
56	0x3c0f9f23	0.0087659685
57	0x3d2e91ac	0.042619392
58	0x3dbfd512	0.09366812
59	0xbc23066c	-0.009950262
60	0xbd130c28	-0.035900265
61	0x3ce5d2d3	0.02805463
62	0x3c59b27b	0.013287182
63	0xbd8172af	-0.06320702
64	0xbcb7721d	-0.02239328
65	0x3d83a2d2	0.0642754
66	0xbd0fccc7	-0.0351074
67	0x3da68b48	0.081320345
68	0xbcce7812	-0.025203738
69	0x3ad70663	0.0016405102
70	0xbca9253d	-0.02064764
71	0xbcd04976	-0.025425654
72	0xbd22e2db	-0.039767127
73	0xbd16a78c	-0.03678088
74	0xbcfda776	-0.03096364
75	0x3d34ea6a	0.044168867
76	0x3dba20f0	0.090883136
77	0xbca2055d	-0.019777948
78	0xbce60aaf	-0.028081266
79	0xbda0df7b	-0.078551255
80	0xbd033a2e	-0.032037906
81	0xbd04df59	-0.032439563
82	0x3dbce1c8	0.09222752
83	0x3d62aa86	0.055338405
84	0xbcf6c4f0	-0.030123204
85	0x3dcd42cd	0.10022507
86	0x3d2188f2	0.03943724
87	0x3b94b0c1	0.0045376723
88	0x3e2bc7bf	0.16775416
89	0x3ce9ac6a	0.028524596
90	0x3d0d654f	0.034520444
91	0xbd1d604d	-0.038421918
92	0xbcc67e0f	-0.024230031
93	0xbd3dbe6a	-0.04632417
94	0xbd8ffb31	-0.07030333
95	0xbd0efa19	-0.03490648
96	0xbd165b14	-0.036707953
97	0xbd8f11bc	-0.069858044
98	0xbd7d53aa	-0.061847366
99	0xbce29c99	-0.027662562
100	0x3d9304e7	0.071786694
101	0xbdac098f	-0.08400261
102	0x3c441f3f	0.01197034
103	0x3d183311	0.037158076
104	0x3d7034a0	0.058643937
105	0xbca8a4a6	-0.020586323
106	0xbb16bcb2	-0.0023000655
107	0xbcec5fed	-0.028854335
108	0xbbb3a7a0	-0.005482629
109	0x3db1b997	0.086779766
110	0xbd4b6314	-0.049655035
111	0xbd69f264	-0.057115927
112	0x3da715ca	0.08158453
113	0x3b9f8a56	0.004868786
114	0xbd9b4175	-0.07580844
115	0xbd5762eb	-0.05258457
116	0xbd8009f2	-0.06251897
117	0x3cef1a34	0.0291873
118	0xbd6496d3	-0.0558079
119	0x3ac05db8	0.0014676368
120	0xbd9a7675	-0.07542125
121	0xbe19fbca	-0.15037456
122	0x3e15510b	0.14581697
123	0xbc42e8da	-0.011896336
124	0xbb269538	-0.002541853
125	0xbb3b82aa	-0.0028611817
126	0xbda0102f	-0.07815587
127	0x3d62a342	0.055331476
128	0xb9b5e17b	-0.00034691006
129	0x3e4ecedd	0.201961
130	0xbe4a4948	-0.19754517
131	0xbcd93aa8	-0.026517227
132	0x3d302f0c	0.043013617
133	0x3d40ff82	0.04711867
134	0x3c40ed31	0.011775301
135	0xbd5db811	-0.054130618
136	0x3d181c01	0.03713608
137	0xbababdc2	-0.0014247226
138	0x3d90084c	0.070328325
139	0xbcd9223b	-0.02650558
140	0x3ceb677d	0.02873587
141	0xb8aee1be	-8.339014e-05
142	0xbca96fb4	-0.020683147
143	0xbc805501	-0.015665533
144	0xbcdea521	-0.027178349
145	0xbd643005	-0.055709857
146	0xbdb145d0	-0.08655894
147	0x3da35f92	0.07977213
148	0xbd4e7409	-0.05040363
149	0x3d03afa1	0.032149915
150	0xbd8b83aa	-0.06812222
151	0xbd205f85	-0.039153595
152	0x3c84891f	0.016178666
153	0x3da3a74b	0.07990893
154	0x3d30383d	0.043022383
155	0xbd8cb9db	-0.068713866
156	0xbd6a3fa4	-0.0571896
157	0x3df6571d	0.12028334
158	0x3ddf7dfd	0.10912702
159	0xbdf064ab	-0.11737951
160	0xbe062715	-0.13100846
161	0x3d0ea941	0.03482938
162	0x3d529454	0.051410988
163	0xbd6f46ac	-0.058417007
164	0xbd8598bb	-0.06523272
165	0xbc00056c	-0.007813793
166	0x3ce92b5d	0.02846306
167	0xbd12b706	-0.035819076
168	0xbc817c12	-0.015806232
169	0xbbb488b0	-0.0055094585
170	0x3c59d29b	0.013294841
171	0x3c0610ea	0.008182744
172	0x3cbd428d	0.023103023
173	0xbd7f484b	-0.062324803
174	0x3b59ae18	0.003321534
175	0xbdf9dc53	-0.12200227
176	0xbdcf8c14	-0.1013414
177	0xbe5743bf	-0.21021937
178	0x3b0e20a5	0.0021686938
179	0xbd7fa744	-0.062415376
180	0xbd6dc4ba	-0.05804894
181	0x3ddb20db	0.10699626
182	0xbd9d18df	-0.076707594
183	0xbc08af0f	-0.0083425185
184	0xbd0374b4	-0.03209372
185	0xbc2512ba	-0.010075266
186	0xbea2f578	-0.31827903
187	0xbd7c25c3	-0.06155945
188	0x3c883a5b	0.016629389
189	0xbd934154	-0.07190195
190	0xbdfc5d0a	-0.12322433
191	0xbc0fd832	-0.008779572
192	0xbe3fbf39	-0.1872529
193	0xbd9ab96a	-0.07554896
194	0x3deeebe6	0.11666088
195	0xbe1b4436	-0.15162739
196	0x3dd4f703	0.10398676
197	0xbc9f9b63	-0.019483274
198	0xbc592e40	-0.013255656
199	0x3c16d4c9	0.009206005
200	0x3c9611e3	0.018319076
201	0xbd819d77	-0.06328862
202	0x3e0d5b04	0.13804251
203	0xbc514e37	-0.0127749955
204	0xbd17610c	-0.036957785
205	0xbdb6928c	-0.0891467
206	0xbd072f05	-0.033003826
207	0xbc24641b	-0.010033633
208	0xbd0ab51c	-0.033864126
209	0x3c40b8b0	0.011762783
210	0xbdd942e9	-0.10608465
211	0xbe2df3f8	-0.16987598
212	0xbc24aec9	-0.010051438
213	0x3d8157a2	0.06315543
214	0x3d718ea6	0.05897393
215	0x3d89d44c	0.067299455
216	0xbc6f27d0	-0.014596894
217	0xbd052b9a	-0.032512285
218	0xbcf91dc5	-0.030409703
219	0xbd809f62	-0.062804
220	0x3e54afbc	0.20770162
221	0x3dde58f7	0.108568124
222	0x3dc3c37e	0.095587716
223	0xbc9a4031	-0.018829437
224	0x3c8f49df	0.01749128
225	0x3cd940eb	0.026520213
226	0x3bb9dc56	0.005672018
227	0xbcc60f75	-0.024177292
228	0xbe082cbb	-0.13298313
229	0x3e29b663	0.16573481
230	0xbcdcc9f4	-0.026951768
231	0x3d05acbe	0.032635443
232	0x3cf1088e	0.029423025
233	0xbae8b4b1	-0.0017754046
234	0x3d77f088	0.060532123
235	0x3ce76303	0.028245455
236	0x3cebeb19	0.028798627
237	0xbc04a300	-0.008095503
238	0xbd3b4c18	-0.045726866
239	0xbca543ec	-0.02017399
240	0x3bca0312	0.006164917
241	0xbd31a271	-0.043367807
242	0xbcde470c	-0.027133487
243	0xbbb83e1b	-0.005622638
244	0xbbf3b788	-0.00743765
245	0x3cc473a7	0.023980929
246	0x3e151522	0.14558843
247	0xbdbd7e35	-0.09252588
248	0xbd060a47	-0.032724645
249	0x3d09a4a9	0.033604298
250	0xbcde11bc	-0.027108066
251	0xbd80cb96	-0.06288831
252	0xbcfa2126	-0.030533385
253	0x3d03aeee	0.032149248
254	0x3cdfd8b7	0.027325017
255	0x3c647f4d	0.0139463665

encoder.4.block.1.bias f4 [40]
0	0x3b4778ea	0.003043706
1	0xbba7fafd	-0.0051263557
2	0xb9ca5958	-0.0003859501
3	0x3a4de33b	0.00078539894
4	0xb9d52297	-0.00040652297
5	0x3b38fbb1	0.0028226192
6	0x3abf6b30	0.0014604088
7	0x395fc55b	0.00021340458
8	0x3a34b9f3	0.00068941637
9	0xba7222ac	-0.0009236734
10	0x3b983a61	0.004645631
11	0x3c0d998e	0.008642567
12	0xb9448eac	-0.00018745166
13	0x3afe245b	0.0019389497
14	0xb9c2defd	-0.00037168703
15	0x3a99616d	0.0011702009
16	0xbb0c00fc	-0.0021362891
17	0xbab897a8	-0.0014083283
18	0x3a18f4d0	0.000583482
19	0x3aa36d11	0.0012468417
20	0xb85eaeb8	-5.3091644e-05
21	0x37f4eaa3	2.9196328e-05
22	0xba4ca463	-0.0007806478
23	0xbb0f4ab3	-0.0021864593
24	0x3b734770	0.0037121437
25	0xba1f110a	-0.00060679077
26	0x3aa5fbe4	0.001266357
27	0x3ba9b73e	0.005179315
28	0xb99a5c6b	-0.00029442026
29	0x3a3d077d	0.00072108937
30	0x3ae57db3	0.0017508775
31	0x3acbbaa8	0.0015543299
32	0x3abb9e09	0.0014314066
33	0x3b11d783	0.00222537
34	0xb9e1d79f	-0.00043075994
35	0x3b9b4070	0.004737906
36	0xbb51739a	-0.0031959773
37	0x39b6d246	0.0003487041
38	0xba146bc6	-0.00056618114
39	0x3b2fb15a	0.002680859

encoder.4.block.2.weight f4 [40]
0	0x3f8d20a3	1.1025585
1	0x3f849984	1.0359349
2	0x3f7b2223	0.98098963
3	0x3f6d679a	0.9273621
4	0x3f6fe5c2	0.9370996
5	0x3f6eb033	0.9323761
6	0x3f713f28	0.94236994
7	0x3f6e92cd	0.9319275
8	0x3f5b72b5	0.85721904
9	0x3f5afc4e	0.85541236
10	0x3f7d2cf1	0.988967
11	0x3f88d5e5	1.0690275
12	0x3f72ed37	0.9489321
13	0x3f95149d	1.1646916
14	0x3f90dadf	1.1316794
15	0x3f87b6ae	1.0602624
16	0x3f8a4080	1.0800934
17	0x3f302cad	0.6881817
18	0x3f6b9682	0.9202653
19	0x3f6f8c23	0.93573207
20	0x3f847a5e	1.0349844
21	0x3f89b74c	1.0759063
22	0x3f396df2	0.7243339
23	0x3f83cb97	1.0296506
24	0x3f596421	0.8491841
25	0x3f676807	0.9039311
26	0x3f8d7b93	1.1053337
27	0x3f894cec	1.07266
28	0x3f81fab0	1.0154629
29	0x3f8f9101	1.1216127
30	0x3f8d97ae	1.1061914
31	0x3f8df127	1.1089219
32	0x3f80d330	1.0064449
33	0x3f94b456	1.1617534
34	0x3f720e7e	0.94553363
35	0x3f87dc0b	1.0614027
36	0x3f754fea	0.95825064
37	0x3f44cd07	0.76875347
38	0x3f9af96f	1.2107371
39	0x3f5c81c3	0.861355

encoder.4.block.2.bias f4 [40]
0	0x3e918d90	0.28428316
1	0x3ce0c1a1	0.02743608
2	0xbda64d3c	-0.081202
3	0x3ea52eb9	0.3226221
4	0x3e92db6b	0.28683028
5	0x3ecc2b95	0.39877
6	0x3e109e5e	0.14122912
7	0x3da113e9	0.07865126
8	0x3df75696	0.12077062
9	0xbdbec0ae	-0.093140945
10	0x3ddad570	0.10685241
11	0x3ead85c8	0.3389113
12	0x3ec4d5d4	0.38444388
13	0x3ee30e6e	0.44346946
14	0x3edc43f9	0.4302061
15	0xbd9ee861	-0.077591665
16	0x3ca1e62e	0.019763079
17	0x3d97520d	0.07388697
18	0x3e52469b	0.20534746
19	0x3e8b625a	0.27223474
20	0xbe4aeae5	-0.19816168
21	0xbd9bb416	-0.07602708
22	0xbe0e53c2	-0.13899139
23	0xbe11111d	-0.14166684
24	0x3e0247e4	0.12722737
25	0xbdba0dc6	-0.09084658
26	0x3e7bdc31	0.24595715
27	0x3d1b4f6a	0.037917532
28	0xbdfe6c7e	-0.12423037
29	0x3cb498ab	0.022045454
30	0x3e8da2e2	0.27663332
31	0x3e82868c	0.25493276
32	0x3d05525c	0.032549247
33	0x3ea9159c	0.330243
34	0x3e6f9e88	0.23400319
35	0xbccd47c0	-0.025058627
36	0x3c9bc87d	0.019016499
37	0xbdcf0be9	-0.101096936
38	0xbe5a1acf	-0.21299289
39	0x3e03262a	0.12807527

encoder.4.block.2.running_mean f4 [40]
0	0x3e9733cd	0.29531708
1	0xbf4c6f51	-0.79857355
2	0xbf3a327d	-0.7273329
3	0xbf179378	-0.59209394
4	0x3e4b864a	0.19875446
5	0x3f3b5f74	0.73192525
6	0x3e9732ad	0.2953085
7	0xbe801195	-0.25013414
8	0x3e559e98	0.2086128
9	0xbeb2c588	-0.3491633
10	0x3ef04daf	0.46934268
11	0x3e0997b6	0.1343678
12	0x3d872979	0.06599707
13	0x3ecdd4bf	0.40201375
14	0x3eb462ad	0.35231534
15	0xbf46ccfd	-0.7765654
16	0xbf2886c4	-0.65830636
17	0xbd644a17	-0.05573472
18	0x3f089846	0.5335735
19	0x3cb20198	0.021729276
20	0xb9dddf26	-0.00042318663
21	0xbf3fc2d4	-0.7490666
22	0xbe738e83	-0.23784833
23	0xbeb80253	-0.35939273
24	0x3e85d3fb	0.2613829
25	0xbf2d8fe9	-0.67797714
26	0x3f3b5a3d	0.7318457
27	0x3f000476	0.50006807
28	0x3d81d400	0.06339264
29	0xbf77a34f	-0.96733564
30	0x3f59b35d	0.8503931
31	0x3f228307	0.6348118
32	0xbf21a737	-0.63145775
33	0xbd4bc497	-0.04974803
34	0x3eb18ce7	0.34677812
35	0xbf047ff9	-0.5175777
36	0xbe19a9c5	-0.15006168
37	0xbf1841e2	-0.5947553
38	0xbeba1db1	-0.36350778
39	0x3cee5310	0.029092342

encoder.4.block.2.running_var f4 [40]
0	0x3eef96bd	0.46794692
1	0x3f69f5fa	0.91390955
2	0x3f36720c	0.7126777
3	0x3f152653	0.58261603
4	0x3eafb40b	0.3431705
5	0x3f42a914	0.7603924
6	0x3eed38eb	0.46332487
7	0x3e146a63	0.14493708
8	0x3eccf9fd	0.40034476
9	0x3f0b5261	0.54422575
10	0x3f0adba2	0.54241383
11	0x3ebc1908	0.36737847
12	0x3eab7fa1	0.3349581
13	0x3ead60dc	0.3386296
14	0x3f1d8f27	0.6154656
15	0x3f30f12a	0.6911799
16	0x3ecb795a	0.3974102
17	0x3e54fccd	0.20799561
18	0x3f13b2a6	0.5769447
19	0x3e5cfd49	0.21580996
20	0x3df91c17	0.12163561
21	0x3f4e97ff	0.8070068
22	0x3db7544b	0.089516245
23	0x3f22d0e7	0.6360001
24	0x3ee6fbdb	0.45114025
25	0x3f1637de	0.58678997
26	0x3f219c05	0.6312869
27	0x3edc2425	0.42996326
28	0x3db9bfad	0.090697624
29	0x3f926125	1.1435896
30	0x3f31cc37	0.6945223
31	0x3f807782	1.0036471
32	0x3f4a56d3	0.79038733
33	0x3e9326af	0.2874045
34	0x3ed749fe	0.4204864
35	0x3ece1a1c	0.40254295
36	0x3e8743f2	0.26419026
37	0x3ecc894b	0.39948496
38	0x3df5bd18	0.119989574
39	0x3ea070be	0.31336015

encoder.4.block.4.weight f4 [40, 40, 1, 1]
0	0x3e211b36	0.15733036
1	0x3dcebe52	0.100948945
2	0x3e8b2dcd	0.2718338
3	0x3e1ec147	0.15503417
4	0x3e348b68	0.17631304
5	0xbe71ce18	-0.23613775
6	0x3dc9645f	0.098335974
7	0x3d1f5a09	0.038904224
8	0x3dafb7e3	0.085799955
9	0x3cec61c0	0.028855205
10	0xbe2f91f0	-0.17145514
11	0xbdc271a8	-0.094943345
12	0xbdbededb	-0.0931985
13	0xbe5e682f	-0.2171943
14	0xbe172789	-0.14761175
15	0x3c99b5b6	0.018763404
16	0x3e7c225f	0.24622487
17	0x3d6a0c4b	0.05714063
18	0xbd58398b	-0.052789252
19	0xbe044e34	-0.12920457
20	0x3dc34c38	0.09536022
21	0x3dea4eb4	0.11440793
22	0xbcba6c8c	-0.022756837
23	0x3e375cee	0.17906544
24	0x3e8dd227	0.27699396
25	0x3d764598	0.060124964
26	0xbebfff11	-0.37499288
27	0xbe5f7b89	-0.21824469
28	0xbe75abc5	-0.23991306
29	0x3c9f4342	0.01944125
30	0xbeb933fe	-0.3617248
31	0x3db11f66	0.08648567
32	0x3db9c380	0.09070492
33	0xbe83432d	-0.2563719
34	0x3d9f172d	0.07768092
35	0x3cdec04e	0.027191307
36	0xbd422e8d	-0.047407676
37	0x3cb9023a	0.02258407
38	0x3ec3be0c	0.38230932
39	0x3d49fd30	0.049313724
40	0x3e26eb69	0.1630074
41	0x3c05a172	0.008156167
42	0x3e9f216b	0.31080183
43	0xbe17fe40	-0.14843082
44	0x3d291be8	0.04128638
45	0xbe1dc0ea	-0.15405622
46	0x3c046ab1	0.008082078
47	0xbb4ee894	-0.0031571733
48	0x3e123372	0.14277437
49	0xbcb5b0b1	-0.02217898
50	0x3d2dae57	0.04240259
51	0x3e2d098b	0.16898172
52	0x3e451bcc	0.19248885
53	0x3e27fdb2	0.16405371
54	0x3ea166e6	0.31523818
55	0xbe8ae5f5	-0.27128568
56	0xbd96c885	-0.07362465
57	0x3e209ad1	0.15684058
58	0xbccfd5f8	-0.025370583
59	0x3d843142	0.06454708
60	0xbcaa8766	-0.020816516
61	0xbe3bfa15	-0.18357117
62	0xbcfe3280	-0.03102994
63	0xbd8bf8a1	-0.068345316
64	0xbd01008a	-0.031494655
65	0x3c818f4b	0.015815398
66	0x3d9aa596	0.07551114
67	0x3e1c8a02	0.15287021
68	0xbc0542b7	-0.008133582
69	0xbd6484c6	-0.055790685
70	0x3e28b8b2	0.16476706
71	0x3e17dbe3	0.14829974
72	0x3d90c2a9	0.070683785
73	0x3eb99beb	0.36251768
74	0x3e5d330e	0.21601507
75	0xbe222a08	-0.15836346
76	0xbe2c000c	-0.16796893
77	0xbda714a5	-0.081582345
78	0xbe4da7f6	-0.20083603
79	0xbcbc4c05	-0.022985468
80	0xbe049dae	-0.12950775
81	0x3e9b1124	0.30286515
82	0xbd7741ad	-0.060365368
83	0xbdf15447	-0.11783653
84	0xbdb9e02f	-0.09075963
85	0xbe04d198	-0.12970579
86	0xbdcc3b43	-0.09972241
87	0xbe08fc66	-0.13377532
88	0x3c7880e4	0.015167449
89	0x3c73d677	0.014882675
90	0x3d9618e1	0.07328964
91	0xbe65d150	-0.22443128
92	0x3da11845	0.07865957
93	0xbe16f5bf	-0.14742182
94	0xbe2a9a28	-0.16660368
95	0x3e3a232c	0.1817748
96	0x3d994ea2	0.07485701
97	0xbcbb883c	-0.02289211
98	0xbe3c7fea	-0.1840817
99	0xbd10272a	-0.0351936
100	0x3caf7298	0.021416947
101	0x3e4b912a	0.19879594
102	0x3c7e08b3	0.015505004
103	0x3d0cfad1	0.034418885
104	0xbe58684e	-0.21133539
105	0x3e11ad94	0.14226371
106	0xbe0e8d33	-0.1392105
107	0x3d644c3c	0.055736765
108	0xbe3ced21	-0.18449832
109	0x3e00069f	0.12502526
110	0xbe0062ba	-0.12537661
111	0xbe9585fd	-0.29203787
112	0xbda08c6d	-0.07839284
113	0xbe8678c4	-0.26264012
114	0x3be3110e	0.0069295233
115	0x3e02635a	0.12733212
116	0xbb694537	-0.0035594234
117	0x3e1b6e34	0.15178758
118	0x3f01ccea	0.507033
119	0xbe59cfb4	-0.21270639
120	0xbd5f4e22	-0.054517873
121	0x3e90d07f	0.2828407
122	0x3e0625d5	0.1310037
123	0x3de28876	0.11061184
124	0xbdaaf669	-0.0834778
125	0x3d83844a	0.064217165
126	0xbdc3ca12	-0.09560026
127	0xbeaf1d46	-0.3420202
128	0xbe41fecf	-0.18944858
129	0xbd04dbc5	-0.03243615
130	0x3d451cc3	0.048123132
131	0xbe5a5c17	-0.21324192
132	0xbcc31cd4	-0.023817457
133	0xbca31201	-0.019906046
134	0xbe05986b	-0.13046424
135	0xbe59cb97	-0.2126907
136	0xbd399bf9	-0.045314763
137	0x3d87513a	0.066072896
138	0xbd9998e5	-0.074998654
139	0x3df76a9a	0.120808795
140	0x3e6c885b	0.2309889
141	0x3de77ebc	0.113034695
142	0xbbcfc6d5	-0.0063408413
143	0x3e36c28f	0.17847656
144	0xbe1c2124	-0.15247017
145	0xbda7b54f	-0.08188879
146	0xbdac409f	-0.08410763
147	0xbda1ebd6	-0.0790631
148	0x3e267e94	0.16259223
149	0xbd68996e	-0.056786947
150	0xbdf130e1	-0.11776901
151	0x3c987b40	0.018613458
152	0x3e0623b2	0.13099554
153	0xbe20eae9	-0.15714611
154	0xbba29976	-0.0049621416
155	0x3e4e7378	0.20161235
156	0x3e28575a	0.16439572
157	0xbce719e6	-0.028210592
158	0x3ed99d37	0.42502758
159	0xbd367522	-0.0445453
160	0xbe0e23bd	-0.1388082
161	0xbe4f26aa	-0.20229593
162	0xbc9520f3	-0.018204188
163	0xbd33a5a6	-0.043859147
164	0x3d0a7a09	0.033807788
165	0xbe407799	-0.18795623
166	0x3e948f39	0.2901552
167	0xbe202c51	-0.15641905
168	0xbd6ca5f6	-0.05777546
169	0x3e560754	0.20901233
170	0xbd33b3c4	-0.04387261
171	0x3d4389e7	0.047738936
172	0x3e6bbc61	0.2302108
173	0x3ea37c0c	0.31930578
174	0x3e1fb8de	0.15597865
175	0x3d6b14ec	0.057393
176	0xbe1c51cb	-0.15265577
177	0x3ddc9c92	0.10772051
178	0x3de4f607	0.111797385
179	0x3e61b9ba	0.22043505
180	0x3e5b004b	0.2138683
181	0x3c942b00	0.01808691
182	0xbe619da2	-0.22032788
183	0x3dc98cb7	0.09841292
184	0xbcfa638b	-0.030565044
185	0xbe0427b9	-0.12905778
186	0xbcacd198	-0.021096036
187	0x3e3f699f	0.18692635
188	0x3dd70308	0.10498625
189	0xbe354d75	-0.17705329
190	0x3e6576fa	0.22408667
191	0xbe0a8b52	-0.13529709
192	0xbdc05377	-0.0939092
193	0x3d91bbb2	0.07115878
194	0x3e74846b	0.23878638
195	0xbe061f37	-0.13097845
196	0xbc50981a	-0.012731576
197	0xbdf88ca1	-0.12136198
198	0xbe57b206	-0.21064004
199	0x3e190b0c	0.1494562
200	0xbd116a79	-0.03550193
201	0xbc4af7e1	-0.0123882005
202	0x3e60ec0d	0.21965046
203	0xbc853cee	-0.016264405
204	0xbe0331ac	-0.12811917
205	0xbe8a558f	-0.270184
206	0xbe2bb1bd	-0.1676702
207	0x3dcffaef	0.10155284
208	0xbd0bf02f	-0.034164604
209	0xbcd3badc	-0.025845937
210	0xbdb8b108	-0.09018141
211	0xbe8c2da1	-0.27378562
212	0xbe9e1d03	-0.3088151
213	0xbcab13d5	-0.02088348
214	0x3d4d2433	0.05008335
215	0x3e50b6ad	0.20382185
216	0x3d8bb928	0.06822425
217	0xbc2444c9	-0.010026165
218	0xbc4d9784	-0.012548331
219	0xbec98d89	-0.39365795
220	0x3d0b80e7	0.034058478
221	0x3d70da42	0.058801897
222	0xbd089134	-0.0333416
223	0x3d82993e	0.06376885
224	0xbc71d9bf	-0.014761387
225	0x3d6b4231	0.057436172
226	0x3dad8408	0.084724486
227	0x3e42ff96	0.19042811
228	0xbed7d26e	-0.42152733
229	0x3e427bcd	0.18992539
230	0xbe47ca65	-0.19510801
231	0x3e3cfde4	0.18456227
232	0x3dc4d448	0.09610802
233	0x3e01e55a	0.12685147
234	0xbeaa0eca	-0.33214408
235	0x3e0673cd	0.13130112
236	0x3c1b3753	0.00947364
237	0x3d128eb3	0.03578062
238	0x3ee231a3	0.44178495
239	0xbd0f5cbf	-0.03500056
240	0xbe3711dc	-0.17877907
241	0xbe142075	-0.14465506
242	0xbe995aa4	-0.29951966
243	0xbc85abee	-0.016317334
244	0x3c89b574	0.016810156
245	0xbe24db59	-0.160993
246	0x3e38d3d6	0.18049559
247	0x3dc3327b	0.09531113
248	0x3e8c028b	0.2734569
249	0x3cc29076	0.023750525
250	0xbf052e37	-0.52023643
251	0xbe5f4ee0	-0.21807432
252	0xbdb7eeeb	-0.08981117
253	0xbd652e02	-0.05595208
254	0xbdb369ff	-0.087604515
255	0xbd5f7dc4	-0.0545633

encoder.4.block.4.bias f4 [40]
0	0xbc066946	-0.00820381
1	0x3b047ca0	0.0020215884
2	0xbbaa7cd6	-0.00520287
3	0xbad9c20c	-0.0016613617
4	0xba2810cc	-0.00064111943
5	0x3965d336	0.00021917824
6	0xbc3bfb3e	-0.011473475
7	0xbc18115a	-0.009281481
8	0x39d737bb	0.00041049518
9	0xb8f4eab4	-0.000116785435
10	0xbb0c8372	-0.0021440652
11	0xbb823247	-0.0039732787
12	0xbb94a9c9	-0.0045368415
13	0x3ab1cc40	0.00135649
14	0xbbd828ea	-0.006596674
15	0x38cae11e	9.674042e-05
16	0xbbc8ed09	-0.0061317724
17	0x3a26e44c	0.00063664163
18	0x3b3443d5	0.0027506251
19	0x3c228937	0.00992041
20	0x3beecab3	0.007287347
21	0xbba2411e	-0.00495161
22	0x3b948440	0.004532367
23	0xba8a133e	-0.0010534299
24	0xbbba7d57	-0.005691211
25	0xbb86d35e	-0.0041145524
26	0xbb6aade4	-0.0035809213
27	0x38e09ede	0.00010710744
28	0xbbab97d7	-0.0052366066
29	0xbc01e3be	-0.007927833
30	0x3ade7ac1	0.0016973839
31	0x3bb522e7	0.0055278423
32	0xbb1d0df5	-0.0023964618
33	0xbb5014b8	-0.003175063
34	0xbc045f23	-0.008079323
35	0xbb8aadbc	-0.0042321365
36	0xbbc201b1	-0.005920612
37	0xbbd1a72a	-0.0063981013
38	0x3af981f3	0.001903592
39	0xbaf3ffbb	-0.0018615642

encoder.4.block.5.weight f4 [40]
0	0x3f4fba36	0.8114351
1	0x3f2989d6	0.66225946
2	0x3f3cbc2e	0.7372464
3	0x3f27caa9	0.6554361
4	0x3f4e9a8d	0.80704576
5	0x3f2b86e2	0.6700269
6	0x3f80c372	1.0059645
7	0x3f0e4b43	0.5558359
8	0x3f4928f2	0.785781
9	0x3f324b0a	0.6964575
10	0x3f616917	0.8805098
11	0x3f69f9ce	0.91396797
12	0x3f4b1236	0.7932466
13	0x3f2b046c	0.6680362
14	0x3f2271b8	0.6345477
15	0x3f9cbc7b	1.224502
16	0x3f138fa6	0.57641065
17	0x3f75ffc8	0.96093416
18	0x3f6cfaf4	0.92570424
19	0x3f17b1d5	0.59255725
20	0x3f00ef95	0.50365573
21	0x3f788bbb	0.9708821
22	0x3f64bd97	0.8935179
23	0x3f378463	0.7168638
24	0x3f2825b1	0.6568251
25	0x3f130b70	0.5743933
26	0x3f69e317	0.91362137
27	0x3f648cb1	0.8927718
28	0x3f3a4141	0.7275582
29	0x3f4247ad	0.7589062
30	0x3f59fa8f	0.8514795
31	0x3f144ad6	0.5792669
32	0x3f0cd565	0.55013114
33	0x3f4cd8b8	0.80018187
34	0x3f6aa189	0.91652733
35	0x3f56ac4b	0.8385665
36	0x3f569a30	0.8382902
37	0x3f3842e9	0.71977097
38	0x3f060af2	0.5236045
39	0x3f2a711c	0.6657884

encoder.4.block.5.bias f4 [40]
0	0xbebc7a78	-0.36812186
1	0x3dd2fb0c	0.1030179
2	0xbe88cc74	-0.26718485
3	0xbe03838f	-0.12843154
4	0x3d32f82a	0.0436937
5	0xbe2301fa	-0.15918723
6	0xbe826da9	-0.2547429
7	0xbe7d0a4d	-0.2471096
8	0x3e0c0d76	0.1367701
9	0xbe788480	-0.24269295
10	0x3dc6df52	0.09710564
11	0xbdb25f78	-0.087096155
12	0xbe912246	-0.2834646
13	0x3c98e3a3	0.018663233
14	0xbd607ecc	-0.054808423
15	0xbe89cfb9	-0.26916292
16	0xbe71aac2	-0.23600295
17	0x3d84bb00	0.0648098
18	0x3e2adfaa	0.16686884
19	0xbd988f3c	-0.07449195
20	0xbd629436	-0.055317126
21	0x3dbf1aeb	0.09331306
22	0x3d799daf	0.060941394
23	0xbd614837	-0.05500051
24	0xbe610a1c	-0.21976513
25	0xbe05c316	-0.130627
26	0x3df283de	0.11841558
27	0x3d9f4c9d	0.07778285
28	0xbe25ad26	-0.16179332
29	0xbddf7147	-0.10910278
30	0xbe42ec6d	-0.19035502
31	0xbd440ee1	-0.047865752
32	0xbe00efc8	-0.1259147
33	0xbe6acfa9	-0.22930779
34	0xbda2a048	-0.079407275
35	0xbe9f87b5	-0.31158224
36	0xbe8419e3	-0.25801
37	0xbe178023	-0.14794974
38	0x3d17ba87	0.03704312
39	0xbe3eed31	-0.18645169

encoder.4.block.5.running_mean f4 [40]
0	0xbdf390c5	-0.11892847
1	0x3f3dbea5	0.74119025
2	0xbf2214ed	-0.6331318
3	0xbd10d10d	-0.035355616
4	0x3ed40cf3	0.4141613
5	0xbe83b115	-0.2572104
6	0xbf535acd	-0.82560426
7	0xbf43a1ef	-0.76418966
8	0x3d7bdbff	0.0614891
9	0xbe8a0718	-0.26958537
10	0x3ec74239	0.3891771
11	0x3e2b1e27	0.16710721
12	0x3e9ee84b	0.310366
13	0x3f217cc3	0.63080996
14	0xbed962d2	-0.42458206
15	0xbe8a2764	-0.26983178
16	0xbe43247b	-0.19056885
17	0x3eebb018	0.46032786
18	0x3f6f8920	0.9356861
19	0x3ef83d29	0.48484161
20	0x3e4ff234	0.20307237
21	0x3f21f01f	0.6325702
22	0x3edb5e40	0.42845345
23	0x3dea07c0	0.114272594
24	0xbdc2b5e7	-0.09507351
25	0xbecb94c3	-0.39761934
26	0x3ebe06d1	0.37114576
27	0x3f072b6a	0.5280062
28	0xbec4b8cd	-0.38422242
29	0xbef204b5	-0.47269216
30	0xbf14fac7	-0.58195156
31	0x3dcb514e	0.09927617
32	0x3d1e7d83	0.038693916
33	0xbe914370	-0.28371763
34	0xbec0f25d	-0.37684909
35	0xbf0c7c4f	-0.5487718
36	0xbe591054	-0.21197635
37	0xbe14d552	-0.145345
38	0x3f0c098b	0.5470206
39	0xbe3b9216	-0.18317446

encoder.4.block.5.running_var f4 [40]
0	0x4043e2f2	3.0607266
1	0x408a4da7	4.321979
2	0x40945a11	4.6359944
3	0x40328278	2.7892132
4	0x3fff745c	1.9957385
5	0x4026184b	2.5952327
6	0x3fede49a	1.8585389
7	0x40d1f41b	6.561048
8	0x3f9a2713	1.2043175
9	0x3fd8f07f	1.6948394
10	0x405237de	3.2846599
11	0x3fd22f7d	1.6420742
12	0x3f0a15d2	0.53939545
13	0x407bfad6	3.9371848
14	0x40cd60fa	6.418088
15	0x3f00f14e	0.503682
16	0x3f930ca2	1.148823
17	0x3fdb0af0	1.7112713
18	0x40748175	3.8204014
19	0x3fc5672a	1.5422108
20	0x3fdce184	1.7256322
21	0x40978df8	4.73608
22	0x3f1da1e8	0.61575174
23	0x40521450	3.2824898
24	0x40388015	2.8828175
25	0x3ef6d626	0.48210257
26	0x4063ef38	3.5614758
27	0x40d9a0fc	6.8009014
28	0x3ff61404	1.9224858
29	0x3f912c6f	1.1341685
30	0x401e0fd0	2.469715
31	0x40d94485	6.789614
32	0x3fb5f17d	1.4214321
33	0x3f92be7b	1.146438
34	0x408111a9	4.033406
35	0x40347e3e	2.8202052
36	0x3f8d70da	1.1050065
37	0x3f720476	0.94538057
38	0x40b7055b	5.7194037
39	0x3fca1aba	1.5789406
