VQ-VAE/models/vqvae/model_55.pt (torch, 579012 bytes, 64 tensors)

encoder.0.weight f4 [40, 1, 4, 4]
00000000: 94ed fa3c 44f1 a6b9 0c8d 1abd 62b3 8abd
00000010: e6e7 2dbd 8ed1 a1bd a925 12be bcf8 a7bd
00000020: ff4c 31bd e35a 00be 14c6 31be 695d 3d3d
00000030: b027 96bc c018 8cbd f51b 663d e72d 923d
00000040: e75c 173d d984 503d acc8 7cbd bb3d 793d
00000050: 951a e33d 568b 173e 6133 2cbd 1ad9 493d
00000060: a790 7c3d ca71 ae3d ed98 fdbd 4f25 cabb
00000070: d2d0 683d 0f71 a13d 9600 a0bc dc94 983d
00000080: ae29 a83d 088c b03d fd75 d43d bf89 b83d
00000090: cccc c83c a4ad 433c d65b 4a3c 9dc0 913d
000000a0: 61a4 ac3d c0ae 893d 79a6 343d a795 553d
000000b0: 18a6 233d f268 213d bdeb e13b afae 7fbb
000000c0: 3e98 eeba 6dee 9e3d 42b7 cd3d d46f 5e3d
000000d0: 9f4c b13d 95c9 a13d 081e 2cbd daf8 88bd
000000e0: 8e75 de3d 58e6 bbbc ae2c 80bd 6fc5 813c
000000f0: 0871 c53d 2273 d63c 8432 663d ebc0 303d
00000100: 705a e63c 4646 e2bb 7131 aa3c 7ef1 9d3c
00000110: 08cd 8c3c 80cc a3bc 0456 e33d f070 a13b
00000120: c8c0 03bd 5897 d1bd 41e1 373d 0baf a03d
00000130: d8dd 873d 3949 5cbd 8c73 e03c e08b 0c3e
00000140: 1304 a7bd 09a4 17bd 6274 26bd 49b4 a83c
00000150: e803 eabd 96d1 86bd 2ec5 0bbe b310 e03c
00000160: f6e6 b5bd 68ec 94bd ab7b d4bd 3211 a83d
00000170: 2cd7 99bd 8b7e 62bd 6491 4f3d 5531 efbb
00000180: 144e f7bb c0fa 8b3d da07 2bbd a896 b1bc
00000190: d674 a53d 143f 933c 9059 ddbd 6c89 5abd
000001a0: 5a4c 5a3d 3ee5 11be d4ac 52bd 4f20 97bd
000001b0: 1b89 a5bb 7c38 5ebd d99c 9cbc bcc0 acbc
000001c0: e857 bfba 19d4 7fbd afab e5bd b81e c2bd
000001d0: 85a4 3fbd 51fe 48bd 2e62 d2bd eb4d 8e3d
000001e0: b2ca 04be f922 76bd ae83 69bd 79d2 08bd
000001f0: 1c22 c4bc 1f33 903d 0bed 8bbd aa1d e9bc
00000200: dc4c 86bc e2dc 18bd 4dea 4b3b 5bb6 0e3d
00000210: ca9c b2bd d4e7 9b3d 44a3 b73d e3d6 d13c
00000220: 517a 733d 9574 f33d cf08 22bd 91bd fcbc
00000230: 8a5d f23d 00e7 dd3d c333 4abc d5cd 333d
00000240: 5ad7 cc3c 1354 8f3d 8f1f 653d 1f37 103d
00000250: f030 45bd 0f4b 22bd 0b95 efbd 50d4 76bc
00000260: 4cb9 05be beec c4bd 8d1c e8bd 64dd df3c
00000270: bdbe 893c b762 a43d f54d 813d 4e7d 443d
00000280: 29ff 913d 020b 093d 2677 a5bd 90ab 72bd
00000290: d20e 833d 349b 923c f5b3 dbbc 46a1 9cbd
000002a0: b545 343d c450 e23c d9a7 14bd 48e2 d6bd
000002b0: c4b0 873d 624a 433d e291 4bbd f02b 8cbd
000002c0: 994a 82bd 2ae1 f2bc 781c 523c 4137 15bb
000002d0: 36fe 603c c84e 47bd 37b9 0fbd 5be5 adbd
000002e0: a2d1 5cbd 660a 47be de02 42be 8ac4 2cbd
000002f0: 147b 473c 078b 4abd c701 863b 0562 58bd
00000300: 2000 5f3c 67cd 9e3d 0238 8c3d 4c89 0cbc
00000310: 598c d23b a033 5ebd 3f89 8dbd 8b51 d5bd
00000320: b67e 55bd b100 f8bd 887f e5bd 1cc6 f1bd
00000330: 3f76 f8bc 2314 3bbd 6eaa 94bd b3c9 d0bd
00000340: 1ba2 8cbd cee4 61bd 014f b53c 519f f83c
00000350: c79c 90bd f951 debd 039c bdbd 969a bbbc
00000360: 1ea2 423d cd6d 973c 5045 c2bd 8864 dfbd
00000370: 0737 363d 3870 af3d 6e52 cb3c 58c8 f5bc
00000380: 9385 f43c 1ae6 c23b ab13 a2bb c47b 233d
00000390: 467c 583d 4506 73bd f5a6 11bd 3b89 e43c
000003a0: 8dec d53c b207 8e3d d113 283e ffb8 073e
000003b0: 6b1c 9e3c 9aef 883d 23f6 b93d a20d 2d3d
000003c0: 463b 2f3d 8186 9cbd d5a5 5dbd 3b2f 10bc
000003d0: a2fe 8abd d215 43bd ae24 8bbd 4126 5dbd
000003e0: a62e 94bd 5e47 babd bb36 40bd 410d 4fbd
000003f0: fcbc 803c 5c4b 37bd ee5f a6bd d0a2 323c
0.030630864 -0.00031841744 -0.03773217 -0.06772496 -0.042457484 -0.079012975 -0.14272179 -0.08201739
-0.04328632 -0.1253467 -0.17360717 0.04623166 -0.018329471 -0.06840658 0.056179006 0.071376614
0.036953833 0.050907943 -0.061714813 0.060849886 0.110890545 0.14799246 -0.042041186 0.04927931
0.06166139 0.08517797 -0.12382684 -0.0061689983 0.05683977 0.07882892 -0.01953153 0.07450268
0.08211075 0.08620459 0.10374067 0.09010648 0.024511717 0.011943255 0.012350997 0.07116816
0.0842979 0.06722784 0.044104073 0.052144673 0.03995332 0.039406724 0.0068945573 -0.0039014032
-0.0018203331 0.0776032 0.10044719 0.054305866 0.086571924 0.07899777 -0.042020828 -0.0668809
0.108622655 -0.022936985 -0.06258522 0.015841214 0.096406996 0.026177946 0.05620052 0.04315273
0.028119296 -0.00690535 0.020775529 0.019280192 0.01718761 -0.019994974 0.111003906 0.0049267933
-0.032166272 -0.10233945 0.044892553 0.07845887 0.0663411 -0.053780768 0.027398847 0.13725233
-0.08155074 -0.03702167 -0.040638335 0.02059378 -0.11426526 -0.06582944 -0.13649437 0.027351713
-0.08881943 -0.072716534 -0.1037515 0.08206405 -0.07511744 -0.055296462 0.050675765 -0.007299582
-0.0075471494 0.06834936 -0.041755535 -0.021678284 0.08078925 0.017974414 -0.10808098 -0.053353712
0.05329547 -0.14247605 -0.051434353 -0.07379209 -0.0050517446 -0.054253086 -0.01911776 -0.021087997
-0.0014598342 -0.06245813 -0.11214387 -0.094785154 -0.046787757 -0.04907066 -0.102726325 0.069484554
-0.12967947 -0.060091946 -0.057010345 -0.033403847 -0.023942046 0.070410006 -0.06832322 -0.028456528
-0.016394071 -0.037320025 0.0031114996 0.034841876 -0.087213114 0.07612577 0.08966687 0.025615161
0.059442822 0.11887471 -0.03955918 -0.030852111 0.118342474 0.108350754 -0.0123414425 0.04389747
0.025005031 0.06998458 0.0559383 0.035208818 -0.048142374 -0.039622363 -0.116983496 -0.015065268
-0.13058966 -0.096154675 -0.11333571 0.027327247 0.016814584 0.08026641 0.06313697 0.047971062
0.07128746 0.033457763 -0.080793664 -0.059245646 0.06399311 0.017896272 -0.026819209 -0.07647948
0.04401179 0.027626403 -0.036292884 -0.104923785 0.06625512 0.04767836 -0.04969967 -0.06844318
-0.063618846 -0.029648382 0.01282417 -0.002276853 0.013732484 -0.048659116 -0.035088744 -0.08491012
-0.05391086 -0.1943756 -0.18946406 -0.04217962 0.01217534 -0.049448993 0.0040895673 -0.052827854
0.01361087 0.07754021 0.0684662 -0.008577656 0.006425422 -0.054248452 -0.06910943 -0.10415944
-0.052122794 -0.12109507 -0.11205965 -0.118053645 -0.030329822 -0.0456735 -0.072590694 -0.10194721
-0.06866857 -0.055149846 0.022132399 0.030349405 -0.07061153 -0.10855479 -0.092582725 -0.02290086
0.04751789 0.018484974 -0.094858766 -0.10907847 0.044486072 0.08566326 0.024819579 -0.030002758
0.02984885 0.0059478404 -0.0049461923 0.039912954 0.05285289 -0.05933215 -0.035559613 0.027897468
0.026113773 0.069350615 0.1641381 0.13254164 0.01930066 0.06686325 0.0908015 0.04224933
0.042781137 -0.07642842 -0.054113228 -0.008800323 -0.067868486 -0.04762823 -0.067941055 -0.05399156
-0.0723546 -0.090956435 -0.046927195 -0.05054975 0.015715115 -0.044749603 -0.08123766 0.010903075

encoder.0.bias f4 [40]
00000000: 015e 14ba 596f a1ba b56d 65bb d3f6 2339
00000010: b52a abbb 9bde 9eba 8d8f 4b3b d632 2d3a
00000020: ac24 75bb c09e a13b 463f 0eba c15d 1cba
00000030: 5fd3 5ebb 4b9b 43ba 185e b8ba e925 593b
00000040: 074f 5dba 3b5a f2ba 19d8 2fb9 2f06 3dbb
00000050: c2f7 b7bb 93dd 7b3a 2911 3ebb 1a6b 6dbb
00000060: 1caa 743a 5bbf fe3a ee05 00bb ecae e739
00000070: 18c7 863a 747f 8bb9 0a19 b33b 2299 4b3b
00000080: 9543 c53a d1e3 cabb 6e18 af3b 0824 0cba
00000090: 7d51 a9ba 205d d5bb 613f 30bb a552 09ba
-0.00056597596 -0.0012316509 -0.0035008017 0.0001563684 -0.005223597 -0.0012120785 0.0031060905 0.00066070014
-0.0037405891 0.0049322546 -0.00054262986 -0.0005964898 -0.0034000499 -0.00074618 -0.0014066128 0.0033134168
-0.0008442257 -0.0018490026 -0.00016769803 -0.0028842797 -0.005614252 0.0009607907 -0.0029001927 -0.0036227168
0.00093332096 0.001943569 -0.0019534784 0.0004419008 0.0010282723 -0.00026607106 0.0054656314 0.0031066616
0.0015050048 -0.0061917086 0.0053434884 -0.0005345945 -0.0012917962 -0.0065113455 -0.0026893246 -0.000523845

encoder.1.weight f4 [40]
00000000: 7122 443f 2f34 243f 418a 373f bb52 0d3f
00000010: e74e 273f eb06 663f d24a 3d3f dd5f 3e3f
00000020: 0057 273f fc3e 2e3f 8e51 4b3f f8c4 373f
00000030: b10d 593f 54b1 433f 3023 1f3f cc7e 693f
00000040: cc23 3b3f 3832 573f 317b 3d3f 4f6f 553f
00000050: c0dc 1b3f 969f 473f 114e 263f 6a3e 2b3f
00000060: f591 023f 7bda 363f 153f 373f 7cad 033f
00000070: 9274 363f cd17 363f 44d0 4b3f 72e2 4a3f
00000080: 7999 4c3f e01f 3f3f 0fc3 5b3f 866b 213f
00000090: 1e3d 5d3f 633b 743f 1d42 6f3f fa01 343f
0.76615053 0.64142126 0.71695334 0.5520436 0.6535477 0.89854306 0.7394229 0.74365026
0.65367126 0.68064857 0.7942132 0.71784925 0.84786516 0.76442456 0.62163067 0.912091
0.73101497 0.84061 0.740161 0.8337297 0.6088371 0.77977884 0.6496287 0.6689211
0.5100396 0.71427125 0.7158063 0.5143659 0.7127162 0.7113007 0.79614663 0.7925178
0.7992168 0.7465801 0.8584451 0.6305469 0.8642138 0.95403117 0.93460256 0.70315516

encoder.1.bias f4 [40]
00000000: c65e 81bd 1578 dabc b4b6 babb 30f1 6c3c
00000010: 80c6 443c ef47 ecbd 4c36 25be ad9d 32be
00000020: c675 8e3d bdd6 573d 1b20 04be b113 09be
00000030: d783 48be d758 16be c20a 163e 0c44 d0bc
00000040: 6810 d0ba 6223 febd d865 00be 165c 27be
00000050: 5fba e1bc cc93 cdbd dc43 553e 45dc abbd
00000060: 4aa5 883d e379 ddbd cfb3 303e 36ce 0c3e
00000070: 807b c8bd 2ab7 dbbc fc53 0cbe 51df 54be
00000080: 938d 13be 3ac5 5a3e e651 b1bd 6fff 1bbe
00000090: 26a1 34be 8fdb 6dbe f2df 6cbe c1d1 abbd
-0.06316905 -0.026668588 -0.0056980494 0.0144618 0.012010217 -0.11537158 -0.16133994 -0.17442961
0.06956057 0.052695025 -0.12902872 -0.13386418 -0.19581543 -0.14682327 0.14652541 -0.025423072
-0.001587403 -0.124090925 -0.1253885 -0.16343722 -0.027554689 -0.10037956 0.20826668 -0.083916225
0.066721514 -0.10814264 0.17256092 0.13750538 -0.09789181 -0.026820738 -0.13703912 -0.20788313
-0.14409475 0.21364298 -0.08658199 -0.15234159 -0.17639598 -0.23228286 -0.23132303 -0.08389617

encoder.1.running_mean f4 [40]
00000000: 4985 fe3e c352 bebe 3a06 0dbf ba35 b6be
00000010: bf9a 63be 7a19 fb3e 4df5 8d3e 6487 013f
00000020: 8fdc a2be a360 083e a442 b83d b443 123f
00000030: 215e 013f 37b9 8c3e a98e e9be 5766 fe3e
00000040: f33c 8ebe 2010 1e3f ccf8 ec3e 714a b33e
00000050: d6bf a1be 21c1 5a3e 77d5 5fbe 062c 9d3e
00000060: 0760 dcbd 5cde 043e 6172 7ebe 3e46 d5bd
00000070: ee76 0c3e f1bb 6c3e cb23 713e 5e6a 853e
00000080: 223c 923e 296f 7ebe 1ca3 b43e af0a 89be
00000090: fb76 093f 64c0 fd3e bd5a 1c3f 84c2 103e
0.49711064 -0.37172517 -0.55087626 -0.35587865 -0.22227 0.49042875 0.27726212 0.50597215
-0.31808898 0.13318114 0.08997086 0.57134557 0.50534254 0.27485058 -0.45616654 0.49687454
-0.27780876 0.61743355 0.46283567 0.35017732 -0.31591672 0.21362735 -0.21858774 0.3069765
-0.10760503 0.12975448 -0.2484832 -0.10413788 0.13717243 0.23118569 0.2354881 0.26057714
0.28561503 -0.24847092 0.35280693 -0.26765963 0.53697175 0.49560845 0.61075956 0.14136702

encoder.1.running_var f4 [40]
00000000: 5ce5 123e bcdc 853d fb7b f83d cd66 853d
00000010: 950f eb3c 600b 083e 05b8 773d 7c7a e23d
00000020: a279 813d 1c8f 0d3d 1a6d 553d 11ef 0e3e
00000030: 6811 183e b8ce 273d b3fe c33d 8d48 d13d
00000040: f3ce 7b3d 3076 373e ed82 e93d 9e5a 953d
00000050: 64f9 403d e173 2f3d 5fdf d33c f4f8 8b3d
00000060: 0939 ed3c c2a6 5f3d c417 413d 8255 163d
00000070: 8d2c 1e3d 1ca4 403d 68af 573d 9bef 493d
00000080: af90 543d 47aa 2f3d 4aac 593d ab13 8b3d
00000090: 4b4b 173e 7384 f03d df6a 253e 894d bb3c
0.14345306 0.06536242 0.121330224 0.06513748 0.028693954 0.13285589 0.06047823 0.11058518
0.06322028 0.034560308 0.052106 0.13958384 0.1485039 0.040968627 0.095700644 0.10218916
0.06147666 0.17916179 0.11401925 0.072926745 0.047112837 0.04283512 0.025863348 0.068345934
0.02895786 0.054602392 0.047141805 0.03670264 0.038616706 0.047031507 0.052657515 0.04930077
0.051895794 0.042887 0.053142823 0.06790861 0.14774816 0.11744013 0.1615405 0.02286412

encoder.3.weight f4 [40, 40, 4, 4]
00000000: 74d6 99bc 477e 18bc ae42 86bc 1a4d b5bc
00000010: 04de 53bd 4db6 a9bd a697 78bc b168 033d
00000020: dc05 1fbb 78a9 4a3d 3c44 9bbc b900 513d
00000030: e999 7b3d 52ed 6a3d 3646 1c3b 8383 9d39
00000040: 3403 80bc 8911 723c 3024 2a3d 7fe8 9fba
00000050: 2103 2fbd feba d6bc ea20 083d 3cf7 4c3d
00000060: f93c e6bb 2544 093c 2a9f b53c 62e7 d53d
00000070: a3fa 74bb 7cd1 eabb 052f 203d a051 2dbc
00000080: 6c53 dcbc 41b6 88bc 4480 7abc f40d d0bc
00000090: ffc6 943c 7ca3 50bd 44bd 82bd e0b4 42bc
000000a0: aa1b 423d 6191 31bc 6a7e abbd 0a2b 0fbd
000000b0: a8ef ae3d b33b 81bd 62e2 8fbd b565 40bc
000000c0: ba5c 193d 0188 adbc 6c50 edbc 1552 a03c
000000d0: 7d47 0d3d c591 64bd a981 80bc 75bc f4bb
000000e0: 0d14 053d a620 11bd 18be d33c 0dc7 af3c
000000f0: 135e 22bc 8fb6 f83c 3f89 203c 08c0 85bc
00000100: a21f 7d3d dd70 c73c 2f43 3dbd 9801 093b
00000110: fc3a 663d 57b5 833d 1e06 0abd dab6 25bd
00000120: 7029 01bd 7003 f93d dd47 9d3c b4f1 81bc
00000130: 8fa9 7ebb 44eb ac3c 7c6d 123c 6e07 993b
00000140: 2baf b2bc a2d2 b63c a213 82bc d2dd 2a3d
00000150: 6b3d f3bd 1813 a53c ae00 943d 7848 d73c
00000160: c10a 6abd f7a8 013e 3677 a23a bc58 84bd
00000170: a540 df3c 5d08 eb3c a5e1 0a3c 2e74 a73c
00000180: 8df7 473c 109f 34bc 17e7 743c 1796 0c3d
00000190: 5719 06bd 6ca0 69bd 7964 a63d 9ef5 273d
000001a0: b524 0b3d 078a 933d 1bca 5c3c 1d68 99bc
000001b0: a93f 48bc af87 543d 571f 82bc 1112 813c
000001c0: e849 623c 4043 e83c 89a1 723d 18dc 5abc
000001d0: f2cf 84ba 67ae 87bc de95 493d b19d 6c3d
000001e0: adc6 e73c 149f 17bc 16de 97bc d03d 18bd
000001f0: b7a7 a1bd 362d ca3c 1b91 b23d d9fc 203c
00000200: a06f 19bc 9005 86bd 9f74 6bbd 3518 f13c
00000210: b121 8b3d 2d84 87bd 145e a4bc 56a1 ee3c
00000220: 4725 07bd bd4e edbc 8c4d 8cbc 2e4c b2ba
00000230: d78e 8bbc 8d94 113d 0c86 89bc c072 aa3b
00000240: 7427 d2bb b4d3 25bd f1d4 86bd 3600 603c
00000250: 4ac6 933d afb1 c4ba 1172 78bd a96b cebc
00000260: 3932 893d 4061 f83c d923 c1bb 9648 b33d
00000270: 0fed b73c 8f0b 053d 46e6 413b d7df 09bd
00000280: 722c b43c 5865 8b3c 9545 c03c 22a8 373d
00000290: d86a cfbc 6d19 d83d 69a7 d73c 11a8 27bc
000002a0: 94a3 e6bd 5111 a03c ba0b 053e 1976 483d
000002b0: d9c8 b53c c4f0 a93c 7fd6 c4bc 9e8f e03b
000002c0: 6a00 90bd 3dee 58ba 3ab3 2f3d 8396 8a3d
000002d0: c5ad f83c dd2f bbbc 9c93 23bd f725 0c3d
000002e0: e928 0ebc 8bfb 97bd f32e 8d3d c1b6 eebb
000002f0: eeba 933c 86b6 87bc 59be 003d a2c3 983d
00000300: 8dd1 63bd ce19 443c 7bf9 b23c 6c57 25bd
00000310: 13dd e9bc 0cc0 f0bc 424f 043d 54aa 663c
00000320: 9378 a4bd ea84 523c 94f1 c8bc 5a81 a33d
00000330: 1ec6 d4bb 1650 33bc 4b34 c43c 3fb7 1dbd
00000340: 01fb 91bc b80c 2cbd b6bd 4b3c 60e6 a1bb
00000350: 0014 033e aa13 0c3e 44b0 50bd a1a3 64bc
00000360: 91c5 66bd 0a40 07bd 2f06 683c eb20 843d
00000370: 4e75 27bb 091b 44bd 1cc2 f5bb bb14 153d
00000380: 3702 4a3d dce0 71bd c4f4 8fbc 172b 323d
00000390: 6458 213d 5ae9 5bbd 279e c3bc df13 0d3d
000003a0: 5fe1 5c3d 29cc aebc a078 4cbd 1551 ef3c
000003b0: e64d 7d3d d09a f63c 5892 24bd 6a91 be3c
000003c0: 5092 f03b a9a2 29bd a806 77bc f1f3 e03c
000003d0: effa b2bb 9bd8 b2bd 195d a43c 44de b23c
000003e0: 17ee 5a3d f9ff c1bc ab95 63bd f97f ce3c
000003f0: 1fbc e03b bbf9 02bd 89b5 b53c 8633 96bc
-0.018779017 -0.009307451 -0.016389217 -0.022131491 -0.051725402 -0.08286724 -0.015172875 0.032082263
-0.0024264967 0.049478024 -0.018953435 0.05102608 0.061426077 0.057355233 0.002384556 0.00030043357
-0.015626527 0.0147746885 0.041538417 -0.0012200027 -0.042727593 -0.026212212 0.033234514 0.05004047
-0.0070263115 0.008378063 0.022170622 0.104445234 -0.0037380836 -0.0071660858 0.03910734 -0.010578543
-0.026895247 -0.016688468 -0.01528937 -0.025397278 0.018161295 -0.05093716 -0.06383756 -0.011883944
0.047389664 -0.010837884 -0.08373721 -0.034953155 0.085418046 -0.06310215 -0.07025601 -0.011742999
0.037441947 -0.021183016 -0.028969012 0.01957039 0.034492005 -0.05580308 -0.015686827 -0.007468755
0.032489825 -0.035431527 0.02584748 0.02145722 -0.009910124 0.030360488 0.009798347 -0.01632692
0.061797746 0.02434581 -0.04620665 0.002090549 0.056208596 0.06431072 -0.03369724 -0.040457584
-0.03153366 0.12158859 0.019199306 -0.015862323 -0.003885839 0.021108277 0.008937236 0.004670075
-0.021812042 0.022317234 -0.015878502 0.04171545 -0.11876949 0.020150706 0.07226692 0.026279673
-0.057139162 0.12662111 0.0012395147 -0.06462237 0.027252505 0.028690511 0.008476649 0.020441141
0.012205017 -0.011024252 0.014947674 0.034322824 -0.03273901 -0.057037756 0.081246324 0.041005723
0.033970553 0.07204061 0.01347592 -0.018726403 -0.012222209 0.05188721 -0.015884085 0.015755685
0.013811566 0.02835238 0.059236083 -0.0133581385 -0.0010132773 -0.016562654 0.04921519 0.057767574
0.028292978 -0.009254236 -0.018538516 -0.037168324 -0.07893317 0.024679761 0.08719083 0.009825909
-0.009364992 -0.0654403 -0.057484265 0.029430488 0.067935355 -0.066170074 -0.020064391 0.029129665
-0.032994535 -0.02896821 -0.017126821 -0.0013603026 -0.017035885 0.03554206 -0.016787551 0.0052016675
-0.0064133946 -0.0404851 -0.06583584 0.013671925 0.07215555 -0.0015006567 -0.060655657 -0.02519782
0.06699032 0.03031981 -0.005894166 0.08754079 0.022451906 0.032481726 0.0029586717 -0.033660736
0.02199385 0.017016098 0.02347068 0.04483808 -0.025319502 0.105517246 0.026324945 -0.010232941
-0.11261669 0.019539507 0.12992755 0.04894075 0.022190498 0.020744689 -0.024028061 0.006853058
-0.07031329 -0.00082752464 0.042895533 0.06766989 0.030356297 -0.022849971 -0.039935693 0.034215894
-0.008676746 -0.07421025 0.068937205 -0.0072849696 0.018033471 -0.016566526 0.03143153 0.07459189
-0.055619765 0.011969043 0.021847477 -0.040366575 -0.0285478 -0.02938845 0.03230215 0.014078695
-0.0803081 0.012849072 -0.024529256 0.07983656 -0.006493344 -0.010944387 0.023950716 -0.038504835
-0.017819883 -0.042004317 0.012435367 -0.004940793 0.12800598 0.13679376 -0.05094935 -0.013955028
-0.056340758 -0.033020057 0.0141616305 0.06451591 -0.0025552097 -0.047877345 -0.0074999463 0.036396723
0.04931852 -0.059052333 -0.017572768 0.043498125 0.039390936 -0.05368934 -0.023879124 0.03444278
0.053925868 -0.021337586 -0.049919724 0.029213468 0.061841868 0.030103117 -0.040178627 0.023262698
0.0073416606 -0.04141489 -0.015077271 0.02746007 -0.0054620425 -0.087327205 0.020063924 0.0218345
0.053449716 -0.023681628 -0.055562656 0.025207506 0.0068583633 -0.031976443 0.02218129 -0.018335115

encoder.3.bias f4 [40]
00000000: 8990 d93b 8386 ac3d f786 1c3d 140e 73bc
00000010: f053 d73d 6940 de3c fbfb 3b3e 3793 4ab9
00000020: 237f 14bb f557 253b 8a80 433d 6e8e 7c3d
00000030: a15b 433c 8099 e93c 63bb 4c3d 1efa 463d
00000040: 1a60 4bbc a36a 2dbc abe4 89bb faaa 8dbc
00000050: 17f2 9b3a ea4d 103c 95b0 0f3e 626b 513c
00000060: 4f98 f6bc 4664 0c3d a195 253c 9f0b aa3c
00000070: fb52 c13d 6c0e d53c 08f2 4d3a de1f 41bc
00000080: b2fd 50bd 2596 9fbc badb c2bc 4aca 39bd
00000090: 550f 0bbd 964d 55bd e938 b23c f7ee 49bb
0.0066395444 0.084240936 0.03821465 -0.014834899 0.10514057 0.027130323 0.18357842 -0.00019319063
-0.0022658787 0.0025229428 0.047730006 0.06165927 0.0119237015 0.028515577 0.049983393 0.048578374
-0.012413049 -0.010584506 -0.0042081675 -0.017293442 0.001189771 0.008807639 0.14032204 0.01278195
-0.030101923 0.034275316 0.010106475 0.020757494 0.094396554 0.026007853 0.0007856195 -0.011787383
-0.051023193 -0.019480774 -0.023786414 -0.045358934 -0.03395017 -0.052075945 0.021755653 -0.00308126

encoder.4.block.1.weight f4 [40, 40, 3, 3]
00000000: c380 d33c d18c 8cbc c8be 8f3d 89ee 71bd
00000010: 0246 c0bd 6cce 30bd 70d4 6cbb 17a9 97bc
00000020: 2248 623d 84f1 3dbd edcd ab3d 35ce fb3d
00000030: f917 cb3c 7f29 1cbe 5895 a2bd 058a 59bc
00000040: 3030 8b3d 2b1c 76bc f53d 0a3d cdc7 efbc
00000050: adf4 9d3d 87d7 4f3d cfec 1dbc 856c 8b3d
00000060: 9756 ab3d 062a 323b 60bb a53c 7e21 f3bd
00000070: a4c8 823d a2e5 16bd dcc5 8ebc 4347 2a3b
00000080: 8760 fdbc 9535 423d be35 7dbe 4071 4fbd
00000090: 538e 7bbd f2e4 cdbc 84ed 9a3c 56b5 ea3d
000000a0: f17b 453e 32f4 59bd 4697 003d 5129 26bc
000000b0: 0b14 b4bc 7f54 af3c fe3d 29bd e4a9 6e3d
000000c0: e521 683d 3d6e bb3c c7c1 ffb9 55a2 883d
000000d0: 6be5 af3c 8fb0 f73b 96b8 11bd d0d6 583d
000000e0: 3bd5 713c c456 2b3d 4a33 e63d 0cba 35bb
000000f0: 7ca7 17bd 9de1 bb3c af16 433c a183 4ebd
00000100: d903 f5bc 827c 863d 99fd 34bd 5b21 c23d
00000110: 9437 73bc 27df bfbc e761 d43b 2457 babc
00000120: f491 2dbd 8f75 ebbc a5f8 16bd b311 3a3d
00000130: 48d2 db3d 1529 c0bc bba6 f6bc 73f2 aabd
00000140: aebe 11bd 3b05 25bd 39c6 c83d 721f 6f3d
00000150: 0d15 c9bc d291 5f3d 49e9 853d 962d 85bc
00000160: e11c 2a3e 0f9a 1b3d 422d 203d 97bb febc
00000170: 15f2 d9bc 84ff 10bd 9fbd 86bd 983c 4ebd
00000180: 391d 1cbd 9ee4 98bd eaf2 97bd 6fb2 fabc
00000190: f88d 803d da08 b7bd e4c2 033c fb40 de3c
000001a0: 9e46 753d 1f03 94bc 9f28 d93b e986 8fbc
000001b0: 5f3e a33b 6d6c b23d 78aa 17bd 1bcf 94bd
000001c0: d0cb cb3d 7efe ce3b bf0c 9cbd cffc 3bbd
000001d0: ab92 81bd 6ad2 2e3d fe8e 83bd a3eb 983c
000001e0: 2984 9cbd 7212 0cbe dcbb 103e 586d 6ebc
000001f0: 04a2 a5bb cbb9 e63a 41ac a2bd f273 6f3d
00000200: 24b4 01bc 1ee3 4a3e cae0 58be 2461 94bc
00000210: 4c50 6a3d 7e68 2e3d faba e43b 21e0 80bd
00000220: 88bb 0c3d 4893 c4ba de24 833d 187e 85bb
00000230: 4767 d13c ef3f eebb 795d eebc 3e80 71bc
00000240: 21a5 debc 0530 64bd d045 b1bd 925f a33d
00000250: 0974 4ebd a1af 033d aa83 8bbd 855f 20bd
00000260: 1f89 843c 6849 a23d 21c4 103d 6c04 cdbd
00000270: 5c72 47bd e8c0 d63d 2c9b f33d fc78 79bd
00000280: 2ac5 20be 8758 073d 1504 193d f570 8bbd
00000290: dcb0 99bd 10d9 d03b 5cbd ee3c 2749 50bd
000002a0: 9607 d6bb 3715 b3bc 0b6a 813c d459 f7ba
000002b0: 3927 ae3c 817d 3fbd e145 053c b174 c9bd
000002c0: 5e1b 82bd b7f3 3fbe 7c5f da3c ce85 71bd
000002d0: 1bf9 efbc 96a2 c33d bd61 b4bd bb4b 973b
000002e0: bf39 a4bd 37b3 9bbc 9ded a4be 80a3 aebd
000002f0: e0e4 b03c 329c 52bd 585d 1bbe 81fe cb3c
00000300: 3979 26be d304 f0bd 7480 1d3e b1ba 26be
00000310: 1e3e 9b3d e9a2 bebc 06a3 9ebc 1b2d 6e3c
00000320: 5afe 943c 79ec 93bd 5265 0f3e 501a 39bc
00000330: 0b97 23bd 9a7b aebd 9e2b 06bd d4e9 91bb
00000340: 35db 40bd 16c5 8f3c 9dc1 eabd 01c3 3ebe
00000350: e72b cdbb b923 363d 4141 723d 930d 5b3d
00000360: 479b f5bb a055 6bbc e8cd edbc 15f2 a5bd
00000370: 50b1 483e b1ca cf3d 2f53 bc3d e8ae 95bc
00000380: 7157 2f3c 94b7 cc3c d4ce cd3b 7e37 95bc
00000390: 6809 0fbe 432d 413e b654 f8bc 00a8 fa3c
000003a0: f927 093d d434 a83a 98d2 863d b0b6 fb3c
000003b0: a9cb 0f3d 853e 3fbb affd 9dbd 7758 22bd
000003c0: 952b e23b 82fa 15bd 46e5 ccbc 4a62 c9bb
000003d0: b105 6a3c 2ffd e83c 600d ec3d cff3 debd
000003e0: fb2b e3bc e2c7 053d 37eb 54bd 676a 46bd
000003f0: ae32 f3bc 21d6 353d db83 e53c e953 023c
0.025818234 -0.01715699 0.070188105 -0.059065375 -0.09388353 -0.04316561 -0.0036137365 -0.018513246
0.055244572 -0.046372905 0.083888866 0.1229519 0.024791704 -0.15250205 -0.07938641 -0.013277535
0.067963004 -0.015021364 0.033750493 -0.029270077 0.07712684 0.050742652 -0.009638979 0.06807808
0.08366125 0.0027185692 0.020230949 -0.118716225 0.063859254 -0.03684009 -0.017428331 0.0025982417
-0.030929817 0.04741438 -0.24727532 -0.050645113 -0.061415028 -0.025133584 0.018912084 0.11460368
0.19285561 -0.0532114 0.031394266 -0.010141687 -0.021982213 0.021402596 -0.041318886 0.05826749
0.05667295 0.022879714 -0.00048781766 0.066715874 0.0214717 0.007558889 -0.035576425 0.052939236
0.014760311 0.041830793 0.11240251 -0.00277293 -0.03702496 0.02293473 0.011907264 -0.0504185
-0.029909061 0.06566717 -0.044187162 0.09479018 -0.014844794 -0.023421837 0.0064813974 -0.02274663
-0.04237552 -0.02874258 -0.03685822 0.045427036 0.10733467 -0.02345709 -0.0301088 -0.08347025
-0.035582237 -0.04028819 0.09803433 0.058379598 -0.02454617 0.054582424 0.06538636 -0.016257089
0.16612579 0.03798872 0.03910566 -0.03109531 -0.026604692 -0.03539993 -0.06579136 -0.050350755
-0.038113806 -0.0746548 -0.07419379 -0.030602662 0.062770784 -0.08937235 0.008042071 0.027130594
0.0598818 -0.018067895 0.006627157 -0.017520385 0.0049818004 0.08712087 -0.037027806 -0.07266065
0.099509835 0.006316959 -0.076196186 -0.045895394 -0.06326803 0.042681135 -0.06423758 0.018667048
-0.07642395 -0.13678911 0.14134163 -0.014552437 -0.005054714 0.0017602978 -0.07943011 0.058460183
-0.007916484 0.19813201 -0.211795 -0.018112727 0.057205483 0.04258012 0.006980297 -0.06292749
0.03435853 -0.0014997507 0.06403516 -0.0040738694 0.025561942 -0.007270805 -0.029097306 -0.014740048
-0.027178349 -0.055709857 -0.08655894 0.07977213 -0.05040363 0.032149915 -0.06812222 -0.039153595
0.016178666 0.079241574 0.035343293 -0.10010609 -0.048693046 0.10486013 0.11894831 -0.060906395
-0.15700212 0.03304341 0.03735741 -0.06808654 -0.075044364 0.006373532 0.029143028 -0.050851014
-0.006531666 -0.021860702 0.015797636 -0.0018871375 0.021258937 -0.04675055 0.008134336 -0.0983671
-0.06352876 -0.18745314 0.026656859 -0.058965497 -0.029293587 0.09552495 -0.088077046 0.004617182
-0.08018827 -0.019006355 -0.32212535 -0.08527279 0.021593511 -0.05141849 -0.15172327 0.02490163
-0.1625718 -0.1171967 0.15381032 -0.16282155 0.07580207 -0.023271041 -0.019364845 0.014537121
0.01818769 -0.07222838 0.14003494 -0.011297777 -0.039938968 -0.08519669 -0.03275644 -0.0044529233
-0.047084052 0.017550033 -0.1146271 -0.18629076 -0.006261337 0.04446766 0.059144262 0.053479742
-0.007495317 -0.014363676 -0.029028848 -0.08102814 0.1959889 0.10146082 0.091955535 -0.018271878
0.010702 0.02498988 0.0062807593 -0.018214937 -0.13968432 0.18864922 -0.03031383 0.030597687
0.033485387 0.0012833127 0.06583136 0.03072676 0.035106335 -0.0029181552 -0.07714402 -0.039635148
0.006902168 -0.036615856 -0.02501167 -0.00614575 0.0142835835 0.02844104 0.115259886 -0.108863465
-0.027730932 0.032661326 -0.05198213 -0.048441317 -0.029687252 0.044393662 0.028016975 0.007954576

encoder.4.block.1.bias f4 [40]
00000000: ffd8 4b3b 8560 a6bb 93e6 c0b9 3925 3d3a
00000010: f1b8 35b9 c806 393b 9640 b63a 5040 ce38
00000020: ed77 2e3a 035e 66ba d3d0 9b3b 1974 0f3c
00000030: e764 5ab9 5a3c 053b 50a9 e7b9 805c 963a
00000040: 8e5f 16bb 3cd8 b6ba 338d 163a a98f 833a
00000050: 4c66 e0b7 4f2d 98b5 7213 95ba c5c2 0dbb
00000060: d086 733b aa5b 23ba 26e0 a53a 85f8 a63b
00000070: a3c0 1aba 6e8f 413a 79c0 f83a 64c0 c73a
00000080: 07ce ba3a 5bc8 203b 4b78 eab9 5fef 993b
00000090: 8ea5 4bbb 8b70 bc39 0101 46ba 831a 323b
0.0031104682 -0.005077424 -0.00036792885 0.00072153244 -0.00017330401 0.0028232802 0.0013904746 9.8348246e-05
0.00066554436 -0.00087878125 0.0047551184 0.008755707 -0.00020827689 0.0020330162 -0.000441859 0.0011471659
-0.0022945139 -0.0013949941 0.0005743086 0.0010037321 -2.6750517e-05 -1.1338069e-06 -0.0011373593 -0.0021630984
0.0037159212 -0.00062316156 0.0012655302 0.005095544 -0.0005903339 0.00073837384 0.001897826 0.0015239832
0.0014252075 0.0024533484 -0.00044721583 0.0046977247 -0.003107402 0.00035942005 -0.000755325 0.0027176447

encoder.4.block.2.weight f4 [40]
00000000: cae6 8c3f 225e 863f 3b9f 7e3f 410d 713f
00000010: 27ba 723f a7b3 703f 119b 723f cf39 6d3f
00000020: 41c0 553f 7f31 5c3f ae0b 7c3f d664 883f
00000030: 070a 743f f827 943f 6540 923f 8d6e 863f
00000040: dbbb 893f 72ab 293f bba1 6b3f 010d 6d3f
00000050: cf24 843f b467 893f 68f4 373f 35c2 843f
00000060: 3264 5b3f a11c 673f 916f 8e3f 84ef 883f
00000070: 007d 7f3f 551c 8f3f 43cf 8d3f 1e91 8e3f
00000080: ed1c 823f 4829 953f 5164 703f 1f2f 883f
00000090: 2eec 723f 6e83 403f 3274 9d3f 675c 5c3f
1.1007931 1.0497477 0.99461716 0.9416085 0.94815296 0.9402413 0.9476786 0.92666334
0.8349648 0.86013025 0.9845532 1.0655773 0.953278 1.1574697 1.1425902 1.0502487
1.0760454 0.6627723 0.92043656 0.9259797 1.0323733 1.0734773 0.7185731 1.0371767
0.8569976 0.9027806 1.1127797 1.0698094 0.9980011 1.1180521 1.1078876 1.1138036
1.0165077 1.1653223 0.9390307 1.063938 0.9489163 0.75200546 1.2301085 0.86078495

encoder.4.block.2.bias f4 [40]
00000000: 8cb1 9c3e 1211 8d3d 0aae 8abd 76d8 bd3e
00000010: 3b32 9a3e 05ee cd3e f042 273e ba8c ac3d
00000020: d4d0 0b3e 3434 bcbd 5311 cf3d 0813 b33e
00000030: f4d3 c13e 20ad e33e 2035 db3e 01d3 bebd
00000040: f4fe b03c c22d d63d 6aaa 583e fe4f 8a3e
00000050: e377 3dbe ee94 a6bd ec0e 41be 13df 13be
00000060: 878c cc3d 7b27 92bd 9ee6 6f3e 332c db3b
00000070: 4fc7 2abe 623f 403c 0726 8c3e fc5c 773e
00000080: c7a4 363d 222e a43e 3e1e 573e 63bf 92bc
00000090: edac b43c 303d a0bd b54d 75be 185b ea3d
0.30604208 0.068880215 -0.067714766 0.3707921 0.30116448 0.40220657 0.16334128 0.08425279
0.1365388 -0.091896445 0.10110726 0.34975457 0.3785702 0.4446802 0.4281397 -0.093175896
0.021605946 0.10457946 0.21158758 0.27014154 -0.18502764 -0.08133875 -0.18853348 -0.14440565
0.09987741 -0.071364366 0.23427817 0.0066886186 -0.16677593 0.011733862 0.27372763 0.24156564
0.044590738 0.32066447 0.2100763 -0.017913526 0.022055114 -0.078241706 -0.23955424 0.11443156

encoder.4.block.2.running_mean f4 [40]
00000000: cec0 963e 3be4 47bf b995 36bf 83e7 1cbf
00000010: d557 0b3e bf46 283f f22b 833e 021d 90be
00000020: b61c f73d c740 92be 57cb da3e 5c39 2a3e
00000030: 7c11 8b3c eb42 c33e 64e3 973e 295d 3bbf
00000040: 1c38 1ebf fc55 6cbd c089 0d3f 30e8 123d
00000050: 3a24 3b3c b6f2 3fbf 82ec 8bbe 6e6e bcbe
00000060: f2ff 713e 80c8 23bf d240 373f 8e69 0e3f
00000070: 8ca4 643d 91ab 70bf cb9e 533f 2dd8 253f
00000080: 7767 21bf ddac 9dbd 9786 aa3e ec06 0cbf
00000090: aec6 0abe cb35 fcbe 866c b9be 227a 973c
0.29443973 -0.7808263 -0.7132221 -0.6129076 0.13607724 0.6573295 0.25619465 -0.2814713
0.12066023 -0.28565046 0.4273326 0.16623443 0.01697611 0.38136992 0.29665673 -0.73189026
-0.61804366 -0.05769919 0.55288315 0.035865963 0.011422211 -0.7497972 -0.2732888 -0.36803
0.23632792 -0.63977814 0.7158328 0.55629814 0.055820987 -0.9401179 0.82664174 0.64782983
-0.630485 -0.07698987 0.3330581 -0.5469806 -0.13552353 -0.4925979 -0.3621561 0.018490855

encoder.4.block.2.running_var f4 [40]
00000000: 6e84 083f 8725 743f b974 3e3f 1708 153f
00000010: 0dc7 b33e ce0e 383f 8aef f13e 21de 193e
00000020: 0796 c03e 4d80 063f b1c7 073f 26ed c13e
00000030: 03b9 ab3e de58 a93e daa3 183f da2e 1f3f
00000040: e301 bb3e 6782 4d3e ec99 063f 58b9 663e
00000050: 368e f23d 23b5 633f 5fe7 aa3d ee33 263f
00000060: a2ec d63e 5b4d 103f d891 133f 8b68 e73e
00000070: 56cf b43d 4420 8e3f 256d 273f b163 853f
00000080: 17cd 4d3f 15f5 9c3e 1118 ca3e 48b1 f83e
00000090: cbdf 853e 029d a03e 155d 043e 65e6 873e
0.5332707 0.9536976 0.74396855 0.5821547 0.351128 0.7189759 0.47253066 0.15026142
0.37614462 0.5253952 0.5303908 0.37876242 0.3353959 0.33075613 0.5962502 0.62180865
0.36524877 0.20069276 0.52578616 0.2253164 0.11843531 0.8894827 0.08344912 0.6492299
0.41977412 0.56368035 0.57644415 0.45196947 0.08828609 1.1103597 0.65400916 1.0421048
0.8039107 0.30655733 0.39471486 0.48572755 0.26147303 0.31369787 0.12926133 0.26542965

encoder.4.block.4.weight f4 [40, 40, 1, 1]
00000000: 3cc0 0e3e 9e11 be3d 86df 8e3e 4267 163e
00000010: 4e5b 033e 7387 6cbe 656a 9a3d a108 263d
00000020: 8c2e 8d3d 21ed 773c c973 3abe 8cb1 ffbd
00000030: cca2 cebd c4e6 56be b8cc 1dbe b099 e6ba
00000040: 0e30 543e 8947 393d 7433 56bd 871e e9bd
00000050: 6c07 df3d 75f6 0e3e 250c 83ba 30d3 393e
00000060: 272a 883e ab66 823d c21e bdbe 09b0 57be
00000070: 3356 7fbe 18c0 0a3c 1a1d d5be a03a b13d
00000080: 61ee b23d 98ab 81be 4e42 633d f636 bc3c
00000090: 45b5 05bd be69 b33c 4b78 c63e a3b5 833d
000000a0: 7f1e 363e 1126 0bbc e92b b33e 3506 11be
000000b0: 8cea 5d3d b75b b3bd ea48 913c 447d be3c
000000c0: 7a4e 053e fc2b 35bd 2281 c53b 7f54 393e
000000d0: 9602 2f3e 7086 303e c23e a13e 1de6 85be
000000e0: e590 f1bd 2482 073e c513 11bd 2464 833d
000000f0: e94b 0bbd 2e92 52be 2cfe 57bc 6465 b6bd
00000100: e19c 6cbc 404a 893c a56d f23c 50db 0e3e
00000110: 09a8 9ebc 5122 53bd 99c9 313e 8b98 093e
00000120: d0f4 373d 11f1 b83e 8a36 4b3e df23 42be
00000130: 9938 1bbe 66d2 81bd 1849 64be 6903 1fbd
00000140: e9d6 13be 7028 883e 1fe4 35bd e86a 04be
00000150: 3bef b0bd 0dbc 15be 75da d9bd 7f20 afbd
00000160: f4fd 4cbc 9685 10bd a42a 223d bc0e 70be
00000170: af45 5f3d 6dbb 08be c731 33be 057e 1e3e
00000180: 1eaf 903d 1a3e 9abc 1879 43be 5b17 9bbd
00000190: 9199 833a f3bb 3c3e 4656 d33c 6216 193d
000001a0: bab8 65be 9dca 1a3e 48f2 1ebe 7947 4f3d
000001b0: 69cb 49be b876 163e 6874 11be 5f12 9fbe
000001c0: 1e8c c9bd e36c 8ebe 9b0e 52bc 5da7 fe3d
000001d0: 990a e33a a251 f83d b61a 023f 6cb9 24be
000001e0: 49d2 d9bc 631f 933e e8aa 113e c497 d93d
000001f0: 4214 cdbd 454f 923d 4d30 e3bd 1605 bebe
00000200: 7b5b 78be 1739 4bbc 3b45 4d3d 485e 74be
00000210: 99a7 cfb9 8933 f6bc 1d8e d9bd a4e7 67be
00000220: e5e0 3abd 7843 7c3d 1797 c8bd 46a3 f23d
00000230: dba5 693e 65e7 0f3e b661 b9ba fed7 3c3e
00000240: 2c83 13be 9941 aabd 5207 a9bd f451 15bd
00000250: 4f14 233e 516c 59bd a7d2 f4bd 24dc d33c
00000260: 8169 0d3e 6ac8 11be cfd4 9abc ec63 493e
00000270: d90a 1b3e b546 1abd 0021 d53e 3a98 26bd
00000280: 33b9 09be e53f 60be d973 47bd 39b4 0bbd
00000290: 207f cf3c 1a27 4cbe 47bd 953e 6e24 2dbe
000002a0: 2082 77bd 54c7 3c3e 2add 22bd 9ed4 7c3d
000002b0: 2fcb 6d3e 124d a73e d30a 263e 3831 1e3d
000002c0: 815d f2bd f835 ce3d 4d3c c03d c919 573e
000002d0: 4d51 613e 0a08 dc3c 9fb8 77be 2f2b d03d
000002e0: 4d42 0abd c8d4 30be 9996 31bd 2919 283e
000002f0: eba5 f33d 8110 39be 80ef 5b3e 7e2c 22be
00000300: 7596 c9bd f98c 9e3d 9c5f 573e ed56 b7bd
00000310: 0984 2dbd 2c18 e1bd d210 52be c8aa 163e
00000320: 265c a2bc 3990 6fbb a07f 3c3e ae3c c23b
00000330: 30fb cebd 15a4 98be 4bd7 50be ecaa b23d
00000340: 3622 83bd 7ec5 18bd aa89 69bd 0764 83be
00000350: ea2c acbe 14ce 21bd 6117 4c3d 2b97 2a3e
00000360: 8c4a e5ba 5294 5e3d 4a93 aabc b779 cbbe
00000370: 9432 e43c 488c 0d3d 076f 3c3c 0301 823d
00000380: 115c ebbc 0aea c43d ace1 c63d 8c3f 483e
00000390: 7756 c4be c8f2 003e c890 35be ceed 6b3e
000003a0: 15fe d03d df89 223e 1bff b0be a3ce f03d
000003b0: 9f2e 453d d74f 2c3d 7472 d53e c0c8 8dbd
000003c0: 3c1a 36be c537 05be 909d 94be 9ef5 96bc
000003d0: dbc8 b53c 2b6d 2ebe f869 393e d63a a33d
000003e0: 5ee2 873e 38bf 3d3d 511b 08bf 6fdc 5cbe
000003f0: eec1 d6bd c734 6cbd 71c2 bebd e9d0 38bd
0.13940519 0.09280704 0.2790491 0.14687827 0.12827799 -0.23098545 0.075398244 0.040535573
0.06893644 0.0151322195 -0.18208231 -0.12485036 -0.10089645 -0.20986468 -0.15410125 -0.001759341
0.20721456 0.045234237 -0.052295163 -0.11382776 0.108900875 0.13961203 -0.0009998126 0.18146968
0.2659466 0.063672386 -0.3693753 -0.21063246 -0.24935226 0.00846865 -0.41623765 0.0865376
0.087368734 -0.25326228 0.055483155 0.022975426 -0.032643575 0.021901008 0.3876365 0.06431129
0.17785071 -0.008492962 0.34994438 -0.14162524 0.05417876 -0.087577276 0.017734963 0.02325309
0.13018218 -0.0442314 0.0060273567 0.18098639 0.1709083 0.17238784 0.31493193 -0.26152125
-0.117952146 0.13233238 -0.035419244 0.06415585 -0.03400794 -0.20563576 -0.013183158 -0.089060575
-0.0144417 0.016759038 0.029593298 0.13950849 -0.019367235 -0.0515464 0.1736206 0.13437097
0.044911206 0.3612142 0.19845024 -0.18958996 -0.15158309 -0.063389584 -0.22293508 -0.03882161
-0.1443745 0.2659335 -0.044407006 -0.12931406 -0.086393796 -0.14622517 -0.106373705 -0.0855112
-0.012511719 -0.035283647 0.039591447 -0.2344312 0.054509815 -0.13352747 -0.17499457 0.1547776
0.07064651 -0.01882844 -0.19089162 -0.07572814 0.0010040273 0.18431072 0.025797974 0.03737486
-0.22433749 0.15116353 -0.1552211 0.05060527 -0.19706501 0.14693725 -0.14204562 -0.31068704
-0.09841178 -0.2781745 -0.012820865 0.12434266 0.0017321884 0.12124945 0.5082201 -0.16086358
-0.02658953 0.28734884 0.14225352 0.1062465 -0.100136295 0.07144026 -0.11093197 -0.37113255
-0.24253647 -0.012403748 0.05011485 -0.2386409 -0.00039606987 -0.03005387 -0.10622809 -0.22646958
-0.045624632 0.06158778 -0.09794443 0.11847548 0.22817175 0.14053114 -0.00141435 0.1844177
-0.14405507 -0.08313293 -0.08253349 -0.03645511 0.15925716 -0.053081814 -0.11954241 0.025861807
0.13809778 -0.14236608 -0.018900303 0.19667023 0.15140857 -0.037665088 0.4162674 -0.04067252
-0.13449554 -0.21899374 -0.048694465 -0.03410742 0.025329173 -0.19936791 0.2924597 -0.16908428
-0.06042683 0.18435413 -0.0397617 0.061726205 0.2322204 0.32675987 0.16215067 0.038621157
-0.11834241 0.100688875 0.093865015 0.2100593 0.2200367 0.026859302 -0.24191521 0.101644866
-0.033754636 -0.1726867 -0.04335651 0.16415848 0.11896881 -0.18072702 0.21478081 -0.15837285
-0.098431505 0.07741732 0.21032566 -0.08952127 -0.042362247 -0.109909385 -0.20514229 0.14713585
-0.01981933 -0.003655447 0.1840806 0.0059276437 -0.10106504 -0.29812685 -0.20394628 0.08724007
-0.064030096 -0.03729772 -0.057016052 -0.25662252 -0.33628017 -0.039503172 0.049826983 0.16659229
-0.001749353 0.054340668 -0.020822186 -0.397413 0.027856149 0.03455761 0.01150108 0.06347849
-0.028730424 0.09614952 0.09711012 0.19555491 -0.38347217 0.12592614 -0.17731011 0.23039934
0.10204712 0.15872906 -0.3456963 0.11758163 0.048140164 0.04206833 0.41688883 -0.06923056
-0.17783445 -0.13009556 -0.2902646 -0.018427666 0.022190502 -0.17033832 0.1810683 0.079702064
0.26539892 0.04632494 -0.5316668 -0.21568464 -0.10486208 -0.05766752 -0.093144305 -0.045121107

encoder.4.block.4.bias f4 [40]
00000000: 3e52 07bc cff7 053b 9038 a9bb 69a8 e1ba
00000010: fa5c 21ba 04d3 6c39 df85 3cbc b71a 18bc
00000020: 9f33 9e39 802a d6b8 ddff 0bbb 80c1 81bb
00000030: 2c58 93bb fb78 ad3a 5ea5 d8bb be2a 3f39
00000040: 9478 c9bb ebdd 103a 14d9 313b 1718 223c
00000050: 23ac ef3b 0b12 a1bb 1ec3 8e3b 5ba2 89ba
00000060: 2cf7 babb cae8 87bb c625 68bb 04e4 c138
00000070: c467 aabb 8df7 00bc 4619 de3a 1945 b53b
00000080: 52c4 20bb 09be 4cbb 855e 05bc 2ec9 8abb
00000090: 7f69 c6bb e540 d2bb 4e64 f83a 5922 faba
-0.008259354 0.0020441895 -0.0051642135 -0.0017216328 -0.0006155517 0.00022585323 -0.011506527 -0.009283713
0.0003017457 -0.000102122314 -0.0021362223 -0.0039598346 -0.004496595 0.0013234908 -0.00661151 0.00018231102
-0.0061484072 0.00055262324 0.0027137445 0.009893439 0.0073142215 -0.004915481 0.004356756 -0.0010500656
-0.0057057347 -0.0041476237 -0.0035422905 9.2454284e-05 -0.005200358 -0.007871521 0.0016944788 0.0055319187
-0.0024531079 -0.00312412 -0.008140211 -0.0042354083 -0.0060550566 -0.0064164274 0.0018950792 -0.0019083723

encoder.4.block.5.weight f4 [40]
00000000: 559c 4b3f d50a 263f 869f 3b3f 2759 203f
00000010: d216 503f 46fb 253f 55a4 7f3f 53ea 0b3f
00000020: d431 453f 5a17 2f3f a3b9 603f ca97 673f
00000030: 858f 453f 05e8 2b3f 2af3 1e3f 0bc4 9f3f
00000040: 20b0 113f b3bc 723f ab3d 6e3f f492 113f
00000050: 68f7 f03e f041 773f f016 683f cf21 383f
00000060: abdc 243f 108e 103f 3dcf 663f d99d 693f
00000070: a993 333f a91d 3e3f 8f1b 5c3f af61 0f3f
00000080: 6502 0c3f 65f4 493f 7ea6 693f 64ae 553f
00000090: 3f0b 563f 6b5a 2f3f 2f2b 053f 8c83 243f
0.7953542 0.6486028 0.7329029 0.62636036 0.8128482 0.6483654 0.99860126 0.54654425
0.77029157 0.68395007 0.8778326 0.90465987 0.7717212 0.6715091 0.6208979 1.2481703
0.5690937 0.9481918 0.9306285 0.5686486 0.47063756 0.9658499 0.9066 0.7192659
0.6439921 0.5646677 0.9015997 0.9125648 0.70147187 0.7426401 0.8597955 0.5600843
0.54691154 0.7888854 0.9126967 0.83469224 0.8361091 0.6849734 0.5201902 0.64263225

encoder.4.block.5.bias f4 [40]
00000000: 6ece c6be 7023 ac3d a76d 88be a3bb 2bbe
00000010: aeda 523d 2e22 34be e520 80be 06d5 84be
00000020: ac38 033e 6b41 8cbe f90c b43d 4d5f e6bd
00000030: 4bfe 9dbe 7c1e 773c 0660 77bd dfec 82be
00000040: 9433 75be af7e 3d3d 618e 263e 3574 cfbd
00000050: 761c a9bd e464 ac3d 6bf8 693d 5310 88bd
00000060: 761b 79be 30a9 f9bd 19b9 d33d ba9d be3d
00000070: 918c 1dbe 34f4 ddbd 1976 6abe 4cc8 88bd
00000080: 3ac1 02be 2bda 73be 784d 9ebd 184c 9bbe
00000090: b9eb 86be fe4a 10be 4f27 393c 992e 46be
-0.38829368 0.08405197 -0.26646158 -0.16770796 0.05147808 -0.17591164 -0.25025097 -0.25943774
0.12814587 -0.2739366 0.08791537 -0.11248646 -0.30858073 0.015082952 -0.06039431 -0.25571343
-0.23945457 0.046263393 0.1626525 -0.101295866 -0.082573816 0.08417681 0.057121675 -0.066437386
-0.24326882 -0.12190473 0.10338039 0.09307428 -0.15385653 -0.10837594 -0.22896613 -0.066788286
-0.12769023 -0.23813693 -0.0772962 -0.30331492 -0.26351717 -0.14091107 0.011300876 -0.19353713

encoder.4.block.5.running_mean f4 [40]
00000000: 1e8f 57be 18df 2c3f 5fd0 49bf baaf 39bc
00000010: db12 a73e abef 90be 47dd 57bf 19d2 38bf
00000020: 2402 5e3d 0a9a 7fbe be7a 0a3f 1f29 793e
00000030: d5de 8e3e 6a3e 233f bb3e 08bf 3438 77be
00000040: b639 8dbe 9ce0 dc3e ad00 793f c401 0c3f
00000050: 5de9 1b3e fdb0 233f fd6f a13e 1811 643d
00000060: cf19 39bd a579 ccbe 0479 ed3e ea44 1a3f
00000070: d6b6 bdbe 414b 16bf 1c11 26bf 1033 6d3e
00000080: 0fbc fb39 98e4 a7be df1d ccbe 1b0b 1bbf
00000090: ceb6 9ebe 3e8f c6bd a05f 0b3f 61e4 84be
-0.21050689 0.67527914 -0.78833574 -0.0113334 0.32631573 -0.28307852 -0.8432202 -0.72195584
0.05420126 -0.24961105 0.5409354 0.24332093 0.27904382 0.6376711 -0.5322072 -0.24142534
-0.27583092 0.43140113 0.97266656 0.54690194 0.1522574 0.6394194 0.31530753 0.055680364
-0.04519063 -0.39936557 0.4638139 0.60261405 -0.37053555 -0.5870858 -0.64869857 0.2316401
0.00048014565 -0.3279159 -0.3986654 -0.6056382 -0.30998844 -0.0969529 0.5444279 -0.2595549

encoder.4.block.5.running_var f4 [40]
00000000: 3c2e 6340 d84f 8d40 e7e5 a340 ef4c 3340
00000010: 3e8b e83f 7b74 0c40 07d5 0240 d73b e940
00000020: b93e 973f 3a81 ce3f 2aac 5140 25a7 cb3f
00000030: 9d1d ff3e 532d 6740 5711 c240 5ae0 ff3e
00000040: aba4 8e3f 229a e03f 2323 6e40 9b82 b33f
00000050: 99ac dd3f 7810 a740 6eb5 233f 5844 6840
00000060: 4452 4440 ea21 e63e 8dfb 5d40 5884 dc40
00000070: ad89 ee3f 6746 963f e17c 2640 3529 ce40
00000080: 873b c53f 5daa 9f3f 2094 8a40 af66 3a40
00000090: 722f 9e3f 985b 643f d0e1 ad40 70b5 cf3f
3.549697 4.4159966 5.1218143 2.8015707 1.8167493 2.1946094 2.0442522 7.2885547
1.1816016 1.6133187 3.276133 1.5910383 0.4982728 3.6121414 6.0646167 0.49975854
1.1144003 1.7547038 3.7208946 1.4024233 1.7318298 5.2207603 0.63948715 3.6291714
3.067521 0.4494775 3.4684784 6.8911552 1.8635765 1.1740235 2.601372 6.44253
1.5408791 1.2473866 4.3305817 2.9125173 1.2358229 0.8920226 5.433815 1.6227245

encoder.5.block.1.weight f4 [40, 40, 3, 3]
00000000: 2390 0c3e 6879 7fbc 2e47 0dbd 952c 89bd
00000010: 16b4 67bb 8388 91bd c194 093e f300 92bd
00000020: 15f4 253d 2904 e43c 3cb9 16bc d8f8 4cbc
00000030: 02fd 1bbd 2ec1 3b3e b070 803c 9628 90bc
00000040: e053 8a3d 0b96 e1bc 4ee1 18bd b124 b93d
00000050: 0e2f 6a3c 14f3 22bd 3b7f 8dbe 37e1 8f3d
00000060: 157f aabd a53e 633c 56f4 26bd 357f f13c
00000070: d74b 6ebb 7a42 bc3a f774 b53d da73 4ebc
00000080: ee01 9cbd 258a 1c3d 3c22 47bb c0d4 783d
00000090: ad0f 643d 7f4d ca3a 8462 3ebc 5ba6 193d
000000a0: 0439 37be 297d 763d 1db0 c9ba 92aa 2abd
000000b0: 0170 023d a8a5 0cbd 8b66 153c 3ec9 733d
000000c0: a96d 9dbc 7bf0 2abe e602 84bd 1796 09bd
000000d0: 2e98 863d 1577 253d 4d3e 29bd 99ed fb3d
000000e0: ec20 27bc f6d4 94bd e8c7 93be 5fde c2bd
000000f0: 4bc4 533b 8878 82bd 2403 d9bc d4bb 323c
00000100: ea9b cebc e6b3 673c b075 8fbc af8c 16be
00000110: 1837 4dbd bbb5 acbc 0eea cb3c 292e 203b
00000120: 673f 603c bc2a e1bc b68c 7bbd ca1c b43c
00000130: 3cfc 24be 1f47 35bd a1de 653d ca08 65bd
00000140: 5374 5bbb 569b aa3c ce3a 2c3d f339 063d
00000150: 787a ff3c 551a c13c e741 943d a42d 49bd
00000160: a174 0d3d c7b0 173d f51e 29bb aac4 66bc
00000170: 3184 7d3c 6745 5dba 9fdc 223e a86f bb3c
00000180: 9718 063d b4ed a3bb e78c b93d bcee 7dbc
00000190: 7f7d 2e3d 524c f5ba 9ba2 fbbc 5862 8dbe
000001a0: 0af6 dc3c 1bec 22bd c728 5fbd 258f adbc
000001b0: 6745 623d 2c65 37bd 2542 103c f695 0b3e
000001c0: 1e76 17be ef7b 003e 1cde 37bd 0490 a03d
000001d0: dc47 94bd 4bd3 0cbc 4465 053c 03af 603d
000001e0: 6d98 12bc 712f 00bd 3cad 41bd 1600 3e3c
000001f0: 8d64 063d 9428 29bd c5e7 8cbd 0a77 9fbd
00000200: f119 1bbd 346e ad3c b404 1e3e 51dc 2ebd
00000210: 25be 4b3c 7cdc 853d b4b1 303d f4f6 d1ba
00000220: 646b ae3b 682c 693c 4df6 513b 652d 7a3c
00000230: 7305 aa3b 184e 3d3c d0ef bbbb c40d 523b
00000240: 916d 34be 9b98 0a3c 4cb9 2d3d 3b0a 133d
00000250: 05fd 1dbe ecdc a4bc 4c7e e33c f432 1e3c
00000260: 927a 353d 2ede fc3c f24f 433d 1de5 0b3d
00000270: d10a 94bd 553e f8bc 77c7 773d 9c36 903c
00000280: c260 97bc e12f 9cbb 08a9 ffbc fedb a6bc
00000290: 6a14 dcbc 15e5 a83c 07dc b33e d45f 8dbd
000002a0: 54aa d5bb 7025 893c 0b04 f1bc 2b81 863d
000002b0: 0473 6cbd 0fe5 94bd 6916 c73c 2c9e 39bd
000002c0: b1cc 0dbc 2a1d 4d3d 9fb6 18bd 290f 83bc
000002d0: 5306 38bd f8a4 64bc a732 9a3a d618 55bb
000002e0: b2d0 09be 1e08 b7bd af19 7bbd 8708 2c3d
000002f0: d3a6 70bd 5f1b 88bc eec1 ea3a 2bf8 963c
00000300: ac5c 8b3d 7a83 983e baf8 853d fd48 39bd
00000310: be98 a6bc f438 47bd 7467 653c 4402 fd3c
00000320: 8a14 f83b 2708 3e3c 7dfb 03bd ab7c 9fbb
00000330: 69ef 0f3d f53f b6bc 8fbe a0bc 6f32 60bd
00000340: 558e e23c a7f0 523d ccea 76bd 2e64 4c3d
00000350: 85c1 7fbd cc43 583a 8e27 4c3c b84d 063d
00000360: 9f46 a53c 2696 443d 7289 b43d 6152 39bc
00000370: 0662 80bc e8ee 70bd 1dc9 193d b4fa a1bd
00000380: d45c b03d c7e7 2bbd f8cf 43bd 5f58 4e3c
00000390: a025 153c 6c34 1a3d e2ff 4dbd 7af3 aabd
000003a0: 65c4 06bb 3537 193d 08a1 17bc 8845 953c
000003b0: 44b7 1fbd 09ba 52bc 2d0f 673e 3e38 9cbb
000003c0: 7a8f 40bd 83e8 4cbd 8a5b 1d3d 2ffc 913d
000003d0: 8ce4 a137 5702 1c3d e7e4 b3ba f7a5 413e
000003e0: 1205 ccbc cbe5 583d 9475 403d ec07 77bd
000003f0: aa14 aebc 9690 1839 0295 c13c 5107 c8bc
0.13726859 -0.01559291 -0.03449171 -0.066979565 -0.0035355142 -0.07106116 0.13435651 -0.07129087
0.040515978 0.027834015 -0.009199437 -0.012510501 -0.038083084 0.18335411 0.015678734 -0.017597478
0.06754279 -0.027537366 -0.037324242 0.090402015 0.014293445 -0.0397826 -0.27636132 0.07025378
-0.0832502 0.013869916 -0.04076036 0.029479602 -0.0036361122 0.0014363073 0.088602 -0.012600863
-0.076175556 0.038217682 -0.0030385396 0.06074977 0.055679012 0.0015434473 -0.011620168 0.037512165
-0.17892843 0.060177956 -0.0015387569 -0.041666575 0.031845096 -0.03433767 0.009118686 0.05951809
-0.01921733 -0.16693299 -0.06445865 -0.033590402 0.06571995 0.04039677 -0.04131918 0.123011775
-0.01020072 -0.072671816 -0.28863454 -0.0951507 0.0032313045 -0.06370646 -0.026490755 0.0109090395
-0.02522083 0.014142012 -0.017512172 -0.14702104 -0.05010137 -0.02108275 0.02489188 0.0024441576
0.013686991 -0.027486198 -0.06141349 0.021986384 -0.16111845 -0.04425728 0.05612052 -0.055916585
-0.0033486083 0.020826023 0.042048268 0.03277011 0.031186327 0.023572126 0.072391324 -0.049115792
0.034535054 0.037033822 -0.0025805805 -0.014084974 0.015473411 -0.0008440823 0.15904473 0.02288039
0.032738294 -0.0050027017 0.09060078 -0.015498813 0.04260015 -0.0018714762 -0.030717185 -0.27614093
0.02697279 -0.03977595 -0.054482248 -0.02118642 0.05524197 -0.04477422 0.008804833 0.13631424
-0.14791152 0.12547277 -0.044889554 0.07839969 -0.072402686 -0.008595298 0.008141819 0.054854404
-0.008947474 -0.031295244 -0.04728435 0.0115967 0.032810736 -0.041298464 -0.06880144 -0.07786377
-0.037866537 0.021170713 0.15431482 -0.04269058 0.012435471 0.06536195 0.04313822 -0.0016019032
0.0053228606 0.014231779 0.0032037676 0.015269612 0.005188638 0.0115542635 -0.005735375 0.0032051662
-0.17619921 0.008459236 0.04241304 0.03589843 -0.1542855 -0.020124875 0.027770184 0.009655703
0.044306345 0.030867662 0.047683664 0.034154046 -0.072286256 -0.03030316 0.06049296 0.017604165
-0.018478755 -0.00476645 -0.03120853 -0.020368572 -0.026865203 0.020617047 0.35128805 -0.069030434
-0.006520549 0.016741484 -0.029420873 0.065676056 -0.057726875 -0.07270252 0.024302678 -0.04531686
-0.008654759 0.05007664 -0.037283536 -0.01599844 -0.044927906 -0.013955347 0.0011764363 -0.0032516024
-0.13458517 -0.08937095 -0.06130379 0.04200032 -0.058752846 -0.016614614 0.0017910579 0.018428883
0.06804785 0.2978781 0.065415815 -0.045235623 -0.020336505 -0.0486383 0.014001716 0.03088487
0.007570808 0.011598623 -0.03222226 -0.0048671565 0.03514043 -0.022247294 -0.019622115 -0.054735597
0.02765576 0.051499035 -0.060282513 0.049900226 -0.062440414 0.00082498486 0.012460602 0.032788962
0.020175276 0.047994755 0.08815278 -0.011311145 -0.015671741 -0.05882159 0.037545312 -0.07909146
0.086114556 -0.041969087 -0.047805756 0.0125943115 0.009103209 0.03764765 -0.050292857 -0.08347221
-0.0020563838 0.037406165 -0.009254701 0.018221632 -0.038993135 -0.012861737 0.22564383 -0.004767447
-0.04701183 -0.050026428 0.038417377 0.07128178 1.9299121e-05 0.03808817 -0.0013724834 0.18910967
-0.024904761 0.052953523 0.04698713 -0.06031029 -0.021250088 0.00014549712 0.023630623 -0.024417551

encoder.5.block.1.bias f4 [40]
00000000: d156 3339 1d1f 6b3b faeb 153a 656e 313b
00000010: 082b e63a 3965 b03a d66c c93a 11d5 dd3a
00000020: 56ed 9138 5cc7 d13b 8ee1 813b 2a02 673b
00000030: b9a4 8f3a 670a d6bb bdbd 18ba 33d8 1d3b
00000040: 460f 133b 47d4 c03b a887 803b a3d3 a13b
00000050: 1efb 3f3b 0dcd 7eba ccf8 8fb9 f4ff a33b
00000060: b10f 963a 9650 d13a e9d3 183b 0715 d13a
00000070: 6d88 d23a 2e68 8f39 067f c739 a6cf 8a39
00000080: db86 a73a 0d03 113b 9e0b a53b 2c4b 833b
00000090: d9d4 a03b 00e4 2c3b bec2 233a d43d e63a
0.00017103112 0.00358767 0.0005719062 0.0027073857 0.0017560432 0.0013457901 0.0015367519 0.0016924461
6.958346e-05 0.0064019393 0.003963656 0.0035249093 0.0010959125 -0.006532002 -0.0005826613 0.0024085164
0.0022439524 0.0058846804 0.0039224215 0.004938559 0.0029293965 -0.0009719886 -0.00027460454 0.005004877
0.0011448768 0.0015969451 0.0023319668 0.0015951701 0.0016062387 0.00027352705 0.00038050878 0.0002647612
0.0012781279 0.0022127063 0.0050367853 0.004006764 0.004908186 0.0026381016 0.00062469754 0.0017566034

encoder.5.block.2.weight f4 [40]
00000000: 594b 6f3f 700c 8f3f 71de 8c3f c11a 5f3f
00000010: 3d1a 843f 77de 7a3f deff 6b3f ff5f 813f
00000020: df94 723f b0fd 993f d134 583f d80b 633f
00000030: 07cc 863f 151d 3a3f 2779 8c3f b8a3 843f
00000040: 1625 563f 077c 513f 2a35 503f a7c5 a23f
00000050: 3bb6 793f cc83 843f 1f97 823f 923f 943f
00000060: 3990 793f 5a4b 5e3f ac06 683f 1eff 833f
00000070: 9bf0 793f 01ce 833f b9b9 8e3f 24b7 333f
00000080: 7b75 793f 23f7 5b3f 2564 6f3f 83b3 803f
00000090: 181d 453f 2270 5b3f 964a 683f fd81 893f
0.93474346 1.1175671 1.1005384 0.871502 1.0320507 0.97995704 0.921873 1.0107421
0.9475841 1.2030544 0.8445559 0.8868995 1.0531014 0.72700626 1.0974473 1.0362463
0.8365034 0.81829876 0.8133112 1.2716569 0.97543687 1.0352721 1.0202368 1.15819
0.9748569 0.8683373 0.9063518 1.031223 0.9763276 1.0297242 1.1150428 0.70201325
0.97444886 0.85923976 0.93512183 1.0054783 0.7699752 0.85717976 0.9073881 1.0742794

encoder.5.block.2.bias f4 [40]
00000000: b581 b63e 3a9e 47be 5d21 c3be 078c 503e
00000010: abc0 5abe 0e9a a93d f2e4 163d 068b e7bd
00000020: 3a44 8cbc 7668 bfbd af2e 573e e974 893e
00000030: 934f 8bbe dd53 23be a52f 2fbe a2b5 a73e
00000040: d569 a83e 8107 8d3e 4be1 bb3e a5e8 7a3e
00000050: 653a 49be 6d45 943d 2b72 ae3e 1bc1 7d3d
00000060: 2d8e 41be 41f3 013e 27c7 303f b614 a63d
00000070: b73b 6cbe 7129 0ebe d3eb 813e d508 d8be
00000080: 0d6f 3a3e f768 a03d 6d7a d0bc 6c93 713c
00000090: 9e44 853e 0820 4e3e 6d2b ebbd f1cb 473e
0.35645834 -0.19493952 -0.38111392 0.20365916 -0.2136256 0.08281337 0.036839433 -0.113058135
-0.017122377 -0.09346096 0.21013902 0.26847008 -0.27209148 -0.1594996 -0.17108019 0.32755762
0.32893243 0.27544788 0.36695322 0.2450281 -0.19651182 0.072398044 0.34071478 0.061951738
-0.18901892 0.1269045 0.6905388 0.08109419 -0.23069654 -0.13882996 0.25375232 -0.42194238
0.18206425 0.078325205 -0.025449002 0.014744621 0.26028913 0.20129406 -0.11482892 0.19511391
