VQ-VAE/models/vqvae/model_23.pt (torch, 579012 bytes, 64 tensors)

encoder.0.weight f4 [40, 1, 4, 4]
00000000: 0392 1a3d 85f1 c73c 6c38 81bd 572c 98bd
00000010: bf8a b2bd f5c1 67bd 5ebc 39bd 611e 94bd
00000020: cca4 b2bd f567 cebc 72b3 01be 6cb7 193d
00000030: 551a a0bc 1020 a8bd 546f f33a 6855 4d3d
00000040: 5541 253d 4569 a23d 1a21 72bd eb0b 513d
00000050: caa0 033e 4e7c 003e 484f d4bc 0667 263d
00000060: 7dd4 923d 78c3 ac3d 0f59 a4bd ba8d b5bc
00000070: 30fb 8b3d 8b50 643d 0552 85bc 5501 ac3d
00000080: 6d3b 8f3d be6a 9e3d b0e8 943d ab0e 8b3d
00000090: 628f 163d 32ea 8a3c 46cb 173c 2d75 9c3d
000000a0: 8c28 c93d 5984 933d c11f d43c 0844 523d
000000b0: bdd3 603d 705d 143d 3dcf 9e3c c27a 1a3a
000000c0: 63a6 913c 4565 da3d b3e7 a73d e408 d43c
000000d0: 7dce c43d 87e2 5b3d b541 f3bc 5859 90bd
000000e0: bd03 e63d 05b5 12bc 1135 78bc 67cd a3bc
000000f0: cd92 993d 3c3b 523d 0d60 db3c 56cc 223d
00000100: 9e67 7b3c fc28 1dbb 269f 8a3c c17d 413d
00000110: 6576 2dba 9de9 5cbc 72e4 c63d 3c9a 63bc
00000120: 5f4f 29bd eb06 41bd 54b5 4d3d 4ed4 9a3d
00000130: 5722 843d 8946 7cbd c691 4b3d cec7 0b3e
00000140: db6f b6bd 80d2 46bb 032a 81bd f813 fbba
00000150: 2617 b2bd 5363 22bd 577b ffbd f9ea 9c3c
00000160: 2f93 9fbd a21d 3dbd aedc aebd 6505 903d
00000170: 105f a8bd 3e40 4abd 8ac7 773d f7bf a0bc
00000180: 9d02 103c 047a a43d 2e1d 3dbd 8b85 403b
00000190: 4735 7e3d 676c 0cbc 2adb 79bd 1a58 82bd
000001a0: 0c74 683d 7e26 88bd 1faa 68bd 56d7 73bc
000001b0: efa9 5dbd d8cd 7abd 4183 fcbc 6756 43bd
000001c0: 2029 40bc 7f99 e0bc 997d e3bd 9828 80bd
000001d0: 9b4c 23bd bc04 7fbb a53a bcbd a5bb c83c
000001e0: 2d78 05be 4a2d 7bbd 8fc9 403b 479a 3ebd
000001f0: d159 babc c583 7e3d 8f47 adbd 20bc 88bc
00000200: f6d6 e9bc a0d8 2abc 9c94 cd39 3010 c63c
00000210: ad4b 35bd d94e 143d 0109 9d3d 1a19 bf3c
00000220: e656 923d c7a8 fd3d 1f92 3bbd d053 30bc
00000230: d820 063e b63c 883d 8538 583b ac00 693d
00000240: 453d 283d f9b8 d53c 74c5 3f3d 33c1 1e3d
00000250: c565 77bd 3703 89bd 8474 d0bd fe0f b53c
00000260: 7408 00be 8372 b7bd a550 3dbd 8f87 42bc
00000270: 349e 48bc 98a5 b33d c20e 7f3c 680a b33d
00000280: f2df 713d 9790 163d ee65 4ebd 8336 84bd
00000290: 71f0 913d 87a3 523c 5876 1ebd a4db 2cbd
000002a0: bf35 2b3d 2fa2 0e3d cfcb 15bd 4bc0 7bbd
000002b0: 7845 723d 7220 9a3d 87d1 4fbd 5baa 8bbd
000002c0: 320a 8ebd b2f7 41bc 71c3 0c3c a876 07bb
000002d0: 62a8 8e3c 1287 25bc deec 05bd 017c 86bd
000002e0: 7ee6 debc be58 0fbe 3e74 01be 0b35 9bbd
000002f0: e3cd 86bc 7f96 6ebd 4d2a e03c 1ba1 4bbd
00000300: 3d51 6e3c 3065 5f3d abc3 623d 768a 1abd
00000310: 1b12 bf3c da49 aabd a0b1 48bd ac02 afbd
00000320: 39ec 47bd 3b4e 85bd 930e e3bb 589f 82bd
00000330: 1246 88bd c6c1 1fbd 4ece 72bd 266b d8bd
00000340: 81d6 b5bd cf69 71bd 6752 c7bc 7b21 c13c
00000350: 9c98 61bd 4366 9abd 84d4 6cbd e0cd 94bd
00000360: 2c17 7f3d b537 4abd 1f4e 8abd 6ad1 5fbd
00000370: d5c9 663d fb4e 3f3d a1be d7bb 3d90 fcbc
00000380: 2f84 b03c 84ad 263c d732 92bb 36c3 383c
00000390: 30fc ca3c 2db8 5abd 7133 243c 003c ef3c
000003a0: 4443 4b3d c4f4 843d fb67 123e 6e27 cb3d
000003b0: 1881 033d d13f 9e3d c2c2 c03d d570 503d
000003c0: 6ce8 ad3c 1375 acbd aed7 e4bb f195 c3bc
000003d0: b423 32bd b1b3 5cbd a31c 86bd ed7a 33bd
000003e0: 1557 a0bd 298e 23bd 1959 33bc 226f 8bbd
000003f0: 0607 6f3b 2691 39bd b53d 73bd d746 4b3c
0.037736904 0.024407158 -0.0630959 -0.07430332 -0.0871787 -0.056581456 -0.045345657 -0.07232357
-0.08722839 -0.025196055 -0.12666109 0.03752844 -0.019543806 -0.082092404 0.0018572607 0.050130278
0.04034551 0.07930235 -0.0591136 0.051036756 0.12854305 0.12547418 -0.02591671 0.040625595
0.07169435 0.0843572 -0.08024799 -0.022162307 0.068350196 0.055740874 -0.016274462 0.083986916
0.069937564 0.07735203 0.07270944 0.06789907 0.036757834 0.016957376 0.009264773 0.07639537
0.09822187 0.07202978 0.025894048 0.05133441 0.05488943 0.03622192 0.019385928 0.0005892926
0.017779535 0.10663847 0.0819849 0.025883146 0.09609697 0.05368283 -0.029694417 -0.07048291
0.11231182 -0.008954291 -0.015149371 -0.019995404 0.07498703 0.05132602 0.026779199 0.03974565
0.0153445285 -0.0023980727 0.016921591 0.04723907 -0.00066170684 -0.013483432 0.09711541 -0.013891753
-0.04133546 -0.047125738 0.050221756 0.07560025 0.06451862 -0.061590705 0.049699567 0.13650438
-0.089080535 -0.003033787 -0.06306841 -0.0019155731 -0.086958215 -0.039645504 -0.12474697 0.019155012
-0.07791745 -0.04617084 -0.08538185 0.07032279 -0.08221257 -0.049377672 0.06049303 -0.019622786
0.008789686 0.08031085 -0.046170406 0.0029376473 0.062062528 -0.008570767 -0.061000027 -0.0636446
0.056751296 -0.06647967 -0.056802865 -0.014882883 -0.05411714 -0.061231464 -0.030824305 -0.04768982
-0.011728555 -0.027416943 -0.1110794 -0.06257743 -0.03986798 -0.0038912734 -0.09190873 0.024503538
-0.13034125 -0.061322488 0.0029417013 -0.04653385 -0.022747906 0.062137384 -0.08460914 -0.016691267
-0.028544884 -0.010427624 0.0003921137 0.02417764 -0.044261623 0.036208007 0.07667733 0.023327399
0.07145481 0.12385707 -0.04579365 -0.01076217 0.13098466 0.06652205 0.0032992673 0.056885406
0.041074056 0.026089178 0.046819165 0.038758468 -0.06039979 -0.06690066 -0.101784736 0.022102352
-0.12503225 -0.08957388 -0.046219487 -0.01187314 -0.01224475 0.08771819 0.015567483 0.08742219
0.05905146 0.036758985 -0.050390176 -0.0645571 0.07125939 0.012856371 -0.03868708 -0.042201653
0.041799303 0.03482264 -0.03657132 -0.06146268 0.05914828 0.0752572 -0.05073693 -0.06819602
-0.06935538 -0.01183884 0.008591519 -0.002067009 0.017414276 -0.010103004 -0.032696597 -0.065666206
-0.027209517 -0.13998696 -0.12641999 -0.075784765 -0.016455596 -0.058248993 0.02736392 -0.04971419
0.014545736 0.05453986 0.055362385 -0.037729703 0.023324063 -0.08314867 -0.04899752 -0.085454315
-0.048809264 -0.06509062 -0.0069292276 -0.06378049 -0.0665399 -0.039003156 -0.05927878 -0.10567312
-0.08878804 -0.058938798 -0.024331285 0.023575535 -0.05507718 -0.07539036 -0.05781986 -0.0726583
0.062277958 -0.049369533 -0.06753182 -0.054643072 0.056344826 0.04670618 -0.006584004 -0.030830497
0.021547405 0.010173205 -0.004461627 0.011277011 0.024778455 -0.0533983 0.01002203 0.029203415
0.049624696 0.06491998 0.14297478 0.0991963 0.032105535 0.07727016 0.09412147 0.050888855
0.021228991 -0.08420768 -0.006983719 -0.023875209 -0.04349108 -0.053882305 -0.06548431 -0.043818403
-0.078291096 -0.039930496 -0.0109465355 -0.06808306 0.0036472692 -0.04530444 -0.05938502 0.012407026

encoder.0.bias f4 [40]
00000000: 01b5 ebba a20a c1ba 848f 28bb b038 0cbb
00000010: b14b 31bb ab53 6b39 1ded 2b3b d293 2f3a
00000020: ff54 c0ba 68f3 953b f988 163b 7df4 28ba
00000030: 38e7 10bb 92ad 103a 30dc f1b9 955a 0e3b
00000040: e6fb c1b9 5b07 f1ba 9248 2c3a e3b2 403a
00000050: 121b 92bb a059 62ba 761a 04bb 2ff5 5abb
00000060: 2e57 bc3a 0f0c ecb9 c17e 063b 8a25 16ba
00000070: c763 f038 b644 773a 8c25 4a3b e1f4 933b
00000080: d391 29b9 568b 86bb ef16 5a3b 6b3d ce39
00000090: c3a3 8fb9 4d42 56bb 6776 b0ba d255 86ba
-0.001798302 -0.00147279 -0.0025720308 -0.0021396093 -0.0027053172 0.00022442515 0.002623386 0.0006697747
-0.0014673768 0.0045761354 0.0022969826 -0.0006445123 -0.0022110473 0.0005519028 -0.00046131155 0.0021721472
-0.00036999508 -0.0018389033 0.0006572093 0.0007350875 -0.0044587934 -0.0008634571 -0.0020157374 -0.00334103
0.0014369243 -0.00045022412 0.0020522329 -0.00057276397 0.00011462677 0.0009432541 0.0030845134 0.004515276
-0.0001617142 -0.0041059656 0.003327783 0.00039337142 -0.00027397097 -0.0032693327 -0.0013463021 -0.0010248965

encoder.1.weight f4 [40]
00000000: 1336 663f 287b 573f 072a 663f 540d 4d3f
00000010: a3de 4c3f a1c1 783f 5b89 5a3f 87ff 523f
00000020: e37d 5a3f 921a 553f eb13 653f 91a0 5c3f
00000030: 1b17 733f 2a56 5a3f ed65 5b3f 4ced 7f3f
00000040: 47d8 5e3f d098 713f 5c37 5a3f 8333 773f
00000050: 0dea 543f d7e5 603f ad49 503f e041 5a3f
00000060: f5ba 413f a3dc 613f 5ea2 533f 76bf 4a3f
00000070: 5356 513f 4d93 683f d04e 693f c883 5c3f
00000080: 2d73 693f fc16 603f 54d0 6d3f e283 503f
00000090: aa2e 763f 9163 813f 9377 813f a7d5 5a3f
0.8992626 0.84172297 0.8990788 0.8009846 0.80027217 0.97170454 0.8536584 0.82421154
0.8534834 0.8324367 0.8948352 0.86182505 0.9495713 0.85287726 0.857024 0.9997146
0.87048763 0.943738 0.8524072 0.96562976 0.83169633 0.8785071 0.8136242 0.8525677
0.756759 0.8822729 0.8266963 0.79198396 0.81772345 0.90849763 0.91135883 0.8613858
0.9119137 0.8753507 0.9289601 0.8145124 0.96164954 1.010851 1.0114616 0.8548226

encoder.1.bias f4 [40]
00000000: db03 ecbc 56a2 11bd e745 373d b165 423d
00000010: 76eb b1bc 15be a9bd 35be c1bd 0d3c 9cbd
00000020: e10c f93c bf17 833d 7048 02bd 47ae 79bd
00000030: 53d2 ffbd a8e8 a0bd e012 e83d c16f 4ebd
00000040: 13b3 59bc 4842 9fbd 0aef acbd 1b50 9ebd
00000050: f861 15bd cbc3 2abd 1023 523e e95d 47bd
00000060: 3e2c 123e a159 0cbd 0040 583e aea7 263e
00000070: 0b52 8fbd 32bf 123c 9bba 41bd 64a3 e4bd
00000080: 87ac bcbd e57b 453e b97c cebc d32b 94bd
00000090: 7146 c5bd a583 21be dc82 06be 0bc5 17bd
-0.028810432 -0.035555206 0.0447444 0.04746026 -0.021718722 -0.082882084 -0.09460107 -0.07628641
0.030401649 0.064010136 -0.031807363 -0.06095722 -0.12491288 -0.07856876 0.11331725 -0.050399546
-0.0132873235 -0.07776314 -0.084440306 -0.07730123 -0.036470383 -0.04169063 0.20521188 -0.048673544
0.1427469 -0.034265164 0.21118164 0.16274902 -0.0699807 0.008956717 -0.0472971 -0.11163977
-0.092125945 0.19285543 -0.025205957 -0.07234921 -0.09632576 -0.15772875 -0.13135856 -0.03705315

encoder.1.running_mean f4 [40]
00000000: 5190 d43e 94eb d5be 8a3f 08bf 7e7d b8be
00000010: 0475 7abe eca9 db3e cac2 5b3e 260f da3e
00000020: ff5e a6be a5b6 0c3e 7a81 943c e312 e23e
00000030: 766a c33e df9b a53e bedf e7be 35b6 d33e
00000040: 5cec 9bbe a40e 103f a7a5 e33e c000 a43e
00000050: c712 85be 88fe 8d3e e049 61be abd0 953e
00000060: 7d8b 02be 59d6 1e3e 6cf4 4fbe 7d44 d8bd
00000070: d32b 063e 5e2c af3e 1990 983e 750e 863e
00000080: fa9f 7f3e 15ab 8fbe 7c8a 8c3e a767 82be
00000090: 8ddb ec3e a456 c73e eda1 d93e 7a79 363e
0.41516355 -0.41781294 -0.5322195 -0.36033243 -0.244587 0.42903078 0.21461025 0.42589682
-0.3249435 0.13741548 0.018128145 0.44155034 0.3816716 0.32345483 -0.4528789 0.4134995
-0.30453765 0.5627234 0.4446232 0.32031822 -0.25990888 0.27733254 -0.22000837 0.29260764
-0.12748523 0.15511455 -0.20308083 -0.10559938 0.13102655 0.34213537 0.29797438 0.26182905
0.2496337 -0.28060213 0.27449405 -0.25469705 0.46261254 0.3893329 0.42506352 0.17819777

encoder.1.running_var f4 [40]
00000000: d1e4 b43d d3f7 a43d 8c65 e23d 9fa8 923d
00000010: 462a 0c3d 0e53 c63d 916a 2b3d 8bb4 993d
00000020: 58f3 733d 01a2 123d bbc5 163d 2c4f a83d
00000030: 40a8 a23d 1ec3 433d 2f18 c33d f9c1 8b3d
00000040: 7191 7a3d 35a0 0d3e 3f68 b83d 9e19 6c3d
00000050: 8d49 0b3d e2c9 413d 32bf ba3c 4e47 753d
00000060: a410 093d 581b 453d a270 153d b831 0d3d
00000070: 65a6 193d d8a0 813d e36a 893d af97 483d
00000080: c2b9 1b3d a30d 353d 6f3e fd3c 8ad7 5e3d
00000090: ddde dc3d 1163 8c3d 0b8a 953d 3158 fa3c
0.08832706 0.08055081 0.11054525 0.07161068 0.034220003 0.0968381 0.041849677 0.07505139
0.059558243 0.03579903 0.036809664 0.08218226 0.079422474 0.0477935 0.09526097 0.06824107
0.06117386 0.13830645 0.09004258 0.057641618 0.03400569 0.04731167 0.022796247 0.059882455
0.033463135 0.04812178 0.03648437 0.034471244 0.0375122 0.06329507 0.0670984 0.04897278
0.03801895 0.044202458 0.03091356 0.054404773 0.10784695 0.06854833 0.0730172 0.030559631

encoder.3.weight f4 [40, 40, 4, 4]
00000000: b267 3abc 69c5 8fbc c314 8dbb 9b80 22bd
00000010: 6399 b7bc ffc9 3ebd 1f29 49bd a254 663a
00000020: 8a10 8d3c e154 803d 57b3 3dbd e0b4 2c3c
00000030: 0169 3c3d 52d6 2b3d ddc8 0e3c 3a56 933a
00000040: 359a 9abc d440 dfbb f005 523d b76d dfbc
00000050: d4d2 a9bc 6415 16bd 06e8 153d 6ca4 673d
00000060: b100 f13c f1e6 073c 2325 63bb 648d 853d
00000070: 5e4f e33a 1d8a 9a3a f76e 6e3d 44ae 69bc
00000080: e5f8 09bd 4189 a7bc 4f61 54bc 922d fbbc
00000090: 5fbb 423c c697 53bd c848 5dbd bfbb c6bc
000000a0: 858e 0c3d 893b 3fbc 36db 9dbd 81a9 b7bb
000000b0: 18b9 a53d 4019 44bd 2f0b a4bc 537c 38bb
000000c0: 1f83 483d 5647 2abd 5b3c 10bd a7b0 ae3c
000000d0: f8a9 8a3c 0d82 08bd 2a50 eebc 1856 39b9
000000e0: 7af9 e43c 008b 11bd b082 df3c 7f78 093d
000000f0: 3f64 76bc 88f8 2c3d cdbb 3ebd 306a d6bc
00000100: 630b 313d 323e 213c b7c1 08bd e79b 7b3c
00000110: 645a 663d 404d 39bc 4359 aa3b 2d3a d5bc
00000120: 1354 81bd a203 723d f51e 513b 50c1 a43c
00000130: 44b8 d6bc c0c4 ce3b 0c73 ac3c dac6 b6bb
00000140: ab7d 86bc 3a0b 0a3d ce6a e0b8 efff 853c
00000150: 5037 96bd fde1 d03c d2dc 223d 937b a7bc
00000160: f411 60bd fc76 b33d 72b7 17bd 8483 95bd
00000170: 6fc0 3e3d 1e44 623d f8f1 dbbc bbf6 bbba
00000180: 8eb0 073d 6237 d43b 53b3 03bc 7758 bb3c
00000190: ac56 0dbd b4d2 01bd ecbf 0abd e562 3c3d
000001a0: 0be4 863c 4482 3b3d f412 953d 525f e03c
000001b0: 7b15 e43c b6e5 c23c b6ac d5bc 9b46 a3bc
000001c0: ffe3 b53c e5d1 373d 4708 403d 79c3 14bd
000001d0: 73e8 673c 5de7 87bc ece1 1d3d 611c 163d
000001e0: fe53 d9bb d4ca fbbb 15cb 52bc ba2a 10bd
000001f0: 8b7e 53bd fd78 1b3d 77da 213d 84c8 aebc
00000200: ba45 15bc 4199 9ebd 6e78 1abd 16af d73b
00000210: b95e 5d3d 0ffc 04bd 7536 e83b 7fac 99bb
00000220: 32af 1ebc e141 99bb 8242 123d 9e85 91bc
00000230: 3e38 0fbc 521e 5d3d b009 113c 21d0 a9bb
00000240: eb19 453c 9db0 6d3c 1b19 113c 957d cb3b
00000250: d76f da3c ec22 c53c f2a4 09bd 7213 48b8
00000260: 3504 ee3c a81a e13c 8948 a23c 22cc 723d
00000270: 0306 093d 610a b1bc d402 653c f4eb ffbb
00000280: 18d0 b93b 343c 4c3b 833c 8b3d 0d11 1a3d
00000290: b9d1 f9bc 11db e83d bd01 853c 01f3 6cbd
000002a0: 9411 70bd 699c 4b3d 9af8 a13d a5f9 abbc
000002b0: 1851 3a3d 9ccf 433d a4fe 023d 493d c63c
000002c0: 9f5a 3dbd 60be a83b d0a4 783c 9899 983d
000002d0: 0219 8c3c 6552 babc 0684 33bd 0239 a93c
000002e0: b00c c8bc ec28 63bd 776e 0b3d e9d6 84bc
000002f0: b8d6 0dbd 950b 1bbc 1e70 7c3c 4b9e 6e3d
00000300: c2cc 06bd 7ab7 2a3d 8e70 33bb 2a4f 45bd
00000310: 2bcf 3bbd 2fc0 0abd 1f44 0f3d bbdb eb3b
00000320: 93b8 19bd 4ca0 b9bc 5ac0 09bc 9493 1f3d
00000330: 25f5 0f3d 7d51 733c e828 e33c ca5b b3bc
00000340: ffca 54bd 548e 06bd 191b 12bb 1717 d43b
00000350: 3fa1 963d 33e6 c73d c12e 23bd 7f3c 91bc
00000360: 01ca 173d e8b9 92ba bf11 95bb d5ac ac3c
00000370: 421f 893c 73a2 a6bc 4355 b8bb 1c46 cf3c
00000380: 9448 003d 253e 0dbd 6adf 023d 8326 393d
00000390: 0081 0b3d 749c 85bd 98f6 95bc 73c0 2c3d
000003a0: d856 333d 1d75 38bc 1fd1 173b 2dd3 0f3d
000003b0: 38d1 f23c 6024 3b3d 3dff f1bc 0d3e acbb
000003c0: ce3e e23c f82f 63bd 18a3 8fbc f316 f83c
000003d0: 1f3c 303b 1da1 6ebd 813e f93c a3fe bdbc
000003e0: 1d96 8d3d 863a ba3b a2d2 6abd c12b b13b
000003f0: 83bc 053d 34ac 89bc b7c8 c83c 8b00 28bd
-0.011377262 -0.017550187 -0.0043054535 -0.03967343 -0.022412008 -0.046579357 -0.04911148 0.0008786415
0.0172198 0.06266189 -0.04631361 0.010541171 0.045998577 0.04195244 0.008714882 0.0011240907
-0.01887236 -0.006813148 0.051275194 -0.027273996 -0.020730413 -0.036641493 0.036598228 0.05655329
0.029419275 0.008294807 -0.0034659586 0.06521109 0.0017342379 0.0011790429 0.058211293 -0.01426274
-0.03368463 -0.02045119 -0.012962653 -0.030661378 0.011885493 -0.051658414 -0.054024488 -0.024259446
0.034315605 -0.011671909 -0.07707827 -0.0056049232 0.080919445 -0.047875643 -0.020024864 -0.0028150275
0.04895317 -0.041571938 -0.03521381 0.021324469 0.01692675 -0.03332715 -0.02909096 -0.00017675047
0.027950991 -0.03553295 0.027283996 0.03356218 -0.015038549 0.042229205 -0.04656582 -0.026173681
0.04322375 0.009841489 -0.033387866 0.015356994 0.056238547 -0.011309922 0.005198629 -0.026028717
-0.06314864 0.059085496 0.003190932 0.02011171 -0.026210912 0.0063100755 0.021050952 -0.005577904
-0.016417345 0.033702113 -0.00010701046 0.01635739 -0.07334769 0.025498385 0.039761372 -0.020444667
-0.05470462 0.08762929 -0.03704018 -0.07300475 0.046570238 0.055240743 -0.026848778 -0.0014340499
0.03312736 0.0064763287 -0.00803836 0.022869332 -0.034506485 -0.031695083 -0.033874437 0.04599275
0.016466161 0.045778528 0.07279006 0.027389202 0.027842274 0.023791175 -0.026083332 -0.019931128
0.022203444 0.044877905 0.046882894 -0.03631923 0.014154541 -0.016589815 0.038545534 0.036648158
-0.006632327 -0.007684091 -0.012865801 -0.035196997 -0.051634353 0.03795718 0.039514985 -0.021335848
-0.009110862 -0.077440746 -0.037712507 0.006582151 0.054045413 -0.032466944 0.00708657 -0.0046897526
-0.0096853245 -0.004677043 0.035707958 -0.017763909 -0.0087414365 0.053983994 0.008852407 -0.0051822816
0.012030105 0.01450744 0.008856083 0.006210039 0.026664658 0.024064504 -0.03360457 -4.7701826e-05
0.02905474 0.027478531 0.019809978 0.059276707 0.033453 -0.021611394 0.013977725 -0.00781011
0.0056705587 0.0031163814 0.06798651 0.037613917 -0.030495511 0.113699086 0.01623618 -0.057848934
-0.058610514 0.04970971 0.07908745 -0.020993063 0.045487493 0.047805414 0.031981125 0.024199145
-0.046229 0.0051496476 0.015176013 0.07451171 0.017101768 -0.022744367 -0.04382708 0.020657066
-0.024420112 -0.055458948 0.034040894 -0.016215758 -0.0346286 -0.009463211 0.01540759 0.05825643
-0.032910116 0.041678883 -0.002738032 -0.0481712 -0.045851868 -0.033874687 0.034977075 0.007197825
-0.03752954 -0.022659443 -0.008407677 0.0389591 0.035145897 0.014850971 0.027729467 -0.021894354
-0.051951405 -0.03285058 -0.0022293983 0.006472479 0.07354974 0.09760704 -0.03983951 -0.017729042
0.03705788 -0.001119432 -0.0045492346 0.021078506 0.016738538 -0.020341134 -0.0056253984 0.025301985
0.031319216 -0.034483094 0.031951346 0.045202743 0.03405857 -0.06523982 -0.018306062 0.04217572
0.043783993 -0.011258391 0.0023165417 0.035113502 0.029640779 0.045688987 -0.029540652 -0.0052564205
0.027617838 -0.05546567 -0.017533824 0.03028438 0.0026891304 -0.05825912 0.030425312 -0.02319271
0.069133975 0.005683246 -0.05732978 0.005406827 0.032650482 -0.016805746 0.02450977 -0.041016143

encoder.3.bias f4 [40]
00000000: 2956 8a3c 362c 0e3d 89d0 94bb 2512 6dbc
00000010: 93f4 7e3d 2c94 e6ba 2b78 e83d 13e9 9cbc
00000020: 293d d83b e392 01bb 6e85 4a3c 44a2 903c
00000030: 946f a1bb 7b1f 1f3c ef33 2b3c c596 853c
00000040: 30c9 08bc 0f23 85bc b242 9abc 7ad7 93bc
00000050: 8117 a3bb 94a4 d2ba 2b63 d83d dfbb cfbb
00000060: 7825 04bd 28bd 383b baac c6b9 21d9 95ba
00000070: 7772 f93c 84d8 d13b 9830 59bc 297d 65bc
00000080: 4f3d 09bd d12d f0bb 7a12 87bc b91b 2bbc
00000090: 17c2 27bc 65ff adbc 35c1 9eb9 db89 5ebc
0.016886787 0.03471013 -0.004541461 -0.014469658 0.062244963 -0.0017591766 0.11351045 -0.019154107
0.0065990877 -0.001977139 0.012360914 0.0176555 -0.004926631 0.009712095 0.010449394 0.016307244
-0.008348748 -0.016252069 -0.01883063 -0.018047083 -0.004977167 -0.0016070777 0.1056579 -0.0063395347
-0.032262295 0.0028188918 -0.00037894194 -0.0011432507 0.030450089 0.0064039845 -0.013256215 -0.014006891
-0.033505734 -0.0073296805 -0.016488302 -0.010443621 -0.010239146 -0.021239946 -0.0003028006 -0.013582672

encoder.4.block.1.weight f4 [40, 40, 3, 3]
00000000: 441d b13c 052c 77bd 54f2 70bc 5b06 4fbd
00000010: cff9 d0bd dd5f cebd 06db 54bd 78bc c5bd
00000020: aaa6 6dbd 0ba8 f93b 8746 6e3c 647c d53d
00000030: 8499 5f3d dfed 87bd 8ea4 9dbd b5d2 2dbd
00000040: cc92 8c3d b218 c83c a38e b43c eab7 203c
00000050: 81fe d63d 6ea2 de3c 242d cb3d dc41 913c
00000060: fd2e e43d 877f 773c da70 ce3c 6e33 40bd
00000070: 2884 b03d 1731 8a3d fdcc acbd 60a5 1bbd
00000080: 2961 c5bc ec6e 5e39 c764 c7bd 91ad 35bd
00000090: 6437 9ebd d959 dabc ff27 f83c 0fd7 173e
000000a0: 7fed 683d 74bc a8bd c2d8 b03c 483a 023d
000000b0: 3a54 733b adcf a4bb 8a98 f3bc 0a01 983d
000000c0: 3482 083e 8aad 083d 21be 7fbb 761a a63d
000000d0: badd 1fbd f70c 19bd d392 48bb 073a 933d
000000e0: 4d1f f73b 77be 6b3d 1c4f 943d 43be 39bd
000000f0: 492b a1bc 3534 4f3d e27a 083c 7a81 cdbd
00000100: 1ddc 17bd b1b5 ef3c 5714 6cbd c099 833d
00000110: 33a0 55bc 3923 e2b9 983b a0bd fada edbc
00000120: a350 a7bc d4f4 f4bc b74b 1fbd 7df0 183d
00000130: 566a 933d 26dc bdbb 12ba 2fbd 8f9b 82bd
00000140: 0564 bbb9 f798 503d d175 cf3b afeb c93c
00000150: e8c0 0b3d ac58 963d 4d85 8fbd dd17 3fbd
00000160: 50bc 703d 52ac 6b3b c0c9 4d3d 983d 30bd
00000170: b709 6cbd 4458 39bd f758 40bd 6945 873c
00000180: c923 1c3c e807 02bd 3e6f e6bc f323 d9bc
00000190: 551a 073d 5ead 91bd 47db 073d bb54 9e3d
000001a0: 7c90 5e3c 7f9f 0fbd d952 fcbc 8978 bcbc
000001b0: 318b 05bd 81ae 7b3d b40c 45bd 5cb4 8fbc
000001c0: cb33 1f3d 1108 12bc e01e f9bd 9d05 82bd
000001d0: 9148 13bd 9345 b73c 0e64 1abc 9b4b 87bd
000001e0: fb2b 08bb 257a f4bd dd0c 693d 430f 573c
000001f0: d0db 13bd f22c 4c3c 6620 44bd a0fa a83d
00000200: ff72 3abd 0483 783e 076e e2bd 752a 783c
00000210: 5130 103d 8801 133d fd3f c2bd bbc7 c43c
00000220: 1010 673d 8f80 b53c 1f5f 3d3d 7c5f 543c
00000230: 14b7 533d 4e9c 78bc a496 3ebb 462c 46bd
00000240: 21a5 debc 0530 64bd d045 b1bd 1e5d a33d
00000250: edd0 56bd e43a 003d 45d5 8bbd 5612 1bbd
00000260: 0b75 743c 7d75 fc3c 8316 393d c632 8f3c
00000270: e6f8 83bd da8f b0bc 78a7 4cbc 9443 8bbd
00000280: 6cc0 883c 3d63 453c 817b a63d 46ad 11bb
00000290: e768 84bd 2547 4a3d 929c 6c3d 39a4 28bc
000002a0: 3fd6 ca3c 4d5f c4bc a6bb 7d3b 9ff7 0a3d
000002b0: 025c cf3c 3eb5 8abd f8a4 77bd 65e4 8bbc
000002c0: 6caa fb3d 852e 88be 6ac4 21bb 1ec5 c3bd
000002d0: 32c9 cfbc 7b9c cf3d e9ee b33c f58b 57bc
000002e0: 938b 85bd 4422 8abc 5486 1dbe 1f2b 453d
000002f0: 32b5 833d 4285 f2bc 52f4 9e3d dbc2 e4bd
00000300: 4249 a1bc a0b1 c73c 2e98 81bd 4ede 14bd
00000310: 8719 e03d 35a4 08bd db05 88bb c022 48bc
00000320: 68ba 2f3d 176e e5bc 7870 803d a139 3fbd
00000330: a6d2 23bd ad4d c7bd b6ab 48bc e240 fe3c
00000340: d335 223d 6930 83bd f7cc 09bd bdb4 b1bd
00000350: 5495 813c 88a9 8b3d 1559 97bc e9e9 d63d
00000360: a0c4 5f3d a193 86bc b702 193c 24e3 743d
00000370: 84d0 0f3e 07fc 9b3d 01a4 cd3c 2dc2 4f3d
00000380: fdfd b63d 3659 0539 9d99 453b 10d6 0cbd
00000390: 936e 03be d3b7 0f3e 2e6d 733c e193 483d
000003a0: b8ae ac3c f70d a23b 0d09 f23c 63c7 843d
000003b0: a6b1 063d 2c92 6e3c ca40 d73d 0bcc 2a3d
000003c0: a87a c7bc 58bc 5ebd 6d98 2dbd 19c4 acbd
000003d0: a818 a8bb 5e7f a6bc 3146 323e 8ba0 42bc
000003e0: cc7f 3a3d 8c44 903c f5ef 6abd 8f4a 02be
000003f0: 7c85 643d 365c 393c 09b3 a73d 89d1 9b3c
0.0216204 -0.060344715 -0.014706213 -0.05054317 -0.10203897 -0.10076878 -0.05196669 -0.09655088
-0.05802027 0.0076189092 0.014543182 0.10424116 0.054589763 -0.06637167 -0.07697402 -0.042437274
0.06863937 0.024425838 0.02204067 0.0098094735 0.104977615 0.027177062 0.09920719 0.0177316
0.11141775 0.0151060885 0.025200296 -0.046924047 0.08618957 0.067476444 -0.08437536 -0.03799951
-0.024094181 0.00021212891 -0.09736019 -0.04435498 -0.07725409 -0.02665417 0.03029251 0.14828132
0.05686712 -0.082390696 0.021587733 0.031793863 0.003712906 -0.0050296397 -0.029735822 0.07422073
0.13330919 0.033368625 -0.0039023238 0.08110516 -0.039029814 -0.03736588 -0.0030605092 0.07188802
0.007541573 0.05755469 0.072416514 -0.045347463 -0.01967396 0.050586898 0.008330079 -0.10034461
-0.03707515 0.029261442 -0.057636585 0.0642581 -0.013038683 -0.00043132322 -0.078238666 -0.02903508
-0.020424193 -0.0299019 -0.038890567 0.037338722 0.07198016 -0.005794066 -0.04290206 -0.06377327
-0.0003574194 0.05092713 0.0063311835 0.024648516 0.034119517 0.073411316 -0.07007847 -0.046653617
0.05877334 0.0035960865 0.050241232 -0.04302749 -0.057626452 -0.045250192 -0.046959843 0.01651259
0.009530016 -0.03174582 -0.028129216 -0.0265064 0.032984097 -0.07113145 0.033168104 0.07731005
0.013584252 -0.035064217 -0.030801224 -0.023006694 -0.032603446 0.061445717 -0.048107818 -0.017542057
0.038867753 -0.008913056 -0.12164092 -0.06348727 -0.035957877 0.022372043 -0.009423269 -0.066062175
-0.0020778168 -0.1193736 0.056897033 0.013126197 -0.0360983 0.012461888 -0.04788246 0.08250928
-0.045519825 0.24268728 -0.11056142 0.015146841 0.035202328 0.035890132 -0.09484861 0.02402102
0.056411803 0.022156028 0.046233293 0.012962218 0.05168827 -0.015173985 -0.0029081488 -0.048382066
-0.027178349 -0.055709857 -0.08655894 0.07976745 -0.05244534 0.031306162 -0.06827787 -0.037859283
0.014920483 0.030817742 0.045187484 0.017480265 -0.06443958 -0.021552969 -0.0124911 -0.06799999
0.016693316 0.012047586 0.08129025 -0.0022228523 -0.06465321 0.049384255 0.057766505 -0.01029306
0.024760364 -0.023971224 0.0038716584 0.033927556 0.025312427 -0.067728505 -0.06046006 -0.01707668
0.12288365 -0.26597992 -0.0024683722 -0.095590815 -0.025364492 0.10137268 0.021964507 -0.013155927
-0.06520762 -0.016862042 -0.15383273 0.048136827 0.06431045 -0.029604558 0.07761444 -0.11169978
-0.019688252 0.02437669 -0.06327854 -0.03634482 0.10942369 -0.033359725 -0.0041510887 -0.012215316
0.04290238 -0.028006596 0.06271452 -0.04668582 -0.039995812 -0.09731612 -0.01224797 0.031036798
0.039602112 -0.06405718 -0.033642735 -0.08677051 0.015818276 0.06819445 -0.018475095 0.104938336
0.054630876 -0.016427817 0.009339026 0.05978693 0.14044386 0.0761643 0.025102617 0.05072229
0.08935163 0.00012717102 0.0030151375 -0.034383833 -0.1283515 0.14034967 0.014857573 0.048969153
0.021079406 0.0049455124 0.029545331 0.064833425 0.032884263 0.014561217 0.105104044 0.041698497
-0.02435048 -0.054378837 -0.042381693 -0.0843584 -0.0051298924 -0.020324405 0.17409588 -0.011879097
0.045532033 0.01761081 -0.057357747 -0.12723754 0.055791363 0.011313489 0.08188445 0.019020813

encoder.4.block.1.bias f4 [40]
00000000: 3225 3a3b dc69 a9bb 9fc2 dbb9 bdf9 223a
00000010: 32e9 f7b9 5447 333b d51b cc3a 6a6c 0e3a
00000020: 6f73 343a 4b9f 81ba b00f 983b 3d95 093c
00000030: 46ab 94b9 0704 e23a 09fd f8b9 28a3 933a
00000040: 9433 00bb 5951 bdba 0507 283a 9739 b53a
00000050: 6baa 5db9 0742 8538 eb73 1cba 3b7e 0cbb
00000060: 2eb0 693b 973c 1bba d204 983a c5b7 ac3b
00000070: 49dd 7e38 44c4 3b3a d9f0 da3a 51e4 de3a
00000080: ddbd c63a e78a 0f3b 66c2 aeb9 9ed0 983b
00000090: d210 4ebb 9490 ae39 4e6d 7b39 fd34 313b
0.0028403518 -0.00517009 -0.0004191594 0.00062170235 -0.00047285255 0.0027355747 0.001557226 0.0005433025
0.0006883656 -0.0009889392 0.004640542 0.008397398 -0.00028356368 0.0017243632 -0.00047490772 0.0011263834
-0.0019561993 -0.0014443799 0.00064097374 0.0013826367 -0.00021139688 6.354233e-05 -0.0005968201 -0.0021437544
0.003565799 -0.00059218094 0.0011598116 0.0052709305 6.0764407e-05 0.000716273 0.0016703858 0.00170053
0.0015162785 0.002190286 -0.00033332704 0.004663541 -0.003144313 0.00033295585 0.00023977945 0.002703964

encoder.4.block.2.weight f4 [40]
00000000: a6cd 8c3f 5ff9 753f a064 6c3f 217c 6d3f
00000010: 1b00 683f aef8 703f 114d 763f 25a7 6f3f
00000020: eb98 673f cb9e 533f 901d 823f d793 803f
00000030: 3b1b 7a3f 114a 963f 05f1 8c3f 396e 863f
00000040: 0cee 853f c0cc 563f b88c 743f 7a49 833f
00000050: 8361 7e3f 6710 893f f1ac 473f 6ee7 7f3f
00000060: 907c 583f bff4 6a3f e8f9 933f 1322 873f
00000070: a560 873f e173 8b3f 63a3 8f3f 6b67 8a3f
00000080: 6d77 773f 5348 953f e5fa 783f ef8e 873f
00000090: e39a 713f 01c0 5a3f 0c37 8b3f 4963 643f
1.1000259 0.96083635 0.9234104 0.9276753 0.9062516 0.94129455 0.96211344 0.9361442
0.9046771 0.82664174 1.0165272 1.0045117 0.976978 1.1741353 1.1011053 1.0502387
1.0463271 0.83906174 0.9552722 1.0256798 0.9936754 1.0708131 0.7799826 0.9996251
0.8456507 0.917797 1.156064 1.0557274 1.0576369 1.0894738 1.1221737 1.0812811
0.96666604 1.1662697 0.97257835 1.0590495 0.94376963 0.85449225 1.0876174 0.89214

encoder.4.block.2.bias f4 [40]
00000000: b917 343e 14dd afbd db03 13be 1084 e73d
00000010: cec5 4c3e 1027 963e 1766 0f3e ad85 9d3d
00000020: 5830 143d bf4e efbd 335b e33d 0b74 8e3e
00000030: 4542 7f3e 6c15 c83e ead3 b13e 5e62 89bd
00000040: bfdc 77bb 354a f83b d02f 363e 43c0 a23e
00000050: 7e63 51be 13c2 d1bd 685c 24bc 2c6a bcbd
00000060: 73fd 203e 95bf 0ebe cd9e 723e 0068 cf3d
00000070: a465 0c3e 7979 263c 0690 8a3e 1c40 7b3e
00000080: 6a9e 473c 1137 af3e 1b6f 693e 6a0a adbc
00000090: b218 33bd aabe 96bd b1ef 7bbc 1eb2 013e
0.17587174 -0.08587089 -0.1435694 0.11304486 0.19997332 0.29326677 0.14003788 0.07691512
0.036178917 -0.116849415 0.11101379 0.2782291 0.24927624 0.39078844 0.3473199 -0.06708215
-0.0037820784 0.0075772055 0.17791677 0.3178731 -0.2044811 -0.10242095 -0.010031797 -0.09199938
0.15721683 -0.1394027 0.2369339 0.10127258 0.13710648 0.010160797 0.27063006 0.24536175
0.012183765 0.342217 0.2279629 -0.02112313 -0.043724723 -0.07360585 -0.015376971 0.12665603

encoder.4.block.2.running_mean f4 [40]
00000000: 5949 c73e e323 47bf b62e 72bf 58e7 d7be
00000010: 3fd2 1a3f 6003 713f 43c6 243f 9051 8abb
00000020: 5183 293f da75 1abf 4118 223f 93d3 6c3e
00000030: ce1a a93e 4029 eb3e 461e df3e 32dc 52bf
00000040: 3936 6fbf c8e6 f7bd 1f7d 263f 74e6 6d3e
00000050: 80df f43c 211f 80bf 8f8d ecbd 116e 9ebe
00000060: 0f9a 053f f6b1 3fbf bd53 2c3f e537 f03e
00000070: 01c2 4d3e 59f7 81bf 7550 493f 1476 6f3f
00000080: 6edc 4dbf 22cd 253e 0c26 333f 5def 3dbf
00000090: b1d1 0abf 41dc 85bf b74f dabe 1346 7a3e
0.38923147 -0.77789134 -0.94602525 -0.4216869 0.6047706 0.94145775 0.64365023 -0.004221149
0.66216 -0.6033608 0.6331826 0.23127584 0.33028263 0.4592991 0.43577784 -0.8236724
-0.9344211 -0.12104565 0.6503467 0.23232442 0.02989173 -1.00095 -0.11550438 -0.3094335
0.521882 -0.7488092 0.67315274 0.46917644 0.20093538 -1.015361 0.7863839 0.9353955
-0.80414474 0.16191533 0.6997993 -0.74193364 -0.54226214 -1.0457841 -0.42638943 0.24440794

encoder.4.block.2.running_var f4 [40]
00000000: 310f cd3e 9785 633f 1523 873f a9f3 d33e
00000010: bd89 383f 5628 743f 3774 053f ed78 2e3e
00000020: 2f0f 1b3f 6360 6d3f e5be 253f d3c5 a53e
00000030: 7de5 c83e 9b11 a73e dc45 fa3e c97f 503f
00000040: f1ea 403f 8f1a 7f3e 4bdb 293f 517f 7b3e
00000050: d5b7 583e d527 8c3f 66f5 3b3e 7b9b 073f
00000060: 33aa 0e3f c2e3 473f 7c2e 143f 46e0 0f3f
00000070: a3a0 293e 4a87 a83f 17b1 323f e654 993f
00000080: 3f3a aa3f 8934 653e 9bf1 5a3f cbbf 443f
00000090: a6b8 373f d899 8c3f 6042 1a3e 8fc5 4f3f
0.40050653 0.88875717 1.0557581 0.41396835 0.7208517 0.9537405 0.52130455 0.17038317
0.60570043 0.927252 0.64744407 0.3237749 0.39237586 0.3263062 0.48881423 0.81444985
0.7535849 0.24912475 0.6635024 0.24560286 0.21163876 1.0949656 0.18355331 0.5297162
0.55728453 0.78081906 0.5788343 0.5620159 0.16565184 1.3166287 0.6980147 1.1979034
1.3299025 0.22383322 0.8552491 0.7685515 0.71766126 1.0984449 0.15064383 0.81160825

encoder.4.block.4.weight f4 [40, 40, 1, 1]
00000000: e7b8 5b3e f253 cd3d ca9d 823e 347b f03d
00000010: 90ce 3b3e ef59 64be 857f 233d 6f20 233d
00000020: 05b2 c83d b4fd 523c 46e7 1cbe 4d45 043d
00000030: 9821 bcbd 8995 a9be c138 08be a99b 5e3d
00000040: 7f59 8f3e cec7 8f3d 1fe6 33be 9596 1dbe
00000050: 690a cb3d 7b19 ce3d 7508 393d b04d 493e
00000060: abe5 253e a84d dfbd 86f0 a7be 48a0 6fbe
00000070: c040 79be fb9d 183d daa7 7fbe cc2c 7c3d
00000080: a9ce 143e e272 80be 110f 4b3d e12f 3dbc
00000090: 3089 96bd a5b2 7fbd 88cf a43e 4411 5c3d
000000a0: a561 143d 9bd7 0ebe f866 023e b05c bdbd
000000b0: 0f6b 90bc 9bff 56be ee6b 2e3d cb2f ed3b
000000c0: 6bed 6c3e 60a2 a13c 8f2d 3e3e d950 153d
000000d0: 451c 553e e8a8 0b3e be8c 3c3e ff70 2cbe
000000e0: a043 f03d 5634 2a3e bd48 b33d 5719 643d
000000f0: 9661 d4bc bf9e 68be 2ab7 0fbb 1826 183c
00000100: d41e 313d 6ae1 d23c f072 8b3e 76d9 8b3e
00000110: f281 7b3b 2107 90bd 1622 c03d 0490 463e
00000120: abab 253d 96b5 843e 5034 983e 47f2 fbbd
00000130: 894c 61be e1d5 55be 719b 2bbe 86e8 873c
00000140: a0ad e0bd 76da ce3e baeb 20be f70f b5bd
00000150: 8fdc d2bd c340 05be 5e79 403d 042d 23be
00000160: d6d9 053e 6a4a 42bd 909d 243e e6f5 88be
00000170: 1062 c83d 18c2 a7bd 2ee9 35be a06c 603e
00000180: c39e 833c 5f2f 263c cd58 00be f8e6 c03d
00000190: f7c8 7cbc 4918 853e cd9e b63d 80a7 1f3d
000001a0: 8891 66be 3e88 9e3d ebbf 24be 12cc 623d
000001b0: 0847 64be 8d7e 84bd 02d9 22be 34c0 94be
000001c0: 05b4 ad3b 5b1b 7dbe 2d73 143c 61d6 1a3e
000001d0: 95ad 55bd 0101 b23d 881d d63e 1036 91be
000001e0: ce71 29be 425a 813e 0415 dd3d 06fb 013e
000001f0: fe9e 213e 3d1f 1ebd 3517 7dbd ceda d6bd
00000200: 5de5 8bbd 7c8e 45bd e8f4 e03d 44c0 1dbe
00000210: 2f46 acbc 7903 be3c 8efd 4bbe c5a5 52be
00000220: 163c daba ec6c c83d e1e6 e53c c6e4 283e
00000230: ffd6 553e 5924 1c3d e074 0bbe 5f56 da3d
00000240: 26f5 22be 1826 cebd 3ded 13be bcf6 4bbe
00000250: 4f70 183e c6c1 13be 50c9 47bd f5c4 8b3d
00000260: 538f e13d d7db 3abe d5c0 e63c 6dde 333e
00000270: 7b74 653e d7ca e3bc 8d2e c93e 03c9 853c
00000280: 7046 8cbd 35bf 5cbe 9d8e ec3c 7296 533d
00000290: 04b5 663d a8f9 46be d94e 823e f5c9 e2bd
000002a0: fa22 b9bd 34d2 423e e4dc 82bd 86ea 15bc
000002b0: 0c74 643e 929a 8d3e f99a a53d d2c7 303e
000002c0: 2854 abbe bfad 3e3e 1f61 463e 5768 773e
000002d0: c35a 2d3e abf2 84bb d49f 0fbd aebc 283d
000002e0: 8492 86bd 2834 01bd 82f1 0c3d 84e6 5f3e
000002f0: 00d7 003b 1d1b 2bbe c6f5 a13e 7099 593c
00000300: 443a 45be ba37 f83d 0370 a23e c34d 93bd
00000310: 07c2 24bd ffbb 53be 412b 16be 66b9 f13d
00000320: 7c15 89bd 3ca7 aa3d 6586 813e d45f 353d
00000330: 552a 10be a6b9 43be c2c8 56be 3198 443e
00000340: 166b 94bd 7e9b aabd 4cfc 2bbe 6dcf acbe
00000350: 6bfb 5ebe 37c7 fcbd 870b c13d 4a06 8a3e
00000360: 58a3 4b3e 6f00 07be 44d9 77bc fe6c 8bbe
00000370: e7e7 6cbd c59e 963c 16fe 5fbd ee2f ae3c
00000380: 0d0d 8b3d e3f7 d9bd 8895 4f3c ad7e 0e3e
00000390: 1898 a6be ed71 8e3e 06d1 48be 9fd8 5d3d
000003a0: 45d3 9ebd 0850 2b3e 3f67 66be d802 193e
000003b0: 3180 90bd 5120 ffbd 7869 a73e 19a6 483d
000003c0: 3be8 3bbe 9a3d 03be 2d6c 99be c9c9 6abc
000003d0: 2a9b 1abd 5926 fabd 1da5 503e 9770 1d3e
000003e0: b57e 843e fd3d db3c a9ce febe f954 83be
000003f0: 163a 9abd b475 5abd a671 adbd 47a4 dbbd
0.21457253 0.10025777 0.25511009 0.11742249 0.18340516 -0.22299932 0.039916534 0.039825853
0.097995795 0.01287787 -0.15322599 0.032292653 -0.09186095 -0.331219 -0.133029 0.054347668
0.27997968 0.070205316 -0.17568253 -0.15389474 0.09914095 0.10063454 0.04517408 0.19658542
0.16200893 -0.10903484 -0.32800692 -0.23400986 -0.24341106 0.037260037 -0.24966374 0.06156616
0.1453196 -0.2508765 0.049574915 -0.01154706 -0.07350385 -0.062426228 0.32189584 0.053727403
0.036225934 -0.13949434 0.12734592 -0.09246194 -0.017629175 -0.20995943 0.0425834 0.0072383634
0.23137443 0.019730747 0.18572067 0.036454055 0.20811565 0.13638651 0.18413064 -0.1683998
0.117316484 0.16621527 0.08754108 0.05568823 -0.025925439 -0.22716807 -0.0021929243 0.009286426
0.04324229 0.025742251 0.27236128 0.27314347 0.0038377014 -0.0703261 0.093815014 0.19390875
0.04044692 0.2591979 0.2972741 -0.1230207 -0.22001852 -0.2088237 -0.16758515 0.016590368
-0.10970616 0.40401047 -0.15714923 -0.08840936 -0.102959745 -0.13012986 0.046990745 -0.15935141
0.13071379 -0.047434248 0.1607573 -0.26750106 0.09784329 -0.08191317 -0.17764732 0.21916437
0.016066914 0.01014313 -0.12533875 0.09419054 -0.015428773 0.2599509 0.089170076 0.0389781
-0.22516453 0.0774083 -0.16088836 0.055370398 -0.22292721 -0.0646945 -0.15903094 -0.2905289
0.005301001 -0.24717467 0.009060663 0.15120842 -0.052167494 0.08691598 0.41819406 -0.2836156
-0.1654732 0.25264174 0.10795024 0.12693414 0.15783307 -0.03860401 -0.06178971 -0.104909524
-0.06830857 -0.048231587 0.10984212 -0.15405375 -0.02102956 0.023195015 -0.19920942 -0.20571049
-0.0016649987 0.097864 0.028064193 0.1649352 0.20882796 0.0381206 -0.13618803 0.10661005
-0.15913829 -0.100658596 -0.14445968 -0.1991834 0.14886592 -0.14429387 -0.04877597 0.06824676
0.11013665 -0.18247925 0.028168121 0.17565317 0.22407715 -0.027806683 0.39293328 0.016331201
-0.068493724 -0.21557315 0.028876597 0.051657148 0.056324974 -0.19431174 0.2545078 -0.110736765
-0.090398744 0.19025499 -0.06389788 -0.009150153 0.22309893 0.2765699 0.08086199 0.17263725
-0.33462644 0.18620966 0.19372986 0.24160896 0.16929154 -0.0040572486 -0.035064533 0.041195564
-0.065709144 -0.03154388 0.034410007 0.21865278 0.00196594 -0.16709562 0.31632823 0.013281211
-0.19260508 0.12120004 0.31726083 -0.07192566 -0.0402241 -0.20677184 -0.14664938 0.1180294
-0.06693551 0.08332679 0.25297847 0.044280842 -0.14078648 -0.19113788 -0.2097502 0.19198681
-0.072469875 -0.08330439 -0.16795462 -0.33752003 -0.21775596 -0.12342685 0.09426027 0.26957923
0.1988653 -0.13183759 -0.015127484 -0.27231592 -0.057838347 0.018386254 -0.054685675 0.021263089
0.067895986 -0.10642984 0.012669928 0.1391551 -0.32537913 0.27821293 -0.19610986 0.054161664
-0.0775514 0.16729748 -0.22500323 0.14942491 -0.070557006 -0.12457336 0.32697654 0.048986528
-0.18350308 -0.12816468 -0.29965344 -0.014330336 -0.037745632 -0.122143455 0.20375486 0.15374981
0.2587792 0.026762957 -0.49767044 -0.25650766 -0.0753061 -0.053334907 -0.08468942 -0.10724693

encoder.4.block.4.bias f4 [40]
00000000: 7823 06bc aea9 073b a3a5 a9bb 175e ccba
00000010: b12b 34ba e10a 8939 8776 3abc 6517 18bc
00000020: 8e20 9739 d883 94b8 1b33 0bbb 752f 84bb
00000030: 3a66 93bb 0da9 b33a ccf0 d7bb 9da8 20b9
00000040: e7e4 c9bb 6026 083a 185f 393b 9655 233c
00000050: 7b47 f03b 3cbc a3bb bc36 983b 80d8 80ba
00000060: 4789 b8bb 27e7 83bb 8f3a 6dbb 7024 5c39
00000070: 99eb acbb 2bcc 03bc 851a e83a 75d4 b53b
00000080: e9e0 22bb c3dd 5abb ab3b 04bc a082 8abb
00000090: be02 bebb a73c cabb 1a7b f93a 594f d8ba
-0.008187167 0.0020700502 -0.005177216 -0.0015592006 -0.00068729656 0.00026138782 -0.011380798 -0.009282921
0.0002882522 -7.081748e-05 -0.0021240178 -0.0040339776 -0.0044982703 0.0013706997 -0.0065899845 -0.00015321602
-0.0061613205 0.00051937066 0.002828544 0.009969136 0.00733274 -0.0049968045 0.0046451967 -0.0009830147
-0.005631599 -0.0040253582 -0.0036198234 0.00020994409 -0.005277109 -0.008044283 0.0017708099 0.0055490085
-0.0024853295 -0.003339634 -0.008070867 -0.0042269975 -0.0057986667 -0.006171781 0.001903388 -0.001650314

encoder.4.block.5.weight f4 [40]
00000000: 830f 5e3f 4b4a 3d3f 6473 493f f4e6 3c3f
00000010: e7e0 573f d174 583f 04a1 833f b7ae 0e3f
00000020: b7b5 543f b790 393f 8e50 5f3f 1372 6d3f
00000030: baac 493f 333a 323f cefe 303f ab45 8a3f
00000040: 7a1d 273f 2a8a 7a3f 29ef 6b3f dcc8 2e3f
00000050: 6d3b 173f b69a 663f 6623 523f 3be5 3d3f
00000060: 5a78 353f 902e 203f 513b 713f ae00 703f
00000070: 0581 653f d6e0 513f 7089 633f f4b9 253f
00000080: 35de 0c3f 7dbe 593f ac60 693f 9e3c 623f
00000090: f60b 593f 8d73 573f fa65 243f dc48 413f
0.8674242 0.7394149 0.786917 0.73789907 0.8432755 0.8455325 1.0283513 0.55735344
0.83089775 0.7248644 0.8723229 0.9275219 0.78779185 0.69620055 0.691388 1.0802511
0.6527935 0.9786707 0.92161804 0.6827524 0.5907505 0.9007982 0.82085264 0.741779
0.70886767 0.6257105 0.94231135 0.9375104 0.89649993 0.819837 0.8888159 0.64736867
0.5502656 0.8505629 0.91163135 0.88373744 0.84783876 0.8416069 0.64218104 0.755018

encoder.4.block.5.bias f4 [40]
00000000: 3e73 98be f625 ea3d b7fb 3fbe c3d9 a33a
00000010: 9347 fa3c f3a3 a8bd 126a 8cbe ab75 6cbe
00000020: 2fd5 183e 79e1 1fbe 22c9 8e3d a1e0 93bc
00000030: c9de 76be 8bc2 683b b045 873c 83ac 2ebe
00000040: 663b 32be abda 093e 3598 493e 6c94 443d
00000050: 288d 273d 2980 063d 9d79 9f3d 56c2 f33c
00000060: b822 f3bd 0071 1ebe 336d ff3d bc7c 173e
00000070: 7f5e 28be a644 a5bd 5b30 87bd b72f 383d
00000080: 12a2 e2bd d4d7 15be 51df a0bd 576f 90be
00000090: a4a5 70be 2adc 92bd e71c 683d f762 e9bd
-0.29775423 0.11433022 -0.18748365 0.0012500811 0.030551707 -0.08234396 -0.27424675 -0.23091762
0.14925073 -0.15613355 0.06971957 -0.018051447 -0.24108423 0.0035516347 0.016512722 -0.17057995
-0.17405471 0.13462321 0.19686969 0.04799311 0.0409061 0.032837067 0.07786868 0.029755753
-0.118718565 -0.15472794 0.12472 0.14793676 -0.16442297 -0.08069734 -0.0660102 0.04496738
-0.11066069 -0.14633113 -0.07855094 -0.28209946 -0.23500687 -0.07170899 0.05666819 -0.11395829

encoder.4.block.5.running_mean f4 [40]
00000000: 2023 a4be ee80 593f 47fe 07bf 293e 573d
00000010: 259d 2c3f 1c31 c7be 7e09 1fbf 2d8e 4cbf
00000020: 20a1 4b3e b020 29bd ba08 af3e f101 9bbd
00000030: 8cba c83e b632 563f 929f d13e 6cd9 c0be
00000040: c74d ebbe 86ab 8b3e 20a7 723f e09e 3c3d
00000050: 1e32 853e 6d46 643e 23c0 173f 4304 b43c
00000060: d193 96be 1324 c6be 6c88 9b3e b4ee 473f
00000070: 2480 f9bd 1175 b1be 047c 3dbe 9d6f d33e
00000080: 461d b6bd adc7 80be 0257 b1be 488d 3bbf
00000090: cd34 d6bd 24c3 7dbe 6f9a 253f 0d3b 7dbe
-0.32058048 0.84962356 -0.5312237 0.052549515 0.67427284 -0.38904655 -0.6212386 -0.79904443
0.19885683 -0.04129094 0.34186345 -0.0756873 0.39204824 0.8367113 0.40942055 -0.3766588
-0.45957777 0.272793 0.9478626 0.046049953 0.260148 0.2229249 0.5927755 0.021974688
-0.2940965 -0.38699397 0.3037752 0.7809861 -0.12182644 -0.34659627 -0.1850434 0.41296092
-0.08892302 -0.2515234 -0.34636694 -0.73262453 -0.1045929 -0.24781471 0.6468877 -0.24729557

encoder.4.block.5.running_var f4 [40]
00000000: 6433 2a40 a647 9240 9a8e 4940 a99b dd3f
00000010: 209d 3440 6f7f 2940 d5eb d73f cd4f 7e40
00000020: a7c1 b73f 25e1 e43f 39a6 2140 73c0 f33f
00000030: 8f39 183f f9c7 9c40 0037 b640 72cd 1b3f
00000040: fb52 5a40 1c59 713f 7776 9440 bb7d de3f
00000050: 0df0 db3f 3e2c 6040 428c 793f 2cb9 2b40
00000060: 45be 1940 2a13 1c3f eceb 3740 7d6c 8b40
00000070: ac86 df3f 628c 7a3f 18dc b33f 8030 a040
00000080: ee14 8f3f 628d 353f 2a0e fc3f 6c42 8140
00000090: e844 5f3f eef4 9b3f 64c6 9940 f546 c13f
2.6593866 4.571246 3.1493287 1.7313129 2.8220901 2.648403 1.6868845 3.9736207
1.4355973 1.7881209 2.5257704 1.9043106 0.5946283 4.8994107 5.694214 0.6086036
3.4113147 0.94276595 4.639461 1.738212 1.7182633 3.5027003 0.9747964 2.683177
2.4022381 0.6096674 2.8737745 4.356993 1.7462974 0.9787046 1.4051542 5.0059204
1.1178262 0.7091886 1.9691823 4.039358 0.8721452 1.2184122 4.8054676 1.5099779

encoder.5.block.1.weight f4 [40, 40, 3, 3]
00000000: a835 043d 2ebc 423d 74e1 0dbd 6999 a8bd
00000010: 0bbb 983c 97df a43c 8704 d13d 3a11 edbc
00000020: ab15 a9bb d311 153c d6df 10bd 9765 26bc
00000030: ffe0 3f3a 0aa6 e43d 3bec de3c e52b 27bd
00000040: 3571 7e3d 12ca 50bd e4e0 a13b 260d 893d
00000050: 569d d4bc bcad d9bd 7665 47be 3250 9b3d
00000060: a62f a6bd 9e15 9b3d 7494 06bd 4621 c03b
00000070: 547c 5ebd 471b 79bc fa14 883d 69ab 48bd
00000080: 5f98 833d 55a0 353b 317f f23a 9552 b23b
00000090: efa7 603d 8515 593d ea5f b0bc 6071 893c
000000a0: 2c05 b2bc f814 563d 2410 0a3c ae40 14bc
000000b0: 7751 a03d 4137 ae3c fedd 1bbc ac9c 533d
000000c0: 4ea3 febd f896 dbbd d7a5 ea3b 70b3 b4bc
000000d0: 9fc0 7f3d 4fc9 48bd a226 febc 4b32 7f3d
000000e0: 2aa4 cc3c 960f 1a3d bc22 edbd c364 00bd
000000f0: ca51 d43c 1f05 cdbc c283 1d3c bd2e a1bd
00000100: 1d2b 93bd fc99 5f3d 4002 7ebd da9d abbd
00000110: c5d0 503d 8ed8 8bbd af68 58bd d972 d33b
00000120: b631 21bd 057c dbbc 7e11 cebc 6756 81bc
00000130: 1c4f 64bd d19f e9bc d268 353d 1a9d 90bd
00000140: c876 1d3d 6236 c63c 679c 243c 2c0a 223d
00000150: dc1a 663c b3a5 04bc 9a0d 623d 7ab7 6dbd
00000160: e278 223c 21f7 7f3d 6703 473b e313 19bc
00000170: b941 b5b8 2986 b03b 255c e23d e1ab 09bd
00000180: b488 3c3d e4b2 9dbc 6f0d 813d 132a 13bd
00000190: 6459 443c 8c19 a63b f136 483b 37b3 d7bd
000001a0: 46d8 5d3d 2d57 91bd cb49 c9bd 05a1 0fbd
000001b0: b87c a73c 1310 27bd 3d8d 303c c707 4a3d
000001c0: 0889 1ebe d37d be3d a746 fabd 5727 e23d
000001d0: 99d7 cfbd 0504 0fbc 1e97 233c c70c 663d
000001e0: 4704 ab39 9fcf 023d ea4e 2cbc ec52 be3c
000001f0: 3808 edbc de7f 19bc 1061 85bd e95d d3bd
00000200: c83c 27bd a110 243d eaf5 2d3e 400b 14bd
00000210: 45d7 983b 2ede 963d 42d5 563d a0df ea3b
00000220: 358c aabd f901 01bb efc7 b43c 2dcc 8e3d
00000230: 6c9b 53bd 5d67 63bc e490 773c 171d acbc
00000240: a302 d5bd d363 6ebd 08de b53c 7172 5cbd
00000250: a42e 64bd 8d8b 72bb e595 993b 3c5b a93c
00000260: fa45 843d 4246 1a3c 33e5 3d3d 2c54 323d
00000270: 06a8 8cbd c073 c83c a20d 90bc 382e 6f3c
00000280: efaf 383c 62b6 b13c 5884 39bd f309 af3c
00000290: 4895 1eba 8e2a 863d 7a6b bc3d 679f 9ebd
000002a0: fd99 14bd c83d 843d f1b9 46bd ea8f 2b3d
000002b0: 7409 84bd 9a3d eebc 7431 393d dfcf 54bc
000002c0: 5f2d 64bd fb83 f03d b420 0abd 816f 7dbd
000002d0: 9eb5 04bd 4994 f4bc 3c24 20bd 32ce 883c
000002e0: fb80 dcbd 0f48 9abd cc8b 6bbd 6ca2 d1bc
000002f0: d8af 7abd 1e5a 99bc cf8e bebb 30d7 233c
00000300: 766d bb3d d0dc 373e 07d4 7d3d d39a 2dbd
00000310: 34c2 093c c534 96bd b8d4 713c 03f7 e7bc
00000320: 613f fcbb dd4c 1ebc aa65 883e 7e80 453c
00000330: d031 8f3c 6e51 81bd f7b4 0fbd 7e27 57bd
00000340: 20ef 223d 9823 3c3c 1557 40bd 0709 df3d
00000350: 84c1 81bd 9474 793c aae5 023d a4d8 f7bb
00000360: df45 e83b 9b5b 053c 18eb 5c3d 2fa6 eebc
00000370: 852b 0bbd 1835 e9bc dc66 d43c c25f bfbd
00000380: 6075 883d 0c73 303d 2359 17bd 2df2 69bc
00000390: 18ab d0bc 64e2 6b3d 2785 19bd b79d 81bd
000003a0: cf47 42bd 59ad 3c3c ebb2 893c 4f49 d63c
000003b0: 23a0 2dbd c71c a23c 70ec 3c3d 0c81 d53c
000003c0: 25a5 31bd 1593 a1bd a566 303d adaf 8c3d
000003d0: b6bf ad3c 1e50 f43c 1709 633c c358 0a3e
000003e0: 570d 89bd dce0 7b3d 24fd 903d 7e51 a1bd
000003f0: 80ff afbc d78a 5f3d 5188 e7bb 9bb9 19bd
0.032277733 0.047542743 -0.034638837 -0.08232386 0.018643877 0.020126147 0.10205942 -0.028938878
-0.0051600537 0.009098488 -0.035369717 -0.010156057 0.0007319599 0.11164482 0.027212253 -0.040813345
0.06211968 -0.05097396 0.004940139 0.06691961 -0.02595393 -0.1062884 -0.19472298 0.075836554
-0.08114557 0.075724825 -0.03285642 0.0058633415 -0.054317787 -0.015204257 0.06644626 -0.048991594
0.06425547 0.0027713974 0.0018501041 0.0054419735 0.054847654 0.05299904 -0.02153011 0.016777694
-0.021730982 0.05226609 0.0084267 -0.009048624 0.07828038 0.021266581 -0.009513376 0.051663086
-0.12433492 -0.107221544 0.007160883 -0.022058219 0.062439557 -0.049020108 -0.031024281 0.062303822
0.024980623 0.03761252 -0.11578891 -0.031346094 0.025917906 -0.025026856 0.009613933 -0.07870243
-0.071859576 0.05459021 -0.062013865 -0.08379717 0.05098035 -0.06828414 -0.05283421 0.0064529
-0.03935405 -0.026792536 -0.025154825 -0.01578827 -0.055739507 -0.02851859 0.044289418 -0.07061215
0.038443357 0.024195854 0.010047055 0.039560482 0.01404449 -0.008096146 0.055188753 -0.058036305
0.009916516 0.06249154 0.0030367018 -0.00934312 -8.642994e-05 0.005387087 0.110527314 -0.033611182
0.046028808 -0.01925034 0.063013904 -0.035928797 0.011984203 0.0050689634 0.0030550326 -0.105322294
0.054161333 -0.070967056 -0.09828528 -0.03506567 0.020445213 -0.040786814 0.010775861 0.049323823
-0.15481961 0.09301343 -0.12220507 0.1104266 -0.10148544 -0.008728986 0.00998476 0.05616453
0.00032618848 0.031936284 -0.010516861 0.0232329 -0.028934583 -0.009368865 -0.06512654 -0.10320646
-0.04082945 0.04005492 0.1698834 -0.03614354 0.004664334 0.07366596 0.052449472 0.0071677715
-0.083275236 -0.0019685014 0.022067992 0.06972537 -0.051661894 -0.013879624 0.015110228 -0.021009965
-0.104008935 -0.05820067 0.0222006 -0.053820077 -0.055708542 -0.0037009448 0.0046870583 0.020673387
0.064586595 0.009416165 0.04636116 0.043537304 -0.068679854 0.024469256 -0.017584626 0.014598422
0.011272415 0.021693412 -0.04529223 0.021367049 -0.00060494663 0.065510854 0.09200187 -0.07745247
-0.036279667 0.06457096 -0.04851717 0.041885294 -0.064471155 -0.029082108 0.045213178 -0.012989013
-0.05570733 0.11743923 -0.033722594 -0.061873917 -0.032399766 -0.029855864 -0.039097056 0.016699884
-0.107667886 -0.07533275 -0.057506368 -0.025590144 -0.061202854 -0.018719729 -0.005815364 0.010000035
0.091517374 0.17955327 0.061969783 -0.04238398 0.008408118 -0.07334284 0.014760189 -0.028316027
-0.007697985 -0.00966188 0.26640064 0.012054561 0.017479807 -0.063143596 -0.03508469 -0.052527897
0.03977883 0.011483096 -0.046958048 0.10890394 -0.06335738 0.015225548 0.031957306 -0.0075636674
0.0070884074 0.008139516 0.05393514 -0.029131977 -0.03397705 -0.0284677 0.025927953 -0.09344436
0.066630125 0.043078467 -0.03695024 -0.014278931 -0.025472209 0.05758895 -0.0374805 -0.0632891
-0.047431763 0.011515939 0.016808948 0.026158003 -0.042389046 0.019789113 0.046123922 0.02606251
-0.043370385 -0.07889382 0.04306664 0.06869445 0.021209579 0.02982336 0.013857148 0.13510422
-0.066919975 0.06149374 0.07079533 -0.078768715 -0.021484137 0.054575767 -0.0070658107 -0.037530523

encoder.5.block.1.bias f4 [40]
00000000: fa34 5c39 738c 703b 2ba3 9e3a cceb 2e3b
00000010: 13a5 143b ef02 b33a 1375 e43a e884 de3a
00000020: ad8f 3038 9025 d83b 4afc 7b3b 2d7c 6a3b
00000030: 44d5 b03a 262e d3bb becd d1b9 7681 1c3b
00000040: c818 123b 458a c23b dfc5 7d3b e961 9c3b
00000050: f8a0 433b 398c 8eba f2ff 67b9 723f a43b
00000060: 2db5 993a b869 d63a 8e49 0f3b fcdb c33a
00000070: f8b5 e23a 9014 383a 2d74 c339 29cb 033a
00000080: 186e c33a 54eb 1a3b 71c9 a43b 1681 7f3b
00000090: 05cc a13b 75cb 293b 0ccb 1c3a e06c f13a
0.0002100057 0.0036704808 0.0012103071 0.002669084 0.00226814 0.001365749 0.001742991 0.0016976865
4.209548e-05 0.0065962747 0.0038449937 0.003577958 0.0013491292 -0.0064447103 -0.00040016876 0.0023880876
0.0022292603 0.005936893 0.0038722677 0.004772414 0.0029850584 -0.001087553 -0.00022125224 0.005012446
0.0011726968 0.0016358411 0.002186391 0.001494288 0.0017296663 0.0007022107 0.00037279856 0.00050275266
0.001491013 0.0023638802 0.0050288965 0.0038986853 0.004937651 0.0025908623 0.0005981184 0.0018419288

encoder.5.block.2.weight f4 [40]
00000000: 32d6 703f ddd3 913f 4947 813f dde8 713f
00000010: 4d20 8f3f c493 823f a3d0 6c3f e291 703f
00000020: dccd 5a3f 4cca a33f 9475 693f 872e 753f
00000030: c858 833f 55b7 483f 226f 683f 56ff 8f3f
00000040: 697e 693f d4af 5c3f 1cde 643f 88de 983f
00000050: b0de 813f bc15 843f 055e 7e3f 4c2f 8e3f
00000060: a576 853f e798 643f ff99 8a3f 0ec7 863f
00000070: b1db 803f 109d 613f 461f 893f 60fd 483f
00000080: b3a7 6d3f f679 5b3f a301 7e3f 0474 8d3f
00000090: 31d5 633f 3186 5b3f 16fd 573f 603a 893f
0.94076836 1.139278 1.009988 0.94495946 1.1181732 1.0201344 0.92505854 0.939726
0.85470366 1.2796111 0.91195035 0.9577412 1.0261469 0.7840474 0.90794575 1.1249797
0.9120851 0.8620579 0.8940141 1.1942911 1.0146084 1.0319133 0.9936221 1.1108184
1.0426832 0.8929581 1.0828246 1.0529497 1.0067044 0.88130283 1.0712669 0.7851162
0.92834014 0.8573297 0.9922125 1.105103 0.8899718 0.85751635 0.84370553 1.072094

encoder.5.block.2.bias f4 [40]
00000000: 30bb 793e 1659 2e3e 7547 523d c9fd bb3d
00000010: 427c 50bd df41 a83d d07f a93d c3aa c5bd
00000020: 7c3d 0abe dda2 1e3e 7246 003e cab5 773e
00000030: a0e5 7abd 2a0e 76be b890 793d 0936 b13e
00000040: 8aa5 b93e 4f4c a73e 8b5d 243e dd65 883e
00000050: a58a 62bd 8615 053d 657e 933e 8b2d bb3d
00000060: d03a c83b 0ff4 543e f4a8 ed3e 5b65 503e
00000070: 40f9 953d 59bc d33c d721 7f3e 72a7 87be
00000080: c37b 5e3e 5130 b63d 123f 173e 87df 853d
00000090: d042 a83e 3993 5e3e 0f9f 7bbd 3980 523e
0.24387813 0.17026171 0.051337678 0.09179265 -0.05089975 0.08215689 0.082763314 -0.09651711
-0.13500017 0.15491815 0.12526873 0.24190441 -0.061254144 -0.2402884 0.06092903 0.34611538
0.3625911 0.32675406 0.16051309 0.26640216 -0.055308003 0.03249123 0.2880737 0.09139546
0.0061105266 0.20796226 0.46417964 0.20351164 0.07322931 0.025846647 0.24915253 -0.26494938
0.21726899 0.088959344 0.14770153 0.06536775 0.32863474 0.21735848 -0.061430987 0.20556726
