VQ-VAE/models/vqvae/model_93.pt (torch, 579012 bytes, 64 tensors)

encoder.0.weight f4 [40, 1, 4, 4]
0	0x3d3d0ab5	0.04615279
1	0xbc0de425	-0.008660351
2	0xbd19b152	-0.03752262
3	0xbda3b879	-0.0799417
4	0xbcf9ca16	-0.03049187
5	0xbdfa8c83	-0.12233832
6	0xbdd06304	-0.10175136
7	0xbdb06037	-0.086121015
8	0xbd79b1ba	-0.06096051
9	0xbe23c88c	-0.15994471
10	0xbe5712d4	-0.21003276
11	0x3d4f1a35	0.050562102
12	0xbd21e6ed	-0.03952687
13	0xbd33173a	-0.043723322
14	0x3dc93a4c	0.09825572
15	0x3d2ddcb8	0.042446822
16	0x3d380931	0.04493064
17	0x3d3af423	0.045642983
18	0xbda1e271	-0.079045184
19	0x3d97dd21	0.07415224
20	0x3dab69a7	0.08369761
21	0x3e152442	0.14564613
22	0xbd9da08d	-0.07696638
23	0x3d837827	0.064194016
24	0x3d618bf5	0.055065114
25	0x3dbf6e17	0.0934717
26	0xbe16cecd	-0.14727326
27	0xbab0414f	-0.0013447198
28	0x3d4ae9af	0.049539264
29	0x3dba2a9b	0.090901576
30	0xbcd4596d	-0.025921548
31	0x3d85ae7a	0.065274194
32	0x3db2b634	0.08726159
33	0x3db7724f	0.089573495
34	0x3de35889	0.11100871
35	0x3dd533a0	0.10410237
36	0x3cfbf18d	0.030754829
37	0xbba200f0	-0.0049439594
38	0xbb899557	-0.004198711
39	0x3d94704a	0.0724798
40	0x3daf333c	0.08554694
41	0x3d78e31f	0.060763475
42	0x3d4c0883	0.049812805
43	0x3d888976	0.066668436
44	0x3cf17ae1	0.029477539
45	0x3d33034c	0.043704316
46	0x3c53683e	0.012903271
47	0x3c8423de	0.016130384
48	0xbc05be09	-0.008162984
49	0x3d6d3adb	0.057917457
50	0x3dce11ac	0.100619644
51	0x3d8536a4	0.065045625
52	0x3dbcde18	0.092220485
53	0x3dbfe3cf	0.09369623
54	0xbd23f3de	-0.04002749
55	0xbd958db6	-0.0730242
56	0x3de5ada9	0.11214764
57	0xbd9121a4	-0.070864946
58	0xbd6ddd01	-0.058072094
59	0x3c1b5eaa	0.009483019
60	0x3dcdd78b	0.10050877
61	0x3d351583	0.04420997
62	0x3d905568	0.0704754
63	0x3cfe94d7	0.031076832
64	0x3cf2785a	0.029598404
65	0xbc4df978	-0.012571685
66	0x3ca7d2aa	0.020486195
67	0x3b3fedb9	0.002928598
68	0x3c3d3885	0.01154912
69	0xbd160da7	-0.036634114
70	0x3e06ea20	0.13175249
71	0x3c7b051d	0.015321043
72	0xbcc7d52a	-0.024393637
73	0xbe010062	-0.12597802
74	0x3d49d86b	0.049278658
75	0x3db4ae5f	0.08822321
76	0x3d633139	0.055466864
77	0xbd785e97	-0.060637083
78	0x3d16b0fa	0.03678987
79	0x3e069f55	0.13146718
80	0xbd9b1885	-0.07573036
81	0xbd43e546	-0.047826074
82	0xbd06547f	-0.032795426
83	0x3cb3431e	0.02188259
84	0xbe0165c1	-0.12636472
85	0xbd97b93f	-0.0740838
86	0xbe1faa63	-0.15592341
87	0x3d5984e6	0.053105257
88	0xbdd9af4a	-0.10629137
89	0xbda5ea4c	-0.08101329
90	0xbdee4365	-0.11633948
91	0x3da33475	0.0796899
92	0xbd966ae1	-0.07344604
93	0xbd48a4cd	-0.04898529
94	0x3d394283	0.045229446
95	0x39a2ccf4	0.0003105175
96	0xbc92398a	-0.017849702
97	0x3d7b7a52	0.06139595
98	0xbd2468aa	-0.040138878
99	0xbc92815b	-0.017883947
100	0x3dbde229	0.09271652
101	0x3cb40631	0.021975609
102	0xbde482b4	-0.11157742
103	0xbd92031e	-0.07129501
104	0x3d833715	0.064069904
105	0xbe20dbba	-0.15708819
106	0xbd42b251	-0.047533337
107	0xbde79e1b	-0.11309453
108	0x3caafa4a	0.0208713
109	0xbd9955d3	-0.07487073
110	0xbd19bcae	-0.037533455
111	0xbc1b6637	-0.009484819
112	0x3c5d873e	0.013521014
113	0xbd46f013	-0.048568796
114	0xbdc79b34	-0.097463995
115	0xbddfc283	-0.10925772
116	0xbd83774c	-0.064192384
117	0xbd81ca17	-0.06337374
118	0xbe1528a3	-0.14566283
119	0x3dee8716	0.11646859
120	0xbdebab52	-0.11507286
121	0xbd0d9ffb	-0.034576397
122	0xbdf4877c	-0.11939904
123	0xbd0ebbf6	-0.034847222
124	0xbc5b526c	-0.01338635
125	0x3da13266	0.07870941
126	0xbcd2ee7b	-0.025748482
127	0xbce8cff6	-0.028419476
128	0xbc2ff7ae	-0.010740204
129	0xbd2ef9d8	-0.04271874
130	0x3c8fadb3	0.01753888
131	0x3cc4b4cf	0.024011998
132	0xbdcb46b0	-0.09925592
133	0x3db1b1f8	0.08676523
134	0x3e0d48ac	0.13797253
135	0x3cfee135	0.031113246
136	0x3d2ff4df	0.042958137
137	0x3dfc2a66	0.12312774
138	0xbd7594c6	-0.059956335
139	0xbd42ed54	-0.047589615
140	0x3dbf1691	0.09330476
141	0x3dea3047	0.114349894
142	0xbca74280	-0.020417452
143	0x3d0e5760	0.034751296
144	0x3d048a48	0.032358438
145	0x3da1a96f	0.07893645
146	0x3d249e77	0.040190186
147	0x3d0f8da0	0.035047174
148	0xbd856f67	-0.06515389
149	0xbcc6b974	-0.024258353
150	0xbdec607f	-0.11541843
151	0xbc97b4ff	-0.018518923
152	0xbe02275f	-0.12710331
153	0xbde9c564	-0.114146024
154	0xbe093bb9	-0.13401689
155	0x3cf3ad90	0.029745847
156	0x3d0a7668	0.033804327
157	0x3dbe2680	0.09284687
158	0x3da5817e	0.08081339
159	0x3d41b1be	0.04728865
160	0x3d82d57f	0.063883774
161	0x3ce75d05	0.028242597
162	0xbd9ccba6	-0.0765603
163	0xbd87138b	-0.065955244
164	0x3d65d204	0.05610849
165	0x3d349434	0.04408665
166	0xbd0a54d1	-0.033772293
167	0xbdc6742b	-0.09690126
168	0x3d4b161e	0.04958164
169	0x3d27ab28	0.04093471
170	0xbd313df1	-0.043271963
171	0xbe0b2bad	-0.1359088
172	0x3d91bb96	0.07115857
173	0x3d573052	0.052536316
174	0xbd8621bc	-0.06549403
175	0xbd8957d0	-0.06706202
176	0xbda4eb0f	-0.08052646
177	0xbcfa8beb	-0.030584296
178	0x3d0f3ea4	0.034971848
179	0xbc8c947a	-0.017160643
180	0x3c23f40d	0.010006917
181	0xbd7d9083	-0.061905395
182	0xbdf2a02f	-0.11846959
183	0xbdc1a4e6	-0.0945528
184	0xbd26df33	-0.040740203
185	0xbde225c1	-0.11042357
186	0xbe5cf83f	-0.21579073
187	0xbd5c08aa	-0.0537192
188	0x3c8b1311	0.016976865
189	0xbd7be063	-0.06149329
190	0x3c313f36	0.010818293
191	0xbd82ff2b	-0.06396326
192	0x3c1dffb7	0.009643487
193	0x3db39fcf	0.087707154
194	0x3da739c2	0.08165313
195	0x3c9fe9e4	0.019520707
196	0x3c1d9b8a	0.009619603
197	0xbd456860	-0.048195243
198	0xbd8ddbd3	-0.06926694
199	0xbe0a9f7d	-0.13537402
200	0xbd7209ef	-0.059091505
201	0xbe0d107e	-0.13775823
202	0xbe30d94c	-0.17270392
203	0xbe1dc84c	-0.15408438
204	0xbc1b4612	-0.009477155
205	0xbd5e2473	-0.05423398
206	0xbc7bc3c0	-0.015366495
207	0xbdabf93d	-0.08397148
208	0xbd4d815e	-0.050172202
209	0xbd9ca863	-0.07649305
210	0x3cd45f59	0.025924372
211	0x3d38a864	0.045082465
212	0xbda053ea	-0.07828505
213	0xbe122f71	-0.1427591
214	0xbdfd5357	-0.123694114
215	0xbc8d5a31	-0.01725492
216	0x3d3de637	0.046362128
217	0x3d6d2e56	0.057905518
218	0xbdc07fdb	-0.093993865
219	0xbe0009cb	-0.12503736
220	0x3d0e1c5e	0.03469502
221	0x3db306cd	0.087415315
222	0x3d0a05eb	0.03369705
223	0xbccf6029	-0.025314407
224	0x3c955745	0.01823009
225	0x3a9c21eb	0.0011911964
226	0xbc3a2e30	-0.011363551
227	0x3d4bb273	0.04973073
228	0x3d2b8b7c	0.04188107
229	0xbd76af6b	-0.060225885
230	0xbd44d39c	-0.04805337
231	0x3cc1ec67	0.023672296
232	0x3c36a2cb	0.011147211
233	0x3d810b64	0.06301001
234	0x3e472739	0.19448556
235	0x3e23352b	0.1593825
236	0x3c055444	0.008137766
237	0x3d99b191	0.07504571
238	0x3dd77ba8	0.105216324
239	0x3d23076c	0.039802
240	0x3d55b3e3	0.052173506
241	0xbd8b29d5	-0.06795088
242	0xbda61315	-0.08109108
243	0x3b5424a3	0.003237047
244	0xbdac45a5	-0.08411721
245	0xbd4e74fe	-0.05040454
246	0xbd7df7d2	-0.062003918
247	0xbd687c2c	-0.056759045
248	0xbd9b1ee8	-0.07574254
249	0xbdc8c291	-0.098027356
250	0xbcdbb97e	-0.026821848
251	0xbd6e2cb2	-0.058148094
252	0x3cf7cb6f	0.030248372
253	0xbd3610e5	-0.044449706
254	0xbdb16794	-0.08662334
255	0x3c3831ab	0.0112423105

encoder.0.bias f4 [40]
0	0xba911c63	-0.0011071082
1	0xbb064f23	-0.0020493947
2	0xbb5f21d2	-0.0034047258
3	0xbb20bed2	-0.00245278
4	0xbbdd2751	-0.0067490716
5	0xba9bb49a	-0.0011879385
6	0x3b63ab99	0.0034739731
7	0xba43af54	-0.00074647856
8	0xbbac2dfa	-0.0052545043
9	0x3b8657b6	0.0040998114
10	0x3acba94a	0.0015538123
11	0xbaeaa014	-0.001790049
12	0xbb37a682	-0.002802283
13	0xba971aff	-0.0011528431
14	0xbb215eee	-0.0024623233
15	0x3adcd9d2	0.0016849583
16	0x3a1df039	0.00060248707
17	0xbb015335	-0.0019733433
18	0xb96c9078	-0.00022560533
19	0xbb00ac1e	-0.001963384
20	0xbbd88205	-0.0066072964
21	0xbadecd27	-0.0016998396
22	0xbadb893f	-0.0016749277
23	0xbb982187	-0.0046426686
24	0xba89275f	-0.0010464004
25	0x3b655d12	0.0034998101
26	0xb9be8199	-0.00036336182
27	0xb9a4cd5b	-0.0003143352
28	0x3b0cd7bf	0.00214909
29	0xba94cfb3	-0.0011353403
30	0x3be08939	0.0068522957
31	0xbadee8ca	-0.0017006632
32	0xb9022c0d	-0.00012414176
33	0xbbff24d8	-0.0077863745
34	0x3be11d1b	0.0068699247
35	0xba276570	-0.000638566
36	0xba7d22f9	-0.00096563954
37	0xbbc198ea	-0.0059081214
38	0xbb8b7790	-0.0042561963
39	0x3aff195c	0.0019462514

encoder.1.weight f4 [40]
0	0x3f2beb77	0.67156166
1	0x3ee1ccfc	0.44101703
2	0x3f1afafb	0.60539216
3	0x3ecd7456	0.4012782
4	0x3f0aac4b	0.5416915
5	0x3f4fe97e	0.81215656
6	0x3f29a08b	0.66260594
7	0x3f317053	0.6931202
8	0x3f051609	0.5198675
9	0x3f163d0f	0.5868692
10	0x3f36c96e	0.7140111
11	0x3f2de9d9	0.6793495
12	0x3f44c4de	0.76862895
13	0x3f30dfcc	0.69091487
14	0x3ef0c790	0.47027254
15	0x3f4f222f	0.80911535
16	0x3f1a436b	0.6025912
17	0x3f420bfa	0.75799525
18	0x3f22bc10	0.6356821
19	0x3f401f3b	0.75047654
20	0x3ee7c2ca	0.452658
21	0x3f3761ec	0.7163379
22	0x3f01842e	0.50592315
23	0x3f0d1e60	0.55124474
24	0x3ea8a79f	0.32940385
25	0x3f17273d	0.5904425
26	0x3f181081	0.5940018
27	0x3ea528c3	0.3225766
28	0x3f215155	0.6301473
29	0x3f12fbb0	0.57415295
30	0x3f3a23f2	0.727111
31	0x3f4140e2	0.7548963
32	0x3f39ce23	0.72580165
33	0x3f2459ca	0.6419951
34	0x3f48f152	0.78493226
35	0x3f07f323	0.5310537
36	0x3f48196e	0.781638
37	0x3f6a8c06	0.9161991
38	0x3f62898c	0.8849113
39	0x3f1a4b1c	0.6027086

encoder.1.bias f4 [40]
0	0xbd937c63	-0.07201459
1	0xbd242111	-0.040070597
2	0xbce9a85b	-0.028522661
3	0xbbcd8d2b	-0.006272932
4	0x3d7a00ae	0.061035804
5	0xbe0a6f1b	-0.13518946
6	0xbe6b3225	-0.22968347
7	0xbe6d1fe9	-0.23156704
8	0x3e07dd39	0.13267983
9	0x3c751a73	0.014959919
10	0xbe318ff2	-0.17340067
11	0xbe0ac1a0	-0.13550425
12	0xbe565018	-0.20928991
13	0xbe3dcb57	-0.18534599
14	0x3e3ad6dd	0.18246026
15	0x3cc778df	0.024349628
16	0x3c6e3991	0.014540092
17	0xbe2d8761	-0.16946174
18	0xbe2723cf	-0.16322254
19	0xbe52ce61	-0.2058654
20	0xbcfe54ff	-0.031046389
21	0xbe19062a	-0.14943758
22	0x3e1a680e	0.15078756
23	0xbd9e7630	-0.07737386
24	0xbc26007d	-0.010131952
25	0xbe236f24	-0.15960366
26	0x3e0bb768	0.13644183
27	0x3d9dd1b2	0.07706012
28	0xbe114e4d	-0.14190026
29	0xbd17c3cd	-0.037051965
30	0xbe3a0a62	-0.18168023
31	0xbe72d9a7	-0.2371584
32	0xbe2d4da7	-0.16924153
33	0x3e352d7a	0.17693129
34	0xbe0e6018	-0.13903844
35	0xbe303a41	-0.17209722
36	0xbe516633	-0.20449142
37	0xbe83ecef	-0.25766703
38	0xbe9313bf	-0.28726003
39	0xbdc23da5	-0.09484414

encoder.1.running_mean f4 [40]
0	0x3f0b5089	0.5441976
1	0xbea15093	-0.31506786
2	0xbf12a007	-0.5727543
3	0xbeaf7524	-0.3426906
4	0xbe52dd1c	-0.20592159
5	0x3f05c192	0.5224849
6	0x3ea3c5cb	0.31986842
7	0x3ef886c1	0.4854031
8	0xbe9c55ac	-0.30534112
9	0x3e034539	0.12819375
10	0x3dfa60b2	0.122254744
11	0x3f1eb942	0.6200143
12	0x3f052cad	0.52021295
13	0x3e966414	0.2937323
14	0xbeec2763	-0.461238
15	0x3efe9650	0.49724054
16	0xbe7bafb6	-0.24578747
17	0x3f1cf446	0.6131023
18	0x3ebc0047	0.36718962
19	0x3eb207ee	0.34771675
20	0xbe8e3e9d	-0.27782145
21	0x3e7deb55	0.24796803
22	0xbe721a5f	-0.23642872
23	0x3e93a489	0.28836468
24	0xbd800826	-0.06251554
25	0x3e0b685b	0.13614027
26	0xbe7acb5e	-0.24491641
27	0xbdbfdf11	-0.093687184
28	0x3e1bd57a	0.15218154
29	0x3e45e662	0.19326165
30	0x3e84807c	0.25879276
31	0x3ea21fbd	0.3166484
32	0x3e9f560c	0.31120336
33	0xbe80a4d0	-0.25125742
34	0x3ec22890	0.37921572
35	0xbe9c8dc0	-0.30576897
36	0x3f113af1	0.5673056
37	0x3f0f0c9e	0.5587863
38	0x3f459db5	0.77193767
39	0x3dece155	0.11566416

encoder.1.running_var f4 [40]
0	0x3e2f41a6	0.17114887
1	0x3d4acef1	0.04951376
2	0x3e021f3a	0.12707224
3	0x3d7d4131	0.06182975
4	0x3cf5807c	0.029968493
5	0x3e1f0afa	0.15531531
6	0x3da4ac6f	0.080407016
7	0x3de0c5d7	0.10975235
8	0x3d7876ca	0.06066016
9	0x3d18a1c4	0.037263647
10	0x3d8a3d74	0.067500025
11	0x3e270570	0.16310668
12	0x3e2cc93c	0.1687364
13	0x3d467318	0.048449606
14	0x3de069c1	0.10957671
15	0x3dd39d98	0.10332793
16	0x3d7c0060	0.061523795
17	0x3e41c0e9	0.18921246
18	0x3dc215c1	0.094768055
19	0x3d9cbf6b	0.076536976
20	0x3d1ffd4d	0.039059926
21	0x3d72f04a	0.05931119
22	0x3cfb6654	0.030688442
23	0x3d8ecc22	0.06972529
24	0x3cdcdca8	0.026960686
25	0x3d8d3d70	0.06896484
26	0x3d4a35ba	0.049367644
27	0x3d17302e	0.036911182
28	0x3d348cf9	0.044079755
29	0x3d3e287a	0.04642532
30	0x3d811450	0.063027024
31	0x3d92afdf	0.07162451
32	0x3d855690	0.06510651
33	0x3d4ce262	0.050020583
34	0x3d828a82	0.063740745
35	0x3db7d55a	0.089762405
36	0x3e322e57	0.1740049
37	0x3e1c9eb8	0.15294921
38	0x3e87efcc	0.26550138
39	0x3ca09edc	0.019607

encoder.3.weight f4 [40, 40, 4, 4]
0	0x3a5593fc	0.00081473566
1	0x3c622f2b	0.013805191
2	0xbc17ad02	-0.009257557
3	0xbcae5307	-0.021279825
4	0xbd6528c7	-0.05594709
5	0xbdee35f9	-0.11631388
6	0x3bd5eec0	0.0065287054
7	0x3d3f7350	0.04674083
8	0xbc9c3f20	-0.01907307
9	0x3be4ab74	0.0069784466
10	0x3bb8e4f8	0.0056425296
11	0x3d523a31	0.051325027
12	0x3d98e330	0.074652076
13	0x3d2d51eb	0.04231445
14	0x3cf4b4fc	0.029871456
15	0xbbc10ede	-0.005891665
16	0x3be134ef	0.0068727653
17	0x3c2e32f0	0.010632262
18	0x3d03c8fb	0.03217409
19	0x3ccb9baf	0.02485451
20	0xbca907fb	-0.020633688
21	0xbd152c53	-0.036419224
22	0x3d10b123	0.03532518
23	0x3d74ca17	0.05976304
24	0xbbe33596	-0.006933878
25	0xbc3be77c	-0.011468764
26	0x3ce76f9b	0.02825146
27	0x3dcca07e	0.09991549
28	0x3b51720a	0.0031958842
29	0xbbb2c69a	-0.005455804
30	0x3cde13dc	0.027109079
31	0x3cfdca9d	0.030980403
32	0xbce37d51	-0.027769716
33	0xbcc1c8d8	-0.02365534
34	0xbba664d3	-0.005077937
35	0xba5f1f19	-0.0008511409
36	0x3cf47d90	0.02984503
37	0xbd03d78b	-0.03218798
38	0xbdc2e6c5	-0.09516672
39	0x3c710c20	0.0147123635
40	0x3d0f5f1a	0.035002805
41	0xbd1109e6	-0.03540983
42	0xbddb67bc	-0.10713145
43	0xbd1ea6bf	-0.03873324
44	0x3d942ada	0.07234736
45	0xbddc3b2e	-0.10753475
46	0xbdc9fd7c	-0.098628014
47	0xbd376fdd	-0.044784416
48	0x3ca2f233	0.01989088
49	0xbc628abf	-0.013827025
50	0xbc8dac93	-0.017294204
51	0x3c427921	0.0118697
52	0x3d86e7df	0.06587195
53	0xbd7a4298	-0.061098665
54	0xbca5c51d	-0.020235592
55	0x3a615025	0.00085950113
56	0x3d16efd6	0.03684982
57	0xbd176c7a	-0.036968686
58	0x3cf1cd95	0.029516974
59	0x3d11fe98	0.03564319
60	0x3ae915ae	0.001778295
61	0x3cd413ba	0.025888313
62	0x3d04272d	0.032263923
63	0x3cafde77	0.021468384
64	0x3d79f76f	0.061026987
65	0x3d1087ae	0.035285644
66	0xbda159f2	-0.07878484
67	0xbc44cb7e	-0.012011407
68	0x3c1c07f2	0.009523379
69	0x3e1b20ee	0.1514928
70	0xbdba68d9	-0.09102029
71	0xbd093219	-0.033495042
72	0xbce9ad8c	-0.028525136
73	0x3e3c7d8a	0.18407264
74	0x3c09632f	0.008385464
75	0xbb9b14d6	-0.0047327084
76	0xba546b08	-0.0008103107
77	0x3d3c783d	0.046013106
78	0x3c16ee6e	0.0092121195
79	0xbcc53b78	-0.024076208
80	0xbc97dfed	-0.018539393
81	0xba3de3e7	-0.0007243738
82	0xbd27af9d	-0.040938962
83	0x3d6a2a5e	0.05716931
84	0xbddf6fc6	-0.10909991
85	0xbbde0470	-0.0067754313
86	0x3d98ee4a	0.07467325
87	0x3cf8b37e	0.030359026
88	0xbdb9b204	-0.09067157
89	0x3df25232	0.11832084
90	0x3d314eda	0.04328809
91	0xbd379734	-0.044821933
92	0xbcacd512	-0.021097694
93	0x3c9022c8	0.01759471
94	0x3db2e180	0.08734417
95	0x3cbbef76	0.022941332
96	0xbc1d5a41	-0.009604038
97	0x3ba553e3	0.0050454005
98	0x3d199280	0.03749323
99	0x3c9ff2d4	0.01952497
100	0xbd916c43	-0.071007274
101	0xbdb1a39b	-0.086737834
102	0x3de86527	0.11347418
103	0x3cf70683	0.030154472
104	0x3d02696c	0.03183882
105	0x3da0d8a9	0.07853825
106	0x3c0b8939	0.008516603
107	0xbba3b999	-0.00499649
108	0xbc47bafa	-0.012190575
109	0x3df6a1bb	0.120425664
110	0xbd12c19b	-0.035829168
111	0xbc01ad18	-0.007914804
112	0xbcb6472f	-0.02225074
113	0x3c691f11	0.014228598
114	0x3d94c1b4	0.072635084
115	0x3caa95bd	0.020823354
116	0xbc40158f	-0.01172389
117	0xbb5d65ca	-0.0033782595
118	0x3d295446	0.041340135
119	0x3dc3548b	0.0953761
120	0x3d1ba411	0.037998263
121	0x3da06b4c	0.07832965
122	0xbd0b9c1e	-0.03408443
123	0xbcbb6272	-0.02287409
124	0xbe09d47d	-0.13459964
125	0xbc40b610	-0.011762157
126	0x3e013550	0.12617993
127	0x3d21f37e	0.039538853
128	0xbc016f2a	-0.007900039
129	0xbd87d924	-0.06633213
130	0xbd63b337	-0.055590834
131	0x3d1a6069	0.0376896
132	0x3d939103	0.07205393
133	0xbdd4d374	-0.10391894
134	0xbd804729	-0.06263573
135	0x3d51b9ce	0.051202588
136	0xbca83788	-0.020534292
137	0xbd4e9bcd	-0.050441552
138	0xbd0c10fc	-0.034195885
139	0x3cb2466c	0.021762095
140	0xbc25fe4f	-0.010131433
141	0x3d346429	0.044040833
142	0xbcfc7ae7	-0.030820323
143	0x3bdc81e2	0.0067293504
144	0xbc19af52	-0.0093801785
145	0xbcb9dd47	-0.022688521
146	0xbd8955a1	-0.067057855
147	0xbbbd5eb9	-0.005779114
148	0x3dae8e1c	0.08523199
149	0x3ae86d27	0.0017732725
150	0xbd7765d5	-0.06039985
151	0xbd2eda6b	-0.04268877
152	0x3d83bd34	0.06432572
153	0xbc9560ee	-0.018234696
154	0xbcb0e21f	-0.021592198
155	0x3de35a90	0.11101258
156	0x3cbc1118	0.02295737
157	0x3d44acf6	0.04801651
158	0xbc205c44	-0.009787623
159	0xbd26acf7	-0.040692296
160	0x3c80030c	0.015626453
161	0x3c3df909	0.011595019
162	0xbc05e28d	-0.00817169
163	0x3dae3edd	0.08508084
164	0xbd3df111	-0.046372477
165	0x3db5824e	0.08862744
166	0x3d1b717e	0.03795003
167	0x3c8b6b9d	0.017019087
168	0xbdfbf554	-0.12302652
169	0x3c39e0c9	0.011345097
170	0x3df28a95	0.11842839
171	0x3c24dc22	0.010062249
172	0xbbbde98f	-0.0057956646
173	0x3c7803f9	0.015137666
174	0xbd02dbc0	-0.03194785
175	0xbd1b0114	-0.037842825
176	0xbd989f7c	-0.07452294
177	0x3c933ef8	0.017974362
178	0x3d8d63a5	0.06903771
179	0x3d9e5adf	0.07732176
180	0x3d868feb	0.06570419
181	0xbc708da8	-0.014682211
182	0xbd49d7e3	-0.04927815
183	0x3d726583	0.05917884
184	0xbd3a8aa3	-0.04554237
185	0xbdc50103	-0.096193336
186	0x3dbb1af6	0.09136002
187	0x3c196635	0.009362747
188	0x3d096101	0.033539776
189	0xbd41b956	-0.04729589
190	0x3d590816	0.052986227
191	0x3dc782af	0.09741723
192	0xbd260878	-0.04053542
193	0xbc8d3a65	-0.017239759
194	0xbc6a0e87	-0.01428569
195	0xbd06ab6b	-0.03287832
196	0x3d452a55	0.048136074
197	0xbcf34c85	-0.029699573
198	0xbafba86c	-0.0019199974
199	0x3d239894	0.03994043
200	0xbd991b5a	-0.0747592
201	0x3d807561	0.06272388
202	0xbc27b0a8	-0.010234989
203	0x3dac894a	0.08424623
204	0xbcacbb39	-0.021085368
205	0xbd001242	-0.031267412
206	0x3d15ee2d	0.036604095
207	0xbc7c8b94	-0.015414137
208	0xbc55b4e1	-0.013043613
209	0xbd4f82dc	-0.050661907
210	0x3d0d3ca3	0.034481656
211	0x3d41ab71	0.04728264
212	0x3e0f7fad	0.14013548
213	0x3e0cdadc	0.13755363
214	0xbd0c177e	-0.03420209
215	0x3bf29b59	0.007403773
216	0xbd6aeb00	-0.05735302
217	0xbd336880	-0.04380083
218	0x3d89a599	0.06721038
219	0x3dc07d39	0.09398884
220	0xbc493548	-0.01228077
221	0xbd4a8a89	-0.049448524
222	0xbbd95ade	-0.0066331467
223	0x3d059d4d	0.032620717
224	0x3d6c9ebd	0.057768572
225	0xbd83044c	-0.06397304
226	0xbda375b6	-0.07981436
227	0x3d58831f	0.05285942
228	0x3d2c7a79	0.042108987
229	0xbd6eb508	-0.058278114
230	0xbd0f3873	-0.034965944
231	0x3d653c9b	0.055966
232	0x3d5101ac	0.051026985
233	0xbd1e31d7	-0.03862175
234	0xbdbe6f99	-0.09298629
235	0x3c9fbb1f	0.019498406
236	0x3daca189	0.08429248
237	0x3cb9c74c	0.02267804
238	0xbd462821	-0.048378114
239	0x3d3dbefe	0.046324722
240	0x3be9aa1b	0.007130874
241	0xbd00e7f0	-0.031471193
242	0xbbf8c1a7	-0.0075914445
243	0x3cf03931	0.029324146
244	0xbd65c304	-0.056094185
245	0xbe08f3c6	-0.13374242
246	0x3c994434	0.01870928
247	0x3d63ccfe	0.055615418
248	0x3b803366	0.003912377
249	0xbd24c116	-0.040223204
250	0xbd7ef099	-0.06224117
251	0x3d297465	0.041370768
252	0xbd41a8ae	-0.047280006
253	0xbcc19704	-0.02363158
254	0x3bca3f6e	0.006172112
255	0x3cb12607	0.021624578

encoder.3.bias f4 [40]
0	0x3c5ea0ef	0.013588174
1	0x3df5720b	0.119846426
2	0x3d8dfdb4	0.06933156
3	0xbc7f6edb	-0.015590395
4	0x3e10393b	0.14084332
5	0x3d854298	0.065068424
6	0x3e7be19e	0.24597785
7	0x3c536e14	0.012904663
8	0x3bae5162	0.00531976
9	0x3bde7794	0.006789157
10	0x3da24d6e	0.07924925
11	0x3db5ff79	0.08886618
12	0x3a1dec6c	0.00060243043
13	0x3d11ba0c	0.03557782
14	0x3d914e5f	0.07095026
15	0x3dd5b189	0.10434253
16	0xbc4b601a	-0.012413049
17	0x3be808f8	0.0070811473
18	0x3c6034e1	0.013684482
19	0xbc41cf03	-0.011829141
20	0x3ba6fd13	0.0050960868
21	0x3c0c35f1	0.0085577825
22	0x3e2ad895	0.16684182
23	0x3d06c339	0.032901023
24	0xbd0fdd59	-0.035123203
25	0x3dd69eff	0.10479545
26	0xbc9c914c	-0.019112252
27	0x3d372466	0.044712447
28	0x3e19f1ac	0.15033597
29	0x3d2c42e7	0.04205599
30	0x3c78191f	0.015142708
31	0xbcbc8609	-0.023013132
32	0xbda8537b	-0.08219048
33	0xbcee9ec0	-0.029128432
34	0xbd13980b	-0.03603367
35	0xbda32dd9	-0.07967729
36	0xbd656d3f	-0.05601239
37	0xbd8ffbc2	-0.07030441
38	0x3d2ad004	0.041702285
39	0x3c707b2b	0.014677803

encoder.4.block.1.weight f4 [40, 40, 3, 3]
0	0xbc3b23c4	-0.011422101
1	0xbd1d1a4f	-0.038355168
2	0x3d03befa	0.03216455
3	0x3bd8cfe0	0.0066165775
4	0xbe2954c9	-0.16536249
5	0xbd9c8369	-0.07642252
6	0xbc29133d	-0.010319528
7	0xbb5b75a2	-0.0033486863
8	0x3d87f7bc	0.066390485
9	0xbdac8252	-0.08423294
10	0x3e0e7984	0.13913542
11	0x3ddfb8bb	0.109239064
12	0x3d1c8a0c	0.03821759
13	0xbe427063	-0.18988185
14	0x39658391	0.00021888154
15	0x3c4846d9	0.012223923
16	0x3d4ea3bc	0.050449118
17	0xbcfe2363	-0.031022733
18	0xba063613	-0.0005119752
19	0xbcaea37e	-0.021318194
20	0x3d3d3e10	0.046201766
21	0x3d714fe2	0.058914073
22	0xbce80940	-0.028324723
23	0x3d82cd3c	0.063868016
24	0x3d6afbc2	0.057369
25	0xbc873119	-0.016502904
26	0x3be12ea7	0.0068720165
27	0xbddeb98b	-0.10875233
28	0xbd0e35bf	-0.034719225
29	0xbcc8e42d	-0.024522865
30	0xbd87206e	-0.06597982
31	0x3d634452	0.055485077
32	0xbd31bfcf	-0.043395814
33	0x3de47692	0.11155428
34	0xbe9771c2	-0.29578978
35	0xbc83e67a	-0.01610111
36	0xbc889336	-0.016671758
37	0xbd21891e	-0.039437406
38	0xbaa27ebe	-0.0012397391
39	0x3d46db1c	0.048548803
40	0x3e1d2a40	0.15348148
41	0xbbadd849	-0.005305324
42	0x3d5d5a93	0.054041456
43	0xbd0f3580	-0.03496313
44	0xbb747220	-0.003729947
45	0xbbd961a9	-0.0066339565
46	0xbd61f79b	-0.055167776
47	0x3d2fcd88	0.04292062
48	0x3d51e686	0.051245235
49	0xbc5856e7	-0.013204313
50	0xbc9660f6	-0.018356781
51	0x3c9a318d	0.018822456
52	0xbca95b45	-0.020673404
53	0x3be3a540	0.0069471896
54	0xbd382188	-0.044953853
55	0x3d5f69b2	0.05454416
56	0x3c5eabce	0.013590766
57	0x3ce5571a	0.027995635
58	0x3e42e7ed	0.19033785
59	0x3c5d0433	0.013489771
60	0xbd5c9249	-0.053850446
61	0x3c97ae79	0.018515812
62	0x3c0a3a35	0.008436729
63	0x3cb00e18	0.021491095
64	0xbd57ec6a	-0.052715696
65	0x3d62bc5c	0.055355415
66	0xbc4c75d2	-0.012479262
67	0x3d92f7b2	0.071761504
68	0x3b04c279	0.0020257516
69	0xbbf7cd65	-0.0075623267
70	0xbd1ba55c	-0.037999496
71	0xbb9d551d	-0.004801406
72	0xbd04e63a	-0.032446124
73	0xbc1d341f	-0.009594946
74	0xbcacb2c8	-0.021081343
75	0x3ce13578	0.027491316
76	0x3d58ed47	0.05296066
77	0xbd2982cc	-0.041384503
78	0xbd23caf7	-0.039988484
79	0xbdaaa0d3	-0.08331456
80	0xbd79bed6	-0.06097301
81	0xbd1989f9	-0.037485097
82	0x3e02c03b	0.12768643
83	0x3d963252	0.073338166
84	0xbddbf502	-0.10740091
85	0x3d884dc5	0.06655458
86	0x3d891928	0.06694251
87	0xbc90ffed	-0.01770016
88	0x3d29e85c	0.04148136
89	0x3d1c64f1	0.038182203
90	0x3c1bcdfa	0.009509558
91	0xbcc677a0	-0.024226964
92	0xbc330622	-0.010926755
93	0xbd36e84c	-0.04465513
94	0xbce52337	-0.027970893
95	0xbd46d871	-0.04854626
96	0xbcfc8adf	-0.030827938
97	0xbd7b3f9e	-0.061339967
98	0xbd9bee8e	-0.0761386
99	0xbd149281	-0.03627253
100	0x3da72469	0.081612416
101	0xbd445797	-0.047935095
102	0x3b9f5d8b	0.004863446
103	0xbd020d9b	-0.031751256
104	0x3d68eece	0.056868367
105	0xbca07a0c	-0.019589446
106	0x3d1e60b9	0.03866646
107	0x3c941221	0.01807505
108	0x3cb2464f	0.021762041
109	0x3dbd64ef	0.09247767
110	0xbcd198cf	-0.02558556
111	0xbdc5329f	-0.09628796
112	0x3dfb9543	0.12284329
113	0xb88d6ca5	-6.7436406e-05
114	0xbcff7dad	-0.031187857
115	0xbc375f3e	-0.011192141
116	0xbd6218ce	-0.055199437
117	0x3d8542f9	0.06506915
118	0xbd2a4a61	-0.04157484
119	0x3d158686	0.036505245
120	0xbde45d06	-0.11150555
121	0xbe5013de	-0.20320079
122	0x3e00cdbe	0.12578484
123	0xbaaf1795	-0.0013358468
124	0x3bfaf506	0.0076586036
125	0xbcc774f5	-0.024347762
126	0xbd9e35af	-0.07725083
127	0x3dc15fbd	0.09442089
128	0xbd0c3a65	-0.034235377
129	0x3e6b4040	0.22973728
130	0xbea41c55	-0.32052866
131	0x3d5d3562	0.054005988
132	0x3d8655c0	0.06559324
133	0xbc786e6b	-0.015163044
134	0x3c53b14a	0.012920687
135	0xbdad7148	-0.08468872
136	0x3da8d1e3	0.08243158
137	0x3c8381a9	0.016053038
138	0x3d8dde33	0.06927147
139	0x3c65e331	0.014031217
140	0x3c403fdd	0.011733976
141	0xbc921771	-0.017833443
142	0xbc745bd9	-0.014914476
143	0xbd08cf07	-0.03340056
144	0xbcdea521	-0.027178349
145	0xbd643005	-0.055709857
146	0xbdb145d0	-0.08655894
147	0x3da35f92	0.07977213
148	0xbd4e7409	-0.05040363
149	0x3d03afa1	0.032149915
150	0xbd8b83aa	-0.06812222
151	0xbd205f85	-0.039153595
152	0x3c84891f	0.016178666
153	0x3ddd3228	0.10800582
154	0xbd1759a7	-0.036950734
155	0xbe02edff	-0.12786101
156	0xbd22aa8e	-0.039713435
157	0x3d7e3cf2	0.06206984
158	0x3dda42a9	0.10657246
159	0x3d0780e4	0.033081904
160	0xbd23dc7f	-0.040005203
161	0x3cd5f595	0.02611808
162	0x3c0285e9	0.007966497
163	0xbdd03667	-0.101666264
164	0xbd3b0246	-0.045656465
165	0x3b87224d	0.004123962
166	0xbd90811d	-0.070558764
167	0xbd109360	-0.035296798
168	0x3ca8c284	0.020600565
169	0xbd143b18	-0.03618917
170	0x3b052c53	0.0020320609
171	0xbd2ef990	-0.04271847
172	0xbbe4f2c4	-0.0069869477
173	0xbd871ef2	-0.06597699
174	0xbced6f70	-0.028983802
175	0x3cc8e3c0	0.024522662
176	0xbde031f5	-0.109470285
177	0xbe2b8a1b	-0.16751902
178	0x3ddb869c	0.10719034
179	0x3cd2a048	0.025711194
180	0xbc1df7e7	-0.009641624
181	0x3dca8811	0.09889234
182	0xbe1a0c01	-0.15043642
183	0x3da10d9f	0.07863926
184	0xbd6e3f46	-0.05816581
185	0xbd89fe6b	-0.067379795
186	0xbe7eb6d1	-0.24874426
187	0x3cc8ddaf	0.02451977
188	0xbd865cf2	-0.06560697
189	0x3c966e42	0.018363122
190	0xbe12ba92	-0.14328983
191	0x3c458176	0.012054792
192	0xbcf83867	-0.030300332
193	0x3d426619	0.04746065
194	0x3e151a75	0.14560874
195	0xbc341940	-0.010992348
196	0x3cf19edf	0.029494701
197	0xbd103444	-0.035206094
198	0xbc8f5dc4	-0.017500766
199	0x3b899c5d	0.004199548
200	0xba99a24d	-0.0011721343
201	0xbdab8dc6	-0.083766505
202	0x3e3d9dde	0.18517253
203	0x3b81ad9a	0.0039574625
204	0xbd282d4e	-0.04105883
205	0xbcc96503	-0.024584299
206	0xbd0d9caa	-0.034573235
207	0x3cbdf5a7	0.023188425
208	0xbe3c112a	-0.18365923
209	0x3a289ca0	0.00064320303
210	0xbd3f408f	-0.046692427
211	0xbe6775a0	-0.22603464
212	0x3c360d55	0.011111577
213	0x3c458dd4	0.01205774
214	0x3d1daedf	0.03849685
215	0x3d0dd735	0.034629066
216	0x3d41bb71	0.0472979
217	0x3d0b3cdf	0.033993598
218	0xbd613c75	-0.054989297
219	0xbe35cd49	-0.17754091
220	0x3e2ed31c	0.1707272
221	0x3da19da8	0.07891399
222	0x3d92d1d2	0.07168926
223	0x3d0198d3	0.031639885
224	0xbd0e3a5e	-0.034723632
225	0x3c2f1669	0.010686495
226	0xbae2bd9a	-0.0017298937
227	0xbc8c18f9	-0.017101752
228	0xbe08de1c	-0.13365978
229	0x3e88160d	0.26579323
230	0xbd92144a	-0.07132776
231	0x3c9ddf20	0.019271433
232	0x3d223c36	0.039608203
233	0x3c3b438b	0.011429678
234	0x3d3af717	0.0456458
235	0x3c629d25	0.0138314115
236	0xbc5d818f	-0.013519659
237	0x3d09ca34	0.0336401
238	0xbe3d21fa	-0.18469992
239	0xbd506e32	-0.05088634
240	0x3ccd2525	0.025042126
241	0x3bb24bff	0.0054411883
242	0xba69181d	-0.0008891838
243	0xbbf29a81	-0.007403672
244	0x3dc1d2f8	0.09464067
245	0x3d02780a	0.03185276
246	0xbce6f0a9	-0.028190928
247	0xbe2861e7	-0.16443597
248	0x3c68acad	0.014201325
249	0x3dbaa269	0.091130085
250	0xbd7c5185	-0.06160118
251	0xbb2f1477	-0.002671508
252	0xbc904f5b	-0.017615965
253	0x3d0d943b	0.03456519
254	0xbc4f805a	-0.012664879
255	0xbcb8cb72	-0.022557948

encoder.4.block.1.bias f4 [40]
0	0x3b4b5cf3	0.0031030744
1	0xbba72ace	-0.0051015383
2	0xb97d2de6	-0.00024145059
3	0x3a3e0759	0.00072490197
4	0xb907ba8d	-0.00012944099
5	0x3b2bf249	0.0026236943
6	0x3aab07eb	0.0013048624
7	0x38cddd55	9.816388e-05
8	0x3a20c926	0.0006133489
9	0xba813293	-0.0009856991
10	0x3b9c395a	0.004767579
11	0x3c0f0891	0.00873007
12	0xb9349f1a	-0.00017225408
13	0x3b12390b	0.0022311832
14	0xb992f301	-0.00028028342
15	0x3a8c781c	0.0010716948
16	0xbb20eada	-0.0024554045
17	0xbaaf0c13	-0.0013355039
18	0x3a4190c8	0.000738394
19	0x3a441654	0.0007480134
20	0xb8976d52	-7.2206036e-05
21	0x379bf703	1.8592464e-05
22	0xbaf70bf0	-0.0018848162
23	0xbb1855d4	-0.0023244517
24	0x3b687b72	0.003547397
25	0xba49517c	-0.00076796836
26	0x3ab3adb3	0.0013708383
27	0x3ba574f9	0.0050493446
28	0xb93befb2	-0.00017923003
29	0x3a62286a	0.0008627238
30	0x3b01ce70	0.0019806884
31	0x3abeccfa	0.0014556937
32	0x3aae0823	0.0013277571
33	0x3b3fbcbf	0.0029256789
34	0xba0b0bfe	-0.0005304216
35	0x3b8dc67a	0.0043266388
36	0xbb47816e	-0.0030442136
37	0x39cfaf7c	0.00039612863
38	0xba46a553	-0.0007577736
39	0x3b2d6566	0.0026458143

encoder.4.block.2.weight f4 [40]
0	0x3f8a9b3e	1.0828626
1	0x3f8ba120	1.0908546
2	0x3f82dc09	1.0223399
3	0x3f71f922	0.9452077
4	0x3f7a533d	0.9778326
5	0x3f749322	0.95537007
6	0x3f68b4cc	0.90900874
7	0x3f69f7ea	0.9139391
8	0x3f481f19	0.7817245
9	0x3f60b697	0.8777861
10	0x3f7a5a7d	0.97794324
11	0x3f89a1d4	1.0752511
12	0x3f7cf932	0.9881774
13	0x3f8c98dd	1.098415
14	0x3f955545	1.1666647
15	0x3f8864b0	1.0655727
16	0x3f89a97e	1.075485
17	0x3f1faa86	0.62369573
18	0x3f6f0e62	0.9338132
19	0x3f5b1426	0.8557762
20	0x3f767f2a	0.96287787
21	0x3f8c1fb2	1.0947173
22	0x3f37fb13	0.71867484
23	0x3f6fc6f9	0.93662983
24	0x3f658489	0.8965536
25	0x3f5eebbc	0.8707845
26	0x3f8acf03	1.0844425
27	0x3f8de1fd	1.1084591
28	0x3f6fd060	0.9367733
29	0x3f91f161	1.1401788
30	0x3f8b0d5e	1.0863454
31	0x3f8ccb08	1.099946
32	0x3f8c0d1b	1.09415
33	0x3f9a5007	1.2055672
34	0x3f71609c	0.9428804
35	0x3f86ec4b	1.0540861
36	0x3f69c001	0.913086
37	0x3f308b4c	0.6896255
38	0x3fa5fa4e	1.2967012
39	0x3f590764	0.847769

encoder.4.block.2.bias f4 [40]
0	0x3ebca324	0.36843216
1	0x3e5e038d	0.21681042
2	0xbd3a94b0	-0.045551956
3	0x3f1e58fd	0.61854535
4	0x3ec612c0	0.3868618
5	0x3ed3fd0b	0.41403994
6	0x3d9a48de	0.075334296
7	0x3d8f2f54	0.06991449
8	0x3dbafe3f	0.09130525
9	0xbd7e21f3	-0.062044095
10	0x3d626b89	0.055278335
11	0x3ec6a98f	0.38801238
12	0x3ec501df	0.3847799
13	0x3f02f311	0.5115214
14	0x3ed795bf	0.42106435
15	0xbd876dd1	-0.06612743
16	0x3d45d1ea	0.048295893
17	0x3e25e0ae	0.1619899
18	0x3e81c146	0.25342768
19	0x3e6db332	0.23212889
20	0xbe2e2936	-0.17007908
21	0xbd975e9e	-0.07391094
22	0xbed5adcc	-0.4173416
23	0xbd7f5e44	-0.062345758
24	0x3d8b27bf	0.0679469
25	0x3bf05841	0.0073347394
26	0x3e84923c	0.25892818
27	0xbd42750f	-0.047474917
28	0xbe9078d0	-0.28217173
29	0xbd054e1e	-0.0325452
30	0x3eabb49e	0.33536237
31	0x3e3b3678	0.18282497
32	0x3da9242b	0.082588516
33	0x3e994e53	0.2994257
34	0x3e02aaa9	0.12760414
35	0x3bb03d32	0.005378389
36	0xbb5bd622	-0.003354438
37	0xbc9be5c1	-0.019030454
38	0xbeb0e3e1	-0.34548858
39	0x3d7d1726	0.061789654

encoder.4.block.2.running_mean f4 [40]
0	0x3e66be81	0.22533609
1	0xbf3f86e3	-0.74815196
2	0xbf369e4e	-0.71335304
3	0xbf0bfb45	-0.5468028
4	0xbcf43bfc	-0.029813759
5	0x3f0b0204	0.5429995
6	0x3e4d80de	0.2006869
7	0xbea4dd73	-0.32200202
8	0xbe04a9dd	-0.12955423
9	0xbe4ba215	-0.19886048
10	0x3ed2bbf3	0.4115902
11	0x3e9b87da	0.30377084
12	0x3d36ba39	0.04461119
13	0x3ec6ac42	0.38803297
14	0x3e241864	0.1602493
15	0xbf2e22af	-0.6802167
16	0xbf08f380	-0.5349655
17	0xbd125a88	-0.03573087
18	0x3f118c4a	0.5685469
19	0x39a2608e	0.00030970987
20	0x3de1b16e	0.1102017
21	0xbf1f1073	-0.62134475
22	0xbecc7622	-0.39933878
23	0xbe85ef94	-0.26159346
24	0x3da5ea7f	0.08101367
25	0xbefa2c74	-0.4886204
26	0x3f1fa8c8	0.62366915
27	0x3f327051	0.6970263
28	0x3ca7dff2	0.020492528
29	0xbf547868	-0.82996225
30	0x3f547649	0.8299299
31	0x3f0e8cca	0.5568358
32	0xbf113041	-0.56714255
33	0xbdb56ccd	-0.08858643
34	0x3e788026	0.24267635
35	0xbef71167	-0.48255464
36	0xbda00321	-0.07813097
37	0xbe4a2382	-0.19740108
38	0xbec5c987	-0.38630316
39	0xbbe9a83b	-0.0071306503

encoder.4.block.2.running_var f4 [40]
0	0x3ec7c83a	0.39019948
1	0x3f748bd8	0.95525885
2	0x3f490918	0.785295
3	0x3eda2f48	0.42614198
4	0x3eab1783	0.33416376
5	0x3ecbfe3a	0.39842397
6	0x3ef3bfdd	0.47607318
7	0x3e1b8241	0.15186407
8	0x3e7cc8d3	0.24685983
9	0x3efe6241	0.49684337
10	0x3f0d6c2c	0.5524318
11	0x3ef58f00	0.47960663
12	0x3ea1064f	0.31450126
13	0x3e9b0c5c	0.30282867
14	0x3f272c57	0.6530203
15	0x3f0623d2	0.5239841
16	0x3ec40875	0.38287702
17	0x3e462aa0	0.19352198
18	0x3f0da2f2	0.5532676
19	0x3e5dfca7	0.2167841
20	0x3def52cd	0.11685715
21	0x3f6dee46	0.929417
22	0x3d966399	0.073432155
23	0x3ef42ef4	0.47692072
24	0x3ed3091b	0.41217884
25	0x3ed0366c	0.4066652
26	0x3f0613a8	0.52373743
27	0x3f2a8f3d	0.66624814
28	0x3db83950	0.089953065
29	0x3f68df4c	0.90965724
30	0x3f2217df	0.63317674
31	0x3f823312	1.0171835
32	0x3f412cdf	0.7545909
33	0x3ecd3c5f	0.40085122
34	0x3ee38cdb	0.44443402
35	0x3f00764e	0.5018052
36	0x3e7e9406	0.24861154
37	0x3e2c6a61	0.16837455
38	0x3e183590	0.14864182
39	0x3e3ba00b	0.1832277

encoder.4.block.4.weight f4 [40, 40, 1, 1]
0	0x3d3a6e5f	0.045515414
1	0x3e2d69e7	0.1693493
2	0x3e89dcc0	0.2692623
3	0x3e14f980	0.14548302
4	0xbcf57924	-0.02996499
5	0x3c52d88c	0.012869012
6	0x3c078f99	0.008273982
7	0x3d3ec213	0.046571802
8	0xbd1a7917	-0.037713137
9	0x3de37556	0.111063644
10	0xbe5e07fc	-0.21682733
11	0xbe57b24a	-0.21064106
12	0xbe586c4f	-0.21135066
13	0xbe3cc4e9	-0.1843449
14	0xbe4b6e30	-0.19866252
15	0xbd9a4173	-0.07532015
16	0x3dc7e1bd	0.09759853
17	0xbbb86f46	-0.005628499
18	0xbe0005fd	-0.12502284
19	0xbd08fef5	-0.03344627
20	0x3e178d48	0.14799988
21	0x3e48a658	0.19594705
22	0x3b7476cd	0.0037302256
23	0x3e69eacb	0.22843473
24	0x3e437311	0.19086863
25	0x3d51e673	0.051245164
26	0xbe96450c	-0.29349554
27	0xbe7ccebb	-0.24688236
28	0xbe9d5469	-0.30728462
29	0xbdf82eeb	-0.12118324
30	0xbf08748f	-0.53302854
31	0xbc285a4d	-0.010275436
32	0xbc5273d2	-0.0128449965
33	0xbe82f46c	-0.25577104
34	0x3d8ecad8	0.06972283
35	0x3d1f1b90	0.038844645
36	0x3d83a88b	0.064286314
37	0xbda42a46	-0.080158755
38	0x3ea411ff	0.3204498
39	0x3db52847	0.08845573
40	0x3df697e0	0.120406866
41	0xbdcd3b9f	-0.100211374
42	0x3ef04ceb	0.46933684
43	0xbe23daf4	-0.16001493
44	0x3d3a5593	0.045491766
45	0x3d6eb6f3	0.058279943
46	0x3a4253ca	0.0007412998
47	0x3d2fda64	0.042932883
48	0x3e014137	0.12622534
49	0xbcab70ba	-0.020927776
50	0xbd528a57	-0.051401462
51	0x3e63e83e	0.22256562
52	0x3da3609f	0.079774134
53	0x3e244038	0.16040123
54	0x3e8ddc29	0.2770703
55	0xbe4111cb	-0.18854444
56	0xbded9853	-0.11601319
57	0x3df7d06c	0.121003
58	0xbd8848c3	-0.06654503
59	0x3cb718ae	0.022350635
60	0xbdbf29f3	-0.09334173
61	0xbe79ab62	-0.24381784
62	0x3c86f45d	0.016473943
63	0xbd7f0850	-0.062263787
64	0xbca26601	-0.01982403
65	0xbbbd20c0	-0.0057717264
66	0xbc1f2ae3	-0.009714815
67	0x3d79aa37	0.060953345
68	0xbc69167c	-0.014226552
69	0xbdd87867	-0.1056984
70	0x3dd918a7	0.10600405
71	0x3da9bee4	0.082883626
72	0x3d30d052	0.04316742
73	0x3ec44de5	0.3834068
74	0x3e191626	0.14949855
75	0xbe0dfb55	-0.13865407
76	0xbda27779	-0.07932944
77	0x3df1212c	0.11773905
78	0xbebc6b23	-0.3680049
79	0xbd27bf72	-0.04095406
80	0xbe155cee	-0.14586231
81	0x3e2a0daa	0.16606775
82	0x3d862782	0.06550504
83	0xbe861b5c	-0.2619275
84	0xbd68cf8c	-0.056838557
85	0xbe03e7a9	-0.1288134
86	0xbdef4110	-0.116823316
87	0xbdd06067	-0.10174637
88	0x3b6fc975	0.0036588584
89	0xbdeac44b	-0.11463221
90	0x3d16441d	0.03668605
91	0xbe7e7929	-0.24850906
92	0x3d31297c	0.043252453
93	0xbd82aa98	-0.063801944
94	0xbe1f9203	-0.15583043
95	0x3cacafdf	0.021079956
96	0x3d450a1e	0.04810535
97	0x3d1e4ae3	0.038645636
98	0xbe10998a	-0.1412107
99	0xbe318c16	-0.17338595
100	0xbd9464ab	-0.072457634
101	0x3dc4ee1d	0.09615729
102	0x3d2f3dc4	0.042783514
103	0x3db20b04	0.08693507
104	0xbe5538e7	-0.20822488
105	0x3d1e253a	0.03860972
106	0xbe24e55f	-0.16103123
107	0x3dbd5e96	0.092465565
108	0xbe127b5c	-0.1430487
109	0x3e34a7c0	0.17642117
110	0xbdee5e43	-0.11639073
111	0xbea356d7	-0.3190219
112	0xbe01e501	-0.12685014
113	0xbe89f2e5	-0.26943126
114	0xbbf5bbce	-0.0074991947
115	0x3e2f60f5	0.1712683
116	0x3d019638	0.0316374
117	0x3c92b04e	0.017906334
118	0x3f078592	0.5293819
119	0xbd180915	-0.037118036
120	0xbcbb7f34	-0.022887804
121	0x3e913335	0.2835938
122	0x3e22de85	0.15905197
123	0xbd4e0a9f	-0.050303098
124	0xbe31df38	-0.17370307
125	0x3d6870fe	0.056748383
126	0xbe2bf281	-0.16791727
127	0xbec40ea0	-0.38292408
128	0xbf04bef0	-0.5185385
129	0xbd7cbbb1	-0.061702434
130	0x3de8d4b0	0.11368692
131	0xbea8dfee	-0.32983345
132	0xbd9e16f8	-0.07719225
133	0xbe0d2510	-0.1378367
134	0xbd8d7add	-0.069082
135	0xbe6c406a	-0.23071447
136	0xbca1c935	-0.019749263
137	0x3d866561	0.06562305
138	0xbe7d3b4f	-0.24729656
139	0x3dfe5f3e	0.1242051
140	0x3e63c16b	0.22241752
141	0x3e35627a	0.17713347
142	0x3c1ed23b	0.009693678
143	0x3e18bf7b	0.14916794
144	0xbe64735c	-0.22309631
145	0x3a86bc9f	0.0010279602
146	0xbd940ea8	-0.07229358
147	0x3b71cf0b	0.003689709
148	0x3e386774	0.18008214
149	0x3b33d3ec	0.0027439548
150	0xbd6a441b	-0.057193857
151	0x3d4c7fb9	0.049926493
152	0x3dbe1dd8	0.09283036
153	0xbdd4329b	-0.10361215
154	0xbdeabccd	-0.11461792
155	0x3e5aee8f	0.21380065
156	0x3dc0ec63	0.09420087
157	0xbd77573a	-0.06038592
158	0x3eb15409	0.34634426
159	0xbd257da6	-0.04040303
160	0xbdcee6b5	-0.101025976
161	0xbe465f80	-0.19372368
162	0xbd4b15fd	-0.049581517
163	0xbb9f461a	-0.0048606517
164	0xbd2837c6	-0.041068815
165	0xbe94ca6c	-0.29060686
166	0x3e812c4f	0.25229117
167	0xbe4c231a	-0.19935265
168	0xbdc2ca6a	-0.09511264
169	0x3d5d4b26	0.054026745
170	0x3cd2531f	0.0256744
171	0x3debe26b	0.11517795
172	0x3e84b164	0.25916588
173	0x3eb80464	0.3594085
174	0x3e27fc82	0.16404918
175	0xbccf50ba	-0.025307048
176	0xbdc396b5	-0.095502295
177	0x3d27da7b	0.040979844
178	0x3daa4eba	0.08315797
179	0x3e24b1f6	0.16083512
180	0x3e3195c5	0.17342289
181	0x3cd80765	0.026370713
182	0xbe8b73f1	-0.27236894
183	0x3da8a427	0.082344346
184	0xbcf3babf	-0.029752133
185	0xbe6caf82	-0.23113826
186	0xbe110462	-0.14161828
187	0x3e145573	0.14485721
188	0x3df4122d	0.11917529
189	0xbdedecdd	-0.11617444
190	0x3e1c1bcf	0.15244983
191	0xbe6681db	-0.22510473
192	0xbe1c412d	-0.15259238
193	0x3e067605	0.13130958
194	0x3e330339	0.17481698
195	0xbd5518b8	-0.052025527
196	0xbdedff9a	-0.11621018
197	0xbe22d62f	-0.15902017
198	0xbe4c7dc6	-0.19969854
199	0x3de7fb08	0.11327177
200	0x3d8409e3	0.06447198
201	0xbd80808e	-0.0627452
202	0x3d1f220f	0.03885084
203	0xbd291c25	-0.041286606
204	0xbd9f6e99	-0.07784767
205	0xbede56a5	-0.4342548
206	0xbe94b515	-0.29044405
207	0x3d836828	0.064163506
208	0xbe126fa9	-0.14300407
209	0xbd3d23d0	-0.04617673
210	0x3dc1611b	0.094423495
211	0xbe2edc38	-0.17076194
212	0xbec32c0f	-0.38119552
213	0x3bc6ac4e	0.006063021
214	0x3d326ccb	0.043560784
215	0xb9b920f7	-0.0003531051
216	0xbda9d9d2	-0.08293499
217	0x3ddd4985	0.10805038
218	0xbd987e8f	-0.07446014
219	0xbe81f42b	-0.25381598
220	0xbcb50862	-0.022098724
221	0xbbad2957	-0.005284469
222	0x3e1e9b19	0.15488853
223	0x3cfe9a86	0.031079542
224	0xbc5ad7b2	-0.01335709
225	0x3de9ebfd	0.11421964
226	0x3dc3bd5f	0.09557604
227	0x3e3cb9c3	0.18430237
228	0xbe1a6127	-0.15076123
229	0x3b3da3a1	0.0028936642
230	0xbe27f752	-0.16402939
231	0x3ec44dca	0.38340598
232	0x3df554da	0.11979075
233	0x3e79745b	0.24360792
234	0xbe3d59f9	-0.18491353
235	0x3d192e40	0.037397623
236	0x3db40aa0	0.08791089
237	0xbcee3a94	-0.029080667
238	0x3e961480	0.29312515
239	0xbe0f7082	-0.14007762
240	0xbe2634e1	-0.16231109
241	0xbe04b7b7	-0.12960707
242	0xbe8ed0d9	-0.27893713
243	0x3cd0689c	0.025440507
244	0x3d0fc893	0.03510339
245	0xbe4df796	-0.20113978
246	0x3e235f4e	0.15954325
247	0x3d543b77	0.051814523
248	0x3e72c87a	0.23709288
249	0x3d0854f4	0.033284143
250	0xbf0cdb7a	-0.55022395
251	0xbe5c32a3	-0.21503691
252	0xbe3d60f1	-0.18494011
253	0xbd99fcd6	-0.07518928
254	0xbdc8d6c4	-0.09806588
255	0xbd6d89e7	-0.057992842

encoder.4.block.4.bias f4 [40]
0	0xbc07876e	-0.008272035
1	0x3b082dde	0.0020779292
2	0xbba9e1ce	-0.0051843887
3	0xbae3f10f	-0.0017390567
4	0xba2ebd9c	-0.0006665827
5	0x39989067	0.00029099287
6	0xbc3f1250	-0.011662081
7	0xbc186006	-0.0093002375
8	0x398c637c	0.00026777002
9	0xb918a4ff	-0.00014557315
10	0xbb147ff8	-0.0022659283
11	0xbb87388a	-0.004126613
12	0xbb960907	-0.004578713
13	0x3aa92e25	0.0012907429
14	0xbbd7e03d	-0.0065880106
15	0x3a1f7350	0.00060825516
16	0xbbcdb33d	-0.0062774704
17	0x39c9a24b	0.00038458625
18	0x3b2ff772	0.002685037
19	0x3c226f51	0.009914235
20	0x3bee4049	0.007270847
21	0xbb9fb8bd	-0.0048743174
22	0x3b79abf7	0.0038096884
23	0xba8aff63	-0.0010604676
24	0xbbba9dd8	-0.005695086
25	0xbb8badf1	-0.004262679
26	0xbb660214	-0.0035096454
27	0x3917b346	0.00014467267
28	0xbbadd3ef	-0.0053048055
29	0xbbfbad70	-0.0076805875
30	0x3ad5b631	0.0016304908
31	0x3bb4eda4	0.005521493
32	0xbb281a36	-0.0025650389
33	0xbb4673e0	-0.003028147
34	0xbc0382a2	-0.008026751
35	0xbb89a863	-0.0042009815
36	0xbbc20e4f	-0.005922116
37	0xbbd49a61	-0.00648813
38	0x3afb1084	0.0019154702
39	0xbb056a94	-0.0020357715

encoder.4.block.5.weight f4 [40]
0	0x3f3a430d	0.7275856
1	0x3f0f0bce	0.5587739
2	0x3f3a6777	0.72814125
3	0x3f0df1e4	0.5544722
4	0x3f4b7fba	0.7949177
5	0x3f10e6c7	0.5660214
6	0x3f7249f2	0.9464408
7	0x3f055b0c	0.5209205
8	0x3f410f86	0.7541431
9	0x3f1ba53d	0.6079901
10	0x3f5d5eae	0.86472595
11	0x3f52c80b	0.8233649
12	0x3f34e529	0.7066217
13	0x3f2b675e	0.669546
14	0x3f0ce727	0.5504021
15	0x3fa9d70d	1.3268753
16	0x3f061b73	0.52385634
17	0x3f65ef58	0.89818335
18	0x3f7638e6	0.9618057
19	0x3ef9e740	0.48809242
20	0x3eab03de	0.33401388
21	0x3f6a7d46	0.915974
22	0x3f7b83fd	0.98248273
23	0x3f2d2d58	0.67647314
24	0x3f127b0c	0.57219005
25	0x3f01761d	0.5057085
26	0x3f5d7cd3	0.8651859
27	0x3f72a2b7	0.94779533
28	0x3f257d7e	0.6464461
29	0x3f2adc99	0.66742855
30	0x3f4fff52	0.8124896
31	0x3ef48a67	0.47761843
32	0x3f077406	0.5291141
33	0x3f3e39e0	0.7430706
34	0x3f5adf28	0.8549676
35	0x3f4c86ae	0.79893005
36	0x3f55f897	0.83582443
37	0x3f1d9a40	0.6156349
38	0x3efbc9e3	0.49177465
39	0x3f11ccdd	0.5695322

encoder.4.block.5.bias f4 [40]
0	0xbeec5207	-0.46156332
1	0x3c803197	0.015648646
2	0xbe95abc7	-0.29232618
3	0xbe69c1ac	-0.22827786
4	0x3d345117	0.044022646
5	0xbe73b8c5	-0.23800953
6	0xbe65e9ad	-0.22452421
7	0xbea06461	-0.31326583
8	0x3e07c1e2	0.13257554
9	0xbeaa8077	-0.33301136
10	0x3d72710a	0.059189834
11	0xbe49bd5a	-0.19701138
12	0xbecae7ba	-0.39629918
13	0xbcd05ca7	-0.025434805
14	0xbde91198	-0.11380309
15	0xbe7ee5ac	-0.248923
16	0xbe9344a9	-0.2876332
17	0xbc2204bf	-0.009888827
18	0x3e1d5c93	0.15367346
19	0xbe136146	-0.14392576
20	0xbe4089c3	-0.18802552
21	0x3d14115e	0.036149375
22	0x3d220e8e	0.03956466
23	0xbe1f8811	-0.15579249
24	0xbea7fa94	-0.32808363
25	0xbda2a31f	-0.07941269
26	0x3d4dc04a	0.05023221
27	0x3da5847c	0.0808191
28	0xbe12a252	-0.14319733
29	0xbdde07a4	-0.10841301
30	0xbe8aa145	-0.27076164
31	0xbe2247c8	-0.15847695
32	0xbe19831e	-0.14991423
33	0xbe88669e	-0.2664079
34	0xbdc21077	-0.09475797
35	0xbe971dab	-0.29514822
36	0xbe90a53d	-0.28251067
37	0x3b106da1	0.0022038
38	0xbda633ea	-0.081153706
39	0xbe3edffe	-0.18640134

encoder.4.block.5.running_mean f4 [40]
0	0xbf17f067	-0.593512
1	0x3ef200f8	0.47266364
2	0xbf6a9193	-0.9162838
3	0xbee0bdae	-0.43894714
4	0x3c946aab	0.01811727
5	0xbeada54d	-0.33915177
6	0xbf653a91	-0.8954249
7	0xbe8358bb	-0.25653633
8	0xbd24428f	-0.040102538
9	0xbf291bcb	-0.66058034
10	0x3f16be03	0.58883685
11	0x3e3e067b	0.1855716
12	0x3dfe9cee	0.12432276
13	0x3f23b60f	0.63949674
14	0xbf54350c	-0.82893443
15	0xbe3f0acd	-0.18656464
16	0xbe32a722	-0.17446569
17	0x3eb9c00d	0.36279336
18	0x3f8c62b2	1.096762
19	0x3f1c502e	0.61059844
20	0xbe841531	-0.25797418
21	0x3ee12a16	0.43977422
22	0x3ebe27a9	0.37139633
23	0xbe35bfc7	-0.17748939
24	0x3d0bd4fc	0.034138665
25	0xbedd8ad1	-0.4326997
26	0x3f0357b7	0.5130572
27	0x3f00e7b2	0.5035354
28	0xbec1f7c6	-0.3788435
29	0xbf44556d	-0.7669285
30	0xbf65a2be	-0.8970145
31	0xbe656b7f	-0.22404288
32	0xbbd6f75d	-0.0065602497
33	0xbefd7f56	-0.49511212
34	0xbec02d17	-0.375344
35	0xbf0735f3	-0.52816695
36	0xbf1890a8	-0.5959573
37	0xbebbd91c	-0.3668908
38	0xbd59efc5	-0.053207178
39	0xbec45b8b	-0.38351092

encoder.4.block.5.running_var f4 [40]
0	0x40af2a7e	5.473937
1	0x4054b588	3.3235798
2	0x40694ec9	3.6454337
3	0x40844020	4.1328278
4	0x3faf89eb	1.3713964
5	0x3f0f94ea	0.560866
6	0x4011c3f7	2.2775857
7	0x40b9845b	5.7974067
8	0x3f94b83a	1.1618721
9	0x3fce8856	1.6135356
10	0x4026abe0	2.6042404
11	0x3fdf1c2e	1.7430475
12	0x3f2f727b	0.6853406
13	0x402f2df0	2.7371788
14	0x4099e82c	4.8095913
15	0x3f3cbb45	0.7372325
16	0x3f6fdfd6	0.9370092
17	0x3fe4a388	1.7862406
18	0x4059d1f8	3.4034405
19	0x3f644279	0.8916393
20	0x3fe192f7	1.7622975
21	0x40a272d9	5.0765195
22	0x3f405604	0.7513125
23	0x40802f41	4.0057683
24	0x4096de26	4.7146177
25	0x3ed4293d	0.41437712
26	0x404c1aad	3.1891282
27	0x40d27bfe	6.577636
28	0x3fb5f17c	1.421432
29	0x3f8074b8	1.003562
30	0x4097b387	4.740665
31	0x40c3e16d	6.121268
32	0x3fbe2e41	1.4857866
33	0x3fb7a48e	1.4347093
34	0x409bdb46	4.870517
35	0x3fe92201	1.8213502
36	0x3fb34fc4	1.4008718
37	0x3f74679d	0.954706
38	0x4032b0c5	2.7920392
39	0x3fac279f	1.3449591
