VQ-VAE/models/vqvae/model_24.pt (torch, 579012 bytes, 64 tensors)

encoder.0.weight f4 [40, 1, 4, 4]
0	0x3d19208e	0.037384562
1	0x3cba0cd9	0.022711204
2	0xbd77bcce	-0.060482793
3	0xbd9d69ee	-0.0768622
4	0xbdaeab38	-0.08528751
5	0xbd5783c8	-0.05261591
6	0xbd582768	-0.052771956
7	0xbd98bfbd	-0.07458446
8	0xbdb19feb	-0.0867308
9	0xbd029a76	-0.031885587
10	0xbe01e896	-0.1268638
11	0x3d247884	0.040153995
12	0xbcad97a9	-0.021190481
13	0xbda333ea	-0.07968886
14	0x3baf8d69	0.0053574336
15	0x3d519ac6	0.051172994
16	0x3d2549c2	0.040353544
17	0x3d9f1720	0.077680826
18	0xbd76582c	-0.06014268
19	0x3d532155	0.05154546
20	0x3e0382e7	0.12842904
21	0x3e013a78	0.1261996
22	0xbce420a8	-0.027847603
23	0x3d24cd9c	0.040235147
24	0x3d9904a6	0.0747159
25	0x3dae6231	0.08514822
26	0xbda590d7	-0.08084267
27	0xbca6e109	-0.020370977
28	0x3d871163	0.06595113
29	0x3d6e24d0	0.058140576
30	0xbc785f57	-0.01515945
31	0x3daa500c	0.08316049
32	0x3d928106	0.071535155
33	0x3d9d92e0	0.0769403
34	0x3d9af6b1	0.07566584
35	0x3d8d334e	0.06894551
36	0x3d123bda	0.03570161
37	0x3c7c6eeb	0.015407304
38	0x3c308745	0.010774438
39	0x3d9bb76a	0.07603343
40	0x3dc9b541	0.098490246
41	0x3d9510f8	0.07278627
42	0x3ce4cc7e	0.02792954
43	0x3d4fd379	0.050738785
44	0x3d5b0571	0.053471986
45	0x3d0fa856	0.035072647
46	0x3c88462d	0.016635025
47	0xba300843	-0.0006715098
48	0x3c9a68c2	0.01884878
49	0x3ddc9a12	0.10771574
50	0x3dabf1ff	0.083957665
51	0x3cde3861	0.027126493
52	0x3dc16026	0.09442167
53	0x3d5e2749	0.054236684
54	0xbd05a372	-0.032626577
55	0xbd8e61b1	-0.06952227
56	0x3de678b6	0.112534925
57	0xbbae7b5c	-0.005324764
58	0xbc961a67	-0.018323136
59	0xbc86fca3	-0.016477888
60	0x3d9d09bf	0.076678745
61	0x3d4cfbbe	0.050044768
62	0x3cdf8e18	0.027289435
63	0x3d200875	0.039070565
64	0x3c890a73	0.016728615
65	0xbaf0b139	-0.0018363363
66	0x3c8b4ea4	0.017005272
67	0x3d4076cb	0.04698829
68	0xbaa97dad	-0.0012931131
69	0xbc68346d	-0.0141726555
70	0x3dc80db4	0.09768239
71	0xbc51a1f0	-0.012794957
72	0xbd1e9ddd	-0.03872477
73	0xbd490c0b	-0.04908375
74	0x3d4c9d36	0.049954616
75	0x3da4262c	0.08015093
76	0x3d8809c5	0.066424884
77	0xbd710da0	-0.058850884
78	0x3d41c4d0	0.047306836
79	0x3e0cd247	0.1375209
80	0xbdb64ff4	-0.089019686
81	0xbc057fe2	-0.008148165
82	0xbd7fdcb0	-0.062466323
83	0xba6fcc91	-0.0009147609
84	0xbda9b55c	-0.08286545
85	0xbd24a156	-0.040192924
86	0xbdfed339	-0.12442631
87	0x3c866eca	0.01641025
88	0xbda22265	-0.079167165
89	0xbd407315	-0.04698475
90	0xbdb198c4	-0.08671716
91	0x3d94b449	0.07260949
92	0xbda9abd1	-0.082847245
93	0xbd4bf581	-0.049794678
94	0x3d77ba33	0.060480308
95	0xbc9b4f88	-0.018958822
96	0x3bfcae79	0.0077112284
97	0x3da279c3	0.079333805
98	0xbd3ec3eb	-0.04657356
99	0x3b16eb44	0.0023028413
100	0x3d80f556	0.06296794
101	0xbbff89e0	-0.0077984184
102	0xbd85ca42	-0.06532718
103	0xbd88d8d7	-0.06681984
104	0x3d5ddc87	0.05416539
105	0xbd951446	-0.072792575
106	0xbd656313	-0.056002688
107	0xbc866a15	-0.016408006
108	0xbd545a12	-0.05184371
109	0xbd7d6019	-0.061859224
110	0xbcd4b978	-0.025967345
111	0xbd409b7c	-0.04702328
112	0xbc21a517	-0.009866021
113	0xbcfb8c16	-0.030706447
114	0xbdceca74	-0.100972086
115	0xbd811776	-0.06303303
116	0xbd2388c4	-0.03992535
117	0xbc35559c	-0.011067774
118	0xbdc40a76	-0.09572308
119	0x3c8d2347	0.017228736
120	0xbe0703d7	-0.13185059
121	0xbd8b0579	-0.06788153
122	0xbb71d4eb	-0.003690059
123	0xbd4f9cb3	-0.05068655
124	0xbcb37d5a	-0.021910358
125	0x3d719903	0.058983814
126	0xbdb03cd2	-0.086053506
127	0xbc8ee400	-0.017442703
128	0xbcdec023	-0.027191227
129	0xbc824037	-0.01589976
130	0x3a789290	0.0009482289
131	0x3cc3c7c6	0.02389897
132	0xbd40d2dd	-0.047076095
133	0x3d1582aa	0.036501564
134	0x3d9ea382	0.077460304
135	0x3cb18eed	0.021674598
136	0x3d92e1b6	0.07171957
137	0x3dfcc8b8	0.123429716
138	0xbd369c18	-0.044582456
139	0xbc2afed1	-0.0104367295
140	0x3e05b350	0.13056684
141	0x3d8e0fbf	0.06936597
142	0x3af9be71	0.0019053948
143	0x3d6aa414	0.057285383
144	0x3d240c30	0.040050685
145	0x3ce0f50b	0.027460596
146	0x3d420ed7	0.047377434
147	0x3d218b63	0.03943957
148	0xbd7e4cff	-0.062085148
149	0xbd84df49	-0.06487901
150	0xbdd55897	-0.10417288
151	0x3c880d57	0.016607923
152	0xbdfdd7cc	-0.123946756
153	0xbdbb80eb	-0.091554485
154	0xbd49dff6	-0.04928585
155	0xbc23eae4	-0.010004733
156	0xbc3a0c18	-0.011355422
157	0x3db511b8	0.0884127
158	0x3c946c8d	0.018118167
159	0x3daffdcf	0.08593332
160	0x3d75b462	0.05998648
161	0x3d1e4033	0.038635444
162	0xbd532107	-0.05154517
163	0xbd86f5c6	-0.06589846
164	0x3d8ca49b	0.068673335
165	0x3c562178	0.013069503
166	0xbd1e06de	-0.038580768
167	0xbd36731c	-0.04454337
168	0x3d2c69fd	0.042093266
169	0x3d0f040f	0.03491598
170	0xbd172a52	-0.036905594
171	0xbd835aac	-0.06413779
172	0x3d7204b9	0.059086535
173	0x3d98aa2a	0.07454331
174	0xbd4fc440	-0.050724268
175	0xbd86fc08	-0.0659104
176	0xbd8f37be	-0.06993054
177	0xbc55659c	-0.013024714
178	0x3c2b3509	0.010449656
179	0xba358fbb	-0.00069260196
180	0x3c9c6c74	0.019094683
181	0xbbc6c7bf	-0.006066292
182	0xbd06d872	-0.032921262
183	0xbd83faf2	-0.064443484
184	0xbcc7dee9	-0.024398284
185	0xbe1810f8	-0.14850223
186	0xbe083bb5	-0.13304026
187	0xbd8ba941	-0.06819392
188	0xbc6f0248	-0.014587946
189	0xbd6954e0	-0.05696571
190	0x3ce80532	0.02832279
191	0xbd41db0d	-0.047328044
192	0x3c815d86	0.015791666
193	0x3d5f96a1	0.05458701
194	0x3d621f19	0.05520544
195	0xbd15da48	-0.036585122
196	0x3cc078fe	0.023495194
197	0xbda0d478	-0.07853025
198	0xbd42a0f1	-0.047516767
199	0xbdafba75	-0.08580486
200	0xbd4f2069	-0.050568018
201	0xbd89e984	-0.06733993
202	0xbc43a34a	-0.011940787
203	0xbd9165ae	-0.07099472
204	0xbd86e2d6	-0.06586234
205	0xbd340403	-0.04394914
206	0xbd814dba	-0.06313653
207	0xbde0557e	-0.10953806
208	0xbdae6934	-0.0851616
209	0xbd40cb2c	-0.04706876
210	0xbc7abed7	-0.015304289
211	0x3cb934e3	0.022608226
212	0xbd70e445	-0.058811445
213	0xbda12e49	-0.07870156
214	0xbd8c7a96	-0.06859319
215	0xbd8de90e	-0.06929217
216	0x3d7aa174	0.06118913
217	0xbd37a15b	-0.044831615
218	0xbd8ab86d	-0.06773458
219	0xbd7f652a	-0.062352337
220	0x3d650993	0.055917334
221	0x3d4d887f	0.050179
222	0xbb373403	-0.0027954585
223	0xbd0a629f	-0.03378546
224	0x3cb52b2e	0.022115316
225	0x3c2011d0	0.009769872
226	0xbbcf61f3	-0.006328815
227	0x3c329c03	0.010901454
228	0x3cce77a8	0.02520354
229	0xbd5c9a86	-0.053858303
230	0x3bc09207	0.005876783
231	0x3cf3f6c2	0.02978075
232	0x3d49563a	0.049154498
233	0x3d8978e5	0.06712512
234	0x3e1493ad	0.14509459
235	0x3dcb87f3	0.0993804
236	0x3d06b3a3	0.03288616
237	0x3d9c08bf	0.07618856
238	0x3dbd1fc3	0.09234574
239	0x3d532f19	0.051558588
240	0x3cb94ec1	0.02262056
241	0xbdad099b	-0.08449098
242	0xbc2c2898	-0.010507725
243	0xbcb2510d	-0.021767164
244	0xbd34d970	-0.044152677
245	0xbd5f1ece	-0.054472737
246	0xbd8b2a00	-0.0679512
247	0xbd370330	-0.044680774
248	0xbda1233f	-0.07868051
249	0xbd29f553	-0.041493725
250	0xbc2138ac	-0.009840172
251	0xbd8a3b8f	-0.06749641
252	0x3aae46c1	0.0013296233
253	0xbd35b246	-0.044359468
254	0xbd7845cd	-0.060613442
255	0x3c51531d	0.012776163

encoder.0.bias f4 [40]
0	0xbac2a2a1	-0.0014849493
1	0xbabb8e0a	-0.0014309299
2	0xbb4884e0	-0.0030596778
3	0xbb15b1af	-0.0022841503
4	0xbb487046	-0.0030584498
5	0x392e69d3	0.00016633356
6	0x3b115290	0.0022174455
7	0x3a3bb094	0.0007159796
8	0xbabf623c	-0.001460142
9	0x3b91b703	0.0044468655
10	0x3aee5e42	0.001818605
11	0xba09a76f	-0.0005251085
12	0xbb22bef3	-0.0024833053
13	0x3a29bfa1	0.00064753933
14	0xb9c2cb6a	-0.0003715412
15	0x3b088ca6	0.0020835786
16	0xb9f56ea4	-0.00046812475
17	0xbad4c6ad	-0.0016233526
18	0x3a5cf659	0.00084290426
19	0x39625c64	0.00021587458
20	0xbb989be3	-0.004657255
21	0xba417b77	-0.00073807634
22	0xbaeab2da	-0.0017906085
23	0xbb611b40	-0.0034348518
24	0x3aa0c7bd	0.0012266558
25	0xba5017de	-0.0007938127
26	0x3aa3cd69	0.001249713
27	0xba14f18f	-0.0005681747
28	0x3951725c	0.00019974395
29	0x3ab0676e	0.0013458559
30	0x3b51da27	0.0032020898
31	0x3b8d4ee4	0.004312383
32	0x385d634d	5.2782987e-05
33	0xbb6d3379	-0.003619401
34	0x3b5fd98b	0.0034156765
35	0x3955ad82	0.000203779
36	0xba2cea81	-0.0006596223
37	0xbb586782	-0.003302068
38	0xbaabedf3	-0.0013117179
39	0xbad9985f	-0.0016601196

encoder.1.weight f4 [40]
0	0x3f66376f	0.89928335
1	0x3f55ee87	0.8356709
2	0x3f64d79c	0.89391494
3	0x3f4a74d1	0.790845
4	0x3f4b4ac1	0.7941094
5	0x3f784931	0.9698668
6	0x3f58b7c4	0.84655404
7	0x3f51caa3	0.81949824
8	0x3f584726	0.84483564
9	0x3f5368f9	0.8258205
10	0x3f6447aa	0.8917185
11	0x3f5b19f9	0.85586506
12	0x3f722088	0.9458089
13	0x3f58f6fd	0.84751874
14	0x3f5881b6	0.84572923
15	0x3f7f3fca	0.9970671
16	0x3f5d7719	0.86509854
17	0x3f70a4b3	0.9400131
18	0x3f58ae8d	0.84641343
19	0x3f75e0f5	0.9604638
20	0x3f52b9b7	0.8231463
21	0x3f5fb7f8	0.8739009
22	0x3f4ebc21	0.8075581
23	0x3f57fc27	0.8436913
24	0x3f3e2619	0.7427688
25	0x3f609b75	0.8773721
26	0x3f5205f6	0.82040346
27	0x3f47977f	0.7796554
28	0x3f4fd2ad	0.8118084
29	0x3f6696b1	0.90073687
30	0x3f67d002	0.9055177
31	0x3f5b82ec	0.85746646
32	0x3f678780	0.9044113
33	0x3f5e794e	0.86903846
34	0x3f6cc21f	0.92483705
35	0x3f4e3873	0.80554885
36	0x3f753727	0.9578728
37	0x3f80f549	1.0074855
38	0x3f80f9d8	1.0076246
39	0x3f588d9d	0.84591085

encoder.1.bias f4 [40]
0	0xbced8a37	-0.02899657
1	0xbd1350eb	-0.03596584
2	0x3d39119a	0.0451828
3	0x3d399263	0.04530562
4	0xbcadda88	-0.021222368
5	0xbdafb4a2	-0.08579375
6	0xbdcc40e0	-0.099733114
7	0xbda45092	-0.0802318
8	0x3d00ceac	0.031447098
9	0x3d849f10	0.06475651
10	0xbd1ab4ab	-0.037769955
11	0xbd828c36	-0.06374399
12	0xbe0593cc	-0.13044661
13	0xbda4353f	-0.080179684
14	0x3decbe06	0.115596816
15	0xbd5cfcfe	-0.05395221
16	0xbc3451e3	-0.011005851
17	0xbda58889	-0.08082683
18	0xbdb2b0e1	-0.08725143
19	0xbda73e57	-0.08166187
20	0xbd0d64a0	-0.03451979
21	0xbd36cbb6	-0.044627868
22	0x3e5909ec	0.21195191
23	0xbd576722	-0.05258859
24	0x3e11dace	0.14243624
25	0xbd13a565	-0.036046404
26	0x3e5ae4ef	0.21376394
27	0x3e29f2b5	0.16596492
28	0xbd8e132b	-0.0693725
29	0x3c0f2c4a	0.008738587
30	0xbd4e588c	-0.050377414
31	0xbdf54090	-0.11975205
32	0xbdcc9dff	-0.09991073
33	0x3e4c403f	0.19946383
34	0xbcfa1f6b	-0.03053256
35	0xbd9d8e4c	-0.076931566
36	0xbdd2c079	-0.102906175
37	0xbe27955a	-0.16365567
38	0xbe0d5e8a	-0.13805595
39	0xbd1b0d56	-0.037854515

encoder.1.running_mean f4 [40]
0	0x3ed67a05	0.4188997
1	0xbed6756c	-0.4188646
2	0xbf085b08	-0.532639
3	0xbebab69c	-0.36467445
4	0xbe80c6b3	-0.25151595
5	0x3edd17c4	0.43182194
6	0x3e63ff19	0.22265281
7	0x3ee6a81c	0.45050132
8	0xbea4dc0e	-0.32199138
9	0x3e10ac53	0.14128236
10	0x3caf8950	0.02142778
11	0x3edf4213	0.43605098
12	0x3eca40de	0.39502615
13	0x3ea30877	0.31842396
14	0xbee6b34c	-0.45058668
15	0x3ed66a47	0.41877958
16	0xbe9d47e1	-0.30718902
17	0x3f123c7a	0.5712353
18	0x3ee9723f	0.45594975
19	0x3ea5ebe2	0.32406527
20	0xbe84b1fd	-0.25917044
21	0x3e909e77	0.282459
22	0xbe607377	-0.21919046
23	0x3e9d2d64	0.30698693
24	0xbe07190a	-0.13193145
25	0x3e1cf348	0.1532718
26	0xbe546bcd	-0.20744248
27	0xbddbd80a	-0.107345656
28	0x3dfe71ca	0.12424047
29	0x3eac25e2	0.33622652
30	0x3e94b075	0.29040876
31	0x3e85cd64	0.26133263
32	0x3e82deb4	0.25560534
33	0xbe903538	-0.28165603
34	0x3e901b81	0.28145984
35	0xbe8385ce	-0.25688022
36	0x3eeb4b7f	0.45956036
37	0x3ec950c0	0.3931942
38	0x3edef289	0.43544415
39	0x3e36751b	0.1781811

encoder.1.running_var f4 [40]
0	0x3db9b7de	0.09068273
1	0x3da5a357	0.08087795
2	0x3de36cbe	0.11104725
3	0x3d94f9ff	0.072742455
4	0x3d116348	0.035495073
5	0x3dc8fe19	0.0981409
6	0x3d311412	0.04323203
7	0x3da9f774	0.08299151
8	0x3d7329b1	0.059365932
9	0x3d1503e6	0.03638067
10	0x3d190dd2	0.037366696
11	0x3da5c69a	0.08094521
12	0x3daffe9e	0.08593486
13	0x3d3e9ce2	0.046536334
14	0x3dc1ef3f	0.09469461
15	0x3d8fd8ba	0.07023759
16	0x3d7fe05f	0.062469836
17	0x3e1221ec	0.14270753
18	0x3dc27c5c	0.09496376
19	0x3d7300ee	0.05932706
20	0x3d0ccbe4	0.034374133
21	0x3d4c9406	0.049945854
22	0x3cbaa6c7	0.022784604
23	0x3d8380d2	0.06421055
24	0x3d0aed27	0.033917572
25	0x3d469cc1	0.048489336
26	0x3d183ba1	0.03716624
27	0x3d0d1087	0.03443959
28	0x3d17420b	0.036928218
29	0x3d7b339f	0.061328527
30	0x3d83de17	0.06438845
31	0x3d46fb96	0.048579775
32	0x3d206b1e	0.039164655
33	0x3d3735aa	0.044728912
34	0x3d04dfdc	0.03244005
35	0x3d618881	0.05506182
36	0x3dd7a78e	0.105300054
37	0x3d8fa52e	0.070139274
38	0x3d9c638a	0.07636173
39	0x3d001973	0.03127427

encoder.3.weight f4 [40, 40, 4, 4]
0	0xbc331b7f	-0.010931849
1	0xbc8f8629	-0.017520027
2	0xbba28e28	-0.004960794
3	0xbd1ee7f6	-0.038795434
4	0xbccb1ae9	-0.024793105
5	0xbd42eab8	-0.047587126
6	0xbd416229	-0.047212753
7	0x3ab963c9	0.0014144118
8	0x3c7ffd3c	0.015624341
9	0x3d863d87	0.06554704
10	0xbd3d8b8f	-0.04627567
11	0x3c365a95	0.011129995
12	0x3d44195d	0.04787575
13	0x3d2ea3ec	0.042636797
14	0x3c1a1e85	0.0094066905
15	0xb9df85a1	-0.00042633436
16	0xbc954ca3	-0.01822502
17	0xbbb15709	-0.0054119867
18	0x3d5982ec	0.053103372
19	0xbccd5b65	-0.025067994
20	0xbcaf9998	-0.021435544
21	0xbd0d5ad7	-0.03451046
22	0x3d17a5bf	0.037023302
23	0x3d695b85	0.056972045
24	0x3ceb6810	0.028736144
25	0x3c198f53	0.00937255
26	0x3a1b539b	0.0005925239
27	0x3d841e54	0.06451097
28	0x3b060d45	0.0020454687
29	0x3a056c9c	0.00050897314
30	0x3d6b6171	0.057465974
31	0xbc605000	-0.0136909485
32	0xbd0aa8e1	-0.03385246
33	0xbca4e5ba	-0.020129073
34	0xbc5c049e	-0.013428835
35	0xbcf6af0e	-0.03011277
36	0x3c3fea59	0.011713588
37	0xbd4ddb27	-0.050257828
38	0xbd56b18b	-0.052415412
39	0xbcbdd9a0	-0.02317506
40	0x3d109718	0.035300344
41	0xbc1fa898	-0.009744786
42	0xbd9cdc7f	-0.07659244
43	0xbc1144ab	-0.008866469
44	0x3da6ba3f	0.081409924
45	0xbd46bd73	-0.048520517
46	0xbcb36cfd	-0.021902556
47	0xbb107341	-0.0022041353
48	0x3d492af5	0.049113233
49	0xbd236a28	-0.03989616
50	0xbd0ea69e	-0.034826867
51	0x3ca599ed	0.020215
52	0x3c8a1c63	0.016859239
53	0xbd076e91	-0.03306443
54	0xbcfbb0d4	-0.030723967
55	0xb9ec165d	-0.0004503009
56	0x3cf0984e	0.0293695
57	0xbd102223	-0.035188805
58	0x3cf0c224	0.029389448
59	0x3cf221f9	0.029557215
60	0xbc6d7bb0	-0.014494821
61	0x3d2ac436	0.041691028
62	0xbd38e552	-0.045140572
63	0xbcd2353a	-0.025660146
64	0x3d357fe9	0.044311438
65	0x3c3f834c	0.011689018
66	0xbd11b191	-0.03556973
67	0x3c88b524	0.016687937
68	0x3d6c91af	0.057756122
69	0xbc194e53	-0.009357053
70	0x3b01ba58	0.0019794907
71	0xbce57294	-0.028008737
72	0xbd84bab0	-0.0648092
73	0x3d7829d7	0.060586777
74	0x3bc4c216	0.006004582
75	0x3c99cd2d	0.018774593
76	0xbcc6563d	-0.024211043
77	0x3be12b8e	0.006871647
78	0x3cb66e76	0.022269469
79	0xbbbadd50	-0.005702652
80	0xbc693052	-0.014232712
81	0x3d0bc853	0.03412659
82	0x39cdb822	0.00039237837
83	0x3c8f88d2	0.017521296
84	0xbd9bf4e6	-0.0761507
85	0x3cdb77dc	0.026790552
86	0x3d287ff3	0.041137647
87	0xbca63450	-0.020288616
88	0xbd5ef0af	-0.054428753
89	0x3dba3270	0.090916514
90	0xbd0e37ed	-0.034721304
91	0xbd974a19	-0.0738718
92	0x3d427a89	0.04748014
93	0x3d64ea43	0.055887472
94	0xbcccb853	-0.024990236
95	0xbb1bed2e	-0.0023792493
96	0x3d07bc67	0.03313866
97	0x3ba39408	0.004992012
98	0xbc0dbcb2	-0.0086509455
99	0x3cb89ef9	0.022536742
100	0xbd08f977	-0.033441033
101	0xbd07ff4b	-0.03320245
102	0xbd03e4bb	-0.032200556
103	0x3d40028e	0.046877436
104	0x3c8fdc93	0.017561233
105	0x3d389159	0.04506049
106	0x3d908892	0.07057299
107	0x3cdb79ce	0.02679148
108	0x3cc0d15d	0.023537332
109	0x3ce65fcb	0.02812185
110	0xbcb12ca9	-0.021627741
111	0xbc8d3d14	-0.017241038
112	0x3cc07d63	0.023497289
113	0x3d3a72be	0.045519583
114	0x3d4535e2	0.04814709
115	0xbd15bdeb	-0.036558073
116	0x3c5d779e	0.0135172885
117	0xbc74edbe	-0.01494926
118	0x3d23eb6a	0.04001943
119	0x3d1ca524	0.038243428
120	0xbbf19e85	-0.0073736333
121	0xbbc2d426	-0.0059457
122	0xbc5a4273	-0.013321507
123	0xbd1736fd	-0.036917675
124	0xbd51efb2	-0.051253982
125	0x3d1bf60c	0.038076445
126	0x3d2ae56f	0.04172271
127	0xbc9bfa7a	-0.019040335
128	0xbc1ddb0f	-0.009634747
129	0xbda0ee45	-0.07857946
130	0xbd2ae672	-0.041723676
131	0x3c0585e7	0.008149601
132	0x3d663831	0.056205932
133	0xbcfa6e08	-0.030570045
134	0x3c097384	0.0083893575
135	0xbaf8d0d8	-0.0018983139
136	0xbc51cd8d	-0.012805355
137	0xbb8fbd87	-0.004386607
138	0x3d12ec53	0.035869908
139	0xbc91dbd8	-0.017805025
140	0xbc069ba9	-0.008215823
141	0x3d60e5fa	0.054906823
142	0x3c12714d	0.008938146
143	0xbbad0815	-0.0052805045
144	0x3c192138	0.009346299
145	0x3c1fe270	0.009758577
146	0x3befdcd9	0.0073200283
147	0x3beb2afb	0.0071767545
148	0x3cd9f621	0.026606621
149	0x3cb5c603	0.022189146
150	0xbd0b9769	-0.034079943
151	0xba2491ea	-0.00062778464
152	0x3cc0caec	0.02353426
153	0x3ced5eeb	0.028975924
154	0x3c9015bf	0.017588494
155	0x3d7c68c0	0.061623335
156	0x3cfdbc7e	0.03097367
157	0xbc8848a9	-0.01663621
158	0x3c22aff8	0.0099296495
159	0xbc00b8cd	-0.00785656
160	0x3b9b5ff5	0.0047416636
161	0x3bb3c36f	0.005485944
162	0x3d9458da	0.072435096
163	0x3d1b6be7	0.0379447
164	0xbcf560a9	-0.029953318
165	0x3de57da5	0.112056054
166	0x3c8db984	0.017300375
167	0xbd5ee21b	-0.05441485
168	0xbd766448	-0.06015423
169	0x3d3ee19b	0.046601873
170	0x3da9dbfe	0.08293913
171	0xbc9d499c	-0.019200139
172	0x3d3b68db	0.045754295
173	0x3d3f6b28	0.04673305
174	0x3d063d51	0.03277332
175	0x3ce8f8ef	0.028439013
176	0xbd42d551	-0.047566716
177	0x3b56a694	0.0032753097
178	0x3c85c599	0.016329573
179	0x3d9767f8	0.07392877
180	0x3c88f54f	0.016718535
181	0xbcae47ea	-0.021274526
182	0xbd2f29d9	-0.04276452
183	0x3cadc908	0.021214023
184	0xbcc1019b	-0.023560336
185	0xbd6ae2b7	-0.05734512
186	0x3d0dfbd9	0.03466401
187	0xbc942efd	-0.018088812
188	0xbd000d4d	-0.031262685
189	0xbc1f9b29	-0.009741583
190	0x3c7de3e8	0.015496232
191	0x3d73c294	0.059511736
192	0xbd18410f	-0.03717142
193	0x3d1f9325	0.038958687
194	0xbacb68a9	-0.0015518862
195	0xbd43c161	-0.047791842
196	0xbd366c22	-0.044536717
197	0xbd03f5a7	-0.032216694
198	0x3d1271a0	0.035752892
199	0x3c080fa4	0.00830451
200	0xbd1b01c9	-0.0378435
201	0xbcb4b089	-0.022056835
202	0xbc11a932	-0.008890437
203	0x3d2ea1cf	0.04263478
204	0x3d07d9e8	0.033166796
205	0x3c6f3268	0.01459942
206	0x3cf0316b	0.02932044
207	0xbca67774	-0.020320632
208	0xbd4ca2f4	-0.04996009
209	0xbd0519f5	-0.032495458
210	0xbb4e1647	-0.0031446384
211	0x3ba3c72d	0.004998109
212	0x3d95b0de	0.07309125
213	0x3dcce06c	0.100037426
214	0xbd23a198	-0.03994903
215	0xbc9387e5	-0.018009135
216	0x3d0b7a87	0.034052398
217	0xba8d9aa6	-0.0010803535
218	0xbbd50918	-0.006501328
219	0x3cb38ee2	0.021918718
220	0x3c69497f	0.014238714
221	0xbcb95183	-0.022621876
222	0xbbff4e90	-0.007791348
223	0x3cca0d90	0.02466467
224	0x3cf6b8fb	0.030117502
225	0xbd1a37da	-0.03765092
226	0x3cf51322	0.02991635
227	0x3d361df7	0.04446217
228	0x3d12869f	0.035772916
229	0xbd818b8c	-0.063254446
230	0xbc8b4520	-0.017000735
231	0x3d28f587	0.041249778
232	0x3d322ef4	0.04350181
233	0xbc4ee904	-0.012628797
234	0xba3e9924	-0.00072707445
235	0x3d0f321e	0.034959905
236	0x3cfb391f	0.030666886
237	0x3d318dd9	0.043348167
238	0xbcf0d827	-0.029399944
239	0xbb644f01	-0.003483713
240	0x3cd560cb	0.026047131
241	0xbd61a930	-0.05509299
242	0xbc868d6a	-0.016424853
243	0x3cf31a87	0.029675735
244	0x3a03c260	0.00050262176
245	0xbd6c39c9	-0.057672296
246	0x3cf617e9	0.030040698
247	0xbcb4ee95	-0.022086421
248	0x3d8e84ec	0.069589466
249	0x3bcf7125	0.0063306266
250	0xbd6f75eb	-0.058462065
251	0x3b4afe66	0.0030974387
252	0x3d099890	0.03359276
253	0xbc9975d0	-0.018732935
254	0x3cd2c2de	0.025727686
255	0xbd25bd20	-0.040463567

encoder.3.bias f4 [40]
0	0x3c83960e	0.016062763
1	0x3d14d9cf	0.03634053
2	0xbad614ae	-0.0016333067
3	0xbc6f86f6	-0.01461958
4	0x3d83ceb7	0.06435912
5	0xba06a3cf	-0.0005136104
6	0x3dec8699	0.1154911
7	0xbc9df838	-0.019283399
8	0x3bd25b9d	0.0064196126
9	0xbb04dd7c	-0.0020273617
10	0x3c56f262	0.013119312
11	0x3ca7b0e8	0.020470098
12	0xbb5fbc7f	-0.0034139452
13	0x3c22b678	0.009931199
14	0x3c417c26	0.011809384
15	0x3c84f204	0.016228683
16	0xbc08c930	-0.008348748
17	0xbc877e29	-0.01653965
18	0xbc9d136d	-0.019174302
19	0xbc973caf	-0.018461553
20	0xbb9c26e6	-0.0047653792
21	0xbb054ae6	-0.0020338832
22	0x3dda6939	0.10664601
23	0xbbb8646a	-0.0056272047
24	0xbd03c130	-0.03216666
25	0x3b22ca49	0.002483981
26	0xbae23550	-0.001725832
27	0xba61baad	-0.00086108857
28	0x3d07e1a0	0.033174157
29	0x3be14691	0.0068748672
30	0xbc55c5d4	-0.013047654
31	0xbc5e4879	-0.0135670835
32	0xbd087711	-0.033316676
33	0xbbc6c302	-0.006065727
34	0xbc6f0e77	-0.014590851
35	0xbc37a8b9	-0.01120966
36	0xbc24b5eb	-0.010053138
37	0xbcbd27d0	-0.023090273
38	0x39c18619	0.0003691174
39	0xbc5cae28	-0.013469256

encoder.4.block.1.weight f4 [40, 40, 3, 3]
0	0x3cb55782	0.022136454
1	0xbd74de7a	-0.059782483
2	0xbbbe1af5	-0.0058015534
3	0xbd411ce6	-0.0471467
4	0xbdcfc8d6	-0.10145728
5	0xbdd00cad	-0.10158668
6	0xbd527db6	-0.05138942
7	0xbdc43b00	-0.09581566
8	0xbd5de32c	-0.054171726
9	0x3c29580e	0.010335935
10	0x3c8f0321	0.017457547
11	0x3dcfb4e0	0.10141921
12	0x3d5687ab	0.052375477
13	0xbda5c0a1	-0.08093382
14	0xbd987d3f	-0.07445764
15	0xbd22f0e2	-0.039780505
16	0x3d923b93	0.07140269
17	0x3cacc0c8	0.021088019
18	0x3cf4d0f9	0.029884802
19	0x3c464ddd	0.012103525
20	0x3dd5fc10	0.10448468
21	0x3c41a253	0.011818486
22	0x3db6c129	0.08923561
23	0x3c588576	0.013215413
24	0x3df67242	0.12033512
25	0x3c574222	0.013138326
26	0x3c307270	0.0107694715
27	0xbd82e648	-0.06391579
28	0x3dd4f0fa	0.10397525
29	0x3d71de4c	0.05904989
30	0xbdb63487	-0.088967375
31	0xbc677187	-0.014126188
32	0xbc8b5fb3	-0.017013406
33	0xbbda33af	-0.006658993
34	0xbde83648	-0.11338478
35	0xbd3aeefe	-0.045638077
36	0xbda0b77b	-0.07847496
37	0xbcdf4ea2	-0.027259175
38	0x3ce31bca	0.027723212
39	0x3e19ec1f	0.1503148
40	0x3d7c69b0	0.06162423
41	0xbda3d730	-0.08000028
42	0x3cc4a0db	0.024002483
43	0x3cef4d96	0.0292118
44	0x3b8833b7	0.0041565555
45	0xbbcbd9b7	-0.006221022
46	0xbce3f348	-0.027825966
47	0x3da7f630	0.082012534
48	0x3e053701	0.13009264
49	0x3cc52166	0.024063777
50	0xbac8e15b	-0.001532595
51	0x3da9717f	0.08273601
52	0xbd197abc	-0.037470564
53	0xbd1d9fe2	-0.038482554
54	0xbb337ae6	-0.0027386486
55	0x3d8fe54e	0.07026158
56	0x3bdb5011	0.0066928943
57	0x3d68c94e	0.056832604
58	0x3d90b9f9	0.070667215
59	0xbd2d7382	-0.042346485
60	0xbcadf19c	-0.021233372
61	0x3d473a23	0.048639428
62	0x3bf6b960	0.0075294226
63	0xbdcd29c4	-0.10017732
64	0xbd3afa94	-0.045649126
65	0x3d0ca5c7	0.034337785
66	0xbd190c35	-0.037365157
67	0x3d8814e9	0.06644613
68	0xbca6920e	-0.020333316
69	0xbc00b3b3	-0.007855344
70	0xbd989d9e	-0.07451938
71	0xbcbdf632	-0.023188684
72	0xbca4731f	-0.020074425
73	0xbd0c7398	-0.034289926
74	0xbd13294e	-0.035928063
75	0x3d2edafe	0.042689316
76	0x3d9598a0	0.073045015
77	0xbbe8dd21	-0.0071064387
78	0xbd2a660e	-0.041601233
79	0xbd7ac451	-0.06122238
80	0xbb85ecc5	-0.004087063
81	0x3d424538	0.047429293
82	0x3c746573	0.0149167655
83	0x3d04b09e	0.032394998
84	0x3cc3ad7e	0.023886438
85	0x3d902314	0.070379406
86	0xbd81d951	-0.06340278
87	0xbc4c654d	-0.012475324
88	0x3d8c662c	0.06855425
89	0x3bd22ea1	0.00641425
90	0x3d4bc3f0	0.049747407
91	0xbd317de6	-0.043332957
92	0xbd6cc13a	-0.057801463
93	0xbd478cc7	-0.04871824
94	0xbd42a184	-0.047517315
95	0x3c6ff83a	0.014646584
96	0x3bb3d0de	0.0054875454
97	0xbd0d37f7	-0.0344772
98	0xbce8cf74	-0.028419234
99	0xbcd09192	-0.025460038
100	0x3d181828	0.037132412
101	0xbda0274a	-0.07819994
102	0x3ce66da8	0.02812846
103	0x3d9b83f4	0.075935274
104	0x3c8f0ff3	0.01746366
105	0xbcff9f5c	-0.031203918
106	0xbccf5595	-0.025309363
107	0xbcc9f557	-0.02465312
108	0xbced89ce	-0.028996374
109	0x3d6dd99b	0.058068853
110	0xbd3dbd01	-0.046322826
111	0xbc1b4e4f	-0.009479119
112	0x3d2bf1db	0.0419787
113	0xbc1ee4f0	-0.009698138
114	0xbdf5157c	-0.119669884
115	0xbd81488f	-0.063126676
116	0xbd1be588	-0.038060695
117	0x3cbabd47	0.022795333
118	0xbc3c8ee0	-0.011508673
119	0xbd87f241	-0.06638003
120	0xbc0ab479	-0.00846588
121	0xbdfb3377	-0.122656755
122	0x3d9638b7	0.07335036
123	0x3c625135	0.013813307
124	0xbd098332	-0.033572383
125	0x3c293ca7	0.010329402
126	0xbd609444	-0.054828897
127	0x3d9ff409	0.07810218
128	0xbd3265b2	-0.043554015
129	0x3e7648ed	0.24051256
130	0xbde2c72d	-0.11073146
131	0x3c714c6c	0.014727693
132	0x3d22dec6	0.039763235
133	0x3d10769f	0.035269376
134	0xbdb4de97	-0.08831518
135	0x3cc67911	0.02422765
136	0x3d77f115	0.060532648
137	0x3c8b6245	0.017014632
138	0x3d4a4594	0.04938276
139	0x3c4269f8	0.011866085
140	0x3d6c26c4	0.057654157
141	0xbc549e6e	-0.012977226
142	0xbbadc629	-0.0053031635
143	0xbd3c9306	-0.04603865
144	0xbcdea521	-0.027178349
145	0xbd643005	-0.055709857
146	0xbdb145d0	-0.08655894
147	0x3da35d1e	0.07976745
148	0xbd56d0ed	-0.05244534
149	0x3d003ae4	0.031306162
150	0xbd8bd545	-0.06827787
151	0xbd1b1256	-0.037859283
152	0x3c74750b	0.014920483
153	0x3d0cd01e	0.034378164
154	0x3d487bd6	0.048946224
155	0x3c355cbd	0.011069474
156	0xbd95c243	-0.07312443
157	0xbb18f947	-0.002334194
158	0xbc36a2ae	-0.011147184
159	0xbd95f530	-0.073221564
160	0x3b9b779c	0.004744483
161	0x3bf76d17	0.0075508463
162	0x3dab3367	0.083594136
163	0xbb90509a	-0.0044041397
164	0xbd766d85	-0.06016304
165	0x3d25fa9e	0.04052221
166	0x3d7e698b	0.062112372
167	0xbc857aaa	-0.016293842
168	0x3cb7e1c4	0.02244652
169	0xbc9b6e5c	-0.018973522
170	0x3a4e27cc	0.00078642066
171	0x3ce08247	0.027405871
172	0x3ceee49f	0.02916175
173	0xbda41dda	-0.08013506
174	0xbd4e13c4	-0.05031182
175	0xbcd42a25	-0.025899002
176	0x3df87c15	0.12133042
177	0xbe8bed56	-0.2732951
178	0x3bbff96a	0.00585859
179	0xbdc8b8ca	-0.09800871
180	0xbce513e1	-0.02796358
181	0x3dd42955	0.10359446
182	0x3c84c24a	0.016205925
183	0xbcb7cfbb	-0.02243792
184	0xbd771f4b	-0.060332578
185	0xbc98821a	-0.018616725
186	0xbe3bfa2a	-0.18357149
187	0x3d00ebdb	0.03147493
188	0x3d7cb50b	0.061696094
189	0xbcee3ab5	-0.029080728
190	0x3d94bb6a	0.07262309
191	0xbdde3816	-0.10850541
192	0xbcd83f62	-0.02639741
193	0x3c940732	0.018069837
194	0xbd82f9b8	-0.06395286
195	0xbced06bb	-0.028933873
196	0x3ddfb7a3	0.10923698
197	0xbd0550ed	-0.03254788
198	0xbba50af7	-0.0050367075
199	0xbc31f2b8	-0.010861091
200	0x3d2ad18d	0.04170375
201	0xbce68420	-0.028139174
202	0x3d8cc70c	0.06873903
203	0xbd309715	-0.043112833
204	0xbd2c7aee	-0.042109422
205	0xbdca88f6	-0.098894045
206	0xbc423041	-0.011852325
207	0x3cbd31fc	0.023095123
208	0x3d3ce8ba	0.046120383
209	0xbd676ac0	-0.05649829
210	0xbd253618	-0.04033479
211	0xbdb76047	-0.0895391
212	0x3cc21209	0.02369024
213	0x3d964335	0.073370375
214	0xbc1b66d6	-0.009484967
215	0x3dd0dd82	0.10198499
216	0x3d69f109	0.057114635
217	0xbc2ddae4	-0.01061127
218	0x3c2ba81b	0.010477091
219	0x3d6c557d	0.057698715
220	0x3e158049	0.14599718
221	0x3db00df6	0.08596413
222	0x3d14ba7e	0.036310665
223	0x3d506470	0.050877035
224	0x3daea82f	0.08528172
225	0x3af8534a	0.001894572
226	0x3b697243	0.0035621084
227	0xbd0ce0ce	-0.034394078
228	0xbe0352bb	-0.12824528
229	0x3e0f703d	0.1400766
230	0x3c4cd5fa	0.012502188
231	0x3d3eb3e3	0.046558272
232	0x3caa6e07	0.020804418
233	0x3ba98cbf	0.005174249
234	0x3d013f55	0.03155454
235	0x3d81a632	0.06330527
236	0x3cf39054	0.029731907
237	0x3c5a9fa3	0.013343724
238	0x3dd156ee	0.10221659
239	0x3d2dc791	0.04242665
240	0xbca579f2	-0.02019975
241	0xbd52d700	-0.05147457
242	0xbd336412	-0.043796606
243	0xbda3b6de	-0.079938635
244	0xbc2734eb	-0.010205488
245	0xbc9692e0	-0.018380582
246	0x3e378cde	0.1792483
247	0xbc703500	-0.014661074
248	0x3d460970	0.048348844
249	0x3c606178	0.013695113
250	0xbd7d94e1	-0.06190956
251	0xbe02321d	-0.12714429
252	0x3d616399	0.055026624
253	0x3c3f68c4	0.011682693
254	0x3d9feaae	0.078084335
255	0x3cb3e911	0.02196172

encoder.4.block.1.bias f4 [40]
0	0x3b3c9d56	0.0028780303
1	0xbba81fd4	-0.0051307473
2	0xb9dc673d	-0.00042038588
3	0x3a298e9a	0.00064680877
4	0xb9f89627	-0.00047414118
5	0x3b333f5b	0.0027350995
6	0x3accb4b7	0.0015617822
7	0x39f581f7	0.00046826873
8	0x3a34dfcf	0.0006899805
9	0xba83064b	-0.0009996382
10	0x3b9993ca	0.0046868073
11	0x3c0977ca	0.008390376
12	0xb99fc064	-0.00030470185
13	0x3ae52af3	0.0017484113
14	0xb9e93272	-0.00044478808
15	0x3a9405c6	0.0011293225
16	0xbb019c4a	-0.0019776993
17	0xbac062e7	-0.0014677913
18	0x3a20f3e7	0.000613986
19	0x3ab4c2e4	0.0013790992
20	0xb977c53b	-0.0002362923
21	0x38858124	6.3659885e-05
22	0xba212ea1	-0.0006148611
23	0xbb0e5fa0	-0.0021724477
24	0x3b6c0d30	0.0036018603
25	0xba220d6b	-0.0006181809
26	0x3a9cea99	0.0011971771
27	0x3bac8450	0.0052647963
28	0xb8307748	-4.207276e-05
29	0x3a3c6993	0.00071873626
30	0x3ade59db	0.0016964035
31	0x3adb85fb	0.0016748303
32	0x3ac67be7	0.0015143127
33	0x3b0db270	0.002162125
34	0xb9a92e70	-0.0003226879
35	0x3b99153b	0.0046717203
36	0xbb4f2e71	-0.0031613375
37	0x39bcf4f5	0.00036040662
38	0x394705fc	0.00018980348
39	0x3b313018	0.0027036723

encoder.4.block.2.weight f4 [40]
0	0x3f8d5be0	1.1043663
1	0x3f77a979	0.9674297
2	0x3f6cc35e	0.92485607
3	0x3f6caf58	0.92455053
4	0x3f68fce2	0.9101087
5	0x3f70cc26	0.94061506
6	0x3f766202	0.962433
7	0x3f6f1c08	0.9340215
8	0x3f67c180	0.9052963
9	0x3f53e24f	0.82767195
10	0x3f81c9b6	1.0139682
11	0x3f80c642	1.0060503
12	0x3f79d6e2	0.9759351
13	0x3f96bb62	1.1775935
14	0x3f8d7c31	1.1053525
15	0x3f86c4d0	1.0528812
16	0x3f864d95	1.0492426
17	0x3f5468a5	0.82972175
18	0x3f735e43	0.95065707
19	0x3f82629d	1.0186344
20	0x3f7ebb9b	0.99505013
21	0x3f889eed	1.06735
22	0x3f46d808	0.7767339
23	0x3f808911	1.0041829
24	0x3f57b0b2	0.8425399
25	0x3f6a3fa6	0.9150337
26	0x3f93d806	1.15503
27	0x3f8737b6	1.0563877
28	0x3f874af2	1.0569746
29	0x3f8c2f0c	1.0951858
30	0x3f8f9aac	1.1219077
31	0x3f8a7bf8	1.0819082
32	0x3f77b69e	0.96763027
33	0x3f958e84	1.1684117
34	0x3f7816ef	0.96909994
35	0x3f87b2e7	1.0601472
36	0x3f72f532	0.9490539
37	0x3f59ce0f	0.85080045
38	0x3f8bd3f7	1.0924062
39	0x3f635930	0.88807964

encoder.4.block.2.bias f4 [40]
0	0x3e3b0323	0.18262915
1	0xbd9f0654	-0.07764879
2	0xbe10f512	-0.14155987
3	0x3df9a987	0.12190538
4	0x3e5162cd	0.20447846
5	0x3e9a9f3d	0.30199614
6	0x3e1549c2	0.14578918
7	0x3da11fa2	0.078673616
8	0x3d2fffcd	0.04296856
9	0xbdebe0b4	-0.11517468
10	0x3dea593b	0.114428006
11	0x3e8c92b7	0.27455685
12	0x3e864a68	0.26228642
13	0x3ec68875	0.38775983
14	0x3eaff11a	0.34363633
15	0xbd841342	-0.06448986
16	0xbb0157a6	-0.001973608
17	0x3b817bf9	0.0039515463
18	0x3e36a9bd	0.17838188
19	0x3ea474a0	0.32120228
20	0xbe5880ae	-0.21142837
21	0xbdd83bb5	-0.10558263
22	0xbc478652	-0.012178021
23	0xbdc634c1	-0.09678031
24	0x3e202eb6	0.15642819
25	0xbe135f60	-0.14391851
26	0x3e73b8f0	0.23801017
27	0x3dce8083	0.100831054
28	0x3dfa67e0	0.12226844
29	0x3c2222f4	0.009896029
30	0x3e8d4071	0.27588227
31	0x3e791be0	0.2432704
32	0x3c423df1	0.011855588
33	0x3eaeac64	0.341159
34	0x3e741e2a	0.23839632
35	0xbcc29764	-0.02375383
36	0xbd222e18	-0.03959474
37	0xbd9e0ea4	-0.07717636
38	0xbd095b9e	-0.03353464
39	0x3e026c32	0.12736586

encoder.4.block.2.running_mean f4 [40]
0	0x3ecf6f20	0.4051447
1	0xbf46f322	-0.7771474
2	0xbf6d8095	-0.92774326
3	0xbee08d2b	-0.43857703
4	0x3f133f90	0.57518864
5	0x3f6657ba	0.8997761
6	0x3f19bc8c	0.60053325
7	0xbd3e6981	-0.046487335
8	0x3f238b99	0.63884884
9	0xbf15e760	-0.58556175
10	0x3f14b0e7	0.5808243
11	0x3e6ee1fe	0.23328397
12	0x3e946ecd	0.28990784
13	0x3edd1c42	0.43185622
14	0x3ecf48df	0.40485284
15	0xbf501717	-0.8128523
16	0xbf5fb002	-0.8737794
17	0xbe023eab	-0.12719218
18	0x3f22abf3	0.63543624
19	0x3e5797f6	0.21054062
20	0x3d825db9	0.063655324
21	0xbf72e886	-0.9488605
22	0xbdddc4a0	-0.10828519
23	0xbe8f1d45	-0.27952018
24	0x3ef69377	0.48159382
25	0xbf3f6e58	-0.74777746
26	0x3f296cf1	0.66181856
27	0x3ef65028	0.4810803
28	0x3e35b920	0.17746401
29	0xbf76444b	-0.96197957
30	0x3f47be1d	0.78024465
31	0x3f669eae	0.90085876
32	0xbf495e5b	-0.786596
33	0x3e18f37c	0.14936632
34	0x3f23bb39	0.63957554
35	0xbf340fe0	-0.70336723
36	0xbf00f019	-0.5036636
37	0xbf83265d	-1.0246083
38	0xbec84f1f	-0.39122865
39	0x3e593977	0.21213327

encoder.4.block.2.running_var f4 [40]
0	0x3ecd31cf	0.40077063
1	0x3f5d7054	0.86499524
2	0x3f846d53	1.0345863
3	0x3edfed52	0.4373575
4	0x3f206d9a	0.6266724
5	0x3f689fb0	0.90868664
6	0x3ef72bbf	0.48275563
7	0x3e1decdc	0.15422386
8	0x3f1441d5	0.5791295
9	0x3f6527eb	0.89514035
10	0x3f1bfc71	0.6093207
11	0x3ea8e4c4	0.32987034
12	0x3eb2d66f	0.34929225
13	0x3e980790	0.2969327
14	0x3eecd81b	0.46258625
15	0x3f5289e2	0.8224164
16	0x3f30f70e	0.69126976
17	0x3e816d3e	0.25278658
18	0x3f263879	0.6492992
19	0x3e750a1d	0.23929639
20	0x3e37de8e	0.17955992
21	0x3f863974	1.0486283
22	0x3e2a0c6e	0.16606304
23	0x3efd08e7	0.49420854
24	0x3f0a3291	0.5398341
25	0x3f3f1c0d	0.7465218
26	0x3f119e18	0.56881857
27	0x3f0e03da	0.55474627
28	0x3e1e14d2	0.1543763
29	0x3f99bb69	1.2010318
30	0x3f2c0c26	0.6720604
31	0x3f94d88c	1.1628585
32	0x3fa65dda	1.2997391
33	0x3e63bebd	0.2224073
34	0x3f4d3a61	0.80167204
35	0x3f339669	0.7015138
36	0x3f2e52e0	0.6809521
37	0x3f8653ca	1.049432
38	0x3e00fffa	0.12597647
39	0x3f4814a1	0.7815648

encoder.4.block.4.weight f4 [40, 40, 1, 1]
0	0x3e5d8977	0.2163447
1	0x3dd7c7b9	0.10536141
2	0x3e821cd2	0.25412613
3	0x3df5129f	0.11966442
4	0x3e3a206c	0.1817643
5	0xbe653ab6	-0.22385678
6	0x3d28cfaf	0.041213688
7	0x3d07d311	0.033160273
8	0x3dc540d3	0.09631505
9	0x3c598d60	0.013278335
10	0xbe15c1ca	-0.14624706
11	0x3d0c1c12	0.034206457
12	0xbdc83c7f	-0.09777164
13	0xbeabc877	-0.3355138
14	0xbe068951	-0.1313832
15	0x3d8a7341	0.06760264
16	0x3e91fe9f	0.28514573
17	0x3d87bc14	0.0662767
18	0xbe2aca76	-0.16678795
19	0xbe1e030e	-0.15430853
20	0x3dc66a15	0.09688202
21	0x3dd366e5	0.1032236
22	0x3d0e37ca	0.034721173
23	0x3e444957	0.19168602
24	0x3e2fa1bc	0.1715154
25	0xbdce0de6	-0.10061245
26	0xbea8f0b0	-0.3299613
27	0xbe6e0cba	-0.23247042
28	0xbe7ad1ef	-0.24494146
29	0x3d38f740	0.04515767
30	0xbe8266eb	-0.25469145
31	0x3d81740f	0.063209645
32	0x3e0f19d4	0.13974696
33	0xbe82a3d3	-0.25515613
34	0x3d5e9721	0.054343347
35	0xbc102342	-0.008797469
36	0xbd983eff	-0.074338906
37	0xbd6811ed	-0.05665772
38	0x3ea33b16	0.31881016
39	0x3d53548a	0.051594295
40	0x3d2b9d21	0.041897897
41	0xbe0736bd	-0.13204475
42	0x3e066ea8	0.1312815
43	0xbdbb3fca	-0.09143026
44	0xbc50eba0	-0.01275149
45	0xbe58e732	-0.21181944
46	0x3d377900	0.04479313
47	0x3ba273c9	0.0049576503
48	0x3e6eb10e	0.23309729
49	0x3ca16f2a	0.019706327
50	0x3e3857d7	0.18002258
51	0x3d37254c	0.044713303
52	0x3e5565a7	0.20839559
53	0x3e0e153a	0.13875285
54	0x3e3f792f	0.18698572
55	0xbe31ffdb	-0.17382757
56	0x3de990f9	0.114046045
57	0x3e2ad70a	0.16683593
58	0x3da9f792	0.082991734
59	0x3d697e5a	0.057005264
60	0xbca95110	-0.020668536
61	0xbe6521c7	-0.22376166
62	0xbb909f1d	-0.004413499
63	0x3c4bae12	0.012431638
64	0x3d0f7b7c	0.035029873
65	0x3cb5e0d6	0.022201937
66	0x3e83276d	0.25616017
67	0x3e88eb41	0.26741984
68	0x3b5274d3	0.003211309
69	0xbd92bc3f	-0.07164811
70	0x3dbeaae5	0.09309939
71	0x3e46c243	0.19410042
72	0x3d39f75c	0.045401916
73	0x3e86a674	0.2629887
74	0x3e988736	0.29790658
75	0xbe030f10	-0.12798715
76	0xbe5fbca6	-0.21849307
77	0xbe553791	-0.20821978
78	0xbe330224	-0.17481285
79	0x3c835025	0.016029427
80	0xbde37c6f	-0.11107718
81	0x3ece2ac7	0.40267012
82	0xbe1b5020	-0.15167284
83	0xbdaa1a0a	-0.08305748
84	0xbdd56d61	-0.10421253
85	0xbe05900f	-0.13043235
86	0x3d1e9fb2	0.038726516
87	0xbe29ca78	-0.16581142
88	0x3df58820	0.119888544
89	0xbd41ade6	-0.047284983
90	0x3e23f751	0.16012312
91	0xbe863080	-0.26208878
92	0x3dc6ead2	0.09712757
93	0xbdb0c378	-0.08631033
94	0xbe30c95d	-0.17264314
95	0x3e625112	0.22101238
96	0x3cc58e44	0.02411569
97	0x3c11d464	0.0089007355
98	0xbe003331	-0.12519528
99	0x3db25115	0.087068714
100	0xbbd4176f	-0.00647252
101	0x3e81c450	0.25345087
102	0x3db0fc50	0.08641875
103	0x3d3e7810	0.04650122
104	0xbe67ab44	-0.22623926
105	0x3d9faefe	0.07797049
106	0xbe22fa5a	-0.15915814
107	0x3d5de22a	0.054170765
108	0xbe57ac8f	-0.2106192
109	0xbd704787	-0.058661964
110	0xbe1f19e2	-0.15537217
111	0xbe95b513	-0.2923971
112	0x3bd173cf	0.0063919793
113	0xbe7cd0e9	-0.24689068
114	0x3c0da293	0.008644718
115	0x3e1a7d65	0.15086897
116	0xbd583ffb	-0.05279539
117	0x3dbb3db4	0.09142628
118	0x3edb5a9d	0.4284257
119	0xbe93bf9a	-0.28857118
120	0xbe2228ad	-0.15835829
121	0x3e821457	0.25406143
122	0x3ddfc8eb	0.10926994
123	0x3dedd6fd	0.116132714
124	0x3e1534cc	0.14570922
125	0xbd0933c1	-0.033496622
126	0xbd5b081b	-0.053474527
127	0xbdd82240	-0.10553408
128	0xbd8d0854	-0.06886354
129	0xbd36da58	-0.044641823
130	0x3dce2f26	0.100675866
131	0xbe2268fb	-0.1586036
132	0xbc9fb302	-0.019494537
133	0x3c8f0fb6	0.017463546
134	0xbe4c28d8	-0.19937456
135	0xbe5c0a58	-0.21488321
136	0xbc130a5b	-0.008974637
137	0x3dd24903	0.10267832
138	0x3cfc8abe	0.030827876
139	0x3e26e6df	0.16299008
140	0x3e545192	0.20734242
141	0x3d1f6959	0.038918827
142	0xbe01925e	-0.12653491
143	0x3dd80331	0.10547484
144	0xbe1c7101	-0.15277483
145	0xbdc20c60	-0.094750166
146	0xbe07e3eb	-0.13270538
147	0xbe47c3d6	-0.19508299
148	0x3e21c7a9	0.1579882
149	0xbe128dd8	-0.14311922
150	0xbd664492	-0.056217737
151	0x3d8ff528	0.07029182
152	0x3de66d5f	0.1125133
153	0xbe3889a2	-0.18021253
154	0x3d04c106	0.032410644
155	0x3e3982fe	0.18116376
156	0x3e635f82	0.22204402
157	0xbd0283c1	-0.03186393
158	0x3ecbdae3	0.39815435
159	0x3c60e8ec	0.013727408
160	0xbd952904	-0.07283214
161	0xbe5c49e7	-0.21512567
162	0x3d055300	0.032549858
163	0x3d4c4e80	0.04987955
164	0x3d6b3094	0.057419375
165	0xbe4492e4	-0.1919666
166	0x3e82269f	0.2542009
167	0xbdee2247	-0.11627632
168	0xbdb26e5d	-0.087124564
169	0x3e492b22	0.1964536
170	0xbd7755a0	-0.060384393
171	0xbad08c56	-0.0015910964
172	0x3e682f41	0.22674276
173	0x3e8ecb21	0.2788935
174	0x3dabd688	0.08390528
175	0x3e2bce64	0.1677795
176	0xbeac297f	-0.3362541
177	0x3e3c3922	0.1838117
178	0x3e404c6d	0.18779154
179	0x3e792ea1	0.24334194
180	0x3e2ef694	0.1708625
181	0x3ac87207	0.0015292772
182	0xbd1fc1cb	-0.039003175
183	0x3d382ff2	0.0449676
184	0xbd862b65	-0.065512456
185	0xbced931f	-0.029000817
186	0x3cf678f8	0.03008698
187	0x3e601f72	0.21886995
188	0x3b2903a3	0.0025789521
189	0xbe28e81f	-0.16494797
190	0x3e9fc06e	0.312015
191	0x3bb9216a	0.005649735
192	0xbe3c2ada	-0.18375722
193	0x3df1aa5c	0.118000716
194	0x3ea238ca	0.31683952
195	0xbda0edda	-0.078578666
196	0xbd08a77c	-0.03336285
197	0xbe53701d	-0.20648237
198	0xbe1fb015	-0.15594514
199	0x3df523c4	0.119697124
200	0xbd945f29	-0.07244713
201	0x3daa049c	0.083016604
202	0x3e80d30b	0.25161013
203	0x3d0a6223	0.033784997
204	0xbe13c565	-0.14430769
205	0xbe48e020	-0.19616747
206	0xbe50cf11	-0.2039149
207	0x3e3e64a1	0.18593074
208	0xbd83cd5c	-0.064356536
209	0xbda3e236	-0.08002131
210	0xbe2bcf02	-0.16778186
211	0xbeaf888b	-0.34283862
212	0xbe641538	-0.2227372
213	0xbde2e16e	-0.110781536
214	0x3db8c748	0.09022385
215	0x3e8ae711	0.27129415
216	0x3e4d1bba	0.20030108
217	0xbe070984	-0.13187224
218	0xbc4afb5a	-0.012389028
219	0xbe8ee4cb	-0.2790893
220	0xbd6a56c6	-0.05721166
221	0x3cb1d3e1	0.021707477
222	0xbd5d451b	-0.054020982
223	0x3cc99404	0.024606712
224	0x3d887a63	0.066639684
225	0xbdde43b1	-0.10852755
226	0x3c6069bb	0.013697083
227	0x3e1abc12	0.15110806
228	0xbeaa4f4c	-0.33263624
229	0x3e8e08de	0.2774114
230	0xbe4933f9	-0.19648732
231	0x3d73bf3b	0.059508543
232	0xbd94d84f	-0.0726782
233	0x3e25c8b1	0.16189839
234	0xbe6b69b1	-0.22989537
235	0x3e19bdee	0.15013859
236	0xbd91b281	-0.07114125
237	0xbe006b42	-0.12540916
238	0x3eaa3c17	0.3324897
239	0x3d2945ab	0.041326206
240	0xbe3bd181	-0.18341638
241	0xbe068d69	-0.13139881
242	0xbe99e26d	-0.30055562
243	0xbc2037fe	-0.009778975
244	0xbd179583	-0.03700782
245	0xbdffce1c	-0.12490484
246	0x3e502bb3	0.2032917
247	0x3e1a3c47	0.15062056
248	0x3e847b42	0.25875288
249	0x3cda1f44	0.026626237
250	0xbf01421a	-0.5049149
251	0xbe836522	-0.25663096
252	0xbd9c52a6	-0.076329514
253	0xbd5c56aa	-0.053793587
254	0xbdad2f50	-0.0845629
255	0xbddbe7da	-0.107375816

encoder.4.block.4.bias f4 [40]
0	0xbc0629e6	-0.0081887
1	0x3b07471c	0.002064175
2	0xbba9dee1	-0.00518404
3	0xbad00a03	-0.0015872124
4	0xba303d28	-0.000672298
5	0x3985cebf	0.00025521775
6	0xbc3ba277	-0.011452309
7	0xbc18058c	-0.009278666
8	0x3998be77	0.00029133607
9	0xb8a3a1f1	-7.8026096e-05
10	0xbb0b6f09	-0.00212759
11	0xbb84d5af	-0.0040537934
12	0xbb94342c	-0.004522821
13	0x3ab4a570	0.0013782214
14	0xbbd7dc41	-0.0065875356
15	0xb9087a86	-0.00013015614
16	0xbbca224f	-0.0061686407
17	0x39f1391e	0.00046009658
18	0x3b38fa5c	0.0028225398
19	0x3c23adea	0.009990195
20	0x3befee53	0.0073221116
21	0xbba37a9b	-0.004988981
22	0x3b9b1f60	0.004733965
23	0xba818872	-0.0009882583
24	0xbbb8ccca	-0.005639647
25	0xbb852014	-0.004062662
26	0xbb6d80f8	-0.0036240201
27	0x394298df	0.0001855823
28	0xbbad9070	-0.0052967593
29	0xbc0482ae	-0.008087797
30	0x3aec49e8	0.0018027397
31	0x3bb5eabb	0.0055516637
32	0xbb22c7a4	-0.0024838233
33	0xbb59da30	-0.0033241622
34	0xbc0486d4	-0.008088786
35	0xbb8a74cb	-0.0042253486
36	0xbbbda233	-0.005787158
37	0xbbcb20eb	-0.0061989925
38	0x3afa25b0	0.0019084718
39	0xbad4b102	-0.0016227069

encoder.4.block.5.weight f4 [40]
0	0x3f5d90d3	0.8654911
1	0x3f3b9e50	0.7328844
2	0x3f488ab3	0.7833664
3	0x3f3a4393	0.7275936
4	0x3f56c957	0.8390097
5	0x3f55a503	0.8345491
6	0x3f83743e	1.0269849
7	0x3f0e0f2d	0.55491906
8	0x3f54f67c	0.83188605
9	0x3f3a0395	0.72661716
10	0x3f5f89e1	0.8731976
11	0x3f6c946c	0.92413974
12	0x3f4a4793	0.79015464
13	0x3f3127a8	0.69201136
14	0x3f2f7e70	0.68552303
15	0x3f8c2e9e	1.0951726
16	0x3f25a92c	0.6471126
17	0x3f7b043f	0.98053354
18	0x3f6d1cb4	0.9262192
19	0x3f2db90d	0.6786049
20	0x3f15c75d	0.5850733
21	0x3f66d672	0.9017097
22	0x3f53d0b6	0.8274034
23	0x3f3d234a	0.7388197
24	0x3f33cfe7	0.7023911
25	0x3f1f53b5	0.622371
26	0x3f719612	0.94369614
27	0x3f6fc35c	0.9365747
28	0x3f64aa46	0.89322317
29	0x3f512ab0	0.8170576
30	0x3f62b70e	0.8856057
31	0x3f242b08	0.6412816
32	0x3f0d72b8	0.5525317
33	0x3f58264a	0.84433424
34	0x3f682085	0.9067462
35	0x3f60de00	0.87838745
36	0x3f57cf0c	0.84300303
37	0x3f56aaa9	0.83854157
38	0x3f21c001	0.631836
39	0x3f400593	0.75008506

encoder.4.block.5.bias f4 [40]
0	0xbe9a34a7	-0.30118296
1	0x3dea64cc	0.11445007
2	0xbe446a7f	-0.1918125
3	0xbbd5f876	-0.006529863
4	0x3d019ce9	0.03164378
5	0xbdb6743b	-0.08908888
6	0xbe89fad7	-0.26949188
7	0xbe6da6f7	-0.23208223
8	0x3e1a3fbd	0.15063377
9	0xbe2292ba	-0.15876284
10	0x3d8f526f	0.06998145
11	0xbcbbf379	-0.022943245
12	0xbe77f494	-0.24214393
13	0x3bb82a64	0.0056202877
14	0x3c949365	0.01813669
15	0xbe30cb93	-0.17265157
16	0xbe37c32f	-0.1794555
17	0x3e085efe	0.13317487
18	0x3e4a2827	0.1974188
19	0x3d338f26	0.04383769
20	0x3d11ed56	0.03562673
21	0x3d13eee7	0.036116507
22	0x3da341c7	0.079715304
23	0x3cc88800	0.024478912
24	0xbdff5483	-0.12467291
25	0xbe1c2bcc	-0.15251082
26	0x3e0198c9	0.12655939
27	0x3e13735c	0.14399475
28	0xbe33c0d5	-0.17554028
29	0xbdaa01e3	-0.08301141
30	0xbd872835	-0.06599466
31	0x3d210d7b	0.039319497
32	0xbde8a24b	-0.1135908
33	0xbe200c9f	-0.15629815
34	0xbda86a7a	-0.08223434
35	0xbe941e75	-0.28929487
36	0xbe774914	-0.24148971
37	0xbd9e0933	-0.07716598
38	0x3d71b5fb	0.05901144
39	0xbdf87694	-0.12131992

encoder.4.block.5.running_mean f4 [40]
0	0xbe9c9288	-0.30580544
1	0x3f57260e	0.8404244
2	0xbf056023	-0.5209982
3	0x3d7962c2	0.0608852
4	0x3f2baeee	0.67063797
5	0xbeca8209	-0.39552334
6	0xbf256520	-0.6460743
7	0xbf4d9323	-0.8030264
8	0x3e42fd60	0.19041967
9	0xbd1734fa	-0.036915757
10	0x3eb67034	0.3563248
11	0xbd55d7c7	-0.052207734
12	0x3ed2544e	0.41079944
13	0x3f50cc55	0.81561786
14	0x3ec0b943	0.37641343
15	0xbec30168	-0.3808701
16	0xbecc35b5	-0.39884725
17	0x3e970902	0.2949906
18	0x3f777974	0.966697
19	0x3d8f821c	0.07007238
20	0x3e870e2c	0.26378
21	0x3e6640eb	0.22485702
22	0x3f1a5c1b	0.6029679
23	0x3c8fd9bf	0.017559884
24	0xbe925f68	-0.28588414
25	0xbed41ee7	-0.41429827
26	0x3e987081	0.29773334
27	0x3f3e1e21	0.74264723
28	0xbe048328	-0.12940657
29	0xbeb38906	-0.35065478
30	0xbe3e2c09	-0.18571486
31	0x3ec863dc	0.39138687
32	0xbda615b0	-0.08109605
33	0xbe4e879e	-0.20168921
34	0xbec228a8	-0.37921643
35	0xbf3f09fc	-0.7462461
36	0xbdd77ecd	-0.10522232
37	0xbe8296a4	-0.25505555
38	0x3f211530	0.62922955
39	0xbe612409	-0.21986403

encoder.4.block.5.running_var f4 [40]
0	0x402abad1	2.6676524
1	0x4090bc46	4.5229826
2	0x404d04f3	3.203427
3	0x3fdc0513	1.7189049
4	0x403251d6	2.7862449
5	0x402beba5	2.6862576
6	0x3fdb771a	1.7145722
7	0x40836d10	4.1070633
8	0x3fb964a7	1.4483842
9	0x3fe88b47	1.8167504
10	0x401f4aa9	2.488932
11	0x3fef99a5	1.8718764
12	0x3f07c7e7	0.530394
13	0x409fecaa	4.9976397
14	0x40b915aa	5.7838945
15	0x3f219acf	0.63126844
16	0x404c7347	3.194536
17	0x3f836b42	1.0267107
18	0x4097585f	4.7295375
19	0x3fe26807	1.7687997
20	0x3fe60532	1.7970335
21	0x406a0d0c	3.6570463
22	0x3f76f538	0.96467924
23	0x402fed6b	2.7488658
24	0x401b0e95	2.422765
25	0x3f1a78af	0.603404
26	0x403851a2	2.8799825
27	0x4090fcbf	4.530853
28	0x3fe51d0e	1.7899492
29	0x3f7d0b6d	0.9884556
30	0x3fbc06cb	1.4689573
31	0x40a7472b	5.2274375
32	0x3f90dad4	1.1316781
33	0x3f2a448c	0.66510844
34	0x400db58c	2.2142057
35	0x407ba1aa	3.9317422
36	0x3f60081e	0.87512386
37	0x3f99b06b	1.2006963
38	0x409c546b	4.885305
39	0x3fc0aaf0	1.5052166
