VQ-VAE/models/vqvae/model_43.pt (torch, 579012 bytes, 64 tensors)

encoder.0.weight f4 [40, 1, 4, 4]
00000000: aa06 103d 1d62 6b3b 18c4 2abd a01d 7bbd
00000010: cf9d 85bd 70e5 89bd 7140 08be ac43 97bd
00000020: 4563 44bd 9601 eebd 82ef 15be 0c62 4a3d
00000030: 09c1 26bc b7d1 9ebd 200d 233d 62b6 983d
00000040: 5adb 2b3d a039 853d bc21 82bd 0398 773d
00000050: 2f6a eb3d 625d 103e 5ab2 0fbd e281 253d
00000060: c654 873d 6a32 b13d f134 e5bd 40b6 15bc
00000070: bf9c 5b3d e267 8d3d 7880 7abc 37f5 a13d
00000080: 58a4 a13d 9f29 b03d 856a cb3d 6b52 ac3d
00000090: 43dc c93c 855d 883c 7bdb 743c 75a3 923d
000000a0: c370 ac3d cc0d 913d 3d05 383d 7354 4b3d
000000b0: ceea 1b3d ad42 163d e061 043c 9719 36bb
000000c0: 17f7 f73b af83 ba3d 4ffc bd3d b26d 373d
000000d0: f3bb b03d 8335 973d 90f3 1fbd 04ba 8fbd
000000e0: 45d6 d23d 8d2a 6bbb 3c90 6fbd d1b6 013c
000000f0: 0b48 c33d 4e67 ee3c 7993 543d c483 333d
00000100: 6080 c13c d499 843b 30c0 8f3c 3d23 043d
00000110: 1b1d 143c c085 a3bc 9350 d53d 476a af3b
00000120: 85c7 08bd dcf0 b0bd 423d 183d d7c3 ae3d
00000130: 2e5b 913d 6ebb 48bd a29f f03c c551 143e
00000140: 39c9 adbd 6dbe f6bc 39b8 38bd fc14 ad3c
00000150: ab66 d8bd c49d 73bd 8771 febd af97 953c
00000160: fe3c bfbd 7922 7fbd 151f c9bd 8e92 9b3d
00000170: 6011 a1bd af1d 6fbd 6150 753d d242 a0bc
00000180: ef0b 17bb 9f20 873d 616c 29bd 3bc4 96bc
00000190: b9f8 a33d 69f7 b43c d2d3 c7bd 82cf 82bd
000001a0: c30e 3d3d 1e0e 05be b82c 34bd 1e06 78bd
000001b0: 4a1d 76bc 4101 6cbd a2f7 9fbc bb24 c4bc
000001c0: f342 8dbb 7a64 85bd 205b f6bd 7c26 a2bd
000001d0: b8a9 05bd 34bd 4dbd 08e4 c4bd 529c 623d
000001e0: d343 09be 8efe 96bd 0910 d7bc 81fa 51bd
000001f0: 18d7 b5bc 3cfd 843d f402 8abd f83d f3bc
00000200: d0c1 8abc cc53 f3bc d656 cfbb f0ec 073d
00000210: 0419 a5bd 68f3 7a3d d708 a73d a7ab b83c
00000220: 9b74 893d 9bc1 fb3d 3c6c 07bd 6e03 b2bc
00000230: 001a f73d 2653 ce3d dbac 72bc d6f1 533d
00000240: 9843 d03c 0faf 743d a507 893d c3fd 2c3d
00000250: 5629 2ebd cdde 3bbd 5c38 fbbd 995d 64bc
00000260: 97ab f8bd dff0 b6bd 1777 cebd 5351 853c
00000270: 44c4 b83b 1977 a43d d587 4d3d 889e 713d
00000280: 1790 923d 6e05 1e3d 7d58 92bd 654c 80bd
00000290: b489 7f3d e4ca 413c 71c9 dcbc bebd 88bd
000002a0: 7fa3 333d d8a6 de3c 14d3 17bd 338d c4bd
000002b0: 169f 8a3d 59e1 563d 9885 29bd 44da 8ebd
000002c0: 2919 78bd 217d debc 87dd 843b 42de f1b9
000002d0: 094a 813c 0cbc e0bc e9d3 e8bc e49c a7bd
000002e0: 667a 45bd 4b5b 47be bb70 3cbe 0936 37bd
000002f0: 6a89 1a3b 96cc 42bd 43b7 783b f338 54bd
00000300: 9f63 503c ef74 903d 8df4 8a3d d3f0 cabc
00000310: 31a0 063c 5649 74bd d440 80bd 41ad b6bd
00000320: 0c24 45bd 2e88 c6bd 1c5c b7bd f1d7 c3bd
00000330: b42f 59bd 7319 20bd 8632 adbd 5699 dabd
00000340: da5f 91bd ba8d 55bd 8014 7d3c 8221 e93c
00000350: 903e 83bd 2c05 cfbd 72cb bebd 54a7 a6bc
00000360: cafc 4c3d 4687 d33b 266a afbd b2ad d6bd
00000370: d4de 443d 1264 a23d b8c9 5c3c 6fba 02bd
00000380: c9b5 e03c 0696 113c 6f0c f2ba 7a76 e03c
00000390: 3477 613d 65ef 53bd 3512 c0bc 0bb3 023d
000003a0: 049b 043d 5591 8c3d 31fc 293e adb0 fb3d
000003b0: f88d de3c 4e36 863d 75df ad3d 9f00 233d
000003c0: 8a89 113d c9e1 a2bd 29c9 2fbd d19c 42bc
000003d0: 9536 7cbd 1433 5fbd 53b0 9ebd e3d4 5fbd
000003e0: 998e 94bd 1f60 b5bd 9bec 39bd 38a5 63bd
000003f0: 1ca3 2a3c 189c 40bd a875 94bd e8ad 043c
0.035162605 0.0035916634 -0.041690916 -0.06130755 -0.0652424 -0.06733215 -0.13305832 -0.07385954
-0.047946233 -0.11621396 -0.14642146 0.04940991 -0.010177859 -0.07754844 0.03980744 0.07456662
0.041957237 0.06505132 -0.063540906 0.060447704 0.11494862 0.14098123 -0.0350822 0.04040707
0.06607966 0.08652194 -0.111917384 -0.00913769 0.05361628 0.0690458 -0.015289418 0.07908099
0.07892674 0.086016886 0.09932426 0.084141575 0.024641162 0.016646156 0.014944906 0.07160083
0.08419945 0.0708271 0.04492687 0.049641084 0.038065724 0.03668468 0.008079976 -0.0027786249
0.007567297 0.09107148 0.0927664 0.044782348 0.086295985 0.073832534 -0.03905064 -0.070179015
0.10294775 -0.0035883517 -0.058487162 0.007917122 0.095352255 0.029101994 0.051898453 0.043826833
0.023620784 0.004046658 0.017547697 0.03226017 0.009040142 -0.019961238 0.10415759 0.0053532454
-0.0333934 -0.0863969 0.037167795 0.08533447 0.07097469 -0.049006872 0.029372994 0.14484318
-0.08485646 -0.030120099 -0.045097563 0.02112817 -0.10566457 -0.05947663 -0.12423997 0.018260805
-0.09337805 -0.062288735 -0.098203816 0.075963125 -0.07864642 -0.058377918 0.05989111 -0.019563112
-0.0023047884 0.06598019 -0.041363124 -0.018404117 0.080064245 0.02209063 -0.097571984 -0.06387235
0.046156656 -0.12993667 -0.04398796 -0.06055271 -0.0150216315 -0.057618383 -0.01952726 -0.023943296
-0.0043109595 -0.06513305 -0.120290995 -0.079174966 -0.03263256 -0.050229266 -0.09613806 0.05532486
-0.13404779 -0.07372771 -0.026252763 -0.05126429 -0.022197291 0.06493613 -0.067388445 -0.029692635
-0.01693812 -0.029703043 -0.0063274903 0.033184946 -0.08061412 0.061267287 0.08155983 0.022542788
0.06711694 0.12292787 -0.033062205 -0.021730151 0.12065506 0.10074453 -0.01481172 0.051744305
0.025422856 0.05973726 0.06690911 0.042234194 -0.04251989 -0.045866776 -0.12266609 -0.013938331
-0.12142103 -0.08932661 -0.10081308 0.01627413 0.005638631 0.080305286 0.050178368 0.058989078
0.07156389 0.038579397 -0.07145784 -0.06264571 0.062387183 0.011828158 -0.026951523 -0.066768155
0.043857094 0.027179167 -0.037066534 -0.09597244 0.067686245 0.052461002 -0.04138717 -0.069752246
-0.06057087 -0.027159275 0.0040547284 -0.00046132697 0.015782373 -0.027433418 -0.02842136 -0.081842214
-0.04821243 -0.19468419 -0.18402378 -0.044729266 0.002358044 -0.04755839 0.003795103 -0.051812124
0.012719064 0.07053553 0.067849256 -0.024773037 0.008216904 -0.05964025 -0.06262365 -0.08919764
-0.04813008 -0.09693943 -0.08953115 -0.09562672 -0.05302401 -0.03908677 -0.08456902 -0.10673778
-0.0709836 -0.052137114 0.015446782 0.02845836 -0.06408417 -0.10108408 -0.09316148 -0.02034346
0.050045766 0.006455335 -0.08565168 -0.104823485 0.048064068 0.07929243 0.013475828 -0.03191608
0.027430432 0.008885866 -0.001846684 0.027400244 0.05504532 -0.051741976 -0.023446182 0.03190903
0.032374397 0.068636574 0.1660011 0.122895576 0.027167305 0.065533265 0.08489887 0.039795514
0.035531558 -0.07953221 -0.04291645 -0.011878208 -0.06157549 -0.05449207 -0.07748475 -0.054646384
-0.07253761 -0.08856224 -0.04539166 -0.055577487 0.010414865 -0.047023863 -0.07249004 0.008098103

encoder.0.bias f4 [40]
00000000: 546b b6b9 b4ed 6bba b56f 61bb bc09 95ba
00000010: 61de 9abb f933 8dba 65d1 0b3b 6b3d 0f3a
00000020: 80e5 5ebb 715c be3b a1d5 f1b7 9efe 1aba
00000030: ab38 41bb 9a91 8eb8 f18b c3ba 8188 493b
00000040: fa55 9dba d1b1 a9ba 2e95 0539 95cb 02bb
00000050: 8a6a c6bb 0a58 1c38 db18 2fbb fc8a 76bb
00000060: f734 ba3a 483f 2539 3ec3 5438 255c 483a
00000070: 70d0 d239 47ff 26ba 771f 933b 6101 9f3b
00000080: 3b79 0d3a 654e a8bb 7c40 643b 8fae 00ba
00000090: 83a3 b4ba ec0a 9dbb 1ec8 6dbb 562e 07bb
-0.0003479371 -0.0008999959 -0.0034398858 -0.0011370699 -0.0047262167 -0.0010772935 0.0021334526 0.0005464169
-0.0034011304 0.0058093597 -2.8828917e-05 -0.00059125747 -0.002948324 -6.798208e-05 -0.0014919025 0.0030751529
-0.0012003772 -0.001294667 0.00012739442 -0.001995777 -0.006055181 3.727529e-05 -0.0026717696 -0.0037619462
0.0014206459 0.000157592 5.0726572e-05 0.0007643125 0.0004020962 -0.0006370437 0.004489835 0.0048524593
0.0005396788 -0.0051362985 0.0034828475 -0.0004908824 -0.001378164 -0.0047925618 -0.003628261 -0.0020626984

encoder.1.weight f4 [40]
00000000: ced9 503f 8d91 373f 2441 473f 3703 1f3f
00000010: 0552 343f ea3c 6b3f e4dd 453f f6b3 423f
00000020: 297c 363f 98b0 373f e13a 533f 3726 403f
00000030: b193 603f 2842 493f 2a3c 323f 6356 723f
00000040: 0c89 473f a85b 603f 9f03 473f 9e55 5d3f
00000050: 4a20 2e3f 7896 4f3f 1d7f 343f 100a 383f
00000060: c468 153f 6176 453f 42ac 413f 2ca0 183f
00000070: cc70 3f3f aa75 453f a463 533f 8936 4f3f
00000080: 7a1e 553f 1a37 493f 92e3 613f 35b9 2d3f
00000090: b426 653f 69ac 773f 0aa7 743f c838 3c3f
0.81582344 0.7170647 0.7783377 0.6211428 0.7043765 0.9188982 0.77291703 0.7605585
0.71283203 0.71753836 0.8251172 0.7505831 0.8772536 0.7861657 0.69623053 0.94663066
0.7794349 0.87639856 0.777399 0.86458766 0.6801802 0.8108897 0.7050646 0.71890354
0.58362985 0.77133757 0.7565347 0.596194 0.7478149 0.77132666 0.82573915 0.8094259
0.8324963 0.78599703 0.8823787 0.6786073 0.8951218 0.9674745 0.9556738 0.7352414

encoder.1.bias f4 [40]
00000000: 1e36 51bd 16d7 fdbc 4327 d13b a58b fb3c
00000010: 61d9 2cbc 606e e3bd 2988 12be 4c03 1bbe
00000020: d892 573d e7a0 6c3d 6260 d2bd 4d7a f5bd
00000030: f8b2 3dbe 6a4a 09be 7e2e 063e 3351 30bd
00000040: b448 b6bb 1e71 dbbd affe e9bd 97ff 16be
00000050: fc41 19bd 0bf6 a4bd ae53 6b3e 936c a7bd
00000060: bc98 d63d 214d aabd 6d46 493e a6bf 273e
00000070: bbab b2bd 4fb4 a0bc b94c e4bd 75f8 43be
00000080: 01a7 07be ea3c 5f3e d6ad 88bd 1f2e 0abe
00000090: aa37 1cbe 95c7 5dbe 8aa7 51be f0d0 97bd
-0.051077 -0.03098635 0.006382854 0.030706236 -0.010549874 -0.11105037 -0.14309753 -0.15137976
0.052630275 0.057770636 -0.1027229 -0.11986218 -0.18525302 -0.13407293 0.13103673 -0.043046188
-0.005562866 -0.10714935 -0.1142553 -0.14745937 -0.037416443 -0.080547415 0.2298114 -0.08175006
0.104783505 -0.083154924 0.19655772 0.16381702 -0.08724161 -0.019617228 -0.11147446 -0.19137748
-0.132473 0.2180058 -0.066737816 -0.13494156 -0.15255609 -0.21658166 -0.20474067 -0.074128985

encoder.1.running_mean f4 [40]
00000000: d7fa ef3e 6e46 c6be cf48 0cbf ac6f babe
00000010: 28cb 79be 1598 f43e 2b4e 853e 1f9f 013f
00000020: 4e56 a3be 5f1f 043e 62a8 8a3d 13ea 0b3f
00000030: 151e f43e 6a39 8e3e 3332 efbe 95d2 013f
00000040: bf99 93be bd02 1c3f dd18 f83e b10c b73e
00000050: 40ee 9cbe cd70 603e bc83 5ebe a652 9c3e
00000060: d689 fabd 2452 0f3e caff 7bbe 3858 d8bd
00000070: a23a 043e 76c8 863e 61d7 693e 8a13 803e
00000080: fc8e 8c3e 4049 89be 8f9d aa3e cfec 83be
00000090: 4676 083f b066 f13e 80f0 0c3f 7c82 1a3e
0.46871063 -0.3872561 -0.547986 -0.36413324 -0.24393904 0.4777228 0.260362 0.50633425
-0.31901783 0.12902592 0.06770398 0.54654044 0.476792 0.27778178 -0.46717986 0.5071195
-0.28828236 0.6094168 0.4845647 0.3575187 -0.3065052 0.2191803 -0.2172994 0.30531806
-0.12233321 0.13996178 -0.24609295 -0.105637014 0.12912992 0.26324815 0.22836067 0.25014907
0.27452838 -0.26813698 0.33323333 -0.25766608 0.5330547 0.47148657 0.55054474 0.15088838

encoder.1.running_var f4 [40]
00000000: 5411 023e ad59 8f3d 9f82 f53d 8e29 8d3d
00000010: 9f25 093d 7100 fb3d 060f 623d 63b3 df3d
00000020: 105f 7e3d f53b 073d 1912 433d 0572 033e
00000030: 62f8 033e fecb 233d c27f c73d e200 d93d
00000040: 155d 833d 77bb 2d3e dee4 f53d a2c6 953d
00000050: 74b6 363d 96eb 2d3d 6e2e cb3c f541 883d
00000060: f2e0 063d 52e4 583d 391a 3c3d 7733 143d
00000070: 36c0 183d 61c1 5a3d 8533 4f3d e15b 3b3d
00000080: ea58 3f3d 38f2 363d e2aa 413d 2acf 803d
00000090: 01b2 123e 4004 d43d 6de6 043e 0b96 c53c
0.12701923 0.06999526 0.119878046 0.068926916 0.033483144 0.122559436 0.05519011 0.10922887
0.062102377 0.033016164 0.04762468 0.12836464 0.1288772 0.039989464 0.09741165 0.105958715
0.06414238 0.16966043 0.120065436 0.07313277 0.044607595 0.042461 0.024802413 0.06653205
0.03292937 0.05295212 0.045923445 0.036181893 0.03729268 0.053407077 0.050586242 0.04574192
0.046715654 0.04466459 0.047282107 0.062895134 0.14325716 0.10352373 0.12978525 0.024119398

encoder.3.weight f4 [40, 40, 4, 4]
00000000: ec0e 8cbc 0ef7 13bc 40d1 32bc f5f3 a7bc
00000010: 11ce 2fbd 3f60 88bd 0935 81bc 31e4 cd3c
00000020: 59b9 d33b 6ce7 873d 7b38 fdbc 0c64 f83c
00000030: 7bad 773d 75a6 3f3d b9e6 74bb 008c ebbb
00000040: 42d8 8abc a038 bb3b 7906 383d ecef 34bc
00000050: 8d1d 1cbd f0c0 a3bc 9e29 0d3d 9a9d 6e3d
00000060: b604 0f3b 937d 233c f6bc 8e3c f789 cb3d
00000070: b837 72bb 470c b5bb 7b92 363d abe5 5bbc
00000080: f939 febc 304a 94bc 89af abbc 6182 f2bc
00000090: 1e07 793c 04c5 53bd b03c 79bd 4e8c 97bc
000000a0: 1795 3e3d 6eb4 87bb 81db abbd 8e7b 14bd
000000b0: 4fe2 b43d 5ddd 4dbd c1c1 66bd 1b9b 8abb
000000c0: 4445 323d 1bd3 dcbc a0d8 01bd c8a3 b83c
000000d0: 4ae4 b73c b929 38bd 4a65 dfbc 1cbc 283b
000000e0: b5a6 ed3c 88f8 31bd b306 0d3d 797b 973c
000000f0: 04c6 29bc 997d 2f3d fd5d d4bb 78ea dbbc
00000100: c6a1 683d ca70 ea3c c63e 16bd 96f5 6c3b
00000110: abce 813d 2596 2b3d 188e e4bc 835f 13bd
00000120: fa9c 6abd 8730 b33d 8a09 a23c 5f9e cdbb
00000130: d113 86bb d71d df3b ac2b 823c 14e3 c23b
00000140: 1ed2 d7bc bc4b 063d 5b26 2dbc 2dcf 043d
00000150: e3bb c9bd b89f 0d3d 1234 913d ebf3 323c
00000160: 4ad9 34bd 936a ff3d 2d8f 38bc 458e a5bd
00000170: 354c 2a3d d1e7 2c3d ae84 59bc f7bf ab3b
00000180: f4d8 943c ad97 f2bb dff0 973a e20f 253d
00000190: 6efb acbc b81f 72bd b6e9 583d 96b1 303d
000001a0: a038 d13c 26fa 463d 5883 b93c 825b de3b
000001b0: 3c50 1bbc af92 493d 574f edbb 0c5b 9b3c
000001c0: 287d be3c 4317 003d a4a9 653d 469d b8bc
000001d0: ce8f 883b 3ef5 55bc 27df 373d 7272 4a3d
000001e0: f188 413c adb3 f7bb 1f56 a8bc a9a3 3fbd
000001f0: c10d 81bd 1909 ee3c cd70 953d f7e9 89bb
00000200: 8535 3dbc 3f19 89bd 910f 76bd 7432 c43c
00000210: 8f9c 823d e2e9 50bd 12a7 82bb 478c c33c
00000220: 4d7e 02bd 5de1 67bc 546d 43bb ab8d 9abb
00000230: 4a5a 81bc 7faf 1e3d b4f4 0fbc 2b23 443a
00000240: 9a0e a939 9b47 46bd db4b 23bd e096 1e3b
00000250: 99b9 623d 3370 d73b e913 6ebd 8d5f 50bc
00000260: 6633 7d3d 811b f23c 1fc5 9fbb fc25 973d
00000270: 9f21 3b3c 6c41 7c3c 5d6e cdbb 4af6 a2bc
00000280: b651 6b3c 0269 943c f847 7f3d c412 f53c
00000290: 27d9 dcbc e437 e43d e865 c53c 6c92 c5bc
000002a0: 0407 bebd 8ea7 e53c fda2 003e fb8f ad3c
000002b0: 2f19 f23c b519 bd3c 178b 143b e02e cf3c
000002c0: 4038 70bd 8a3b d6bb cdca 043d 30e8 8c3d
000002d0: 340a ca3c 11c7 c0bc 9293 0cbd 4c35 d33c
000002e0: 4028 ebbb e4bb 88bd dadb 623d c8c6 72bc
000002f0: 315d 1abb 5353 43bc 732b b33c c81e 8f3d
00000300: 005b 88bd 838b ab3c 1ae2 833c 35db 33bd
00000310: 7796 20bd 1a0c 0fbd add8 403d 4363 a43c
00000320: da12 76bd a59f eebb 146a b0bc 7ec0 8a3d
00000330: 0b03 b33b c402 943a 799c c53c d6d8 e3bc
00000340: 4d5a 09bd 2dd3 d5bc 6793 3f3b c8f9 6bbc
00000350: b56d d13d e967 053e 1e39 54bd 276d aebc
00000360: 9e41 17bd ae8e efbc 7fc4 1f3c 8722 5d3d
00000370: c521 26bb eb95 17bd e389 b8bb 3db8 413d
00000380: e86b 323d e748 6fbd d5f6 fc3a 67c5 353d
00000390: 4dcd 293d 36e3 61bd ce59 92bc cd83 d13c
000003a0: c55c 4f3d c0d3 b3bc 513a 1dbd 2f3f f93c
000003b0: 5ec2 4b3d 6feb 033d 8475 27bd ce0b 873c
000003c0: f230 9a3c 2b24 51bd 4580 3bbc d382 de3c
000003d0: 729f fabb 7b07 98bd 3e1e d23c 6cc2 d83b
000003e0: cc59 873d c9dd 2fbc a965 81bd 9548 493c
000003f0: 500f 963c 10a5 f9bc 8752 e33c e8f4 f6bc
-0.017096959 -0.00903107 -0.010914147 -0.02050207 -0.04292113 -0.066589825 -0.01577236 0.025133224
0.006461304 0.06635937 -0.030910721 0.030321144 0.06046818 0.046789605 -0.0037368967 -0.00718832
-0.016948823 0.0057135373 0.044928048 -0.01104353 -0.03811412 -0.01998946 0.034463517 0.05825577
0.0021822876 0.00997867 0.017424088 0.09938424 -0.003695948 -0.005525145 0.04457329 -0.013421456
-0.031033503 -0.018101782 -0.020957725 -0.029603185 0.015199451 -0.05170156 -0.06084889 -0.01849952
0.046528902 -0.004141382 -0.083914764 -0.036250643 0.088322274 -0.050259937 -0.056337122 -0.004229916
0.043523088 -0.026956132 -0.03170073 0.022539034 0.022447724 -0.044961665 -0.027269978 0.0025746888
0.029010156 -0.04344991 0.034430217 0.018491494 -0.010362152 0.04284439 -0.006480931 -0.026845202
0.056794904 0.028618235 -0.03668096 0.0036157123 0.06338247 0.041891236 -0.027899787 -0.03597976
-0.05727861 0.0874949 0.01977994 -0.006274983 -0.004091718 0.006808977 0.015889965 0.00594748
-0.026345309 0.03278707 -0.010568227 0.03242414 -0.0985029 0.034576148 0.0709001 0.010922412
-0.044152535 0.12471499 -0.0112646045 -0.080837764 0.041576583 0.042213265 -0.013276262 0.00524139
0.018169858 -0.007403335 0.0011592171 0.04029835 -0.021115985 -0.05911228 0.05295726 0.04313811
0.025539696 0.048578404 0.022645637 0.006785811 -0.009479579 0.049212154 -0.007242124 0.018964313
0.023253039 0.031272184 0.056069985 -0.022535931 0.0041675335 -0.013058959 0.04489055 0.04942555
0.0118124345 -0.007559261 -0.020548878 -0.046786938 -0.063014515 0.029057072 0.07296906 -0.004208799
-0.011548405 -0.066942684 -0.06007344 0.02394984 0.063775174 -0.051004298 -0.0039872015 0.0238706
-0.03185873 -0.014152852 -0.0029819803 -0.004716595 -0.015790123 0.038741585 -0.008786369 0.0007482047
0.0003224507 -0.048408132 -0.039867263 0.0024198815 0.05535278 0.0065746545 -0.058124457 -0.012718094
0.061816595 0.02955413 -0.0048757936 0.07380292 0.01142159 0.015396457 -0.00626926 -0.01989283
0.014362743 0.018116478 0.062324494 0.029916175 -0.026959015 0.11143473 0.024096444 -0.024117671
-0.09278682 0.028033998 0.12562175 0.02118682 0.029553024 0.023083547 0.0022665912 0.025290906
-0.058647394 -0.0065378593 0.03241997 0.06880224 0.024663068 -0.023532422 -0.03432042 0.02578225
-0.007176429 -0.06676462 0.055385448 -0.014817901 -0.0023554082 -0.0119217215 0.021871304 0.06988293
-0.06657982 0.020940548 0.016099025 -0.043910224 -0.039205994 -0.03492365 0.047081638 0.020066863
-0.060076572 -0.0072822147 -0.021534957 0.06774996 0.0054630092 0.0011292328 0.024122464 -0.027813356
-0.033533383 -0.026101673 0.0029232146 -0.014402814 0.10226003 0.1302792 -0.051812284 -0.021292282
-0.03692781 -0.02924284 0.009751438 0.053988006 -0.0025349718 -0.037008207 -0.0056316718 0.047294844
0.04355994 -0.058419134 0.0019299636 0.04437771 0.041455556 -0.055148326 -0.017865088 0.025575543
0.05062558 -0.021951556 -0.038385693 0.030425636 0.04974591 0.03220695 -0.040883556 0.016485121
0.018822167 -0.051059883 -0.011444156 0.027161991 -0.007648402 -0.07423302 0.025649186 0.006614974
0.06608924 -0.01073403 -0.06318218 0.012285371 0.018317848 -0.030474216 0.027749313 -0.030146077

encoder.3.bias f4 [40]
00000000: ae74 1d3c 2d3f 8e3d 7d5c c73c bd16 5abc
00000010: dfa8 ac3d c09d 203c 076e 213e 5323 cfbb
00000020: c330 76bb 3383 493b ad69 123d 4c45 503d
00000030: 3d94 213c cbce b73c 1cc6 1f3d c35a 033d
00000040: 1a60 4bbc 6d1c 82bc aa12 bebb 75db a2bc
00000050: 9082 00ba 3d6f bd3b 21b7 0d3e fe6e e13b
00000060: 14d1 efbc 9f5f 703c 07da 303c 6ea0 493c
00000070: 7cb4 8f3d c01f aa3c 82f6 c9bb 13d9 2abc
00000080: 4a99 32bd 3c7c 7dbc d09d 97bc a4db f1bc
00000090: fd18 d0bc eed1 2ebd d4fb 963c 7eca cebb
0.009610338 0.069456436 0.024336094 -0.013311085 0.08430647 0.0098032355 0.15764628 -0.0063213496
-0.0037565685 0.0030748367 0.03574531 0.050847337 0.009862003 0.022437474 0.03900729 0.03206898
-0.012413049 -0.015882695 -0.005800565 -0.019880036 -0.0004902268 0.005781083 0.1383939 0.0068796864
-0.0292745 0.014671235 0.010794169 0.012306316 0.070168465 0.020767093 -0.006163419 -0.010427731
-0.04360322 -0.015471514 -0.018507868 -0.029523678 -0.02540254 -0.042680673 0.018430628 -0.00631076

encoder.4.block.1.weight f4 [40, 40, 3, 3]
00000000: 370e 2b3d db44 e4bc 674a 8e3d f016 45bd
00000010: d94d 9fbd 5483 65bd 73a7 f7ba 9440 3cbd
00000020: cb9e b73c 81de 25bb 37e9 733d 457a f43d
00000030: 2228 fe3b 5288 02be 1b25 bcbd e7b5 1abd
00000040: a8c8 a73d 421e d4bb fab0 513d 453b 71bc
00000050: f74c df3d c5e0 c33c 4fbd 4ebc 3e0c a23d
00000060: d0d0 f23d 523e 373c da6c 6cbc 104d 17be
00000070: 8d61 173e 83d2 febc d984 0abd a803 4fbd
00000080: 4808 8ebd a9fa a43c d6c1 5bbe 2ba2 21bd
00000090: 8e84 92bd 71de 91bc 4566 0c3d 78b0 043e
000000a0: 3784 1f3e 946b 8dbd 78d7 053d 92e6 14bc
000000b0: 2e36 b4bc 7414 723c 52fe 0fbd ab5a 933d
000000c0: bbd8 a53d eee4 e23c d9ea 71bb 90ee 8a3d
000000d0: 99df 0b3c 0746 1a3b 5306 c1bc 15b8 673d
000000e0: 58f1 1b3c f771 2f3d 4e07 a93d 45b0 73bc
000000f0: 760c 0bbd 46f5 073d cdfe 663c 42af 87bd
00000100: 5a8e a5bc 3fa3 763d 863c a5bc 4e25 ac3d
00000110: cf9e 10bd e45f 72bb 85dc 23bd ac74 ddbc
00000120: d707 37bd 9163 15bd c3b6 d3bc 0727 563d
00000130: b475 9e3d 6dc3 6cbc fbaf b6bc 2692 91bd
00000140: 8044 e0bc bc54 11bd 61f9 a53d 1edb 813d
00000150: ab68 fdbc 6189 cf3d b375 993b 21e1 d63c
00000160: 93d1 223e c0d0 143d 55f9 273d 970d 20bd
00000170: 18f0 e8bc 129f 63bd 6217 87bd 0562 c3bc
00000180: 0922 0bbd 8fc1 75bd 9f5e 6abd e96a b4bc
00000190: 45b0 963d 6d96 b4bd 89cf 973c 1c5a 503d
000001a0: cf73 573d fadd 84bc 04d4 6b3b d13f c1bc
000001b0: 93a3 39bc 428c a63d 791d 62bd 7f16 00bd
000001c0: ccb4 793d 5a8b f43b fd55 a2bd eeea 4ebd
000001d0: 2786 6fbd 5480 8c3c e6d7 5fbd 4817 9bbc
000001e0: 4a17 8fbd 6d6e 20be 2cc9 133e 34ec 21bb
000001f0: 9338 73bc 9504 04bb 0592 93bd f582 373d
00000200: 00cf c1bb 63bb 583e 6f1d 47be c518 b1bc
00000210: 63e9 2a3d dbab 3e3d 0db4 b23a 9813 36bd
00000220: 0b7c 2c3d c8e9 47ba e1d4 913d 5c0a 01bd
00000230: c63c 303d 1fd6 b13b a45b 9ebc e4be 9bbc
00000240: 21a5 debc 0530 64bd d045 b1bd 925f a33d
00000250: 0974 4ebd a1af 033d aa83 8bbd 855f 20bd
00000260: 1f89 843c 8212 a53d 2b32 2d3d 9b74 5dbd
00000270: 73eb afbd b63a 0b3e aa12 bd3d c4af 11be
00000280: 1a94 0abe a737 3a3d 29f9 813d 1bf9 39bd
00000290: 912d 5ebd 83ee 4dbc 90c4 d03c b8f3 dfbc
000002a0: 0c08 1abc 8cdb 7e3b a1ed 553c 2b94 253c
000002b0: 4bfd ff3c cc4f 7ebd c5d0 bebb 1b5e f3bd
000002c0: e6ef e4bd 2fb1 67be 4c34 a5ba 9694 8dbd
000002d0: c940 8bbd a493 c73d 490f 88bd 5d36 28bd
000002e0: 6f0f 31bd c43e 51bc 5565 a2be 98c1 7bbd
000002f0: 5d18 033c ff4c c1bd 79cb aabd e5fe b7bc
00000300: 6608 46be 5ef9 5fbd bbfc 993d 8cb3 12be
00000310: 4325 e53d df66 96bc d4f1 dfbb 70e5 ae39
00000320: c4ac 9b3c ab3f 58bd d55a 093e e72a 2abc
00000330: 3347 18bd a030 c7bd 1a77 01bd a5c6 d3bc
00000340: 3e2a 83bc ebe2 ceb9 cd76 eabd c6c6 24be
00000350: 8c94 5dbc 3759 8a3d 8f6c 4d3d 3694 953d
00000360: 50ac 6cbb 083d 27bd 9c9d 1bbd 290c 4abd
00000370: daa4 523e 8ad3 dd3d 1d7a a33d e0fa 77bc
00000380: e9f2 fc3c 6df7 bc3c 8618 253c 9d6f cabc
00000390: 6f2a 07be d460 0e3e f3f9 92bc 360e 133d
000003a0: 7886 f53c d9fa 8cbb dbad 773d 5a75 043d
000003b0: 63bd f23c 7c5d f3bb 7a7a b1bc c987 40bb
000003c0: e0b5 30bb def0 0bbd 94be 14bd 4916 2bbc
000003d0: 822c 31bc 539d 333c 6eff 143e 6f30 abbd
000003e0: 0850 43bd f024 0b3d c764 32bd 77e1 98bd
000003f0: 8785 d6bc ca32 aa3c 7f32 203d 0053 d63c
0.041761603 -0.027864864 0.06947785 -0.048117578 -0.0777852 -0.056033447 -0.0018894508 -0.045960024
0.022414586 -0.0025309625 0.059548583 0.119373836 0.007756249 -0.12747315 -0.09186765 -0.03777113
0.08192569 -0.0064733336 0.05119417 -0.014723604 0.10903352 0.02391089 -0.012618377 0.07912491
0.11856234 0.011184292 -0.014430249 -0.14775491 0.14783306 -0.03110624 -0.0338181 -0.050540596
-0.06935173 0.020139055 -0.21460661 -0.039461296 -0.07154189 -0.017806264 0.03427722 0.12957942
0.1557778 -0.069052845 0.03267619 -0.009088175 -0.021998491 0.014775384 -0.035154648 0.07195028
0.08097979 0.027697053 -0.0036913662 0.067837834 0.008537197 0.0023540275 -0.023562586 0.05657204
0.00951799 0.042833295 0.082533464 -0.014873569 -0.03394743 0.033192895 0.014098835 -0.06625225
-0.02020948 0.060214277 -0.020170461 0.08405553 -0.0353077 -0.0036983425 -0.040005226 -0.027033173
-0.04468521 -0.036471907 -0.025843984 0.052283313 0.07737294 -0.01445089 -0.02230071 -0.07107954
-0.027376413 -0.0354812 0.08104206 0.063406214 -0.030933699 0.10133625 0.0046832203 0.026230397
0.15900259 0.036331892 0.041009266 -0.03907546 -0.028434798 -0.055571623 -0.06596257 -0.02385045
-0.033968005 -0.059999045 -0.057219144 -0.022023635 0.073578395 -0.08817754 0.018531578 0.050867185
0.052600678 -0.016219128 0.0035984525 -0.02359 -0.011330503 0.08132221 -0.05520389 -0.031271454
0.060963437 0.007462901 -0.07926557 -0.050517015 -0.058477547 0.017151035 -0.054649256 -0.018932
-0.06986864 -0.15667124 0.1443221 -0.0024707438 -0.014845031 -0.0020144333 -0.072055854 0.044802625
-0.005914569 0.21165232 -0.19444822 -0.021618256 0.04172648 0.046550613 0.0013633982 -0.04445228
0.042110484 -0.00076260837 0.071206816 -0.03150402 0.043026708 0.0054271366 -0.019330807 -0.019011922
-0.027178349 -0.055709857 -0.08655894 0.07977213 -0.05040363 0.032149915 -0.06812222 -0.039153595
0.016178666 0.08060171 0.042284172 -0.05406628 -0.0858983 0.13596615 0.092320755 -0.14227206
-0.13533059 0.04546323 0.06346352 -0.04540358 -0.054242674 -0.012569073 0.025484353 -0.027337894
-0.009401333 0.0038888184 0.013057143 0.010106127 0.03124871 -0.06208782 -0.005823227 -0.118831836
-0.111785695 -0.22626184 -0.0012604087 -0.06913106 -0.06799466 0.09744957 -0.066435404 -0.04106747
-0.04322761 -0.012771312 -0.31717935 -0.061463922 0.008001414 -0.09438514 -0.083395906 -0.02246041
-0.19339141 -0.054681174 0.07518908 -0.14326304 0.11188748 -0.0183596 -0.006834248 0.0003335881
0.01900328 -0.052795094 0.13413556 -0.010386205 -0.037177276 -0.09726071 -0.031607725 -0.025851557
-0.016011354 -0.0003946045 -0.11448441 -0.16091451 -0.013524186 0.06755298 0.050152358 0.073036596
-0.0036113448 -0.04082969 -0.037992105 -0.049328003 0.20570698 0.108313635 0.07982276 -0.015135497
0.030877547 0.0230672 0.010076648 -0.024711424 -0.13199781 0.13904124 -0.01794145 0.035902224
0.029971346 -0.0043023643 0.060468536 0.032338478 0.029631322 -0.0074269157 -0.021664847 -0.002937781
-0.0026963875 -0.034165256 -0.036314562 -0.010442325 -0.010813834 0.010962802 0.14550564 -0.08358847
-0.047683746 0.033970773 -0.04355314 -0.07464879 -0.026186718 0.020776171 0.039110657 0.026162624

encoder.4.block.1.bias f4 [40]
00000000: 2832 483b c532 aabb dd8b cdb9 535d 4d3a
00000010: 9ed1 c8b9 7f46 353b ad2b b03a ac15 ae39
00000020: cc4c 453a df4f 72ba 6431 933b cc52 0d3c
00000030: a583 7fb9 8b6a f83a 438f 88b9 312a 943a
00000040: 1eb7 05bb 8ff0 b7ba 7690 123a 8a06 a03a
00000050: 560e 8cb8 5d11 2e38 8049 5aba 9884 11bb
00000060: e616 6f3b 8fab 15ba 7c6a a33a e072 ab3b
00000070: 9748 a7b9 69f5 403a 297b e83a b7be d03a
00000080: d13c bf3a 7045 163b 3a56 e7b9 c004 9b3b
00000090: e7fa 51bb 2ce2 ab39 ce20 71b9 9e93 303b
0.0030547474 -0.0051940405 -0.00039204853 0.0007834036 -0.0003830315 0.0027660427 0.0013440751 0.00033204013
0.0007526397 -0.0009243469 0.004491972 0.008625697 -0.00024367736 0.0018952651 -0.0002604668 0.0011304078
-0.0020403336 -0.0014033484 0.00055909844 0.001220898 -6.6783905e-05 4.1501004e-05 -0.00083269924 -0.0022204276
0.0036482154 -0.0005709463 0.0012467648 0.0052322 -0.00031906806 0.0007360788 0.00177369 0.0015925978
0.0014590268 0.0022929572 -0.00044123997 0.004730791 -0.0032040419 0.00032784173 -0.00022995772 0.0026943455

encoder.4.block.2.weight f4 [40]
00000000: b724 8c3f fa39 843f 2b29 773f d161 703f
00000010: 4d8a 6c3f 9c2c 6e3f a0d7 713f 6ef8 6f3f
00000020: 637c 5e3f 8279 5b3f be88 7d3f 19ef 873f
00000030: a354 733f d22c 953f 5cfe 8c3f 5788 883f
00000040: 6573 8a3f a379 363f aa02 6d3f 2ff6 713f
00000050: eefa 833f 3d51 883f 8e50 3b3f 6d11 833f
00000060: 4c80 583f d4f0 653f f72f 8e3f 1f72 893f
00000070: afcd 833f 2271 903f 70c3 8d3f a882 8d3f
00000080: 0fc3 803f 6305 943f 5002 723f 0211 873f
00000090: c7c6 773f cd5b 4a3f 676e 973f e766 5d3f
1.0948704 1.0330193 0.9654719 0.93899256 0.9239853 0.9303682 0.9446964 0.9373845
0.8690855 0.8573228 0.99036777 1.0619842 0.9505102 1.1654303 1.1015124 1.0666608
1.0816466 0.7127935 0.9258219 0.9451627 1.0310953 1.0649792 0.7316979 1.0239693
0.84570765 0.898206 1.1108388 1.0737952 1.0297145 1.1284525 1.1075268 1.1055498
1.0059527 1.1564144 0.9453478 1.0552065 0.96787685 0.79046327 1.1830567 0.8648514

encoder.4.block.2.bias f4 [40]
00000000: e545 873e 8ac1 0b3c 37c9 cfbd 8423 903e
00000010: dde8 8e3e 77d8 c93e e221 103e 6719 9a3d
00000020: b2fa 003e 7c21 babd 5b77 de3d d5e0 a43e
00000030: 4cc5 c43e 5ed7 e03e 1042 e73e 3f2d 92bd
00000040: efff 913c a8e0 403d d165 4d3e 7397 8d3e
00000050: b916 51be 9697 c2bd 4544 e3bd ef2f 1dbe
00000060: 8991 0e3e 4fb5 e4bd 4730 803e 33c9 6a3d
00000070: 5708 97bd c0b2 923c 22e4 8f3e e794 853e
00000080: bd0b 133d ed51 b63e 4309 833e 764c e6bc
00000090: 806f 323c f5e5 d9bd 0fee 51be c8ca 0e3e
0.26420513 0.00853003 -0.101458006 0.28152096 0.27912036 0.39422962 0.14075425 0.07524376
0.12595633 -0.09088418 0.10862609 0.32202783 0.38431776 0.43914312 0.4516759 -0.07137536
0.017822234 0.04708925 0.20058371 0.2765461 -0.20418824 -0.09501569 -0.11097006 -0.15350316
0.13922705 -0.11167394 0.25036833 0.057320785 -0.073746376 0.0179075 0.2810374 0.26090166
0.035899866 0.3560938 0.25593004 -0.028112631 0.0108908415 -0.10639564 -0.20500968 0.13944542

encoder.4.block.2.running_mean f4 [40]
00000000: 2721 943e 8942 4dbf c35f 37bf 1509 0bbf
00000010: 2c94 583e c185 3e3f 0a62 a53e a739 7bbe
00000020: e592 653e 476f cebe f2bd f73e 2eba 0d3e
00000030: 4c48 a43d aa4e bd3e 033f c13e 9c8f 38bf
00000040: f7b3 29bf b3f9 cebd 7957 043f 200e 613d
00000050: 5e6c eebc 73c0 41bf c6f6 48be f364 a5be
00000060: 0e50 9e3e bd5b 2dbf 7912 393f be09 033f
00000070: 4fe3 a13d f941 6bbf 5194 603f e75a 273f
00000080: 3af3 28bf 26a1 fbbc 4533 b43e c735 05bf
00000090: fcd6 3dbe a30e 20bf 7578 babe 3e8a 813c
0.28931543 -0.8017965 -0.71630496 -0.54310733 0.21150273 0.7442284 0.3230136 -0.24533711
0.22419317 -0.40319273 0.48387104 0.13840553 0.08021602 0.36974078 0.37743387 -0.7209413
-0.6629023 -0.1010622 0.5169597 0.05494511 -0.029104408 -0.7568428 -0.19625387 -0.3230358
0.30920452 -0.67718107 0.7229381 0.5118674 0.07904684 -0.9189754 0.8772631 0.6537308
-0.65996134 -0.03071649 0.35195366 -0.5203518 -0.18539041 -0.62522334 -0.36420026 0.01581299

encoder.4.block.2.running_var f4 [40]
00000000: 1af3 e73e 2eab 6a3f 24cb 303f 5d8f 0a3f
00000010: 7574 b83e 12ba 513f a1f7 ff3e 204b 113e
00000020: 05a9 ec3e 77b5 173f 7cf0 123f ea67 b33e
00000030: b911 b73e d010 b53e b2e7 1b3f 0a0c 2b3f
00000040: d8cb dc3e 4add 663e f01a 103f c4aa 5f3e
00000050: a0ed 073e 8fef 513f da06 d83d 3b04 143f
00000060: d4a1 f43e d506 183f 2bee 243f e690 e33e
00000070: accf cc3d 6db8 8b3f f39a 463f d109 863f
00000080: ee5d 573f d798 973e a24a fa3e bae6 d03e
00000090: d07f a43e c54b c93e 9b2b f13d 2bf5 af3e
0.4530266 0.9166745 0.6905997 0.54125005 0.3602635 0.81924546 0.49993613 0.14188814
0.46222702 0.5926127 0.573982 0.35040218 0.3575571 0.3536439 0.60900414 0.66815245
0.4312427 0.22545353 0.56291103 0.21842486 0.1327424 0.8200616 0.10548182 0.57818955
0.47779715 0.59385425 0.64425915 0.44446486 0.10000548 1.0915657 0.77580184 1.0471746
0.841277 0.29608795 0.48885065 0.4080103 0.32128763 0.3931562 0.11775895 0.34366736

encoder.4.block.4.weight f4 [40, 40, 1, 1]
00000000: 0b0e 2b3e eb63 ca3d 6dde 853e 7709 243e
00000010: e958 4f3e a139 75be 60b9 de3d 9aff 193d
00000020: c6da cb3d c1a0 dd3c 2792 2cbe e351 8ebd
00000030: b55c c3bd d8ae 72be 98e6 1bbe f8a1 2f3d
00000040: e299 883e 06a0 893d 75ba 5fbd d0f2 03be
00000050: aace c43d 5c32 d73d 0fab afbc 7c64 2c3e
00000060: d638 903e 17c4 493d 7c44 bfbe 7993 6cbe
00000070: 2def 67be d64e b13c 5e26 adbe 19ab bb3d
00000080: e92b ab3d cd32 88be ff62 973d 6a27 983c
00000090: 829c 3dbd e813 9b3b 175f c03e 7d02 363d
000000a0: aabf 163e d98e 073c e9c6 8b3e f310 25be
000000b0: f2ba fc3c 1a9b 47be 3557 573c cd9c 1bbc
000000c0: 11a2 213e b994 2cbb 08e8 803d 7118 143e
000000d0: 1cf2 5c3e 7e33 293e ccb8 9b3e dffe 85be
000000e0: 7fd2 dfbc 1a40 2e3e 7a5c 6dbc 0e14 8b3d
000000f0: 4f7a 2cbc 55ea 38be cffc 1cbd 7d2a 56bd
00000100: 57bf 41bd 6fdc 033a d688 c03d cd67 2a3e
00000110: 1242 6cbb 6d00 67bd 67a2 1a3e ea20 1c3e
00000120: ceb2 ae3d 20f8 b43e efea 6c3e 0d4e 1dbe
00000130: cddf 3abe 278d c1bd aa77 3dbe d75e aabc
00000140: 1a63 fdbd c3e9 9c3e 3dda a7bd 32e4 dabd
00000150: 7310 c6bd bede fbbd 639b a3bd 4543 31be
00000160: ed4e 1d3d cc83 f93c 99e7 c03d 5c59 66be
00000170: 5c1a be3d 2759 13be 0929 26be 82ae 433e
00000180: 8832 9f3d 7479 c0bc af48 32be 9ebe a9ba
00000190: cbcf f33c 5e3e 483e 2d7c af3c 3d8e de3c
000001a0: 5650 54be a9e2 003e 036c 08be 4a0b 6c3d
000001b0: 1bd1 36be 2014 d03d 84d0 eebd 4ebe 92be
000001c0: 29c0 66bd c461 82be f021 403c 84f7 fe3d
000001d0: 3fad cdbb 6aaf 1f3e 4dda 013f 8280 79be
000001e0: 31f6 9dbd 0a95 733e b9dd d73d 9229 cd3d
000001f0: 0d05 2bbd 6c94 0b3d 5491 8cbd 6628 9abe
00000200: 51cf 0cbe 37d1 2cbd 8c3a 8e3d c5d0 42be
00000210: fb96 0abd bf0d 07bc f223 13be 8173 80be
00000220: 7128 7cbd fd03 bb3d 42cb 2dbd 7615 fa3d
00000230: 025a 653e e04f ca3d aa75 c1bc d844 0e3e
00000240: 3dde 12be 9b33 93bd d5b5 9fbd 1953 f6bd
00000250: 2712 3d3e 5499 a5bd 6f3b e0bd fb9e a53c
00000260: 5888 083e c492 24be 68ce a93c 661f 553e
00000270: b2d0 283e bd8a 4bbd 604c dc3e af61 40bd
00000280: 1f45 0dbe 1594 47be db3e 0cbc 2a39 36bd
00000290: 1ce2 133d 4bad 3dbe 0155 8f3e 02a5 16be
000002a0: 94f3 86bd 5644 633e 5330 45bd 1169 133d
000002b0: 0b45 683e 2a21 9e3e d980 163e 0b72 9b3d
000002c0: aae7 42be fe93 f13d 2ecc fe3d e403 6d3e
000002d0: 3f4d 583e 3ebb 943b 2739 4dbe 5918 c83d
000002e0: 09dc f2bc 4fe9 b3bd afc1 d4bb ad02 4e3e
000002f0: 2105 c13d d816 3bbe 1ece 723e dea8 ddbd
00000300: 1f4e c2bd b05d 933d 197f 853e 7cd8 0fbe
00000310: de50 ea3b 7a0d 1ebe 107c 5bbe 1d27 173e
00000320: 1454 3fbd 62c1 98bc a201 6c3e 497a b7bc
00000330: b995 12be db49 8ebe d3a9 18be 370e f93d
00000340: 1571 49bc 278e dfbc afc5 ebbd 9c14 95be
00000350: 7a62 9bbe b5cf 61bc 5218 633d f4ca 683e
00000360: 5768 fc3d 9d8d 77bd f9a4 0fbc c4ed c4be
00000370: c172 db3c 5225 7d3d 223c 2fbd 0235 823d
00000380: f900 61bc 3158 623c 60b4 7f3d de72 343e
00000390: b92b dbbe edf6 523e c8e3 56be ea83 193e
000003a0: 5f58 9d3d 4511 dd3d ca30 a2be feea 073e
000003b0: 9617 d3bc 09dd 433b 3b44 d73e f76d 0ebd
000003c0: e5cd 39be 2b4f 18be 5094 9bbe 93f6 eebb
000003d0: ace5 473c 729b 20be a53c 3d3e a6bb d03d
000003e0: 9a7c 8e3e 060a c93c 3b05 03bf e6de 63be
000003f0: 5c73 b1bd 468a 5ebd ad14 b0bd 219c 88bd
0.16704576 0.09882339 0.2614626 0.16019236 0.2024876 -0.23947765 0.10875201 0.037597276
0.09953837 0.027054192 -0.16852628 -0.069492124 -0.09539167 -0.2369951 -0.15224683 0.042879075
0.26679903 0.06719975 -0.05462118 -0.12885594 0.096097305 0.10507652 -0.021443872 0.16835207
0.28168362 0.04925927 -0.37356937 -0.23103131 -0.22649832 0.021644037 -0.33818334 0.09163494
0.083579846 -0.26601258 0.07391929 0.018573482 -0.046291836 0.0047325976 0.37572548 0.044435967
0.14721552 0.008273804 0.27300194 -0.16119747 0.030850861 -0.1949276 0.01314335 -0.009497833
0.1578448 -0.0026333763 0.062942564 0.14462449 0.21576732 0.16523549 0.30414426 -0.26171014
-0.027322052 0.1701664 -0.01448738 0.067909345 -0.0105272075 -0.1805814 -0.038327035 -0.052286614
-0.047301617 0.00050301006 0.094010994 0.1664116 -0.0036050123 -0.05639689 0.15101014 0.1524693
0.08530198 0.35345554 0.23136495 -0.15361805 -0.18249436 -0.09450751 -0.1850268 -0.020797176
-0.12372418 0.30647096 -0.081959225 -0.10688056 -0.09671106 -0.12298344 -0.07988622 -0.17310818
0.038405348 0.030458353 0.09419174 -0.22495025 0.092823714 -0.14389478 -0.16226591 0.19109538
0.0777331 -0.023495413 -0.17410539 -0.0012950485 0.02976217 0.19555041 0.021421516 0.027167434
-0.2073377 0.12586464 -0.13322453 0.057627954 -0.17853205 0.101600885 -0.11660865 -0.28660816
-0.056335602 -0.25465214 0.011726841 0.124495536 -0.006276756 0.15594259 0.50723726 -0.24365428
-0.07712973 0.23787323 0.10540337 0.100176945 -0.041752864 0.034077093 -0.06863657 -0.30108947
-0.1375096 -0.04219171 0.06944761 -0.19024952 -0.033835392 -0.008243023 -0.14369181 -0.25088122
-0.061562005 0.0913162 -0.04243017 0.122111246 0.22397617 0.09878516 -0.023615677 0.1389345
-0.1434259 -0.07187577 -0.077983536 -0.12027568 0.18463956 -0.08085886 -0.10948836 0.02021741
0.13333261 -0.16071612 0.020728305 0.20812759 0.16485861 -0.049692858 0.4302702 -0.04696816
-0.13795899 -0.19490083 -0.008559908 -0.04448811 0.036104307 -0.18523137 0.2799454 -0.14711383
-0.065894276 0.22194037 -0.04814179 0.03598887 0.22682588 0.30884677 0.14697589 0.07590111
-0.19033685 0.117958054 0.12441288 0.23146015 0.21123217 0.0045389226 -0.20041333 0.09770269
-0.029645937 -0.087847345 -0.0064928154 0.20118208 0.094248064 -0.18270433 0.2371144 -0.108232245
-0.09487557 0.07195604 0.2607353 -0.14047426 0.0071507534 -0.15434828 -0.21434045 0.14761014
-0.046711043 -0.0186469 0.23047498 -0.022397177 -0.14314927 -0.27790722 -0.14908533 0.121609144
-0.012295027 -0.027289463 -0.115123145 -0.29117286 -0.3034857 -0.013782431 0.055443116 0.2273367
0.12324589 -0.060437787 -0.00876736 -0.3846265 0.026788117 0.06180317 -0.042781956 0.06357767
-0.013733142 0.013814972 0.06242788 0.17621943 -0.42806795 0.20602007 -0.20985329 0.14991727
0.07682871 0.107943095 -0.31677848 0.13273236 -0.025768083 0.0029886386 0.42044243 -0.03477284
-0.18144949 -0.1487395 -0.3038659 -0.0072925775 0.012200754 -0.15684298 0.18480165 0.10192041
0.27829438 0.024540912 -0.51179856 -0.22252998 -0.08664581 -0.054331087 -0.085976936 -0.06670404

encoder.4.block.4.bias f4 [40]
00000000: cca6 06bc e06b 053b 14ec aabb 99a8 dbba
00000010: fda8 23ba 5b8b 6f39 e473 3dbc 8017 18bc
00000020: 7bb1 ef39 385c dbb8 fc29 0ebb 63d5 81bb
00000030: 31e0 94bb fe1e af3a a24d d8bb 8ed7 5d39
00000040: 907d c9bb 1236 173a fd15 373b 07b9 223c
00000050: 07bb ee3b 01da a1bb 6bb4 923b be0a 8aba
00000060: 3a5e babb 74f8 87bb 91f8 68bb 9a2e e338
00000070: 8b0c abbb 4e3b 01bc c59f de3a e31a b53b
00000080: a92d 1fbb b574 55bb adc3 04bc 71f9 89bb
00000090: 281c c2bb 0305 cfbb 3580 f93a 0775 eeba
-0.008218478 0.0020358488 -0.005216131 -0.001675862 -0.0006243138 0.0002284473 -0.011563275 -0.009282947
0.00045717866 -0.00010459911 -0.0021692505 -0.0039622053 -0.0045433273 0.0013360677 -0.0066010514 0.00021156503
-0.0061490014 0.000576825 0.002793669 0.009931809 0.007285479 -0.004939318 0.004477074 -0.0010531766
-0.005687502 -0.004149491 -0.0035548548 0.00010832884 -0.005220001 -0.0078876745 0.0016984871 0.005526887
-0.002428869 -0.0032570784 -0.008103293 -0.004210644 -0.0059237666 -0.006317736 0.0019035401 -0.0018192836

encoder.4.block.5.weight f4 [40]
00000000: 36e4 503f eac0 2b3f 458d 3d3f 6dc4 273f
00000010: 0b46 4d3f b770 2f3f e946 813f 6e75 0d3f
00000020: 6cfa 4c3f 3c95 333f ada8 623f d20b 6c3f
00000030: 539c 4c3f 3e55 2a3f 901f 243f 8238 993f
00000040: b3be 163f d354 783f 1665 6f3f aa7c 1a3f
00000050: f198 063f c08b 763f cd8a 603f 9474 373f
00000060: 1e87 283f 31ea 143f 5129 6d3f 2f64 653f
00000070: 9791 463f a1e9 453f 8392 5b3f ca60 173f
00000080: da7f 0b3f d2b5 4f3f ab0a 693f 5324 583f
00000090: ae53 553f 996c 3f3f ad15 083f 76b6 2d3f
0.8159822 0.6709124 0.74043685 0.65534097 0.80185 0.68531364 1.0099765 0.5525731
0.80069613 0.7014959 0.8853863 0.92205536 0.7992603 0.6653632 0.6411066 1.197037
0.58884734 0.9700443 0.9351362 0.6034647 0.5257712 0.9630699 0.87711793 0.7166226
0.6583117 0.5816985 0.9264117 0.89605993 0.775659 0.77309614 0.85770434 0.59132063
0.5449196 0.8113681 0.91031903 0.84430426 0.8333081 0.7477508 0.53158075 0.6785654

encoder.4.block.5.bias f4 [40]
00000000: 1f22 b8be 3643 df3d 0c94 88be 2e6f fdbd
00000010: c946 1b3d f95a 1bbe 7ba1 85be 1f1a 80be
00000020: 4775 113e 77f5 6dbe c43f c93d 1bb8 8bbd
00000030: 661e 8cbe 1042 9b3c 03bf 43bd 3f58 91be
00000040: 48a9 68be 0502 9d3d b187 2c3e 8c70 74bd
00000050: 815b 2abd 2a18 c53d 446b 873d 2b45 babc
00000060: 3544 52be 902b 0bbe 5723 063e 2b4e ac3d
00000070: 4eec 34be f8ef d0bd c42b 2dbe 05a6 0dbd
00000080: fc1a 00be 1bb9 5dbe 13f9 c6bd b066 9dbe
00000090: 7c1a 86be 2f9f 11be 5948 653d 4f74 39be
-0.35963532 0.10901491 -0.2667545 -0.123747215 0.037909303 -0.15171422 -0.26099762 -0.2501993
0.14204894 -0.23238169 0.098266155 -0.06822225 -0.27366942 0.0189524 -0.047789585 -0.2838764
-0.22720826 0.07666401 0.16848637 -0.059677646 -0.04159117 0.096237496 0.06612256 -0.02273806
-0.20533831 -0.13590837 0.13099419 0.08413347 -0.17668268 -0.102020204 -0.16911227 -0.034582157
-0.12510294 -0.21652643 -0.09715476 -0.30742407 -0.2619208 -0.1422088 0.0559772 -0.18110774

encoder.4.block.5.running_mean f4 [40]
00000000: e400 01be 5b29 443f bb24 17bf 2d29 89bd
00000010: f1ae ee3e 2ac8 b7be c10b 4dbf d912 42bf
00000020: 76db d83d ad07 78be 7b74 cf3e 8219 1b3e
00000030: fc54 a53e 8879 253f d15d 83be 0959 2ebe
00000040: 445e 68bd 7e0e f53e bab3 823f 0b8a d23e
00000050: 2cad 673e a261 0b3f fd1f cd3e f2e9 a23d
00000060: 5630 f1bd 50d5 d2be b421 bc3e afff 053f
00000070: 5e06 c5be 8d7b e6be 3aca fdbe e2da 203d
00000080: 7f14 b4bc 9bac 88be ba55 81be 5388 33bf
00000090: ebc6 50be bc81 46be f8f0 143f 04f6 2abe
-0.12597996 0.76625603 -0.5904042 -0.06697307 0.46617845 -0.358949 -0.8009606 -0.7581001
0.10588734 -0.24221678 0.40518555 0.15146449 0.322914 0.64638567 -0.25657514 -0.17026152
-0.056730524 0.4786262 1.0211098 0.41120943 0.22624654 0.5444585 0.40063468 0.07954778
-0.117767975 -0.4117837 0.36744463 0.5234327 -0.3848142 -0.45016137 -0.4956835 0.039271243
-0.02198243 -0.26694188 -0.25260717 -0.7012989 -0.20388381 -0.19385427 0.5818019 -0.1669541

encoder.4.block.5.running_var f4 [40]
00000000: 1741 3940 8153 8540 18e7 8640 42b8 1440
00000010: a15c 0a40 2885 3a40 aa49 e33f e86e c740
00000020: 0e72 9b3f 69ef e23f 1db2 4040 25b0 ce3f
00000030: 59a8 063f d678 8a40 26de d240 2b14 d33e
00000040: 5eae 933f 4ba4 d33f 40ca 6c40 b384 ca3f
00000050: 3d9c e13f 3ee3 8c40 fd30 223f cb86 6140
00000060: 98c1 3240 1965 f63e 2e33 5d40 c02e cb40
00000070: 9632 0540 986f 8a3f 375b 1040 7a56 db40
00000080: dcd1 ba3f bddb 8c3f d14f 5640 e723 3f40
00000090: 87d6 823f 6080 673f 7446 b240 2b93 c73f
2.8945978 4.1664433 4.2157097 2.3237462 2.1619036 2.9143772 1.7756855 6.2322884
1.2144182 1.7729312 3.0108712 1.6147505 0.5260063 4.3272505 6.5896177 0.41226324
1.1537588 1.6534513 3.6998444 1.5821747 1.7625805 4.4027395 0.63356 3.523852
2.793066 0.48124006 3.4562488 6.349457 2.0812125 1.0815306 2.2555673 6.854306
1.4595294 1.1004559 3.3486216 2.9865663 1.0221719 0.9043026 5.5711 1.5591787

encoder.5.block.1.weight f4 [40, 40, 3, 3]
00000000: 6e08 e53d 56c7 153c 0349 15bd 288a 3dbd
00000010: 5c43 49bd 9d8d d4bc 3f4f 073e 2bd1 a1bd
00000020: 64b6 133d 4ede 1b3d 0c29 59bc f639 2ebc
00000030: db7e 06bd 998f 473e 665b b03c 87d8 96bc
00000040: f68b 873d bd98 15bd 73c7 eebc ca5d b53d
00000050: 955b 46bb 57c6 27bd b4ba 8cbe 959c 753d
00000060: cf0a b7bd 0ddc 0e3d f50f 2dbd c413 e23c
00000070: 8137 6fbc 165d 423a 9492 b53d fa9e 7abd
00000080: d333 adbc 89fb 073d 5c34 2f3c 21e5 603d
00000090: f2cb 593d e69f da3b 376f 8dbc 20bf 913c
000000a0: 510a 2bbe c900 9b3d 3d10 97bb cbf9 8dbc
000000b0: ad5e 583d a1a8 c0bc bc25 433b cea3 073d
000000c0: dacc 85bd be00 6ebe 0313 43bd 48fc 2dbd
000000d0: 6172 333d 7471 993c 1d2a 00bd 650e e63d
000000e0: d4eb 02bc 8690 cfbc 2e14 86be 296d 7ebd
000000f0: 5bd1 61bc 67de 17bd 9c34 2abc 4401 35bc
00000100: a2d3 cbbc bc49 d73c 2bf8 96bc 4df4 12be
00000110: a21d 67bd ec52 7ebc 33fe a53c a904 cc3c
00000120: 9174 3f3b 0e8e fbbc 3bf5 32bd 3672 773b
00000130: 91ea e2bd f45a 5abd 29c7 753d b902 94bd
00000140: f70a 243c f6c5 c93c c94f 0b3d 861e d13c
00000150: bd4e c43c 9d45 05bb 17e8 813d 0cfa 2dbd
00000160: 32b3 343d 790c 343d c518 8d3a e8eb 30bc
00000170: 98f0 0e3c 14ab 84bb b098 1f3e 2de1 843c
00000180: 0202 283d 5b2c dcbb 8724 a93d f151 70bc
00000190: 4743 223d 0d87 37bc da50 abbc ee75 73be
000001a0: c205 ce3c 77c9 43bd 91a4 76bd c44e d8bc
000001b0: feac 623d 99cb 20bd 1890 5b3c a0f5 123e
000001c0: 49d0 60be 02ed 173e 3e7f 91bd 9b80 bc3d
000001d0: fa81 a9bd 904d 69bc 4245 eebb ba72 453d
000001e0: 2e05 58bb 15d1 5dbd 4af3 13bd 5a8e 5c3c
000001f0: 7435 b73c 420f 5bbd 5de5 83bd 886a b4bd
00000200: e0dd 0fbd 4345 d13c 11b7 f43d c400 34bd
00000210: bf25 803c 70bc 9a3d 302d 513d 422e 023c
00000220: cecd 33bc 140d d03b 1a79 c63b fa26 36bd
00000230: 08c8 ba3b 511b 0e3c a090 c8ba 3239 5abc
00000240: ca37 37be dbff 3ebc a4c7 1f3d d244 863c
00000250: fdaf 12be 30dc a8bc aed5 0a3d c8ad b53c
00000260: 6b55 533d 00a9 d53c 86f6 283d 1777 143d
00000270: 90de 93bd 18c8 373c 0c59 7a3d 40fa 7d3c
00000280: 58dc bcbc 2a03 133c 03d7 00bd 4711 ccbb
00000290: 890d 9ebc 5dce 0a3d be08 753e e4c6 abbd
000002a0: 750c 85bc b22f c63c df48 0abd a3ab 803d
000002b0: 6cea 31bd 2d52 35bd 47e1 213d c02e 90bc
000002c0: 98af e8bc 14af 923d b14e 0dbd 322f ccbc
000002d0: 5d39 57bd 7efc 82bc 7d2f 41bc 64db cd3c
000002e0: c3a8 12be e845 a3bd 1425 86bd 9459 ca3c
000002f0: 1b33 90bd d1fd 91bc 41cc ba3a 5cf9 9b3c
00000300: 8cf2 953d 9e81 8e3e 61f2 953d be14 42bd
00000310: f18f 72bc d7ee 5cbd a670 573c 50b6 c03c
00000320: 6e94 9b3b ed92 233c 4a62 443d cb3c 053c
00000330: b29b 013d 85a3 adbc 92b1 eebc db5f 58bd
00000340: b3cc 123d 80cc 383d db44 80bd 389e 9a3d
00000350: 02be 84bd 7f5c 63bb 7cdd db3c ada3 d73c
00000360: 5569 973c 8ec9 243d 7390 ae3d 5ff8 77bc
00000370: 9948 62bd be61 2cbd e881 163d f29d 81bd
00000380: 12ed ad3d 46a1 d3bc 53de 0bbd bc19 d73b
00000390: 804a 5dba e44e 493d ded1 8bbd f0ab 8dbd
000003a0: 6720 003a 1a02 b13c a23d 573b 0305 7c3c
000003b0: f245 28bd 67b0 06bc c31c 293e 1efa 5fba
000003c0: bc72 39bd 96c5 75bd e708 2c3d e111 933d
000003d0: e520 3a3b 8186 263d 25f8 3f3b 7b9f 4e3e
000003e0: 1aa9 0cbd bde5 693d e6c0 633d c2c9 7ebd
000003f0: 92a3 86bc 15e3 24ba 009e 3e3c 85a2 26bd
0.111832485 0.009141764 -0.036446583 -0.046274334 -0.049136505 -0.025946433 0.13213824 -0.07901224
0.036062613 0.038053803 -0.013254415 -0.010633936 -0.032835823 0.19488372 0.021527957 -0.018413795
0.06618492 -0.036522616 -0.02914784 0.088557795 -0.003026699 -0.040960636 -0.27486193 0.05996378
-0.089376085 0.034877826 -0.042251546 0.027597316 -0.0146006355 0.00074143836 0.08865848 -0.061186768
-0.021142876 0.033198867 0.010693636 0.054906014 0.053173013 0.0066718934 -0.017264945 0.01779133
-0.16703154 0.07568509 -0.00461009 -0.017331025 0.052824665 -0.023517909 0.002977713 0.0331152
-0.06533213 -0.2324247 -0.047625553 -0.042476922 0.043810252 0.018730856 -0.031290162 0.11233214
-0.007990796 -0.025337469 -0.2618727 -0.062115822 -0.013782824 -0.037077334 -0.01038852 -0.011047665
-0.024881188 0.026280276 -0.018428883 -0.14351006 -0.056424744 -0.0155227 0.020262813 0.024904566
0.0029213766 -0.030707385 -0.0436909 0.0037757284 -0.11079896 -0.053309396 0.060004387 -0.07227082
0.01001238 0.024630528 0.034011636 0.02552725 0.023963327 -0.0020335682 0.06343096 -0.04247479
0.044116206 0.043957207 0.0010764828 -0.010798432 0.008724354 -0.0040487144 0.1558559 0.016220653
0.04101754 -0.006719155 0.0825892 -0.014667974 0.039614942 -0.011201632 -0.020912576 -0.23775455
0.02514923 -0.047799554 -0.060215537 -0.026404746 0.05534076 -0.039256666 0.013401054 0.14351511
-0.21954454 0.14836505 -0.07104348 0.09204217 -0.08276744 -0.014239684 -0.00727144 0.048205115
-0.0032962072 -0.054154474 -0.03612069 0.013461674 0.022364356 -0.053481348 -0.06440232 -0.08809382
-0.035123706 0.025545722 0.1194898 -0.043946043 0.015642999 0.07555473 0.051068485 0.007945599
-0.010974361 0.0063492153 0.006056917 -0.044470765 0.005700115 0.008673505 -0.0015301891 -0.0133193005
-0.17892376 -0.01165768 0.03900875 0.016390238 -0.14324947 -0.020612806 0.033895187 0.022177592
0.051595133 0.026081562 0.041250728 0.036246385 -0.07220185 0.01121714 0.061120078 0.015501559
-0.023054287 0.008972922 -0.03145505 -0.0062276456 -0.019293563 0.03388821 0.23929116 -0.08387545
-0.016241292 0.024192665 -0.0337609 0.06282737 -0.043436453 -0.044267822 0.03952148 -0.017600417
-0.028404042 0.071623 -0.034498874 -0.024924848 -0.05254494 -0.015989538 -0.011791107 0.025129028
-0.1432219 -0.07972318 -0.06550041 0.024700917 -0.070409976 -0.017821224 0.0014251546 0.019039802
0.07321653 0.27833265 0.07321621 -0.047383063 -0.014804826 -0.053938713 0.013149416 0.023524433
0.004747919 0.00998376 0.0479453 0.00813217 0.031642623 -0.021196136 -0.029137406 -0.05282579
0.035839748 0.0451169 -0.06263133 0.07549709 -0.064815536 -0.0034692583 0.02683901 0.026323164
0.018482843 0.04023128 0.08523645 -0.0151349 -0.055245016 -0.0420854 0.036744982 -0.06328954
0.08492483 -0.025833737 -0.03414757 0.006564347 -0.00084415823 0.0491475 -0.06827138 -0.0691756
0.0004887641 0.021607447 0.0032843133 0.015382054 -0.04108233 -0.0082207685 0.16514878 -0.0008544045
-0.045275435 -0.060002886 0.042000677 0.071811445 0.0028400954 0.040655617 0.0029292193 0.20178024
-0.034340955 0.05710386 0.055603884 -0.06220413 -0.016435418 -0.00062899414 0.01163435 -0.040682334

encoder.5.block.1.bias f4 [40]
00000000: 54aa 7939 cb2f 6d3b e8cf 293a 8f36 323b
00000010: 9867 ee3a e158 af3a 33b2 da3a 5ffe e53a
00000020: abca 7b38 d808 cf3b ba0e 803b 95b1 653b
00000030: ea30 9a3a 2cf8 d3bb b0de 7db9 8241 1c3b
00000040: 3281 123b 73bc c13b 3067 7d3b 5bb1 9e3b
00000050: 00ae 413b 3131 84ba fba0 86b9 e44c a53b
00000060: 66c8 9e3a 0f58 d53a 5516 133b e400 d03a
00000070: 41d5 d63a 6888 d439 cc91 b439 0787 d539
00000080: dae7 b63a 6e28 0e3b 3b06 a33b 5edc 823b
00000090: 722b a53b c86e 293b 0467 103a 4e4d e13a
0.00023809943 0.0036191817 0.0006477819 0.0027193164 0.0018188832 0.0013377928 0.0016685188 0.0017547122
6.0031813e-05 0.006318193 0.0039080055 0.0035048474 0.0011763845 -0.0064687934 -0.00024210918 0.0023842757
0.0022354838 0.0059123575 0.003866624 0.0048429198 0.0029553175 -0.0010085461 -0.00025678411 0.0050445665
0.0012114167 0.0016276854 0.002244373 0.0015869406 0.0016390459 0.00040537422 0.00034440903 0.0004072713
0.0013954595 0.0021691578 0.004975108 0.003993555 0.0050405795 0.0025853384 0.00055085146 0.0017189176

encoder.5.block.2.weight f4 [40]
00000000: 042e 703f c529 913f 7bbb 8c3f d460 623f
00000010: 0b24 893f c452 7c3f 1651 6c3f ac07 7c3f
00000020: a021 6b3f 01fc 9a3f c3ef 593f 94d5 663f
00000030: 6874 863f 259c 3a3f 6060 893f e933 893f
00000040: a428 5a3f 1b92 523f ba43 573f d0aa a03f
00000050: 8896 7a3f 96a8 843f ae48 803f cfaa 903f
00000060: a43d 773f 53af 623f 75a2 783f 6967 853f
00000070: 6bf9 7c3f 6620 7b3f 14d3 8c3f 5586 363f
00000080: e2c6 833f ae20 583f 2e59 6e3f 6525 843f
00000090: 8dfc 4e3f 2886 5a3f 5faf 5a3f 4b94 8a3f
0.93820214 1.1340872 1.0994714 0.88429 1.0714124 0.9856379 0.9231123 0.98449206
0.9184818 1.2108155 0.8513147 0.90169644 1.0504274 0.7289451 1.0732536 1.0718967
0.8521826 0.8225419 0.8408772 1.2552128 0.9788594 1.0363948 1.002218 1.1302127
0.9657843 0.88548774 0.9712289 1.0422183 0.9881808 0.9809631 1.1001916 0.71298724
1.0295069 0.84424865 0.9310483 1.0323912 0.8085411 0.85360956 0.85423845 1.0826505

encoder.5.block.2.bias f4 [40]
00000000: e478 b03e d1d9 c9bd 365b 95be df2b 853e
00000010: 6daa 4ebe bff1 973d 035f 333d c6ca 9ebd
00000020: 9ae3 82bd 5c62 0cbe 8dbe 383e 3cc0 4b3e
00000030: d051 86be d738 0fbe ccc6 2bbe a7bd b03e
00000040: 0348 aa3e ff41 9e3e 9130 a43e 91e5 7f3e
00000050: 61f0 22be 2214 833d 3f29 9f3e b0a2 a53d
00000060: fdf7 cabd f6c6 4d3e 3ffe 163f 7345 0f3e
00000070: f3cd 2dbe 601f a1bd f274 813e 4459 d0be
00000080: 5a8a 0a3e bc34 4d3d e68f 733c 8e4a bc3c
00000090: e5fd 8f3e 0731 483e 5866 0bbe 3fcd 3d3e
0.34467232 -0.09855998 -0.2917115 0.26010033 -0.201822 0.07419156 0.043791782 -0.0775352
-0.06391068 -0.13709396 0.1804144 0.1989755 -0.26234293 -0.13986526 -0.16775054 0.34519693
0.33258066 0.30909726 0.32068303 0.24989916 -0.1591201 0.064003244 0.31086156 0.08087671
-0.09910581 0.20095429 0.589817 0.13991337 -0.16973095 -0.078673124 0.25284535 -0.40693104
0.1352934 0.05009912 0.014865851 0.02298477 0.28123394 0.19549952 -0.1361326 0.18535326
