VQ-VAE/models/vqvae/model_68.pt (torch, 579012 bytes, 64 tensors)

encoder.0.weight f4 [40, 1, 4, 4]
0.034318797 -0.0066313525 -0.035721973 -0.07706831 -0.04593492 -0.10931288 -0.15205404 -0.07758656
-0.04626284 -0.15070213 -0.17385444 0.051247824 -0.03098027 -0.053316295 0.07812992 0.058803424
0.041222166 0.043352585 -0.06714189 0.06880016 0.10289211 0.14937946 -0.050113946 0.057325784
0.062121537 0.08676727 -0.13439718 -0.0014287228 0.050317395 0.08169175 -0.020034451 0.06891904
0.08459369 0.08651567 0.10725711 0.099108756 0.022109888 0.0057018762 0.004914973 0.07302123
0.08586166 0.064167626 0.04424807 0.057040498 0.031247387 0.038412564 0.0047832183 0.0009440934
-0.007812945 0.0694492 0.09836679 0.06006605 0.09141065 0.08410288 -0.042675596 -0.068441406
0.113007486 -0.043202993 -0.061848838 0.016339216 0.09613073 0.035066634 0.05658976 0.038955618
0.029253377 -0.013830919 0.029050099 0.012351039 0.014602618 -0.030494561 0.11545887 0.011548287
-0.02843642 -0.11365494 0.046596747 0.08606304 0.058363788 -0.058403533 0.03462125 0.12991856
-0.077228576 -0.041647423 -0.036492027 0.021637423 -0.12161135 -0.06867433 -0.14503996 0.03830311
-0.09864178 -0.07749709 -0.104583316 0.08366897 -0.07567016 -0.0501764 0.04730691 -0.004479048
-0.007371962 0.06262929 -0.04107976 -0.02801145 0.087004565 0.020818496 -0.11423451 -0.06820887
0.053683028 -0.15349983 -0.051307894 -0.074192084 0.0014149379 -0.06035453 -0.016590353 -0.0179248
0.006671217 -0.05632487 -0.104574546 -0.1035347 -0.057331327 -0.05251074 -0.11573277 0.08909868
-0.13471763 -0.047564004 -0.07421971 -0.034732804 -0.019038027 0.070841685 -0.0589316 -0.031992488
-0.017007632 -0.038254462 0.0113766305 0.034412786 -0.09175026 0.082670994 0.10173845 0.028207285
0.05919118 0.11835153 -0.05100452 -0.04112789 0.10985096 0.10929245 -0.011974885 0.03875564
0.025065387 0.07591449 0.04670919 0.03437099 -0.056705814 -0.042361178 -0.11712144 -0.01440221
-0.12974407 -0.10405803 -0.115768805 0.02897332 0.02469538 0.08563054 0.07578844 0.04294626
0.07175989 0.032011546 -0.08257071 -0.05877114 0.061058566 0.025781125 -0.027968658 -0.083962694
0.04731798 0.02923866 -0.038308185 -0.112168714 0.06953695 0.05002509 -0.05497808 -0.06729584
-0.071564674 -0.032186393 0.02463372 -0.0060897097 0.0047086934 -0.05398964 -0.06663091 -0.09115219
-0.049576182 -0.1754547 -0.19573563 -0.03963898 0.012273063 -0.05699387 0.0016568004 -0.05062137
0.014815432 0.07837003 0.07219922 0.005646061 0.0044020684 -0.052176733 -0.06758175 -0.1271369
-0.05750616 -0.116144784 -0.12862729 -0.13741753 -0.02069475 -0.05971765 -0.05591835 -0.09757936
-0.06645779 -0.06467031 0.023746438 0.035878755 -0.08016551 -0.11566343 -0.09736821 -0.028958742
0.048427593 0.029405816 -0.09643747 -0.11281196 0.042462826 0.085842684 0.029197564 -0.02511881
0.02462417 0.003567003 -0.005723918 0.04285348 0.050340045 -0.060416766 -0.0399145 0.022671133
0.024672799 0.06983342 0.17363317 0.14729936 0.013143875 0.06386974 0.09615304 0.040649656
0.04890101 -0.07069497 -0.06306397 -0.009623733 -0.07656292 -0.049788706 -0.07720034 -0.057171214
-0.071470425 -0.08953816 -0.040365368 -0.050084054 0.024852058 -0.04579861 -0.08412102 0.011134437
00000000: de91 0c3d d14b d9bb 3451 12bd fdd5 9dbd
00000010: 4126 3cbd 6edf dfbd 0eb4 1bbe b4e5 9ebd
00000020: 1b7e 3dbd a951 1abe e606 32be 3de9 513d
00000030: 56ca fdbc 3062 5abd 9402 a03d dcdb 703d
00000040: 93d8 283d 7b92 313d b081 89bd 19e7 8c3d
00000050: 19b9 d23d eef6 183e 4844 4dbd 71ce 6a3d
00000060: 2773 7e3d 0ab3 b13d 6a9f 09be fb43 bbba
00000070: 9d19 4e3d 014e a73d 4a1f a4bc 6d25 8d3d
00000080: 753f ad3d 212f b13d 9ea9 db3d 88f9 ca3d
00000090: cc1f b53c ced6 ba3b c80d a13b 288c 953d
000000a0: 3dd8 af3d 516a 833d 773d 353d 4ca3 693d
000000b0: 85fa ff3c 7e56 1d3d 8bbc 9c3b 097d 773a
000000c0: de01 00bc 623b 8e3d 8774 c93d d207 763d
000000d0: 8235 bb3d 213e ac3d 9bcc 2ebd 022b 8cbd
000000e0: 7870 e73d 9ff5 30bd 3555 7dbd d2d9 853c
000000f0: 30e0 c43d 08a2 0f3d aaca 673d ed8f 1f3d
00000100: c7a4 ef3c 149b 62bc 79fa ed3c 035c 4a3c
00000110: d23f 6f3c bbcf f9bc b375 ec3d 0735 3d3c
00000120: 7ff3 e8bc ecc3 e8bd 3bdc 3e3d d241 b03d
00000130: de0e 6f3d 8b38 6fbd 03cf 0d3d 5f09 053e
00000140: 042a 9ebd 7d96 2abd aa78 15bd f740 b13c
00000150: 5f0f f9bd 21a5 8cbd 5b85 14be b9e3 1c3d
00000160: b404 cabd cbb6 9ebd c72f d6bd a35a ab3d
00000170: f5f8 9abd c585 4dbd e4c4 413d fac4 92bb
00000180: 8090 f1bb c943 803d 4043 28bd 4578 e5bc
00000190: 732f b23d 8d8b aa3c c8f3 e9bd 18b1 8bbd
000001a0: bce2 5b3d 0f2f 1dbe 3a28 52bd 05f2 97bd
000001b0: 7075 b93a 5036 77bd 7ee8 87bc 08d7 92bc
000001c0: 399a da3b e8b4 66bd 2e2b d6bd 000a d4bd
000001d0: 41d4 6abd 8015 57bd 4d05 edbd 5e79 b63d
000001e0: 6bf3 09be 79d2 42bd 8100 98bd fc43 0ebd
000001f0: a3f5 9bbc 7215 913d 4362 71bd 8e0a 03bd
00000200: 9753 8bbc b6b0 1cbd 0c65 3a3c 6cf4 0c3d
00000210: 8fe7 bbbd 694f a93d 405c d03d f712 e73c
00000220: 7372 723d 4962 f23d 1eea 50bd b875 28bd
00000230: 8af9 e03d b8d4 df3d 4f32 44bc 3cbe 1e3d
00000240: ed55 cd3c 0e79 9b3d 2352 3f3d 98c8 0c3d
00000250: 5b44 68bd ea82 2dbd 5edd efbd 3ff7 6bbc
00000260: a1db 04be 601c d5bd 3218 edbd 7559 ed3c
00000270: f74d ca3c 115f af3d f836 9b3d 6be8 2f3d
00000280: d9f6 923d 8a1e 033d d51a a9bd 02ba 70bd
00000290: 8c18 7a3d f032 d33c 871e e5bc a2f4 abbd
000002a0: 80d0 413d ea85 ef3c 0be9 1cbd b6b8 e5bd
000002b0: 6369 8e3d 1ce7 4c3d b230 61bd 67d2 89bd
000002c0: 8090 92bd e1d5 03bd a8cc c93c 308c c7bb
000002d0: 624b 9a3b 3e24 5dbd c975 88bd 00ae babd
000002e0: 6510 4bbd 66aa 33be ec6e 48be 7c5c 22bd
000002f0: f514 493c 6772 69bd ff28 d93a 5b58 4fbd
00000300: 6dbc 723c 7780 a03d 2fdd 933d 9802 b93b
00000310: 3a3f 903b 45b7 55bd 4d68 8abd 2d30 02be
00000320: 948b 6bbd 51dd edbd dfb6 03be 2eb7 0cbe
00000330: 0988 a9bc 7f9a 74bd a40a 65bd b0d7 c7bd
00000340: 061b 88bd de71 84bd e487 c23c 9af5 123d
00000350: d12d a4bd f3e0 ecbd fc68 c7bd e23a edbc
00000360: 035c 463d 77e4 f03c 0281 c5bd f509 e7bd
00000370: 80ed 2d3d 4ace af3d bb2f ef3c f6c5 cdbc
00000380: a1b8 c93c 61c4 693b b48f bbbb 2187 2f3d
00000390: 5d31 4e3d 9277 77bd 637d 23bd d0b8 b93c
000003a0: 9c1e ca3c d304 8f3d e5cc 313e a5d5 163e
000003b0: 6859 573c 23ce 823d e3eb c43d 4180 263d
000003c0: 6d4c 483d 86c8 90bd af27 81bd ddac 1dbc
000003d0: 05cd 9cbd 3eef 4bbd 361b 9ebd 5d2c 6abd
000003e0: 165f 92bd c85f b7bd 2856 25bd f024 4dbd
000003f0: 8b96 cb3c 5397 3bbd a447 acbd 376d 363c

encoder.0.bias f4 [40]
-0.00096356147 -0.0011951078 -0.004332291 -0.0012947834 -0.0064367875 -0.0010124175 0.00366739 0.00012635859
-0.005537884 0.004438855 0.0011878285 -0.0011720145 -0.0037818651 -0.000728501 -0.00097501714 0.0025297352
-0.00042808746 -0.0021795647 -3.4955774e-06 -0.0022315928 -0.006113119 0.00044595476 -0.0027845274 -0.003970335
0.0006511923 0.0030473762 -0.0018002755 0.00062535005 0.0003169507 -0.0010448565 0.005528754 0.0010623579
0.0008873013 -0.0061253584 0.0036064978 -0.0008877626 -0.0010518635 -0.0058801104 -0.0035963247 -0.0012635591
00000000: 8497 7cba 2aa5 9cba e4f5 8dbb b9b5 a9ba
00000010: b0eb d2bb 18b3 84ba 9858 703b 207f 0439
00000020: 2377 b5bb d173 913b e9b0 9b3a 489e 99ba
00000030: 2bd9 77bb e0f8 3eba 4b98 7fba eac9 253b
00000040: ed70 e0b9 07d7 0ebb 9095 6ab6 ea3f 12bb
00000050: 8f50 c8bb 09cf e939 9e7c 36bb 9519 82bb
00000060: c7b4 2a3a 7db6 473b 39f7 ebba 88ee 233a
00000070: 672c a639 91f3 88ba 8d2a b53b d13e 8b3a
00000080: c899 683a 3bb7 c8bb fe5a 6c3b bdb8 68ba
00000090: afde 89ba f1ad c0bb 51b0 6bbb 029e a5ba

encoder.1.weight f4 [40]
0.7260904 0.5591534 0.671264 0.4909815 0.6127614 0.87234056 0.70588607 0.7258794
0.59894705 0.64477247 0.763291 0.7032562 0.82046926 0.73441464 0.5583327 0.8714993
0.6841774 0.80634874 0.7026359 0.79660606 0.5471676 0.75975513 0.59480757 0.62537664
0.43605793 0.66837376 0.67298764 0.4395441 0.6809798 0.65473247 0.7686905 0.78057545
0.76502866 0.70923924 0.83438104 0.5929113 0.8316235 0.93642 0.9160989 0.6680802
00000000: 0fe1 393f ad24 0f3f f5d7 2b3f ed61 fb3e
00000010: eedd 1c3f b651 5f3f f3b4 343f 3bd3 393f
00000020: 9854 193f cf0f 253f 0a67 433f 9908 343f
00000030: 460a 523f 9902 3c3f e4ee 0e3f 941a 5f3f
00000040: 4026 2f3f df6c 4e3f f2df 333f 60ee 4b3f
00000050: 2d13 0c3f 507f 423f 4f45 183f af18 203f
00000060: fc42 df3e 8b1a 2b3f eb48 2c3f ed0b e13e
00000070: b154 2e3f 8c9c 273f e7c8 443f cbd3 473f
00000080: ebd8 433f b490 353f ff99 553f 09c9 173f
00000090: 47e5 543f 39b9 6f3f 7585 6a3f 4e07 2b3f

encoder.1.bias f4 [40]
-0.07061125 -0.013568143 -0.013954984 0.0031433492 0.033732776 -0.12075379 -0.18160637 -0.1974603
0.09499253 0.043571636 -0.15209705 -0.13351884 -0.20341298 -0.16820817 0.1671495 -0.002919266
0.003553846 -0.14111657 -0.13778718 -0.17959535 -0.044189677 -0.121207334 0.18083692 -0.07669006
0.03384392 -0.12397302 0.15309034 0.11225394 -0.113168605 -0.034273963 -0.15591948 -0.22164083
-0.16332439 0.19996639 -0.10319928 -0.16089192 -0.1842157 -0.2438786 -0.25211573 -0.08773388
00000000: a29c 90bd eb4c 5ebc 72a3 64bc a600 4e3b
00000010: 612b 0a3d c34d f7bd 05f7 39be 0833 4abe
00000020: 728b c23d 2c78 323d 54bf 1bbe 2ab9 08be
00000030: 7e4b 50be c33e 2cbe 3d29 2b3e 2851 3fbb
00000040: a4e7 683b dd80 10be 1518 0dbe d8e7 37be
00000050: 3c00 35bd 8d3b f8bd 502d 393e ae0f 9dbd
00000060: ec9f 0a3d 91e5 fdbd b7c3 1c3e 65e5 e53d
00000070: f1c4 e7bd db62 0cbd 5ba9 1fbe d0f5 62be
00000080: 823e 27be fdc3 4c3e 255a d3bd dac0 24be
00000090: 0aa3 3cbe 50bb 79be 5015 81be d2ad b3bd

encoder.1.running_mean f4 [40]
0.54033625 -0.35634598 -0.54841596 -0.3480297 -0.21190959 0.50098217 0.29808545 0.5030205
-0.31328487 0.13499986 0.09758457 0.60094935 0.5218323 0.28509173 -0.45622218 0.5016991
-0.26150587 0.61367846 0.4370733 0.34426862 -0.30453086 0.22381273 -0.22368218 0.30627736
-0.08968284 0.13813795 -0.24788208 -0.10704057 0.13975444 0.20512193 0.22999151 0.27024445
0.29666883 -0.25155434 0.36548918 -0.27426955 0.5580981 0.52370745 0.6775993 0.13050903
00000000: 7a53 0a3f fb72 b6be fd64 0cbf f330 b2be
00000010: d4fe 58be 5e40 003f a89e 983e f4c5 003f
00000020: e066 a0be 673d 0a3e 6bda c73d d1d7 193f
00000030: cd96 053f 8bf7 913e f495 e9be 5a6f 003f
00000040: 19e4 85be 081a 1d3f 12c8 df3e fa43 b03e
00000050: 78eb 9bbe 2a2f 653e f10c 65be 63d0 9c3e
00000060: a3ab b7bd 0974 0d3e cdd4 7dbe 1638 dbbd
00000070: ca1b 0f3e 7c0b 523e e582 6b3e 7b5d 8a3e
00000080: fae4 973e bbcb 80be 6621 bb3e 0f6d 8cbe
00000090: 84df 0e3f b111 063f 2677 2d3f 29a4 053e

encoder.1.running_var f4 [40]
0.16927151 0.06033534 0.1196588 0.062831596 0.029110882 0.14195584 0.068727255 0.11086507
0.061841443 0.03654999 0.056426205 0.15332085 0.16198795 0.044632908 0.09948926 0.10531891
0.06022147 0.18192022 0.11169428 0.07252504 0.044424236 0.046914943 0.02739856 0.0718286
0.026904562 0.060438238 0.04818466 0.037275176 0.040461447 0.044849586 0.052763436 0.0546254
0.057328776 0.04589784 0.058697652 0.07220311 0.16245398 0.13175958 0.2008445 0.021453507
00000000: 8355 2d3e 3122 773d ac0f f53d daad 803d
00000010: f279 ee3c df5c 113e e0c0 8c3d 3a0d e33d
00000020: 744d 7d3d 71b5 153d 2a1f 673d 2400 1d3e
00000030: 2be0 253e ffd0 363d 06c1 cb3d 71b1 d73d
00000040: caaa 763d 4b49 3a3e f8bf e43d 0288 943d
00000050: 30f6 353d e229 403d f272 e03c df1a 933d
00000060: f566 dc3c 168e 773d 475d 453d dbad 183d
00000070: e7ba 253d 33b4 373d 791e 583d e2be 5f3d
00000080: 94d1 6a3d 60ff 3b3d f36c 703d 39df 933d
00000090: 565a 263e fceb 063e 2eaa 4d3e 44bf af3c

encoder.3.weight f4 [40, 40, 4, 4]
-0.018480059 -0.0060956664 -0.015401242 -0.023088679 -0.051052894 -0.0983992 -0.008640475 0.03774848
-0.0007061812 0.02596603 -0.010145656 0.051732935 0.066407144 0.05096837 0.011165711 0.00083928544
-0.012006206 0.017358942 0.04164112 0.008452086 -0.04263323 -0.030344052 0.031233953 0.04684554
-0.008989745 0.004409488 0.022924397 0.10306784 0.00065784046 -0.0044211945 0.03631369 -0.0016120947
-0.024854746 -0.01895767 -0.011841612 -0.009915594 0.023383722 -0.045948073 -0.072912306 -0.0050893007
0.047104 -0.021842975 -0.091773 -0.040777598 0.083639264 -0.08043157 -0.08231751 -0.024398457
0.032381576 -0.01999459 -0.021928001 0.010554198 0.04653017 -0.06157987 -0.013278488 -0.0113202315
0.0339561 -0.030603321 0.025444182 0.02424355 -0.007168545 0.0317522 0.023909094 -0.0040285764
0.05935514 0.02174302 -0.06751273 0.0089742895 0.04222316 0.0932273 -0.058672253 -0.04087401
-0.024578637 0.15499474 0.02096907 -0.0126447575 -0.004634319 0.03256553 0.0024682248 -0.0030511066
-0.015897263 0.016493948 -0.022769254 0.048585244 -0.117473066 0.008303886 0.069286466 0.03242044
-0.073053345 0.11180951 0.013803087 -0.052809015 0.012482612 0.018561505 0.037897 0.029771404
-0.00079446624 -0.0043803495 0.024812987 0.02172817 -0.03596836 -0.059872776 0.090007454 0.04469523
0.028094755 0.081715174 0.012042662 0.00021094765 -0.012755132 0.079029895 -0.019417932 0.0059469817
-0.0001345574 0.020584341 0.062357113 -0.0032402652 -0.011549643 -0.020016735 0.050498348 0.07038936
0.029672317 0.0099413255 -0.013969191 -0.03528109 -0.09636712 0.017147822 0.10333879 0.022424692
-0.009220969 -0.06432849 -0.05548176 0.035622988 0.06771061 -0.076746926 -0.03931796 0.03555647
-0.029336888 -0.033272687 -0.03052979 0.007089346 -0.014123776 0.03883824 -0.02340531 0.0048587825
-0.009426681 -0.023420388 -0.07808221 0.015110241 0.08985008 -0.0070903287 -0.06216025 -0.02581879
0.06700693 0.024656182 -0.0054293023 0.097847566 0.028189696 0.02794607 0.0024290932 -0.030993007
0.022095842 0.020923227 0.0057965806 0.06602189 -0.035785023 0.1021478 0.03642373 0.008606509
-0.1240332 0.017558303 0.12281112 0.05625161 0.010116989 0.012268729 -0.03468481 -0.016297828
-0.077751905 0.009120547 0.05421112 0.067821056 0.040997546 -0.024584813 -0.043273643 0.043065347
-0.022070175 -0.08482903 0.078937046 -0.0011154183 0.024855154 -0.023531443 0.03862886 0.08127723
-0.053300753 -0.002922968 0.016925765 -0.042380128 -0.0019726476 -0.028920569 0.023382002 0.01807756
-0.095679164 0.02939723 -0.024975372 0.08734119 -0.015819764 -0.015860511 0.029532798 -0.03937403
-0.012080355 -0.04150175 0.016204922 0.0065539773 0.14538193 0.13572001 -0.055472694 -0.017765839
-0.05046785 -0.032574117 0.02492094 0.07091917 -0.011096219 -0.046494666 -0.018169573 0.02847263
0.053139687 -0.05980149 -0.04252227 0.042430073 0.040696442 -0.055710115 -0.028599761 0.041535236
0.055144537 -0.027328698 -0.06454145 0.028455919 0.07229806 0.028062139 -0.0401538 0.03563301
0.0055444012 -0.03199757 -0.015347322 0.02897042 -0.016169896 -0.10328669 0.01674115 0.034628842
0.039002698 -0.025966043 -0.054378092 0.029748358 -0.011198507 -0.030161489 0.013004258 -0.003454075
00000000: 7e63 97bc 28be c7bb 7e55 7cbc 7824 bdbc
00000010: d71c 51bd 8585 c9bd c790 0dbc 269e 1a3d
00000020: 051f 39ba b6b6 d43c f739 26bc eae5 533d
00000030: 7800 883d 36c4 503d 63f0 363c 7e03 5c3a
00000040: aeb5 44bc 5734 8e3c e18f 2a3d 9e7a 0a3c
00000050: 2fa0 2ebd 1794 f8bc 59de ff3c 1ce1 3f3d
00000060: b949 13bc 777d 903b f2cb bb3c 3b15 d33d
00000070: ed72 2c3a abdf 90bb aabd 143d ec4c d3ba
00000080: 2e9c cbbc 1e4d 9bbc 5203 42bc 0475 22bc
00000090: 388f bf3c 0c34 3cbd 0c53 95bd 26c4 a6bb
000000a0: 20f0 403d 0af0 b2bc 7cf3 bbbd 6906 27bd
000000b0: 104b ab3d 4fb9 a4bd 1596 a8bd 46df c7bc
000000c0: 8ba2 043d b2cb a3bc 5aa2 b3bc 84eb 2c3c
000000d0: 6b96 3e3d 2c3b 7cbd 048e 59bc 7e78 39bc
000000e0: 8d15 0b3d d1b3 fabc 5170 d03c 699a c63c
000000f0: 1de6 eabb 980e 023d 01dd c33c 2602 84bb
00000100: 601e 733d 6b1e b23c 1d44 8abd e608 133c
00000110: 31f2 2c3d f4ed be3d 5152 70bd 826b 27bd
00000120: 2359 c9bc f1b6 1e3e 54c7 ab3c f52b 4fbc
00000130: 7cdb 97bb 6f63 053d f1c1 213b 13f5 47bb
00000140: fa3a 82bc 511e 873c 9686 babc 5201 473d
00000150: b895 f0bd 060d 083c 10e6 8d3d 4ccb 043d
00000160: fe9c 95bd 62fc e43d 5826 623c 444e 58bd
00000170: df83 4c3c 4c0e 983c e239 1b3d 29e3 f33c
00000180: ba43 50ba 0989 8fbb 9b44 cb3c 46ff b13c
00000190: 8f53 13bd 283d 75bd d455 b83d 5812 373d
000001a0: f926 e63c 495a a73d 964e 453c d431 5d39
000001b0: e7fa 50bc 6dda a13d 5b12 9fbc e6de c23b
000001c0: fa17 0db9 7ea0 a83c 2c6a 7f3d a15a 54bb
000001d0: b73a 3dbc 23fa a3bc 5bd7 4e3d 4c28 903d
000001e0: 5c13 f33c f1e0 223c 09df 64bc e782 10bd
000001f0: 205c c5bd 9779 8c3c 4aa3 d33d fdb3 b73c
00000200: 8c13 17bc a8be 83bd d840 63bd 69e9 113d
00000210: dcab 8a3d 7e2d 9dbd df0b 21bd a9a3 113d
00000220: ea53 f0bc f148 08bd 9c19 fabc bf4d e83b
00000230: 6967 67bc d914 1f3d 7ebc bfbc 6c36 9f3b
00000240: 5e72 1abc 1ddc bfbc 91e9 9fbd f290 773c
00000250: 5203 b83d fd55 e8bb bf9b 7ebd ed81 d3bc
00000260: ee3a 893d c3fb c93c 4ae8 b1bb 4e64 c83d
00000270: 14ee e63c 28ef e43c 6c31 1f3b 0ce5 fdbc
00000280: 5702 b53c 3067 ab3c 3ef1 bd3b 7c36 873d
00000290: 5193 12bd de32 d13d 0d31 153d 5102 0d3c
000002a0: 1e05 febd 6ed6 8f3c 6584 fb3d 1768 663d
000002b0: bac1 253c c702 493c a911 0ebd 0683 85bc
000002c0: 643c 9fbd 596e 153c 7b0c 5e3d c4e5 8a3d
000002d0: 0bed 273d 1766 c9bc b43f 31bd 4a65 303d
000002e0: 83cc b4bc d8ba adbd bfa9 a13d 3a33 92ba
000002f0: 099d cb3c 03c5 c0bc 4c39 1e3d ad74 a63d
00000300: e451 5abd 448f 3fbb e7a7 8a3c c996 2dbd
00000310: 8947 01bb d4ea ecbc 9d8b bf3c 6417 943c
00000320: 70f3 c3bd 76d2 f03c 2799 ccbc f0df b23d
00000330: 7398 81bc e7ed 81bc c4ee f13c aa46 21bd
00000340: aeec 45bc bdfd 29bd 2fc0 843c bfc2 d63b
00000350: 00df 143e 30fa 0a3e 5637 63bd aa89 91bc
00000360: 60b7 4ebd 706c 05bd 0027 cc3c 123e 913d
00000370: eacc 35bc 3171 3ebd 5bd8 94bc 6f3f e93c
00000380: 00a9 593d 68f2 74bd d52b 2ebd 28cb 2d3d
00000390: 50b1 263d 4a30 64bd 0c4a eabc da20 2a3d
000003a0: 3ddf 613d 6fe0 dfbc 4f2e 84bd 631c e93c
000003b0: 0111 943d 92e2 e53c 5078 24bd ebf3 113d
000003c0: cfad b53b e20f 03bd 5673 7bbc 6053 ed3c
000003d0: bb76 84bc f987 d3bd bc24 893c f9d6 0d3d
000003e0: 4bc1 1f3d bdb6 d4bc 90bb 5ebd d4b2 f33c
000003f0: f179 37bc 3a15 f7bc d00f 553c c35d 62bb

encoder.3.bias f4 [40]
0.007676981 0.09797933 0.04915663 -0.015513137 0.11795198 0.044286247 0.20882727 0.0053456104
0.0021171283 0.0035239737 0.060460553 0.072498225 0.010354489 0.032640986 0.05877262 0.066237226
-0.012413049 -0.0041539087 -0.0013404909 -0.015583585 0.0021637941 0.010746812 0.1443208 0.018535955
-0.03170181 0.057136584 0.0041340324 0.029622344 0.11812845 0.033149317 0.009068966 -0.017112775
-0.06196159 -0.022152137 -0.030822556 -0.05993391 -0.041624743 -0.061377466 0.028619142 -0.0009990563
00000000: 2f8f fb3b 63a9 c83d 7658 493d d02a 7ebc
00000010: cf90 f13d 7f65 353d d1d6 553e 3b2a af3b
00000020: 85bf 0a3b 78f2 663b 7ca5 773d f379 943d
00000030: e0a5 293c 8eb2 053d 8fbb 703d 62a7 873d
00000040: 1a60 4bbc 831d 88bb 69b3 afba 4b52 7fbc
00000050: 71ce 0d3b 6613 303c d5c8 133e b7d8 973c
00000060: c2d9 01bd 0d08 6a3d c776 873b 8faa f23c
00000070: 54ed f13d 94c7 073d 0096 143c 1730 8cbc
00000080: 70cb 7dbd 6678 b5bc 967f fcbc 427d 75bd
00000090: b57e 2abd f066 7bbd b172 ea3c c4f2 82ba

encoder.4.block.1.weight f4 [40, 40, 3, 3]
0.01647631 -0.014217622 0.054445572 -0.04256518 -0.12148415 -0.037607584 -0.02493093 -0.0045950385
0.06085134 -0.054253045 0.101648875 0.117544785 0.036672544 -0.19799684 -0.034368146 0.0012633725
0.051191904 -0.024769891 0.009450638 -0.034601092 0.058457177 0.063692965 -0.010833106 0.049037557
0.060923815 -0.0055188457 -0.006889708 -0.1081262 0.002481682 -0.031015035 -0.012367985 0.03408565
-0.009894885 0.08684002 -0.27830496 -0.03518916 -0.041092806 -0.038564563 -0.0025470452 0.084830694
0.19477156 -0.03719016 0.03232169 -0.015401691 -0.014927169 0.010633742 -0.05546866 0.05098724
0.050567143 -0.001708489 -0.00049504585 0.050675325 0.011895569 0.009445669 -0.042608507 0.05307756
0.015238602 0.03732102 0.14657928 0.000999108 -0.045799967 0.016559755 0.008524874 -0.00072093436
-0.048831772 0.06488529 -0.010686644 0.08426016 -0.024584955 -0.028921662 -0.013626541 -0.010042054
-0.032336473 -0.020165846 -0.031412072 0.043225683 0.10574803 -0.041466538 -0.03969808 -0.077338636
-0.040661074 -0.055076856 0.10808334 0.079621024 -0.049482998 0.068441935 0.099313274 -0.020631269
0.10967772 0.042655993 0.025593363 -0.016741764 -0.030290298 -0.034599584 -0.05386884 -0.05028257
-0.03348291 -0.08304648 -0.08243833 -0.047711726 0.071439385 -0.05522488 -0.00088471913 0.0062817144
0.05205668 -0.020579496 0.01819607 0.0027762656 0.004840085 0.099772915 -0.033246763 -0.08991377
0.11935548 -0.012744095 -0.035658676 -0.034407057 -0.065144464 0.08899189 -0.059009448 0.0485914
-0.09924096 -0.16891752 0.11630278 -0.025723428 0.013879446 -0.005351315 -0.074392065 0.08163807
-0.014720273 0.19863595 -0.2389977 0.024004182 0.057451446 0.015775291 0.021162193 -0.076641925
0.051309872 0.006541007 0.040660266 0.011696093 0.021388719 -0.012207425 -0.034106612 -0.032802455
-0.027178349 -0.055709857 -0.08655894 0.07977213 -0.05040363 0.032149915 -0.06812222 -0.039153595
0.016178666 0.08585892 0.022962952 -0.11505402 -0.04344008 0.067263745 0.09514238 -0.009883722
-0.12738073 0.03458256 0.018867685 -0.09212998 -0.080949634 -0.006216597 -0.0036815105 -0.06679997
0.0015763673 -0.04071629 0.016502488 -0.02008824 0.025181085 -0.046983745 -0.007431706 -0.062008113
-0.07068469 -0.16867654 0.060835797 -0.022868766 -0.0032910446 0.06523837 -0.10420923 0.06263691
-0.101057746 -0.02710393 -0.2968045 -0.052451156 0.011354147 0.01386157 -0.21706656 0.02534525
-0.1620342 -0.054346893 0.17618783 -0.103215225 0.050946884 -0.011566843 -0.017215913 0.015427016
0.017196847 -0.0797799 0.17917603 -0.013355702 -0.03126799 -0.0634007 -0.037279632 0.0063998085
-0.10019484 0.009201112 -0.075239725 -0.2144405 -0.0034551537 0.017771516 0.061799087 0.056137893
0.003184476 0.01908768 -0.033016246 -0.10933502 0.20855227 0.072930776 0.08771647 -0.014587397
-0.014374798 0.019551072 0.0033057183 -0.022742981 -0.13428272 0.21246704 -0.05043972 0.02552103
0.03775535 0.003365613 0.06619142 0.034209512 0.016336856 0.004010008 -0.11581506 -0.03473413
0.0045837667 -0.031556383 -0.009464205 -0.011567749 0.058257863 0.022668175 0.07171608 -0.13442151
-0.005235869 0.05323995 -0.038742837 -0.018585443 -0.026189934 0.046798818 0.0010465083 0.0033585941
00000000: 54f9 863c 07f1 68bc 5202 5f3d d458 2ebd
00000010: afcc f8bd 690a 1abd f33b ccbc fa91 96bb
00000020: 413f 793d 7138 5ebd 492d d03d 52bb f03d
00000030: f335 163d afbf 4abe 9dc5 0cbd bf97 a53a
00000040: 9aae 513d 3aea cabc d9d6 1a3c e0b9 0dbd
00000050: cb70 6f3d 7571 823d 577d 31bc 9bdb 483d
00000060: 408b 793d 6fd7 b4bb 0fc3 e1bb 4571 ddbd
00000070: b7a3 223b 3e13 febc 17a3 4abc 659d 0b3d
00000080: 281e 22bc 2ed9 b13d fd7d 8ebe 8222 10bd
00000090: ee50 28bd e0f5 1dbd 54ec 26bb b7bb ad3d
000000a0: 3272 473e b654 18bd c063 043d 6057 7cbc
000000b0: 1691 74bc 2639 2e3c 1b33 63bd ffd7 503d
000000c0: 7e1f 4f3d 61ef dfba f7c5 01ba ee90 4f3d
000000d0: a2e5 423c 02c2 1a3c 4286 2ebd db67 593d
000000e0: 54ab 793c eddd 183d e118 163e 80f4 823a
000000f0: bf98 3bbd 53a8 873c eaab 0b3c 16fd 3cba
00000100: d303 48bd 94e2 843d 0917 2fbc 9790 ac3d
00000110: 6366 c9bc 1fed ecbc db41 5fbc 6d87 24bc
00000120: 4073 04bd d832 a5bc f2a9 00bd 6a0d 313d
00000130: 6c92 d83d d1d8 29bd 749a 22bd b863 9ebd
00000140: 3a8c 26bd 4598 61bd cc5a dd3d 5910 a33d
00000150: afae 4abd 492b 8c3d c264 cb3d e802 a9bc
00000160: b69e e03d 0db8 2e3d 2ca9 d13c 0626 89bc
00000170: 5c23 f8bc 4bb8 0dbd 93a5 5cbd 19f5 4dbd
00000180: 6025 09bd 4614 aabd 6dd5 a8bd 5f6d 43bd
00000190: d04e 923d 7c33 62bd 7fec 67ba d7d6 cd3b
000001a0: 6339 553d 5596 a8bc ed0f 953c 02f2 353b
000001b0: 9399 9e3b be55 cc3d c22d 08bd b624 b8bd
000001c0: a570 f43d 9ccc 50bc d50e 12bd 6aee 0cbd
000001d0: 766a 85bd 6141 b63d e4b3 71bd c707 473d
000001e0: d83e cbbd b7f8 2cbe 2730 ee3d f0b9 d2bc
000001f0: 9e66 633c 155a afbb de5a 98bd dc31 a73d
00000200: 4d2d 71bc 3967 4b3e d0bb 74be 6ba4 c43c
00000210: 3552 6b3d 2f3b 813c 565c ad3c 71f6 9cbd
00000220: 4d2a 523d f255 d63b 618b 263d f8a0 3f3c
00000230: 6537 af3c a701 48bc 60b3 0bbd de5b 06bd
00000240: 21a5 debc 0530 64bd d045 b1bd 925f a33d
00000250: 0974 4ebd a1af 033d aa83 8bbd 855f 20bd
00000260: 1f89 843c cdd6 af3d cd1c bc3c 71a1 ebbd
00000270: 3aee 31bd 93c1 893d 02da c23d 56ef 21bc
00000280: 1870 02be 71a6 0d3d 6790 9a3c a5ae bcbd
00000290: ecc8 a5bd 98b4 cbbb 7f45 71bb 6cce 88bd
000002a0: 1c9e ce3a 20c6 26bd 3a30 873c 1890 a4bc
000002b0: 9048 ce3c 0772 40bd ab85 f3bb 38fc 7dbd
000002c0: 22c3 90bd 8bb9 2cbe f52e 793d 4757 bbbc
000002d0: 91ae 57bb b29b 853d a66b d5bd c847 803d
000002e0: 5df7 cebd 1009 debc c2f6 97be 06d7 56bd
000002f0: bf06 3a3c a31b 633c b246 5ebe d7a0 cf3c
00000300: 4bec 25be d99a 5ebd 956a 343e 8162 d3bd
00000310: aead 503d db82 3dbc 6308 8dbc 98c1 7c3c
00000320: 67e0 8c3c a563 a3bd ec79 373e e0d1 5abc
00000330: dd12 00bd 3ad8 81bd 87b2 18bd 7cb5 d13b
00000340: f432 cdbd 43c0 163c 4917 9abd 4a96 5bbe
00000350: dc6f 62bb 9295 913c 0a21 7d3d d9f0 653d
00000360: a4b2 503b c45d 9c3c 0b3c 07bd 0aeb dfbd
00000370: ba8e 553e bb5c 953d b1a4 b33d faff 6ebc
00000380: 4684 6bbc 9229 a03c c0a4 583b 7d4f babc
00000390: 6981 09be f690 593e e199 4ebd 7b11 d13c
000003a0: 5ba5 1a3d 9e91 5c3b 5e8f 873d 461f 0c3d
000003b0: dfd4 853c 6366 833b 7230 edbd 6045 0ebd
000003c0: 6c33 963b 4441 01bd c10f 1bbc a886 3dbc
000003d0: cc9f 6e3d 9cb2 b93c e1df 923d cba5 09be
000003e0: a791 abbb 2212 5a3d cfb0 1ebd 8040 98bc
000003f0: 468c d6bc 1eb0 3f3d fe2a 893a dc1b 5c3b

encoder.4.block.1.bias f4 [40]
0.0030235338 -0.0051048403 -0.00036379092 0.00079422607 -6.909038e-05 0.0027824389 0.0013883715 -0.00013271876
0.00067807495 -0.0009333861 0.0047901217 0.008689519 -0.00017107536 0.0020735546 -0.00036883363 0.0011108937
-0.002270885 -0.0013630433 0.00056460995 0.00085517304 -0.00017900538 2.2299323e-06 -0.0017934211 -0.002265955
0.0035965624 -0.000675037 0.0014364779 0.0050597466 -0.00044809983 0.0008269781 0.0019917039 0.0013900643
0.0013676737 0.0025536069 -0.00050408323 0.0046753995 -0.0030849706 0.00042965094 -0.00093399687 0.002765414
00000000: 7b26 463b 8146 a7bb 31bb beb9 9c33 503a
00000010: 9ee4 90b8 9459 363b 04fa b53a 6c2a 0bb9
00000020: d7c0 313a 7bae 74ba 74f6 9c3b 7c5e 0e3c
00000030: b162 33b9 79e4 073b 0360 c1b9 689b 913a
00000040: 21d3 14bb 25a8 b2ba 5502 143a b12d 603a
00000050: 64b3 3bb9 f2a5 1536 3a11 ebba 6b80 14bb
00000060: 4eb4 6b3b f7f4 30ba 3348 bc3a 3bcc a53b
00000070: f1ee eab9 90c9 583a 3f87 023b d132 b63a
00000080: 8443 b33a 6a5a 273b 7424 04ba 1834 993b
00000090: 382d 4abb c642 e139 78d7 74ba f33b 353b

encoder.4.block.2.weight f4 [40]
1.1002104 1.050356 1.0093163 0.9033067 0.95089966 0.94662064 0.93984276 0.91986847
0.8159127 0.86303264 0.9834572 1.0921197 0.9719259 1.138769 1.1669405 1.0577203
1.0758477 0.6368977 0.9168002 0.90021795 1.0156004 1.0861382 0.7160575 1.0165511
0.87162316 0.8981929 1.1024249 1.0821025 0.9764056 1.1272855 1.1003376 1.1139388
1.0397542 1.178287 0.9418386 1.0585397 0.93051445 0.69689274 1.2564024 0.8600185
00000000: b2d3 8c3f 1172 863f 4731 813f 1c3f 673f
00000010: 296e 733f bb55 723f 8999 703f 807c 6b3f
00000020: a8df 503f b5ef 5c3f dac3 7b3f 94ca 8b3f
00000030: 23d0 783f 2fc3 913f 4e5e 953f 6163 873f
00000040: 61b5 893f ba0b 233f 6bb3 6a3f af74 663f
00000050: 32ff 813f 9406 8b3f 8b4f 373f 591e 823f
00000060: b222 5f3f f8ef 653f 421c 8d3f 5682 8a3f
00000070: b8f5 793f e44a 903f ddd7 8c3f 8c95 8e3f
00000080: aa16 853f 1cd2 963f 561c 713f 3b7e 873f
00000090: 3236 6e3f 9067 323f cbd1 a03f 2c2a 5c3f

encoder.4.block.2.bias f4 [40]
0.34038582 0.10462314 -0.05243535 0.49006355 0.34475878 0.40793583 0.15777704 0.07894943
0.13064645 -0.09115556 0.08850644 0.3579984 0.3669442 0.4550681 0.41768557 -0.09234052
0.029473351 0.13143943 0.2316211 0.26416796 -0.18315753 -0.072501905 -0.27482626 -0.1257764
0.07032707 -0.034717202 0.2290895 -0.018349908 -0.23052219 -0.004293682 0.2782339 0.21225923
0.06485278 0.3014122 0.16875593 -0.013694465 0.0018157243 -0.040463425 -0.28641564 0.08782509
00000000: 0d47 ae3e a844 d63d 73c6 56bd 9ce9 fa3e
00000010: 3984 b03e f7dc d03e 4e90 213e 3db0 a13d
00000020: 2fc8 053e c4af babd dd42 b53d 914b b73e
00000030: 1ce0 bb3e b0fe e83e e2da d53e 071d bdbd
00000040: 1972 f13c 0f98 063e 152e 6d3e 0641 873e
00000050: a68d 3bbe e17b 94bd 07b6 8cbe 87cb 00be
00000060: a407 903d a033 0ebd 7096 6a3e 8c52 96bc
00000070: 020e 6cbe 04b2 8cbb ac74 8e3e 7c5a 593e
00000080: 89d1 843d b352 9a3e 5bce 2c3e c05e 60bc
00000090: 99fd ed3a fabc 25bd 12a5 92be a4dd b33d

encoder.4.block.2.running_mean f4 [40]
0.2501935 -0.7814349 -0.68295074 -0.58266556 0.067440346 0.5871802 0.25565282 -0.2909085
-0.009567334 -0.29545876 0.42854545 0.2157876 -0.028010486 0.3599581 0.19542678 -0.69480664
-0.5946669 -0.04473591 0.57590765 0.058056064 0.05348996 -0.71942836 -0.34483925 -0.29846504
0.15441985 -0.57351464 0.69598407 0.60679924 0.059415683 -0.90182304 0.80080783 0.6297816
-0.5784966 -0.09384013 0.31169122 -0.5449423 -0.098974854 -0.40101638 -0.35526457 0.006933668
00000000: 5d19 803e 1e0c 48bf dcd5 2ebf 9229 15bf
00000010: 2a1e 8a3d 7151 163f ede4 823e f5f1 94be
00000020: 4fc0 1cbc 5f46 97be 4f6a db3e 6df7 5c3e
00000030: 3f76 e5bc 6e4c b83e f51d 483e d9de 31bf
00000040: 173c 18bf 003d 37bd af6e 133f 32cc 6d3d
00000050: 4a18 5b3d 752c 38bf c58e b0be 69d0 98be
00000060: 3d20 1e3e dbd1 12bf 032c 323f 3257 1b3f
00000070: dc5d 733d e0dd 66bf be01 4d3f 5e39 213f
00000080: 5a18 14bf 412f c0bd fe95 9f3e 5781 0bbf
00000090: 54b3 cabd 0552 cdbe 3de5 b5be d333 e33b

encoder.4.block.2.running_var f4 [40]
0.46757606 0.97926974 0.7363065 0.5452796 0.31619766 0.5538673 0.5044048 0.15128812
0.31280628 0.5655878 0.5600711 0.40413433 0.3050131 0.31789488 0.62145233 0.5756106
0.38287824 0.19017854 0.53612846 0.2407325 0.11632289 0.958493 0.076259404 0.55435205
0.4082378 0.51694477 0.59858954 0.5210108 0.090733156 0.98004246 0.65264 1.0060571
0.74147624 0.3425011 0.4194307 0.5470345 0.23860326 0.22009 0.13763599 0.21140619
00000000: 2166 ef3e 6cb1 7a3f 957e 3c3f 7297 0b3f
00000010: a9e4 a13e 3fca 0d3f ac20 013f 46eb 1a3e
00000020: 2528 a03e 5dca 103f d260 0f3f b2ea ce3e
00000030: ad2a 9c3e 1ec3 a23e 8017 1f3f 375b 133f
00000040: 9e08 c43e 2abe 423e b73f 093f 9582 763e
00000050: b23a ee3d cc5f 753f e42d 9c3d 04ea 0d3f
00000060: 8b04 d13e 7e56 043f 2a3d 193f f760 053f
00000070: 4ed2 b93d 10e4 7a3f 6a13 273f 7bc6 803f
00000080: 63d1 3d3f 4e5c af3e 9fbf d63e 740a 0c3f
00000090: 6a54 743e 465f 613e 73f0 0c3e dd7a 583e

encoder.4.block.4.weight f4 [40, 40, 1, 1]
0.1217773 0.072305016 0.27945495 0.16349874 0.08712095 -0.18289098 0.062026598 0.03298538
0.019147122 0.00081271754 -0.18989329 -0.15491273 -0.107188314 -0.1934898 -0.15567966 -0.044925757
0.15534678 0.01568352 -0.03875902 -0.087745845 0.123179875 0.19342908 0.04318517 0.19720773
0.2569053 0.061176542 -0.3530823 -0.20462868 -0.28152317 -0.033464696 -0.4982135 0.06158348
0.053636234 -0.23815101 0.048567027 0.036023907 0.016384454 -0.026087815 0.3663035 0.07999781
0.18110695 -0.03920413 0.4037797 -0.14571323 0.077358216 0.021682777 0.02413579 0.03429246
0.09672543 -0.030277047 -0.007180433 0.20944795 0.10728883 0.1903445 0.29804736 -0.2577429
-0.13804765 0.12420908 -0.0596366 0.048550934 -0.06767885 -0.22201979 -0.004442763 -0.09249864
-0.021440376 0.027447755 -0.017642116 0.10048806 -0.023237726 -0.077645734 0.15311249 0.13620555
0.029094994 0.3386248 0.17188653 -0.17757888 -0.11361335 0.03947256 -0.27451852 -0.038455624
-0.14450058 0.21789403 -0.0006958478 -0.16148844 -0.059579846 -0.14320491 -0.09153018 -0.1058138
-0.023038734 -0.09335407 0.026720917 -0.24472547 0.04737586 -0.10099899 -0.16722643 0.07264933
0.06759092 0.02497912 -0.1796422 -0.16592142 -0.0577091 0.1615217 0.023502495 0.0500408
-0.22342883 0.12831162 -0.16082662 0.06976343 -0.19474813 0.20847173 -0.13933992 -0.32820272
-0.105842575 -0.278006 -0.03708749 0.13174269 0.014522793 0.05072007 0.51396614 -0.11480869
-0.03554305 0.30666438 0.1539984 0.06131043 -0.1492238 0.06732057 -0.15715797 -0.38632506
-0.37517428 -0.04859864 0.08183567 -0.27832952 -0.008306601 -0.08005836 -0.08728433 -0.22860596
-0.029765204 0.055957627 -0.15624943 0.11217279 0.23494421 0.15371424 0.016543338 0.18636219
-0.16376878 -0.05473285 -0.10026626 -0.009662036 0.15993856 -0.031577107 -0.1009832 0.041950483
0.13447353 -0.13385014 -0.061958518 0.19628571 0.13175023 -0.07485189 0.37854224 -0.032856908
-0.11775292 -0.20236777 -0.06317041 -0.026724903 0.0040915194 -0.23320536 0.2900481 -0.17575736
-0.07819388 0.13199973 -0.034340158 0.08746556 0.24893413 0.34085634 0.16106825 0.012575217
-0.09957117 0.080655746 0.08830395 0.17657802 0.2217442 0.030469071 -0.25738892 0.10930842
-0.035876118 -0.21668544 -0.08047869 0.13941824 0.1206097 -0.16287762 0.20110026 -0.19891743
-0.10692787 0.10297961 0.1848805 -0.04147687 -0.07820236 -0.13092306 -0.18780842 0.12902124
0.026977235 -0.023408223 0.09565836 0.010422832 -0.0627425 -0.36390862 -0.24069896 0.078789935
-0.12015303 -0.056109168 0.019306641 -0.22635877 -0.3658879 -0.029403208 0.042767838 0.07131021
-0.07922305 0.120403975 -0.05080163 -0.3718065 0.006921138 0.008522473 0.10322379 0.05160268
-0.01548771 0.12967889 0.102932654 0.19700885 -0.24540043 0.03313256 -0.1501844 0.32665914
0.12359709 0.20974845 -0.29868752 0.073895134 0.07155461 -0.0065987566 0.35765946 -0.11082653
-0.1679634 -0.12816863 -0.28000364 -0.008495087 0.029048363 -0.18506384 0.1747833 0.07002426
0.25116614 0.047306426 -0.54788065 -0.20805037 -0.13655034 -0.053589374 -0.09453928 -0.044020645
00000000: 6166 f93d a714 943d b814 8f3e 376c 273e
00000010: 786c b23d c647 3bbe 9a0f 7e3d ae1b 073d
00000020: 6dda 9c3c 8d0c 553a 6373 42be 71a1 1ebe
00000030: 8c85 dbbd 3122 46be 7d6a 1fbe 1204 38bd
00000040: 3a13 1f3e ba7a 803c c7c1 1ebd 18b4 b3bd
00000050: bb45 fc3d 4612 463e efe2 303d d3f0 493e
00000060: 1789 833e 4194 7a3d 34c7 b4be 2e8a 51be
00000070: ce23 90be 4712 09bd d715 ffbe f63e 7c3d
00000080: abb1 5b3d dcdd 73be 38ee 463d ce8d 133d
00000090: b138 863c 1db6 d5bc 228c bb3e e4d5 a33d
000000a0: 1a74 393e 8394 20bd 36bc ce3e d935 15be
000000b0: fc6d 9e3d 14a0 b13c 6cb8 c53c 4076 0c3d
000000c0: fb17 c63d 9207 f8bc d649 ebbb 8679 563e
000000d0: 3fba db3d abe9 423e aa99 983e e1f6 83be
000000e0: 5d5c 0dbe 5561 fe3d 8245 74bd 58dd 463d
000000f0: 359b 8abd 2859 63be 9994 91bb ed6f bdbd
00000100: baa3 afbc 1dda e03c 3386 90bc afcc cd3d
00000110: 0b5d bebc ba04 9fbd 85c9 1c3e 7879 0b3e
00000120: a058 ee3c 3b60 ad3e 0603 303e 3dd7 35be
00000130: 1eae e8bd fbad 213d b18d 8cbe a583 1dbd
00000140: f6f7 13be 9d1f 5f3e 8e69 36ba 3a5d 25be
00000150: ff09 74bd 4fa4 12be 2d74 bbbd e8b4 d8bd
00000160: babb bcbc 6b30 bfbd d3e5 da3c 5099 7abe
00000170: 310d 423d 8fd8 cebd 683d 2bbe 2cc9 943d
00000180: 1c6d 8a3d 03a1 cc3c 20f4 37be 4ee7 29be
00000190: 6160 6cbd f265 253e 4e88 c03c 95f7 4c3d
000001a0: 87ca 64be 1f64 033e bcaf 24be 21e0 8e3d
000001b0: 0e6c 47be 9d79 553e 20af 0ebe 300a a8be
000001c0: fec3 d8bd cd56 8ebe 0de9 17bd 8ee7 063e
000001d0: 02f1 6d3c d9bf 4f3d 4993 033f d220 ebbd
000001e0: 9795 11bd 1d03 9d3e c2b1 1d3e a520 7b3d
000001f0: 20ce 18be 5edf 893d 05ee 20be 66cc c5be
00000200: d816 c0be 5e0f 47bd 7699 a73d 3581 8ebe
00000210: 6918 08bc a3f5 a3bd 20c2 b2bd ae17 6abe
00000220: 28d6 f3bc d333 653d daff 1fbe d9ba e53d
00000230: 3795 703e 4467 1d3e e585 873c bbd5 3e3e
00000240: 01b3 27be 8e2f 60bd 6658 cdbd 844d 1ebc
00000250: efc6 233e ff56 01bd 48d0 cebd 45d4 2b3d
00000260: 6eb3 093e 0310 09be 37c8 7dbd 1fff 483e
00000270: 88e9 063e f34b 99bd 4ad0 c13e f794 06bd
00000280: 7128 f1bd 7f39 4fbe 7d5f 81bd 2fee dabc
00000290: 2712 863b 63cd 6ebe 2f81 943e bdf9 33be
000002a0: 1d24 a0bd f02a 073e 44a8 0cbd 2521 b33d
000002b0: 97e8 7e3e b984 ae3e 13ef 243e 4808 4e3c
000002c0: f8eb cbbd d72e a53d b4d8 b43d ded0 343e
000002d0: e910 633e 469a f93c 7bc8 83be 18dd df3d
000002e0: d6f2 12bd cae2 5dbe 03d2 a4bd a8c3 0e3e
000002f0: 3802 f73d 64c9 26be 3aed 4d3e 03b1 4bbe
00000300: 00fd dabd f9e6 d23d 5051 3d3e a7e3 29bd
00000310: 8f28 a0bd b210 06be da50 40be 251e 043e
00000320: 5dff dc3c 9ac2 bfbc 88e8 c33d 87c4 2a3c
00000330: 247f 80bd 3b52 babe ca79 76be 9e5c a13d
00000340: cb12 f6bd bad2 65bd f628 9e3c 98ca 67be
00000350: a955 bbbe ffde f0bc 542d 2f3d 160b 923d
00000360: b23f a2bd 5c96 f63d 5f15 50bd 6c5d bebe
00000370: b7ca e23b d8a1 0b3c ff66 d33d 555d 533d
00000380: 2ac0 7dbc 8bca 043e 5bce d23d b0bc 493e
00000390: 404a 7bbe 02b6 073d f0c9 19be de3f a73e
000003a0: 7920 fd3d 4cc8 563e 92ed 98be 5556 973d
000003b0: 398b 923d 623a d8bb 241f b73e 05f9 e2bd
000003c0: 99fe 2bbe a33e 03be a35c 8fbe fa2e 0bbc
000003d0: d5f6 ed3c 6081 3dbe 65fa 323e e168 8f3d
000003e0: d998 803e 62c4 413d e841 0cbf 280b 55be
000003f0: dad3 0bbe 8880 5bbd cf9d c1bd fe4e 34bd

encoder.4.block.4.bias f4 [40]
-0.008297081 0.0020531486 -0.005156226 -0.0017008276 -0.0006095716 0.000276199 -0.011569865 -0.009280081
0.00029078688 -8.688181e-05 -0.0021685706 -0.0041772146 -0.0045170267 0.0013152922 -0.006603352 0.00015538678
-0.0061514513 0.00045269553 0.0027064555 0.009906581 0.0073207263 -0.0049110767 0.0042314013 -0.0010089483
-0.00570805 -0.0042084027 -0.0034878673 0.00013154068 -0.0051565613 -0.0077521876 0.0017239916 0.005525563
-0.0025129546 -0.0030561544 -0.008091379 -0.004203134 -0.006031737 -0.006392489 0.0019049548 -0.0019696914
00000000: 7bf0 07bc 1e8e 063b 8ff5 a8bb 4eee deba
00000010: a8cb 1fba cdce 9039 888f 3dbc 7b0b 18bc
00000020: c174 9839 5134 b6b8 941e 0ebb 04e1 88bb
00000030: 9103 94bb e265 ac3a ee60 d8bb 52ef 2239
00000040: 1d92 c9bb c457 ed39 ca5e 313b 364f 223c
00000050: b4e2 ef3b 19ed a0bb 91a7 8a3b b03e 84ba
00000060: 980a bbbb a4e6 89bb b494 64bb 2fee 0939
00000070: 5ff8 a8bb 1006 febb 8ff7 e13a c80f b53b
00000080: 62b0 24bb c349 48bb b491 04bc 72ba 89bb
00000090: e1a5 c5bb 1678 d1bb adaf f93a f015 01bb

encoder.4.block.5.weight f4 [40]
0.76909095 0.62511784 0.7297359 0.5933228 0.81528026 0.6191932 0.983694 0.5293972
0.75679594 0.6601643 0.87869245 0.8706313 0.75669116 0.6786008 0.60244876 1.294664
0.55628186 0.92552775 0.9311636 0.54282033 0.4219829 0.9522353 0.928631 0.7040455
0.6077708 0.5474854 0.89237314 0.9540835 0.6728362 0.718295 0.8333119 0.53736454
0.5456511 0.7750779 0.89514446 0.82272214 0.83098453 0.66940427 0.5095488 0.61399716
00000000: 25e3 443f b907 203f f9cf 3a3f 01e4 173f
00000010: 35b6 503f 7283 1e3f 5fd3 7b3f 9386 073f
00000020: 61bd 413f 8700 293f fdf1 603f b1e1 5e3f
00000030: 83b6 413f c8b8 2d3f 153a 1a3f 8db7 a53f
00000040: 7d68 0e3f 63ef 6c3f bd60 6e3f 46f6 0a3f
00000050: 250e d83e b1c5 733f c3ba 6d3f 533c 343f
00000060: de96 1b3f 0128 0c3f 9172 643f d13e 743f
00000070: fe3e 2c3f 2ee2 373f ee53 553f b990 093f
00000080: caaf 0b3f 816b 463f 3028 653f eb9d 523f
00000090: 67bb 543f 145e 2b3f ca71 023f eb2e 1d3f

encoder.4.block.5.bias f4 [40]
-0.42165408 0.061936043 -0.28132695 -0.19859692 0.051265102 -0.20659882 -0.23485869 -0.28649086
0.13470632 -0.30340037 0.075860664 -0.1626109 -0.33843985 0.003086527 -0.07482262 -0.2541682
-0.25219294 0.017525142 0.16005518 -0.108313166 -0.12596218 0.06510839 0.037870254 -0.10808466
-0.28879988 -0.09736488 0.08565231 0.10695921 -0.13374291 -0.10344195 -0.2454098 -0.087867446
-0.1321103 -0.24932398 -0.08342309 -0.30402514 -0.28031242 -0.09318961 -0.026141299 -0.19718869
00000000: 0be3 d7be a6b0 7d3d 160a 90be fe5c 4bbe
00000010: 5bfb 513d a48e 53be cc7e 70be eeae 92be
00000020: 74f0 093e 4b57 9bbe d65c 9b3d 7983 26be
00000030: fd47 adbe 5547 4a3b 9a3c 99bd 5622 82be
00000040: 6f1f 81be e390 8f3c 81e5 233e 4bd3 ddbd
00000050: 3bfc 00be 8c57 853d d71d 1b3d 7d5b ddbd
00000060: 94dd 93be 3d67 c7bd 7a6a af3d 6e0d db3d
00000070: e7f3 08be 60d9 d3bd b54c 7bbe d9f3 b3bd
00000080: ec47 07be c94e 7fbe bad9 aabd 2fa9 9bbe
00000090: 1c85 8fbe 32da bebd 4726 d6bc d5eb 49be

encoder.4.block.5.running_mean f4 [40]
-0.30312335 0.60722125 -0.8799355 -0.19482347 0.21601193 -0.3010262 -0.87300915 -0.50620943
0.056128267 -0.3239024 0.6935638 0.27465814 0.23978269 0.6786669 -0.58076984 -0.23443046
-0.27889222 0.43784314 1.0153459 0.5104797 0.009399992 0.6452424 0.39912638 0.07872014
-0.03730894 -0.3752233 0.58909583 0.706618 -0.31391376 -0.6520322 -0.744757 0.19461122
0.012677529 -0.38472673 -0.43692777 -0.4534742 -0.42883256 -0.22427517 0.3536666 -0.34778768
00000000: fc32 9bbe da72 1b3f 7443 61bf ce7f 47be
00000010: 3b32 5d3e 1b20 9abe 877d 5fbf f196 01bf
00000020: c1e6 653d 89d6 a5be 668d 313f fe9f 8c3e
00000030: 9889 753e 1dbd 2d3f 55ad 14bf 8a0e 70be
00000040: f6ca 8ebe fa2c e03e dbf6 813f ccae 023f
00000050: 6d02 1a3c 9b2e 253f 4b5a cc3e 0638 a13d
00000060: 42d1 18bd 451d c0be fcce 163f ebe4 343f
00000070: 4eb9 a0be 95eb 26bf 65a8 3ebf 2a48 473e
00000080: 69b5 4f3c e7fa c4be ffb4 dfbe c52d e8be
00000090: f18f dbbe 64a8 65be ca13 b53e 3a11 b2be

encoder.4.block.5.running_var f4 [40]
3.8664384 4.1021895 4.8152485 3.5427089 1.5693542 1.1835297 2.1189108 7.037074
1.2545608 1.5113456 2.9347851 1.3818445 0.52548516 3.1046565 5.3581386 0.52520305
1.0065516 1.9706131 3.1709335 1.3055009 1.8647608 5.332505 0.70949394 3.8587506
3.4571838 0.46233395 3.3836 7.222566 1.5990069 1.1383829 3.0094643 6.457136
1.5773726 1.3596771 4.826359 2.3167567 1.3516091 0.9117635 4.6997566 1.6088676
00000000: ba73 7740 2345 8340 8416 9a40 bebb 6240
00000010: 99e0 c83f e77d 973f 3c9c 0740 b62f e140
00000020: 7395 a03f c673 c13f 85d3 3b40 48e0 b03f
00000030: 3286 063f b1b2 4640 df75 ab40 b573 063f
00000040: afd6 803f 0d3d fc3f 93f0 4a40 a71a a73f
00000050: 7bb0 ee3f e2a3 aa40 65a1 353f c5f5 7640
00000060: 8042 5d40 09b7 ec3e e78c 5840 431f e740
00000070: 42ac cc3f 88b6 913f 109b 4040 dca0 ce40
00000080: 58e7 c93f e609 ae3f 8871 9a40 be45 1440
00000090: 8701 ad3f 5569 693f 6864 9640 60ef cd3f

encoder.5.block.1.weight f4 [40, 40, 3, 3]
0.19581664 -0.034786798 -0.03937594 -0.061794646 0.0009027429 -0.12093109 0.15288793 -0.054240447
0.035404194 0.018565869 -0.0032955408 -0.008842377 -0.035253573 0.14539407 0.012259361 -0.02413817
0.06494581 -0.0230804 -0.031488266 0.08626831 0.03007064 -0.0581461 -0.31005475 0.079203226
-0.08573516 -0.004867088 -0.04313602 0.030577436 0.015395353 0.002223999 0.079830505 -0.010605602
-0.094322376 0.032769393 -0.011596572 0.06856415 0.04904752 0.0044176592 -0.004407675 0.05505882
-0.15358794 0.046996977 0.011980312 -0.051475078 -0.00074264745 -0.034505367 -0.044867948 0.09251149
-0.010941743 -0.2023201 -0.06693369 -0.020026416 0.10425223 0.059161045 -0.04422885 0.17368755
-0.020243583 -0.10022495 -0.22324122 -0.13122737 0.039460022 -0.09355465 -0.006330483 0.038773265
-0.039168537 -0.017828172 -0.012917449 -0.16925119 -0.13894056 0.0031735883 0.033133347 -0.004123411
0.027236907 -0.026219308 -0.09011693 0.029508663 -0.19135204 -0.029630013 0.045573067 -0.04626274
-0.0062947725 0.0154033685 0.04238861 0.03393821 0.028833257 0.030832665 0.0871403 -0.05394467
0.028000744 0.04551627 -0.013664556 -0.012411 0.022732086 0.0040372657 0.15984854 0.024650048
0.026512679 0.0028228506 0.093314335 -0.005141588 0.040964723 0.011598334 -0.03647205 -0.31417882
0.02413254 -0.021566574 -0.059726108 -0.014850269 0.045274384 -0.037356723 0.004747789 0.11035879
-0.17101024 0.14526135 -0.0339557 0.05794743 -0.05972912 0.00049042894 0.03951097 0.060555685
-0.024891922 0.013775471 -0.034527786 -0.002910514 0.038030706 -0.015194228 -0.07138772 -0.065019466
-0.03181904 0.016833922 0.23329428 -0.037223447 0.010202365 0.05796525 0.030249827 0.0017965065
0.015019708 0.025968775 0.0002720128 -0.03076482 0.008760235 0.011007527 -0.011137226 0.014840825
-0.16698192 0.008660715 0.018005509 0.033777677 -0.18717262 -0.010797282 0.014898284 0.0076399418
0.035036925 0.027282996 0.050113764 0.020157412 -0.07664656 -0.10937023 0.042230763 0.018484343
-0.017022653 -0.022294551 -0.021917462 -0.033831056 -0.031800978 0.0109899845 0.42361423 -0.050082654
-0.002121454 0.007648523 -0.016403342 0.05730608 -0.08686082 -0.09238549 0.023878833 -0.10224759
0.009382524 0.024998087 -0.032726176 0.0032835242 -0.04386492 -0.010687331 0.014691421 -0.033389963
-0.12631786 -0.08990805 -0.056422584 0.052233197 -0.045156922 -0.017802104 0.0007132982 0.015512099
0.06827278 0.2826623 0.052828886 -0.047660854 -0.021807937 -0.039657824 0.012496665 0.040170103
0.0066263545 -0.0053774905 -0.038115654 -0.013217777 0.030090738 -0.024482379 -0.008980585 -0.055724606
0.017845575 0.07495326 -0.046022028 0.07604481 -0.051365066 0.007939084 -0.003644424 0.03727989
0.016789842 0.055690736 0.06818462 -0.023929546 5.6406203e-05 -0.052263994 0.038266037 -0.08494673
0.06831147 -0.048937093 -0.077209905 0.0537182 0.038314763 -0.006397037 -0.008339645 -0.07878635
0.010384276 0.037648574 -0.020897284 0.019865207 -0.038717736 -0.01758687 0.2572532 -0.004911717
-0.050736763 -0.042230066 0.043317504 0.06863523 -0.003852686 0.036844738 0.0006002178 0.137597
-0.021623982 0.049194258 0.042112768 -0.061865892 -0.029790726 -0.03161118 0.03662402 0.0017479955
00000000: 2884 483e 9a7c 0ebd aa48 21bd 621c 7dbd
00000010: 0da6 6c3a b8aa f7bd a78e 1c3e 3b2b 5ebd
00000020: fd03 113d 7317 983c 00fa 57bb 9edf 10bc
00000030: 0d66 10bd 2fe2 143e 7ddb 483c 69bd c5bc
00000040: 4f02 853d 1b13 bdbc d7f9 00bd 71ad b03d
00000050: b456 f63c 9b2a 6ebd 7fbf 9ebe 4d35 a23d
00000060: ea95 afbd 187c 9fbb 65af 30bd 887d fa3c
00000070: ca3c 7c3c 83c0 113b 2d7e a33d 1ec3 2dbc
00000080: 172c c1bd 3339 063d 8cff 3dbc 5c6b 8c3d
00000090: 0de6 483d 03c2 903b 426e 90bb 5b85 613d
000000a0: 2846 1dbe e77f 403d 1249 443c 88d7 52bd
000000b0: 3aae 42ba 8055 0dbd 74c7 37bd aa76 bd3d
000000c0: ff44 33bc 002d 4fbe 8814 89bd 700e a4bc
000000d0: 3182 d53d da52 723d 5029 35bd 26db 313e
000000e0: dfd5 a5bc bd42 cdbd 5999 64be 7860 06be
000000f0: d5a0 213d 9599 bfbd f16f cfbb b7d0 1e3d
00000100: 306f 20bd 630c 92bc b5a3 53bc 2f50 2dbe
00000110: 6f46 0ebe fafb 4f3b d5b6 073d ae1d 87bb
00000120: ef1f df3c e0c9 d6bc 3a8f b8bd 27bc f13c
00000130: caf1 43be a4ba f2bc d3aa 3a3d 007e 3dbd
00000140: 6144 cebb 695e 7c3c ae9f 2d3d cb02 0b3d
00000150: b933 ec3c c994 fc3c 9d76 b23d 16f5 5cbd
00000160: d161 e53c 456f 3a3d 4de1 5fbc 8257 4bbc
00000170: a438 ba3c 0a4b 843b 56af 233e e6ee c93c
00000180: 1e31 d93c 93ff 383b 961b bf3d c47a a8bb
00000190: a0ca 273d f006 3e3c b763 15bd 0cdc a0be
000001a0: 9bb1 c53c 62ac b0bc 5da3 74bd 8b4e 73bc
000001b0: a271 393d 5d03 19bd 5793 9b3b ca03 e23d
000001c0: 4f1d 2fbe 64bf 143e 2215 0bbd 495a 6d3d
000001d0: 86a6 74bd 2190 003a 41d6 213d 3d09 783d
000001e0: 25ea cbbc 83b2 613c 026d 0dbd 52be 3ebb
000001f0: 16c6 1b3d 36f1 78bc ba33 92bd ed28 85bd
00000200: af54 02bd 4be7 893c b2e4 6e3e 9d77 18bd
00000210: d227 273c f86c 6d3d 7cce f73c c178 eb3a
00000220: 3915 763c 78bc d43c f19c 8e39 8106 fcbc
00000230: 1787 0f3c ea58 343c e978 36bc ef26 733c
00000240: 4ffd 2abe ace5 0d3c 4a80 933c 765a 0a3d
00000250: 2eaa 3fbe 15e7 30bc ef17 743c 7a58 fa3b
00000260: e182 0f3d 9780 df3c 1744 4d3d 2821 a53c
00000270: dff8 9cbd 80fd dfbd 2afa 2c3d 7a6c 973c
00000280: 1773 8bbc 10a3 b6bc 408c b3bc 6f92 0abd
00000290: be41 02bd 560f 343c f7e3 d83e 7823 4dbd
000002a0: 1808 0bbb 76a0 fa3b 4d60 86bc c8b9 6a3d
000002b0: 16e4 b1bd 9b34 bdbd 8b9d c33c 2f67 d1bd
000002c0: 28b9 193c cac8 cc3c e20b 06bd 6530 573b
000002d0: b4ab 33bd ea19 2fbc 49b4 703c eac3 08bd
000002e0: 7859 01be b621 b8bd 5e1b 67bd 7af2 553d
000002f0: 77f6 38bd b8d5 91bc a2fc 3a3a 7526 7e3c
00000300: 99d2 8b3d 1db9 903e 1a63 583d 0738 43bd
00000310: 8fa6 b2bc 3e70 22bd d0be 4c3c 6889 243d
00000320: e421 d93b a935 b0bb 291f 1cbd 608f 58bc
00000330: da80 f63c 458f c8bc 4e23 13bc 7c3f 64bd
00000340: e230 923c 1881 993d 9881 3cbd 62bd 9b3d
00000350: 2d64 52bd ef12 023c 4ad7 6ebb ccb2 183d
00000360: da8a 893c f81b 643d 61a4 8b3d e507 c4bc
00000370: b395 6c38 c512 56bd d9bc 1c3d 8df8 adbd
00000380: e2e6 8b3d 4372 48bd 3a20 9ebd 9e07 5c3d
00000390: f1ef 1c3d 3c9e d1bb 02a3 08bc bd5a a1bd
000003a0: cf22 2a3c 6435 1a3d c830 abbc 5cbc a23c
000003b0: 7d96 1ebd 5712 90bc b1b6 833e 78f2 a0bb
000003c0: 5ad1 4fbd 6ff9 2cbd b26d 313d a190 8c3d
000003d0: 587d 7cbb 82ea 163d ef57 1d3a 3ae6 0c3e
000003e0: c724 b1bc eb7f 493d 707e 2c3d 1767 7dbd
000003f0: ae0b f4bc ba7a 01bd 1203 163d ff1c e53a

encoder.5.block.1.bias f4 [40]
0.00021413148 0.0035963135 0.0004407849 0.0027188787 0.0016650701 0.0013812294 0.0016400712 0.001707419
7.87534e-06 0.006364683 0.004002925 0.003518082 0.0013175451 -0.0065110475 -0.0007796147 0.0024669806
0.0021720368 0.005885029 0.0039251056 0.005081501 0.0029065553 -0.0009905093 -0.0002690091 0.0050004725
0.0011780736 0.0015553624 0.0023965044 0.0015341731 0.0016538199 1.595298e-05 0.00047305762 0.00019753221
0.001239847 0.0021776364 0.004960236 0.00401503 0.004973105 0.0027707564 0.0006653712 0.0016383493
00000000: 7b88 6039 21b0 6b3b 2619 e739 372f 323b
00000010: 7b3e da3a 5e0a b53a a8f7 d63a 7acb df3a
00000020: 5420 0437 d58e d03b f82a 833b 9f8f 663b
00000030: 7ab1 ac3a a05a d5bb 0f5f 4cba 11ad 213b
00000040: bb58 0e3b 34d7 c03b 2c9e 803b b882 a63b
00000050: e87b 3e3b fad3 81ba ca09 8db9 01db a33b
00000060: 9769 9a3a 4ddd cb3a ac0e 1d3b 4f16 c93a
00000070: fdc4 d83a c4d2 8537 b804 f839 a620 4f39
00000080: 5d82 a23a adb6 0e3b 7a89 a23b 8390 833b
00000090: 6ef5 a23b 9495 353b 4e6c 2e3a e1bd d63a

encoder.5.block.2.weight f4 [40]
0.8959436 1.0927289 1.100396 0.8384824 0.99302256 0.9846506 0.9101662 1.0705625
0.989823 1.2640373 0.83234376 0.8590385 1.0152942 0.6909612 1.0882885 1.0155368
0.8301966 0.82329977 0.8014408 1.2725567 0.92004114 1.0434067 1.0468782 1.1726437
0.9872746 0.8609053 0.86986846 1.01468 0.951004 1.0539674 1.1031373 0.71330696
0.8962315 0.86037254 1.021545 0.9850818 0.7582034 0.8554645 0.96330535 1.0670264
00000000: 8f5c 653f 8ade 8b3f c7d9 8c3f c8a6 563f
00000010: ba36 7e3f 1012 7c3f a700 693f 3108 893f
00000020: 0a65 7d3f f9cb a13f 7b14 553f f2e9 5b3f
00000030: 29f5 813f d5e2 303f 0a4d 8b3f 1cfd 813f
00000040: c487 543f c6c3 523f 392b 4d3f 23e3 a23f
00000050: d187 6b3f 5a8e 853f 1b00 863f 3019 963f
00000060: 07be 7c3f 4a64 5c3f b3af 5e3f 09e1 813f
00000070: 0075 733f 67e8 863f 9a33 8d3f 499b 363f
00000080: 6d6f 653f 6041 5c3f fdc1 823f 522e 7c3f
00000090: 9e19 423f b9ff 5a3f 2e9b 763f 5294 883f

encoder.5.block.2.bias f4 [40]
0.41624025 -0.30762714 -0.40395367 0.26763293 -0.23169324 0.0870151 0.0048028002 -0.066723906
0.017533135 -0.06124773 0.24575084 0.31214133 -0.3121233 -0.14586493 -0.16675964 0.3264502
0.33986485 0.25027585 0.39624298 0.25346273 -0.28635097 0.076892085 0.34987316 0.047408458
-0.2931937 0.07426412 0.7549499 0.0070751985 -0.30490524 -0.19863512 0.22050855 -0.43053573
0.26324794 0.106819466 -0.05257378 0.018987285 0.26430652 0.21392496 -0.08369673 0.20150857
00000000: 711d d53e 4e81 9dbe 04d3 cebe 2f07 893e
00000010: fe40 6dbe f934 b23d cf60 9d3b 8ba6 88bd
00000020: a6a1 8f3c e6de 7abd 1ca6 7b3e fdd0 9f3e
00000030: a0ce 9fbe 9e5d 15be 0ac3 2abe 7b24 a73e
00000040: c402 ae3e 2824 803e 5ce0 ca3e dec5 813e
00000050: 989c 92be 9979 9d3d 9322 b33e 5f2f 423d
00000060: 7c1d 96be c917 983d 6644 413f 11d7 e73b
00000070: 8a1c 9cbe 0167 4bbe fecc 613e 2e6f dcbe
00000080: 6fc8 863e 2ac4 da3d 9b57 57bd 398b 9b3c
00000090: 2f53 873e 250f 5b3e 3169 abbd 4358 4e3e
