VQ-VAE/models/vqvae/model_99.pt (torch, 579012 bytes, 64 tensors)

encoder.0.weight f4 [40, 1, 4, 4]
00000000: c9b0 4a3d f0cf f5bb 6275 1ebd 2719 aabd
00000010: 4fa4 f0bc 8b74 09be a2ec c5bd aeb7 b3bd
00000020: bce7 7dbd 89f8 27be d855 5abe 2a90 4f3d
00000030: d14b 1dbd eb2c 1fbd 0a08 d13d 6b1c 133d
00000040: 2a59 353d 7abe 3a3d 5ae2 a2bd ce71 9e3d
00000050: 74d0 a33d 2ab0 113e f201 a9bd 49a4 8a3d
00000060: e5b3 583d 59cf c03d 1db1 19be e096 49bb
00000070: 124c 483d afe1 c03d edea debc 7a10 843d
00000080: 393c b43d fe5b b83d 2e9b e53d 624c d83d
00000090: bf79 033d 2f1d f9bb 6f7f aabb de42 943d
000000a0: b941 af3d 82d9 763d c036 4c3d 1604 893d
000000b0: 9234 f53c c3c9 383d 9d4b 673c 526b 953c
000000c0: bc98 f2bb 198f 6c3d 464d cf3d 6ded 823d
000000d0: d8ba b93d ca33 c43d 9ffd 19bd c0cf 97bd
000000e0: 3468 e73d 72cc 9cbd ed19 6cbd ae20 1b3c
000000f0: a4d0 cd3d e329 373d 4daa 973d ed23 ef3c
00000100: fe90 023d 3d38 31bc 2e20 9f3c b314 483b
00000110: 0fd0 433c 5e70 1bbd 99e9 093e 2647 843c
00000120: 3e5f cebc 67d5 02be 861e 4f3d d857 ba3d
00000130: d211 5d3d a3f5 76bd ffef 163d 1d72 073e
00000140: 5931 9abd ae02 46bd e1af 03bd 19ff af3c
00000150: 79fc 02be d03e 9ebd c1f2 20be 06dc 693d
00000160: c54e ddbd 7a6f aabd 51b0 f2bd 9f0e a43d
00000170: 1cc7 97bd c901 42bd 3475 2e3d cb8e 233a
00000180: 2f4c aebc 7b11 873d 93e2 1dbd 0e8d 82bc
00000190: 12f1 bd3d 45b2 c03c 5b03 f0bd f28f 9cbd
000001a0: bc62 873d 2a0e 21be e0bc 45bd 1d13 e3bd
000001b0: 56e5 b23c 6c59 98bd 2f4e 39bd 005c adbb
000001c0: 9e13 923c bd03 46bd 9b2a c0bd 062a dcbd
000001d0: bcdb 82bd 4eac 95bd 4588 1ebe 0605 f83d
000001e0: 600d e6bd 4fdf 0cbd ba08 01be 2d75 14bd
000001f0: 818e 16bc 4def a23d 061f d1bc ab9f cdbc
00000200: f176 1abc 7291 2ebd ac62 953c 7fe3 b83c
00000210: ecff cbbd 9749 b23d 703b 163e 9a04 fa3c
00000220: c702 1f3d 79ad fd3d 78be 81bd bb9b 4dbd
00000230: 5030 ba3d 647e e83d 8b7e a9bc e628 053d
00000240: 9f88 0a3d 0b38 a43d 7f99 233d 52bb 113d
00000250: 2de9 87bd 4894 b6bc 9cbe eabd acb0 91bc
00000260: 9ac6 02be a821 eabd 14e2 0abe d13f 083d
00000270: 1327 083d 0187 c33d 96c5 aa3d 7cd5 403d
00000280: 1c08 803d 7a7a ec3c 6b4b 97bd 058d 8cbd
00000290: 302d 633d 9366 403d c6a5 14bd e533 cebd
000002a0: 44af 483d 2158 2c3d cd97 2fbd 7b2b 0fbe
000002b0: fbad 903d b2c4 573d 2267 8ebd 8e6d 8abd
000002c0: 1dc6 a5bd 6e06 e0bc f2d5 073d ce2a 8cbc
000002d0: 2499 e53b 23e2 81bd 16e6 06be fed6 c4bd
000002e0: e41a 20bd 0c54 cebd 028b 65be c319 68bd
000002f0: f87f 943c b818 7cbd 892d c23b 7075 86bd
00000300: 3a31 c73b de0c b13d a099 ab3d 5230 bf3c
00000310: d87c 1e3c 6552 3abd 6cda 92bd 44f2 0ebe
00000320: a703 73bd e7a1 12be e48d 39be 53ef 23be
00000330: 2931 31bc 5f27 50bd 75cb 65bc 3602 a3bd
00000340: 9946 52bd a267 9cbd 34a5 bd3c e195 463d
00000350: 7603 a5bd da88 14be 563b 08be 4175 9abc
00000360: 42ce 3e3d 9a48 853d 08f8 c1bd 8cc0 fdbd
00000370: c909 f13c 69db b23d bd57 0f3d 8037 d0bc
00000380: fcb4 9b3c 439b fd3a 76a3 64bc 7616 513d
00000390: 4f18 223d e2f0 7abd e550 4cbd ba0a d13c
000003a0: 6730 103c 5c9c 7a3d bbcb 493e 745c 243e
000003b0: 2aec 0b3c 56a8 a23d 15cd dc3d 9f50 1c3d
000003c0: f0ef 563d f889 8ebd 8a40 acbd cc56 c03b
000003d0: 8bfe b0bd 39e6 56bd d541 75bd b949 67bd
000003e0: c64a 9dbd 7771 c5bd a8c6 cfbc 7872 69bd
000003f0: c389 f43c f151 47bd b4f0 abbd 29e3 2b3c
0.049485 -0.0075015947 -0.038686164 -0.08305579 -0.029375223 -0.13423364 -0.09664275 -0.087752685
-0.061988577 -0.16403402 -0.2132181 0.050674595 -0.038402382 -0.038861196 0.102066115 0.035915773
0.044274487 0.04559181 -0.079533294 0.0773655 0.07998744 0.14227358 -0.08252324 0.06769616
0.052905936 0.094145484 -0.1500897 -0.0030760095 0.04890067 0.09418046 -0.02721163 0.06448455
0.08800549 0.09001921 0.11211239 0.10561444 0.032098528 -0.007602356 -0.0052031795 0.072393164
0.085574575 0.060266025 0.0498569 0.066902325 0.029932294 0.04511429 0.014117149 0.01823965
-0.0074034613 0.057753656 0.101221606 0.063929416 0.09068841 0.095801905 -0.037595388 -0.07412672
0.11299172 -0.07656182 -0.057641912 0.009468241 0.10049561 0.04471768 0.07405529 0.029191935
0.031876557 -0.010816631 0.019424524 0.0030529916 0.0119514605 -0.03794896 0.13468017 0.016147207
-0.0251919 -0.12776719 0.05056622 0.09098786 0.053972073 -0.06029285 0.03684997 0.13227125
-0.075289436 -0.0483424 -0.032150153 0.021483945 -0.12791623 -0.07726824 -0.15717603 0.057094596
-0.1080604 -0.08322044 -0.11850036 0.08010601 -0.07411024 -0.047364984 0.042592242 0.00062392344
-0.021276562 0.06595131 -0.038546156 -0.0159364 0.09274496 0.023522506 -0.1171939 -0.07644643
0.06610629 -0.1572806 -0.04827583 -0.1108763 0.021837872 -0.07438931 -0.045240577 -0.0052905083
0.01783162 -0.04834341 -0.09383126 -0.10750203 -0.06389567 -0.07308255 -0.1548167 0.12110333
-0.1123302 -0.03439265 -0.12600985 -0.03624456 -0.009189249 0.07955799 -0.025527488 -0.02510055
-0.009427772 -0.042619176 0.018235527 0.022569416 -0.099609226 0.087054424 0.14671111 0.030519772
0.038821008 0.12386603 -0.06335157 -0.050197344 0.09091246 0.11352232 -0.020690223 0.032509707
0.0338217 0.08018502 0.039941307 0.035579033 -0.066362716 -0.022287503 -0.11462137 -0.017784439
-0.12771073 -0.11432201 -0.13562804 0.033263985 0.03324039 0.09547234 0.08338468 0.047078595
0.06251547 0.028866995 -0.07387432 -0.06862835 0.055463016 0.046972822 -0.036290906 -0.10068492
0.04899527 0.042076234 -0.042869378 -0.1398143 0.07064434 0.052677818 -0.06953265 -0.06759177
-0.08094428 -0.027346816 0.03316302 -0.017110255 0.007006781 -0.0634196 -0.13173708 -0.09611319
-0.039088145 -0.100746244 -0.22416309 -0.056665193 0.018127427 -0.06154701 0.0059258384 -0.06565368
0.0060788663 0.08645032 0.08378911 0.02333847 0.00967332 -0.045488734 -0.07170567 -0.13959605
-0.059329655 -0.14319573 -0.18120533 -0.16009264 -0.010814943 -0.050818797 -0.014025559 -0.07959406
-0.05133686 -0.07636954 0.023150064 0.04848278 -0.08057301 -0.1450533 -0.13303885 -0.01885474
0.04658342 0.06507988 -0.09471136 -0.12390241 0.029423611 0.087332554 0.034995783 -0.02541709
0.019007199 0.001934864 -0.013954988 0.05104681 0.039573964 -0.06126488 -0.049881835 0.02551781
0.0088006025 0.061184272 0.19706623 0.16050893 0.008540193 0.07942264 0.10781304 0.038162824
0.052474916 -0.06959909 -0.08410747 0.005869722 -0.086423 -0.05246565 -0.059877235 -0.05646679
-0.076802775 -0.09640782 -0.025363281 -0.05699393 0.029850846 -0.04866213 -0.0839552 0.010491171

encoder.0.bias f4 [40]
00000000: 0a88 3aba 83d6 01bb 533b 5abb 7a8e 4cbb
00000010: 9a67 e2bb db3b 8eba 1bdc 3e3b a470 a2ba
00000020: f1c5 a7bb 860a 903b 402c 723a e417 08bb
00000030: 8286 68bb 0b17 d7b9 60bb 21bb 6919 9c3a
00000040: 36bc a83a e9b2 c1ba 5065 12ba e72d 1cbb
00000050: 35b3 ddbb f3b3 c2ba 2135 d6ba c294 85bb
00000060: b3e4 75ba 8a5d 713b acfe a0ba f7bf 9db9
00000070: ddd5 083b 4c02 bfba f7e5 ca3b e569 e1ba
00000080: 6618 f9b8 ec19 ebbb afd7 d53b b650 99ba
00000090: 994f 87ba 34f9 d3bb 74fa 5abb 779a 463b
-0.00071156083 -0.0019811697 -0.003329952 -0.0031212852 -0.006909323 -0.0010851579 0.0029122892 -0.0012393189
-0.005120032 0.0043957857 0.0009238161 -0.0020766193 -0.0035480564 -0.00041025164 -0.0024678335 0.0011909428
0.0012873474 -0.0014778051 -0.0005584555 -0.002383107 -0.006765748 -0.0014854654 -0.0016342738 -0.004076571
-0.0009380087 0.0036829435 -0.0012282929 -0.00030088398 0.0020879426 -0.0014572828 0.0061919647 -0.0017197697
-0.0001187779 -0.007174721 0.0065259556 -0.0011697027 -0.0010323405 -0.0064689163 -0.0033413442 0.003030447

encoder.1.weight f4 [40]
00000000: dd4c 293f 6761 d53e fb13 173f ece7 c43e
00000010: b062 063f 381c 4c3f 6294 273f b341 2f3f
00000020: 6532 013f ad44 123f 4925 343f 5c8a 2c3f
00000030: e35c 413f 8c28 2e3f 8401 ea3e 7d62 4c3f
00000040: ac51 153f 65fe 3e3f 89c7 1f3f bd3e 3e3f
00000050: 27af dc3e d382 343f e25c f93e af9b 093f
00000060: 5958 a13e 1fd7 123f 6098 133f f24a 993e
00000070: 47a9 1e3f 0666 0e3f 3388 373f b849 3f3f
00000080: 5e0b 373f db7c 203f 22e1 453f 33a4 043f
00000090: fe44 453f cc27 693f b197 603f ae4b 163f
0.6613291 0.41675875 0.5901486 0.38458192 0.52494335 0.7973056 0.6546079 0.68459624
0.5046752 0.5713604 0.7036939 0.6739862 0.7553236 0.6803062 0.4570428 0.7983778
0.58327746 0.74606925 0.6241384 0.7431448 0.4310238 0.7051212 0.48703676 0.5375318
0.31512716 0.573595 0.5765438 0.2993999 0.61977047 0.55624425 0.716922 0.7472186
0.7150172 0.62690514 0.7729665 0.5181305 0.770584 0.9107635 0.8773146 0.5870923

encoder.1.bias f4 [40]
00000000: 6540 92bd ce0c 44bd 4d91 fdbc f959 eebb
00000010: e7cb 823d aa57 0dbe e8d7 75be eec3 74be
00000020: cfba 0b3e 3e50 d63b dec2 32be 7e21 0bbe
00000030: bf25 5abe 8c81 42be 9693 393e e256 d53c
00000040: 4f6a 833c a93a 36be 9a04 2cbe d25c 57be
00000050: 2cdb e4bc 5a27 21be 4620 183e 9056 9abd
00000060: f49c 94bc bbac 2bbe a1a0 013e 8433 893d
00000070: dec0 17be ac27 1abd 410d 3fbe daca 76be
00000080: ff36 2ebe 1cca 2c3e a18b 17be b9d5 33be
00000090: 4573 54be bee4 85be 5438 97be ea21 c5bd
-0.071411885 -0.047863774 -0.030953074 -0.007273909 0.063865475 -0.13802972 -0.24008143 -0.23902866
0.1364548 0.0065403273 -0.17457148 -0.13586995 -0.21303461 -0.1899473 0.18122706 0.026042406
0.016041903 -0.17795815 -0.1679863 -0.21031502 -0.02793654 -0.15737668 0.14856061 -0.07536042
-0.018141247 -0.1676511 0.12658931 0.06699279 -0.14819667 -0.03763549 -0.186574 -0.24100819
-0.17013167 0.16873974 -0.14799358 -0.17561997 -0.20747097 -0.2615108 -0.29535162 -0.09625609

encoder.1.running_mean f4 [40]
00000000: 35ac 0d3f 2075 9cbe 8d8f 13bf 50c2 afbe
00000010: e7f0 57be 077d 073f ccee a43e 4ed6 f93e
00000020: 1071 9abe 8618 f83d 98e1 043e 6203 233f
00000030: 3fec 073f 5221 9b3e cbcf ecbe 8264 ff3e
00000040: 43d0 72be dbb7 1d3f 8ffc b63e 67dd b33e
00000050: 44b9 90be 6631 853e aecc 70be 2289 943e
00000060: 3fb3 5ebd 12bb 0c3e 063e 81be ee43 a7bd
00000070: ddc6 233e 578e 4a3e 26dd 843e c17d a53e
00000080: 2b6e a33e 9eae 7abe 7928 bf3e ecb8 9fbe
00000090: b92b 133f ec04 123f 97b4 4a3f ac7c eb3d
0.5534089 -0.3055811 -0.57640916 -0.34327936 -0.2108799 0.5292515 0.32213438 0.48796314
-0.30164385 0.121140525 0.12976682 0.63677037 0.5309486 0.3029886 -0.46252283 0.4988137
-0.23712258 0.61608666 0.35739562 0.35129854 -0.28266346 0.2601425 -0.23515579 0.29010874
-0.05437016 0.13743237 -0.25242633 -0.081672534 0.15993829 0.19780861 0.25949973 0.32322505
0.3191999 -0.24480674 0.37335566 -0.31195772 0.5748859 0.5703876 0.7918181 0.11498389

encoder.1.running_var f4 [40]
00000000: b164 343e aeb1 403d 336d 033e 6798 7d3d
00000010: 73ea fe3c 2a45 233e 2010 a93d f26a e63d
00000020: 1c75 753d e674 173d ca4e 903d b6d6 303e
00000030: ba60 333e 477d 4f3d f0ad e43d 6b25 d53d
00000040: 3a60 7b3d 586a 443e f5f9 bc3d 119a a03d
00000050: 1a95 243d 1068 833d 5034 fb3c 51d1 903d
00000060: c2db e33c 2661 903d 723a 513d 275f 113d
00000070: b4b5 3b3d 2207 453d ca31 833d 87ad 983d
00000080: 7045 8c3d 7f51 4c3d 41f8 7e3d a524 bf3d
00000090: 6bdd 373e 1795 233e a179 8f3e a30f a53c
0.17616536 0.04704445 0.12834625 0.06191292 0.031117653 0.15944353 0.08255029 0.11250867
0.059926137 0.036976717 0.07046278 0.17269406 0.17517367 0.050656583 0.111659884 0.104075275
0.061371066 0.19181192 0.09227363 0.07841886 0.040181257 0.06416333 0.030664593 0.07071174
0.02781475 0.070497796 0.05108113 0.035491135 0.045827582 0.048102506 0.06405981 0.07454973
0.06849182 0.04988241 0.062248472 0.09333161 0.17955558 0.15974842 0.28022483 0.020149058

encoder.3.weight f4 [40, 40, 4, 4]
00000000: cf45 a93a a39b a23c a3a9 04bc 23da aebc
00000010: 1394 6fbd 3f5d fbbd e785 5f3c 3197 4f3d
00000020: b715 00bd d265 c53a b356 a43b c57d 543d
00000030: ee73 8f3d 5eb9 363d 1718 053d ea7c a1bb
00000040: 8d01 3a3c ddb8 d43b 9e0a ec3c 5c3d e43c
00000050: ba0e 6abc 9f70 1ebd 9395 163d 0832 7b3d
00000060: 21ab c2bb b828 7abc 37ea 043d 4033 cb3d
00000070: 82d7 793b 1b6c a7bb 3d9f ae3c 0fa2 1c3d
00000080: 398f e2bc e7ac aabc 349d 94bb 0ad9 a53b
00000090: ca48 043d fed3 e9bc c1a8 ccbd 665b 983c
000000a0: efac 063d fb98 0cbd b126 e7bd 9e19 22bd
000000b0: 7adb 8b3d 173d dfbd d1b6 cebd cac6 3abd
000000c0: 3f50 a73c f661 49bc 562a 97bc 15f0 9e3c
000000d0: 88d7 8e3d 6a59 72bd 99e9 b1bc 9d27 ad3b
000000e0: c322 173d 8883 1abd 0467 ea3c cd8d 223d
000000f0: 4712 d53a 3c4b dc3c 9fb4 0b3d 4810 ba3c
00000100: 6b72 7a3d b408 273d 1672 a4bd 580c a6bc
00000110: 590a 9dba 962c 263e 3a35 c8bd 81e9 01bd
00000120: c2bd e9bc 9a86 443e 14c7 923a f16f 73bb
00000130: e51f 4d3a fe85 3a3d e0c2 923b d5b0 d2bc
00000140: 602b 73bc 85fe 9cbb 16cd 2bbd 58cc 6f3d
00000150: 32f5 efbd 4e68 8ebc a7bb 993d 436a f23c
00000160: c4cc b8bd 24cc ee3d 28b1 4b3d 5152 2fbd
00000170: 61a7 e9bc 65da 8e3c 2592 c23d 6fed a33c
00000180: b561 3abc 812a 273c 33ac 353d bc92 b53c
00000190: 05ca 9cbd b793 bfbd a299 fe3d c3a0 f93c
000001a0: 7a2b e33c ee95 973d 8cca f53b 3288 84bb
000001b0: 9910 3fbc 2978 053e 0492 23bd 9b25 0bbc
000001c0: a76a d2bc ad29 443c 6924 963d 6a2e e03c
000001d0: dd7f 5cbc e9a2 5cba ed76 243d 0c70 d23d
000001e0: 7d76 253d a384 b83d 4544 41bd 63a9 86bc
000001f0: c1a3 0cbe d7f6 95bc 6da9 073e 5251 283d
00000200: a7cb cdbb 8172 8bbd 3f6c 60bd b0b2 2a3d
00000210: 23cd 943d 8a7d e3bd e8d6 81bd 72eb 583d
00000220: ac55 8ebc eda9 53bd c560 0dbd 21a9 d93c
00000230: 8391 03bc 7890 383d 5c1d 06bd 9242 5d3b
00000240: ce85 c8bb de76 cdbc c172 71bd e565 17bc
00000250: e4fb a53d 24b7 0b3c 5bba 6dbd 61a2 3fbd
00000260: ca00 853d 16e3 fbbc 269e cfbc 524e db3d
00000270: 771a c03c 5853 6c3d 9c8a 05bc 4728 2cbd
00000280: 8b6e 6b3c e67d 113c 9762 c1bb cc68 ad3d
00000290: 9424 4bbd 4b8b aa3d da1a 1e3d 43ae 873c
000002a0: b17f f6bd 5683 1c3c 4a43 f13d df4a d73a
000002b0: 4691 1bbc 9c0d 803c 8200 00bd 42fa 1abd
000002c0: c577 94bd 9c53 9d3c 6a19 933d b17d aa3d
000002d0: bb66 8d3d 0abc 5abc ae5a 59bd 9a3d 803d
000002e0: 158f 57bd e9c7 c2bd 1cd0 bf3d e689 503c
000002f0: 3b04 f63c 125a 64bd 55e8 643d 639a cc3d
00000300: b73f 1bbd 5496 a5bc d00e 9dbc 3919 d0bc
00000310: aba5 693d a152 efbc 9657 23bc a2d2 383d
00000320: d883 8abd 8786 8b3d 702c 9ebb 9fbb ad3d
00000330: 0190 d8bc c2b1 febc c704 143d 7dcc 57bc
00000340: c783 63bc 2e38 58bd 2a38 203d 6ca1 523d
00000350: 5f7c 103e d12f 133e df49 02bd 8de6 9e3c
00000360: 7a9f 60bd ba70 2cbd a34c 8c3d c0f8 ce3d
00000370: 0664 fcbb 5c6b 4dbd 07fd 1539 4f19 053d
00000380: d24e 6c3d a0c0 80bd 3509 adbd 4be6 683d
00000390: 0a3a 303d 5ecd 64bd bfda 1dbd addd 773d
000003a0: 085e 503d a65c 25bd b80e c7bd d186 893c
000003b0: 8dd4 a83d 6a39 bf3c 15e2 57bd 1c39 4d3d
000003c0: b7d7 233c 5a8d 02bd f286 c4bb 13b1 043d
000003d0: 9588 7abd cf46 0ebe dc9d 8a3c ff45 823d
000003e0: 8791 7dbb 833e 28bd 4ddb 81bd f72f 363d
000003f0: 86f0 73bd 8c9e d4bc c958 b03b 62e2 d83c
0.0012914481 0.019849604 -0.008097085 -0.02134425 -0.058490824 -0.12273645 0.013642765 0.050681297
-0.03127071 0.0015060252 0.005015218 0.051877756 0.07004534 0.044610374 0.032493677 -0.004928221
0.011352909 0.006491764 0.028813656 0.02786129 -0.014285738 -0.038681623 0.03676374 0.06132701
-0.0059408103 -0.015268497 0.032449927 0.099218845 0.0038122837 -0.0051093227 0.021316165 0.03824049
-0.027656185 -0.0208344 -0.0045353416 0.0050612735 0.03229598 -0.028543469 -0.09993125 0.01859827
0.032879766 -0.03432558 -0.11286677 -0.03957521 0.06828971 -0.10900324 -0.10093463 -0.045599736
0.020424007 -0.012291422 -0.018452805 0.01940159 0.06974703 -0.059167303 -0.021717833 0.0052842633
0.036898386 -0.037723094 0.028613575 0.039686013 0.0016256057 0.026891343 0.0341078 0.022712842
0.061144274 0.040779784 -0.08029573 -0.020269558 -0.0011981233 0.16227946 -0.09775777 -0.031716827
-0.028532866 0.19191971 0.0011198246 -0.003714558 0.0007824882 0.04553794 0.0044787973 -0.025719086
-0.014841884 -0.0047910833 -0.041943632 0.058544487 -0.11716689 -0.01738372 0.07506495 0.029591685
-0.09023431 0.116600305 0.049729496 -0.042803112 -0.028522195 0.017438123 0.09500531 0.020010678
-0.011375834 0.010203005 0.044353675 0.022164695 -0.0765572 -0.09354346 0.12431647 0.030472165
0.027730692 0.07401644 0.007500952 -0.004044556 -0.011661672 0.13034119 -0.039934173 -0.008492853
-0.025685621 0.011972827 0.073311634 0.027365882 -0.013458219 -0.00084166095 0.04015248 0.102752775
0.040396202 0.090096734 -0.047184248 -0.016438192 -0.13734342 -0.018306179 0.13248225 0.041093178
-0.0062803808 -0.06808949 -0.05479073 0.041674316 0.07265689 -0.11107929 -0.06339818 0.052958913
-0.017374836 -0.051675726 -0.034516115 0.026569905 -0.008030298 0.04505965 -0.032742843 0.0033761603
-0.0061194664 -0.025081094 -0.05894733 -0.009240602 0.08104685 0.008527551 -0.05803905 -0.046785716
0.06494291 -0.030747931 -0.025343966 0.10708298 0.02345012 0.05769667 -0.008150723 -0.0420306
0.014369617 0.008880114 -0.0059016454 0.08467254 -0.04959543 0.08327349 0.038599826 0.016562587
-0.12036074 0.009552797 0.117804125 0.0016425512 -0.009495085 0.01563149 -0.031250484 -0.03783632
-0.07249407 0.019204907 0.07182582 0.08324755 0.0690436 -0.013350496 -0.053064995 0.062617496
-0.052626688 -0.09510786 0.093658656 0.01272819 0.030031314 -0.05574996 0.05588563 0.099903844
-0.03790256 -0.020213284 -0.019172102 -0.025402652 0.05704276 -0.029214205 -0.009969613 0.04512275
-0.067634284 0.068127684 -0.0048270747 0.084830515 -0.026435854 -0.03109062 0.03613737 -0.013171312
-0.013886399 -0.052787952 0.039116062 0.051423475 0.14109944 0.1437371 -0.03180873 0.019397045
-0.05483959 -0.042099692 0.06850555 0.10106039 -0.0077023534 -0.050151214 0.00014304007 0.03249484
0.057692356 -0.0628674 -0.08449022 0.05686025 0.0430241 -0.055859916 -0.03853869 0.06051414
0.050870925 -0.04037156 -0.09719604 0.016787918 0.08243666 0.023342807 -0.052705843 0.050103292
0.010000161 -0.031873085 -0.005997532 0.032395434 -0.06116541 -0.13894199 0.016920976 0.06361007
-0.0038691477 -0.04107524 -0.063406564 0.044479337 -0.059555553 -0.025954507 0.0053816778 0.026475135

encoder.3.bias f4 [40]
00000000: b5e2 7b3c e763 003e ef67 943d b005 76bc
00000010: b4e5 153e 1027 8a3d f6d9 813e 8b67 5d3c
00000020: 6531 bf3b 52be fb3b b866 a93d ad1d b83d
00000030: e83f f8ba e2d7 113d 1894 953d e4cf e93d
00000040: 1a60 4bbc 4b25 213c 162b 833c 23b0 3fbc
00000050: b024 cf3b 30ab d53b 4a8e 303e 074c 103d
00000060: 98f4 14bd cdea ed3d a82e c9bc 5f34 423d
00000070: 9b99 203e 5847 283d 17d4 783c 9cc7 bdbc
00000080: fc20 b3bd c952 f3bc e50a 12bd 1d76 a9bd
00000090: ac6f 6ebd 707d 90bd 991d 383d 8d00 853c
0.015373875 0.1253811 0.07246386 -0.015016004 0.14638406 0.06745732 0.25361603 0.013513456
0.0058347457 0.0076826 0.08271545 0.08990035 -0.0018939944 0.035606273 0.07303637 0.11416605
-0.012413049 0.0098355515 0.016011756 -0.011699709 0.006321512 0.0065206513 0.17241779 0.035228755
-0.036366075 0.1161705 -0.02455838 0.047413226 0.15683596 0.041083664 0.015187285 -0.02316647
-0.08746526 -0.029702561 -0.03565492 -0.082744814 -0.058211967 -0.07055175 0.0449501 0.016235614

encoder.4.block.1.weight f4 [40, 40, 3, 3]
00000000: 23f3 10bc d0f6 2dbd 09ce e53c 5bfc 863c
00000010: 47d8 2abe 3a2c a8bd 7006 2c3b 951e 58ba
00000020: 2028 813d 99be b5bd c8d5 153e cd7f e83d
00000030: a51e 0f3d d7c8 34be 7550 053c dd39 193c
00000040: 9b8a 633d e1ee fbbc ec27 433b 4f74 a3bc
00000050: 1391 293d 322b 733d 0ca8 1bbd 69a4 7e3d
00000060: a81b 613d 1c95 5ebc 2d28 0d3b d1a0 bebd
00000070: cf03 26bd 9465 f8bb ba7d acbd 0117 3c3d
00000080: 0c35 3ebd 91c6 db3d a197 91be e3d9 6fbc
00000090: 7b53 2cbc 131b 1abd caf6 57ba ff0f 343d
000000a0: 235d 133e 5712 dbba fbbe 5a3d 57b7 1abd
000000b0: a3db 1ebb e747 41bc baec 5bbd b8bf 3e3d
000000c0: b7d5 573d ff37 54bc 0508 aabc b391 853c
000000d0: 9f0e c2bc 2584 d63b aa82 3cbd 80a4 623d
000000e0: a256 613c 004c d63c 91da 463e aaae 613c
000000f0: 3fda 5cbd f879 b63c f945 f73b 7f52 a43c
00000100: 2ac8 58bd 84bd 523d 2c9c 59bc 5636 973d
00000110: a027 e83b dba9 c4bb f129 16bd b959 333b
00000120: cd4c 0fbd 25ed 38bc fdcf 91bc 2c3f 843c
00000130: d5d5 2c3d 4a78 17bd 2e1d 32bd 5f94 abbd
00000140: 59be 84bd 85bf 05bd 50e1 f03d dd99 7d3d
00000150: 0dfc d2bd aa9d 9d3d 97b2 573d ce12 5fbc
00000160: 2a38 e03c e085 383d 830b af3b 6c02 d0bc
00000170: 23e5 ddbb 5883 31bd 4464 95bc 3099 47bd
00000180: 9b8f 0abd dca7 74bd 894e 8abd d403 0cbd
00000190: 53da a03d abe4 3bbd cd34 fd3b 270b 1abd
000001a0: e491 813d 917b 4abc 04a1 323d 7291 593c
000001b0: f9a5 953c bc14 b33d 92be ebbc fab4 84bd
000001c0: 9082 023e 58cb 18bb 2186 d5bc 09c0 6ebb
000001d0: b2c9 68bd 3ed7 6e3d e69d 11bd 3863 183d
000001e0: 7c2e d7bd 7f5e 67be 0d2d f53d 8614 9e3b
000001f0: 3782 81bb 066e 94bc 1458 a4bd d740 bb3d
00000200: 3068 03bd 0d69 6e3e fee4 a6be 05a6 5f3d
00000210: 70f2 943d 6860 dabc eb2c 9b3b 5ee0 b8bd
00000220: dbe7 a13d 4775 603c 7cba a53d b6cd a73c
00000230: 8c00 9a3c 391f c2bc 5dba 6abc d280 dbbc
00000240: 21a5 debc 0530 64bd d045 b1bd 925f a33d
00000250: 0974 4ebd a1af 033d aa83 8bbd 855f 20bd
00000260: 1f89 843c 33e6 f03d a069 20bd 0501 07be
00000270: 2d11 0fbd bf09 db3c e1ba f03d 2b8f cb3c
00000280: d133 9abc a2a0 553c ba27 123c 3751 c2bd
00000290: 4091 15bd d01e 0e3c f4e6 d1bd 4efc 24bd
000002a0: 15cd 423c f35f 0bbd 8a57 96bb d678 3cbd
000002b0: d2d6 4cbc 4cf6 59bd 7c7e f0bc 5b24 263d
000002c0: b54a fabd fc85 28be 23a7 e63d a844 fd3c
000002d0: 530a 6dbc ca40 ee3d 0df6 1dbe b840 823d
000002e0: fbf1 2abd 7bee 86bd 49ab 6fbe 8e0a 033d
000002f0: 690b 9fbd 9043 e33c e09c 1bbe 195f 133b
00000300: b7a0 e1bb 6868 763d e035 093e 676e 8c3a
00000310: 4783 a83c bf58 27bd 6491 a3bc 9fe6 a439
00000320: d028 b9bb 7851 a5bd 5c0b 3e3e ea4b 8f3b
00000330: d291 2fbd f4d7 82bc 075a 0dbd 9f81 ad3c
00000340: 6457 3fbe 3254 aa3b 0b60 0dbd 7aec 60be
00000350: 4c41 3a3c c4cc 4f3c f1ae 2c3d 5cd4 da3c
00000360: 6529 683d 80bc 1f3d 37db 5abd 8f4f 46be
00000370: c547 263e 65d4 a13d 46a6 743d cfc5 063d
00000380: 8ec9 3cbd 0e39 de3b 91d2 5dbb 7c06 71bc
00000390: 3d96 09be be4f 8e3e d7b5 94bd ddab 853c
000003a0: 4e38 203d d03b 553c ce12 2a3d d322 133c
000003b0: 164e 80bc d561 233d cfd5 4bbe 758e 7bbd
000003c0: 1c67 e23c 8b20 c33b 497f e63a ed6e 0fbc
000003d0: fc77 ca3d 79d4 193d 22af f8bc 0e04 36be
000003e0: b777 1c3c ada2 b73d d2ec 74bd b429 31bb
000003f0: d54d a8bc 91b2 023d 4fce 78bc 7d07 c6bc
-0.008847031 -0.042471707 0.028052347 0.016477754 -0.16684066 -0.082115605 0.0026248954 -0.0008244303
0.06306481 -0.08874244 0.14632332 0.11352501 0.034941334 -0.1765474 0.008136858 0.009352175
0.055552106 -0.030753555 0.0029778434 -0.019952921 0.04139812 0.059367366 -0.03800206 0.062168512
0.054958016 -0.013585355 0.002153884 -0.09308017 -0.040530976 -0.0075804684 -0.08422418 0.045920376
-0.04643731 0.10731233 -0.28435996 -0.014639351 -0.01051795 -0.037623476 -0.00082383736 0.043960568
0.14390998 -0.001671384 0.05340479 -0.037772503 -0.00242398 -0.011796928 -0.053692557 0.046569556
0.05269405 -0.012952804 -0.020755777 0.016304826 -0.023688613 0.0065465146 -0.04602305 0.05533266
0.013753565 0.026159286 0.19419314 0.013774553 -0.053919073 0.022274956 0.007546183 0.020058868
-0.052925266 0.051450267 -0.013281863 0.07383411 0.007084802 -0.0060016937 -0.036661092 0.0027366711
-0.034985352 -0.011287008 -0.017799372 0.016143404 0.042196114 -0.03697995 -0.04348486 -0.08377909
-0.064816184 -0.03265335 0.11761725 0.061914314 -0.10301981 0.07696088 0.05266055 -0.013615323
0.027370531 0.04504955 0.0053419485 -0.02539178 -0.0067717 -0.04333815 -0.018236287 -0.048730075
-0.03382836 -0.059730396 -0.06753261 -0.03418334 0.07854142 -0.04587237 0.0077272416 -0.037608292
0.063266546 -0.012358562 0.043610588 0.013279306 0.018267618 0.08744189 -0.028777394 -0.06479831
0.12745118 -0.0023314562 -0.026064934 -0.003643038 -0.056832977 0.05831074 -0.035550974 0.037203997
-0.10506913 -0.22594641 0.119714834 0.004824224 -0.0039522904 -0.01811887 -0.08024612 0.091432266
-0.032081783 0.23282261 -0.32596582 0.054601688 0.07272804 -0.026657298 0.0047355792 -0.0902717
0.07905551 0.013699836 0.0809221 0.020483833 0.018799089 -0.023696529 -0.014326659 -0.026794825
-0.027178349 -0.055709857 -0.08655894 0.07977213 -0.05040363 0.032149915 -0.06812222 -0.039153595
0.016178666 0.11762657 -0.03916323 -0.13183983 -0.03492849 0.026738046 0.11754394 0.024848541
-0.018823536 0.013038786 0.008920604 -0.09488147 -0.036515474 0.008674338 -0.10249129 -0.04027968
0.011889716 -0.03402705 -0.004588072 -0.046013676 -0.012502389 -0.053213403 -0.029357187 0.040562015
-0.122212805 -0.16457361 0.112623475 0.030916527 -0.0144677935 0.11633451 -0.15425892 0.0636
-0.041734677 -0.06588455 -0.23405184 0.031992488 -0.07765848 0.027742177 -0.15196562 0.0022487103
-0.006885614 0.060158163 0.13399458 0.0010714055 0.02057041 -0.04085612 -0.019966789 0.00031452344
-0.005650617 -0.080721796 0.18559021 0.0043730633 -0.042863674 -0.015972115 -0.034509685 0.021179972
-0.1868568 0.005198025 -0.03451542 -0.21965209 0.011368107 0.012683097 0.042159025 0.026712589
0.056680102 0.038998127 -0.053431716 -0.19366287 0.16238315 0.07901839 0.059728883 0.03290349
-0.046090655 0.006781704 -0.0033847431 -0.014711019 -0.13436218 0.27795213 -0.07261246 0.016317302
0.039116196 0.013014749 0.04152184 0.008980471 -0.015662234 0.03988822 -0.1990578 -0.061415154
0.027637057 0.005954807 0.0017585541 -0.008754474 0.098861665 0.037556145 -0.030356947 -0.17774984
0.009550027 0.08966575 -0.059796162 -0.0027032914 -0.020544926 0.031908575 -0.015185907 -0.024173493

encoder.4.block.1.bias f4 [40]
00000000: f283 453b 8b2c acbb adb4 9db9 db14 373a
00000010: 5524 29b9 2a71 283b cb06 a73a dc7b 3239
00000020: ed08 5e3a 1e8d 86ba d009 9f3b dd54 0e3c
00000030: 0c59 24b9 0773 103b a03b 80b9 10e5 8f3a
00000040: c47a 23bb 06a3 b9ba 6256 313a 76ba 4a3a
00000050: 930f 8fb7 0268 a737 2244 0dbb 089f 14bb
00000060: 0f4e 623b f80e 51ba 15f7 ae3a 7d9f a53b
00000070: bc31 63b9 ee77 683a cd45 053b d8f9 bd3a
00000080: 50e3 b53a 0800 413b 08b3 fdb9 2b6f 8d3b
00000090: 8965 46bb aa7e da39 ecc8 5dba 44b5 303b
0.003013846 -0.0052543334 -0.00030079987 0.00069840037 -0.0001613063 0.0025702217 0.0012743113 0.00017021544
0.0008469958 -0.0010265445 0.0048534647 0.008687225 -0.00015673431 0.0022041218 -0.00024458487 0.00109783
-0.0024945 -0.0014162965 0.0006764886 0.00077334733 -1.705418e-05 1.9956384e-05 -0.0021555503 -0.0022677798
0.003453139 -0.0007974948 0.0013348783 0.005054413 -0.00021666934 0.00088679686 0.0020335794 0.0014494015
0.0013876949 0.0029449482 -0.0004838931 0.004316231 -0.0030272922 0.00041674572 -0.00084604206 0.0026963511

encoder.4.block.2.weight f4 [40]
00000000: e236 8a3f c032 8c3f c3aa 833f 92ef 713f
00000010: 8d1f 7d3f dbcd 753f 11ff 673f ffd3 683f
00000020: d95b 473f cf5d 603f 5c98 793f 7ebe 883f
00000030: 1af5 7c3f 618f 8b3f a184 963f 6439 883f
00000040: edc0 893f 1867 1f3f fda2 703f da73 593f
00000050: c3ea 733f 6ced 8b3f 5177 383f a6d3 6b3f
00000060: 7560 663f 3381 5e3f 8826 8a3f 7682 8e3f
00000070: 21d7 6e3f 9af5 913f 9a84 8a3f d807 8c3f
00000080: ead3 8d3f 96ad 9a3f ee8d 713f e767 873f
00000090: 3b39 693f 46ee 303f d577 a63f 21af 583f
1.0797999 1.0952988 1.0286487 0.9450618 0.9887627 0.96017236 0.90623575 0.9094848
0.77874523 0.8764314 0.97498107 1.0683134 0.98811495 1.0903131 1.1759225 1.0642514
1.0762001 0.62266684 0.939987 0.849424 0.9528009 1.093183 0.7205706 0.92119825
0.8999093 0.8691589 1.0793009 1.1133564 0.9329701 1.1403077 1.0821717 1.0939894
1.1080296 1.2084224 0.9435719 1.0578583 0.9110295 0.69113576 1.300532 0.84642226

encoder.4.block.2.bias f4 [40]
00000000: 3bdc c13e a6de 693e 6e93 26bd 220b 1f3f
00000010: 61d3 c83e d210 d43e 2c55 653d f622 863d
00000020: 6351 b03d 96f0 3bbd b0fe 443d 9c66 cb3e
00000030: e7cf c53e 77be 043f 779b d43e 5cc3 74bd
00000040: 69d8 583d 4c79 263e 95c8 823e f25e 613e
00000050: decb 29be 2849 a5bd c211 e2be ab9c 55bd
00000060: c9bc 8e3d 3800 a73c 2f38 893e 3969 70bd
00000070: d741 91be 8776 1abd eb04 b23e 0186 313e
00000080: 48d6 a03d 4f23 973e e9c5 f63d c946 3c3c
00000090: 9e2e 36bb 8f96 23bc 8dc0 b6be 6e95 643d
0.37863335 0.2283884 -0.040667944 0.6212636 0.3922377 0.41419083 0.05598943 0.06549637
0.08609273 -0.045883738 0.04809445 0.39726722 0.3863518 0.51853126 0.4152486 -0.05975662
0.05294076 0.16257209 0.25543657 0.22008875 -0.16581675 -0.08070594 -0.44154173 -0.052151363
0.06969602 0.020385846 0.26800677 -0.0586941 -0.28370544 -0.037710693 0.34769377 0.17336275
0.07853371 0.29519126 0.12049467 0.011491486 -0.0027798782 -0.009984626 -0.3569378 0.05580657

encoder.4.block.2.running_mean f4 [40]
00000000: 4c63 6c3e afcc 3cbf 8b66 3dbf b048 0ebf
00000010: 2a8c 58bc 72b4 0a3f 8886 393e 60b6 a6be
00000020: ffd1 ffbd ede3 2abe 8292 cc3e 6250 a23e
00000030: 445d c53c d477 c73e 781d 273e 2b09 30bf
00000040: 7cd6 0bbf f59d 21bd 381f 0f3f f7a5 23bd
00000050: e336 153e 565b 19bf a761 cebe fb0a 80be
00000060: aae9 ac3d d395 fbbe e9cb 1f3f 06c1 3d3f
00000070: 2439 1b3c 6bb3 57bf fc5e 5b3f 643f 103f
00000080: b57a 11bf fefa aebd 098d 793e 196e fbbe
00000090: fa55 96bd 131b 20be 1308 cdbe 0641 613c
0.23084754 -0.7374982 -0.73984593 -0.5557966 -0.0132170115 0.5418159 0.18117726 -0.32561016
-0.124912255 -0.1668851 0.39955527 0.31701952 0.024092324 0.3895861 0.16319835 -0.6876399
-0.5462415 -0.03945728 0.5590701 -0.0399532 0.14571719 -0.5990499 -0.40308878 -0.25008377
0.084430054 -0.49137744 0.6242052 0.74122655 0.009474073 -0.84258145 0.8569181 0.56346726
-0.5682786 -0.08543967 0.24370207 -0.49107435 -0.073406175 -0.15635328 -0.40045223 0.013748413

encoder.4.block.2.running_var f4 [40]
00000000: 6559 c03e 9cfd 6e3f 246b 4e3f 9234 cc3e
00000010: 5490 b13e 0bb0 cb3e b0a4 e03e 5567 153e
00000020: a19c 733e 3834 ec3e 4f09 0a3f 1cda 013f
00000030: 48b6 9b3e bc19 a73e db57 253f 074a 013f
00000040: a762 cc3e 03c8 3d3e dbbb 0d3f f2ba 593e
00000050: acdf ea3d 7fd6 663f b8d1 a23d a807 fb3e
00000060: b9ee d93e 1688 ce3e 314b 013f 4c28 323f
00000070: a855 b93d feb4 6d3f c426 243f 7374 7c3f
00000080: 3f38 423f 39f3 d83e cb3b eb3e 0921 033f
00000090: b2ef 803e b49a 1f3e 0b02 1b3e 27b8 333e
0.37568203 0.9335573 0.80632234 0.39883858 0.34680426 0.39782748 0.43875647 0.145902
0.23790218 0.4613359 0.53920454 0.50723433 0.30412507 0.3263682 0.6458718 0.5050358
0.39919016 0.1853333 0.5536477 0.2126272 0.11468443 0.90171045 0.07950157 0.4902928
0.42564943 0.403382 0.5050536 0.6959274 0.09049541 0.928543 0.6412165 0.9861519
0.75867075 0.42373064 0.45944056 0.5122228 0.25182873 0.15586358 0.15137498 0.17550717

encoder.4.block.4.weight f4 [40, 40, 1, 1]
00000000: a8bd 283d e6c1 563e 6ef2 8b3e 932d 1a3e
00000010: 7d86 5bbd 7a56 963d 98c6 e23b 96fb 443d
00000020: 4a43 3abd 7959 073e ebeb 56be 57d7 61be
00000030: c49d 81be 8c08 3bbe 0d46 4bbe 0919 97bd
00000040: 307b b93d 47f0 6fbc 26cc 14be 18f9 d3bc
00000050: 6a19 173e 7546 443e 51e4 433a a542 703e
00000060: 8d27 3c3e 19a2 513d 82c7 8bbe 7e7c 80be
00000070: 1246 9cbe 7a4c 09be ee87 07bf 2259 06bd
00000080: b85a 18bd 4ecf 81be 4bca 983d 7b0b 0c3d
00000090: 3161 903d 45b5 bbbd ed20 9e3e 1ac8 b23d
000000a0: 8733 d53d b46e eabd 3659 f53e a4ff 12be
000000b0: a5d2 003d efdc 6d3d 3a72 b1bb 18fe 383d
000000c0: ed87 033e 8164 dfbc 265a 71bd 4b21 693e
000000d0: ffd0 833d eb6c 233e 2350 8d3e 57b4 2cbe
000000e0: 5b5f e5bd 75c8 f63d 15d0 93bd f979 7a3c
000000f0: 0fa5 bcbd 2a99 81be e03a dd3c 34fc 51bd
00000100: 6e18 90bc a40c 2cbc 9de1 50bc 893a 543d
00000110: e307 75bc c5f5 e5bd 6a4a b93d 2b34 963d
00000120: 3b0a 473d d77d ce3e 293c 193e 5db6 08be
00000130: c2ec 88bd 8fb0 013e c8be c2be 7512 27bd
00000140: 36c4 15be 57f5 053e c6b0 833d 4787 8dbe
00000150: e7d8 85bd e251 01be cba5 f0bd f7ea a8bd
00000160: 9abd 67bb 5053 e2bd eae9 1c3d ab56 7bbe
00000170: 2237 2a3d fb12 6bbd 57dc 1bbe d9ab b13c
00000180: 6319 383d c5df 213d d203 07be 0b8c 28be
00000190: 41fd 8fbd cb2c ac3d 6134 543d 27b0 c63d
000001a0: 6060 51be 5e4e 263d 069b 28be 09ef ca3d
000001b0: 8e7e 0ebe c03f 283e 56fe e5bd 54e7 a3be
000001c0: 1299 06be 3d5b 89be 1fe7 f53a 3044 343e
000001d0: f06e 0b3d 97dc fb3b 7cb3 083f ad92 0bbd
000001e0: e58f 39bc d59f 923e 5ef8 153e 514e 6cbd
000001f0: c3a9 3dbe 7269 763d 2cba 28be 15f0 bcbe
00000200: b7ea 08bf b78f 79bd 9557 f03d bda4 b3be
00000210: 9332 d7bd 504c 1ebe 6505 8cbd 37f2 68be
00000220: 1efd c9bc 6406 803d c269 8bbe f75e fc3d
00000230: f3f2 5f3e 9765 293e d4c5 143c e28a 123e
00000240: c9e1 69be 7474 d83b d27e 8dbd 5cdd e03a
00000250: b339 383e 3e41 783c 0d91 46bd a91a 573d
00000260: a753 923d 3f05 cebd bfc0 fbbd e299 593e
00000270: f24b a83d 1356 79bd eef4 b13e f151 30bd
00000280: fa5e dabd 08d6 44be 9cdf 3fbd d7fc a53a
00000290: 1bc8 50bd 1468 9cbe 933f 783e 2cb3 4ebe
000002a0: e468 cdbd b539 1d3d 106e 0f3d c6e8 f03d
000002b0: 87ea 813e 1e07 b73e 522c 2a3e 8df1 06bd
000002c0: e4aa b8bd 0f36 123d 5bac a23d 6556 263e
000002d0: 235f 263e c761 a03c 9888 8dbe 764f a53d
000002e0: 3636 00bd bf1d 6cbe e01c 12be 697c 113e
000002f0: 97ce fb3d 0c6d edbd c804 173e 1cab 67be
00000300: d850 25be fe42 0d3e a70b 333e ec94 69bd
00000310: 7dd5 eabd 6827 29be 3476 54be 1f31 e63d
00000320: a033 873d e67b 77bd 34d5 033d 3b1e 3fbd
00000330: c53d abbd ad33 e5be 078d 99be 5a1e 723d
00000340: 42fd 0fbe 1f40 2fbd 2e1f e23d 19bb 27be
00000350: e511 c4be 949a 0f3c 1c97 313d 6d06 f0bb
00000360: 9afa a7bd 274f dc3d 3727 9abd fcbe 69be
00000370: ff74 dabc e8de 233b e6c7 233e 86cb 023d
00000380: 6ed6 68bc b402 db3d 4a2c c13d 9eb5 393e
00000390: 6bf6 0fbe c3a2 193a 80a4 2bbe 7122 c43e
000003a0: 52c8 f63d db11 7a3e 0c73 2fbe 1254 063d
000003b0: 9797 b33d 5b3b d1bc ebd1 8f3e e713 19be
000003c0: d4b2 28be 860b f1bd 40e6 8ebe 6b6f b93c
000003d0: ffbb 183d e793 4ebe 29ed 1f3e 9f56 3e3d
000003e0: 3ca4 6c3e 66c8 c63c f5a2 0bbf 865b 61be
000003f0: 171c 43be 9210 adbd f93e d2bd ad6c 6bbd
0.041196495 0.20972404 0.27333397 0.15056448 -0.053595055 0.07340713 0.006920647 0.048091494
-0.045474328 0.13217725 -0.20988433 -0.22054802 -0.25315678 -0.18264979 -0.19850941 -0.07377822
0.09056699 -0.014644689 -0.14531001 -0.025875613 0.14755788 0.19167502 0.00074726815 0.23462923
0.18374462 0.05117998 -0.2730065 -0.2509498 -0.3052221 -0.1340808 -0.5294179 -0.032799847
-0.03719589 -0.25353473 0.07460459 0.034190636 0.07049788 -0.09165434 0.30884495 0.087295726
0.10410219 -0.11446896 0.47919625 -0.14355332 0.031450886 0.058072027 -0.005415228 0.045164198
0.1284482 -0.027269604 -0.058923863 0.22766607 0.06436347 0.15959518 0.27600202 -0.16865669
-0.11199828 0.12049953 -0.07217423 0.01528787 -0.0921117 -0.25312167 0.027005613 -0.05126591
-0.017589774 -0.010501061 -0.012749103 0.051813636 -0.014955494 -0.112285174 0.090473965 0.07334169
0.04859374 0.40330383 0.14964356 -0.13350816 -0.06685783 0.12665008 -0.3803618 -0.040789086
-0.1462563 0.13081871 0.06430201 -0.2764227 -0.065355115 -0.12628892 -0.117503725 -0.08247941
-0.0035360814 -0.11051047 0.038309015 -0.2454478 0.041556485 -0.057391148 -0.15220772 0.021688389
0.044946086 0.039520044 -0.13185051 -0.16459672 -0.07030726 0.08406981 0.051807765 0.09701567
-0.2044692 0.04060208 -0.16465387 0.099088736 -0.13915464 0.16430569 -0.11230151 -0.32012427
-0.13144329 -0.26827422 0.0018760896 0.17604136 0.034041345 0.0076862085 0.5339887 -0.034075428
-0.011325811 0.28637567 0.14645526 -0.057691876 -0.1852179 0.060159154 -0.16477269 -0.36901918
-0.53483146 -0.060928073 0.11735455 -0.35086623 -0.10507693 -0.15458798 -0.068369664 -0.22748648
-0.024656828 0.06251219 -0.27229124 0.123228006 0.21870022 0.1654266 0.009080369 0.14310792
-0.22840036 0.006605679 -0.06908955 0.0017155814 0.1799076 0.015152274 -0.048478175 0.05251566
0.07144862 -0.10059594 -0.12292623 0.21250108 0.082176104 -0.060873102 0.3475718 -0.043046895
-0.106626466 -0.19222271 -0.04684411 0.0012663853 -0.050972085 -0.30548155 0.24243002 -0.20185536
-0.10029772 0.03838511 0.035017073 0.11763148 0.25374243 0.35747617 0.1661847 -0.032945205
-0.0901697 0.035696086 0.079430304 0.16243894 0.1624723 0.019577874 -0.27643275 0.080717966
-0.0313017 -0.23058222 -0.14268827 0.14207615 0.12295263 -0.11593065 0.14747918 -0.22623867
-0.1614412 0.13795087 0.17484914 -0.05702679 -0.11466501 -0.16518939 -0.20748216 0.11239838
0.066016436 -0.060420893 0.03218575 -0.04665969 -0.08361391 -0.44765988 -0.29990408 0.059110977
-0.14061454 -0.04278576 0.11041103 -0.16379966 -0.38294902 0.008764882 0.043357 -0.0073249848
-0.08202095 0.107572846 -0.07527011 -0.22826761 -0.026667116 0.0025004689 0.15994224 0.031932376
-0.01421128 0.10693875 0.094322756 0.18135688 -0.14058845 0.000586074 -0.1676197 0.38307527
0.12049927 0.24420874 -0.1713373 0.03279502 0.08769148 -0.025540998 0.28089842 -0.14948998
-0.16474468 -0.11769776 -0.27910042 0.022636136 0.037288662 -0.20173608 0.15617813 0.046469327
0.23109525 0.02426548 -0.5454553 -0.2200757 -0.19053684 -0.08450426 -0.10265917 -0.05747669

encoder.4.block.4.bias f4 [40]
00000000: 3189 07bc ce85 0a3b 1a07 aabb b346 dcba
00000010: deeb 2dba 7898 8739 06bd 40bc e45d 18bc
00000020: 0d8f 6739 8aaa 41b9 7387 16bb ae78 89bb
00000030: 15ce 95bb 605c a63a 1602 d8bb 7ba1 323a
00000040: 6b89 cdbb f242 9d39 c9ec 323b e147 223c
00000050: 4baa ee3b 7b46 9ebb a922 7c3b d298 8aba
00000060: 7c3e bbbb 7c90 88bb d47b 67bb 7ed3 fa38
00000070: 6a70 abbb 348d fdbb dc83 d83a 9ba7 b43b
00000080: 926f 2abb 1e17 46bb e977 02bc 70fe 8abb
00000090: f0ee c1bb df6e d4bb 5fbe fd3a 3828 05bb
-0.008272455 0.0021136883 -0.005188835 -0.0016805738 -0.0006634573 0.00025862805 -0.011763817 -0.009299729
0.00022083167 -0.00018469445 -0.0022968918 -0.0041952943 -0.004571686 0.0012692325 -0.0065920455 0.00068142236
-0.006272485 0.00029995252 0.002730178 0.009904833 0.007283484 -0.0048301793 0.0038472808 -0.0010574108
-0.005714236 -0.0041676145 -0.003532161 0.000119603224 -0.0052319067 -0.00773778 0.0016518789 0.005513144
-0.0026006442 -0.0030226181 -0.007963159 -0.004241757 -0.005918376 -0.0064829434 0.0019359103 -0.0020318162

encoder.4.block.5.weight f4 [40]
00000000: d4f1 383f e733 0a3f bf52 3a3f 80b1 0b3f
00000010: 6a0b 493f c7e1 0d3f ba0f 703f df90 043f
00000020: e0ac 403f a919 193f 0ad4 5b3f 5bc1 503f
00000030: a131 313f 8c29 2a3f 4f53 0a3f c670 a93f
00000040: 4500 043f d2ed 643f 37e3 7d3f 3134 f43e
00000050: bf6f a33e 4261 683f 367e 7e3f f8b3 2c3f
00000060: 2585 103f 57cb fd3e 8ecc 5a3f 741e 713f
00000070: d73f 233f 69ed 273f 5b10 4f3f 5f70 ec3e
00000080: 0dde 073f 418d 3c3f 542c 593f 7113 4a3f
00000090: f487 563f f66a 1a3f 74e2 fb3e 4d3c 0f3f
0.72244 0.53985447 0.7278251 0.5456772 0.7853304 0.55422634 0.93773997 0.51783556
0.75263786 0.5980478 0.8587042 0.8154504 0.6921635 0.66469646 0.5403337 1.3237541
0.5156291 0.89425385 0.9917483 0.4769607 0.31921193 0.90773404 0.9941133 0.6746211
0.5645316 0.49569198 0.85468376 0.9418709 0.63769287 0.65596634 0.8088433 0.46179482
0.530732 0.73653036 0.84833264 0.78935915 0.838012 0.6031946 0.49196208 0.55951387

encoder.4.block.5.bias f4 [40]
00000000: 60b7 efbe 4815 d03b 95bb 96be 9e4a 6fbe
00000010: 0927 293d 3af0 7bbe fb71 65be e404 a3be
00000020: 92fa 043e b613 adbe 0814 3e3d 7acf 4fbe
00000030: 1d15 d0be d751 f6bc a6ee edbd 3898 76be
00000040: 3074 97be 099a 7dbc 41f4 1d3e ca99 19be
00000050: f698 4abe 36f9 043d be68 193d 3197 25be
00000060: 896b adbe 9ae2 9dbd 3759 013d bb28 833d
00000070: 837a 18be a7b2 dbbd 2ed5 89be 1fe7 35be
00000080: 252c 19be 5d2c 87be f7cd b9bd 1c92 97be
00000090: d19a 90be d1d9 9b3c 2751 b9bd 5ca9 3cbe
-0.46819592 0.006350193 -0.2943999 -0.23368308 0.041296992 -0.24603358 -0.22406761 -0.3183967
0.1298621 -0.338041 0.046405822 -0.2029399 -0.40641108 -0.030068321 -0.11617784 -0.24081504
-0.29580832 -0.015478619 0.15425207 -0.15000072 -0.19784912 0.03246423 0.037453406 -0.16170956
-0.33871105 -0.077092364 0.031579223 0.06404253 -0.14890485 -0.107274346 -0.26920456 -0.17763947
-0.14958246 -0.26401034 -0.09072488 -0.2960366 -0.28243116 0.019024761 -0.09048682 -0.1842398

encoder.4.block.5.running_mean f4 [40]
00000000: 9603 1bbf 89f5 e93e 7ff8 6dbf 1c8d 02bf
00000010: 5c63 e1bc aac3 b1be 2a6d 68bf d6ed 88be
00000020: 2311 81bd 2b61 33bf 7134 253f b63d 2c3e
00000030: e3f0 853d ffe5 143f 5caa 67bf e8e2 5fbe
00000040: d5a9 0ebe 6116 bb3e 2c14 973f 1058 1d3f
00000050: a156 a5be d487 d93e c986 c03e 8fc9 5abe
00000060: 973d a63d c757 e3be 6278 123f fff2 0e3f
00000070: 9b5a d3be b06b 4abf e756 6dbf b714 a3be
00000080: db92 91bc 4888 0abf 2a61 babe c44e 0fbf
00000090: 74c7 1cbf 0306 babe 99d1 18be d281 bbbe
-0.60552347 0.4569514 -0.929573 -0.50996566 -0.027513199 -0.34719592 -0.9079157 -0.26743954
-0.06302097 -0.7007014 0.64533144 0.16820416 0.06540086 0.58163446 -0.9049432 -0.21863902
-0.13931973 0.3654051 1.1803031 0.614625 -0.32292655 0.4248644 0.37602833 -0.21365951
0.08117216 -0.44402906 0.5721494 0.5583953 -0.41280064 -0.7907057 -0.9271073 -0.31851742
-0.017770221 -0.541142 -0.36402255 -0.5597956 -0.6124184 -0.36332712 -0.14923705 -0.36622483

encoder.4.block.5.running_var f4 [40]
00000000: ef36 b340 0cd0 4640 2dca 5a40 2b56 8940
00000010: bc02 a73f 3fd9 073f 2d50 1340 2d3b bb40
00000020: cbb1 8e3f 3462 cc3f e951 1740 b878 e73f
00000030: 4b3f 433f 6b7e 2740 d5ba 9340 a53d 603f
00000040: c03d 783f 646e e33f c6c4 5340 293f 523f
00000050: 14e1 dc3f 12b5 9a40 8e2e 413f d13e 7740
00000060: d4ac 9940 fe5a cb3e 4207 3e40 84a2 c240
00000070: a67e b73f 970a 853f 82df a340 4ac1 c340
00000080: 9b53 bf3f fc48 c33f ea15 9940 d6b2 e33f
00000090: 9625 b13f 94ca 6e3f 3ae6 2240 4ce9 a13f
5.6004558 3.1064482 3.4185898 4.2917686 1.304771 0.53065866 2.3017685 5.8509736
1.1148008 1.5967469 2.3643744 1.8083715 0.7626845 2.617091 4.6165566 0.8759406
0.96969223 1.7768064 3.308885 0.82127625 1.7256188 4.8346033 0.7546166 3.863209
4.802347 0.3971786 2.969193 6.0823383 1.4335525 1.0393857 5.1210337 6.117345
1.4947389 1.5256648 4.783925 1.7788951 1.3839595 0.9327786 2.545302 1.2649322

encoder.5.block.1.weight f4 [40, 40, 3, 3]
00000000: e24f 893e 1459 41bd 3ad8 a1bd df72 1c3d
00000010: b698 c93d 14b8 f4bd 0367 323e 1d77 dfbc
00000020: eb50 983c 593b 523c 3a16 2c3b f17b 1bbb
00000030: 2664 53bd 7ffe 7a3d 401e 9abb 68ee 07bd
00000040: 1452 673d 4c83 0ebc a761 e0bc 6256 d13d
00000050: 80d6 643d 035f b0bd 0e87 8fbe b305 933d
00000060: 8ee2 99bd 84d0 22bd f975 73bd 436b 123d
00000070: 454e 813d 8cfd 323c 90f0 3d3d 5fad be3d
00000080: 258f 04be 4722 e1bb 5139 c73c 25b7 983d
00000090: 78ee a83c 12be ecbb 8a37 2ebc a534 c83d
000000a0: 0a5a bbbd 1e04 a73c c71a 203b 91cb 8abc
000000b0: bfec d1bc 52f7 02bd 42f9 4cbe d780 a43d
000000c0: ca20 02bd 41fb 78be bd65 5d3c e773 a5b8
000000d0: b3dd 153e 90bd d63d 743b c9bd 8416 643e
000000e0: 4ecd e3bc 1581 c7bd 7173 8dbe 47c0 65be
000000f0: 75ea 623c 6500 babd 3341 d3bc a72b d93c
00000100: 7ba0 00be 0a7c b5bd 89f6 49bc 7e7e b2bd
00000110: 0880 a1be 7f0b 9b3d 9cdc 293e 2a04 a93d
00000120: 1dd8 cf3c 2e55 80bc 0145 14be 5dad 6a3b
00000130: 9fb4 6abe 3878 fe3b e6f5 323d 1573 0dbd
00000140: 640a ab3c baaf 253c 9e63 793d 8427 c33d
00000150: 89dc 183d bbfc cd3d 1c99 fb3d 1096 b0bd
00000160: 3cb3 243d 9551 033d b835 95bc 2980 1bbc
00000170: c134 543d 86ad 473c da61 263e 9def 513c
00000180: 0299 dd3c 15e8 8b3c 53fe 9a3d e5b6 fc3c
00000190: 7a30 713d 698f 283d 6cad e3bc 404b bcbe
000001a0: 06a3 283d ac4a b53b 1beb 61bc 604c efbc
000001b0: 0e92 2b3d c04a bdbc 1718 843c 5b7f 933d
000001c0: fc56 77be a951 803e 2712 33bd e49d 2f3c
000001d0: bf1c a2bd 6312 283d 7093 8c3d fc01 a63d
000001e0: 3031 82bd 313f 433d b2e2 a73b 640b 9fbc
000001f0: 0e3a 803c fed2 403c c4da 9fbd 7401 05bd
00000200: 705e 14bc 77a2 b03c ab20 073e c8f6 34bd
00000210: e4e5 d7bb 2722 443d 4eff 19bc 3fd5 2c3b
00000220: 826b 7f3b 5b6c f53c 34a2 8b3c 8125 003d
00000230: 65d5 0a3c 59fc a43b 9f81 d2bc 600f c53c
00000240: 2059 28be ec43 20bd de5a 25bc 7baf 043e
00000250: 1d14 d1bd ab31 1b3d 4102 273c 0891 b8bd
00000260: 03c1 ac39 ef8b 813b 5ac0 823d 5033 a73b
00000270: 7f8e 8bbd 7bda 0dbe 2648 d13b d6c3 e43c
00000280: a980 c6bc 7104 55bd 7933 21bc 97c0 55bd
00000290: 70c1 44bd 5bb6 173b 75f5 fb3e d0cc bdbb
000002a0: eaaf 873c 4959 b5ba aec9 13bb 129a f53c
000002b0: a19b e7bd 4e82 02be f2ff 1ebc 965b b13c
000002c0: b745 15bd 8104 01bd ec44 cfbc cd7e 973b
000002d0: 09c6 7cbb 2d4a 25bc 5bfe 243d 8cce c9bd
000002e0: 9324 b53d 053e 80bd e014 22bc 3dd2 4c3d
000002f0: 24cd 3cbb 18da bbbc cce1 4db9 b277 873c
00000300: 6ab4 823d 491d 7b3e 4358 953c 0f9c 3cbd
00000310: 4e1a acbc e30c f9bc b2d3 adbb 2084 333d
00000320: 03c1 7d3c 55e9 8dbc 17db f8bc 6c65 cfbc
00000330: bc82 cc3b 9e2d debc 00d8 69bc 0bce d3bc
00000340: e93b c9ba 3dd3 043e 14fc 8abb 9f9b 073e
00000350: ec53 73bd 7df6 663b 6516 1bbd c7a7 253d
00000360: 9da8 4a3a caa1 7d3d d4aa 2f3d b693 35bd
00000370: a59f 323e d245 0ebd 1629 cd3c d520 b3bd
00000380: 97f8 ffb8 3ef4 30bc efb3 09be d4c0 a73d
00000390: e0b8 903d 7417 983d 7733 363d 671b 99bd
000003a0: fb69 e5b9 3b8e 693d 2df8 eebc 836c c03c
000003b0: 8bad d4bc db29 b0bc dad3 4e3e ac95 e5bb
000003c0: 87ac 63bd 1f6b 1cbd 4f50 4a3d 430d 823d
000003d0: c79f 1abc 5213 203d fa54 423b 0974 623d
000003e0: b296 0abd 02aa 573d 3aa9 233d 1090 82bd
000003f0: 9cd9 c5bc c030 3bbd 21f5 253d 51c8 283c
0.26818758 -0.047204092 -0.0790257 0.038195487 0.098435804 -0.119491726 0.17422108 -0.027278477
0.018593272 0.012831532 0.0026258365 -0.0023724998 -0.05160918 0.061277863 -0.004703313 -0.033186346
0.05647476 -0.008698296 -0.027390314 0.10221554 0.055868626 -0.08611872 -0.28032726 0.071788214
-0.07513915 -0.039749637 -0.05943868 0.035746824 0.06313757 0.010924708 0.046371996 0.09310412
-0.1294523 -0.0068705413 0.024319323 0.07456807 0.020621523 -0.0072248066 -0.010633359 0.09775666
-0.09148033 0.020387705 0.0024430023 -0.016942771 -0.025625585 -0.031974144 -0.2001696 0.08032387
-0.03176955 -0.24314596 0.013513026 -7.8894016e-05 0.14635353 0.10485375 -0.09825793 0.22274214
-0.027807858 -0.09741417 -0.27627137 -0.22436629 0.013849844 -0.090821065 -0.025787925 0.026510073
-0.12561218 -0.08861549 -0.012326845 -0.08715533 -0.31542993 0.07570552 0.16588062 0.08252747
0.025371606 -0.015665617 -0.14479448 0.00358089 -0.22920464 0.007765796 0.04369154 -0.03453358
0.020878978 0.010112697 0.060886018 0.095290214 0.037319694 0.1005797 0.12285063 -0.08622372
0.040209994 0.032060225 -0.018214092 -0.009491005 0.051808123 0.012187367 0.16248265 0.012813476
0.027050499 0.017078439 0.0756804 0.03084893 0.05888412 0.04115239 -0.027792655 -0.3677616
0.041171096 0.005532583 -0.013788964 -0.029211223 0.041887335 -0.023106933 0.016124768 0.072020255
-0.24154276 0.25062302 -0.043718483 0.010718796 -0.07915639 0.04103316 0.06864059 0.08105847
-0.06357038 0.047667686 0.0051234597 -0.019414611 0.015652683 0.011769054 -0.07805398 -0.03247209
-0.009055719 0.021561844 0.13196056 -0.04418066 -0.0065886844 0.047884133 -0.009399248 0.0026372222
0.0038973992 0.029958894 0.017045118 0.031285767 0.008473729 0.005034965 -0.025696574 0.024055183
-0.16440248 -0.039127275 -0.010092465 0.12957565 -0.102089144 0.037889164 0.0101934085 -0.090120375
0.000329502 0.003953449 0.063843444 0.0051025525 -0.06814288 -0.13852875 0.0063867746 0.027925413
-0.024231272 -0.05200619 -0.009838932 -0.05218562 -0.04803604 0.0023149464 0.49210706 -0.005792238
0.016563375 -0.0013835813 -0.002255063 0.029980693 -0.11308981 -0.1274502 -0.009704577 0.021650117
-0.03644344 -0.031498436 -0.02530142 0.00462327 -0.0038570187 -0.010088486 0.040281635 -0.09853849
0.088448666 -0.06261829 -0.009892672 0.050005186 -0.0028808797 -0.022931144 -0.0001963444 0.016536567
0.063820675 0.2452289 0.018230563 -0.046047267 -0.021008637 -0.030401653 -0.005304777 0.043827176
0.015487912 -0.017323175 -0.030377908 -0.025316916 0.0062411707 -0.027121361 -0.01427269 -0.025855085
-0.0015352938 0.12971206 -0.004241476 0.13242958 -0.059406206 0.0035242133 -0.037863154 0.040443208
0.0007730814 0.061921872 0.042887524 -0.04433032 0.17443712 -0.034734555 0.025044005 -0.087464966
-0.00012205651 -0.010800419 -0.13447545 0.08191076 0.07066512 0.07426348 0.044482674 -0.0747593
-0.00043757245 0.057020407 -0.029171074 0.023489242 -0.025961658 -0.021504333 0.20198002 -0.0070063677
-0.055584457 -0.038188096 0.049392994 0.06350186 -0.009437508 0.039080925 0.00296527 0.05528644
-0.03383512 0.052652366 0.03995631 -0.06375134 -0.024151616 -0.04570079 0.040516976 0.010301665

encoder.5.block.1.bias f4 [40]
00000000: 241f 5039 1926 6c3b 26a5 b239 5b1f 2e3b
00000010: 5c2b e93a 63c7 b73a d431 d43a 4888 e23a
00000020: 5c44 4039 678d d33b bb68 803b f7a5 633b
00000030: 2672 bc3a f234 d7bb 5d68 c7ba 1c52 243b
00000040: c4a3 133b 5008 c33b 4e44 813b 5f7e 9f3b
00000050: cd95 3e3b ca0b 81ba b533 a9b9 8a9b a13b
00000060: c0dc 8b3a 0a39 bd3a 6c63 1a3b b2a6 c83a
00000070: f5dc ce3a e35b afb8 90ab 053a bfdf 8639
00000080: 0966 993a 434f 0b3b ee62 9c3b 9f2f 833b
00000090: dbaf a53b 62cb 303b d7b7 1c3a c583 f03a
0.00019848027 0.003603345 0.0003407385 0.0026568982 0.0017789411 0.0014021214 0.0016189166 0.0017283047
0.00018336013 0.0064560655 0.003918735 0.0034736374 0.0014377281 -0.006567591 -0.0015213598 0.0025073355
0.0022528032 0.0059519187 0.00394491 0.0048673595 0.0029080987 -0.0009845432 -0.00032272717 0.004931872
0.0010670647 0.0014436555 0.0023557795 0.0015308468 0.0015782403 -8.3617655e-05 0.0005099112 0.00025725176
0.0011703382 0.002125696 0.0047725355 0.0040034796 0.005056364 0.0026976694 0.0005978322 0.0018349817

encoder.5.block.2.weight f4 [40]
00000000: 3b3e 4c3f b476 893f b186 8c3f d2c1 4c3f
00000010: c2a3 613f 4852 803f 0fed 4e3f 2294 a13f
00000020: bf3b 8a3f 79ff a03f 1989 3a3f 849c 583f
00000030: a026 7b3f c78b 393f a3d9 893f 8698 7b3f
00000040: 9c5d 5d3f d177 473f 9af2 393f d84d 9f3f
00000050: 6fda 553f e3a3 8b3f 803f 903f 498e 973f
00000060: 7ba4 723f 591e 543f 94e4 603f 4660 923f
00000070: 6a6c 6f3f c0ff 883f 728b 893f 9ad4 333f
00000080: bd32 733f 7e8a 5a3f c131 803f c270 783f
00000090: 46e5 373f aac6 523f 9343 843f 0b1f 853f
0.79782456 1.073935 1.0978605 0.79983246 0.881405 1.002511 0.8083047 1.2623332
1.0799483 1.2577964 0.72865444 0.84613824 0.9810581 0.7247891 1.0769542 0.9827961
0.8647096 0.779172 0.72635806 1.2445631 0.8353643 1.0909389 1.1269379 1.1840297
0.9478223 0.82858807 0.8784878 1.143563 0.935248 1.0703049 1.074568 0.7024628
0.94999295 0.8536757 1.0015184 0.97047055 0.7183422 0.8233439 1.0333122 1.0400099

encoder.5.block.2.bias f4 [40]
00000000: a62d fe3e 26df ccbe fe86 e1be d09a 993e
00000010: 0174 94bd 754c ee3d 6b01 f1bd 7108 68bd
00000020: 439f b93d eb8b 533c 1c6f 9f3e 8166 aa3e
00000030: d08d abbe f269 37be d282 43be 271d 993e
00000040: e2c8 103f 4517 033e 6baa 013f 3d4a 853e
00000050: 9a47 dfbe 28cd b83d 5635 b23e e393 5f3d
00000060: ba4c f4be ed55 8abd d6a0 4e3f 8516 8e3d
00000070: 6194 dbbe 32f2 55be 4239 7e3e 8f68 f4be
00000080: 8a39 493e 870c 403e 1446 27be 21df 923d
00000090: 5f25 a93e e8dd 1b3e e8c8 e4bd 3a23 5a3e
0.49644202 -0.40014 -0.44048303 0.30000925 -0.072486885 0.11635677 -0.117678486 -0.056648675
0.0906358 0.012911777 0.31139457 0.3328133 -0.33506632 -0.17911509 -0.19092873 0.29905054
0.5655652 0.12801845 0.5065066 0.26033202 -0.43609315 0.090235054 0.34806317 0.054584395
-0.47714788 -0.0675467 0.80714166 0.06937889 -0.42886642 -0.20893171 0.2482653 -0.47736022
0.19650856 0.18754779 -0.16335326 0.07171465 0.33036324 0.1522137 -0.11171132 0.213025
