VQ-VAE/models/vqvae/model_46.pt (torch, 579012 bytes, 64 tensors)

encoder.0.weight f4 [40, 1, 4, 4]
00000000: 8ce7 0d3d b82f 9a3b 2f2f 21bd 4dc0 7bbd
00000010: 1d07 63bd 5fb2 8bbd 7c3a 13be a22d 96bd
00000020: 0f2b 3fbd c278 ffbd 274a 16be b7d1 603d
00000030: c7ab 14bc 0553 95bd 7122 483d bc49 983d
00000040: 4b30 303d c670 813d f6ac 85bd 45d4 733d
00000050: 0192 eb3d dfea 103e eab6 1bbd 3691 203d
00000060: 8bf4 863d 4028 b03d 94ef ebbd cc58 cdbb
00000070: 8b01 5c3d 893e 923d 863f 93bc 2cd8 9c3d
00000080: bacd a43d 658a af3d 0523 cd3d 7a1c af3d
00000090: e780 c03c d939 813c ebe6 6c3c 5744 923d
000000a0: f98d ac3d fc05 903d 6f13 3c3d 0d8d 4e3d
000000b0: 2504 1e3d fffa 173d c960 f33b 84d7 8fbb
000000c0: 4990 d73b 2f69 b23d 00e3 c33d 2d31 3d3d
000000d0: 6768 b03d 54d6 983d e231 2cbd c30b 91bd
000000e0: f5c6 d63d 89da fabb 4fd1 76bd 35be 353c
000000f0: c667 c33d 7fc1 db3c b16c 543d acef 2f3d
00000100: f25a de3c b870 8a3a c9bc 923c f4c7 ec3c
00000110: e48e 343c 86da a8bc 632c dc3d 029f a33b
00000120: 82ce 0ebd b812 b9bd 6e60 1b3d 5ecc ad3d
00000130: 7492 8e3d b32a 4dbd b501 043d 0a7a 0f3e
00000140: 8bf4 a8bd a10a 04bd faf2 3cbd 9f70 b63c
00000150: d62b dfbd 1a67 81bd 050d 03be 2338 a93c
00000160: 901f bebd 9dba 85bd 75c3 c4bd 257f a03d
00000170: 6e48 9fbd 1a7b 68bd 011c 6e3d 3194 9bbc
00000180: 5b79 17bb 832b 843d 2efa 27bd 466d a9bc
00000190: 7a0e a33d 2ceb ae3c a33b d6bd 1761 6bbd
000001a0: d3ec 413d 0216 0cbe 13b0 31bd c417 86bd
000001b0: 6b94 40bc 6334 5bbd fe1d 7fbc 2c60 c1bc
000001c0: 92e5 afbb 404a 8ebd 46fe f8bd dad9 a9bd
000001d0: 08db 0cbd 57da 48bd d34b c8bd 6d87 613d
000001e0: 20af 07be 7096 88bd fe3d 09bd 2bf0 40bd
000001f0: 0728 c4bc 2c0e 893d 1431 8dbd 4b0e ecbc
00000200: 4ba5 8bbc 0a80 fcbc 5d1f dbba c6c1 0d3d
00000210: be3e a5bd e954 8a3d cceb ab3d d166 c03c
00000220: c643 873d a0a8 f83d 6963 11bd ffd2 bfbc
00000230: 5a18 f53d 3d5d d03d 9cd7 85bc 9230 503d
00000240: 0faa c93c 6c5f 753d c4c3 7b3d c073 273d
00000250: 6650 31bd 8152 26bd cf20 febd 9900 8bbc
00000260: 194e 00be bf0b b4bd 19a0 dbbd 0ff0 a63c
00000270: aa8e 243c 9140 a73d bea3 573d 7f0c 623d
00000280: 85d8 913d ed52 143d 46a5 9cbd a6d1 7cbd
00000290: 6a69 7f3d 7609 463c 0776 d2bc 0d69 8ebd
000002a0: c866 313d 374e e03c 25b4 1dbd 23cf ccbd
000002b0: 7048 883d a496 493d 8bb6 2cbd 9fb2 8cbd
000002c0: 1ab0 7dbd 54b6 dfbc 06ab f93b 2158 8bba
000002d0: 3dae 783c f3a2 f9bc a23b c9bc d125 a4bd
000002e0: e5ed 42bd 241f 4abe 6189 3ebe 333f 3abd
000002f0: af0f f33b d6fc 4ebd dadf 723b 5b8b 4cbd
00000300: 9faa 593c f7fb 903d 7b93 8d3d 05b5 acbc
00000310: cebc 213c 4289 69bd ba02 84bd 53f3 bbbd
00000320: a81a 3abd cc23 d2bd f953 d3bd 601a e1bd
00000330: 5931 4abd 07cd 33bd 145d 9dbd 8756 d6bd
00000340: c9c7 95bd 98eb 58bd 8feb 943c efef f33c
00000350: 4e49 83bd f1eb d6bd 855d b8bd 9d38 c6bc
00000360: b736 593d e377 f33b b092 b0bd 84b4 dcbd
00000370: 7892 3c3d e7df a13d 53b6 913c b9ef f2bc
00000380: 39c2 dc3c b73d f13b 3775 c2bb 8b9a f03c
00000390: 320a 5f3d 8d3e 5dbd 8e12 d7bc f45c 013d
000003a0: ade7 0a3d 7b31 903d db0f 2b3e 104b fb3d
000003b0: 0e63 dc3c 267d 853d 788e ad3d cf53 2f3d
000003c0: abbf 1c3d fe3a a2bd f66c 3cbd 94b4 29bc
000003d0: 8645 7bbd 8520 57bd ab2d a2bd 3992 67bd
000003e0: cfe4 94bd 0c72 b4bd 494b 3ebd 593b 56bd
000003f0: 1d12 483c 51c4 35bd 76ef 99bd 6d3f ff3b
0.03464465 0.0047053955 -0.03935164 -0.06146269 -0.055426706 -0.06821131 -0.14377779 -0.073329225
-0.046671923 -0.124742046 -0.14676724 0.0548875 -0.009074158 -0.07291225 0.04886097 0.07435939
0.043014806 0.06320338 -0.0652713 0.059528608 0.115024574 0.14152096 -0.038016237 0.039200984
0.065896116 0.08601427 -0.11520305 -0.006266689 0.05371241 0.07140834 -0.017974626 0.07658419
0.08047052 0.085713185 0.10016445 0.08550353 0.023498965 0.015774654 0.014459352 0.07141941
0.08425517 0.070323914 0.04591697 0.050427485 0.03857817 0.037104603 0.007427309 -0.004389705
0.0065784794 0.087114684 0.09564781 0.046189476 0.08613663 0.07462755 -0.04203976 -0.070823215
0.10487167 -0.007655446 -0.060258206 0.011092712 0.095412776 0.026825665 0.05186147 0.04295318
0.027142975 0.0010562157 0.017912285 0.028903939 0.011020396 -0.020612013 0.107506536 0.0049933204
-0.03486491 -0.090367734 0.03793376 0.084862456 0.069615275 -0.05008955 0.03222819 0.14011398
-0.08249768 -0.0322367 -0.046130158 0.022270499 -0.10897033 -0.06318493 -0.12797935 0.02065665
-0.09283364 -0.06529734 -0.09607593 0.07836751 -0.07777487 -0.056758024 0.058132175 -0.018991562
-0.0023113105 0.06453612 -0.041010074 -0.020681988 0.079617456 0.021352373 -0.104605936 -0.05746564
0.047344994 -0.1368027 -0.043380808 -0.06547502 -0.011754136 -0.053516757 -0.015571116 -0.023605429
-0.005367943 -0.06947756 -0.12157874 -0.08293505 -0.034388572 -0.04903635 -0.09780087 0.055060793
-0.13250399 -0.06669319 -0.033506386 -0.047104042 -0.023944868 0.06692156 -0.068941265 -0.02881541
-0.017046591 -0.030822773 -0.0016717721 0.034608625 -0.08068608 0.067544766 0.08394584 0.023486527
0.06604724 0.12141538 -0.035495196 -0.02341604 0.11967535 0.10174034 -0.016338162 0.05082757
0.024617223 0.059905455 0.061465994 0.040881872 -0.043289565 -0.040606026 -0.124086015 -0.016968058
-0.12529792 -0.08791303 -0.107238956 0.02037814 0.010043779 0.08166612 0.05264639 0.0551877
0.07121376 0.036211897 -0.07648711 -0.061723374 0.06235639 0.012087217 -0.025691045 -0.069536306
0.04331091 0.027381046 -0.038501877 -0.10000446 0.06654441 0.049215928 -0.042166274 -0.06870007
-0.06193552 -0.02730862 0.0076192645 -0.0010631123 0.01517826 -0.030473208 -0.024564568 -0.080150254
-0.047590155 -0.19738442 -0.18607093 -0.045470428 0.007417641 -0.050534092 0.0037059695 -0.049937587
0.013285308 0.070793085 0.06912895 -0.02108241 0.009871675 -0.057015665 -0.064458326 -0.0917727
-0.045435578 -0.10260734 -0.10318751 -0.10991359 -0.049363468 -0.0438967 -0.07683769 -0.104657225
-0.073134966 -0.052959055 0.01817873 0.029777495 -0.06410466 -0.10494221 -0.090022124 -0.024196917
0.053030696 0.007430063 -0.086217284 -0.10776618 0.04603812 0.07904034 0.017787134 -0.029655324
0.026948081 0.0073620933 -0.0059343833 0.029370567 0.054453082 -0.05401473 -0.026253965 0.031582788
0.03391235 0.07040688 0.16705267 0.122701764 0.026902702 0.06518011 0.084744394 0.042804535
0.038268726 -0.07921408 -0.04600235 -0.010357995 -0.0613456 -0.052521247 -0.07918867 -0.056535933
-0.07270204 -0.08810815 -0.046458516 -0.052302692 0.01221135 -0.044376675 -0.07516377 0.0077895434

encoder.0.bias f4 [40]
00000000: 3b8b 2cba 14c7 84ba fc3b 6cbb 1114 6fba
00000010: 5c44 a2bb a2b8 e4b9 e702 243b 9b64 543a
00000020: 34e1 66bb a333 b53b 4800 6a3a 483f abb9
00000030: a9dc 27bb 786e 1bba 3e90 c0ba 776a 623b
00000040: 05c8 9bba a5ac 9cba e475 b3b8 cb17 e1ba
00000050: abe4 c9bb e7d8 49b9 a80e 2ebb 8f81 74bb
00000060: 8b92 e23a 9667 5e3a f999 6bba 652f 8b3a
00000070: 69ed 0f3a ea19 11ba 8118 913b 7a33 af3b
00000080: e3a0 12ba e642 c7bb 1c03 843b faee 3bb9
00000090: d988 c6ba eb12 96bb 2224 3ebb bc0f d9ba
-0.0006582026 -0.0010130131 -0.0036046496 -0.00091201166 -0.0049519967 -0.0004362511 0.0025026144 0.00081021496
-0.0035229446 0.005529837 0.00089264335 -0.0003266281 -0.0025613701 -0.0005929242 -0.0014691425 0.0034548321
-0.0011885172 -0.0011953308 -8.557344e-05 -0.0017173229 -0.0061612925 -0.00019249656 -0.0026559029 -0.0037308668
0.0017286105 0.00084840634 -0.0008987482 0.0010618983 0.0005490394 -0.00055351725 0.00442797 0.0053467127
-0.0005593432 -0.006080973 0.004028691 -0.00017922735 -0.0015146985 -0.004579892 -0.0029013236 -0.0016560475

encoder.1.weight f4 [40]
00000000: 549e 4d3f d431 333f 693e 433f 2d53 1a3f
00000010: 072d 313f dab6 693f 85f1 433f a461 413f
00000020: 884c 323f 75e1 343f e98a 513f fccb 3d3f
00000030: 6a1f 5e3f 04bc 473f 7e2d 2d3f 830f 703f
00000040: cd76 443f 6006 5e3f 9ebf 443f ac65 5b3f
00000050: f29c 293f df2a 4d3f 1d1d 313f 557b 343f
00000060: 58d0 103f e31a 413f 206b 3f3f f83f 133f
00000070: 1002 3d3f 460d 423f b20f 513f 8372 4e3f
00000080: 8be8 513f 69b5 463f c27c 603f 7dd2 293f
00000090: 98e7 623f 919f 763f b2fe 723f 2011 3a3f
0.80319715 0.69997907 0.76267105 0.60283166 0.6920933 0.91294634 0.76540405 0.7553961
0.6964803 0.7065652 0.81852585 0.7413938 0.86766684 0.78021264 0.6764754 0.9377367
0.76743776 0.8672848 0.76854885 0.85702014 0.66255105 0.8014354 0.6918505 0.7050069
0.5656791 0.7543165 0.74772835 0.57519484 0.7383127 0.75801504 0.81664574 0.8064348
0.8199546 0.7762056 0.87690365 0.66336805 0.88634634 0.9633723 0.94919884 0.7268238

encoder.1.bias f4 [40]
00000000: 88ec 4ebd 2e9b 02bd 6f69 2c3b 8fdf cf3c
00000010: 5061 08bc 0023 e4bd d9ca 15be fa62 22be
00000020: b798 723d 4b71 663d 87c1 ddbd e022 febd
00000030: 4d8b 41be 323b 0ebe e5d9 0c3e ba78 1bbd
00000040: 7f3b aebb babd e1bd 1994 f1bd 1170 1abe
00000050: 5e0c 08bd 4b52 b0bd 14b1 673e 3530 aabd
00000060: 1b65 be3d 9db3 bebd 2f25 423e f12e 1f3e
00000070: 8097 b5bd b513 b4bc 8c07 f6bd a6f4 46be
00000080: 4e01 0dbe c56b 5f3e 9494 92bd 3ff8 11be
00000090: 54b4 1fbe 52f3 5fbe 4afc 59be b587 9cbd
-0.050518543 -0.031886272 0.002630796 0.025375156 -0.008323982 -0.11139488 -0.14628161 -0.15858069
0.05922767 0.05626039 -0.10827928 -0.12408996 -0.18900795 -0.13889769 0.13754995 -0.03795693
-0.005317151 -0.110225156 -0.117958255 -0.15081812 -0.03321492 -0.08609446 0.22626144 -0.08309976
0.09296628 -0.09311602 0.18959497 0.1554525 -0.08866787 -0.021982053 -0.12013158 -0.19429263
-0.13770029 0.21818455 -0.07157245 -0.14254855 -0.15596133 -0.21870163 -0.21287647 -0.076430716

encoder.1.running_mean f4 [40]
00000000: cbb5 eb3e 276e c2be 4069 0cbf ac6c b7be
00000010: 041a 75be 2e02 f73e 0046 873e 10fa 023f
00000020: d66b a5be 1431 093e a0a3 a53d 4fba 0b3f
00000030: 7d18 fb3e db84 8d3e 03aa edbe 8f51 013f
00000040: 3796 92be 7661 1b3f 103e f53e a1d3 b53e
00000050: c285 9dbe 167e 653e f61a 63be 2487 9f3e
00000060: c986 f2bd 66ba 123e 5101 79be 31a2 d8bd
00000070: 9b41 0d3e 7b43 843e 6a95 6b3e 5f9c 833e
00000080: 2b2b 903e 37c1 87be 19bb ab3e a76c 84be
00000090: 6bac 083f 3b83 f73e 5a1e 103f 4612 1c3e
0.46037135 -0.37974665 -0.548481 -0.35825098 -0.23935705 0.4824385 0.26420593 0.51162815
-0.32308835 0.13397628 0.080878496 0.5458116 0.4904212 0.27640423 -0.4641877 0.50515074
-0.2863023 0.6069559 0.47898912 0.35513023 -0.30766112 0.22411379 -0.22178254 0.31157792
-0.118421145 0.14328918 -0.24316908 -0.105778106 0.13794558 0.25832734 0.23006216 0.2570524
0.28157935 -0.265146 0.33541182 -0.25864145 0.5338809 0.48342308 0.5629631 0.15241346

encoder.1.running_var f4 [40]
00000000: c6f5 013e a8fa 8b3d 3149 f63d a5c6 893d
00000010: d777 043d d3cc 003e 1290 643d da9b e43d
00000020: ce12 813d 5813 093d f9f4 473d 7b40 033e
00000030: 5b3a 0d3e 88a8 243d 941c c73d cbca d73d
00000040: eac9 813d b15c 2e3e d76e f13d 47f9 953d
00000050: fbd1 383d 9b74 323d 6ccd d33c d50f 8d3d
00000060: c67d 023d 8917 5d3d 5ff6 3a3d 10da 143d
00000070: b77f 1e3d 20a8 593d a712 513d 9b7b 423d
00000080: 393d 4b3d 3d8e 353d 1523 453d d401 843d
00000090: a722 163e a3cf df3d 5dc3 0b3e 8604 c63c
0.12691411 0.06834918 0.12025679 0.067273416 0.03234085 0.12578134 0.05580146 0.11162539
0.06302415 0.033465713 0.04881761 0.12817566 0.13791792 0.040199786 0.09722248 0.105367266
0.0633734 0.17027546 0.11788719 0.073229365 0.045122128 0.043568235 0.025854789 0.06887785
0.03185823 0.053977523 0.045645114 0.036340773 0.038696017 0.053138852 0.05104318 0.04748116
0.049618933 0.044325102 0.04812916 0.06445661 0.14661656 0.109282754 0.13648744 0.024172079

encoder.3.weight f4 [40, 40, 4, 4]
00000000: a39b 9abc 520b 05bc ec83 69bc fce6 b8bc
00000010: 4ed8 3dbd 9974 94bd 6b78 8bbc 74b2 de3c
00000020: 52f8 023b f028 843d e8db d6bc 3f30 1e3d
00000030: 4fb0 773d 6759 483d 5d9b 87ba 5047 93bb
00000040: b156 97bc 3e77 fd3b 8106 333d 87d4 19bc
00000050: 4a71 22bd a5ac 9cbc 58b5 123d a8d0 6a3d
00000060: 272a ea38 66fd 3e3c 8739 a03c 09d2 ca3d
00000070: 071d 4ebb e093 90bb 8993 353d 39ed 44bc
00000080: 3e96 f4bc 1f0a 92bc e6ee aebc 6bb2 e4bc
00000090: f20b 7d3c 2abf 56bd d562 81bd 3c7e 89bc
000000a0: 345d 433d 9f61 a5bb 75fe acbd aae0 0fbd
000000b0: b085 b63d f099 57bd bd59 76bd f277 85bb
000000c0: 70f7 2b3d e000 d0bc 0dcb fabc d249 a93c
000000d0: 66eb ca3c e6c2 44bd 56a4 dbbc f410 08ba
000000e0: 135c f73c 712c 2abd 3d1b 023d a8a4 8d3c
000000f0: 63e0 23bc eaa6 233d 6449 8fba ec6c cabc
00000100: 71f4 673d 9fbb e43c efa2 15bd 6fe2 533b
00000110: fc76 763d e21f 493d 50a3 e7bc 26c7 0dbd
00000120: 7e7c 49bd 4f61 c23d 86f5 893c 2f43 1dbc
00000130: 8d49 85bb e65b 2b3c e17d 7a3c c35f 193c
00000140: 703b dcbc 31f2 e53c aa74 50bc 9f16 0a3d
00000150: 45b5 d3bd c736 e33c f122 913d d1a9 843c
00000160: bc07 3fbd 072c 013e 84fe 13bc 9fd4 a1bd
00000170: dfa3 223d c97b 1c3d 2e31 cabb 59f5 363c
00000180: 0e37 8f3c 67b1 14bc 7420 a53b 99d7 2c3d
00000190: cef5 b0bc f649 79bd 2921 773d 242f 283d
000001a0: 49e5 e53c 4c6f 523d 8c1a a53c 2eb1 5bbb
000001b0: edd1 56bc 493a 513d 5252 51bb d472 953c
000001c0: 744c ad3c 1641 e43c 5409 673d d9a8 a6bc
000001d0: 5c75 9839 e735 81bc e7ec 393d 6427 523d
000001e0: 071b 473c 10b1 12bc 89b8 b4bc edf6 37bd
000001f0: 420a 86bd 179a d03c eddd 9b3d 2da5 54ba
00000200: 0656 37bc 2ebd 8abd 44ae 73bd 05b7 d93c
00000210: 1be5 853d 0d3c 5dbd a707 05bc 93b5 cc3c
00000220: 4a76 08bd c885 88bc e503 e5bb 273d 47bb
00000230: a808 90bc 7e3b 203d 2042 38bc fa78 a13b
00000240: bd9c 10b8 3be3 3abd d79d 3ebd 4cc8 ab3b
00000250: 41fa 703d 9c5b cf3a 7622 7dbd af1f 87bc
00000260: 4aff 813d f4d9 043d 88a3 39bb 09a3 a03d
00000270: fa89 983c ecc1 9c3c ae24 a9ba 408b d6bc
00000280: 2d1d 6f3c 996e a83c 4f61 583d 5ab0 ea3c
00000290: 5ae2 ddbc cf9d e53d a23f c73c 6b15 ccbc
000002a0: 82ed c7bd a870 d63c b407 033e c62a c93c
000002b0: 2277 eb3c 415d c33c e984 03bc 63e1 c13c
000002c0: 0613 7fbd 3349 f9bb 253a 0c3d 6db6 8b3d
000002d0: 835b cd3c 03ff c5bc 16a2 10bd baac de3c
000002e0: 345c f6bb fc74 8ebd 5e1c 6e3d 7eee 53bc
000002f0: de8e 9d3b a65b 46bc ac5c cb3c 70fd 913d
00000300: fb0b 82bd 26c1 823c 0189 8a3c d6c8 2fbd
00000310: 52b9 1bbd 8ce5 10bd b418 313d 29c8 a43c
00000320: 0f0f 87bd 00e7 68bb 9f01 bbbc d65c 903d
00000330: da97 ce3a 2d1b 8f3a ae1a c93c dac0 f1bc
00000340: 4956 f6bc 4c3b f2bc 3df9 f03b 095e 70bc
00000350: 7aa0 e43d 53a2 053e ab1c 4fbd 7335 c3bc
00000360: 67d5 37bd 00d8 fcbc 2f52 173c 788b 703d
00000370: bed5 8bbb f527 1ebd 46de 9fbb bfe9 303d
00000380: 623a 363d 0e3f 78bd 4ae7 62bb 3996 383d
00000390: 1922 2a3d 6385 5fbd 8a92 a4bc 857b e53c
000003a0: 3328 573d 85db afbc dfc2 2abd 8ce7 f23c
000003b0: f7f2 593d 6950 053d dfe1 25bd 31f4 9e3c
000003c0: c476 7b3c 2146 49bd 8e54 5dbc dfaf d83c
000003d0: 1a0f 0bbc 78b1 a0bd 3804 c53c 3a8c 2c3c
000003e0: 3bb9 7d3d a86d 7cbc e102 80bd e364 893c
000003f0: 5030 883c 1f08 fdbc 7266 da3c 0d44 d9bc
-0.018873041 -0.008120375 -0.014252644 -0.02257108 -0.046348862 -0.07248802 -0.017025193 0.027184702
0.0019984436 0.06453121 -0.026227906 0.03862023 0.060470875 0.048913386 -0.0010345984 -0.004494585
-0.018473955 0.007735162 0.043707374 -0.009389049 -0.039658822 -0.019125292 0.035817474 0.057327896
0.00011165841 0.011657095 0.019558681 0.09903342 -0.0031450407 -0.0044121593 0.044330154 -0.012019449
-0.029856797 -0.017827092 -0.02135415 -0.027917108 0.0154447425 -0.052428402 -0.06317679 -0.016783826
0.047696307 -0.0050470377 -0.08446971 -0.035126366 0.089122176 -0.05263704 -0.060144175 -0.0040731365
0.04198402 -0.025391042 -0.0306144 0.020665083 0.02477045 -0.048037432 -0.02681176 -0.00051905145
0.030195272 -0.04154629 0.031764258 0.017290428 -0.010002228 0.039954104 -0.0010931906 -0.024710141
0.056629602 0.027921496 -0.03653234 0.003233101 0.060172066 0.04910267 -0.028276116 -0.03461375
-0.04919099 0.094912164 0.016840708 -0.009598537 -0.004067606 0.010458922 0.015288801 0.00936121
-0.02688381 0.028069587 -0.012723127 0.03371298 -0.10337309 0.02773608 0.07086743 0.016194256
-0.046638235 0.12614451 -0.009032849 -0.079018824 0.03970706 0.03820399 -0.0061704135 0.011166894
0.017482307 -0.009075499 0.005039269 0.042197797 -0.021601584 -0.06086155 0.06033436 0.04106058
0.028063433 0.051375672 0.02015426 -0.0033522355 -0.013111574 0.051080976 -0.0031939936 0.01824323
0.02115462 0.027863067 0.05640538 -0.020344185 0.0002907914 -0.015772773 0.045391943 0.051307097
0.01215244 -0.008953348 -0.02206065 -0.04491322 -0.06544925 0.0254641 0.07610688 -0.00081117713
-0.011189943 -0.067743644 -0.059492365 0.026576528 0.06537839 -0.054012347 -0.0081195 0.024988925
-0.033315934 -0.016665354 -0.0069889897 -0.003040144 -0.017582253 0.039119236 -0.011246234 0.0049277516
-3.447825e-05 -0.04562686 -0.046537247 0.005242383 0.05883241 0.0015820148 -0.061800443 -0.0164946
0.06347521 0.03243442 -0.0028326232 0.078435965 0.01862048 0.019135438 -0.0012904608 -0.026189446
0.014594358 0.02056055 0.052827176 0.028648544 -0.027085472 0.1121174 0.024322335 -0.024912557
-0.09762098 0.026176766 0.12795907 0.024556529 0.02874333 0.023848178 -0.008027294 0.023667043
-0.062274 -0.007607603 0.03423514 0.06821904 0.02506805 -0.02416945 -0.035310827 0.027181972
-0.0075183157 -0.06955907 0.05813252 -0.012935279 0.004808291 -0.012106812 0.024824463 0.071284175
-0.06349941 0.015961241 0.016911032 -0.04291614 -0.038018532 -0.035375163 0.04323645 0.020114975
-0.06594669 -0.0035538077 -0.022827921 0.07048957 0.0015761808 0.0010918133 0.024548855 -0.029510904
-0.03007044 -0.02956929 0.0073539303 -0.014670857 0.11163421 0.13050203 -0.05056445 -0.023829198
-0.04488125 -0.030864716 0.009235903 0.058726758 -0.0042674234 -0.038612325 -0.004878792 0.043191668
0.044489272 -0.06060701 -0.0034622722 0.04506514 0.041536424 -0.054570567 -0.020089407 0.028013
0.05252857 -0.02146698 -0.04168975 0.029651426 0.053210225 0.03254739 -0.04049861 0.019403549
0.01534814 -0.049139146 -0.013508929 0.02645105 -0.008487487 -0.078463495 0.024049863 0.0105314795
0.061944228 -0.015407003 -0.06250549 0.01677174 0.0166246 -0.030887662 0.026660178 -0.026521707

encoder.3.bias f4 [40]
00000000: 01c3 053c 068c 953d b706 e93c 7d96 57bc
00000010: e885 b63d b41b 5b3c e221 283e dda5 98bb
00000020: b95b 73bb 7a4d 513b 9833 1f3d 4f17 5c3d
00000030: 26ad 253c c141 c73c cda6 2a3d 6bc0 0f3d
00000040: 1a60 4bbc 3b79 74bc 7035 81bb b91d 9abc
00000050: 4317 1939 e583 cf3b 6f52 0d3e f7ee 0f3c
00000060: 7df7 f1bc 63d9 9e3c ebee 353c a4b9 643c
00000070: b84d 9d3d 7c98 b03c 58e0 8bbb e58c 23bc
00000080: 143d 37bd 2ec3 88bc ee6f abbc 0a68 05bd
00000090: e74b d9bc 1344 39bd f109 9d3c e96c cbbb
0.008164168 0.07302098 0.028445585 -0.013158438 0.08912259 0.013373304 0.16419175 -0.0046584443
-0.0037133528 0.0031937049 0.038867563 0.053733166 0.010112083 0.024323346 0.04166298 0.035095613
-0.012413049 -0.014921482 -0.003943138 -0.018813001 0.00014599883 0.0063328617 0.13800977 0.008785001
-0.029536957 0.019390767 0.011104326 0.013960276 0.07680839 0.021557085 -0.004268687 -0.009982322
-0.044735983 -0.016694631 -0.020927396 -0.032569923 -0.02652545 -0.045230936 0.01916978 -0.0062080515

encoder.4.block.1.weight f4 [40, 40, 3, 3]
00000000: 488d 263d effb d3bc 43d1 913d 271a 52bd
00000010: 591d b0bd e254 5abd a5a3 08bc 2ce0 0bbd
00000020: 9405 073d 36da 8dbc c90d 913d 6792 f93d
00000030: 8e7f 2c3c 580e 03be 3f8c c0bd b47e f0bc
00000040: 8fec 963d fbb3 5abc ea75 273d d847 c6bc
00000050: 51e8 c53d 8c07 0f3d 6731 88bc 5eef b03d
00000060: 4c01 d23d b9dd 273c a2e6 c538 ccd8 0ebe
00000070: 7d52 f73d 3b14 19bd a050 60bc 1af8 46bd
00000080: 5346 8abd 405c 173d a738 6abe 6531 00bd
00000090: 58f8 8ebd 3ca6 93bc 9c44 063d 2d20 003e
000000a0: 8625 263e 538f 86bd 5865 063d d51e 28bc
000000b0: aea0 c2bc aa58 8a3c dbc6 ffbc b890 8a3d
000000c0: c2f9 973d 15a1 fc3c 4339 33bb aed2 903d
000000d0: 4b62 6c3c 71e5 c73b 5f97 d6bc b2a5 613d
000000e0: a168 1b3c 345a 2f3d e0eb b23d 85a2 43bc
000000f0: e9be 07bd 4bee fd3c 766a 553c 101d 8abd
00000100: c63c b7bc 3958 813d 1c11 b6bc 6b35 a33d
00000110: 2b06 f9bc 5f57 5a3b 50cc f7bc 9beb c5bc
00000120: ea22 2fbd e619 1dbd 1b34 efbc cb20 4c3d
00000130: ad0a ad3d e065 87bc 345c cdbc 2c38 9bbd
00000140: e62a eebc 544d e1bc e350 b23d 40a6 6a3d
00000150: d5f6 edbc 3081 c73d b96d c13c 3461 4e3c
00000160: 1a4d 283e 7f7f ec3c 34ee 1c3d 29ce 19bd
00000170: f4f9 c6bc f4f0 43bd b30c 93bd faea 02bd
00000180: 2a97 0dbd be0e 86bd 7cda 7abd f6d6 e1bc
00000190: e961 943d c562 b3bd 8fe5 893c 8512 243d
000001a0: a697 623d 1bb3 8cbc c8c7 a33a 0743 e5bc
000001b0: d227 2ebc 7bab ad3d 3208 5abd cc91 54bd
000001c0: 8d33 9b3d d979 b83b 6d01 99bd f9d5 5ebd
000001d0: 076e 7bbd 01a4 d03c 68ae 5abd a33a e5bb
000001e0: d2c3 90bd 4d5c 1fbe 2c0e 173e 8b3c dcbb
000001f0: 99c9 a6bb ce66 dfba 6cb0 9ebd 3598 4d3d
00000200: f6c2 3fbb c2a5 533e 08e6 45be aa77 c9bc
00000210: cbe5 263d 0f42 353d 1259 033c 8b57 4dbd
00000220: 03a8 263d 2975 b0bb b9e5 913d c64b dabc
00000230: 40a7 fe3c 78da fa3a f2ef 9abc 6e70 8dbc
00000240: 21a5 debc 0530 64bd d045 b1bd 925f a33d
00000250: 0974 4ebd a1af 033d aa83 8bbd 855f 20bd
00000260: 1f89 843c 46e0 a53d 01ba 383d ba4c 8abd
00000270: da4c 87bd d1ec e63d ef65 d13d ca4c 05be
00000280: ce15 03be f6ef 143d c837 4a3d bd7e 5cbd
00000290: 9b19 83bd 32fb 71bc b20f e03c 7c96 f3bc
000002a0: 9316 1bbc 0dde 513a 7c0f 803c 702e 433c
000002b0: 3246 a43c e5f5 82bd 9538 38bb 1018 f6bd
000002c0: 64db e0bd 955b 5bbe cf5e 8aba e742 89bd
000002d0: 144c 82bd ece8 d63d 8554 91bd 70b7 a7bc
000002e0: a65f 11bd 2652 04bc d9e8 a2be a66a 74bd
000002f0: ee7e 3a3c 4f25 abbd 9a54 ddbd 3afb 97bc
00000300: 574c 42be 352b 8cbd f94f d73d b9e6 13be
00000310: bd75 e33d b0be b5bc f814 edbb 1d63 ab3b
00000320: 705a 803c a5a7 73bd c8e8 0e3e ee86 3dbc
00000330: e2b9 18bd 325f b8bd f717 07bd 5e88 7cbc
00000340: 4c93 b6bc 972e 0e3c 2953 e1bd f19a 27be
00000350: 83f8 2fbc 70c6 843d b2e8 603d e42b 8f3d
00000360: 8e6d 3bbc 2b7b 1fbd 2eb3 08bd b87c 64bd
00000370: f58b 593e c672 db3d f3e3 b93d 8c89 66bc
00000380: a885 a53c 0770 d23c 80cb f13b 72c1 c2bc
00000390: 861b 07be da0b 1f3e c395 bcbc 67ca 0b3d
000003a0: acf1 f13c f579 70bb 6511 7f3d 0aee f33c
000003b0: 4819 fc3c d36e c7bb 8cc4 0dbd 349e 61bc
000003c0: 4858 9a3b b67c 27bd 196f fbbc 1dbd e3bb
000003d0: 40d5 60bb a150 9c3c 18e9 163e 3e32 b1bd
000003e0: e68b 15bd b4aa 123d a96c f6bc 06ed 8abd
000003f0: be2b 05bd a718 e93c 6368 063d 4cbd ac3c
0.04066208 -0.025876967 0.07119992 -0.051294472 -0.085993476 -0.053303607 -0.008339797 -0.034149334
0.032964304 -0.017315965 0.070827074 0.12186127 0.010528458 -0.1279844 -0.0940175 -0.029357292
0.07369339 -0.013348575 0.040883936 -0.02420418 0.096634515 0.034919307 -0.01662512 0.08639406
0.102541536 0.010245734 9.436651e-05 -0.13949889 0.1207628 -0.03737281 -0.0136910975 -0.04857645
-0.067516945 0.03695321 -0.22873174 -0.031297106 -0.069809616 -0.018023603 0.032780275 0.12512274
0.16225252 -0.06570306 0.032811493 -0.010261257 -0.023758259 0.016887981 -0.031222751 0.06765884
0.074206844 0.030838529 -0.0027347363 0.07071434 0.014427732 0.0061003496 -0.026195226 0.05508966
0.009485395 0.042810634 0.08736396 -0.011940603 -0.03314105 0.030997416 0.013025871 -0.067438245
-0.022367846 0.06315655 -0.022224955 0.07969173 -0.030398449 0.0033316237 -0.030248791 -0.024160197
-0.042757906 -0.038354777 -0.02919965 0.04983596 0.08449302 -0.01652807 -0.02506838 -0.07579073
-0.02907319 -0.027502693 0.08706834 0.057287455 -0.029048363 0.097414374 0.02361189 0.012596417
0.16435662 0.028869389 0.038313106 -0.037550125 -0.024289109 -0.047837213 -0.071801566 -0.031962372
-0.03456799 -0.065457806 -0.06124352 -0.027568322 0.072452374 -0.08759073 0.016833095 0.040056724
0.055320404 -0.017175248 0.0012495453 -0.027986063 -0.010629611 0.08479973 -0.053230472 -0.051896855
0.07578192 0.0056297597 -0.07470975 -0.05440328 -0.061384227 0.025468828 -0.053388983 -0.0069955154
-0.070686 -0.15562554 0.147515 -0.0067210845 -0.0050899503 -0.0017044188 -0.077484936 0.050193984
-0.0029260493 0.206687 -0.19326031 -0.024593193 0.04074649 0.04425245 0.0080168415 -0.050132316
0.040687572 -0.0053850603 0.07123894 -0.02664746 0.03108561 0.0019138595 -0.018913243 -0.017265525
-0.027178349 -0.055709857 -0.08655894 0.07977213 -0.05040363 0.032149915 -0.06812222 -0.039153595
0.016178666 0.080994174 0.045099262 -0.06752916 -0.06606455 0.11275638 0.102245204 -0.13017574
-0.12801287 0.036361657 0.049369603 -0.053831805 -0.06401368 -0.014769362 0.027351234 -0.029734842
-0.009465831 0.00080058054 0.015632384 0.011912927 0.020053003 -0.06394557 -0.0028109897 -0.12016308
-0.109793454 -0.21421655 -0.001055682 -0.06702214 -0.06362167 0.10493645 -0.07096199 -0.020473212
-0.035491608 -0.008076226 -0.31818274 -0.05967202 0.011382801 -0.083567254 -0.10807152 -0.018552411
-0.18974434 -0.068441786 0.105133004 -0.14443482 0.11106441 -0.022185653 -0.0072351657 0.005230321
0.015668124 -0.05948605 0.13955986 -0.011567814 -0.037286647 -0.09002532 -0.03298184 -0.015413372
-0.022287033 0.0086781 -0.1100219 -0.16367699 -0.010740402 0.064831614 0.054909416 0.06990793
-0.011439694 -0.03893582 -0.033374004 -0.055783004 0.21244796 0.10715251 0.09076681 -0.01407088
0.020205334 0.025688184 0.0073789954 -0.023773883 -0.13194093 0.15531865 -0.02302063 0.034128573
0.029534183 -0.0036693786 0.062272448 0.029776592 0.030773774 -0.0060862093 -0.03461127 -0.013770629
0.004710231 -0.040890418 -0.030692624 -0.0069500343 -0.0034306794 0.019081416 0.14737356 -0.08652161
-0.03651037 0.035807326 -0.03008111 -0.0678349 -0.03251242 0.028454138 0.032814395 0.021086358

encoder.4.block.1.bias f4 [40]
00000000: 7596 483b f76a a8bb 8f6f ceb9 ac0c 4a3a
00000010: 0c85 dcb9 67a5 353b c3f7 b53a cdcd 8839
00000020: 7287 493a ddba 68ba 2e00 943b 2843 0e3c
00000030: 85f7 4bb9 feb5 f33a 7bdb 92b9 faa6 993a
00000040: e864 09bb d2f2 bdba cdf7 043a dc46 a53a
00000050: 6dd4 9db8 e7a2 0e38 7915 63ba 5f38 0fbb
00000060: a8e0 6f3b f1cf 1dba e80d 9c3a 04b4 a93b
00000070: b12e 93b9 216a 3b3a 6737 e23a 6689 d43a
00000080: 5d7c bd3a 0e99 133b 2661 ebb9 4a71 9b3b
00000090: e3e7 50bb 5451 a739 00b3 ffb9 3495 2e3b
0.0030607258 -0.0051397043 -0.000393745 0.0007707577 -0.00042060798 0.0027716996 0.0013883043 0.00026093275
0.00076877244 -0.00088779425 0.004516623 0.0086830035 -0.00019451797 0.0018593667 -0.00028010816 0.0011722737
-0.0020964686 -0.0014491922 0.00050723256 0.0012609619 -7.525911e-05 3.4007153e-05 -0.00086625625 -0.0021853668
0.0036602411 -0.00060200604 0.0011906 0.0051789302 -0.00028072813 0.00071492983 0.0017258943 0.0016215264
0.0014456619 0.0022521648 -0.00044895074 0.0047437297 -0.0031876497 0.00031913316 -0.00048770756 0.0026639225

encoder.4.block.2.weight f4 [40]
00000000: 9910 8d3f 9c4f 843f 9361 793f 5f16 6e3f
00000010: 2c2d 6e3f bd76 6e3f a0af 713f a22a 6f3f
00000020: a87d 5c3f 724a 5a3f e571 7d3f 856c 883f
00000030: 67b4 723f 755d 953f df81 8f3f 2518 883f
00000040: 364e 8a3f 4e5f 323f d99c 6b3f 585d 703f
00000050: 2a41 843f e13c 893f 2c20 3a3f 8e9e 833f
00000060: 7211 593f 54dd 663f 0d88 8d3f 2874 893f
00000070: 20db 823f 3410 903f b8a0 8d3f 47fd 8d3f
00000080: 14ac 803f 5bb0 943f 9916 723f 7f84 873f
00000090: 9246 763f cdb7 463f 3bc2 993f d4d3 5c3f
1.102069 1.0336795 0.9741451 0.93002886 0.93037677 0.9314993 0.9440861 0.9342443
0.86129236 0.85269845 0.99001914 1.0658118 0.9480652 1.1669146 1.1211509 1.0632368
1.0805118 0.69676673 0.92036206 0.9389243 1.0332386 1.0721704 0.7270534 1.0282762
0.84792244 0.9018147 1.1057144 1.0738573 1.0223122 1.1254945 1.1064672 1.1092919
1.0052514 1.161632 0.9456573 1.058731 0.9620143 0.7762421 1.20124 0.86260724

encoder.4.block.2.bias f4 [40]
00000000: ab0d 8d3e 9fc6 a43c 9b49 b9bd 0468 9b3e
00000010: a839 923e cceb cb3e 1edd 113e 37de 9e3d
00000020: d4df f83d daa9 c2bd 9698 da3d 8172 a93e
00000030: 8138 c73e 5e7e e13e 7688 de3e 9eb5 99bd
00000040: f006 9b3c 9a74 863d 95d2 4d3e 304b 8c3e
00000050: 66fb 4ebe 7c9e a4bd 2f2d 03be f070 12be
00000060: cee2 063e 0d85 cbbd c6cd 7d3e f5c5 3d3d
00000070: aeab d9bd 19a7 cd3c 55e6 8e3e 77b4 843e
00000080: b790 133d e577 ad3e 5227 783e d899 debc
00000090: 1945 8a3c d8f8 d5bd 3c4d 55be be51 063e
0.2754949 0.020114241 -0.09047242 0.30352795 0.28559613 0.39828336 0.14244506 0.07757228
0.12152067 -0.09505053 0.10673635 0.33095172 0.38910297 0.44041723 0.43463486 -0.07505344
0.018924206 0.06565209 0.20099862 0.27401114 -0.20213088 -0.08038041 -0.12810205 -0.14300895
0.13172457 -0.09937487 0.24785528 0.046331365 -0.106284484 0.025104092 0.27910104 0.25918934
0.036026683 0.33880535 0.2423375 -0.027172968 0.016878651 -0.10447854 -0.20830244 0.1311712

encoder.4.block.2.running_mean f4 [40]
00000000: c898 9d3e eb14 4ebf 443d 37bf af0b 13bf
00000010: b5b0 403e 415c 3f3f 1530 893e 3132 73be
00000020: 7803 513e 63ff c3be 2a5d f73e 9363 133e
00000030: 09f1 8e3d 5603 bb3e 9a6f b13e 04a2 4abf
00000040: 4c65 28bf 5fb9 98bd 9e19 093f 2f5d d13c
00000050: 6d1d 40bc f662 45bf f7d3 58be 7ea3 b2be
00000060: 0273 923e 7f40 32bf 81a1 3b3f 7288 fe3e
00000070: 9c77 9f3d 1f50 7bbf 4297 5b3f e981 253f
00000080: e38a 26bf cdc1 1fbd 87d9 ab3e 801e 0abf
00000090: 9d8e 30be 622c 1bbf 003a b8be 5494 9b3c
0.30780625 -0.8050067 -0.7157786 -0.574397 0.18817408 0.74750143 0.26794496 -0.23749615
0.2041148 -0.38280782 0.48313266 0.14393453 0.069795676 0.36525983 0.34655458 -0.79153466
-0.65779567 -0.07457232 0.53554714 0.025557129 -0.011725766 -0.7710413 -0.21174608 -0.3489036
0.2860337 -0.69629663 0.7329331 0.49713475 0.077864856 -0.9816913 0.85777676 0.6465135
-0.65055674 -0.039003182 0.33564398 -0.5395279 -0.17241903 -0.606146 -0.3598175 0.018991627

encoder.4.block.2.running_var f4 [40]
00000000: e4ae f43e 7f47 6f3f 348a 313f 5f3b 0e3f
00000010: c24f aa3e cadb 483f d8aa ec3e 2779 183e
00000020: b5d6 d73e 3344 103f dcc3 0f3f 0170 c03e
00000030: 0683 a93e f774 a53e b9ea 173f b906 3b3f
00000040: 2be6 d73e f983 5d3e e287 0f3f c7fb 603e
00000050: 0bb1 053e 2d62 563f d035 bf3d fdb6 1d3f
00000060: af9f e83e 9f59 183f 7c02 233f 4c52 e33e
00000070: 1fd8 bf3d 00e1 983f b48d 3a3f 3adf 803f
00000080: 00e1 513f 1fc4 8e3e 81c4 e03e 19b6 d93e
00000090: 5528 973e a1e0 c53e 6814 f03d 084b a93e
0.4778968 0.9346847 0.69351506 0.55559343 0.33263975 0.7846037 0.46224093 0.14889966
0.42155996 0.56354064 0.5615823 0.37585452 0.33107775 0.323158 0.59342533 0.7305713
0.42167792 0.21632375 0.56066716 0.21971045 0.13055818 0.83743554 0.09336436 0.6160734
0.4543433 0.5951175 0.63675666 0.44398725 0.09367394 1.1943665 0.7287247 1.0068123
0.8198395 0.27884004 0.4389992 0.42521742 0.29522958 0.3864794 0.11722642 0.33065057

encoder.4.block.4.weight f4 [40, 40, 1, 1]
00000000: b2e2 233e e1e7 cd3d ef11 883e 99d1 223e
00000010: bc12 3e3e 36c4 72be e019 ce3d 9363 193d
00000020: fd3b b63d 2f1c ef3c 6532 30be 8381 b0bd
00000030: 8b98 c1bd 3b73 67be 1ea3 1abe cfa9 de3c
00000040: 712c 813e 0fc5 753d 439a 66bd 4570 03be
00000050: ea2d c23d 6233 e23d 9a2b d0bc bc80 333e
00000060: e3a6 913e dad6 653d 92ee c0be 9cd2 65be
00000070: 503a 6dbe e8c8 9f3c 6081 b4be b3f4 bb3d
00000080: ccea b43d 4ae0 85be f18f a43d 9be9 c73c
00000090: e890 33bd e613 8b3c decb c23e 2af4 463d
000000a0: d679 203e 6698 db3b 07ad 973e 3fd4 19be
000000b0: 9793 253d 5cbc 2ebe d260 2e3c 2832 01bc
000000c0: f83d 153e 92e0 73bc 6c96 513d dd87 1f3e
000000d0: 38f8 4e3e 0156 263e 451e a13e e53a 8bbe
000000e0: 9fb5 62bd 7903 283e 050c b2bc 65c0 853d
000000f0: 4cd9 9cbc 1b47 39be fb3f 0ebd 9fe0 7dbd
00000100: 07af 28bd 8a94 803c 521f a83d 3da3 233e
00000110: f26e 96bb 34a0 71bd cd5d 263e 0d57 183e
00000120: 8b62 9c3d 2ac7 b73e 7016 623e c910 1cbe
00000130: bf12 31be 0f40 b1bd 68a4 47be 8059 b4bc
00000140: fd59 02be 31c8 9d3e 5945 87bd 6801 e8bd
00000150: 44fa bebd baac 01be ca72 c0bd 7219 1dbe
00000160: 75dd b63c 7d55 be3c b5db a63d 89cc 65be
00000170: b214 ad3d 0372 17be 05c3 28be 327d 3c3e
00000180: 54e9 983d f0c7 b3bc fdec 39be 2cc3 bbbc
00000190: 89ef dd3c c7f5 4a3e dc61 883c dd66 f13c
000001a0: 4e9d 56be 3502 0d3e 2abc 0bbe e597 683d
000001b0: 7265 36be 5208 ee3d f952 f9bd ed83 94be
000001c0: a73d 89bd c1be 84be 9711 193c 4c3e 013e
000001d0: 8511 1dbb f25a 203e fac8 013f ff61 66be
000001e0: d6a2 8cbd 4253 873e 808e f73d 5b60 e23d
000001f0: 5541 9bbd f85a 4d3d 9f38 afbd 1a7a a5be
00000200: 7d4d 2fbe 01e8 1dbd 0bd2 3d3d a416 54be
00000210: f1c3 15bd 28f6 88bc 2047 10be 54fd 62be
00000220: f3af 42bd 7a61 9f3d ee53 8bbd 12ce fb3d
00000230: b3a1 6d3e 6975 e13d dfe0 eebb 8cfd 293e
00000240: ebb8 1abe 1757 a0bd 730f b0bd 320a ccbd
00000250: e57d 2e3e 9ab2 80bd 7055 f4bd 9836 8e3c
00000260: 82d5 0b3e da56 27be 50ba f93a 3e40 4e3e
00000270: e11e 283e 8ef3 06bd fce0 d93e 52f8 34bd
00000280: 80e6 0cbe 862d 4cbe 390d 65bc 064e 44bd
00000290: 07a2 0d3d b3f5 3ebe 55ff 923e bcad 1cbe
000002a0: 32a4 6fbd 66d2 5a3e 4288 36bd b2b2 323d
000002b0: 5d99 6b3e aa98 a13e c6de 1b3e 8c2d 813d
000002c0: 5aa4 2abe 62a7 e53d c03e ee3d d196 653e
000002d0: a5e1 5a3e eb61 4b3c 6712 56be 788d c93d
000002e0: 3202 01bd d1ca e1bd 1aeb 8bbc 9e43 443e
000002f0: 3961 cd3d d873 38be b3ba 6b3e 9079 00be
00000300: 33ee bebd 63b4 903d 8048 803e ba0a 0dbe
00000310: 234b 6cbb cf02 07be 0903 5abe 35db 163e
00000320: 2b31 1ebd b263 89bc df64 693e d3ce 9dbc
00000330: 36cb 09be 9056 8cbe bae3 21be f98c dd3d
00000340: fa6e b1bc b652 c3bc 06ad ccbd f7dc 8dbe
00000350: de01 9dbe 9f8e 70bc 4f86 5a3d 9929 573e
00000360: 44c4 b33d f081 08bd e5d4 31bc 16a8 c8be
00000370: c895 153d 42da 863d 1e00 22bd ac8d 893d
00000380: 2eae 6abc 73ae 213d e5e9 9c3d 8e95 3d3e
00000390: bd8c d9be b5d4 483e 501d 4dbe 9fc0 2d3e
000003a0: 8316 c23d 2a97 f53d 4738 a7be 6e51 0b3e
000003b0: 8670 eaba 62d0 c13c 5d07 e03e ae37 00bd
000003c0: 63a1 38be b4d5 15be 4796 9abe 2dd4 51bc
000003d0: 97b4 833c e5be 21be 6dc5 3a3e 8eab c93d
000003e0: cb7c 8d3e 8d2f be3c d1b8 03bf 0076 5fbe
000003f0: c188 b1bd ce65 5dbd 4bd0 b1bd 1ecc 75bd
0.16004446 0.10053993 0.26576182 0.15900268 0.18561834 -0.23707661 0.10063529 0.037448477
0.088981606 0.029188244 -0.17206724 -0.086184524 -0.094529234 -0.2260255 -0.15101287 0.02718058
0.2522922 0.060002383 -0.05629946 -0.12835796 0.09481414 0.11044957 -0.025411416 0.17529577
0.28447637 0.0561131 -0.37682015 -0.22443622 -0.23166776 0.01950498 -0.35254955 0.09177532
0.088338464 -0.2614768 0.08035267 0.024403384 -0.043839365 0.016977262 0.38046163 0.048572697
0.15671477 0.006701517 0.29624197 -0.15022372 0.040423956 -0.17064041 0.010643201 -0.007885493
0.1457442 -0.014885085 0.051168844 0.15579171 0.20211875 0.16243745 0.31468406 -0.2719337
-0.05534899 0.16407575 -0.021734247 0.06530837 -0.019146584 -0.18093531 -0.034728985 -0.061981793
-0.041182544 0.015695829 0.08209099 0.15980239 -0.0045908624 -0.058990672 0.1624672 0.14876957
0.07635983 0.35894138 0.22078872 -0.15240778 -0.17292307 -0.08654796 -0.1949631 -0.022015333
-0.1272964 0.30816796 -0.06605024 -0.11328393 -0.09325078 -0.12663546 -0.09396894 -0.15341738
0.022322396 0.023234123 0.081473745 -0.22441305 0.08451213 -0.14789586 -0.16480644 0.18407133
0.07466379 -0.021945924 -0.1815681 -0.022920214 0.027091758 0.19820319 0.016648225 0.029467994
-0.20958444 0.13770373 -0.13645998 0.056785483 -0.17812136 0.11622681 -0.12174029 -0.290069
-0.067012124 -0.25926784 0.009342573 0.1262142 -0.0023966741 0.15659693 0.5069729 -0.2249832
-0.06866996 0.26430708 0.120877266 0.110535346 -0.075808205 0.050135583 -0.085557215 -0.3231972
-0.17119403 -0.038551334 0.04634289 -0.20711762 -0.036563817 -0.016718939 -0.14089632 -0.2216695
-0.04753108 0.07782264 -0.06803118 0.12295164 0.23206215 0.11008722 -0.0072899903 0.16600627
-0.15109603 -0.07829111 -0.08596697 -0.09962882 0.17040212 -0.062840655 -0.119303584 0.017360017
0.13655666 -0.16341725 0.0019052718 0.20141694 0.1641803 -0.032947116 0.42554462 -0.04418213
-0.13759804 -0.19939241 -0.013980203 -0.04792597 0.03457835 -0.18648414 0.28710428 -0.1530065
-0.0585062 0.21369323 -0.04456354 0.04362745 0.23007722 0.31561786 0.152217 0.063075155
-0.16664258 0.11213566 0.11633062 0.22420813 0.21375139 0.012413482 -0.20905457 0.09841436
-0.031496234 -0.11025012 -0.017079879 0.19166419 0.100283094 -0.18012941 0.23020439 -0.12546372
-0.09322777 0.07065656 0.25055313 -0.13773623 -0.0036055527 -0.13184665 -0.2129022 0.14732058
-0.03862111 -0.016771171 0.22792386 -0.01926366 -0.13456425 -0.27409792 -0.15809527 0.10817904
-0.021659363 -0.02384315 -0.09993939 -0.27707645 -0.30665487 -0.014682441 0.053350743 0.21011962
0.08777669 -0.033327043 -0.010853981 -0.3919074 0.036519796 0.06584598 -0.039550893 0.06716475
-0.014323754 0.03947301 0.07661799 0.18514082 -0.42490187 0.19612391 -0.20030713 0.1696801
0.0947695 0.11991723 -0.32660124 0.13605282 -0.0017886318 0.023658935 0.43755618 -0.0313031
-0.18030314 -0.14632303 -0.30192778 -0.012806934 0.016077323 -0.15795477 0.18239374 0.098471746
0.27634272 0.023216033 -0.5145388 -0.21822357 -0.08668662 -0.054052167 -0.08682307 -0.060009114

encoder.4.block.4.bias f4 [40]
00000000: a471 06bc 90de 043b d378 aabb ad1d daba
00000010: ac64 24ba 75bf 7b39 ee8f 3bbc af0d 18bc
00000020: c4b1 eb39 4c1a d4b8 e2b6 0bbb ffd2 81bb
00000030: a7c1 94bb 2967 b13a 232e d8bb cfa9 9138
00000040: f72c c9bb 2bf7 143a ef4d 353b 7ada 223c
00000050: 098f ee3b 4b6a a1bb 12ef 913b 5c19 88ba
00000060: d95a babb 3eed 88bb b417 6bbb c1bd d438
00000070: af82 abbb dfdc 02bc 8209 e03a 0a2e b53b
00000080: e6f1 1fbb f413 51bb 0cb1 04bc 6a06 8abb
00000090: 324f c2bb 7e7e cfbb a293 fa3a c40d f9ba
-0.008205805 0.002027426 -0.0052023917 -0.0016640924 -0.0006271105 0.00024008549 -0.01144789 -0.009280606
0.0004495514 -0.00010113846 -0.0021318723 -0.0039619203 -0.0045396867 0.0013534772 -0.006597297 6.945768e-05
-0.0061393934 0.0005682583 0.002766486 0.009939784 0.0072802347 -0.004926001 0.004453548 -0.0010383534
-0.0056870994 -0.004178672 -0.0035872282 0.00010144292 -0.0052340846 -0.00798723 0.0017092677 0.00552917
-0.0024405657 -0.0031902762 -0.008098852 -0.0042121904 -0.005929851 -0.0063322177 0.0019117484 -0.0019001295

encoder.4.block.5.weight f4 [40]
00000000: 6d44 503f 1a51 2a3f ccf7 3c3f e608 283f
00000010: 03b5 4d3f 0bc1 2c3f e2fa 803f 062e 0e3f
00000020: 3e96 4a3f 3687 323f 07f9 613f 4e93 6a3f
00000030: 8899 4b3f 4e6a 2a3f 31fd 223f 5990 9b3f
00000040: 04a9 143f c41c 773f eca6 6d3f 3f8f 183f
00000050: 8e91 033f 83dc 773f 22f9 623f 20a8 373f
00000060: ad6f 283f 58cf 133f 4d22 6b3f d29b 643f
00000070: d2ac 3f3f 81ef 433f 3f13 5b3f 39b3 153f
00000080: cc53 0c3f 53c5 4d3f 9721 6a3f a205 573f
00000090: 7d56 563f 183e 3c3f f5b3 063f ba00 2c3f
0.8135441 0.6653 0.7381561 0.6563858 0.80354327 0.6748206 1.0076563 0.55538976
0.791355 0.69737566 0.8827061 0.9163102 0.79531145 0.6656846 0.6366759 1.2153426
0.580704 0.9652827 0.9283283 0.59593576 0.51393974 0.9682085 0.88661397 0.71740913
0.65795404 0.57738256 0.91849214 0.8930026 0.7487308 0.7653733 0.8557624 0.584766
0.54815364 0.8037922 0.91457504 0.8399297 0.8372572 0.7353225 0.5261834 0.6718861

encoder.4.block.5.bias f4 [40]
00000000: f868 babe d2ef de3d 20dd 88be 78bf fdbd
00000010: 8ec4 243d be15 21be 2087 83be f040 7ebe
00000020: 3be2 0d3e 2f4e 77be 664a c83d b51e a6bd
00000030: 4b11 8fbe a038 933c e3af 60bd 01b7 8bbe
00000040: 8ee0 6dbe a09b 8e3d 6554 293e a0f7 8bbd
00000050: 6fee 46bd c44b bf3d d91d 803d 387a 31bd
00000060: 651c 5cbe 6c68 07be 7ea9 fd3d 5046 a13d
00000070: e7fb 30be c3db d0bd 4765 37be 0343 2ebd
00000080: 2ab1 ffbd 891b 66be 396b adbd 5b78 9fbe
00000090: 0e29 84be 560c 18be 0142 383d c640 3ebe
-0.3640821 0.10885586 -0.26731205 -0.123900354 0.04022651 -0.1573095 -0.2568903 -0.24829459
0.13855831 -0.24150918 0.097798154 -0.08111326 -0.2794288 0.017971337 -0.05485524 -0.27288058
-0.23230192 0.06963277 0.165361 -0.0683434 -0.04856723 0.09340623 0.06255693 -0.043329448
-0.21495207 -0.13223428 0.12385844 0.07874739 -0.17283593 -0.10198166 -0.17909728 -0.042544376
-0.12484963 -0.22471441 -0.08467717 -0.3114651 -0.25812572 -0.14848456 0.04498482 -0.18579397

encoder.4.block.5.running_mean f4 [40]
00000000: b245 f4bd a4ad 3e3f 6cf2 1abf 4077 8ebd
00000010: e118 db3e 6f1d 8ebe 3028 50bf e196 41bf
00000020: f956 9f3d 5e02 81be eebd c93e 7409 293e
00000030: 906a 9f3e 39da 203f 3716 b5be 88c8 79be
00000040: d291 1dbe 89cd f13e 5c7c 783f ac55 e93e
00000050: 07b9 513e dccf 1d3f 196f d03e 49b4 cf3d
00000060: 5b1f c1bd c60f ccbe 2c23 bb3e b3dd 043f
00000070: 9316 c2be cb61 eebe de8d 12bf 770f 8f3d
00000080: 4460 803c a303 87be 1abd aebe 0e5d 17bf
00000090: 8d4c 4bbe 424d 23be 4ef9 103f 16ee 37be
-0.11927356 0.74483705 -0.60526156 -0.06956339 0.4279242 -0.2775683 -0.8131132 -0.7562085
0.077802606 -0.2519712 0.39402717 0.16507512 0.31135988 0.6283298 -0.3536851 -0.24392903
-0.15387657 0.47227123 0.9706476 0.45573175 0.20480739 0.61645293 0.4070976 0.101418085
-0.09429809 -0.39855784 0.36550272 0.51900786 -0.37907848 -0.46558985 -0.5724772 0.069853716
0.015670903 -0.26369962 -0.34128648 -0.59126365 -0.1985342 -0.1594744 0.5663041 -0.17961916

encoder.4.block.5.running_var f4 [40]
00000000: 28c2 4040 04a3 8740 5f25 9040 e50c 3340
00000010: cdf5 0340 90e6 2c40 750c e83f 8c56 cc40
00000020: ecb7 983f 0c93 dd3f aeb7 4c40 9ab4 cc3f
00000030: c486 093f f8c9 8240 0c73 d240 afe5 ef3e
00000040: bc1c 993f 3453 d53f fa49 7140 097c c83f
00000050: 13f7 db3f 8313 9340 07d0 1c3f e1c0 5640
00000060: 8f90 3740 ddd0 f33e 0550 6440 bd8e d440
00000070: 2a37 0140 0cb8 8e3f 18a1 1740 d864 da40
00000080: 9a91 b93f 235e 8e3f 4697 7340 3230 3840
00000090: f8ec 893f 6ae5 663f d6e7 b440 e6f7 c73f
3.0118504 4.2386494 4.504562 2.797662 2.0618775 2.7015724 1.8128802 6.385565
1.1931129 1.73105 3.198711 1.5992615 0.5372126 4.0871544 6.576544 0.46854922
1.1961894 1.6666017 3.7701402 1.5662853 1.7184776 4.596132 0.61254925 3.3555224
2.8681982 0.47620288 3.567384 6.642424 2.018992 1.1149917 2.3692074 6.82481
1.4497559 1.1122478 3.806108 2.8779416 1.0775442 0.9019381 5.6533003 1.5622528

encoder.5.block.1.weight f4 [40, 40, 3, 3]
00000000: c542 f23d fffc c43b 9566 07bd 0fd5 6bbd
00000010: 39aa 44bd bfe0 0abd c1aa 053e d943 9bbd
00000020: 24d5 203d a7c7 143d b7e0 4dbc 0532 4bbc
00000030: 3405 0fbd 3799 463e 99c2 9a3c 2cb9 9fbc
00000040: 2f21 883d 95bd 0abd 822e 0abd 5199 bb3d
00000050: 8a9d 653b 0f89 36bd 8e3f 8ebe 23af 7c3d
00000060: 216b b8bd 6626 ee3c e1e0 32bd c813 e83c
00000070: 0ea5 43bc d133 efba 6e45 b63d fe37 58bd
00000080: 4e83 0fbd ffc4 0d3d 8696 0f3c 8332 6e3d
00000090: 644a 673d bfaa 8f3b 2d56 93bc f23b c03c
000000a0: f808 36be 6224 973d 7312 38bb 8e65 b6bc
000000b0: 0bc6 3f3d 2dbd f8bc d476 853b 69ff 183d
000000c0: 3613 5ebd 3eb0 69be 6acf 53bd 5857 30bd
000000d0: 4e9e 423d db03 ae3c 2d7d 16bd 916f f83d
000000e0: 67c5 3dbc 064e e2bc 8af8 92be a50a 8bbd
000000f0: a553 42bc d5e8 1dbd 65d8 70bc ebff 92bb
00000100: ffd7 dbbc cf9a 9f3c 12e0 a4bc 2b4e 17be
00000110: f2a5 6bbd c7c6 8abc 83fd 9a3c 73d4 a13c
00000120: 6a55 b03b fa0d ebbc d736 41bd 7302 1d3c
00000130: 314f e1bd d040 55bd 0909 763d 46d0 89bd
00000140: 680b b33b 215c c93c 4706 113d 552d 863c
00000150: 16db d93c 4166 a33b a171 833d 9b74 34bd
00000160: a2d5 2e3d 66af 263d 4b2d b03a d0f2 3fbc
00000170: b4d4 183c 607c 63bb b206 223e d75f 983c
00000180: 321f 1f3d 1290 fdbb bda8 ac3d bb7f 7abc
00000190: a8f4 2d3d da6e 34bc 3855 d6bc c998 7ebe
000001a0: cd59 d53c 6c96 48bd 0637 64bd 91b0 d3bc
000001b0: eede 633d 3e54 24bd 1ee4 783c 80c2 123e
000001c0: 64b5 51be 6edb 103e 32cc 7ebd b18a b83d
000001d0: 22b8 a2bd c9b4 56bc a055 94bb e194 483d
000001e0: 7490 30bb 23f5 5cbd e6da 1dbd 6c39 673c
000001f0: 5280 d73c 6db6 68bd ef2f 85bd 822a afbd
00000200: 9aa6 14bd 2801 cc3c 0677 f83d e8b4 38bd
00000210: e1ff 703c 78a7 953d b955 4f3d f96e 463b
00000220: e5e4 29bc cf79 fe3b 3e78 53ba d512 4abd
00000230: 0fe8 803b 20ed 2e3c 1cdc e6bb 94df a1bb
00000240: 3446 3ebe b7ae 09bc 3a45 283d cab1 ba3c
00000250: f74c 1bbe 8e03 aabc ca61 253d 512d a33c
00000260: 9adf 493d ec0d e23c 2980 2f3d 1c85 113d
00000270: 602d 91bd 6010 ea3b b770 7e3d c7c0 823c
00000280: a7f5 b4bc f8ac fd3b 25fc 04bd d45d 06bc
00000290: 63bc a4bc 177c 023d 163e 803e 8dd5 a4bd
000002a0: 4f06 55bc c0c8 b83c 804d fdbc fd86 823d
000002b0: 020f 40bd 4342 5abd d1b5 0b3d 74e7 c6bc
000002c0: d06a f3bc 225f 7f3d 79b1 12bd 823d acbc
000002d0: d536 4fbd 102c 8dbc 45a3 1ebc 989e b33c
000002e0: e463 0dbe c7f4 abbd d04e 87bd 48ee e93c
000002f0: e4b5 8dbd dbf2 92bc 2817 123b 009b a13c
00000300: 93ed 923d 236e 923e 1ac0 923d 61ef 3fbd
00000310: 451f 89bc a165 54bd 6671 723c 3624 d33c
00000320: 0a9e 613b 476c 213c 2f47 ae3c 8beb 333b
00000330: 2627 043d de5c b2bc e12e e4bc eecc 59bd
00000340: ff51 083d 571a 3b3d 0720 83bd b5db 843d
00000350: 65ae 8abd 1eeb 19bb 8ca3 bd3c 51df ec3c
00000360: 7153 933c 5ce7 2b3d ac93 a63d d297 56bc
00000370: 64e7 3fbd 6aeb 4dbd d0b6 143d f5c0 86bd
00000380: 33f3 b43d f304 03bd 3c17 18bd 31c7 f83b
00000390: 8f2a 38ba 01bd 613d 83e3 8cbd cb6f 94bd
000003a0: a5d8 a3ba b2d4 e63c 3b81 4b3a a7dc 843c
000003b0: 9611 25bd 01cd 15bc c162 393e 9649 feba
000003c0: 428c 3abd b161 6bbd 265a 273d 6741 933d
000003d0: 6a1e 013b e487 243d d6f5 073b b39b 503e
000003e0: 37ea 05bd 8630 653d a149 5b3d 195f 78bd
000003f0: fd4c 94bc 8e28 63bb 95ce 793c ce08 0ebd
0.118291415 0.006011605 -0.033056814 -0.057576235 -0.0480139 -0.03390574 0.13053419 -0.075813
0.039265767 0.036323216 -0.012565783 -0.012402062 -0.03491707 0.19394384 0.01889162 -0.019497477
0.06646954 -0.033872206 -0.03373576 0.09160102 0.0035036528 -0.044564303 -0.27782863 0.06169046
-0.09004808 0.029071044 -0.043671492 0.028329745 -0.011941208 -0.0018249695 0.088999614 -0.052787773
-0.03503733 0.0346117 0.008763915 0.05815364 0.05646743 0.004384368 -0.017985428 0.023466084
-0.17776859 0.07379986 -0.0028087168 -0.022265222 0.046819728 -0.030363644 0.0040730033 0.037352953
-0.05421754 -0.22821137 -0.051711477 -0.043052047 0.047514252 0.021242073 -0.03674047 0.121306546
-0.011582709 -0.027625095 -0.28705245 -0.0678914 -0.011860763 -0.038552124 -0.01470003 -0.004486074
-0.026836393 0.019482998 -0.020126376 -0.14775912 -0.057531305 -0.016940488 0.018919712 0.019754624
0.005381276 -0.028693188 -0.04717144 0.0095831035 -0.11001433 -0.052063763 0.06006721 -0.06729178
0.005464006 0.024580063 0.035406377 0.016379038 0.026593726 0.004986555 0.06418157 -0.044056516
0.042684205 0.040694617 0.0013441233 -0.011715606 0.009328056 -0.0034711584 0.15822867 0.018600387
0.03884811 -0.007738122 0.08430622 -0.015289242 0.04246965 -0.011012757 -0.026163682 -0.2486297
0.026043797 -0.04897158 -0.055716537 -0.02584103 0.055632524 -0.040119402 0.015191106 0.14332008
-0.20479351 0.14146206 -0.062206455 0.09010828 -0.07945277 -0.013104626 -0.004526809 0.048970107
-0.002694157 -0.053944718 -0.038538836 0.014112812 0.026306305 -0.0568146 -0.06503283 -0.085530296
-0.036291696 0.024902895 0.12132077 -0.0450944 0.014709444 0.07307333 0.05061886 0.0030278547
-0.010369514 0.0077659856 -0.0008066929 -0.049334366 0.0039339135 0.010676652 -0.007045282 -0.0049399827
-0.18581468 -0.008403472 0.041081645 0.022789855 -0.15166079 -0.020753648 0.040376462 0.01991907
0.04928551 0.02759453 0.042846832 0.035527334 -0.07088733 0.0071430653 0.062119212 0.015961064
-0.022089792 0.0077415667 -0.032467026 -0.008201081 -0.020109361 0.031856623 0.25047368 -0.08048544
-0.013001992 0.022556663 -0.030920744 0.06373403 -0.046889313 -0.05328585 0.03410894 -0.024280287
-0.029714018 0.062346585 -0.035813782 -0.021025423 -0.0505894 -0.017232925 -0.009682481 0.02192621
-0.13807636 -0.08396297 -0.06606829 0.028556004 -0.069194585 -0.017938068 0.0022291634 0.01972723
0.0717422 0.28599653 0.07165547 -0.04685915 -0.016738543 -0.051854733 0.014797544 0.025774103
0.0034426474 0.0098524755 0.021274177 0.0027453627 0.032263897 -0.021772798 -0.027854385 -0.05317395
0.033281323 0.045679417 -0.06402593 0.06487218 -0.06771544 -0.0023486088 0.023149274 0.02891508
0.017984124 0.04196869 0.08133635 -0.01309772 -0.04685153 -0.050273336 0.036307156 -0.065797724
0.08835449 -0.03198714 -0.037131533 0.007592105 -0.00070253847 0.05511189 -0.06879332 -0.07247885
-0.0012500478 0.028177593 0.0007763092 0.016218496 -0.040299974 -0.009143115 0.18104078 -0.0019400592
-0.045543917 -0.057466213 0.040857457 0.07190209 0.0019701966 0.040168658 0.0020745895 0.20371895
-0.032694068 0.05595448 0.053537015 -0.060637567 -0.018103117 -0.0034661624 0.015247007 -0.034676366

encoder.5.block.1.bias f4 [40]
00000000: 9682 7039 d2a2 683b e605 313a fad1 313b
00000010: 17dd f33a a861 b03a 406e d73a 5af7 e63a
00000020: e187 7738 62b6 cf3b 4910 803b 435e 653b
00000030: 8989 9e3a 9b30 d5bb 3527 b1b9 53ac 1c3b
00000040: 5e41 113b 1bd9 c13b e11d 803b 9978 9f3b
00000050: 4d3b 413b a1bb 83ba dbbe 85b9 8d23 a53b
00000060: fc1b a13a 82b3 d33a fd6b 153b 171b cb3a
00000070: 1063 da3a 5e13 af39 cf7b cd39 6a85 bf39
00000080: 9da4 ad3a 61dc 0d3b 7c23 a33b 2260 833b
00000090: e6b5 a13b 3d1d 2a3b aab0 143a 2fc7 e23a
0.0002293683 0.003549744 0.0006752893 0.0027133212 0.0018605319 0.0013456838 0.0016436055 0.0017621324
5.9015936e-05 0.0063388804 0.0039081913 0.0034998811 0.0012095432 -0.0065060384 -0.00033789282 0.0023906424
0.0022164206 0.0059157736 0.003909812 0.0048666713 0.002948481 -0.0010050425 -0.00025509935 0.0050396384
0.0012291665 0.001615152 0.0022799962 0.0015495744 0.0016661603 0.0003339303 0.00039192892 0.0003652976
0.0013247911 0.0021646249 0.0049785953 0.0040092627 0.004935014 0.0025957369 0.0005672077 0.0017301793

encoder.5.block.2.weight f4 [40]
00000000: 367a 703f ef98 903f 009e 8c3f 99cd 5d3f
00000010: f318 883f d6cc 7b3f eb09 6d3f db44 7e3f
00000020: f108 6e3f d3c6 983f 846f 593f 3493 653f
00000030: ed4f 853f fc9f 393f 4857 8a3f eda5 883f
00000040: f379 593f 2ae9 513f 8d8d 563f 7c2c a13f
00000050: fd21 7c3f 739f 843f 3ed2 803f 327d 913f
00000060: 63da 763f a898 613f 64d3 753f dcca 843f
00000070: 09d3 7d3f 6cab 803f 5439 8d3f 3484 343f
00000080: 06f1 823f 2fab 593f 7f37 6f3f 7d6b 833f
00000090: 63c3 4c3f e2c3 5a3f 73c6 5d3f db39 8a3f
0.9393648 1.1296672 1.0985718 0.8664184 1.0632614 0.9835943 0.9259326 0.99323815
0.92982394 1.1935676 0.84935784 0.8967774 1.0415016 0.7250974 1.0807886 1.0675637
0.84951705 0.81996405 0.8380974 1.25917 0.9848936 1.036116 1.0064161 1.1366332
0.9642698 0.8812356 0.9602568 1.0374408 0.9915014 1.0052314 1.103312 0.70514226
1.0229805 0.8502683 0.93444055 1.0267178 0.79985636 0.85455143 0.86630934 1.0798906

encoder.5.block.2.bias f4 [40]
00000000: 7c94 b03e 0da5 eabd 6664 a1be eec5 903e
00000010: 14aa 54be d651 9b3d 5752 2f3d 5a63 a5bd
00000020: 3ee2 38bd 992e 01be 0e92 443e 762f 593e
00000030: 8e36 8bbe 6cda 24be f918 17be 0bf3 b03e
00000040: 3189 ab3e 0497 9a3e e14f a53e 5a38 813e
00000050: ae27 22be 5ba0 873d 86f9 a43e 63a8 ae3d
00000060: 93a7 ffbd 74bc 403e 9f84 1c3f 0e9b fd3d
00000070: 4e88 3fbe c13a a3bd 0829 833e 7aa9 d4be
00000080: e08d e03d 2ded 503d b0ed cc3b c9f3 b93c
00000090: fe7d 8e3e 40ff 483e 6499 01be 1b37 403e
0.34488285 -0.11457262 -0.3152191 0.28276008 -0.20768005 0.07583968 0.042803135 -0.080755904
-0.045137636 -0.12615432 0.1919634 0.21209511 -0.2719006 -0.16098946 -0.1475562 0.34560427
0.33503106 0.3019334 0.32287505 0.25238305 -0.15835449 0.06622382 0.3222162 0.08528211
-0.12483134 0.18821889 0.61139864 0.1238309 -0.1870434 -0.07970191 0.25617242 -0.4153555
0.109645605 0.05100744 0.0062539205 0.022699254 0.278305 0.1962862 -0.1265617 0.18771021
