VQ-VAE/models/vqvae/model_18.pt (torch, 579012 bytes, 64 tensors)

encoder.0.weight f4 [40, 1, 4, 4]
000000 32 4e 4f 3d 19 a4 d7 3c 97 35 c0 bd e0 5f 23 bd
       0.050611682 0.026323365 -0.093852215 -0.039886355
000010 2a 57 c8 bd b4 9a 1e bd 72 92 92 bc 99 9e 8e bd
       -0.0978225 -0.038721755 -0.017892096 -0.06963844
000020 65 04 a2 bd d3 c5 02 bc 50 9f f9 bd 76 18 09 3d
       -0.079109944 -0.007981735 -0.121885896 0.033470593
000030 7f f2 8b ba 14 20 b1 bd cd 24 f3 3b 12 0b 27 3d
       -0.0010677128 -0.086486965 0.0074201585 0.04078204
000040 e8 3e f4 3c 51 ef 9a 3d 93 3a 57 bd 30 54 4a 3d
       0.029815152 0.07565177 -0.052546095 0.049396694
000050 21 0d 0a 3e a9 80 03 3e 69 bf 4b bc 4f aa 14 3d
       0.13481571 0.12842049 -0.012435772 0.03629523
000060 29 7c 9d 3d 06 45 c3 3d 63 17 8f bd bc 26 fc bc
       0.07689697 0.095346496 -0.069868825 -0.030780189
000070 4d 5c 78 3d a3 17 33 3d 81 e6 a2 bc 7e 2b af 3d
       0.0606349 0.043723714 -0.019885303 0.08553217
000080 f3 e1 89 3d e0 3f 9c 3d a6 a2 8a 3d d0 97 66 3d
       0.067325495 0.07629371 0.06769304 0.056297123
000090 63 74 2a 3d b7 7b ed 3c 84 db 92 3a d6 5c 9b 3d
       0.0416149 0.028989656 0.0011204337 0.075860664
0000a0 13 14 c9 3d 6f da 8e 3d 0c 5a 69 3c 37 84 61 3d
       0.09818282 0.06975257 0.01424266 0.05505773
0000b0 46 b0 4a 3d cd 65 2c 3d 09 d3 d4 3c 23 5e f3 3b
       0.049484514 0.042089272 0.025979536 0.0074269935
0000c0 09 90 4d 3c fb 40 bf 3d 29 c9 9e 3d 58 a3 0e 3d
       0.012546548 0.09338566 0.07753212 0.034823745
0000d0 62 8b b8 3d 88 07 3f 3d 91 7e 46 bc c0 77 99 bd
       0.0901096 0.04663804 -0.012115137 -0.074935436
0000e0 6b 61 d4 3d 82 12 c9 bc 7b ba 61 3a d9 fb 0d bd
       0.103701435 -0.024544958 0.00086108566 -0.03466401
0000f0 e1 88 90 3d 5e 91 7d 3d 65 76 c6 3c 24 63 27 3d
       0.070573576 0.06190621 0.024226377 0.040866032
000100 e3 7f 8b 3c 78 22 9e bb d5 53 cb 3b 77 86 4e 3d
       0.017028755 -0.0048258863 0.006205062 0.050421204
000110 d3 19 2d 3c 2f 46 1b bc e4 44 c1 3d 51 80 5c bc
       0.010565239 -0.009477182 0.09436968 -0.013458327
000120 b7 16 41 bd 13 40 f3 bc 08 df 46 3d 95 89 81 3d
       -0.047140803 -0.029693639 0.048552543 0.0632507
000130 57 fa 71 3d d2 08 8c bd 7a 6c 72 3d ca 41 09 3e
       0.059076633 -0.0683762 0.059185483 0.13404003
000140 2b 25 ab bd 2d 69 ae 3c 76 c4 91 bd 33 88 73 bc
       -0.083566986 0.021290386 -0.0711755 -0.014864015
000150 f0 96 bf bd 0f c2 5f bd 2b b8 e1 bd 56 6f eb 3c
       -0.09354961 -0.054628428 -0.110214554 0.028739613
000160 bc ad 8a bd cd 3b 1b bd e5 81 98 bd 24 a3 7d 3d
       -0.067714185 -0.037898827 -0.074466504 0.06192316
000170 c9 42 b4 bd db 49 4b bd 54 5a 66 3d 14 22 ea bc
       -0.08801801 -0.04963098 0.056238487 -0.028580703
000180 b9 4a 26 3c ea c5 a2 3d b7 9b 1f bd 67 16 0c 3c
       0.010149651 0.07947905 -0.03896686 0.008550263
000190 2a 9e 5b 3d 58 bd 7b bc 0d 8a 23 bd d1 27 41 bd
       0.053617634 -0.015364967 -0.039926577 -0.047157113
0001a0 ca b4 83 3d ee db 39 bd a2 1d 64 bd b0 f4 4b 3b
       0.06430967 -0.045375757 -0.055692323 0.0031121187
0001b0 f8 b0 9c bd 8f 2f 7d bd 8b 26 aa bc f7 4f 54 bd
       -0.076509416 -0.061812934 -0.020770332 -0.051834073
0001c0 c6 ce a7 bc 84 bb 0a bc 09 6c ef bd 09 b8 80 bd
       -0.02048434 -0.008467559 -0.11690528 -0.06285102
0001d0 41 17 0c bd 2c da 7d 3c 3c e8 a3 bd 7f d4 0b 3d
       -0.034201864 0.015493911 -0.080032796 0.0341382
0001e0 d0 a7 cd bd 40 d5 81 bd 78 29 09 3d 1e 6e 64 bd
       -0.10041773 -0.06339502 0.033486813 -0.05576908
0001f0 38 e5 78 bc 60 92 6a 3d 48 aa c2 bd ec ca 06 ba
       -0.015191369 0.0572685 -0.09505135 -0.0005141932
000200 ba 0f 15 bd 47 e9 33 ba 4b bf 18 bc bc f9 bf 3c
       -0.03639195 -0.0006863069 -0.009322952 0.023434512
000210 c9 2e 00 bd 3c 11 fe 3c a6 0e 9a 3d 44 91 e2 3c
       -0.031294618 0.031014077 0.07522325 0.027657159
000220 83 96 86 3d fc 32 ea 3d 75 9a 60 bd c0 cb c1 bb
       0.065716766 0.11435506 -0.0548348 -0.0059141815
000230 5e b5 05 3e 3b 36 90 3d 67 e7 f5 3b 5b bb 59 3d
       0.13057467 0.07041594 0.007504392 0.05315719
000240 74 35 15 3d df 9f 84 3c b8 bd 3f 3d 2f 2a 10 3d
       0.03642793 0.016189514 0.04681179 0.03519648
000250 93 c7 78 bd a1 d2 8d bd b4 7e bd bd c7 e4 12 3d
       -0.060737204 -0.0692494 -0.09252682 0.03586271
000260 f6 67 f8 bd 08 6e aa bd 72 fd f2 bc 05 67 ae bc
       -0.12129204 -0.08321768 -0.029661868 -0.021289358
000270 ea 3a 04 bd b6 5d a2 3d 93 30 8a 3b 0d 71 c6 3d
       -0.032282747 0.0792803 0.0042172163 0.096895315
000280 d6 18 66 3d f0 48 b9 3c 1b e3 35 bd 61 df 51 bd
       0.05617603 0.022617787 -0.044406038 -0.05123842
000290 91 b6 a2 3d 97 87 06 3c 42 33 32 bd 1d e6 27 bd
       0.07944978 0.008211038 -0.043505915 -0.040990938
0002a0 e5 7a 1b 3d f2 72 14 3d 47 30 e1 bc 7a 05 56 bd
       0.037959 0.036242433 -0.02748884 -0.052251317
0002b0 9e 90 74 3d 80 69 9e 3d 20 50 42 bd b8 be a4 bd
       0.05970823 0.07734966 -0.047439694 -0.08044189
0002c0 66 9d 85 bd 58 97 04 bb e0 cc e8 3b 0b f3 8e 38
       -0.06524162 -0.002023181 0.007104501 6.816358e-05
0002d0 85 ff 90 3c 8b 76 c1 bc 0f ff e3 bc 2d 19 a0 bd
       0.017699966 -0.023616096 -0.027831582 -0.07817302
0002e0 56 cb 26 bd 24 fe c1 bd 35 44 b6 bd f6 4c d8 bd
       -0.04072126 -0.094723016 -0.08899728 -0.10561554
0002f0 88 cd af bc c6 35 79 bd 49 8c a8 3c 29 4b 71 bd
       -0.02146031 -0.060842298 0.020574706 -0.05890957
000300 24 bc 63 3c ca bb 41 3d 9a fc 3f 3d a9 71 2a bd
       0.013899837 0.04729823 0.04687176 -0.0416123
000310 c6 aa cf 3c 91 03 c2 bd 7e 9c fa bc 3b 78 99 bd
       0.025349986 -0.094733365 -0.0305922 -0.07493635
000320 5c 25 34 bd d5 f7 58 bd 7a 53 0b 3c c6 7f 4d bd
       -0.04398094 -0.052970726 0.008503789 -0.050170682
000330 18 90 9f bd 4b 50 54 bc 3e 39 51 bd 19 c7 de bd
       -0.077911556 -0.012958596 -0.05107998 -0.108778186
000340 52 a8 c8 bd 44 d7 b3 bd 25 fa 1a bd 22 b6 b3 3c
       -0.097977296 -0.08781293 -0.037836213 0.021937434
000350 d2 fe 3d bd a2 b9 2b bd 42 91 f0 3a 95 ce d0 bd
       -0.046385594 -0.04192508 0.0018353837 -0.101956524
000360 b6 23 66 3d 74 d3 8e bd a6 c4 62 bd fb 32 bc bc
       0.0561864 -0.06973925 -0.05536332 -0.022973528
000370 93 75 7b 3d ab 1f e2 3c a8 cc 0c bc 40 9f 7e bc
       0.061391424 0.027602991 -0.008593716 -0.015540898
000380 0e 51 9c 3c 23 89 9c 3c f6 df 1b bc 43 8d 34 3c
       0.019081619 0.01910836 -0.009513846 0.011020008
000390 4a 0e 99 3c 5f da 48 bd d3 30 a8 3c 0e 83 6c 3c
       0.018683571 -0.04903638 0.020531094 0.014435543
0003a0 16 0f 6b 3d 65 8d 7e 3d 0d 8d f6 3d 23 d6 c8 3d
       0.057387434 0.062146563 0.12038622 0.09806468
0003b0 1a 93 19 3d 2c 60 b5 3d 0d 4f c7 3d 27 dc 32 3d
       0.037493803 0.08856234 0.097318746 0.043666985
0003c0 e7 1e 30 3c 38 bc b6 bd a4 da 8a 3c 68 71 3f bd
       0.010749555 -0.08922619 0.01694996 -0.046739012
0003d0 92 0d fa bc ba 70 d2 bc 31 6d 47 bd cf 24 26 bd
       -0.030524049 -0.025688518 -0.048688117 -0.040562447
0003e0 75 2e aa bd e6 31 6b bc 95 da 26 39 15 71 81 bd
       -0.08309642 -0.014355158 0.00015912422 -0.06320397
0003f0 4d b6 e7 3b 29 60 35 bd 71 79 5b bd 90 0b b3 3b
       0.0070712925 -0.04428116 -0.053582612 0.005464025

encoder.0.bias f4 [40]
000000 a7 64 37 bb e1 39 c3 ba 6c 69 03 bb 9a 1b 26 bb
       -0.0027983577 -0.0014894569 -0.002005185 -0.0025346042
000010 2d f6 40 bb ff 5e 3f 3a ba b7 09 3b 02 ea 04 3a
       -0.0029443607 0.00073002273 0.002101405 0.000507027
000020 ad 32 8a ba e0 fc 65 3b 6e 83 c8 3a d1 e9 90 ba
       -0.0010543667 0.0035093352 0.0015297958 -0.0011056011
000030 a1 0a d7 ba 94 82 2c 38 49 2c 90 b9 a0 c0 bf 3a
       -0.0016406366 4.1129606e-05 -0.00027498815 0.001462955
000040 dc 0f 28 ba 62 a7 d9 ba ca c8 c4 39 27 40 a4 3a
       -0.00064110546 -0.001660567 0.00037533633 0.0012531326
000050 97 74 88 bb 36 15 6c ba ee 21 72 ba 9d 4a 45 bb
       -0.004164289 -0.0009005846 -0.00092366233 -0.0030104287
000060 26 67 d5 3a 70 fc d5 b9 39 ef e5 3a e0 07 8f 39
       0.0016281351 -0.00040814606 0.0017542607 0.00027280953
000070 89 f6 31 38 a3 b8 92 3a 77 13 06 3b 18 7c 7a 3b
       4.2429692e-05 0.0011193942 0.002045838 0.0038220938
000080 9c b3 0a ba 23 64 32 bb a0 d0 7c 3b 04 0b b4 b9
       -0.0005291046 -0.002722033 0.0038576499 -0.00034340483
000090 28 aa 75 ba 3e cc 01 bb 85 27 da ba bb bf c3 b9
       -0.00093713636 -0.0019805576 -0.0016643858 -0.0003733615

encoder.1.weight f4 [40]
000000 97 d1 67 3f 53 9c 5f 3f 1a 53 6c 3f 08 65 5c 3f
       0.90554184 0.87347907 0.923143 0.8609166
000010 ad 25 57 3f 28 db 79 3f e3 b8 63 3f 28 3e 59 3f
       0.84041864 0.9760003 0.8895399 0.8486047
000020 ca d7 65 3f 2f f1 5d 3f f4 8c 68 3f a0 bc 66 3f
       0.8978239 0.8669614 0.9084008 0.9013157
000030 11 a1 77 3f fd a5 63 3f 65 43 6a 3f c5 9f 80 3f
       0.9673014 0.88925153 0.91509086 1.0048758
000040 2a ec 66 3f 93 34 75 3f fe 2a 62 3f 77 fa 7c 3f
       0.9020411 0.95783347 0.8834685 0.9881968
000050 77 79 60 3f e2 c9 67 3f 51 79 59 3f 1c 64 64 3f
       0.8768534 0.90542424 0.8495074 0.89215255
000060 d3 9d 51 3f a3 6c 67 3f de 30 5d 3f 54 e7 5a 3f
       0.81881446 0.9040014 0.8640269 0.8550923
000070 fe 7d 5b 3f be d1 71 3f e1 26 70 3f 68 ba 63 3f
       0.85739124 0.94460666 0.93809325 0.8895631
000080 f2 09 76 3f 2a 0e 6a 3f e2 cf 70 3f 90 f8 5a 3f
       0.96108925 0.9142786 0.94067204 0.85535526
000090 5b 7e 7b 3f b6 ca 82 3f 95 19 84 3f ce b6 65 3f
       0.9823968 1.0218112 1.0320307 0.8973206

encoder.1.bias f4 [40]
000000 c9 05 84 bc ef e8 d3 bc 89 85 c6 3c a9 95 5e 3d
       -0.01611604 -0.025867907 0.024233596 0.054341946
000010 7b c2 a4 bb 6e 02 85 bd 12 86 94 bd 00 4e 82 bd
       -0.0050280667 -0.06494604 -0.072521344 -0.063625336
000020 f5 b6 d9 3c 34 00 31 3d c1 b5 0d bc 0b 32 1f bd
       0.026576499 0.043213084 -0.008649291 -0.038866084
000030 aa ab b7 bd cb 7b 80 bd 94 65 ac 3d d2 b6 2a bd
       -0.08968289 -0.06273612 0.08417812 -0.041678257
000040 3f 49 c5 bc 9c a9 7f bd fc 1e 98 bd d7 44 56 bd
       -0.024082778 -0.06241761 -0.07427785 -0.052311745
000050 4c ca ac bc 6a 3c ee bc b7 c2 2c 3e e0 e4 03 bd
       -0.021092556 -0.029081542 0.16871153 -0.032200694
000060 4a fa ff 3d 8d fc d9 bc 76 82 48 3e 76 e9 16 3e
       0.12498911 -0.026609683 0.19581017 0.14737496
000070 b3 e4 96 bd f7 5f b1 3b ca b7 0b bd e1 12 8e bd
       -0.0736784 0.005413051 -0.03411082 -0.069371946
000080 98 a5 08 bd 6b 07 1c 3e 2d ef 19 bc 4e 41 31 bd
       -0.033361048 0.15237205 -0.009395403 -0.04327517
000090 fa 0a 89 bd 2d 70 fb bd 1b 09 b0 bd 79 34 1c bd
       -0.06691547 -0.12277255 -0.08595487 -0.03813598

encoder.1.running_mean f4 [40]
000000 bb 74 b3 3e 81 c3 d9 be e9 ac 06 bf 48 f2 ad be
       0.35049996 -0.4253197 -0.5260759 -0.33973908
000010 43 1c 7a be cd f4 d5 3e 57 16 29 3e 9e a8 b2 3e
       -0.24424843 0.4178833 0.16512428 0.3489427
000020 f4 06 a1 be c1 c1 0f 3e 66 af 16 3c 54 95 db 3e
       -0.31450617 0.14038755 0.009197092 0.42887366
000030 fe 3f ab 3e e7 0e 96 3e d8 c3 e3 be e5 e7 b0 3e
       0.3344726 0.29308245 -0.44485354 0.3455192
000040 5c 9a 8d be d2 42 03 3f 1a 30 bc 3e 5a 76 94 3e
       -0.2765683 0.51273835 0.3675545 0.28996545
000050 5d 90 82 be 68 41 80 3e 3a 76 53 be 99 d0 88 3e
       -0.25500765 0.250499 -0.20650569 0.26721647
000060 fd 8d 0f be 85 70 15 3e c4 47 3b be 1e 1b bb bd
       -0.14019008 0.14593704 -0.18289095 -0.091360316
000070 1f 4d 3a 3e 00 81 aa 3e 57 8e a8 3e c3 ac 91 3e
       0.18193482 0.33301544 0.32921097 0.2845212
000080 bf 5f 7e 3e dc dc 89 be 38 d3 7c 3e e3 66 73 be
       0.24841212 -0.26926315 0.24689949 -0.23769717
000090 eb a6 ee 3e 69 d2 b6 3e 8a ef c7 3e 2d 0f 2d 3e
       0.46611723 0.35707405 0.3904994 0.1690032

encoder.1.running_var f4 [40]
000000 82 a9 82 3d 51 f0 ac 3d d0 06 da 3d e4 e4 80 3d
       0.06379987 0.08444274 0.10645831 0.062936574
000010 9a a9 05 3d 53 63 b7 3d 26 a5 f6 3c bd ac 4f 3d
       0.032632448 0.089544915 0.030108046 0.050701845
000020 f4 b4 65 3d 4f 2f 14 3d bf 61 0b 3d f4 c7 9c 3d
       0.056080773 0.03617793 0.034028765 0.076553255
000030 6d ea 72 3d 22 66 27 3d 9c c7 ba 3d cd 6c 3c 3d
       0.059305597 0.040868886 0.09120104 0.046002198
000040 15 51 51 3d 8f b1 e5 3d 7a 99 74 3d 2a 58 3b 3d
       0.051102716 0.11215507 0.05971668 0.045738377
000050 19 7b 03 3d 61 cf 0d 3d 6b 61 a5 3c d5 20 57 3d
       0.032099817 0.0346216 0.020188054 0.052521545
000060 31 22 05 3d a8 97 2d 3d a6 5a 0a 3d 82 ea 03 3d
       0.03250331 0.04238096 0.033777855 0.032206066
000070 55 71 2f 3d 54 97 81 3d 1c a2 9c 3d fd b1 66 3d
       0.04283269 0.06327692 0.076481074 0.056322087
000080 1c 36 14 3d 86 98 23 3d 85 ea c2 3c de 37 49 3d
       0.036184415 0.03994038 0.023793468 0.049125545
000090 01 c2 e3 3d 4a 46 6d 3d 86 7d 7c 3d e1 52 ec 3c
       0.11120988 0.05792836 0.061643146 0.028848113

encoder.3.weight f4 [40, 40, 4, 4]
000000 3d ba 22 bc 33 39 c6 bc 76 33 4e bb 59 99 34 bd
       -0.009932098 -0.024197197 -0.0031463779 -0.044091556
000010 35 2d 73 38 32 d3 08 bd 60 76 47 bd ef 82 f7 ba
       5.7977817e-05 -0.033404537 -0.048696876 -0.0018883626
000020 64 7b b0 3c ac 1e 22 3d e2 68 11 bd 56 77 9f 3c
       0.021543212 0.039580032 -0.035500415 0.019466083
000030 fc 4c 3e 3d 46 40 23 3d e1 e3 26 3c 8d c5 26 3b
       0.046460137 0.039856218 0.0101861665 0.002544734
000040 66 f9 bb bc bd 78 06 bc 68 59 46 3d 1e 70 15 bd
       -0.02294607 -0.008207497 0.04842511 -0.036483876
000050 3d 70 a6 bc 17 7b 2f bd 1a ca 0b 3d 1c f1 55 3d
       -0.020317191 -0.042841997 0.034128286 0.052231893
000060 ca 51 21 3d f2 21 19 3a 40 ac 63 bc 6c b2 89 3d
       0.03938464 0.0005841545 -0.013896048 0.067234844
000070 b9 de 22 3b a3 68 6c 3b 04 f1 71 3d b4 94 86 bc
       0.0024851991 0.003607311 0.05906774 -0.016428329
000080 8f f2 0d bd b8 07 dd bc 0b 50 53 bc 7b 17 23 bd
       -0.03465515 -0.02698122 -0.012897502 -0.039817315
000090 ef eb 48 3c cf 34 89 bd 40 a7 7f bd 38 35 d7 bc
       0.012263282 -0.066995256 -0.06241536 -0.026270494
0000a0 08 ce f4 3c de 46 20 bc a5 2a 94 bd f6 3e 36 3c
       0.0298834 -0.009782521 -0.07234696 0.0111234095
0000b0 d7 56 a1 3d bb a5 45 bd ba b5 1f bc 51 8f 46 bb
       0.078778915 -0.048253756 -0.009747917 -0.0030297826
0000c0 66 81 2c 3d 15 8c 53 bd 67 a0 fa bc 9a b1 eb 3c
       0.04211559 -0.051647265 -0.030594064 0.02877121
0000d0 85 72 51 3c 67 75 3e bd 1c 26 c2 bc 53 a3 56 bc
       0.012783651 -0.046498682 -0.023699813 -0.013100463
0000e0 76 77 0b 3d 8a 5f 24 bd 30 f2 cd 3c 13 8a 53 3d
       0.034049474 -0.040130176 0.025139898 0.05164535
0000f0 97 59 81 bc d7 fe 46 3d 61 80 39 bd 4c 82 f5 bc
       -0.01578979 0.048582878 -0.045288447 -0.029969357
000100 c8 f2 f9 3c 03 fb a9 3b 53 e8 c8 bc b6 27 59 3c
       0.030511275 0.0051873936 -0.024524843 0.013254097
000110 6c c5 29 3d ae 88 ec bb e3 a7 01 3c 43 1d 2f bc
       0.04144804 -0.007218442 0.0079135625 -0.010688129
000120 f4 5d 48 bd d0 d4 80 3d 4b f8 cf bb 78 50 e3 3c
       -0.048917726 0.06290591 -0.0063467375 0.027748331
000130 22 6b 37 bd 41 03 b9 3b 68 44 48 3c 2d 5d 16 bc
       -0.044779904 0.00564614 0.012223341 -0.009177488
000140 b3 61 da bc d9 40 de 3c d6 5a ed bb 10 53 24 3b
       -0.026657915 0.027130531 -0.0072434945 0.0025073923
000150 c7 35 64 bd 5a da 48 3c 77 63 14 3d be 0c e3 bc
       -0.05571535 0.01225909 0.03622767 -0.027716037
000160 c6 0f 42 bd 4b 8c 8d 3d 35 9e 54 bd 9b a9 94 bd
       -0.047378324 0.069115244 -0.05190869 -0.07258912
000170 d0 e6 18 3d 3f 93 61 3d ec cc 17 bd 3f c0 86 bb
       0.037329495 0.055072065 -0.037060663 -0.004112273
000180 4c 3b 1b 3d 5f 58 e0 3c 5c 34 b6 3b 14 88 81 3c
       0.037898347 0.027385889 0.005560441 0.015811957
000190 6d 3b 0d bd 19 7a 22 bd e9 5d 4e bd df ea 55 3d
       -0.0344805 -0.039667223 -0.05038253 0.052225944
0001a0 4f 03 47 3c f4 3b 7c 3d da 72 8f 3d 98 46 0d 3d
       0.012146785 0.061580613 0.07004328 0.03449115
0001b0 fd 1f 30 3d 14 bc 79 3b 3f df b6 bc 41 21 eb bc
       0.042999256 0.0038106488 -0.022323249 -0.02870238
0001c0 a2 2a b8 3c 94 63 25 3d 1d 43 36 3d 4a 37 36 bd
       0.022481266 0.04037817 0.044497598 -0.04448632
0001d0 c9 e9 41 3c ea ff f4 bc cd ee 08 3d c0 09 0f 3d
       0.011835524 -0.029907186 0.033430863 0.034921408
0001e0 66 f2 bf bb 25 8f e0 bc f4 c3 d9 bb ce 8d b8 bc
       -0.0058577536 -0.027412007 -0.006645674 -0.022528555
0001f0 2f f6 3c bd 8a 0b 05 3d 07 28 cf 3c d6 0a ec bc
       -0.046133216 0.032481708 0.025287641 -0.02881376
000200 40 2c e2 bb bc 06 98 bd a4 d5 cb bc 9c 71 11 bc
       -0.0069022477 -0.074231595 -0.024882145 -0.008877184
000210 7f 90 4e 3d f5 45 02 bd 2b ea 99 3c d2 3e c7 bc
       0.05043077 -0.031804997 0.018788418 -0.024321947
000220 94 bf d4 3b 27 9f 41 bb 43 ea 09 3d 04 c1 97 bc
       0.0064925645 -0.0029544325 0.033670675 -0.018524654
000230 6f 98 66 bc 30 39 2f 3d 96 a7 72 3c 51 45 f4 bb
       -0.014074429 0.042779148 0.014810463 -0.007454552
000240 a0 95 bd 3c ed 8a 53 3c e0 d4 c7 bb 98 8d 28 3c
       0.023142636 0.01291154 -0.0060983747 0.010287665
000250 5e 74 52 3c ce f1 0a 3d a3 28 21 bd 87 3c 7e bb
       0.012845127 0.03392201 -0.039345395 -0.0038793401
000260 75 42 f7 3c cc aa af 3c 58 6a cb 3c f6 c2 38 3d
       0.030183056 0.021443747 0.024830982 0.045107804
000270 4a 95 8f 3c fe e7 15 bd cf cc 0c 3d 62 2a 97 3b
       0.017527241 -0.036598198 0.03437501 0.0046132067
000280 02 15 32 3b cc 6e 36 3b 03 ce 3e 3d ec 4e 9f 3c
       0.0027173166 0.0027837036 0.046583187 0.019446813
000290 19 98 49 bd 39 7a f0 3d 48 a2 8f 3c b6 e0 8f bd
       -0.049217317 0.11742062 0.017533436 -0.07025282
0002a0 92 86 42 bd fe 82 72 3d 0e 75 8a 3d 73 a3 2e bc
       -0.047491618 0.059206955 0.06760608 -0.0106590865
0002b0 97 a2 53 3d 74 64 4e 3d f9 5e a8 3c 7e 5a 94 3c
       0.05166873 0.05038877 0.020553099 0.018109556
0002c0 bf d2 45 bd c5 a9 a1 3b 48 af 9f 3c f2 b0 93 3d
       -0.048296686 0.004933568 0.01949276 0.07211484
0002d0 f4 8d 96 3c eb 37 86 bc f2 fb 3f bd 51 c7 d2 3c
       0.018378235 -0.016384086 -0.046871133 0.025729807
0002e0 f2 44 b1 bc dc c9 2b bd 42 f2 0a 3d 32 b5 38 bc
       -0.021639321 -0.041940555 0.03392244 -0.011273669
0002f0 57 93 58 bd 3d e5 08 bc 80 04 34 3c 83 42 50 3d
       -0.05287489 -0.008355436 0.010987401 0.05084468
000300 9b ba fe bc d7 c0 3c 3d 05 e9 30 bc dc 94 3b bd
       -0.03109484 0.046082344 -0.010797744 -0.04579626
000310 fe 86 1e bd 98 42 32 bd 37 49 1a 3d a2 f1 94 ba
       -0.038702957 -0.04352054 0.03766748 -0.0011363516
000320 0f 97 18 bd bd f0 70 bc ef da 7e bc 6f 42 6f 3c
       -0.037253436 -0.014705834 -0.0155551275 0.014603241
000330 ae 55 fc 3c 5b 75 32 3c 48 9b d2 3c 2c 49 1d bd
       0.030802574 0.010892238 0.02570881 -0.03839986
000340 ca 01 5f bd 06 34 d0 bc 97 aa 54 3c 15 0c a4 3c
       -0.054445066 -0.025415432 0.012980125 0.020025292
000350 27 ba 8b 3d e2 6c c4 3d e5 79 17 bd 9c 63 20 bc
       0.06822615 0.0959108 -0.036981482 -0.009789374
000360 4f 2d 4b 3d 59 fe 6a 3b a7 4d 5a 3c 99 6c 4c 3c
       0.049603757 0.003585717 0.013324178 0.012477064
000370 70 58 25 3d 04 af 40 bc 0b cd 7b bb c3 ad 5d 3c
       0.040367544 -0.011760477 -0.0038421776 0.013530198
000380 d5 fe 04 3d c3 18 05 bd ed 84 13 3d 56 33 43 3d
       0.03246959 -0.032494318 0.03601544 0.04765638
000390 5d 79 e7 3c 80 1c 8a bd d7 74 bb bc f6 5a 52 3d
       0.028256113 -0.06743717 -0.022882862 0.05135628
0003a0 96 98 3f 3d d1 d7 8c b9 11 fb b4 3c fa 59 17 3d
       0.046776377 -0.00026863677 0.022092374 0.036951043
0003b0 ec 5b c6 3c 1e 9a 56 3d 74 e1 f9 bc 3f 7c 7e bc
       0.024213754 0.05239307 -0.030503012 -0.015532552
0003c0 d6 fd 08 3d a4 3d 85 bd 32 34 9c bc 16 39 c2 3c
       0.0334452 -0.06505898 -0.019067857 0.023708861
0003d0 3e 92 2a 3c 6b ad 4b bd bd 21 19 3d 3b 21 46 bc
       0.010410843 -0.04972593 0.03738569 -0.012092884
0003e0 16 50 92 3d cd 1e 33 3a 98 d1 28 bd 68 cb 80 3c
       0.071441814 0.0006832898 -0.04121551 0.015721992
0003f0 f7 a1 04 3d 06 07 0c bc 68 92 a5 3c 18 6f 41 bd
       0.032381024 -0.008546596 0.020211414 -0.047225088

encoder.3.bias f4 [40]
000000 d1 c2 a3 3c ef e4 e4 3c 2b d0 21 bc e2 11 7b bc
       0.019990357 0.027941195 -0.009876291 -0.015324088
000010 1d d1 4a 3d 22 4f 8b bb 73 60 cb 3d 28 5d 67 bc
       0.049515832 -0.0042513767 0.099305056 -0.014121331
000020 40 b9 df 3b 53 f1 bf bb fd 63 f3 3b f7 27 47 3b
       0.0068275034 -0.0058576255 0.007427691 0.003038881
000030 12 3c 68 bc 86 75 c0 3b 08 3b e1 3a 8a 73 8f 3c
       -0.014174478 0.005873385 0.001718373 0.017511148
000040 fd c1 cf bb 23 76 5c bc 4d 39 6f bc 12 d9 8d bc
       -0.006340264 -0.0134559 -0.014601064 -0.017315421
000050 1b 8d da bb 02 ed 20 ba 20 06 be 3d f6 3a d7 bb
       -0.006669653 -0.00061388325 0.09278512 -0.006568308
000060 c1 16 da bc 5d ce f3 3b 1f 18 b4 3b 29 72 81 bb
       -0.026622178 0.007440372 0.0054960395 -0.0039503765
000070 04 d6 6f 3c 89 a8 03 3c 3a 0c 62 bc be 16 47 bc
       0.014638428 0.008035787 -0.01379686 -0.012151418
000080 b4 5b 0b bd 6b 57 f4 bb ee c5 7f bc 42 46 17 bc
       -0.034023 -0.00745671 -0.015611155 -0.009233059
000090 b2 a7 30 bc 45 1d 14 bc d3 6c 92 bb 3d 55 c3 bb
       -0.010782169 -0.0090401815 -0.0044685393 -0.005961089

encoder.4.block.1.weight f4 [40, 40, 3, 3]
000000 08 9d 8f 3c 8a 27 4d bd 8a 31 25 bd 66 09 53 bd
       0.017530933 -0.050086536 -0.040330447 -0.051522635
000010 8a b7 cd bd ef da c5 bd 9a 64 85 bd 7a 95 a8 bd
       -0.10044773 -0.09660899 -0.06513329 -0.082316354
000020 53 67 5c bd 97 8c 93 bc 88 22 11 bb 86 41 d1 3d
       -0.053809475 -0.018011374 -0.0022145826 0.10217576
000030 f5 82 6f 3d 01 66 84 38 ab f6 bf bd 00 6e fa bc
       0.0584745 6.31325e-05 -0.0937322 -0.03057003
000040 36 3b 88 3d 6d 13 65 3d 7a 96 9b 3b 75 ef 06 3d
       0.066519186 0.05592673 0.004748163 0.032943208
000050 0e 47 91 3d 5c b9 91 3d fa 3f a1 3d a4 20 b9 bc
       0.07093631 0.071154326 0.07873531 -0.022598572
000060 a5 b9 ba 3b db c7 1e 3d d9 35 8a 3d 4e 2f b1 bc
       0.0056984 0.038764816 0.06748552 -0.021629002
000070 3a f0 ac 3c f1 44 8c 3d a7 90 8d bd 6b 40 f4 bc
       0.021110643 0.06849087 -0.06912356 -0.029815873
000080 e8 f5 ab bd 5a 8e 6b bd 52 11 23 3d 76 43 70 bd
       -0.08396512 -0.057508804 0.03981144 -0.058658086
000090 92 1f 85 bd d2 b6 85 bc 4d 70 22 3d 28 a2 02 3e
       -0.06500162 -0.016322527 0.03965788 0.1275717
0000a0 02 12 e7 3c b6 a7 bd bd e1 74 53 3c 3e b1 f7 3c
       0.028206829 -0.09260504 0.012906284 0.030235883
0000b0 5f 83 7f bb 16 36 89 bb c5 cc 3a bd cc da 0b 3d
       -0.0038988215 -0.0041873557 -0.04560544 0.034144208
0000c0 3d 4a 15 3e 6c 00 35 3d 9d 7c 40 bc 26 08 9b 3d
       0.14579101 0.044189855 -0.01174846 0.075699136
0000d0 73 c5 2c bd 41 dc 5c bd c6 37 e8 bb 70 73 b4 3d
       -0.04218049 -0.053920988 -0.007086727 0.088110805
0000e0 91 d9 84 3c e8 d3 85 3d 00 47 a6 3d f1 f2 68 bd
       0.016217025 0.065345585 0.08119011 -0.056872312
0000f0 ca c2 ec bb 79 a4 54 3d 25 19 33 3c d5 7e 8d bd
       -0.007225369 0.051914666 0.010931288 -0.06908957
000100 41 ed 78 bc ad 4b 74 3d cd 2a 84 bd 0b 51 5c 3d
       -0.0151932845 0.059642483 -0.06453476 0.053788226
000110 88 80 8c bb 20 d9 ee 3a 85 9c a9 bd c5 70 7a bd
       -0.004287783 0.0018222667 -0.08281807 -0.0611427
000120 54 74 e1 bc fb 57 f2 bc a4 2f 42 bd d1 90 e3 3c
       -0.02752129 -0.029582968 -0.047408715 0.027779015
000130 ee 69 50 3d a1 69 0b bc ed 99 59 bd 24 d9 97 bd
       0.050882272 -0.008509071 -0.05312531 -0.07414463
000140 72 a9 b6 3c 5a 0e 83 3d 2e 16 de bc d6 86 a2 bc
       0.022297595 0.06399222 -0.027110185 -0.019839685
000150 f0 cd 7f 3d 6f f6 c8 3d 9c d8 e7 bd 71 50 de bd
       0.062452257 0.098126285 -0.11320612 -0.10855187
000160 38 0a 29 3d 92 5a bc bc 07 73 47 3d da 89 15 bd
       0.04126951 -0.022992406 0.048693683 -0.03650842
000170 73 3c 46 bd 2c b8 20 bd 94 b0 5a bd a8 86 16 3d
       -0.048397493 -0.03923814 -0.053391054 0.036749512
000180 88 e7 ef 3c 54 e2 b8 bc 9b 09 11 bd 7d 2a 0b bd
       0.029285207 -0.02256886 -0.03540955 -0.033976067
000190 39 3c 42 bb 48 da fd bc 80 7d 82 3d ff fc ab 3d
       -0.0029637946 -0.030987874 0.063715935 0.083978646
0001a0 d8 54 70 3b ea c3 be bc 0d 11 75 bd 02 2c de bc
       0.0036671665 -0.023286778 -0.059830714 -0.027120594
0001b0 a1 56 1c bd 04 c6 8b 3d 22 17 32 bd af 6c ad bd
       -0.038168553 0.06824878 -0.043479092 -0.084679954
0001c0 3e af eb 3c 39 22 13 3a d4 1f dc bd 3a 97 07 bd
       0.028770085 0.00056127046 -0.10748258 -0.033103205
0001d0 af ca fb bc 62 48 06 3d bf 0f c0 3b 6d 6f 76 bd
       -0.030736296 0.032783873 0.005861252 -0.060164858
0001e0 12 e3 c5 3c d0 c7 84 bd 23 6c 0e bd 31 a8 7c 3c
       0.024156127 -0.06483424 -0.034771096 0.015420959
0001f0 12 4c 34 bd 3f 90 3b 3d 4a e2 3c bc 98 0a 2e 3d
       -0.04401786 0.04579186 -0.011528561 0.04249057
000200 13 88 68 bd 17 59 4c 3e 11 c6 ad bd aa f2 4a bb
       -0.056770395 0.1995586 -0.08485044 -0.0030967393
000210 e5 01 3b 3c 1f c4 58 3d e6 9c e4 bd 5a 63 f2 3b
       0.011414026 0.05292141 -0.111627385 0.0073970975
000220 00 d0 09 3d 3c 67 3c 3d ac 3e 06 3d 4b 50 21 3c
       0.03364563 0.04599689 0.032774612 0.0098458035
000230 ad c8 d6 3c 80 c2 d2 bb 27 63 33 3c 93 95 5c bd
       0.026218737 -0.0064318776 0.010948933 -0.053853583
000240 99 81 da bc 16 9c 68 bd a7 fa b0 bd 83 0e a1 3d
       -0.026673125 -0.05678948 -0.08641558 0.07864096
000250 16 72 4f bd ef d9 fd 3c 58 e7 8e bd 55 37 1c bd
       -0.05064591 0.030987708 -0.06977719 -0.038138706
000260 f5 d9 63 3c d9 0a 9e 3d f7 40 09 3d 8e a8 ca bb
       0.0139069455 0.07716913 0.03350922 -0.006184644
000270 50 b0 a9 bc 6f 93 89 bd 5b a9 09 bd a3 c2 37 bd
       -0.020713955 -0.06717574 -0.033608776 -0.044863354
000280 9f 11 40 3d 95 e9 69 3c e2 ee 90 3d 47 bc ba 3c
       0.046891805 0.014276882 0.07076813 0.022794856
000290 ae 4f 80 bd 95 aa 8e 3d 02 03 08 bb d7 75 dd 3a
       -0.06265198 0.0696613 -0.0020753746 0.0016896081
0002a0 0d cb ba 3d 1b 8f 86 bd 01 fe 63 3c c5 d9 81 3d
       0.0912076 -0.06570264 0.01391554 0.06340364
0002b0 b2 4e c9 bb f9 dc eb bc 82 22 9a bd 8c 3f b7 bc
       -0.0061434144 -0.028791891 -0.07526113 -0.022369169
0002c0 e0 e2 41 3d 9c 42 2a be d0 f4 23 bd 09 03 32 bd
       0.047335505 -0.16626972 -0.040028393 -0.043459926
0002d0 a9 8a 61 bc d5 3a a0 3d 91 b6 b0 3a 5a f9 61 3d
       -0.013765969 0.07823721 0.0013482143 0.05516944
0002e0 91 35 98 bd 5e 40 85 bc b3 75 ff bc c2 5d 8b 3d
       -0.07432092 -0.016266044 -0.031184053 0.06804992
0002f0 f7 da a7 3d e6 fe fa bc a3 dc 5e 3d 38 ae c4 bd
       0.08196061 -0.030639123 0.054409634 -0.09603542
000300 ab 1e 87 3b e9 de 98 3b d2 66 79 bd a7 32 65 bd
       0.004123529 0.004665245 -0.060889073 -0.05595651
000310 12 c1 c8 3d 4e 99 0e bc 5c ae 28 3c fa be 07 bc
       0.0980245 -0.008703543 0.010295477 -0.008285278
000320 b9 49 27 3d 1a 38 ef bc 1f 09 3d 3d fb 57 52 bd
       0.04084179 -0.029201556 0.046151277 -0.051353436
000330 d1 0e c2 bc c3 c4 be bd 4f 8a 6d b9 ec f9 33 3d
       -0.023688706 -0.09314873 -0.00022653605 0.043939516
000340 a5 3d 50 3d 8e d0 c1 bd 1c 05 45 bc 0a 05 9e bd
       0.05084004 -0.09463607 -0.012025144 -0.07715805
000350 20 39 28 bb 22 8e 29 bc e0 c9 69 bc 21 db 73 3d
       -0.0025668815 -0.0103488285 -0.014269322 0.05953515
000360 20 82 66 3d ab e1 32 bd 0d 11 ca 3c be c4 92 3d
       0.05627644 -0.043672245 0.024666334 0.07166432
000370 47 7b 0e 3e 94 9e 96 3c 74 ab cb 3c 38 07 92 3c
       0.13914214 0.018386163 0.024862029 0.017825708
000380 88 6a ae 3d e0 a8 c4 bb 0d 71 ab 3a ff a9 fa bc
       0.08516413 -0.006001577 0.0013079956 -0.030598639
000390 cf 39 04 be a5 10 21 3e c6 c3 c9 3c b8 4c 7b 3d
       -0.12912677 0.15729006 0.024629485 0.06135246
0003a0 74 75 c6 3c b3 e8 af 3b fe dd 42 3c a1 87 a4 3d
       0.024225928 0.005368316 0.011893747 0.08033682
0003b0 7e e2 45 3d e2 cd 09 3d d8 d8 a9 3d 0b c9 fb 3c
       0.048311703 0.03364361 0.08293313 0.030735513
0003c0 bc 1b 0c bd 9e 1b 8d bd 8f 2c 30 bd 8e f2 6f bd
       -0.034206137 -0.06890033 -0.043011244 -0.058580928
0003d0 a1 17 b2 bc d0 b7 36 bd 3c bb bc 3d 3d 8e 58 bb
       -0.021739783 -0.04460889 0.092153996 -0.0033043765
0003e0 b2 bc 63 3d f5 ca 01 bc 5e c1 9a b9 af 7b d7 bd
       0.055599876 -0.007921924 -0.0002951724 -0.10521638
0003f0 e5 2f 34 3d 00 ca c9 3a 4c 68 ec 3d 87 ca 17 3c
       0.04399099 0.0015395284 0.115433306 0.009264595

encoder.4.block.1.bias f4 [40]
000000 04 52 36 3b a6 5f ac bb ea 6a e0 b9 9d b7 04 3a
       0.0027819881 -0.0052604256 -0.00042804267 0.0005062761
000010 3b f5 fa b9 29 e3 30 3b 05 ea ba 3a 6c e6 e1 39
       -0.00047866427 0.0026990867 0.0014260417 0.00043087022
000020 86 74 37 3a 4f 37 79 ba 48 9e 97 3b a1 27 09 3c
       0.00069982593 -0.0009506838 0.004627023 0.008371265
000030 cc 54 b5 b9 b8 c5 e2 3a ca f0 c7 b9 0d 5a 9b 3a
       -0.0003458619 0.0017301356 -0.0003813564 0.0011852399
000040 14 cc fc ba b1 dc bf ba bb b9 0a 3a 23 24 a8 3a
       -0.0019286894 -0.0014637915 0.0005291958 0.0012828152
000050 61 c2 63 b9 8a 4d a2 38 6a 8f f5 b9 3c 18 0e bb
       -0.00021720819 7.739205e-05 -0.00046836893 -0.0021681925
000060 7e d3 64 3b 2a f9 16 ba ae b5 90 3a 73 c7 ab 3b
       0.0034916098 -0.0005759174 0.0011040473 0.005242282
000070 1a 54 84 38 00 c6 33 3a ec a8 d6 3a e1 70 d8 3a
       6.3099156e-05 0.00068578124 0.0016377247 0.0016513133
000080 27 b0 c7 3a 3e fe 15 3b 2c 3d be b9 97 5b 9a 3b
       0.0015234993 0.0022887136 -0.000362852 0.0047106254
000090 da 79 4c bb e3 f5 aa 39 12 39 4e 39 07 bf 2c 3b
       -0.003120056 0.00032608127 0.00019666951 0.0026358978

encoder.4.block.2.weight f4 [40]
000000 3a 63 8b 3f cb d3 6f 3f 97 16 6e 3f 54 74 73 3f
       1.0889657 0.93682545 0.9300322 0.9509938
000010 f8 51 6c 3f f1 84 73 3f 26 35 76 3f d1 fc 72 3f
       0.92312574 0.9512473 0.9617485 0.9491702
000020 ee dc 68 3f 84 2b 58 3f 36 31 82 3f 6a d4 7b 3f
       0.9096211 0.844414 1.0171268 0.98370993
000030 ae 2c 7a 3f e2 be 95 3f 16 98 88 3f 3d fa 84 3f
       0.97724426 1.1698878 1.0671413 1.0388867
000040 30 a4 83 3f fb 3a 60 3f 50 67 7a 3f 1c 70 87 3f
       1.0284481 0.8759 0.9781389 1.0581088
000050 5f dc 76 3f 5a 43 8c 3f e9 69 52 3f 3e 6d 79 3f
       0.9643001 1.0958054 0.82192856 0.97432315
000060 4a 96 5f 3f 5c d3 70 3f d9 3d 94 3f 8a 16 86 3f
       0.873387 0.9407251 1.1581374 1.0475628
000070 04 6d 86 3f 8a 85 89 3f 2b 12 8e 3f 97 cd 89 3f
       1.0502019 1.0743878 1.1099294 1.0765866
000080 de ba 77 3f 90 60 91 3f 92 64 7c 3f 40 79 87 3f
       0.9676951 1.1357594 0.9859096 1.0583878
000090 a8 c7 6d 3f c6 21 5e 3f a8 a7 87 3f 7e 57 6c 3f
       0.92882776 0.86770284 1.059804 0.92321

encoder.4.block.2.bias f4 [40]
000000 1b 3e 26 3e 92 8d e0 bd c6 a3 0d be 65 ec 69 3d
       0.16234629 -0.109645024 -0.13832006 0.05711021
000010 00 cc 1b 3e 94 e9 73 3e 2c c7 ef 3d b4 d3 81 3d
       0.15214539 0.23819572 0.11707911 0.06339207
000020 9a 6b a7 3c 4c 72 d7 bd 16 83 ca 3d 7a 54 a4 3e
       0.02043705 -0.10519847 0.09888284 0.320957
000030 12 43 21 3e 05 a8 b7 3e 84 0a b3 3e 64 7c 8b bd
       0.15748242 0.35870376 0.3496896 -0.06810835
000040 d0 0d 97 bc 79 6a 83 bc 7b 02 2f 3e 27 95 97 3e
       -0.018439204 -0.016041981 0.1709079 0.29605982
000050 c7 c6 27 be f6 f6 65 bd 63 1b 26 bc 83 12 93 bd
       -0.16384421 -0.056143723 -0.010138365 -0.07181265
000060 20 de 00 3e f4 97 bf bd 8e de 5a 3e a5 1d cc 3d
       0.12584734 -0.09355155 0.2137396 0.09966592
000070 da 43 3c 3e 9d 39 2a 3d 03 e0 83 3e 07 db 7d 3e
       0.18385258 0.04155885 0.25756845 0.24790584
000080 28 e2 96 3c c9 0e bc 3e 81 af 3a 3e 3e ef 13 3c
       0.018418387 0.3673003 0.18231012 0.009029208
000090 78 10 36 bd 30 a0 7a bd ab b3 08 3d 33 9d ce 3d
       -0.0444493 -0.061187923 0.03337447 0.10088577

encoder.4.block.2.running_mean f4 [40]
000000 4d ad eb 3e 5e e1 3d bf c8 c3 7d bf e5 c2 d0 be
       0.46030656 -0.7417201 -0.99126863 -0.40773693
000010 6a e6 74 3f d2 e6 7c 3f c8 27 4c 3f eb 47 85 3d
       0.95664084 0.98789704 0.797482 0.06507858
000020 24 ae 41 3f a5 fd 45 bf 48 df 48 3f 13 7a a8 3e
       0.7565634 -0.77340156 0.784657 0.32905635
000030 d2 b7 24 3f bf 97 16 3f 7a ee f5 3e d5 e5 6c bf
       0.6434299 0.58825296 0.48033506 -0.92538196
000040 a4 63 9a bf 4a f9 c0 bd 2d f6 3a 3f f1 b2 9f 3e
       -1.2061658 -0.09422548 0.73031884 0.3119121
000050 5e ea 40 bd 15 bf a1 bf 7e 18 3a bd 0d bd bd be
       -0.04709851 -1.2636439 -0.045433514 -0.37058297
000060 58 46 4d 3f 8b 19 66 bf aa c0 5c 3f 93 cf f9 3e
       0.8018546 -0.89882725 0.8623148 0.4879118
000070 4a 34 70 3e 59 f3 b2 bf 1e 88 51 3f e7 4f 88 3f
       0.23457447 -1.3980514 0.81848323 1.0649384
000080 af ac 87 bf a9 a7 80 3e 86 c4 4e 3f a3 14 7d bf
       -1.0599574 0.25127915 0.8076862 -0.98859614
000090 c2 1d 39 bf 4e 91 9d bf dc d7 03 bf 55 fa cf 3e
       -0.7231103 -1.2309968 -0.5150125 0.40620676

encoder.4.block.2.running_var f4 [40]
000000 ec 8a 01 3f f1 c0 6b 3f 4c 51 93 3f 70 c9 d7 3e
       0.506026 0.9209128 1.1509185 0.42145872
000010 3e 80 8e 3f 0a 8a 84 3f 21 4d 50 3f ac fb 69 3e
       1.1132886 1.0354626 0.8136769 0.22849911
000020 db 97 4c 3f 52 29 9b 3f 0f 9c 3f 3f 68 eb f6 3e
       0.79919213 1.2121985 0.748475 0.48226476
000030 97 3a 38 3f 50 e0 cf 3e 11 39 18 3f a7 46 6a 3f
       0.719644 0.40600824 0.59462076 0.91514057
000040 88 4d ac 3f 1e 3f a6 3e 20 ad 49 3f 0a 3d ac 3e
       1.3461161 0.3247003 0.7877979 0.3364032
000050 cc 8e b9 3e b8 73 ce 3f 86 d2 9a 3e b1 70 45 3f
       0.36241758 1.6129065 0.30238742 0.7712508
000060 05 9f 3c 3f cb 53 92 3f cb f3 43 3f 3d a0 2e 3f
       0.73680145 1.1431822 0.76543874 0.68213254
000070 41 9a 94 3e de 48 04 40 aa 28 6c 3f 6c 27 b3 3f
       0.29023936 2.0669475 0.9224955 1.3996406
000080 f4 e3 c8 3f 6d 7b 5e 3e 8f 8c 86 3f a3 a1 90 3f
       1.5694566 0.2172677 1.0511645 1.1299328
000090 b5 e6 6a 3f 78 e6 a9 3f 88 24 78 3e f6 85 83 3f
       0.9175828 1.3273458 0.24232686 1.0275257

encoder.4.block.4.weight f4 [40, 40, 1, 1]
000000 ff 20 44 3e c8 b7 a5 3b 53 d7 86 3e c1 0c 92 3d
       0.19153212 0.005057309 0.26336154 0.07131339
000010 17 df 44 3e 48 be 64 be 63 b0 38 3d bf 31 a6 3d
       0.19225727 -0.22338212 0.04509009 0.08114957
000020 d9 82 e4 3d 4f a5 12 39 c7 f2 33 be 31 81 23 3d
       0.1115777 0.00013985227 -0.17573081 0.03991813
000030 a7 be 12 bd ce db 9c be dd b7 12 be 86 d5 c4 bc
       -0.03582635 -0.30636448 -0.14327951 -0.024027597
000040 bd b6 96 3e 45 ac 6c 3d 9e 3a 57 be 2e 7b 34 be
       0.29436293 0.057781477 -0.21018454 -0.17625114
000050 4f 72 bf 3d 1b e4 db 3d 50 4b e3 3d c4 6f 60 3e
       0.093479745 0.10736867 0.11098349 0.21917635
000060 80 38 a2 3d 70 b3 0a be 11 de 9e be a7 f1 81 be
       0.07920933 -0.13545012 -0.31028798 -0.2537968
000070 96 e9 76 be 56 05 2c 3c 89 db 50 be f9 9f 4a 3d
       -0.24112543 0.010499319 -0.20396246 0.049468968
000080 2c 10 2a 3e ca 81 73 be a5 85 c1 3c 10 37 73 bc
       0.16607732 -0.2377998 0.023623297 -0.014844671
000090 97 33 32 bd d4 06 fb bc 32 41 98 3e 56 c9 50 3d
       -0.04350623 -0.030642904 0.2973724 0.05097326
0000a0 c8 f7 38 3c 72 ca 35 be 92 cf ef 3d 56 2c d1 bd
       0.011289544 -0.17753008 0.11709513 -0.102135345
0000b0 49 2e 88 bd 85 bc 56 be 8e 42 a8 3c 0d 1f 9b 3c
       -0.06649453 -0.20970352 0.020539548 0.018935705
0000c0 98 8a 5d 3e cc 07 19 3c bb 27 3c 3e b9 a0 88 bc
       0.216349 0.009340238 0.18374531 -0.016678201
0000d0 2b b9 73 3e 35 f6 f2 3d ec cd 2f 3e c0 75 0c be
       0.23801105 0.118633665 0.17168397 -0.13716793
0000e0 00 26 19 3e af 1c 29 3e ef 7f a2 3d 29 27 63 3d
       0.14955902 0.16514848 0.07934558 0.055457268
0000f0 6e ef e0 bc c6 8a 71 be f2 32 90 3b ed e3 37 3c
       -0.027457919 -0.23588094 0.0044006044 0.011223775
000100 ef fc ac 3d fa 13 7e 3d 2c cd 9e 3e 48 97 97 3e
       0.08446681 0.06203077 0.3101591 0.29607606
000110 5b 02 10 bb e3 f6 7a bd 52 02 ac 3d fe 69 4b 3e
       -0.002197406 -0.061270606 0.0839888 0.19864652
000120 b7 9a 4a 3d 09 41 78 3e 57 d6 95 3e 5b f4 c7 bd
       0.049463954 0.24243559 0.2926509 -0.09763404
000130 a9 46 52 be e5 64 50 be 45 82 1b be bc 33 ce 3c
       -0.20534767 -0.20350988 -0.15186413 0.025171153
000140 d8 b5 b5 bd ae ec bd 3e ec b4 1a be 32 a3 cb bd
       -0.088725746 0.37094635 -0.15108079 -0.099432364
000150 4a 09 cb bd 75 c3 e0 bd f5 ac 11 bc bf 0c 16 be
       -0.09913881 -0.109747805 -0.008891334 -0.146533
000160 56 54 06 3e c8 cf ce bc ba 60 45 3e 61 4a 71 be
       0.13118109 -0.025245562 0.1927518 -0.2356353
000170 f7 98 f0 3d 5e f3 aa bd 24 67 2a be de 1f 2e 3e
       0.11747926 -0.083472 -0.16640908 0.17004344
000180 00 67 90 bd 81 86 7c 3d ee c0 1d be b9 3d 1d 3e
       -0.07050896 0.06165171 -0.15405628 0.15355577
000190 71 b6 1c bc b3 b8 9d 3e 2e 74 d5 3d 82 3e 08 bd
       -0.009564982 0.30804977 0.1042255 -0.033262737
0001a0 20 d9 48 be f3 c1 86 3d ca 7a 3a be 2b bf 9e 3d
       -0.19614077 0.06579962 -0.18210903 0.07751306
0001b0 62 25 9e be 21 6a 9d bd 03 41 1a be 05 bf 8a be
       -0.30887896 -0.07686258 -0.15063863 -0.2709886
0001c0 72 06 98 3c 2d 27 57 be 74 d7 36 3d 06 4e 0e 3e
       0.01855776 -0.21011038 0.044639066 0.13896951
0001d0 3a ed 3d bd 4b 26 c3 3d 50 51 c6 3e 57 15 59 be
       -0.046368815 0.09528788 0.38733912 -0.21199547
0001e0 bd e9 46 be 29 50 80 3e 18 ef e7 3d 96 7f 11 3e
       -0.19425102 0.25061157 0.113249004 0.14208826
0001f0 c9 92 48 3e b1 2e 25 bd d2 e8 ee bd 4a ff e3 bd
       0.19587244 -0.04032773 -0.11665501 -0.11132677
000200 d6 c1 a2 bd 41 15 7a bd cc 0b 28 3e b5 43 cb bd
       -0.079471275 -0.061055426 0.1641075 -0.099250235
000210 9c 1b 36 bc 5b 35 84 3d b6 46 42 be 01 28 44 be
       -0.011114981 0.06455489 -0.18972287 -0.19155885
000220 f4 f5 6d 3c f7 ad bc 3d f9 6f 48 3b ce 44 37 3e
       0.014523972 0.09212869 0.003058432 0.1789734
000230 2d dc 42 3e f3 8c 3d 3d 73 24 41 be a1 21 e7 3d
       0.19029303 0.046276998 -0.1886156 0.11285711
000240 2d 85 3a be 3d 9f 0e be 31 29 46 be a1 8f 5d be
       -0.18214865 -0.13927932 -0.19351651 -0.21636821
000250 70 18 d0 3d d8 83 20 be 0f d2 0d 3c aa 43 91 3d
       0.10160911 -0.15675294 0.008656039 0.07092984
000260 4e 84 c8 3d 71 b1 43 be fb 62 78 3c 79 be 0a 3e
       0.0979086 -0.19110657 0.0151603175 0.13549222
000270 55 09 6c 3e e8 5e c0 bc 77 92 af 3e 1a 23 c0 3c
       0.23050435 -0.023482755 0.3429143 0.023454238
000280 a5 1e 6c bd 96 55 53 be 75 8f 8c bc 4b d5 93 3d
       -0.057646412 -0.20638117 -0.01715825 0.07218417
000290 cb 3d 2d 3d ad 85 59 be 73 87 80 3e 3c 91 a1 bd
       0.04229526 -0.212424 0.2510334 -0.078890294
0002a0 d3 86 ec bd 61 9e 1d 3e e0 92 c1 bd 81 d1 cc bc
       -0.11549153 0.15392448 -0.09451842 -0.025002243
0002b0 c0 0a 53 3e 27 bf 88 3e 93 e5 8d 3d f4 31 54 3e
       0.2060957 0.26708338 0.069285534 0.2072218
0002c0 bb 2e a2 be 02 70 4f 3e da ac 47 3e d0 3d 76 3e
       -0.31676278 0.20257571 0.19499531 0.24047017
0002d0 c1 75 15 3e 2a 8d 87 bd 6a 07 36 bd b1 df de 3c
       0.14595701 -0.06618722 -0.044440664 0.027206274
0002e0 ce d2 92 bd 53 32 94 bd bb ec 3a 3d bb 01 53 3e
       -0.07169114 -0.07236161 0.04563592 0.20606129
0002f0 eb e6 0c bc 85 68 3f be d8 ad a8 3e 58 09 8a 3c
       -0.008599977 -0.18692215 0.32945132 0.016850159
000300 bd 65 83 be be c8 0d 3e 47 13 9f 3e f7 17 7c bd
       -0.25663558 0.13846108 0.31069395 -0.061546292
000310 38 b6 c1 bd 04 77 43 be d4 f3 8b bd 81 05 e1 3d
       -0.094585836 -0.1908837 -0.06833616 0.10987378
000320 1c 12 8d bd ea 58 86 3d c9 e9 85 3e 74 f2 c2 3d
       -0.0688822 0.06559928 0.26154926 0.095189005
000330 56 a5 0b be 24 d5 26 be a5 51 6c be c5 16 65 3e
       -0.1363729 -0.16292244 -0.2307802 0.22371967
000340 c8 7f d6 bd 94 e1 c0 bd 89 75 1b be c4 0f a7 be
       -0.10473591 -0.094180256 -0.15181555 -0.32629216
000350 1e cc 58 be 66 5c 65 be de e3 d1 3d c0 ae 7e 3e
       -0.21171615 -0.22398528 0.1024854 0.2487135
000360 3b cc 5c 3e bd ee b9 bd 6d 75 75 bc bb 6e 69 be
       0.21562283 -0.09078739 -0.01498161 -0.22796147
000370 da b0 d8 bb e5 2c d4 3b d6 79 31 bd 38 57 a8 3c
       -0.006612879 0.0064750784 -0.043329082 0.020549402
000380 b4 60 96 3d 8c eb db bd 9d e2 07 3c 19 67 bc 3d
       0.073426634 -0.107382864 0.008293775 0.09199352
000390 05 64 8d be 73 f8 89 3e d0 d2 34 be c8 04 27 3d
       -0.2761537 0.26947364 -0.17658544 0.040776044
0003a0 84 29 bf bd 01 72 36 3e 24 50 45 be f3 31 10 3e
       -0.0933409 0.17816927 -0.19268852 0.14081554
0003b0 6c 94 6e bd ad 70 19 be ca fd 8a 3e 7e 22 b3 3d
       -0.058247015 -0.14984389 0.2714675 0.08746813
0003c0 10 3b 50 be 07 8a fe bd 99 09 9c be 5c a7 a4 bc
       -0.2033503 -0.124286704 -0.30476072 -0.020099334
0003d0 2e 9e a1 bc 52 bc e9 bd 32 80 5a 3e eb 61 29 3e
       -0.019728746 -0.114128724 0.21337965 0.16541259
0003e0 49 88 87 3e 4f 14 02 3d 7f 00 df be e5 0d 8b be
       0.26471165 0.03175765 -0.43555066 -0.27159038
0003f0 f9 0d 92 bd b8 cb 77 bd 46 6b ba bd 36 24 d8 bd
       -0.07131571 -0.060497016 -0.09102492 -0.10553782

encoder.4.block.4.bias f4 [40]
000000 8f 58 06 bc 72 a9 03 3b 9f 25 a9 bb 20 bf c7 ba
       -0.008199825 0.002009001 -0.0051619555 -0.0015239455
000010 d8 cd 2e ba 00 f6 6a 39 80 7d 38 bc 72 1b 18 bc
       -0.00066682464 0.00022407621 -0.01126039 -0.009283887
000020 e2 c3 81 39 7c da 97 b8 8a 6f 0b bb 48 7a 80 bb
       0.0002475074 -7.240937e-05 -0.00212762 -0.003920827
000030 c9 9a 92 bb f5 40 b5 3a e4 f8 d7 bb d6 ac 4f b9
       -0.0044740182 0.0013828563 -0.0065909494 -0.00019805445
000040 58 82 c9 bb f5 06 0a 3a 1f f2 37 3b 40 3c 24 3c
       -0.0061495714 0.0005265319 0.00280679 0.01002413
000050 c0 18 f1 3b 9a f4 a5 bb 22 51 9d 3b 5c bf 82 ba
       0.0073576868 -0.005064559 0.0048009316 -0.0009975242
000060 2a 29 b8 bb 6b 11 7d bb 51 ed 6f bb 4d 88 27 39
       -0.0056201415 -0.0038615118 -0.0036609957 0.00015977137
000070 90 a9 ac bb f8 b8 07 bc d0 75 e8 3a ed 09 b6 3b
       -0.005269237 -0.008283846 0.0017735306 0.0055553825
000080 44 74 22 bb 4e a9 5f bb f1 ae 02 bc 9f af 89 bb
       -0.0024788538 -0.0034128013 -0.00797628 -0.004201844
000090 fe c4 c0 bb 48 ec c7 bb 87 c8 f6 3a 5d 17 da ba
       -0.0058828583 -0.006101165 0.0018828072 -0.0016639043

encoder.4.block.5.weight f4 [40]
000000 c1 16 5f 3f 28 e0 42 3f 45 ea 4f 3f a3 e3 46 3f
       0.87144095 0.76123285 0.8121684 0.77691096
000010 80 87 5e 3f e2 0b 66 3f f6 d2 84 3f b7 89 14 3f
       0.86925507 0.8986188 1.037688 0.58022636
000020 00 10 55 3f 86 60 38 3f 46 39 5d 3f 4e 95 6b 3f
       0.8322754 0.72022283 0.8641552 0.92024696
000030 2c 8c 49 3f 95 71 39 3f dc 99 33 3f 28 e4 7e 3f
       0.7872951 0.7243894 0.70156646 0.9956689
000040 a7 53 2d 3f 82 15 79 3f 02 01 68 3f 90 18 33 3f
       0.6770577 0.97298443 0.9062654 0.69959354
000050 9a d7 1e 3f 1d f9 66 3f 29 63 47 3f 54 b5 43 3f
       0.6204773 0.90223867 0.7788568 0.7644856
000060 eb 1f 3e 3f ef 2d 24 3f 74 9d 6e 3f b1 d9 72 3f
       0.7426745 0.6413259 0.93209004 0.9486342
000070 a9 f1 69 3f d9 97 55 3f 36 7c 69 3f bc 7b 30 3f
       0.9138437 0.83434826 0.91205156 0.68938804
000080 4f 7c 0f 3f 03 64 5c 3f b8 0f 6c 3f 24 8f 6a 3f
       0.56049055 0.86090106 0.92211485 0.91624665
000090 c2 8e 60 3f ec 45 5b 3f c6 65 2f 3f 07 96 45 3f
       0.8771783 0.8565357 0.6851467 0.7718205

encoder.4.block.5.bias f4 [40]
000000 9a 6a 8c be 2b 42 e1 3d b9 72 35 be 99 8c ab 3c
       -0.2742508 0.10998949 -0.17719544 0.020941066
000010 87 c9 c7 3c 60 23 58 bd 83 cf 93 be 0e a8 5c be
       0.024388088 -0.05276811 -0.28869256 -0.21548483
000020 ca 05 0f 3e d4 34 19 be 47 ef 7e 3d 31 c7 59 bb
       0.13967052 -0.14961559 0.06223991 -0.00332303
000030 59 7c 75 be d0 bf 2d 3b 5b 86 db 3c 23 2d 1b be
       -0.23973216 0.0026512034 0.026797464 -0.15153937
000040 3f d6 23 be 7e 4e 16 3e fa be 49 3e 20 ce 95 3d
       -0.15999697 0.1467838 0.19701758 0.07314706
000050 b8 fe 24 3d f1 ac c6 3c 2d 18 5f 3d 1a 92 4c 3d
       0.04028198 0.024252387 0.054466415 0.04994402
000060 e8 64 b1 bd 88 46 2e be c4 33 f6 3d ee 4c 3c 3e
       -0.086618245 -0.17019093 0.12021592 0.18388721
000070 62 75 f8 bd c9 01 99 bd 55 8b 93 bd 1b c8 7f 3d
       -0.12131764 -0.074710436 -0.0720431 0.062446695
000080 ed f5 b1 bd 64 e2 1f be 82 cc 86 bd d6 45 7b be
       -0.08689485 -0.15613705 -0.065819755 -0.24538359
000090 7c d1 52 be 74 1c 68 bd 46 f2 e4 3c 6c dd a5 bd
       -0.20587724 -0.05666776 0.027947556 -0.080988735

encoder.4.block.5.running_mean f4 [40]
000000 f0 b1 c0 be 34 cd 56 3f 59 1e f1 be b7 6c 49 ba
       -0.37635756 0.83906865 -0.47093466 -0.0007683741
000010 ca 76 12 3f 34 d0 bc be 4d 68 0c bf ca 06 5e bf
       0.5721251 -0.36877596 -0.5484665 -0.8672911
000020 a9 4f 68 3e 9d 10 8f bd 95 83 91 3e 24 38 6d be
       0.22686638 -0.069855906 0.28420702 -0.23165947
000030 93 9c 89 3e e5 c6 5a 3f c1 98 01 3f 31 2e 9e be
       0.2687727 0.8545974 0.5062371 -0.30894616
000040 20 b7 24 bf d6 61 1a 3e 74 00 44 3f e1 22 20 bd
       -0.64341927 0.15076384 0.7656319 -0.039095763
000050 8e c5 b0 3e 84 0b 5e 3e fc f6 0e 3f 27 cc 26 bd
       0.34525722 0.2168408 0.5584562 -0.04072204
000060 0b a9 99 be 8f f2 9d be 88 32 69 3e 56 4c 74 3f
       -0.30011782 -0.3084912 0.22773182 0.9542898
000070 c7 7e 50 bd ef 1a af be dc ac 7d be f5 03 f8 3e
       -0.050902154 -0.34200236 -0.24772972 0.4844052
000080 af fc 88 be d6 a0 7b be 0b 82 81 be 26 d3 14 bf
       -0.26755282 -0.24573073 -0.25294527 -0.58134687
000090 db 9b 95 3a 7d d3 60 be b6 c1 2c 3f 74 dd 86 be
       0.0011414246 -0.21955676 0.6748308 -0.2634083

encoder.4.block.5.running_var f4 [40]
000000 19 38 20 40 78 fa 82 40 bf f1 18 40 0d 28 be 3f
       2.503424 4.093075 2.389755 1.4855973
000010 ea b0 2b 40 e0 fd 21 40 99 b7 bc 3f 31 bf 52 40
       2.682673 2.5311203 1.474353 3.2929194
000020 b3 2c c7 3f c7 09 be 3f 14 9f 31 40 b0 ec 00 40
       1.5560516 1.4846734 2.7753344 2.0144463
000030 83 7f 30 3f cb e5 82 40 3c b2 98 40 d4 c3 25 3f
       0.6894457 4.090551 4.771757 0.64751935
000040 ea ad 61 40 8c 53 26 3f b4 0a 82 40 68 a9 b8 3f
       3.5262399 0.6497123 4.0638065 1.4426699
000050 b4 90 a0 3f bd b0 44 40 a2 7a 9a 3f 84 bc 1c 40
       1.254416 3.0732872 1.2068675 2.449006
000060 ed 8c 04 40 f0 e0 34 3f 55 4a 2a 40 5c 35 5f 40
       2.0711014 0.7065573 2.6607869 3.4876318
000070 83 7a b8 3f fe a5 73 3f 99 5a 87 3f 0b 23 64 40
       1.4412388 0.9517516 1.0574523 3.5646389
000080 36 62 86 3f 61 a8 20 3f 1f 98 96 3f 42 a3 5a 40
       1.0498722 0.62756926 1.1765174 3.4162145
000090 1c 1b 2a 3f 49 d1 9b 3f cc 8a 71 40 66 c0 ba 3f
       0.66447616 1.2173244 3.7740965 1.4589965
