models/vqvae/model_1.pt (torch, 579012 bytes, 64 tensors)

encoder.0.weight f4 [40, 1, 4, 4]
00000000: 6fcc 80ba ebb8 633d 60e7 f8bc c255 14bd
00000010: 190c 2bbd baf0 b23d 859e 923d 7f21 043d
00000020: 34df acbd 50bf 4b3c 2376 793d b8bb 62bd
00000030: 5c3d 833d 4c79 b53d 50bc 3ebc 9ab0 a0bd
00000040: aeb4 473d 64d3 dbbc ba66 98bd f288 39bc
00000050: 8e90 19b9 f00d 8cbd b31d 433d fa09 11bd
00000060: 6045 753d ea7f 80bc f441 b8bd ec6c 08bc
00000070: fb03 ac3d 8221 a2bd 0614 953d 8dd1 8bbd
00000080: 36e3 1cbd a345 f43c 33c0 b73d 5b04 36b7
00000090: f682 103d f1bb 33bd 4eb2 c03d 8cab 883c
000000a0: 61af 4abd 9e89 e73c 523f 593a 8c39 b4bd
000000b0: fccd f5bc eefc 483d b32d 91bd d4ed b0bd
000000c0: d078 8d3d af07 51bd ec90 42bc aca9 b1bd
000000d0: 748e ad3d e07d 8d3d c9dd 9f3d 4d94 553c
000000e0: ac16 f1bc 8d40 a9bd 4883 afbc 13e9 8b3b
000000f0: 442d 5c3d fc52 9cbd c105 babd 0441 71bd
00000100: 6059 2e3d 7f0b 3abd 811b e4bc dc28 babd
00000110: 41cb 09bb 8888 1b3d e461 9bbd 3a7b 3d3d
00000120: a65d aa3d 6ac4 a8bc 48a7 473c b280 81bd
00000130: ab9d 2abd ef7e 65bd f6bc 763d 3d78 90bd
00000140: 699b 83bd 2c96 81bd 5e50 bd3d db8b 8e3d
00000150: 233d 0ebc 2663 513d 1280 37bd f03c 03bd
00000160: e557 433d 2008 92bc d6ad 2f3d 2bd5 0a3d
00000170: 8443 59bd 477f b53c e58b 013d 40fd 8a3d
00000180: 226f 433d cf5e a7bd 6862 d73b 5dd4 fa3c
00000190: 1f03 893d eb60 5a3d 0363 a8bd 9416 fa3c
000001a0: 133e 05bd 9ac4 313d a62d 0b3d 760d ca3d
000001b0: adbf 5d3d 6a04 87bd 5cd9 d43c 36a5 16bc
000001c0: 9b1e d8bc 13bd 953b b389 603d d343 653d
000001d0: 8d8e a1bd 1c06 a63d 6792 8fbd 786a 693d
000001e0: 72d5 013c 8ad4 e6bc c170 81bd cf16 95bd
000001f0: fdf6 a93d c2cf 9fbc b0d1 b8bd 5272 a9bd
00000200: 6a7d 48bd e524 2fba f75b 323d fffa 343d
00000210: 2de6 0cbd 0409 ae3d f61c 7abd 6663 8fbd
00000220: 0b54 edbc 2d2a 283d e371 883d 6628 283d
00000230: 01a9 52bd 80d3 d7bc 480f 09bd e8ad 76bd
00000240: 2209 073d 838b 42bd 7807 8dbb 189f a9bc
00000250: a073 68bd bac1 95bc 3b13 94bd c9e4 d6bb
00000260: 752c 20bc 1855 31bc 4685 8cbd 20c9 09bd
00000270: bed0 493d d44b 9c3c 02d0 9a3d ff50 9f3c
00000280: 67d5 063d ea48 b9bd d2cb 9ebd 6498 043d
00000290: 193c 37bd ca4a cdbc 868c 39bd 4957 4e3d
000002a0: 5df5 24bb 3a74 57bd bfc0 9fbd e065 41bd
000002b0: dec2 663c 4afa 8cbd 6388 3abc 16ad f13c
000002c0: 217b 96bb ea99 253d dd44 88bd 9291 88bd
000002d0: 9000 b1bd 2842 6bbd 1810 4dbc 6a74 e83c
000002e0: a00e 2a3d ea1b 6d3d 5258 853d 4d33 e93c
000002f0: ef67 be3d 0b93 66bd 5fbe 7ebd d5cf a8bd
00000300: e1a1 f43c 1e6e b43d 29da 85bc 1f61 e1bc
00000310: 9eb4 d3bc 5bfc 863d caeb 9c3d bc95 4f3c
00000320: 7a95 99bd 6650 40bd bb8c e73c 3a62 99bc
00000330: e565 3e3d 6c46 b83d ae68 183d 19b6 9a3d
00000340: 8071 8a3d 4133 303d ad04 46bd 6d17 99bd
00000350: ccec 6bbd eeed 803d 520e 823b 9d09 96bc
00000360: 5d99 86bd b778 b53d 8f85 143d 3f26 75bb
00000370: e476 06bc dcd5 ed3c c0ff 203c 5425 163d
00000380: c4f2 a4bd 49a7 8d3c 6182 dd3c e09b 6b3d
00000390: 5f1d 6dbd ea95 853d 9577 c13c c9dc 933d
000003a0: 62b9 f43b 5508 7f3c 5241 8dbd 7929 7bbd
000003b0: 1464 b6bd a978 913d cb3b 27bd 099d 22bd
000003c0: 605e 1abc a560 9abd 9a1b aa3d d03c 083d
000003d0: 170e 973d 1f32 c73b 512e c9bd 950b b2bd
000003e0: dd68 c13c 0b8e a9bd 9e43 64bd d7c5 953d
000003f0: f861 c73d 1581 88bc fd4b ac3c ac06 dfb9
-0.0009826551 0.055596273 -0.030383766 -0.036214598 -0.041759584 0.08737321 0.071591415 0.032258507
-0.0844101 0.012435749 0.06090368 -0.055354804 0.06408188 0.08861026 -0.011641577 -0.07846184
0.048756294 -0.026834197 -0.074414685 -0.011324154 -0.00014645068 -0.06838596 0.047635745 -0.035409905
0.059880614 -0.015685994 -0.089969546 -0.00832675 0.08399197 -0.07916547 0.0727921 -0.06827078
-0.038302623 0.029818362 0.08972206 -1.0849059e-05 0.035281144 -0.043880407 0.09409009 0.016683362
-0.04948366 0.028263863 0.00082873285 -0.08800039 -0.030005448 0.049069338 -0.070887946 -0.08639112
0.06907809 -0.05103272 -0.011875372 -0.086749405 0.084744364 0.069087744 0.07805974 0.013035846
-0.029429756 -0.08264265 -0.021424904 0.004269728 0.053754106 -0.076330155 -0.09083129 -0.058899894
0.042565703 -0.04542112 -0.027845146 -0.090898246 -0.002102569 0.037972003 -0.075870305 0.046260096
0.08318643 -0.02060147 0.012185879 -0.06323375 -0.04165427 -0.056029256 0.0602388 -0.07054184
-0.064261265 -0.06327471 0.092438444 0.06960269 -0.008681568 0.051119946 -0.04479987 -0.032040536
0.047691245 -0.01782614 0.042890392 0.0338947 -0.053042904 0.022155417 0.031627554 0.06786585
0.047713406 -0.0817238 0.0065730102 0.03061884 0.066900484 0.053315084 -0.0822201 0.030528344
-0.0325299 0.043400384 0.03397908 0.09865849 0.054137874 -0.06592639 0.025982551 -0.009194663
-0.026381781 0.0045696585 0.05481882 0.055972885 -0.078885175 0.08106634 -0.07010346 0.056986302
0.0079244245 -0.028177518 -0.06320334 -0.07279741 0.082990624 -0.019508246 -0.0902437 -0.08273758
-0.04894773 -0.0006681218 0.043544736 0.04418468 -0.0343992 0.08497813 -0.061062776 -0.070013806
-0.028970739 0.041055847 0.06662347 0.041054152 -0.051430706 -0.026345968 -0.03346184 -0.060224444
0.032967694 -0.04749633 -0.004303869 -0.020705745 -0.056750894 -0.018280853 -0.072302304 -0.006558035
-0.009776224 -0.010823511 -0.068613574 -0.033639073 0.049271338 0.019079126 0.075592056 0.019447802
0.03291836 -0.090471104 -0.077537194 0.032371894 -0.044735048 -0.025060076 -0.04530003 0.05037621
-0.0025170662 -0.052601077 -0.07800435 -0.047216296 0.014084546 -0.06883676 -0.011385056 0.02950148
-0.004592315 0.040429987 -0.0665376 -0.0666839 -0.086426854 -0.05743614 -0.012516044 0.028375823
0.041517854 0.05788795 0.065109864 0.028466845 0.092971675 -0.056292575 -0.06219327 -0.08242766
0.029862346 0.08810066 -0.016339378 -0.027512131 -0.02584296 0.06591102 0.07662161 0.012669977
-0.074992135 -0.046951674 0.028265348 -0.018723596 0.046483893 0.08997807 0.037209205 0.075542636
0.0675993 0.04301763 -0.048344303 -0.07475171 -0.057598874 0.062953815 0.0039689923 -0.01831513
-0.065722205 0.08860915 0.036260184 -0.003740683 -0.008207057 0.02903264 0.009826601 0.036656693
-0.08054116 0.017291682 0.027039709 0.0575217 -0.05788934 0.065227345 0.023616591 0.07219846
0.0074683884 0.015565951 -0.068972245 -0.06131885 -0.08905807 0.07103092 -0.040828507 -0.03970054
-0.009421915 -0.07537965 0.08306046 0.03326112 0.07375734 0.006078973 -0.09823287 -0.08693615
0.023609573 -0.08279046 -0.055728547 0.073131256 0.09735483 -0.016663114 0.021032328 -0.00042538845

encoder.0.bias f4 [40]
00000000: c49e c2b8 d1ff 113b fdb4 d539 1c66 4dba
00000010: 0650 9a3a 52fa 9f39 8cd5 50ba 5038 81ba
00000020: b741 2bbb 12b6 d6ba 7943 d0b9 a86f 153a
00000030: e8c8 97b8 fdca a33a 36fb ecba b224 94ba
00000040: 2ff0 5b3a 87b8 c3b9 5d39 f538 2c23 613a
00000050: 994f 003b 1bd5 5eba 7304 64ba cecc 423a
00000060: 7a0b eaba 7bb0 3bb8 b5a8 143a b36b 41bb
00000070: 6c2a 83b8 746f ab3a 2b18 d3b9 8ca6 98ba
00000080: 6dea 81ba f283 f83a dcbb 76b8 badd b13a
00000090: 95fb abba 4556 38ba fc71 62ba 507a dd3a
-9.280213e-05 0.0022277723 0.00040761373 -0.0007835345 0.0011773116 0.00030513346 -0.0007966391 -0.0009858701
-0.0026131698 -0.0016381165 -0.00039723123 0.0005700537 -7.237663e-05 0.0012496408 -0.0018080238 -0.001130244
0.0008389977 -0.00037330782 0.00011693195 0.000858831 0.0019578694 -0.0008500383 -0.0008698173 0.0007431031
-0.0017856203 -4.4748635e-05 0.0005670891 -0.0029513657 -6.2544685e-05 0.001307948 -0.00040263063 -0.0011646315
-0.0009911783 0.0018960221 -5.8825928e-05 0.0013570108 -0.0013121242 -0.0007031898 -0.0008638201 0.0016897414

encoder.1.weight f4 [40]
00000000: 821c 7d3f 9562 7f3f 4323 7e3f 27fb 7f3f
00000010: 36f1 7e3f 2cfe 7e3f 9b30 7e3f a222 803f
00000020: 1f6a 7d3f c4dd 803f 8226 7f3f 25c1 7e3f
00000030: 9682 803f c0d0 7d3f 2734 7f3f 78f5 7d3f
00000040: 56e9 7e3f d87a 803f 5ed7 803f c401 7f3f
00000050: c56c 803f 5569 803f ff96 7e3f 719b 7f3f
00000060: 87ca 7c3f 6a35 7e3f f2ea 7e3f 72c3 7b3f
00000070: c133 7b3f d8fa 7e3f 4459 7d3f 7432 7e3f
00000080: 1927 7e3f d786 7e3f eff3 7a3f eb17 7f3f
00000090: 705c 7e3f 4d23 803f a8e6 7c3f fde5 7c3f
0.98871624 0.997598 0.99272555 0.99992603 0.9958681 0.99606586 0.99292916 1.0010569
0.9899005 1.0067677 0.99668133 0.99513465 1.0039852 0.9914665 0.99688953 0.9920268
0.9957479 1.0037489 1.0065725 0.9961207 1.0033194 1.0032145 0.9944915 0.9984656
0.9874653 0.99300253 0.9957725 0.983451 0.98125845 0.9960151 0.98964334 0.99295735
0.9927841 0.994245 0.98028463 0.9964587 0.993598 1.0010773 0.98789454 0.98788434

encoder.1.bias f4 [40]
00000000: f0c7 4a3b b876 8d3b a5ea 55bb 65df ac3b
00000010: 0289 01bb 74db 4638 4d75 85bb e2fd 613b
00000020: 45ca 5ebb d766 503c a7bf 30bb 1b69 343b
00000030: 17d4 7c3a 6995 893b d84d 3d3b 38fd 64bb
00000040: c870 f83a 52a6 41ba bfa9 163c 0493 8f3b
00000050: ced7 3e3b 57cb eb3a c4cf 293a 6282 453b
00000060: cba2 80bb e4d0 55bb 8479 bfba 4297 04bc
00000070: 3e21 65bc e158 adbb a63c ecba 4906 0dba
00000080: 4517 b5bb f326 533b ae29 40bc 9427 6339
00000090: 53c4 0c3b b5c2 163b 5598 93bb 1ca3 c3bb
0.0030941926 0.004317131 -0.003264108 0.005275654 -0.00197655 4.741126e-05 -0.0040728212 0.0034483601
-0.0033995074 0.012719831 -0.0026969702 0.0027528468 0.0009644641 0.0041987193 0.002888551 -0.003494097
0.001895451 -0.00073871494 0.009195744 0.0043815393 0.002912033 0.0017989677 0.0006477798 0.0030137529
-0.0039256564 -0.003262573 -0.0014608358 -0.008092703 -0.013984976 -0.005290136 -0.0018023446 -0.00053796597
-0.0055264556 0.003221926 -0.011728687 0.00021663151 0.0021479323 0.0023004238 -0.0045042434 -0.005970372

encoder.1.running_mean f4 [40]
00000000: 0945 e3bd 88bd 013e 5680 e03c 26a9 b33d
00000010: f90a 0d3e b0fc f4bd 181e 15be ae78 093e
00000020: e26e 353d 0e13 f53d 357c 903e d395 b43d
00000030: ba7a 6dbe b36e a3bd 2824 273d 456b 073d
00000040: aee4 c33d 8732 b9be dcef 34be ede7 abbd
00000050: c3f7 82be 5586 4bbe 7cf7 46be 3175 f53d
00000060: 3385 c9bc f7d3 053e dc49 b03d 1e38 ddbd
00000070: a686 5bbd 88bc 033e 3bdf f2bd 470f b7bc
00000080: 4a7f 153e 49bf 873c 1e03 f9bd efa2 983e
00000090: 66b6 67bd 7409 9a3e 07af 80bd 65b2 1c3d
-0.11097152 0.12669957 0.027404945 0.08772497 0.13773717 -0.11962259 -0.14562261 0.13424942
0.0442952 0.11966525 0.28219762 0.08817639 -0.23191348 -0.079800986 0.040805966 0.033061285
0.095651016 -0.36171362 -0.17669624 -0.08393846 -0.25579652 -0.19875462 -0.19430345 0.11985243
-0.024599647 0.1306914 0.086078376 -0.10801719 -0.053595208 0.12864888 -0.11858984 -0.022346152
0.14599338 0.016570704 -0.12158798 0.29811808 -0.056570433 0.30085337 -0.06283384 0.038256068

encoder.1.running_var f4 [40]
00000000: 305e 923c 789f 863c 3a66 923c e260 cb3c
00000010: a96b 823c fded 703c 3adb 343c 7bee b73c
00000020: 4e07 e63b 576c 783c 490c 213d 9610 283c
00000030: 2c33 cf3c f110 003c 7db2 553c d38a 1f3c
00000040: e5f8 843c 2e24 753d f111 863c b5dc 6a3c
00000050: 74d4 f13c 292c b83c 74da a23c fc2a 193c
00000060: 5526 343c 1ad9 843c 3ff0 a33c 4d33 213c
00000070: 7464 173c 5dc1 e73c 6d90 413c 5a0c 033c
00000080: 52ed 7a3c 963b 003c a82f 8f3c 7692 373d
00000090: 32bd 753c 94ed 263d 2080 ef3b 3b00 513c
0.017867178 0.016433463 0.017871011 0.02482647 0.015920477 0.014705178 0.011038596 0.022452584
0.0070199138 0.015162549 0.039318357 0.010257861 0.025292955 0.007816539 0.013043043 0.009737688
0.016231963 0.059848957 0.016365977 0.014334847 0.02952025 0.022481995 0.019879557 0.009348627
0.010995467 0.016216803 0.02001202 0.009838891 0.0092402585 0.028290445 0.011814219 0.00799855
0.015315371 0.007826706 0.017478779 0.04481741 0.014998721 0.040753916 0.007308975 0.012756403

encoder.3.weight f4 [40, 40, 4, 4]
00000000: d364 a2bc d2b6 02bd 3163 12bd 99a7 dabc
00000010: 0a7a 8e3c a1f0 16bd 5764 463d 478a fb3c
00000020: 1874 ebbc 0aa4 263d fdf0 5ebc 66ff 163d
00000030: ced8 2fbd 9cba 6d3c 890e 10bd c8a7 c3bc
00000040: 7f3b 29bb 4828 85bd f4d3 f1bc 61eb 6ebd
00000050: a00d 9f3d 466c 683d 4075 e1bb 7446 84bd
00000060: d442 1abc 43ee 98bc 83e4 67bb 24fa 3dbd
00000070: 68e7 1c3d 8706 f7bc 6c63 85bd 2a43 2bbd
00000080: dd60 473d 0f8c 993d 22b0 8d3d 999e 2f3d
00000090: 836c 303d 4228 86bd 4dd6 7f3d 54e9 8c3d
000000a0: f095 48bd 2691 2abd 7088 e63c 558f 8f3d
000000b0: 1137 6e3d de94 4d3d d72c 41bd c311 d4bc
000000c0: 7d13 a03c b0ac b53c 65c2 91bc 4e4a 933d
000000d0: 6d8c 32bd 3ba1 6e3d 2b0a 943b 6240 81bb
000000e0: b044 b9bb 1cb3 e9b9 5bbb 34bd ca77 3b3d
000000f0: b8f6 d0bc cc02 463c a1a3 abbc 5175 1cbd
00000100: ce20 8b3d 69a4 0c3d c78d 55bd fa57 87bd
00000110: 6872 d3bc 285b debc 4cc1 9dbc a2f0 a9bc
00000120: 4d61 9fbc 6b39 5ebc e130 8a3b d1a3 96bc
00000130: efba 693d 6ce0 89ba f4c7 5d3c eb00 6bbd
00000140: 2f3b 313d 3ebd b3bc 6f54 4ebd 0f37 2c3c
00000150: 87e1 20bd fd70 1bbd 4bbd 93bb 92c8 51bd
00000160: 6d11 833d e6b4 5ebd e7e4 9e3b b0fb d23c
00000170: badd e5bc 1e84 2d3d 2efd 9b3a 6782 8bbb
00000180: a8db b2bc 1ee5 c73b a96e 6c3c 7add 013d
00000190: f673 243d 8bcd 4bbd b388 96bd b093 7f3d
000001a0: 82b7 99bc b910 513c 9b78 853d 022a a6bb
000001b0: d7c4 cabc 74b6 933d 0607 833d 3a37 943d
000001c0: a6d8 0bbd 67f3 0dbd b4e7 8fbc 779a 8c3d
000001d0: 053f 9b3c ad26 48bd f8f9 67bc 8f12 cfbc
000001e0: 9c6e 513d d840 35bd 4e41 903c 16fb 5fbd
000001f0: 2b5c 2bbc b534 04bd 1aff dabc 24b1 8d3d
00000200: 8d93 71bd 0130 ad3b d966 393d 1086 983c
00000210: 6a48 c53c dba8 4d3d 1145 9e3c 7c7e 90bc
00000220: 6f47 163c d2dd 80bd 1d1e 813c 2f80 1bbd
00000230: edca fbbc f544 f0bc a4ef b73b 3aac 633c
00000240: 71f1 32bc c9a6 2ebd e020 fc3c fae6 013d
00000250: c678 cb3b 6351 92bc 2b1f 1b3c 4fa2 8a3c
00000260: 133f 7b3d c24c 29bd f51a 683d c606 f73b
00000270: d011 843d 477f 51bb e841 453d f354 d43c
00000280: 0bb4 fbbc afdb c03c 07cd de3c 9e58 32bd
00000290: 6ee0 7c3c cb22 ddbc f873 52bd 1415 93bd
000002a0: e0b9 59bd c387 6b3d 096c 333d 91d5 67bd
000002b0: 8478 81bd 9d49 52bc 3079 7b3d b9af 823c
000002c0: 5397 19bd 9af9 81bc cafa c93c e0a3 563d
000002d0: 4920 08bd 5f89 3f3c ed9c e93c 96ed e63c
000002e0: 9684 33bd cd15 173c 7763 823d edd2 a8bb
000002f0: c7a1 873d ef67 f4bb a543 f4bc c0a7 bbbc
00000300: d989 0ebd db18 1c3c 5f00 6dbc 1c5f 383d
00000310: 84a1 813c ad5b 5bbc 7084 29bd fcb7 61bd
00000320: bf45 f9bc 2756 23bc 4c25 803d 700f 813b
00000330: 0971 783d df97 f7bc 73a0 0ebd 0fcd 153c
00000340: 9757 053d 062a 573c 10c6 cb3c aa79 913d
00000350: 5565 38bc 94fd babc 29bd f93b a083 b1bc
00000360: c05f 933d 943d 4abd 4e2a c73b d5a1 83bc
00000370: f91a 6bbb 44b1 543d 1f3a b1bb d36d 363a
00000380: 1237 e7bb 05db a5bc 0103 14bd f112 0e3d
00000390: 2a9a 8439 b4b8 69bd b7b5 fe3c 35c5 2cbc
000003a0: 01a9 59bd e498 83bc a2f8 a9bc fa44 3abd
000003b0: 139b 75bd c50f 823d 0ace ffbc 41e2 ad3d
000003c0: e9d4 4abc c470 2e3d 4b74 583d e388 c0bc
000003d0: b62e eb3b 90ea ff3c 8ec3 84bd 6420 afbc
000003e0: e8fd 7e3d ea1b 01bc d4c2 f33c 7a99 7ebd
000003f0: eebb 0bbd 391a f93c d383 073d 13be f2bc
-0.019823467 -0.031912632 -0.035739128 -0.026691245 0.017392177 -0.036850575 0.048435535 0.030705584
-0.028741881 0.040683784 -0.013607261 0.03686466 -0.04293137 0.014509823 -0.03517011 -0.023883715
-0.0025822816 -0.06501824 -0.029520012 -0.058329944 0.07766271 0.056743883 -0.0068804324 -0.0645875
-0.009415347 -0.0186683 -0.0035384006 -0.04638113 0.038306624 -0.03015448 -0.06513104 -0.0418121
0.04867636 0.07497417 0.0691836 0.04287586 0.043072235 -0.06550647 0.062460233 0.06880441
-0.048971117 -0.04164233 0.02814123 0.0700976 0.058157984 0.0501908 -0.047161903 -0.025887376
0.019540543 0.02217707 -0.01779289 0.07191907 -0.04359095 0.05825923 0.0045178137 -0.0039444426
-0.00565394 -0.0004457467 -0.04412399 0.045768537 -0.02550827 0.012085628 -0.020952048 -0.03819782
0.067933664 0.03433648 -0.052137163 -0.06608577 -0.02581139 -0.027143076 -0.01925721 -0.020744625
-0.019455576 -0.013563494 0.0042172526 -0.01838866 0.05706304 -0.0010519153 0.013536442 -0.057373922
0.043269332 -0.021940824 -0.05037349 0.010511174 -0.03927758 -0.03794955 -0.0045086495 -0.05121667
0.06399808 -0.054371737 0.0048490646 0.02575478 -0.028059829 0.042362325 0.0011901015 -0.0042574885
-0.021833256 0.006100311 0.01443068 0.031705357 0.04014965 -0.049756568 -0.07350292 0.062396705
-0.018764261 0.012760335 0.06517144 -0.0050709257 -0.024752064 0.072125345 0.06397824 0.07237096
-0.03414216 -0.034655955 -0.01756654 0.06865399 0.018950948 -0.04886501 -0.014158718 -0.025277404
0.051130876 -0.044251293 0.017609265 -0.054682814 -0.010458986 -0.032276828 -0.02673297 0.069185525
-0.058978606 0.0052852635 0.0452641 0.018618613 0.024082381 0.05020986 0.019320043 -0.017638437
0.0091723045 -0.06292309 0.01576143 -0.037964042 -0.030736411 -0.029329756 0.005613284 0.0138960425
-0.010921822 -0.042639527 0.030777395 0.031714417 0.0062094657 -0.017861074 0.00946788 0.016923098
0.06133945 -0.041332968 0.056666333 0.0075386493 0.0644871 -0.0031966732 0.048158556 0.025919413
-0.0307255 0.023542253 0.027197374 -0.043541543 0.015434368 -0.02699413 -0.051380128 -0.07181755
-0.05315578 0.05750252 0.043804202 -0.056600157 -0.06321815 -0.012834934 0.06139487 0.015952932
-0.03749783 -0.01586609 0.024655718 0.052402377 -0.033233915 0.011690467 0.02851721 0.028189462
-0.043827616 0.009221506 0.06366628 -0.0051520974 0.066226535 -0.007458679 -0.029817412 -0.022907138
-0.03479943 0.00952741 -0.0144654205 0.04501258 0.015824087 -0.013388556 -0.041386068 -0.0551071
-0.030428765 -0.009969271 0.06257114 0.003938608 0.060654674 -0.030223785 -0.034820985 0.009143128
0.032554235 0.013132578 0.024874717 0.07103284 -0.011254628 -0.022825994 0.0076214266 -0.021669209
0.07195997 -0.04937513 0.006078041 -0.016068378 -0.0035874231 0.051926866 -0.00540854 0.0006959114
-0.0070561254 -0.020246038 -0.036135677 0.034686033 0.00025291863 -0.057060912 0.031092508 -0.010545065
-0.05313969 -0.016064115 -0.02074844 -0.045475937 -0.059962343 0.06350664 -0.031226177 0.0849042
-0.012379863 0.04258801 0.05284528 -0.023502773 0.0071771992 0.031239778 -0.064826116 -0.02137775
0.062253863 -0.00788019 0.029755987 -0.062158085 -0.03411477 0.030408012 0.0330847 -0.02963165

encoder.3.bias f4 [40]
00000000: 886e 9a3b 79a2 4639 7210 8dbb 2f03 b5bb
00000010: 8b76 13bc aa5c 17bb dc77 0dbb 139b 8439
00000020: bb7f 393b ad7b ca39 104a dfba 9bde bbbb
00000030: ee42 b93b 1a29 0fbb 1270 cb3b 0ed2 24bb
00000040: c35f bcbb 8305 c6bb de3f 09bb c35f 98ba
00000050: 8942 97bb 05e5 97bb 1ab0 4f3b 33d8 153a
00000060: c325 99bb 181f e7ba b430 8d3a d14c e2bb
00000070: e45d 22bb 3f6f 58bb 395b 05bc b11c 33bc
00000080: d326 19bb d448 e8ba bcec 07bb bd60 c6b9
00000090: 95ef 17bb 3343 b03a ca93 42bb 425c 9e38
0.0047128834 0.00018943277 -0.004304939 -0.005524061 -0.009000431 -0.0023096004 -0.0021586334 0.0002529254
0.0028304893 0.00038620588 -0.0017035622 -0.0057333237 0.0056537306 -0.0021844567 0.006208428 -0.0025149616
-0.0057487204 -0.0060431375 -0.0020942609 -0.0011625219 -0.004616086 -0.0046354556 0.0031690658 0.0005716115
-0.004673691 -0.0017633168 0.0010771961 -0.00690613 -0.0024775201 -0.0033025292 -0.008139425 -0.0109321335
-0.0023369088 -0.00177219 -0.002074047 -0.0003783758 -0.0023183574 0.0013447761 -0.002969014 7.5512115e-05

encoder.4.block.1.weight f4 [40, 40, 3, 3]
00000000: c662 20bc e3c3 373d 93eb d3bc 9759 6a3d
00000010: a287 c53b db1b 5cbb 8df2 99bd 4a1f 97bd
00000020: afc9 4f3d eb2f 853d 4d67 a8bb ffc1 c33c
00000030: f5e3 983c 40eb 8d3c d62b 513d a4a5 1cbd
00000040: 62d9 4a3d 6a56 a73d 1593 b33d 4ba1 963d
00000050: 85e0 39bd 67e8 c23d 81bb 03bd eff0 9e3d
00000060: 8a5f 8fbc cf0a b2bd 6b48 853d a8fd 13bd
00000070: fdd7 693d 85db 8abc dd70 ce3c bd30 a13d
00000080: f553 21bd 20f9 2dbd 0e1b 6f3d 5968 b4bd
00000090: 77ca 2abc 351e 3b3d f6b6 123d 3c64 f6bb
000000a0: 3342 673d 2f95 a3bd b303 b63c faa7 923d
000000b0: 2e4e 97bd fe10 4b3d b87c e6bc c74c fa3c
000000c0: fbf2 8c3d 5133 023d 2009 9d3d e855 acbd
000000d0: 94d9 d43c 9b86 84bc cb71 96bd 8a7d 813d
000000e0: 597e d03c 3d11 053a ed2e 3cbd bb17 bc3d
000000f0: 7baa 2f3d d36e 49bc e78b 5fbc 8735 46bd
00000100: 6f6e 81bd e73e 7abd 75dd 843c 07f6 a0bd
00000110: ca7f 2dbd 33ca 8fbc f454 c2bc 2bca 6bbd
00000120: b3d8 5fbd 26bb 583d e823 a2bc b543 273d
00000130: 6048 e73c 3136 453d 22fd a63d 71f4 8cbd
00000140: 6292 97bd 2f31 71bd 270a 2f3d e83c 963c
00000150: f51d b4bc abf1 e63c c325 e3bc b42c b93d
00000160: bcba 8f3d 686d b73c 8a5e a23b fbe3 933d
00000170: 74e4 183d 7178 1a3d 1b44 6f3c 8683 313c
00000180: 70d0 50bd 41c3 203c 29f4 9abd 1017 f13b
00000190: 4684 1fbd f8a9 663d 7ee6 3abd 9e93 1abd
000001a0: b58d 9f3d bc3a 22bd e381 92bd b0e5 9d3d
000001b0: 2209 303d ed3a 403b 35d5 b7bc 7e6b 2e3d
000001c0: 8aa8 603d e987 aa3c 8b49 253d 0a98 46bd
000001d0: b864 3cbd 7e19 8d3d 745a 803d ab4e 74bd
000001e0: 49f6 793d 15cf 4a3d 37ad 203c 8d1f 5a3d
000001f0: 0cf5 25bd b111 ed3c 7cb9 353d 9fda 59bd
00000200: c8e0 0cbc d134 23bb 1f11 d83d fa58 84bc
00000210: a170 c13c 3994 a53d d358 913d 0485 a83d
00000220: 3ca6 86bc 6958 f93c 53d5 f13c 803f 993c
00000230: be04 b23d 7922 7b3d bbcd 46bb e0c4 7f3d
00000240: 2997 96bd 0dc0 bbbc 3f3b 27bd 3483 973c
00000250: d73e a7bd 737c 06bd 46d7 a73c 3877 5c3d
00000260: f0cd 86bd 5e2a 993d 7141 ba3c 5cec 82bc
00000270: 14a3 a53d 16a0 88bc 334c 843d 0079 ab3d
00000280: 935c 9a3d 8a39 dd3b fb87 4a3d 2f64 de3b
00000290: a999 bc3c f05e 6a3d 2016 05bd 47cd 3dbd
000002a0: 808a 27bc ce42 a93d 6e95 1e3d ce28 943d
000002b0: 2710 bc3d a08e 58bd d23b 8b3c 3d17 3abd
000002c0: f7c7 4ebd 7fc9 8c3d 567a be3c 9240 80bd
000002d0: 710e 2cbd 6238 9dbc 31c8 9c3d 4483 44bd
000002e0: 847e aabd bf48 473d 2b3e 7f3d 8935 7ebd
000002f0: 5a7b a63d 5f78 883c 47ff 47bd 50c2 bb3d
00000300: 9f30 92bd d107 8bb7 b7e6 2cbd df85 90bc
00000310: dbce 9e3d a6bd 5d3d a2fc 88bd ca9d 8dbc
00000320: ef67 a13b 5449 a83c d483 9f3d 44e2 9b3d
00000330: 5098 923d 998e 90bc d01d 81bc 5906 a0bd
00000340: 4d6d a9bc 1ccd 713d a5aa 90bd 5600 f93c
00000350: 1e4c 1fba 66b9 5dbd b592 0dbd c44d 473d
00000360: d24f 81bc d0ed e1bb 9716 29bd ca0d 14bd
00000370: 5fd4 853d 7014 7ebc 77e8 45bc 2c50 863b
00000380: 2493 77ba 74b2 0cbc 22e6 a23d 6c5c 8a3d
00000390: 29ed 903d 9395 9b3d 664b e33c c3d0 ba3d
000003a0: 9c0e 2fbc 412b abbd 67ee 90bc 1a50 8ebb
000003b0: 8e8e ae3d 9c7b f4bc 3b18 28bd 313d 80bd
000003c0: 4687 c9bd 9573 95bc 2baf 543d fd91 93bd
000003d0: c584 63bd 6c80 8abd 4e81 233d 4a25 3b3d
000003e0: 2682 9c3d 8df3 4abd fccb c6bc 62fe 82bc
000003f0: 9703 663d 792c d3bc 560f 513d 5fee 8c3d
-0.009789174 0.044864547 -0.025869166 0.057214346 0.0060281316 -0.003358594 -0.07516966 -0.07379015
0.05072945 0.0650328 -0.0051392675 0.023896215 0.018663386 0.01732409 0.051067196 -0.038243905
0.04952372 0.08170779 0.08768288 0.07354983 -0.045380134 0.095169835 -0.03216124 0.07760798
-0.017501611 -0.08693468 0.06507953 -0.036130577 0.057090748 -0.016950378 0.025200302 0.07870624
-0.03938671 -0.042473912 0.05837541 -0.08808965 -0.010424248 0.045683105 0.035819016 -0.007519273
0.056459617 -0.07987439 0.02221856 0.07160945 -0.073879585 0.049576752 -0.028135642 0.030554188
0.06882282 0.03178722 0.07667756 -0.08414823 0.025982656 -0.016177466 -0.07345923 0.06322773
0.025450872 0.0005076116 -0.04594319 0.09184214 0.042887192 -0.012294489 -0.013644195 -0.04839089
-0.06319892 -0.061095145 0.01621888 -0.07859426 -0.042358197 -0.01755247 -0.02372215 -0.05756585
-0.05465002 0.052912854 -0.019792512 0.040836055 0.028232753 0.048147384 0.0815375 -0.06882561
-0.07400967 -0.058884796 0.04273429 0.01833959 -0.02198694 0.028191408 -0.027727967 0.090417296
0.07018039 0.022391036 0.0049551176 0.07221218 0.037327245 0.037712518 0.01460364 0.01083458
-0.05098003 0.009812177 -0.07566101 0.0073574856 -0.038944505 0.05631444 -0.04562997 -0.037738435
0.077907 -0.039606795 -0.0715368 0.07709825 0.04297746 0.0029331998 -0.022440532 0.04258298
0.05484823 0.02081676 0.04035334 -0.04848484 -0.04599449 0.06889628 0.062672526 -0.059645336
0.06102589 0.049513895 0.009806923 0.053252745 -0.040516898 0.0289391 0.044366345 -0.05318701
-0.008598514 -0.0024903307 0.105501406 -0.016155709 0.023613276 0.08084912 0.0709702 0.08228496
-0.016436689 0.030437665 0.029520666 0.018707037 0.08692311 0.061312173 -0.0030335027 0.062443614
-0.0735305 -0.022918725 -0.040827986 0.01849518 -0.081662826 -0.032833528 0.020488393 0.053824633
-0.06582248 0.07478784 0.022736283 -0.015981846 0.08087745 -0.016677897 0.06459846 0.08372688
0.075371884 0.006751244 0.049446087 0.006786845 0.02302249 0.057219446 -0.032491803 -0.046338346
-0.010225892 0.08264695 0.038716726 0.072343454 0.09182768 -0.052870393 0.016996298 -0.045432318
-0.05048367 0.0687437 0.023251694 -0.06262316 -0.04200596 -0.019191924 0.07655371 -0.047976747
-0.08324912 0.04865336 0.062315147 -0.062062774 0.08128996 0.01665896 -0.048827436 0.091679215
-0.0713818 -1.6573731e-05 -0.042212214 -0.01764196 0.07754298 0.05413594 -0.06688811 -0.017287154
0.00492572 0.020542778 0.07788816 0.07611516 0.071579576 -0.01764612 -0.015761286 -0.07813711
-0.020682001 0.0590335 -0.07063798 0.030395668 -0.0006076711 -0.054131888 -0.03456374 0.048658147
-0.015785132 -0.0068948045 -0.04128131 -0.036145963 0.06534647 -0.015507802 -0.01207935 0.0040989127
-0.0009444228 -0.008587468 0.079540506 0.06755909 0.07076485 0.075968884 0.027745914 0.091218494
-0.0106846355 -0.083578594 -0.017691804 -0.004343045 0.08523284 -0.029844098 -0.041038733 -0.06261671
-0.098402545 -0.01824359 0.051924866 -0.072055794 -0.05554654 -0.06762776 0.039918236 0.04568986
0.07642011 -0.049548674 -0.02426719 -0.01599044 0.056155767 -0.025778042 0.051040016 0.06881403

encoder.4.block.1.bias f4 [40]
00000000: 0441 6e3a 1794 0e3a 73f6 26bb 3f21 283b
00000010: 73ee 3cba bc75 253b 9663 16bb 5720 923a
00000020: ae0f efb8 31d0 5ab9 2134 c439 54ea 9c3a
00000030: be63 14ba 904e da3a 9cbe 443a d304 cf3a
00000040: a0cf 993a 2785 62b8 b862 a23a 9fdc c6ba
00000050: c3e9 abba 9f3b 863a 0e0d 38ba 0447 f5b9
00000060: 519f 213b f970 d138 abf7 80ba 3120 d039
00000070: dbfd 18bb 3474 4e39 8b6f 2539 0a31 4c3a
00000080: c845 a539 8d8b 853a 8fd3 1dbb 3b9c 1b3a
00000090: 19f6 b439 be7c 7eb9 3bd3 11ba c410 1037
0.00090886676 0.0005438937 -0.0025476485 0.0025654582 -0.00072071626 0.0025247177 -0.0022947541 0.0011148554
-0.00011399329 -0.00020867657 0.00037422872 0.0011971691 -0.00056606147 0.0016655494 0.00075052097 0.0015794284
0.0011734851 -5.4006607e-05 0.001238904 -0.0015171951 -0.0013115931 0.0010241157 -0.0007020988 -0.00046782952
0.002466161 9.9869394e-05 -0.0009839436 0.00039696836 -0.002334467 0.0001968898 0.00015777179 0.000778929
0.00031523244 0.0010188684 -0.0024082398 0.0005936061 0.00034515632 -0.00024269798 -0.0005562787 8.586972e-06

encoder.4.block.2.weight f4 [40]
00000000: d595 803f 18aa 7e3f 13a7 7d3f 2aaa 803f
00000010: 29ea 7c3f e741 803f 4632 7e3f 78e5 803f
00000020: 2440 7f3f 20d8 7d3f e059 843f 581e 7f3f
00000030: 251b 7e3f 08aa 803f a7fa 803f 8477 7d3f
00000040: 26a3 7b3f 189e 803f 31a4 7e3f 5288 803f
00000050: bdb0 7f3f cbad 7f3f 601b 7e3f 8ae1 7f3f
00000060: 2aa8 7f3f d4bd 7f3f 66f3 803f eafb 803f
00000070: 83a1 793f 71e0 7f3f 7d07 7e3f acb2 803f
00000080: 1f3d 813f 7a04 803f 859d 7d3f 34eb 7d3f
00000090: b3f5 7f3f db23 813f ad15 7e3f f90e 813f
1.0045725 0.9947829 0.9908306 1.005193 0.987948 1.0020112 0.9929546 1.0070028
0.99707246 0.99157906 1.0339928 0.99655676 0.9926017 1.005189 1.0076493 0.9901049
0.9829582 1.0048246 0.99469286 1.0041602 0.99879056 0.9987456 0.9926052 0.9995352
0.99865973 0.9989903 1.0074279 1.0076878 0.9751207 0.99951845 0.99230176 1.0054526
1.0096778 1.0001366 0.9906848 0.99187016 0.9998428 1.0089067 0.99251825 1.0082694

encoder.4.block.2.bias f4 [40]
00000000: dff5 4e3b 1fcb 75ba 7998 75bb 938f ed3b
00000010: 48a3 653a 59a6 c9ba 0d32 cebb 8cde 863c
00000020: 3a0b 313b 9fe7 08bc b3d1 123d a65a af3b
00000030: 488b 07bc 54ba 083c 0ec2 d23c cfe7 ad3a
00000040: 58bd 153a b13d 743b 2d21 b2bb 7537 0c3c
00000050: a225 fb3a 21c4 233b 5525 c5bb 04ef 9d3b
00000060: 8296 3d3b 9a1d 85ba 4e00 ba3b 358b 253c
00000070: 0f0c 81bc 139a da3b 46cf 083a 2f52 ae3b
00000080: 0463 ca3b 548a 333b daef 2e3b a587 e13b
00000090: e410 333c f3fe 9f3b 89c4 213a 16e7 3f3c
0.0031579656 -0.00093762757 -0.0037474914 0.0072497814 0.00087599875 -0.0015384658 -0.0062925876 0.01646354
0.0027014748 -0.008356004 0.035844516 0.0053513823 -0.008272953 0.008345205 0.025727298 0.0013267937
0.00057121133 0.0037268216 -0.005436084 0.008558144 0.0019160996 0.0024988728 -0.006016413 0.0048197526
0.002892882 -0.0010155917 0.005676306 0.01010399 -0.01575282 0.006671199 0.00052188744 0.0053198556
0.0061763544 0.0027395682 0.0026693256 0.006882625 0.01092932 0.0048826872 0.00061709486 0.01171281

encoder.4.block.2.running_mean f4 [40]
00000000: c02d a53e 0cf2 683e 13a6 89b9 994f 743e
00000010: 4a7e 7d3d c66f 27be 1941 1f3e 58ac 4bbe
00000020: 94e6 123d 8329 0f3e 6b34 4e3e efb1 09be
00000030: f86b 1cbf 281f 613e 8f0a 883e 12c5 a23e
00000040: fbcb 34be df3d cd3e 68f0 f6be b23e df3e
00000050: 5b1f a2be fe9c 643e eb8d d4be 05a4 fabe
00000060: f393 563e 2ed7 2bbe 3296 963e 0c32 f23d
00000070: 0608 af3c 226f ab3d befa 3d3d 133f db3d
00000080: 5e42 493e 9a03 ca3e 4516 c0be 2200 4bbd
00000090: 5a20 e23e ba47 8c3e 1143 88be af52 7a3e
0.32261467 0.22748584 -0.0002625441 0.23858489 0.061888017 -0.16351232 0.15552177 -0.19889963
0.035864428 0.13980679 0.20137183 -0.13446783 -0.6110225 0.21984541 0.26570556 0.31790978
-0.17655937 0.40086266 -0.4823029 0.4360252 -0.31664547 0.22325513 -0.41514525 -0.48953262
0.20954876 -0.16781303 0.29411465 0.11825952 0.02136613 0.08370806 0.046381705 0.1070539
0.19654223 0.39455873 -0.3751699 -0.049560674 0.44165307 0.27398473 -0.26613668 0.24445604

encoder.4.block.2.running_var f4 [40]
00000000: b5c0 a83e c45d 313e dd37 873e 7c57 4c3e
00000010: c34c 0a3e 5655 bc3e 0fca 763e 78c9 833e
00000020: 619d 4c3e 7ba0 773e 5158 2a3e a749 4a3e
00000030: e2b3 bd3e d41f 633e f6ae 583e b083 523e
00000040: 94c4 843e 40fe 833e 3629 9c3e e795 3c3e
00000050: 38a4 863e 4563 553e f44a 9b3e 5170 b03e
00000060: 214f 2c3e 08ab 483e ae23 9d3e bf6c 513e
00000070: 5cfb fb3d 1c91 813e 495e 2d3e 851b 7f3e
00000080: 1723 7e3e 6aa7 ce3e d0db 2c3e b63c 233e
00000090: c2c5 403e bded 983e b45a 1e3e a236 ae3e
0.32959524 0.17320925 0.26409808 0.19955248 0.13505845 0.36783856 0.24100517 0.25739646
0.1998191 0.24182312 0.16635253 0.19754659 0.37051302 0.2218011 0.21160492 0.20558047
0.25931227 0.25779915 0.3050019 0.18416558 0.26297164 0.2083865 0.30330622 0.3446069
0.1682706 0.19596493 0.30691284 0.2045164 0.12303802 0.25306022 0.16930498 0.24912842
0.24818073 0.40362102 0.16880727 0.15941128 0.18825439 0.2986888 0.15464288 0.34026057

encoder.4.block.4.weight f4 [40, 40, 1, 1]
00000000: 97ad 37bc 24e1 2b3e 6b01 7a3d 0dcd 5bbe
00000010: 9822 87be c990 213e 6d96 19be 8050 84be
00000020: 2040 b9bd 8031 82bd 0406 b03c 0916 893e
00000030: 7740 0dbe bf6b 06be c6d0 b23d 096e f7bd
00000040: f6c6 853e 5d2b 04be 1c1e bb3d b808 3bbc
00000050: abda 29bd e11c e33c dca1 fb3d cdc9 d7bd
00000060: 3a8a ab3c 1ec2 583e 93bb 4cbd 4a34 b13b
00000070: b7ce 24be c1af 3f3e 6b4a 703e f500 e73d
00000080: 56d8 1ebe f059 f9bd 7def 083e 6607 383e
00000090: 92d1 eabd 7ff3 653d 3391 a6bd c795 1cbe
000000a0: 1c47 aa3a 483e 76be 34d1 51be 8398 973b
000000b0: 32f2 4bbd 8e77 e73d e519 aebd ceac 55be
000000c0: 4d49 17bd 33ce 7d3e 7dad e53c 7191 5bbe
000000d0: f28f 813e 24d7 e53d cf80 1b3e 0828 a9bd
000000e0: c2cc 20be 49b0 3c3c 2fb5 c33d 8a21 62be
000000f0: 60e7 503d ad04 d53d 35e9 67be 0540 efbd
00000100: 5465 08be 5380 66be 43b1 85be cd5e 8dbc
00000110: d8de e7bc 7885 e73d 0d64 8cbc 6b4b 003d
00000120: b1a9 7abc 0bc8 3c3e df1d da3d 6467 b3bd
00000130: 6a96 c73d bdee 583e bbce 7ebe f6ed 693e
00000140: fd0d 3c3d 35bf 6d3e 458b 1f3e 936d 7fbe
00000150: 317d 463d b943 5c3e ac33 3abe 6f3f 033e
00000160: d934 d5bc 0746 70bd f173 58be eff7 8ebe
00000170: 6eb9 893d ce7f 80be 351a 50be ec0f 953c
00000180: 3ee8 5b3e ac00 d33d 11e9 4fbe 760f 1d3e
00000190: 4b1f 07be 1e87 59be d871 46be 6a5c e13d
000001a0: cc50 c1bd a7f8 6e3e cd61 0e3e 01ac 5d3e
000001b0: 21ab 063e 10ce 813e 2c4b 87ba 4ccb 283e
000001c0: f648 273e 71c2 373e 2c9f 563e 5d31 0d3e
000001d0: 0a2d 2bbe 36cd 9bbd 11fd bbbd 4478 43be
000001e0: 2832 1abe 5fa0 7dbe d014 79be f6f5 08be
000001f0: 97db c63d 6058 c33d 03ae 3bbe 13b8 ac3d
00000200: 11bd 90be e9a7 31be 1680 ae3c 4112 82be
00000210: 6f55 1d3e 5456 89be 3fbf f43c 26fe 283e
00000220: 301f cebd 069f 0cbe 9f5d 8abe 2e01 8dbd
00000230: 2fd7 25bb 9bf2 4bbe fd52 ffbc b995 88bc
00000240: b8f6 01bd d7f1 6f3e f20a 7cbe 0a97 683e
00000250: 68de 71be 9e09 663e 8d30 90bd 7234 71be
00000260: 90da 13be 4291 303d 957d c2bd 7a14 1b3e
00000270: b4ae 3abe c3f9 5ebe bbd8 d2bc 7973 703e
00000280: 00b4 6fbd 69ec 7ebe c33d f43d 8316 7b3e
00000290: 5f8f 343d b229 2bbe eda4 61be b9c9 833e
000002a0: db22 b1bc c9e7 fa3c 88d4 82be 07b8 3d3e
000002b0: bcd1 bd3d fdf8 3f3d c4fe 27be 5f9f 623e
000002c0: 06d5 e5bd 00cd 9e3c 1b72 e7bd 2e0c 843e
000002d0: ed5f 5a3e e9e0 503e 6f6c aa3d 6da6 cabd
000002e0: 8f7b 7b3a c54b 05bd a11d 263e 4930 b3bd
000002f0: a60c 833c ae14 6fbc b9db 96bd cae6 81be
00000300: 12aa 34be f4f5 913d 55a7 753e 655b 1dbe
00000310: cb65 203e 2803 12be b9bb b0bd fac2 83be
00000320: ade8 bc3d 334d 2cbe 2528 583e 882d 6e3d
00000330: 0555 18be 8d40 803e 8bdc 3bbe 0c9d e03d
00000340: bafe 5dbe 6e46 39bd 6334 3f3e d46f ea3d
00000350: 9fe2 1cbe dfaf 66be fd9b a53d 97f4 86bd
00000360: 3360 703e 6ba9 123d 2355 0b3e 4e27 85bd
00000370: 0500 223d eec2 46be 65c4 6bbe f577 743e
00000380: dfb7 39be 2291 4d3e 1caa bcbc dd1b 8bbe
00000390: cad3 1abe 159b f13d f012 b73c 88ac de3d
000003a0: ae05 ec3d f58b dabd fdcd 423e ccb9 63bd
000003b0: ffd2 ef3d 03d3 c2bd 04c4 26be 0e02 033c
000003c0: 4c5c 5bbe e8d1 693e 3d76 7cbe 6f0a 84be
000003d0: baff 75be 9f7a 09be 6c67 0e3e f6e5 c73c
000003e0: 49cc 94bc 0ce2 823c 111c 62be 15e7 66be
000003f0: 4198 84be 7d3f a0bd fc7e e9bc 34be 213e
-0.011210821 0.16785103 0.06103651 -0.2146494 -0.2639358 0.15777887 -0.14998789 -0.25842667
-0.09045434 -0.063570976 0.021487243 0.26774624 -0.13794123 -0.1312704 0.087312266 -0.120815344
0.26128358 -0.12907167 0.09136602 -0.011415653 -0.041468304 0.027723731 0.122867316 -0.10536537
0.020939935 0.211678 -0.049983572 0.0054078447 -0.1609448 0.18719389 0.23465888 0.112794794
-0.15512213 -0.12175357 0.13372608 0.17971572 -0.114657536 0.05614042 -0.08133163 -0.1529151
0.0012991163 -0.24047196 -0.20489961 0.004626335 -0.049791522 0.113021 -0.08501033 -0.20866701
-0.03693514 0.2478569 0.028036827 -0.214422 0.25305134 0.112226754 0.15185855 -0.082595885
-0.15703109 0.011516639 0.095560424 -0.22083107 0.051001906 0.104012825 -0.22647555 -0.11682133
-0.13319904 -0.2250989 -0.26111802 -0.017257119 -0.028304502 0.11304754 -0.017137552 0.031321924
-0.015299247 0.18435685 0.10650229 -0.087599546 0.09745486 0.21184821 -0.24883549 0.22844681
0.045911778 0.23217471 0.15580471 -0.24944143 0.048459236 0.21510209 -0.18183774 0.12817167
-0.026026176 -0.058660533 -0.21137978 -0.27923533 0.06724821 -0.25097507 -0.20322497 0.018196069
0.21475312 0.103028625 -0.20303752 0.15337929 -0.13195531 -0.2124295 -0.19379365 0.11003955
-0.09439239 0.23337041 0.13904496 0.21647646 0.13151218 0.25352526 -0.0010322086 0.16483802
0.16336426 0.17945267 0.20959157 0.13788362 -0.167164 -0.076075 -0.09179128 -0.19088846
-0.15058196 -0.24768208 -0.24324346 -0.13375077 0.09709852 0.095383406 -0.18328099 0.08433547
-0.28269246 -0.17349209 0.02130131 -0.25404552 0.15364622 -0.26823676 0.02987635 0.165032
-0.10064542 -0.13732538 -0.27024552 -0.06884991 -0.0025305261 -0.19916765 -0.031167502 -0.016672956
-0.03172943 0.23432098 -0.2461355 0.22713867 -0.23619998 0.22464606 -0.0704051 -0.23555163
-0.14438844 0.04310728 -0.09496609 0.1514453 -0.18230706 -0.21774964 -0.02573811 0.2348155
-0.05852127 -0.24894871 0.119258426 0.24520306 0.04408204 -0.16715124 -0.2203557 0.2573984
-0.021623066 0.030628102 -0.25552773 0.18527232 0.09268519 0.046868313 -0.16405779 0.22131108
-0.112222716 0.019384861 -0.11301061 0.25790542 0.21325655 0.20398296 0.08321463 -0.098950244
0.0009593302 -0.032542963 0.1622224 -0.08749444 0.015997242 -0.014592333 -0.073661275 -0.2537139
-0.17643002 0.0712699 0.23989613 -0.15366895 0.15663831 -0.14259017 -0.08629555 -0.25734693
0.09224067 -0.16826324 0.21109064 0.05814889 -0.14876182 0.25049248 -0.18345849 0.10967454
-0.21679202 -0.045233183 0.18672328 0.11447111 -0.15320824 -0.22528027 0.08086393 -0.065896206
0.23474197 0.0358061 0.13606696 -0.065016374 0.0395508 -0.19410297 -0.23024137 0.23873885
-0.18136548 0.20074895 -0.023030333 -0.27169695 -0.15119854 0.11797158 0.022347897 0.108727515
0.11524521 -0.10671226 0.19023891 -0.05559711 0.11710166 -0.095129035 -0.16285712 0.007996095
-0.21421927 0.22833979 -0.2465448 -0.2578921 -0.24023333 -0.13425682 0.1390664 0.024401646
-0.018163817 0.015976928 -0.22081019 -0.22549088 -0.2589741 -0.078246094 -0.028502934 0.15795213

encoder.4.block.4.bias f4 [40]
00000000: 6e77 68bb 17df 3539 127e 05ba bd08 e5bb
00000010: 654c 9abb f257 c4ba d06f 13bb 2e2c e4b9
00000020: bd12 a0ba 18d9 94bb d414 1bbb 94d3 4636
00000030: b9e3 ffba 6775 8cba 0391 67ba 67b9 a4ba
00000040: a2f4 8ebb 9d7e 6fbb e302 bcba 921d 67ba
00000050: 2674 5cba 6be7 28bb b2c1 143b c139 a63a
00000060: 4dfd 4dba 0b78 80bb e310 12bb 4877 0e3a
00000070: fdf6 48bb cff6 17bb ee72 fdba 8d47 87ba
00000080: 6441 9b38 2c7b 0abb a754 ccba 787b d4b8
00000090: 1802 81ba dde9 e4b9 ddf1 203b 6a23 073a
-0.0035471576 0.00017344613 -0.00050923333 -0.006989567 -0.004708814 -0.0014979823 -0.0022497065 -0.00043520465
-0.0012212616 -0.004542481 -0.0023663538 2.9627454e-06 -0.0019522823 -0.0010716141 -0.0008833559 -0.0012567461
-0.0043626586 -0.0036543973 -0.0014344122 -0.0008816357 -0.00084096415 -0.0025772701 0.002269846 0.0012682007
-0.0007857874 -0.0039205602 -0.0022287897 0.00054346444 -0.0030664795 -0.002318788 -0.001933662 -0.0010321006
7.403156e-05 -0.0021130545 -0.0015589193 -0.000101319456 -0.0009842543 -0.0004366179 0.0024558224 0.00051551184

encoder.4.block.5.weight f4 [40]
00000000: f47e 7b3f dc3e 7e3f 2da6 7f3f 96a7 793f
00000010: 7cb6 7e3f a2de 7d3f 2e5d 7f3f f9f0 7c3f
00000020: e5cf 793f f028 7a3f 0b89 7e3f 84ef 7b3f
00000030: 06f2 7e3f 8aa6 7d3f a40f 7c3f 5914 7c3f
00000040: 428b 7b3f d4e4 713f ef17 7e3f ffac 7d3f
00000050: 7e7f 7d3f 5f82 783f 2511 7e3f 2aa3 7e3f
00000060: e0e1 7c3f b652 783f 15aa 7e3f 58f4 7c3f
00000070: 56ef 7d3f 3dc9 7b3f b3bf 7a3f 7753 803f
00000080: f76d 793f c137 803f bef0 7a3f 1e13 7a3f
00000090: 109e 783f 7ecb 753f c230 7b3f 218f 7d3f
0.9824059 0.99314666 0.9986294 0.9752134 0.994972 0.99167836 0.99751556 0.98805195
0.97582847 0.97718716 0.9942786 0.98412347 0.9958805 0.99082243 0.98461366 0.9846855
0.98259366 0.9448979 0.9925527 0.99092096 0.9902266 0.9707393 0.9924491 0.9946772
0.9878216 0.97001207 0.99478275 0.9881034 0.9919332 0.9835394 0.9794876 1.0025471
0.9743342 1.0017015 0.98023593 0.9768542 0.97116184 0.9601363 0.98121274 0.9904652

encoder.4.block.5.bias f4 [40]
00000000: b950 a8bc 69d4 9ebb 1589 58bb f7ff b1bc
00000010: f937 06bd 10c6 c3bc 627b 5fbc 6689 59bc
00000020: ad8b 9abc ecf3 b3bc 633e 4fbc aae0 e4bc
00000030: 771d e7bc 1a78 a3bc 685f c6bc 68a3 7cbc
00000040: 033d c2bc 18db 07bd 6a2b f8bc 0836 a9bc
00000050: 62a9 83bc c6e0 cbbc 7705 87bb a5c0 aabb
00000060: fb43 2cbc 9e94 13bd c84e 94bc bb96 bdbc
00000070: 42a4 7cbc 24dc 35bc 0089 a8bc 1ad4 98bc
00000080: 0634 16bd 55fd 06bd da71 f8bc 7f6d 03bd
00000090: d9d4 c8bc 60bb 05bd 585c 35bc aae9 debb
-0.020546304 -0.0048470986 -0.0033040692 -0.021728499 -0.032768223 -0.023898154 -0.013640257 -0.013277387
-0.01886543 -0.021966897 -0.0126491515 -0.02793916 -0.028212292 -0.01995473 -0.024215415 -0.015419818
-0.023710733 -0.03316793 -0.030294139 -0.020655647 -0.016071979 -0.024887454 -0.0041205245 -0.0052109533
-0.010514255 -0.036030404 -0.018103972 -0.023143163 -0.0154200215 -0.011099849 -0.02057314 -0.018655825
-0.036670707 -0.03295644 -0.030327726 -0.032086845 -0.024515556 -0.032649398 -0.01106938 -0.0068027573

encoder.4.block.5.running_mean f4 [40]
00000000: 1613 acbd 09f5 83be b9be 143e f997 73bf
00000010: a305 80bc 2842 abbc 5f1c 17bf c650 afbe
00000020: 1ba5 09bf aa96 383d 587b bfbd f37a 5a3f
00000030: 505a 993d 7ca3 a43e 70c4 163f ff54 dbbe
00000040: 2e20 f2bd ec69 f03d 1159 6abe 7b5d a7be
00000050: c0d7 d43e 3b84 a8be e251 823d 4837 a23e
00000060: 661e d73c 60d8 c2be fe02 623e eb24 5b3e
00000070: 08cb 12bf 682a efbd 6e13 883d e509 26be
00000080: c106 063f 4d0f 91be bd39 8bbd f884 ef3d
00000090: 9622 2e3f 4873 283e 162e 903e f340 9b3e
-0.08402078 -0.25772884 0.1452588 -0.95153767 -0.015627688 -0.02090557 -0.59027666 -0.34241313
-0.53767556 0.04506556 -0.09349698 0.85343856 0.07487929 0.3215598 0.5889349 -0.42838284
-0.11822544 0.11738953 -0.22885539 -0.32688507 0.41570854 -0.32913384 0.06363274 0.316828
0.026259612 -0.38055706 0.22071454 0.21400802 -0.5734105 -0.1167801 0.06644331 -0.16214712
0.52354056 -0.28331986 -0.06798122 0.11695284 0.68021524 0.16450226 0.2816016 0.3032299

encoder.4.block.5.running_var f4 [40]
00000000: 59a7 e23e 79e1 9c3e 8e01 0f3f 5036 5e3f
00000010: 988c d83e 13f5 073f f6a7 123f ef20 e43e
00000020: 1982 183f 8240 7f3e 121b ae3e 68b2 a03e
00000030: ab57 953e f2ba b23e 4787 f63e 69d5 dd3e
00000040: 8486 cb3e 457f 333f 9b63 1a3f 95ff 873e
00000050: a267 d13e 35e7 ce3e 6642 093f 6da8 b23e
00000060: e02b 603e a247 873f 4e4b d73e 173d 3d3f
00000070: 635d e03e d58d 6a3e 9e99 ed3e 8421 be3e
00000080: 731a 093f 06c4 c23e b5cd 933e 2d14 bf3e
00000090: 7504 d03e 16a8 e33e 6b58 883e 82bf b83e
0.442683 0.30640772 0.5586175 0.86801624 0.42294765 0.5310833 0.5728754 0.44556376
0.59573513 0.24926952 0.34005028 0.31386113 0.29168448 0.34908253 0.48150083 0.43326882
0.39751065 0.7011607 0.60308236 0.2656218 0.40899378 0.40410772 0.5361694 0.34894124
0.21891737 1.0568736 0.4204964 0.7392134 0.43821248 0.22905667 0.46406263 0.37134945
0.53555983 0.3804018 0.2886788 0.3732008 0.406284 0.44464177 0.26629958 0.3608361

encoder.5.block.1.weight f4 [40, 40, 3, 3]
00000000: b84a 0bbd 42fe 3cbc da17 b0bd ab1d 663d
00000010: de28 b5bd ba1e 2b3d eba7 80bd d145 a5bd
00000020: 36af 1e3d d209 adbd c15d 473c d5f6 85bc
00000030: 8d2a 613c 656c bdbd db33 c13b ffd9 8e3d
00000040: 45e9 81bb ebf6 aa3d 60ad 2c3d d05a 653d
00000050: 7ee7 033d 91d2 933b 2ecd 0c3c ea9a 0cbd
00000060: 4572 95bd 0522 e3bc a325 30bc 26dc 173d
00000070: 0148 ffbc 765a a9bd aa61 eebc 9091 4bbd
00000080: eb90 1dbd b91b 703c c406 073c b978 67bc
00000090: d10f d33b 3073 a03b 922b 7c3d 50e8 983c
000000a0: d843 813d bc2b 7ebd 797f 15bc 47b9 1e3d
000000b0: 5172 a8bd 8cb3 8ebd 49a9 7abd 8c1a 273a
000000c0: 3a02 abbd 8efb 8eba 1ce0 8cbd b405 90bc
000000d0: d619 9c3d 34e3 1dbc 4692 86bd 46f8 65bd
000000e0: 0b4e a63d bace 0bbc 1f60 e5ba c0c2 9dbd
000000f0: 9834 a2bc 9499 bebd 3d42 32bd 48c7 51bd
00000100: e8e6 7bbc c90e 953d b8be 223c 1251 103d
00000110: 6ac5 8a3d 0846 2e3d 8b8a a2bb c989 a73d
00000120: 8b74 943d 11e1 c2bd d69d 483d 4b9e 1e3d
00000130: f8f3 123d 48bf a43d 1ec9 29bb 8083 36bd
00000140: bf8a 3fbc d68a 9dbd bb57 893d 2a83 803d
00000150: 2244 30bd e843 e4bb c2ba 5f3d 9a2b 4e3d
00000160: 2796 04bd b7da aa3d c787 34bc be6e 263d
00000170: ac11 7dbd 2a00 b23d 99d0 18bd cfc9 93bd
00000180: e592 e33c 11e5 473d a7b5 5ebc c5cd b13d
00000190: a019 073d f7aa 94bd 8d4d 8b3c a8fe 13bc
000001a0: f411 97bc eff1 4d3d d367 cdbc 56b5 4d3c
000001b0: 27e4 c73c 9297 d73c c19d 5c3d 7ac6 3fbd
000001c0: 1552 62bd c58c 73bd 25b3 353d eb83 6abd
000001d0: 04f8 303d 5bc7 af3d 969b 2ebd 2cad 9b3c
000001e0: a0ad 5ebd 6dd5 7f3b 38b4 10bd a2b1 70bd
000001f0: 215d 1a3d 8e38 873d 080a cd3b c02f 973b
00000200: 5cec 2bbc 49c1 8abd 4bd0 6f3c dcb3 113d
00000210: 3809 92bd f706 48bd 2559 bfbc fa7e b5bd
00000220: 3573 273d 90b1 8fbd 5a8e c0bc a833 b93c
00000230: a39f dabc 36dd 3b3d 6ea7 623d e469 853d
00000240: a2c2 6bbd d746 733d 174d 91bd d197 46bd
00000250: 8b80 633d 2765 65bd bc30 6cbd 5119 6b3d
00000260: 9a5a a83c c45b be3d 57b1 093d 259f adbd
00000270: 9c98 613d 46e6 703d 7d9c 3abc bbce 06bc
00000280: 5ffb 90bd 268c f53c abe3 e5bc 1193 863d
00000290: cfdd 003c 1c3b 9dbd ef0f 08bd 2861 26bd
000002a0: 3c33 2abd eabf d83c 7e2a 943d 27d7 7f3d
000002b0: d77d 8e3d cb6e 8bbc bbae 493d 3085 e93c
000002c0: 31af a8bc fee5 9a3d 4c9d fdbc 6b9c 37bb
000002d0: 45f7 243c edac 83bd 927c 6bbc 6d2c c4bc
000002e0: 3593 6b3d 47ee a1bd aa0b 9abd feb2 3fbd
000002f0: 57be 32bb 7d9f d03c 060f c5bc 2750 693c
00000300: a050 733d 9c30 b3bc 40ef 02bd ec17 863d
00000310: b5ea 5fbd 1fb0 5c3c 480b 2fbd 04c6 5e3d
00000320: d9d7 bbbd b971 8a3c 9d61 493c 5243 ad3c
00000330: 76cb 98bd 4b12 18bd 0155 25bd 1b9a dabc
00000340: 6ed3 30bd 4e7b 193d 9072 fab9 5e89 48bd
00000350: 5f3f ef3c c55e c33d defc 7d3c 2dbb 09bd
00000360: 4626 f63c 1494 953d 574f a7bd 633b 7abd
00000370: 0f7d 5e3d 8afb 963d 3081 983d 6b71 89bd
00000380: f1ca 633d 8a70 8e3d 3134 debc dcff ebbc
00000390: d5fc 5d3d 085f 1ebc f3e1 893c 5685 9d3d
000003a0: 47a7 5cbd 22d5 9e3c 827f 063d 74b9 9b3d
000003b0: ac2e b3bd 8935 f5ba 2cfc a9bd b730 25bd
000003c0: 7789 a33d 7414 7a3c bf01 76bb e463 0cbd
000003d0: 552c 7a3d 1aee 8dbb 6ea9 563c e92c dbbb
000003e0: cdc6 3b3d ba80 96bd 1490 843d b0b7 9b3d
000003f0: 4b71 b839 9cca b2bc 58d7 d4bb 5652 85bd
-0.034006804 -0.011535229 -0.08598299 0.056180637 -0.088456854 0.04177735 -0.06282028 -0.08069957
0.038741313 -0.08449139 0.012168349 -0.01635305 0.013743055 -0.0924919 0.005896074 0.06975173
-0.0039645755 0.08347877 0.04215753 0.05599481 0.03220319 0.0045111855 0.0085938405 -0.034327425
-0.07297186 -0.027726183 -0.010751161 0.037075184 -0.031162264 -0.08269207 -0.029099304 -0.049699366
-0.038468283 0.014655047 0.008241359 -0.014127904 0.0064410944 0.004896544 0.06156499 0.018665463
0.06311768 -0.062053427 -0.00912463 0.038750913 -0.08224929 -0.069678396 -0.0611966 0.00063745
-0.08350034 -0.0010908709 -0.06878683 -0.017580844 0.07622115 -0.009636689 -0.06570868 -0.056144975
0.08120354 -0.008533174 -0.001749996 -0.07703161 -0.01980047 -0.093066365 -0.0435202 -0.05121544
-0.015374877 0.07278211 0.009933166 0.035233565 0.06775935 0.042547256 -0.0049603633 0.08180577
0.07248791 -0.09515584 0.04897865 0.03872518 0.035877198 0.080442965 -0.0025907229 -0.044559002
-0.0116907945 -0.076924965 0.067061864 0.062750176 -0.043033727 -0.006966103 0.054621466 0.05033455
-0.03236976 0.08342498 -0.0110187 0.040632956 -0.06178443 0.086914375 -0.03730831 -0.07216226
0.027780006 0.04880244 -0.013593114 0.086818255 0.032983422 -0.072591715 0.017004753 -0.009032883
-0.018441178 0.050279554 -0.025073921 0.012555441 0.024400784 0.026317392 0.053861383 -0.04682014
-0.05525406 -0.05946042 0.0443603 -0.057254713 0.043205276 0.08582946 -0.042628847 0.019003473
-0.0543648 0.0039037124 -0.03532812 -0.058763154 0.03768647 0.06602584 0.0062572993 0.0046138465
-0.010493364 -0.067751475 0.014637063 0.035571918 -0.071306646 -0.048834767 -0.023357937 -0.088621095
0.040881354 -0.07016289 -0.023505379 0.02260764 -0.026687449 0.04586526 0.055335455 0.06514338
-0.057558663 0.05939373 -0.07094782 -0.048484627 0.05554251 -0.05600467 -0.057663664 0.05739719
0.020551015 0.09294847 0.03361639 -0.0847762 0.05507718 0.058813356 -0.011389849 -0.008227999
-0.07079195 0.029974055 -0.028062662 0.065710194 0.007865383 -0.0767729 -0.03321832 -0.04062
-0.041552767 0.0264587 0.07234667 0.062461045 0.06957596 -0.017020604 0.0492389 0.028505892
-0.02059135 0.07563399 -0.030958794 -0.0028016816 0.010068719 -0.06429467 -0.014372962 -0.023946965
0.057513434 -0.07906776 -0.07521756 -0.04680156 -0.0027274096 0.025466675 -0.024055015 0.014240301
0.059403062 -0.021873765 -0.031966448 0.065475315 -0.054667193 0.013469725 -0.042735368 0.05438806
-0.09172029 0.01689993 0.012291339 0.021150265 -0.07460682 -0.03712682 -0.04036427 -0.026684811
-0.043170385 0.03747111 -0.00047769072 -0.04895913 0.029205022 0.0953956 0.015502183 -0.03362577
0.030047547 0.07303634 -0.0816943 -0.06109179 0.054318484 0.07372196 0.074465156 -0.06711086
0.055613462 0.06955059 -0.027124496 -0.028808527 0.054196198 -0.009666212 0.016831374 0.076914474
-0.053870466 0.019388739 0.032836445 0.07603732 -0.08749136 -0.0018707971 -0.08300051 -0.04032966
0.07985204 0.0152636655 -0.0037537662 -0.03427495 0.061077435 -0.0043313624 0.013101919 -0.0066887033
0.045843888 -0.073487714 0.06472793 0.07603395 0.00035179625 -0.021825127 -0.0064953975 -0.06509845

encoder.5.block.1.bias f4 [40]
00000000: 7337 faba 0991 283b b822 633b ea14 41ba
00000010: 0e3f f939 6e49 be39 7c86 0e3b ec0f 89ba
00000020: 1ff5 c53a ef7d 0eba 051e 99b9 a216 19bb
00000030: 79cb 8ebb 2ca7 11ba 0867 55b8 123d 61b9
00000040: d295 973a 744c a5ba e5ad b2ba cd89 b13a
00000050: 3e9f 09ba 8cca 9e3a f080 c7ba bc63 a3b9
00000060: 6b64 b9b7 b178 e4ba 0d52 753a 99d5 c63a
00000070: e91d 7b3b bda0 a9b9 787d 973a 6141 213a
00000080: 3f17 9db9 94e9 9eba 305d 953a 7db3 823a
00000090: 4ebd 9739 efc2 313a c6dd d43a f385 36bb
-0.0019090011 0.0025721213 0.0034658145 -0.0007365482 0.0004753996 0.00036294333 0.002174764 -0.0010457016
0.0015102959 -0.00054356357 -0.000292048 -0.0023359437 -0.004357752 -0.00055562216 -5.0879113e-05 -0.00021480423
0.0011565036 -0.0012611286 -0.0013632147 0.0013545096 -0.0005249864 0.0012114807 -0.0015220921 -0.0003116409
-2.210048e-05 -0.0017430988 0.0009358235 0.0015169858 0.0038317388 -0.0003235395 0.0011557778 0.0006151405
-0.00029962693 -0.0012124055 0.001139557 0.0009971705 0.00028942007 0.00067810615 0.001624041 -0.0027850836

encoder.5.block.2.weight f4 [40]
00000000: 4649 7b3f 0179 7f3f c0c0 803f 92b6 803f
00000010: b8b0 803f 2405 823f ce7c 823f a178 7d3f
00000020: 6818 803f 203d 813f cba4 7e3f 1d34 803f
00000030: 90b8 7c3f 22ec 803f 5869 803f a23e 7c3f
00000040: f613 833f d566 7e3f 232f 7e3f 8134 7e3f
00000050: 91cf 7d3f 3932 813f 5a7b 7d3f b77c 803f
00000060: 6094 813f 7242 803f 8a37 7d3f 1ac3 803f
00000070: 9e24 803f 837c 813f 2893 7f3f a695 7e3f
00000080: 9cad 7c3f 8a04 7f3f bc73 7b3f 8906 813f
00000090: a1de 803f 69ac 7a3f 4238 803f df39 7c3f
0.9815868 0.9979401 1.0058823 1.0055716 1.005393 1.0157819 1.0194337 0.9901219
1.0007448 1.0096779 0.99470204 1.0015904 0.9871912 1.0072062 1.0032148 0.9853307
1.0240467 0.9937566 0.99290675 0.99298865 0.99144846 1.0093452 0.99016345 1.003806
1.0123405 1.0020278 0.9891287 1.005954 1.0011175 1.0116123 0.9983392 0.99447095
0.98702407 0.996163 0.9822347 1.0080119 1.0067941 0.9791933 1.0017169 0.98525804
